results/ppo/My Behavior/My Behavior-6690.pt (torch, 149303 bytes, 12 tensors)

network_body._body_endoder.seq_layers.0.weight f4 [128, 6]
000000 e2 94 c7 3e 56 6a 11 be ae 02 68 3d de 92 97 be
       0.38980776 -0.1420072 0.05664318 -0.29604238
000010 a2 07 b4 3d 79 02 01 3f b7 c9 fa 3d c2 67 74 3c
       0.08790518 0.503944 0.12245505 0.014917316
000020 9d 82 36 bf 13 5c 88 bb 96 3e 97 bc 7a 34 c0 be
       -0.7129305 -0.0041613667 -0.01846246 -0.37540036
000030 a5 06 dc bd a2 29 c2 bc 97 54 2e be 8f c6 6a bf
       -0.10743455 -0.023701493 -0.17024456 -0.91709226
000040 88 23 81 bd d2 6c 03 3f 0c ef 3b 3e fc 6d 26 3c
       -0.06305605 0.5133792 0.18352908 0.010158058
000050 a1 ea 03 3e fc 0d 92 3d 54 42 08 bf 02 37 43 bd
       0.12882473 0.071315736 -0.5322621 -0.04765988
000060 84 c9 1f 3e 7e 8d 11 3f 8c 79 90 be 89 0a 20 bf
       0.15604216 0.56856525 -0.28217733 -0.62516075
000070 db 4b 0a bf d8 e7 d5 be c4 be 14 be 9e d9 cf bd
       -0.54021996 -0.41778445 -0.14525896 -0.10148929
000080 89 eb ff 3d 76 9c 4f 3e 4a c9 a3 3f a3 70 1d bd
       0.12496097 0.20274529 1.2795804 -0.038437497
000090 ae f2 b2 bd fe 9d 1e bf 7d bc 4c be 4b 3e 37 3e
       -0.08737694 -0.61959827 -0.19993778 0.17894857
0000a0 9e b8 79 bf dd ca 24 3f 1f 9d 02 3e 86 2a 01 3e
       -0.9754733 0.64372045 0.1275525 0.12613878
0000b0 67 87 be 3e 49 2b cf be 98 63 b8 bd b8 f6 44 3e
       0.3721268 -0.4046271 -0.09003371 0.1923474
0000c0 8f c3 c3 3e f7 3e c5 be f2 50 35 be 81 a3 54 3e
       0.38235137 -0.385246 -0.1770666 0.20765497
0000d0 43 b8 97 3e f7 0a 22 bf 43 82 b7 3e 71 d3 da bd
       0.29632768 -0.6329798 0.3584157 -0.106848605
0000e0 4d 65 41 3f c1 51 31 be 16 64 b0 3e 4d ae 24 3e
       0.755452 -0.17316343 0.3445136 0.16082115
0000f0 b1 92 ad 3e a5 f3 0b bf 1e a7 08 3f 17 c5 94 be
       0.3390098 -0.5466865 0.5338 -0.29056618
000100 69 8b 28 3a 01 4a a4 3e 94 90 b5 3e 83 d8 c6 be
       0.0006429465 0.3208771 0.35461867 -0.3883706
000110 c3 be d1 bd 1a 9c 7e 3e 29 d5 97 bb c3 67 8e bd
       -0.10241463 0.24864236 -0.004633565 -0.06953385
000120 6e 2f 3d bd e6 c2 6b 3e 44 9a 24 3d 67 f3 49 be
       -0.04618781 0.23023567 0.04018618 -0.19721757
000130 0f 30 32 bf a8 46 ee bd d9 7f 7f 3e 72 3e 55 3f
       -0.6960458 -0.1163457 0.24951114 0.8329841
000140 c5 54 17 3d e0 6c ed 3e 8c 5c 1b 3d 98 3e 3c be
       0.036946077 0.46372128 0.037930056 -0.18383253
000150 76 c4 91 be 03 86 b1 3e 75 a1 e6 3e cd d4 66 bf
       -0.284702 0.34672555 0.45045057 -0.9016846
000160 64 1d 55 3f 67 12 4f 3e 12 89 21 3f 37 37 8d 3e
       0.8324797 0.20221864 0.6309978 0.27581188
000170 95 09 f8 3e 2d 7e 82 3e 63 1d db be 54 d6 8c be
       0.4844481 0.2548689 -0.42795858 -0.2750727
000180 4a 2c a3 be d2 87 7b be 6a 26 bf be 8e 9b de 3d
       -0.31869727 -0.2456353 -0.37333995 0.108695135
000190 8c 84 c2 3e ef 2e fe be d5 e8 ff 3e 3d 44 51 3e
       0.3799175 -0.49645182 0.49982324 0.20436187
0001a0 bc 74 b4 3e 28 a6 d6 3e c8 9b ce 3d 93 56 4a bb
       0.3524531 0.41923642 0.10088307 -0.0030874356
0001b0 c8 82 e8 be 2a 5d 10 3f d2 a1 ac 3e 95 b6 16 bf
       -0.45412278 0.5639216 0.3371721 -0.5887235
0001c0 65 a5 4a 3f 92 2f 7f 3e 01 08 1a 3f 59 b4 69 bd
       0.7915862 0.2492049 0.60168463 -0.05705676
0001d0 57 40 2e 3f 50 ee c5 bd 9b 73 b5 be 6a 70 26 bf
       0.68066925 -0.09664595 -0.35439762 -0.6501528
0001e0 fb af 2f 3f 87 61 12 3d e8 13 48 be 46 55 8e 3e
       0.686279 0.03573754 -0.19538844 0.27799433
0001f0 87 f5 e5 3e e3 f3 af be 2f 38 6e 3e 02 6e 14 bf
       0.44913885 -0.34365758 0.2326362 -0.5798036
000200 d5 62 d7 3c 49 d7 60 3f 92 56 b8 3e 5b 09 70 3e
       0.026292244 0.878285 0.36003548 0.23441069
000210 ac c7 9c be 96 79 57 3c a9 24 a4 be a1 be f3 bd
       -0.30621088 0.013151547 -0.3205922 -0.11901594
000220 65 1c 81 bf 06 ac a0 3b 20 d0 81 be 4d c8 c7 bd
       -1.008679 0.0049033193 -0.253541 -0.09755001
000230 c3 e7 d7 bd 2d c7 03 be 5b 58 a1 be 4c 65 d6 3d
       -0.10542252 -0.12868948 -0.31512722 0.104685396
000240 8d 37 c2 be d0 dd a0 3e 71 47 a1 be 8a 26 4f be
       -0.37933007 0.3141923 -0.31499818 -0.20229545
000250 52 70 b7 3d 1b c7 01 bf 0c 58 0d 3f 7d 1d 14 bf
       0.0895697 -0.50694436 0.55212474 -0.57857496
000260 46 84 c2 3e 50 41 94 be 24 8b 20 be e9 11 a2 3a
       0.37991542 -0.2895608 -0.15678078 0.0012364957
000270 62 f6 37 3e 8a 9b 98 be 1f 0f 4d 3f 2b 86 c9 bd
       0.17965081 -0.29806167 0.801012 -0.09840044
000280 1e 5d 69 3e d7 7d 9f 3e 20 19 0e 3f 21 4d ff be
       0.22789428 0.31150696 0.5550709 -0.49863532
000290 45 84 a2 be c4 5c 71 be 39 97 30 3f 38 94 af 3d
       -0.3174154 -0.23570544 0.6898075 0.08573192
0002a0 a1 49 ee 3e 5d cd 94 be 15 4d 1f bf 96 ff 6c bf
       0.4654055 -0.2906293 -0.6222699 -0.92577493
0002b0 f9 e2 fb bd 41 5f fc be ff 5c 33 be 25 45 86 be
       -0.12299151 -0.49291423 -0.17515944 -0.26224628
0002c0 c4 a3 90 3c 7a ee 61 3f f8 8b 88 3e ad 82 5a 3e
       0.017656215 0.8825451 0.26669288 0.21338911
0002d0 02 21 ab be b3 b4 24 bf 9e 88 98 be 9c a0 03 bd
       -0.3342362 -0.64338225 -0.2979173 -0.03213559
0002e0 60 1e 52 3f 3c 09 89 3e 3d 62 1e bf 60 c9 23 3e
       0.820776 0.26764858 -0.6186865 0.15994787
0002f0 40 b8 56 bd a3 ce c9 be 21 17 0f 3d ed 00 b0 3d
       -0.05242181 -0.39415464 0.034934167 0.085939266
000300 0c 8d 5e bd 7b 97 85 3f 57 b7 75 be d9 c3 d8 bd
       -0.05433373 1.0436853 -0.2399572 -0.1058423
000310 51 c7 46 be ca 7b 94 3e 2f ed 55 3e f7 2c f9 3e
       -0.1941197 0.29000694 0.2089126 0.48667118
000320 f8 1d fb 3e 88 6f 06 3f a0 8d 24 3f 6d f0 92 3e
       0.49046302 0.52513933 0.642786 0.28699055
000330 39 43 45 bf d6 1d d8 3d d8 8f 1a 3e b3 95 21 bf
       -0.770557 0.10552566 0.15093935 -0.6311905
000340 12 c1 b1 bc 3e fc 0e bc 38 73 f1 be f0 7e 82 bf
       -0.021698508 -0.008727131 -0.47158217 -1.0194988
000350 af 2c e9 3e 4f 90 4e 3f 0d 9d 6e 3e 48 a0 1e 3e
       0.45541903 0.8068895 0.23302098 0.1549083
000360 08 29 fe 3e d0 4a 45 3c 6e ff 2e 3e 57 f8 96 bd
       0.4964068 0.0120417625 0.17089626 -0.07371586
000370 38 66 fa be 99 6f e5 3e 6e 80 43 be 0e 3a 68 be
       -0.48906112 0.44811705 -0.19091961 -0.22678396
000380 23 20 90 3d f8 5b da 3e 9b 13 19 3e 1d 2f 7b be
       0.070373796 0.42648292 0.14948885 -0.24529691
000390 32 7f 81 3e 98 4b 85 3e 8b cf b6 be 86 c2 54 3e
       0.25292355 0.26034236 -0.35705218 0.2077733
0003a0 30 12 56 3e 4e e8 1f bf 6b d9 14 3e 14 cf 18 3f
       0.20905375 -0.62463844 0.14536063 0.59690976
0003b0 77 ed bc be 8a c3 e2 be 2a 25 a1 bd eb 0f ec bd
       -0.3689992 -0.4428981 -0.078684166 -0.115264736
0003c0 33 78 55 bf 81 1c ff be fc c3 19 bf b6 84 22 3e
       -0.83386534 -0.49826434 -0.60064673 0.15870938
0003d0 d4 d3 ba 3d 3d 6f 8d bf 8b fb 96 be d2 b8 13 3e
       0.09122434 -1.1049572 -0.29488787 0.14425972
0003e0 5a 96 08 be 1e b5 0b bd cc 20 97 be 94 a5 86 be
       -0.13338605 -0.034108274 -0.2951721 -0.262982
0003f0 10 aa 66 be 7a cf 48 be 99 82 b8 3e df c1 9d 3e
       -0.22525811 -0.19610396 0.36037138 0.30811974

network_body._body_endoder.seq_layers.0.bias f4 [128]
000000 00 00 00 00 00 00 00 00 00 00 00 00 00 00 00 00
       0.0 0.0 0.0 0.0
000010 00 00 00 00 00 00 00 00 00 00 00 00 00 00 00 00
       0.0 0.0 0.0 0.0
000020 00 00 00 00 00 00 00 00 00 00 00 00 00 00 00 00
       0.0 0.0 0.0 0.0
000030 00 00 00 00 00 00 00 00 00 00 00 00 00 00 00 00
       0.0 0.0 0.0 0.0
000040 00 00 00 00 00 00 00 00 00 00 00 00 00 00 00 00
       0.0 0.0 0.0 0.0
000050 00 00 00 00 00 00 00 00 00 00 00 00 00 00 00 00
       0.0 0.0 0.0 0.0
000060 00 00 00 00 00 00 00 00 00 00 00 00 00 00 00 00
       0.0 0.0 0.0 0.0
000070 00 00 00 00 00 00 00 00 00 00 00 00 00 00 00 00
       0.0 0.0 0.0 0.0
000080 00 00 00 00 00 00 00 00 00 00 00 00 00 00 00 00
       0.0 0.0 0.0 0.0
000090 00 00 00 00 00 00 00 00 00 00 00 00 00 00 00 00
       0.0 0.0 0.0 0.0
0000a0 00 00 00 00 00 00 00 00 00 00 00 00 00 00 00 00
       0.0 0.0 0.0 0.0
0000b0 00 00 00 00 00 00 00 00 00 00 00 00 00 00 00 00
       0.0 0.0 0.0 0.0
0000c0 00 00 00 00 00 00 00 00 00 00 00 00 00 00 00 00
       0.0 0.0 0.0 0.0
0000d0 00 00 00 00 00 00 00 00 00 00 00 00 00 00 00 00
       0.0 0.0 0.0 0.0
0000e0 00 00 00 00 00 00 00 00 00 00 00 00 00 00 00 00
       0.0 0.0 0.0 0.0
0000f0 00 00 00 00 00 00 00 00 00 00 00 00 00 00 00 00
       0.0 0.0 0.0 0.0
000100 00 00 00 00 00 00 00 00 00 00 00 00 00 00 00 00
       0.0 0.0 0.0 0.0
000110 00 00 00 00 00 00 00 00 00 00 00 00 00 00 00 00
       0.0 0.0 0.0 0.0
000120 00 00 00 00 00 00 00 00 00 00 00 00 00 00 00 00
       0.0 0.0 0.0 0.0
000130 00 00 00 00 00 00 00 00 00 00 00 00 00 00 00 00
       0.0 0.0 0.0 0.0
000140 00 00 00 00 00 00 00 00 00 00 00 00 00 00 00 00
       0.0 0.0 0.0 0.0
000150 00 00 00 00 00 00 00 00 00 00 00 00 00 00 00 00
       0.0 0.0 0.0 0.0
000160 00 00 00 00 00 00 00 00 00 00 00 00 00 00 00 00
       0.0 0.0 0.0 0.0
000170 00 00 00 00 00 00 00 00 00 00 00 00 00 00 00 00
       0.0 0.0 0.0 0.0
000180 00 00 00 00 00 00 00 00 00 00 00 00 00 00 00 00
       0.0 0.0 0.0 0.0
000190 00 00 00 00 00 00 00 00 00 00 00 00 00 00 00 00
       0.0 0.0 0.0 0.0
0001a0 00 00 00 00 00 00 00 00 00 00 00 00 00 00 00 00
       0.0 0.0 0.0 0.0
0001b0 00 00 00 00 00 00 00 00 00 00 00 00 00 00 00 00
       0.0 0.0 0.0 0.0
0001c0 00 00 00 00 00 00 00 00 00 00 00 00 00 00 00 00
       0.0 0.0 0.0 0.0
0001d0 00 00 00 00 00 00 00 00 00 00 00 00 00 00 00 00
       0.0 0.0 0.0 0.0
0001e0 00 00 00 00 00 00 00 00 00 00 00 00 00 00 00 00
       0.0 0.0 0.0 0.0
0001f0 00 00 00 00 00 00 00 00 00 00 00 00 00 00 00 00
       0.0 0.0 0.0 0.0

network_body._body_endoder.seq_layers.2.weight f4 [128, 128]
000000 e5 54 c9 3d 2a b3 24 bd 6a a2 13 be d8 bb e1 bc
       0.098306455 -0.040209927 -0.14417425 -0.027555391
000010 2e 0b a7 ba a0 33 fd bc d1 b7 84 3d e5 b2 2f 3d
       -0.0012744421 -0.030908406 0.06480373 0.042895216
000020 f7 9e a6 3d 60 8e a2 bc 66 90 74 bd a0 7c ec 3d
       0.08135789 -0.01984328 -0.05970802 0.11547208
000030 8d 98 c8 3d 77 5b 1b 3c b6 51 e4 bc bf 39 b2 bd
       0.09794722 0.009482256 -0.027870994 -0.087024204
000040 cf d2 0f bd f0 48 12 3d 99 47 70 3d 6f fd 22 3e
       -0.035113152 0.03571409 0.05866203 0.1591699
000050 70 0f 88 3e e8 f0 47 bd 7b 66 bc 3d d1 8d 1c 3d
       0.26574278 -0.04881373 0.09199234 0.038221184
000060 65 09 02 be fc a7 1b bb 11 dc a2 bd b6 15 22 3d
       -0.12698896 -0.002375125 -0.079521306 0.039571486
000070 51 4a 68 3c 55 9d e7 3d 3e bd 58 bd 83 4b 3e bd
       0.014177875 0.113093056 -0.05291485 -0.046458732
000080 31 df f4 3b 07 c0 d2 3d d4 63 a1 bd 55 38 ab 3b
       0.0074728956 0.102905326 -0.07880369 0.005225221
000090 51 ef 92 bd f9 17 94 bd fc 4a b1 bd cb ed b7 3c
       -0.07174552 -0.07231135 -0.0865688 0.022452256
0000a0 0e ed 08 bb 64 fd 23 ba 36 71 4d bd 86 67 1b 3e
       -0.0020893249 -0.00062557147 -0.050156794 0.1517621
0000b0 33 d1 21 bc 54 69 ad 3c 6c ff d1 bd cc 1f 19 3e
       -0.009876537 0.021168388 -0.10253796 0.14953536
0000c0 8f e7 db 3d 1e 77 0a 3e 7c 7b 7a 3d bf 6b 2c 3d
       0.10737526 0.13522002 0.06115292 0.042094942
0000d0 ca 5b a4 3d aa 83 a4 3d e0 cb ac bd 72 d4 bf bb
       0.0802532 0.080329254 -0.084373236 -0.005854183
0000e0 5b a0 af bb d4 d1 f7 bb 74 9b e1 3d 69 e4 85 3c
       -0.005359692 -0.0075628553 0.110159785 0.016344266
0000f0 66 99 0d bd 63 f4 c1 3d 4f 48 b5 3d 52 45 0d 3c
       -0.03457012 0.09470441 0.088516824 0.008622484
000100 b0 14 cd 3c f3 ed d5 3d 6f 58 38 bd b5 2f 35 be
       0.025034279 0.10445776 -0.04500621 -0.1769398
000110 47 bb f4 3c 1b b5 0a 3d 06 cf 98 3d 28 86 08 be
       0.029874457 0.033864122 0.074613616 -0.13332427
000120 3b cd dd 3b bf 45 d2 3d 92 db 2d 3d d8 10 a1 3b
       0.00676885 0.10267209 0.042445727 0.004915338
000130 d8 7d b6 bd 38 c9 4f 3c 33 c0 2b bd 5d 23 9f 3d
       -0.089107215 0.012682252 -0.041931342 0.07770417
000140 86 ad 61 bc 70 d9 cd bc ba 1e 84 3d 12 3c 88 3d
       -0.013774281 -0.025128096 0.06451173 0.066520825
000150 05 ba 8a bd 3c b5 59 bc fd e4 43 3e d0 3c 0f 3b
       -0.06773762 -0.013287839 0.19130321 0.0021856315
000160 6d 28 99 be 78 72 29 bd e9 0b bc 3d 00 36 99 bc
       -0.29913655 -0.04136893 0.09181959 -0.018702507
000170 e8 de e7 3c 41 a8 95 bd b0 d1 8c 3d 57 3b 7c bd
       0.028304532 -0.073074825 0.06875932 -0.06158003
000180 0b 22 85 3b c7 a2 b7 bd a9 82 e4 3c ca 5a 0a be
       0.004062896 -0.08966594 0.027894335 -0.13511196
000190 59 be e6 bc fe 57 65 3c bd 34 6f 3d 8f f9 a7 3b
       -0.028166937 0.01399803 0.058399905 0.0051261852
0001a0 04 45 37 3b a2 67 3f 3e 56 b1 67 bd 03 04 f4 bc
       0.002796472 0.18691877 -0.056565605 -0.02978707
0001b0 86 a7 1a bd 5f b3 88 3e 66 8e 76 3d 0b 6c 07 3d
       -0.03775742 0.2669935 0.060194395 0.033062022
0001c0 ff b1 81 3d a6 de bf bc 5f 91 cd 3c bc 9f e2 bd
       0.06332778 -0.023421597 0.025093732 -0.11065623
0001d0 84 72 eb 3d 01 ac fb 3c ae ce 97 3d e2 17 ad bd
       0.114964515 0.030721666 0.07412468 -0.08451821
0001e0 0f 1e 77 bc ec 5c 25 be c1 12 e1 bd 60 15 12 bc
       -0.01508285 -0.16148728 -0.10989905 -0.008916229
0001f0 11 07 ce bc 31 b8 87 bc 94 12 79 3c c0 79 a9 bc
       -0.025149854 -0.016567321 0.015202183 -0.020687938
000200 68 f7 25 3c 6e a5 3d bd 93 1d 15 bd fc db 8a bc
       0.010129787 -0.046300344 -0.036405157 -0.0169506
000210 be 74 72 3d 38 6a 7f 3d 57 af ae 3d b6 2a dc bd
       0.059193365 0.062357157 0.08529537 -0.10750334
000220 62 90 7a 3d 68 6b 5d 3e e2 0d 2a 3d ae fd 91 3d
       0.06117285 0.21623003 0.041517146 0.07128464
000230 54 c8 10 3e 34 28 66 3d 16 65 be 3d 99 4a c3 bd
       0.14138919 0.056190684 0.09296624 -0.09535713
000240 47 6f 07 bd c3 9e 32 bd f1 bf 6f bc 9f 09 32 bd
       -0.033065107 -0.04360844 -0.014633165 -0.043466207
000250 00 5f ef bc df 33 07 be 51 71 a5 3d 31 f4 93 bd
       -0.029220104 -0.13203381 0.08078254 -0.0722431
000260 e3 2e 08 3e 90 2e df bd 78 01 78 bd ba fc a3 3c
       0.13299136 -0.10897553 -0.060548276 0.02001797
000270 20 33 14 3e 59 ff 2b bd 6a fb 48 bd 6d a5 3f 3d
       0.14472628 -0.041991565 -0.049067892 0.04678862
000280 38 37 dd 3c 1a 4a f5 3d ad 20 45 be 78 f9 c0 bd
       0.02700387 0.119770244 -0.19250746 -0.094225824
000290 7b a5 8e bd 50 54 3e 3d cb 0c d4 bd 5d 8c 50 3d
       -0.06965157 0.046467125 -0.103540026 0.05091511
0002a0 0d b4 0f bd e9 d7 81 bd 77 5a f0 bd de d2 00 be
       -0.03508382 -0.0634001 -0.11736005 -0.1258044
0002b0 1b a2 36 bd c0 05 ae 3d 46 7f cc bd ee a3 93 3d
       -0.04458819 0.084971905 -0.09985213 0.072090015
0002c0 29 fe 49 bd 0f e1 91 bd 0a 60 39 3d 5d d9 59 3c
       -0.04931465 -0.07123005 0.045257606 0.013296452
0002d0 23 b3 af 3d b9 40 a8 3d be 20 b0 3d 5e 3e 2e 3e
       0.085790895 0.0821547 0.08599995 0.17015979
0002e0 d1 2f 93 bc 42 40 5b 3e a3 8d b5 bd f6 b2 80 bd
       -0.017967137 0.21411231 -0.08864906 -0.06284134
0002f0 cf 01 8a 3d d7 33 06 bc 7f 0c 31 3e 32 7d 41 3d
       0.06738626 -0.0081910705 0.17289923 0.047238536
000300 40 e4 54 bd ec 70 f1 3d 0f a8 05 3d 58 8c 36 bd
       -0.05197549 0.11789116 0.032630976 -0.044567436
000310 dc fa c3 bd 0b 0c f0 3c db bc c0 3c ce 58 8b bc
       -0.09569332 0.029302618 0.023527553 -0.017010119
000320 7c 30 70 bd 91 d8 b4 3b 62 67 ae 3d 2e 51 de bd
       -0.05863999 0.005518981 0.085158125 -0.108553275
000330 77 b7 1f 3e 7b d9 dd bb 6d 6d 06 3d d1 8c 66 3d
       0.1559733 -0.0067703105 0.0328192 0.056286637
000340 05 6b 95 bc 9e 06 a9 3d a4 24 2f bd 9c 08 68 3d
       -0.018239507 0.08253215 -0.042759553 0.056648836
000350 2b cb 1c be c4 0d 8a bd 76 72 71 3d 84 2b 06 3e
       -0.15311877 -0.06740907 0.05894705 0.13102537
000360 ee 90 62 3d bc 4b 91 bd 32 7c ca bb f7 a0 b3 bd
       0.055313997 -0.07094523 -0.006179356 -0.08770936
000370 64 73 78 3d bc e6 56 3d b8 4d 19 bd e6 7d 8a 3b
       0.06065692 0.05246614 -0.037427634 0.004226434
000380 6c dc c4 3d 0a 46 88 3d 44 4a 08 be 7d 36 d9 3d
       0.09612355 0.06653984 -0.1330958 0.10606096
000390 60 01 b6 bc 29 79 7b bd e8 e9 c4 3d 6f f6 d5 bd
       -0.022217453 -0.061394844 0.096149266 -0.10447394
0003a0 98 07 80 3d 3b 24 3b bd 96 88 8b bd 42 a1 fd 3c
       0.062514484 -0.04568885 -0.06813161 0.030960683
0003b0 bb 1f 13 3d ce 9e 20 3d 40 58 26 3d 0f 04 0d 3d
       0.035918932 0.039213948 0.040611506 0.0344277
0003c0 b7 76 ed 3b 82 c6 5f 3c f9 f3 49 3d 90 95 49 be
       0.007246818 0.013658168 0.049304936 -0.1968596
0003d0 eb f2 60 bc d0 89 74 3d 6a 30 92 3c cf 03 11 3e
       -0.013729791 0.05970174 0.017845351 0.14161609
0003e0 86 45 02 3d 00 d5 25 3d 5f c8 3e bb 24 17 10 be
       0.031804584 0.040486336 -0.002911113 -0.14071327
0003f0 a8 86 a3 bd 6a 3f 8a 3c 2f 30 03 3e ea a3 d6 3d
       -0.07984668 0.016875941 0.1281135 0.10480483

network_body._body_endoder.seq_layers.2.bias f4 [128]
000000 00 00 00 00 00 00 00 00 00 00 00 00 00 00 00 00
       0.0 0.0 0.0 0.0
000010 00 00 00 00 00 00 00 00 00 00 00 00 00 00 00 00
       0.0 0.0 0.0 0.0
000020 00 00 00 00 00 00 00 00 00 00 00 00 00 00 00 00
       0.0 0.0 0.0 0.0
000030 00 00 00 00 00 00 00 00 00 00 00 00 00 00 00 00
       0.0 0.0 0.0 0.0
000040 00 00 00 00 00 00 00 00 00 00 00 00 00 00 00 00
       0.0 0.0 0.0 0.0
000050 00 00 00 00 00 00 00 00 00 00 00 00 00 00 00 00
       0.0 0.0 0.0 0.0
000060 00 00 00 00 00 00 00 00 00 00 00 00 00 00 00 00
       0.0 0.0 0.0 0.0
000070 00 00 00 00 00 00 00 00 00 00 00 00 00 00 00 00
       0.0 0.0 0.0 0.0
000080 00 00 00 00 00 00 00 00 00 00 00 00 00 00 00 00
       0.0 0.0 0.0 0.0
000090 00 00 00 00 00 00 00 00 00 00 00 00 00 00 00 00
       0.0 0.0 0.0 0.0
0000a0 00 00 00 00 00 00 00 00 00 00 00 00 00 00 00 00
       0.0 0.0 0.0 0.0
0000b0 00 00 00 00 00 00 00 00 00 00 00 00 00 00 00 00
       0.0 0.0 0.0 0.0
0000c0 00 00 00 00 00 00 00 00 00 00 00 00 00 00 00 00
       0.0 0.0 0.0 0.0
0000d0 00 00 00 00 00 00 00 00 00 00 00 00 00 00 00 00
       0.0 0.0 0.0 0.0
0000e0 00 00 00 00 00 00 00 00 00 00 00 00 00 00 00 00
       0.0 0.0 0.0 0.0
0000f0 00 00 00 00 00 00 00 00 00 00 00 00 00 00 00 00
       0.0 0.0 0.0 0.0
000100 00 00 00 00 00 00 00 00 00 00 00 00 00 00 00 00
       0.0 0.0 0.0 0.0
000110 00 00 00 00 00 00 00 00 00 00 00 00 00 00 00 00
       0.0 0.0 0.0 0.0
000120 00 00 00 00 00 00 00 00 00 00 00 00 00 00 00 00
       0.0 0.0 0.0 0.0
000130 00 00 00 00 00 00 00 00 00 00 00 00 00 00 00 00
       0.0 0.0 0.0 0.0
000140 00 00 00 00 00 00 00 00 00 00 00 00 00 00 00 00
       0.0 0.0 0.0 0.0
000150 00 00 00 00 00 00 00 00 00 00 00 00 00 00 00 00
       0.0 0.0 0.0 0.0
000160 00 00 00 00 00 00 00 00 00 00 00 00 00 00 00 00
       0.0 0.0 0.0 0.0
000170 00 00 00 00 00 00 00 00 00 00 00 00 00 00 00 00
       0.0 0.0 0.0 0.0
000180 00 00 00 00 00 00 00 00 00 00 00 00 00 00 00 00
       0.0 0.0 0.0 0.0
000190 00 00 00 00 00 00 00 00 00 00 00 00 00 00 00 00
       0.0 0.0 0.0 0.0
0001a0 00 00 00 00 00 00 00 00 00 00 00 00 00 00 00 00
       0.0 0.0 0.0 0.0
0001b0 00 00 00 00 00 00 00 00 00 00 00 00 00 00 00 00
       0.0 0.0 0.0 0.0
0001c0 00 00 00 00 00 00 00 00 00 00 00 00 00 00 00 00
       0.0 0.0 0.0 0.0
0001d0 00 00 00 00 00 00 00 00 00 00 00 00 00 00 00 00
       0.0 0.0 0.0 0.0
0001e0 00 00 00 00 00 00 00 00 00 00 00 00 00 00 00 00
       0.0 0.0 0.0 0.0
0001f0 00 00 00 00 00 00 00 00 00 00 00 00 00 00 00 00
       0.0 0.0 0.0 0.0

action_model._continuous_distribution.log_sigma f4 [1, 2]
000000 00 00 00 00 00 00 00 00
       0.0 0.0

action_model._continuous_distribution.mu.weight f4 [2, 128]
000000 13 72 42 bb 3c a2 cc 3b a0 fd f8 3b ba 48 55 bc
       -0.0029670044 0.006244926 0.007598594 -0.013017828
000010 1a 20 69 bc a6 62 13 3c 92 6b 53 bc 27 ba 16 bd
       -0.014228845 0.008995688 -0.012904065 -0.036798622
000020 ae e2 c1 bc c3 28 cd 3c c8 58 6e 3a eb a0 10 3d
       -0.02366766 0.02504385 0.0009092209 0.035309713
000030 bf bc 9c 3c 37 33 03 bc a9 de 00 3c 48 e1 bc bc
       0.01913297 -0.008007816 0.007865586 -0.023056641
000040 41 b3 af 3c 0b d2 ba 3c 1f 4d 3e 3c f8 be e5 3c
       0.02144778 0.022805234 0.011615067 0.028045163
000050 0b 5c dd bb 3f 6d 42 3b 3d 3a dc 3c 6d 1a db 3c
       -0.006755357 0.0029667167 0.026883239 0.026746
000060 8e 30 07 3b 5b 2a 17 3d 95 8a 5a bc 34 f5 bd 3c
       0.0020628306 0.036905628 -0.013338705 0.023188211
000070 9f 7c 52 bc 57 31 98 bc 72 c6 a2 3b 9a a7 78 3c
       -0.012847095 -0.018578215 0.004967504 0.015176678
000080 f0 c2 24 bd 87 ef 93 3c cb fa 13 3b aa 2e da 3b
       -0.04022497 0.018058551 0.0022579904 0.006658395
000090 49 92 97 bc d5 16 7e bc 10 25 ba 3a d7 c0 97 bc
       -0.018502371 -0.015508373 0.0014201719 -0.01852457
0000a0 7d 1d 70 3c 55 ed 2b 3c 17 d9 06 bd 45 51 b4 bc
       0.014655468 0.010493596 -0.032921877 -0.022011409
0000b0 2a 71 42 3c af 94 06 bc 1b 07 a6 ba dc f3 40 bc
       0.011867801 -0.00821416 -0.0012666913 -0.011776891
0000c0 80 be 3f 38 b0 f0 cf bb a2 52 5f 3a f7 06 22 39
       4.5715366e-05 -0.006345831 0.0008519088 0.00015452119
0000d0 cb c1 53 3c 10 b0 93 3c d3 a2 ba 3c 40 f7 51 bc
       0.012924622 0.01802829 0.022782719 -0.012815297
0000e0 c2 3c 41 3c 0b da cb 3c 8b 93 02 bb 86 fb 10 bd
       0.011794271 0.024884244 -0.0019924368 -0.03539612
0000f0 d5 cd 1d bb d0 14 94 3c 10 a5 7d bc b6 38 ac bc
       -0.0024078984 0.01807633 -0.0154812485 -0.021023136
000100 e8 53 bb bc 57 21 35 3d cb 31 89 bb 90 51 83 3c
       -0.022867158 0.04422125 -0.004186844 0.016030103
000110 ce 36 c6 bb b5 fa 9f bc d7 10 b5 bc a5 d6 c1 bb
       -0.0060490137 -0.019528726 -0.022102756 -0.00591548
000120 02 ec d4 3b 97 9f 1d 3d 2b db 3e 3c ef 1f a8 bc
       0.006497861 0.038482275 0.011648933 -0.02052304
000130 d2 4a ee bb 11 68 a9 b8 77 8e 9d 3b 0d d3 10 bc
       -0.007272103 -8.077932e-05 0.004808243 -0.008839381
000140 32 29 7a bc db 27 3c 3c c8 28 78 bc 6b df b3 bb
       -0.015268611 0.011484112 -0.015146442 -0.00548928
000150 5f 1d a7 3c bf 8c ed bb 27 65 03 3d 49 70 1a bc
       0.020399747 -0.0072494443 0.03207889 -0.009426185
000160 18 cd 8f 3c 90 7d e4 3b f3 17 86 3c 15 a9 52 bc
       0.017553851 0.006972976 0.016368842 -0.012857695
000170 02 f8 f5 ba a5 d3 d5 bc 38 44 db 3c 0b 80 53 b9
       -0.0018765929 -0.026101897 0.026765928 -0.00020170228
000180 17 73 30 ba 2d 20 5f 3c 3f ec 0a bb b1 c4 93 bc
       -0.0006731017 0.013618511 -0.0021197943 -0.018038126
000190 6f ab 80 bc 67 33 1a bc 3a f7 91 3c f1 eb 04 3d
       -0.015706746 -0.009411669 0.017818082 0.032451574
0001a0 7b 12 04 bd 65 44 8c bc e3 b7 ce bb ae 9c 03 3b
       -0.032244187 -0.017122457 -0.006308542 0.0020082402
0001b0 ba 04 13 bc b4 a7 1c bc 6a 5e 7d bb 60 ff 68 bc
       -0.008973295 -0.009561468 -0.0038661011 -0.014221042
0001c0 3b 36 23 bd bd d7 8a 3c 24 12 aa bc e8 69 79 bc
       -0.03984664 0.016948575 -0.020760603 -0.015223004
0001d0 d8 9b 80 bc b5 0c 28 3d d0 66 c5 3c eb 44 cd bc
       -0.015699312 0.041027743 0.024096876 -0.025057277
0001e0 26 4d 8c 3b 66 2e 17 bb 73 b7 b3 bb 77 c5 44 bb
       0.0042816577 -0.0023068427 -0.0054845153 -0.0030024925
0001f0 c7 f4 15 3d 2f b3 35 3c 78 fe 02 3c 41 b8 9d 3b
       0.03661039 0.011090084 0.00799524 0.0048132245
000200 55 05 71 bc 4a 19 34 3d 4f 1d 26 bc 40 75 1a bc
       -0.014710744 0.04396943 -0.010138824 -0.009427369
000210 13 33 1a 3c 04 97 9e bc a9 bb 37 bc 4e 60 29 bb
       0.009411591 -0.01935912 -0.011214175 -0.0025844756
000220 06 92 9b 3c 91 fd c1 3c 46 94 30 3c 6c fa 3b 3c
       0.018990528 0.02368048 0.010777539 0.011473279
000230 40 98 d7 bc e4 7c 10 bb 7d 60 77 3c f8 a3 2e bc
       -0.026317716 -0.0022047097 0.015098688 -0.01065921
000240 17 32 20 3d 65 ce e1 bc f2 1c 8b 3c 76 23 01 bd
       0.03911027 -0.027564237 0.016981576 -0.03152796
000250 ae e1 09 bc af f4 c0 3c 70 2f 5d bc b3 e6 6a bc
       -0.008415623 0.023554174 -0.0135000795 -0.01433723
000260 b7 b7 39 bc 1e a2 0f 3b 3f fd 08 bc a2 d1 68 3c
       -0.011335305 0.0021916698 -0.00836116 0.014210137
000270 40 b0 77 bc 36 61 1a 3d 27 2f c0 bc dd de 83 3c
       -0.015117705 0.037690364 -0.023459984 0.01609748
000280 ed 42 4d 3c af 1a 89 3b 19 3c b8 3c 5a 73 fe 3c
       0.012528163 0.004184089 0.022489594 0.031060863
000290 63 51 a9 bb b3 bb 8e 3c 15 56 04 bd 4b 15 e5 3a
       -0.0051671728 0.017423486 -0.032308657 0.0017477659
0002a0 5a 1e b7 3c 53 4f 7a bc 0c ca 0a bc d3 51 a9 bc
       0.02235334 -0.015277701 -0.008471023 -0.0206689
0002b0 12 c5 28 bc 6f 9f 9e 3c df e8 5a bc 5f 79 7a bc
       -0.0103008915 0.019363133 -0.013361185 -0.015287726
0002c0 10 6c 72 bc a8 8b 18 3a 65 ec 07 3d 68 a0 04 3d
       -0.014796272 0.000581915 0.033184428 0.032379538
0002d0 57 ff 0e 3c a5 5d 19 bc 0b 4a bb bc 73 af 2f 3c
       0.00872787 -0.0093607055 -0.022862455 0.010722983
0002e0 2f cf 72 bc cb 82 21 3b 93 6a 9c 3c 1d 6a 8f 3a
       -0.014819904 0.002464461 0.019093787 0.0010941658
0002f0 53 d5 cf 3b 15 e8 96 3c d3 a6 6a 3c c7 e1 83 bc
       0.006342569 0.018421212 0.014322001 -0.01609887
000300 2f 54 b7 39 d3 26 0c bd fd c0 e5 bc 7e e9 be 3c
       0.00034967202 -0.034216713 -0.028046126 0.023304697
000310 6b 7b 0b bc 33 72 9f bc 9f 87 2f bd bf 81 69 bb
       -0.008513312 -0.019463634 -0.042853948 -0.0035630313
000320 d2 69 a0 bb f0 ee c8 3b 9f 73 c5 3c dd c4 1e bb
       -0.0048954273 0.006131999 0.024102984 -0.0024226226
000330 6c 55 82 bb d5 43 89 3c 7f e0 0e bd 5b 58 db bc
       -0.0039774682 0.016755978 -0.034882065 -0.02677553
000340 0f 39 56 bc c2 4b 53 3c d7 19 34 3c 20 af f8 bb
       -0.013075127 0.01289648 0.010992489 -0.007589236
000350 d5 1e 99 b9 6f 1e ac bb 14 13 af 3c af dd 03 ba
       -0.00029205406 -0.0052526514 0.021371402 -0.0005030287
000360 7b b0 47 3b c4 f2 00 3d b0 04 5b 3b c2 e8 84 3b
       0.003047018 0.03148152 0.0033419542 0.004056067
000370 c8 57 a6 3b 12 63 ed 3a 48 da 4f bb ba 4f 0e bc
       0.0050763823 0.001811119 -0.00317158 -0.0086860005
000380 33 68 c9 ba 95 9a 4e 3c 60 4d 3f 3b 5d fa 41 3c
       -0.0015366137 0.012610097 0.0029190406 0.011839476
000390 d5 88 17 bc 93 93 fc 3c 2c 0d 97 3c 2d 0f 9f bc
       -0.009248932 0.030832088 0.018438898 -0.019416416
0003a0 ef c9 09 bd 5f f3 57 3c 9f 4c 23 bd f8 8f 02 bd
       -0.033639845 0.013180583 -0.039867993 -0.03187558
0003b0 de 1d 27 3c 45 f3 01 bd 27 c0 ac 3b 34 f0 30 3c
       0.010199992 -0.03172614 0.00527193 0.010799456
0003c0 73 f4 96 3c 60 91 a6 3b 67 50 e2 bc 43 16 2d bb
       0.01842711 0.005083248 -0.02762623 -0.0026410974
0003d0 13 b7 89 bb 3b 74 4c 3c f4 7f b7 bc 80 8b d1 bc
       -0.0042027324 0.012478883 -0.02239988 -0.025579214
0003e0 bf 28 5f bc eb 9c 8c bb 68 df c5 bc e7 b0 90 bc
       -0.0136205545 -0.004291167 -0.02415438 -0.017662479
0003f0 1d c5 5f bb 9d 43 0d 3c 08 33 e7 ba 03 54 9a 3c
       -0.0034144588 0.008622077 -0.001763911 0.018838888

action_model._continuous_distribution.mu.bias f4 [2]
000000 00 00 00 00 00 00 00 00
       0.0 0.0

network_body._body_endoder.seq_layers.0.weight f4 [128, 6]
000000 6a 15 52 3d dd 64 84 be fc 53 91 be ac 62 32 3f
       0.051289953 -0.25858203 -0.28384387 0.6968181
000010 de 21 2b 3f f9 99 eb 3d 9c bf 98 bf d1 d8 38 bf
       0.6684855 0.11503977 -1.1933475 -0.72205836
000020 57 0b 8a 3e eb 5d 3c 3e d0 dc f3 3e 16 ba 35 3e
       0.26961777 0.18395202 0.47629404 0.17746767
000030 ef d6 69 bd 4d 1d 35 3c 99 37 4b bd ca b6 0f 3f
       -0.057089742 0.011054349 -0.04961357 0.5613829
000040 bc b0 ca 3e af a8 1c 3a 62 1d 98 be 1a f5 bf be
       0.39587963 0.00059760635 -0.29709917 -0.37491685
000050 1e 79 0a 3e ef 70 e5 bd 79 e1 39 be b3 f1 ee be
       0.13522765 -0.11203181 -0.18152417 -0.46668777
000060 36 bb a0 3e 0d c1 c1 bd da aa f7 be c2 ad c6 bc
       0.3139283 -0.0946065 -0.48372537 -0.024252776
000070 52 ff 89 3e 22 bc af 3d 44 5b f1 3e 9b 25 d6 3a
       0.26952606 0.08580805 0.47139943 0.0016338112
000080 ee 2b 9a be 6b 95 03 3f 00 05 1b bd 78 6d c6 bd
       -0.3011164 0.5139987 -0.037846565 -0.09688848
000090 e8 a4 05 3f 9c 0b 15 be 6d 2d 12 bf 7f 91 ef bd
       0.5220475 -0.1455521 -0.57100564 -0.11697673
0000a0 f5 05 25 3f ea ce 85 3e 80 cc 60 3f 61 cf d8 be
       0.64462215 0.26134425 0.8781204 -0.42345718
0000b0 02 03 2a be 0c 9f c4 bd 5c ac 9c 3e 41 b8 88 3e
       -0.1660271 -0.09600648 0.3060025 0.26703075
0000c0 7b 10 15 3f b4 e8 4a be ae 57 a2 bd 71 31 69 3e
       0.5822827 -0.19815332 -0.0792688 0.22772767
0000d0 c6 3d 38 be 22 27 d0 be ca fb f5 3e 91 f8 a0 bf
       -0.17992315 -0.40654856 0.48043662 -1.2575856
0000e0 84 47 63 be 81 8e 97 be 3d 54 2f 3c 68 77 0c bf
       -0.2219525 -0.2960091 0.010701236 -0.548697
0000f0 29 44 91 3d b0 80 f6 be 34 1b 7a 3c a8 e0 a5 be
       0.07093079 -0.48145056 0.015265275 -0.32397962
000100 40 71 1a 3f 4d cd 00 bd 5a 43 f3 3e fc 62 fe 3e
       0.60329056 -0.03144579 0.47512323 0.49684894
000110 46 9b b7 3e 2f b7 7f be 09 e1 a6 3e c2 80 a9 b8
       0.35860652 -0.24972223 0.32593563 -8.082531e-05
000120 f4 de 33 3e 43 fd f8 3e b6 bd ba 3d 5a f3 3f 3d
       0.17565519 0.48630723 0.09118216 0.046862938
000130 37 ef 8b bd 80 6b 8b 3e 65 6e ed 3e 9a 58 46 3e
       -0.06832736 0.27230453 0.46373287 0.19369736
000140 0b f4 69 3f b2 75 02 be c8 9f 51 3f 2b 67 bf 3e
       0.91388005 -0.1274021 0.8188443 0.37383398
000150 0a 76 bd 3e 4a 06 d0 3e 87 27 8c be 80 80 28 3e
       0.3700412 0.40629798 -0.27373907 0.16455269
000160 c6 2b d1 3d ce fa d4 be b0 8f b2 3e 34 f6 14 3f
       0.10213427 -0.415976 0.3487525 0.58188176
000170 4a 3f 12 3f 4c cf a9 be 90 04 64 3e 5f 55 b6 be
       0.5712782 -0.33165967 0.22267365 -0.35612008
000180 61 85 fe 3e 94 ef 38 3e 5e d8 8a bd f9 ec 81 3e
       0.49711135 0.18060142 -0.0677955 0.25376108
000190 bd 3d 20 bf d3 34 15 be 47 25 48 be 0a 7d f6 3e
       -0.62594205 -0.14570932 -0.1954547 0.48142272
0001a0 33 19 2e 3f e7 bd 55 be bd 70 dc 3d 62 ff fa 3e
       0.680072 -0.20873223 0.107636906 0.49022967
0001b0 b0 db 3e 3e 75 d5 47 bf d7 a3 18 3e f4 db 97 3e
       0.18638492 -0.78060085 0.1490625 0.29659998
0001c0 a9 33 e2 3e 72 a6 4f 3d 13 e1 9d 3e 65 f0 87 3e
       0.4418004 0.050695844 0.3083578 0.26550594
0001d0 83 b2 5b bb 61 fa b1 3c 32 d5 44 3e 10 65 fa be
       -0.003352315 0.021725835 0.19221953 -0.4890523
0001e0 22 35 65 be ee b5 26 bf 97 e4 f6 be 5d a0 a2 3d
       -0.2238355 -0.6512135 -0.48221275 0.07940743
0001f0 b5 ce f6 3e ba 99 f5 3e 14 9f 83 3e c9 99 57 3e
       0.4820458 0.47968847 0.25707304 0.21054758
000200 75 cf 31 3e 17 d4 0a 3f be 7b 52 bc f7 9b c4 3d
       0.17364295 0.54229873 -0.012846885 0.096000604
000210 75 71 18 3e e2 71 c1 3e 8b e1 69 be 3f 69 d9 3e
       0.1488703 0.37782198 -0.22839944 0.4246311
000220 b6 10 d2 3d 39 36 0c bd a1 54 b5 be cf a5 af 3c
       0.102570936 -0.0342314 -0.3541613 0.021441368
000230 00 14 53 bb 8a 8a 92 bd ed aa 34 3f 4b c7 d0 3e
       -0.0032207966 -0.071553305 0.7057331 0.40777048
000240 cc 7a b9 3d d3 e9 00 3f da f2 30 3d 88 11 ec 3d
       0.09056625 0.5035679 0.04320035 0.11526781
000250 2b a2 a0 3e 49 1d 59 be be b7 57 3e d2 a2 56 3d
       0.31373724 -0.21202578 0.21066186 0.05240137
000260 67 eb a0 3e c4 da ab bd e3 23 96 be 0a f0 0b 3e
       0.31429598 -0.083913356 -0.29324254 0.13665786
000270 24 e7 a6 3e 50 57 fe 3d d1 cc 1f bc ac ce ea 3d
       0.3259822 0.12418997 -0.009753422 0.11465201
000280 8d 38 2e 3f 49 62 34 3f 2e 2b 88 3e 0b a2 64 be
       0.6805504 0.7046247 0.26595443 -0.2232744
000290 93 66 89 be f2 8c 32 3f d8 df 26 bf 85 16 2d bf
       -0.2683607 0.69746315 -0.6518531 -0.6761249
0002a0 19 65 79 be 77 f6 8a bd 0f 03 ad 3e f6 f8 04 bf
       -0.24354972 -0.06785291 0.33791396 -0.51942384
0002b0 cd a0 d8 be d7 02 c5 be c6 fa 1f bf 8f f7 2a be
       -0.4231018 -0.3847873 -0.62492025 -0.16695999
0002c0 38 1f a0 be 29 11 32 3e c0 f7 99 be 29 9d 41 3e
       -0.31273818 0.17389359 -0.3007183 0.18907608
0002d0 3f 2f 8f be bf 42 90 3e 5a 55 c1 be 4a 76 96 3e
       -0.27965733 0.28175923 -0.3776043 0.29387122
0002e0 6e 9d 07 be e3 9f 0d 3f 18 0a 0b 3d 98 45 f4 be
       -0.13243648 0.5532209 0.033945173 -0.47709346
0002f0 1b a2 84 3e f2 9a 35 3e f2 78 e8 bd e7 72 cf 3e
       0.25904927 0.17734888 -0.113511935 0.4051735
000300 8e 78 26 3f 48 98 9b 3e cd ee ce 3d 15 4d 29 bf
       0.650277 0.3038962 0.101041414 -0.6613324
000310 fe 5e 17 3f 92 2b 1c 3f 63 21 b7 be c1 db c8 3d
       0.5912932 0.61003983 -0.3576766 0.0980754
000320 71 67 07 3f b5 85 29 3e 62 87 02 3f 0f fc 39 bf
       0.52892214 0.16554911 0.5098783 -0.72650236
000330 8e f0 21 be b8 f2 9e 3e b1 e4 af bd f0 00 b5 3e
       -0.1581442 0.31044555 -0.08588541 0.35352278
000340 e2 4f 28 3f a2 f0 45 3f 8d 81 17 3f 42 e0 9e bd
       0.6574689 0.773203 0.59182054 -0.077576175
000350 ba 6c de be bf 5c c5 be c2 00 41 3f 83 3d 97 3e
       -0.43442327 -0.38547322 0.7539178 0.29539117
000360 11 4b 2a bf a9 2e 1a bf 75 01 65 be 4b 88 d0 be
       -0.6652079 -0.6022745 -0.22363837 -0.40728983
000370 7e 63 38 3d c6 5e 5c 3c cd 18 01 be de 9b 56 3d
       0.04501676 0.01345033 -0.12607117 0.05239474
000380 a3 62 4a 3f 0c e2 fb 3d 67 ef 03 bf cc 2d c6 3e
       0.7905676 0.122989744 -0.51537174 0.38706815
000390 c4 78 d6 3e af d9 89 3e b5 01 20 be d5 84 9a be
       0.41889012 0.26923892 -0.15625651 -0.30179468
0003a0 c9 db a4 3e 0e 41 7e 3e 2b 1b 0c bc 1a 0d 9c 3e
       0.32198933 0.24829504 -0.008551399 0.30478746
0003b0 0b 55 e0 3e 09 f4 e5 be 19 d1 cb 3e 32 c0 26 be
       0.43814883 -0.44912747 0.39807966 -0.16284254
0003c0 08 d5 0d 3e a9 79 f8 3d 21 f2 84 3e af 02 06 be
       0.13850796 0.1213258 0.2596598 -0.13086961
0003d0 ad 2f fb be 12 3b e5 3d dc b9 89 3e 29 e4 44 3f
       -0.4905981 0.111929074 0.26899612 0.76910645
0003e0 6f 21 09 bf b4 7a c6 3d e3 73 84 be 48 9b 9e 3e
       -0.5356664 0.096913725 -0.25869665 0.30977845
0003f0 29 3d 93 be ef bd 13 bf d8 97 7a be 94 d7 18 3f
       -0.287576 -0.5771169 -0.24471986 0.59703946

network_body._body_endoder.seq_layers.0.bias f4 [128]
000000 00 00 00 00 00 00 00 00 00 00 00 00 00 00 00 00
       0.0 0.0 0.0 0.0
000010 00 00 00 00 00 00 00 00 00 00 00 00 00 00 00 00
       0.0 0.0 0.0 0.0
000020 00 00 00 00 00 00 00 00 00 00 00 00 00 00 00 00
       0.0 0.0 0.0 0.0
000030 00 00 00 00 00 00 00 00 00 00 00 00 00 00 00 00
       0.0 0.0 0.0 0.0
000040 00 00 00 00 00 00 00 00 00 00 00 00 00 00 00 00
       0.0 0.0 0.0 0.0
000050 00 00 00 00 00 00 00 00 00 00 00 00 00 00 00 00
       0.0 0.0 0.0 0.0
000060 00 00 00 00 00 00 00 00 00 00 00 00 00 00 00 00
       0.0 0.0 0.0 0.0
000070 00 00 00 00 00 00 00 00 00 00 00 00 00 00 00 00
       0.0 0.0 0.0 0.0
000080 00 00 00 00 00 00 00 00 00 00 00 00 00 00 00 00
       0.0 0.0 0.0 0.0
000090 00 00 00 00 00 00 00 00 00 00 00 00 00 00 00 00
       0.0 0.0 0.0 0.0
0000a0 00 00 00 00 00 00 00 00 00 00 00 00 00 00 00 00
       0.0 0.0 0.0 0.0
0000b0 00 00 00 00 00 00 00 00 00 00 00 00 00 00 00 00
       0.0 0.0 0.0 0.0
0000c0 00 00 00 00 00 00 00 00 00 00 00 00 00 00 00 00
       0.0 0.0 0.0 0.0
0000d0 00 00 00 00 00 00 00 00 00 00 00 00 00 00 00 00
       0.0 0.0 0.0 0.0
0000e0 00 00 00 00 00 00 00 00 00 00 00 00 00 00 00 00
       0.0 0.0 0.0 0.0
0000f0 00 00 00 00 00 00 00 00 00 00 00 00 00 00 00 00
       0.0 0.0 0.0 0.0
000100 00 00 00 00 00 00 00 00 00 00 00 00 00 00 00 00
       0.0 0.0 0.0 0.0
000110 00 00 00 00 00 00 00 00 00 00 00 00 00 00 00 00
       0.0 0.0 0.0 0.0
000120 00 00 00 00 00 00 00 00 00 00 00 00 00 00 00 00
       0.0 0.0 0.0 0.0
000130 00 00 00 00 00 00 00 00 00 00 00 00 00 00 00 00
       0.0 0.0 0.0 0.0
000140 00 00 00 00 00 00 00 00 00 00 00 00 00 00 00 00
       0.0 0.0 0.0 0.0
000150 00 00 00 00 00 00 00 00 00 00 00 00 00 00 00 00
       0.0 0.0 0.0 0.0
000160 00 00 00 00 00 00 00 00 00 00 00 00 00 00 00 00
       0.0 0.0 0.0 0.0
000170 00 00 00 00 00 00 00 00 00 00 00 00 00 00 00 00
       0.0 0.0 0.0 0.0
000180 00 00 00 00 00 00 00 00 00 00 00 00 00 00 00 00
       0.0 0.0 0.0 0.0
000190 00 00 00 00 00 00 00 00 00 00 00 00 00 00 00 00
       0.0 0.0 0.0 0.0
0001a0 00 00 00 00 00 00 00 00 00 00 00 00 00 00 00 00
       0.0 0.0 0.0 0.0
0001b0 00 00 00 00 00 00 00 00 00 00 00 00 00 00 00 00
       0.0 0.0 0.0 0.0
0001c0 00 00 00 00 00 00 00 00 00 00 00 00 00 00 00 00
       0.0 0.0 0.0 0.0
0001d0 00 00 00 00 00 00 00 00 00 00 00 00 00 00 00 00
       0.0 0.0 0.0 0.0
0001e0 00 00 00 00 00 00 00 00 00 00 00 00 00 00 00 00
       0.0 0.0 0.0 0.0
0001f0 00 00 00 00 00 00 00 00 00 00 00 00 00 00 00 00
       0.0 0.0 0.0 0.0

network_body._body_endoder.seq_layers.2.weight f4 [128, 128]
000000 94 dd 12 3d 58 96 8a 3c bd 42 ee 3b ce bb 0a bd
       0.035855845 0.016917393 0.0072711394 -0.03387051
000010 79 6b 6c bd e2 62 5a bb 12 01 36 3d 6b 83 bd bd
       -0.05771968 -0.00333231 0.044434614 -0.092535816
000020 6c 13 61 bd 66 b3 c6 3d 65 6f 1d 3e 6a 55 6b 3b
       -0.054950163 0.09702186 0.15374525 0.0035909065
000030 90 76 ce bc 8e a1 80 bd af 83 8c 3c aa 12 8c 3d
       -0.02520302 -0.06280814 0.017152635 0.068394974
000040 2f e5 67 bd 61 ea 48 be 0c 40 86 3d 2a 34 d9 bd
       -0.05661505 -0.19620658 0.06555185 -0.10605653
000050 7d 95 14 3d 80 30 fa 3d 52 d9 08 3e 95 b6 5c bd
       0.036275376 0.12216282 0.13364151 -0.05388506
000060 12 2f d4 3d 71 0c af 3d c5 23 8b bd 27 6b b4 3c
       0.103605404 0.08547295 -0.06793932 0.02202375
000070 f4 87 27 3e ac 8e 25 3d 28 34 04 be d0 51 81 3d
       0.16360456 0.040419266 -0.12910521 0.063144326
000080 4e ac 12 be 1a e4 8f bc 07 73 82 bd 3c af ae 3c
       -0.14323542 -0.017564822 -0.06369596 0.021323793
000090 66 d9 d7 bd af f9 9e 3d dc d9 06 3e 9f 2e a7 3d
       -0.10539512 0.07762467 0.13169044 0.08163189
0000a0 c8 6d 0a 3d 08 37 99 bc 41 80 28 3e 5a ed e1 3b
       0.0337961 -0.018702999 0.16455175 0.0068947496
0000b0 7d 5a 96 bd f9 80 d4 bd ef 79 4c bd e9 ba bb bd
       -0.07341478 -0.10376162 -0.049920972 -0.0916651
0000c0 fa 48 0c 3d 0c 00 31 bd 68 4f 24 3e a6 f0 62 3e
       0.034249283 -0.043212935 0.16045916 0.22162113
0000d0 a6 a9 43 3d 6e 5c 05 be 05 ac f6 3c c8 fb ac bd
       0.04776921 -0.1302354 0.030111322 -0.08446461
0000e0 37 fd 0c 3e 76 b5 3b 3e 23 9e 2c bc 41 0f 65 bd
       0.13768469 0.1833094 -0.01053575 -0.05592275
0000f0 59 c5 b7 3d 58 61 cd 3d ad d7 12 be 05 40 de bd
       0.08973188 0.100283325 -0.14340086 -0.108520545
000100 ee 90 18 3e ec 69 91 3c 77 33 97 3d 46 8d 0c bc
       0.14899036 0.017750703 0.07382863 -0.008578604
000110 16 2b 39 bd 73 9c eb 3d ed ca 53 bd 0a 3c 5e bd
       -0.045207106 0.1150445 -0.051707197 -0.054256476
000120 4d 42 90 3c 63 a1 76 bd 2d 97 54 3d 10 af 2a 3d
       0.01760974 -0.060212504 0.051901985 0.04167086
000130 3f 5e 6b 3e 8f 5b 5e bd 7a cc 5f 3d cf 91 18 bd
       0.22985171 -0.054286536 0.054638363 -0.03724843
000140 ba 80 9c 3d 05 6b 43 3c eb d3 8e bc 34 76 35 3d
       0.0764174 0.011927371 -0.017435035 0.04430218
000150 19 e9 40 3d 1b a4 79 3d ca 52 86 bd fe 14 2f 3d
       0.0470973 0.06094752 -0.065587595 0.04274463
000160 38 6e 4b 3d 33 a5 2b 3d 35 02 44 bd c8 08 bd bd
       0.04966566 0.041905593 -0.047853667 -0.092301905
000170 36 05 3c 3e 45 c5 e5 3d c5 62 7f 3d bc 5d b5 bd
       0.18361363 0.11219267 0.062350053 -0.08855769
000180 44 31 88 3b 89 38 46 bd 6a fe 44 3c 7c 04 99 bd
       0.0041562635 -0.04839376 0.012023548 -0.074715585
000190 6e a4 b5 3d 12 6c 29 3d 0b 43 34 bd 9d 30 d9 bc
       0.08869253 0.04136283 -0.04400925 -0.026512438
0001a0 63 64 9c 3c 69 71 88 bd 15 6b 27 bc 1e 92 8c 3d
       0.019090837 -0.06662256 -0.010218401 0.06863807
0001b0 ee 3c 4f 3d bf 9f fb 3d eb d8 d7 bd de 59 90 bd
       0.050595216 0.122863285 -0.10539421 -0.07048391
0001c0 e1 24 5f 3e ce 0e d9 3d 02 68 0b 3e 67 e9 cc 3d
       0.21791412 0.10598527 0.13613895 0.100054555
0001d0 b3 14 c8 3c a8 23 1e 3d 01 7b c7 3d cc 75 a7 3d
       0.024423933 0.038608223 0.09740258 0.08176765
0001e0 f8 9c e8 bd 5a 44 9e 3d 1f eb 34 3c 46 71 f2 3d
       -0.113580644 0.07727881 0.011042385 0.118380114
0001f0 f3 17 a3 3d 4a 47 41 3e aa e5 f3 3c da 15 dc bd
       0.07963552 0.18874851 0.029772598 -0.10746355
000200 ad b0 fc bc 8c 76 af bc c0 95 e6 3d 03 5b 57 bd
       -0.030845964 -0.021418832 0.11259031 -0.05257703
000210 01 bb 2c be 6b 1c fa 3c 39 c2 8c ba ab c0 82 3d
       -0.16868211 0.030531129 -0.0010739035 0.06384405
000220 7b 6a a8 3d d6 c7 a5 bd 0f d8 96 bd 6e 17 23 3e
       0.082234345 -0.08094756 -0.07365429 0.15926906
000230 41 8c 25 3a 4b 30 2c 3d 85 11 9c 3c bf da 15 bc
       0.000631515 0.042038243 0.019051323 -0.009146391
000240 a4 2e 74 be 4d 2b 86 bd d8 99 81 bd ca 4a d4 3d
       -0.23845917 -0.06551228 -0.063281715 0.103658274
000250 e0 00 52 3d 01 cb 51 3c d5 90 e7 3d d4 5c 0c 3e
       0.051270366 0.012804748 0.113069214 0.13707286
000260 48 79 7f be c7 c0 ed bd cb c9 4d 3e 6d fe 39 3d
       -0.24948609 -0.11609035 0.20096509 0.045408655
000270 6e 23 ff 3c 1f 3d e0 bc c0 25 92 bd 5e 4f da bc
       0.031144824 -0.027372895 -0.071361065 -0.026649173
000280 1f 7f b0 bd 46 a5 b6 3c cb 24 3c bd 32 7b 87 3d
       -0.086179964 0.022295605 -0.045933526 0.066152945
000290 06 0c 43 be 18 e7 91 3d 5c 11 c0 3d 02 ff 20 3c
       -0.19047555 0.07124156 0.09378311 0.009826424
0002a0 17 2d 02 bd 25 0e 67 3c 3e 3a 9e bd d9 c6 15 be
       -0.031781282 0.014102493 -0.077259526 -0.14626636
0002b0 6e b2 98 bd b5 53 06 be 50 23 bd 3d 69 f4 c8 3d
       -0.07455908 -0.13117869 0.09235251 0.098122425
0002c0 5a 8c 2e ba 1a f5 72 3d 87 b6 89 3d 62 5d 5c be
       -0.0006658487 0.05931578 0.067242675 -0.21519998
0002d0 24 f3 ba bd de de b7 3a dd cb 1b bb f6 2b 07 3e
       -0.09128407 0.0014028212 -0.0023772635 0.13200364
0002e0 d0 ca bc 3c b6 07 f2 bd d5 c9 51 3d 36 37 1e 3d
       0.023045927 -0.11817877 0.051217873 0.038626872
0002f0 c5 9f 2d bd ed 51 49 3d b0 d7 9a bd 8e de d5 3d
       -0.042388696 0.049150396 -0.075606704 0.104428396
000300 a9 c7 2d 3e 3d 52 99 bd 40 ad 92 3d 8f 3d b2 bd
       0.16970696 -0.07486389 0.07161951 -0.087031476
000310 04 6e 33 3d 9e 76 83 bd 44 13 3a ba 27 ff f9 3d
       0.04380609 -0.06419109 -0.0007098208 0.122068696
000320 b7 6c 6c 3d 3d e4 05 3d a8 a5 87 bd 53 0c 80 bd
       0.057720866 0.032688368 -0.06623393 -0.06252351
000330 57 ca 54 3d b5 8c 0c bc 54 ce 97 bd e2 dc da 3b
       0.05195078 -0.008578469 -0.07412401 0.0066791633
000340 e1 8c 9f 3d 0e ff 35 3e 4d 60 12 bd 95 4b b3 bd
       0.077905424 0.17773077 -0.03573637 -0.087546505
000350 47 46 d8 bc c4 3a 0e 3e 16 63 00 be 1b 97 00 3e
       -0.026400698 0.13889605 -0.12537798 0.12557642
000360 47 45 05 bd cd ea db 3d a5 92 f0 3d f5 24 ad 3d
       -0.03253677 0.10738144 0.1174672 0.084543146
000370 f6 15 68 3a 0f f4 37 bd 94 ee e0 3d 3f 6c d7 3d
       0.000885337 -0.044910487 0.10983005 0.10518693
000380 3c 4f 49 3e e0 70 52 bd 51 c1 cb 3d fd df 94 bd
       0.19659132 -0.051377177 0.099489816 -0.07269285
000390 63 ad 2d be 97 d1 04 be 95 52 b0 bc f1 97 7a 3b
       -0.16960673 -0.12970577 -0.021523753 0.0038237537
0003a0 a6 e6 8f bc 49 e1 72 bd 47 ec 43 3e 44 90 23 bd
       -0.017566036 -0.05929688 0.19133101 -0.039932504
0003b0 5d d2 ea 3d db d3 28 3d 98 10 e0 3b 02 be d1 bd
       0.11465905 0.041217666 0.0068379156 -0.10241319
0003c0 d3 fc 90 bd ef 2f cd 3d cb 81 0c be 90 90 ff bc
       -0.070794724 0.10018908 -0.13721387 -0.031196862
0003d0 de 21 20 bd b9 e4 37 bc 12 02 39 be 75 50 99 3c
       -0.0390948 -0.011223965 -0.18067196 0.018715123
0003e0 35 4c 4d 3e f2 03 2a be db f7 6e bd 19 24 a6 3d
       0.20048602 -0.16603068 -0.058341842 0.08112354
0003f0 f3 2e 1e bc 40 db 64 3c cb d5 03 3d b1 89 8e bd
       -0.009654748 0.013968289 0.03218631 -0.06959856

network_body._body_endoder.seq_layers.2.bias f4 [128]
000000 00 00 00 00 00 00 00 00 00 00 00 00 00 00 00 00
       0.0 0.0 0.0 0.0
000010 00 00 00 00 00 00 00 00 00 00 00 00 00 00 00 00
       0.0 0.0 0.0 0.0
000020 00 00 00 00 00 00 00 00 00 00 00 00 00 00 00 00
       0.0 0.0 0.0 0.0
000030 00 00 00 00 00 00 00 00 00 00 00 00 00 00 00 00
       0.0 0.0 0.0 0.0
000040 00 00 00 00 00 00 00 00 00 00 00 00 00 00 00 00
       0.0 0.0 0.0 0.0
000050 00 00 00 00 00 00 00 00 00 00 00 00 00 00 00 00
       0.0 0.0 0.0 0.0
000060 00 00 00 00 00 00 00 00 00 00 00 00 00 00 00 00
       0.0 0.0 0.0 0.0
000070 00 00 00 00 00 00 00 00 00 00 00 00 00 00 00 00
       0.0 0.0 0.0 0.0
000080 00 00 00 00 00 00 00 00 00 00 00 00 00 00 00 00
       0.0 0.0 0.0 0.0
000090 00 00 00 00 00 00 00 00 00 00 00 00 00 00 00 00
       0.0 0.0 0.0 0.0
0000a0 00 00 00 00 00 00 00 00 00 00 00 00 00 00 00 00
       0.0 0.0 0.0 0.0
0000b0 00 00 00 00 00 00 00 00 00 00 00 00 00 00 00 00
       0.0 0.0 0.0 0.0
0000c0 00 00 00 00 00 00 00 00 00 00 00 00 00 00 00 00
       0.0 0.0 0.0 0.0
0000d0 00 00 00 00 00 00 00 00 00 00 00 00 00 00 00 00
       0.0 0.0 0.0 0.0
0000e0 00 00 00 00 00 00 00 00 00 00 00 00 00 00 00 00
       0.0 0.0 0.0 0.0
0000f0 00 00 00 00 00 00 00 00 00 00 00 00 00 00 00 00
       0.0 0.0 0.0 0.0
000100 00 00 00 00 00 00 00 00 00 00 00 00 00 00 00 00
       0.0 0.0 0.0 0.0
000110 00 00 00 00 00 00 00 00 00 00 00 00 00 00 00 00
       0.0 0.0 0.0 0.0
000120 00 00 00 00 00 00 00 00 00 00 00 00 00 00 00 00
       0.0 0.0 0.0 0.0
000130 00 00 00 00 00 00 00 00 00 00 00 00 00 00 00 00
       0.0 0.0 0.0 0.0
000140 00 00 00 00 00 00 00 00 00 00 00 00 00 00 00 00
       0.0 0.0 0.0 0.0
000150 00 00 00 00 00 00 00 00 00 00 00 00 00 00 00 00
       0.0 0.0 0.0 0.0
000160 00 00 00 00 00 00 00 00 00 00 00 00 00 00 00 00
       0.0 0.0 0.0 0.0
000170 00 00 00 00 00 00 00 00 00 00 00 00 00 00 00 00
       0.0 0.0 0.0 0.0
000180 00 00 00 00 00 00 00 00 00 00 00 00 00 00 00 00
       0.0 0.0 0.0 0.0
000190 00 00 00 00 00 00 00 00 00 00 00 00 00 00 00 00
       0.0 0.0 0.0 0.0
0001a0 00 00 00 00 00 00 00 00 00 00 00 00 00 00 00 00
       0.0 0.0 0.0 0.0
0001b0 00 00 00 00 00 00 00 00 00 00 00 00 00 00 00 00
       0.0 0.0 0.0 0.0
0001c0 00 00 00 00 00 00 00 00 00 00 00 00 00 00 00 00
       0.0 0.0 0.0 0.0
0001d0 00 00 00 00 00 00 00 00 00 00 00 00 00 00 00 00
       0.0 0.0 0.0 0.0
0001e0 00 00 00 00 00 00 00 00 00 00 00 00 00 00 00 00
       0.0 0.0 0.0 0.0
0001f0 00 00 00 00 00 00 00 00 00 00 00 00 00 00 00 00
       0.0 0.0 0.0 0.0

value_heads.value_heads.extrinsic.weight f4 [1, 128]
000000 1c b7 04 3e 70 88 54 3e f0 d5 6a 3d 8a 44 2e 3e
       0.12960476 0.20755172 0.057332933 0.17018333
000010 1c 9a f5 3d ac ac 9d 3d 50 1b da bd a0 03 be bc
       0.11992285 0.0769895 -0.10649741 -0.023195088
000020 1a bb 0a 3e d6 72 dc bd 04 95 69 bd c8 d5 3f 3d
       0.13547936 -0.10764091 -0.057026878 0.046834737
000030 82 ab db bd 38 65 25 3d ac 15 a8 3d 88 59 f6 3d
       -0.10726072 0.040379733 0.082072586 0.120287955
000040 40 ca 35 3c b8 12 fa 3d 34 31 63 bd 38 fd 97 3d
       0.011095583 0.122106016 -0.055466846 0.074213445
000050 b8 58 2f 3e b4 67 34 bd dc fd 3e 3e 1d c8 1c be
       0.17123687 -0.04404421 0.18651527 -0.15310712
000060 60 22 2e 3d 68 6b 91 bd 44 43 05 3d 60 ca e9 bc
       0.04251325 -0.07100564 0.032534853 -0.028538883
000070 68 ca cb bc 70 f2 05 3d 40 c5 8f bb cf b7 54 be
       -0.024876788 0.03270191 -0.0043875277 -0.20773242
000080 d0 c5 3d 3e f8 90 37 3d 46 fc 00 3e 45 70 42 be
       0.1853249 0.044815987 0.12596235 -0.1898814
000090 ac ff 9e 3d 50 38 3b bc 74 a5 f1 bd 66 3f 07 3e
       0.07763609 -0.011427 -0.11799136 0.13207778
0000a0 a0 18 66 3d 5e f7 0c 3e d0 78 ab 3d e6 7e 34 be
       0.056175828 0.13766238 0.083726525 -0.17626533
0000b0 a4 23 9e 3d b4 5f f4 3d 69 98 00 be 30 d5 26 3d
       0.07721642 0.119323164 -0.1255814 0.040730655
0000c0 e7 06 5c be 80 8e e5 3b f5 4f 31 be 06 77 09 be
       -0.21487008 0.0070055127 -0.17315657 -0.1342431
0000d0 80 f9 4c 3e f4 01 29 be a8 e8 95 bc c9 1a ed bd
       0.20017052 -0.16504651 -0.018299416 -0.115773745
0000e0 45 be 06 be ae 9c 35 3e a0 42 cc 3d 88 bb 74 3d
       -0.1315852 0.1773555 0.09973645 0.059749156
0000f0 9a a7 42 be 50 8b 73 3c 00 c3 fd bc 44 f6 08 3d
       -0.19009247 0.014864758 -0.030976772 0.033437982
000100 4e b2 26 3e 70 19 a3 3d aa 70 4d be c8 7f 33 bd
       0.16278955 0.07963836 -0.20062509 -0.043823034
000110 7e 1c eb bd 5c 13 bc 3d b9 64 4d be 83 84 d0 bd
       -0.11480044 0.0918338 -0.20057954 -0.101815246
000120 00 84 78 ba 00 07 3b 3e 08 31 65 3d 88 76 dc 3c
       -0.0009480119 0.18264389 0.055954963 0.026911989
000130 8a cb c7 bd 88 33 8d 3d 6c c8 c9 3d 70 97 10 3e
       -0.09755619 0.068945944 0.098526806 0.14120269
000140 68 28 66 3d f2 52 c1 bd 10 41 87 bd 80 10 5c 3d
       0.05619088 -0.09439649 -0.066042066 0.053726673
000150 ac 62 f7 3d 40 d6 c6 3c 5c d4 21 be 34 16 a1 bd
       0.12079367 0.024272084 -0.15803665 -0.07865563
000160 ee f8 42 3e 40 77 4b bc f8 72 87 3d be 4d 52 be
       0.19040272 -0.012418568 0.066137254 -0.20537469
000170 1a 60 c9 bd b0 7d 5b 3d d5 67 08 be ca 64 50 be
       -0.09832783 0.05358666 -0.13320859 -0.20350948
000180 08 bf ef 3d ba 77 cf bd e1 cf 47 be 9d cf f7 bd
       0.11706358 -0.10130258 -0.19512893 -0.12100146
000190 1c e2 2d 3e 70 2e 23 3e 7c a2 37 bd e4 1d 1f 3e
       0.16980785 0.15935683 -0.04483269 0.15538746
0001a0 1c 11 8b 3d 12 a0 34 be 3c ff 9a 3d 2e 84 3a 3e
       0.06790373 -0.17639187 0.07568213 0.18214485
0001b0 b0 33 e4 bc 76 a2 15 be 58 64 38 3e 26 87 0d 3e
       -0.027856678 -0.14612755 0.18007028 0.13821086
0001c0 78 e5 43 3e f0 45 0c bc c0 7e 16 3d dc 6e 42 be
       0.19130504 -0.008561596 0.036741972 -0.18987602
0001d0 84 af 18 3e b8 df ea bd f0 40 10 3e 52 39 35 3e
       0.14910704 -0.11468452 0.14087272 0.17697647
0001e0 dc 51 59 bd be 9a 51 3e 44 8d 86 3d 26 d8 10 be
       -0.053056583 0.20469186 0.06569913 -0.14144954
0001f0 91 39 e3 bd 30 bf 23 3e 75 69 52 be 56 15 02 3e
       -0.11094964 0.15990901 -0.20548041 0.12703452
