results/ppo/My Behavior/My Behavior-35977.onnx (onnx, 88006 bytes, 7 tensors)

network_body._body_endoder.seq_layers.0.weight f4 [128, 36]
-0.012338793 0.33688268 0.01953223 0.2137106 0.3918135 0.08869084 -0.19644703 0.04662199
-0.09706222 0.08963699 0.031663086 -0.044355243 0.0891236 -0.20476426 0.08367453 0.07644033
0.17445518 0.0075659733 0.34501672 0.069915205 -0.32269615 -0.0032959322 -0.08715158 0.07443284
0.33333433 0.042237714 -0.21938644 -0.23647167 -0.18729503 0.34010714 0.09767141 0.15694733
0.31783104 -0.12744056 -0.16863103 -0.19864699 0.018645886 -0.09129678 -0.052538596 0.2241427
-0.048497718 -0.01610824 -0.38993123 0.29321286 -0.14556931 -0.07306757 0.07512747 -0.2058791
0.43660796 0.09454051 0.00075912056 0.10846012 -0.14932746 -0.008584188 0.118664645 -0.4672759
0.0423486 -0.091419384 0.2605003 0.20614134 -0.07596776 -0.06644068 0.018114582 0.19901022
0.13821991 -0.06340898 0.2162218 0.67265505 -0.02683508 0.1423571 -0.46769696 -0.24228512
0.051114466 0.15398705 -0.03364648 -0.23916149 -0.16216037 -0.0008816371 -0.0036913618 0.25335893
-0.062038496 0.05851335 0.06087546 0.013851695 -0.0024515914 -0.12355585 -0.06843709 0.22371031
0.020428186 0.05497687 0.208156 0.24523482 0.030775225 -0.21896845 -0.48477018 -0.047642045
0.016478475 -0.06591872 -0.08388247 -0.28355345 0.16451278 -0.07649177 0.09630635 -0.13292047
0.010273164 0.059628688 -0.06721306 0.1638696 -0.04686485 0.14829634 0.06732427 -0.041751724
0.12999468 0.1155698 -0.2564991 0.23865424 0.20489624 0.13012175 -0.22191945 -0.21989395
-0.013349797 -0.19630343 -0.08209079 0.23540698 -0.097807385 -0.09277896 -0.19399695 -0.0404828
0.40352103 0.055460006 -0.06998547 0.16223632 -0.32813236 -0.12639904 0.07219151 -0.032582276
-0.05175267 -0.16134082 -0.06346045 -0.15622379 -0.27111605 0.19371325 -0.03574252 -0.025468085
-0.16013981 0.035269264 -0.25102475 0.17268431 0.1322524 0.22087465 -0.06866934 0.06504563
0.18779583 -0.260601 -0.11630083 -0.25440204 0.0581728 0.14994428 -0.032340553 -0.1690944
-0.16177055 -0.3707086 -0.36984336 0.0012782484 -0.046747923 0.022483675 -0.18844667 0.3216276
-0.24817103 -0.03363196 -0.4415312 0.008827489 0.05693748 0.119387545 -0.1496243 0.06457433
-0.16392557 -0.057572465 -0.16041194 -0.025746386 -0.16560552 -0.36226517 -0.23864782 0.0088804085
-0.0067265425 0.049733087 -0.1678145 0.092753425 0.042429958 0.13002352 0.117841505 -0.12089732
-0.05884088 -0.12037378 -0.0943084 -0.25584492 -0.088144116 -0.078559175 0.32427308 -0.058748346
0.081427544 -0.24520142 -0.07125184 0.11736888 0.08870424 -0.023063745 -0.015417893 0.11076718
0.13272661 0.30814576 0.32633474 -0.12534073 -0.28314614 -0.20442097 -0.15092956 -0.017194692
-0.18449686 -0.024759175 -0.039704144 0.1315479 -0.0024519267 -0.2961429 0.24221998 -0.10976245
-0.26879585 -0.07428782 0.04737637 -0.12972622 0.13551208 0.30254588 -0.008074221 -0.058686834
-0.04684978 -0.08111731 -0.16345656 0.015110338 -0.04973281 0.06777821 -0.03126822 -0.050898254
-0.17588139 0.26414984 0.148563 0.031084774 0.016945021 -0.28177965 0.03017012 0.11814587
-0.081256695 0.09968493 -0.09650471 0.12503089 0.1019753 -0.15316606 -0.14849395 -0.28490767
00000000: a628 4abc e37b ac3e 0e02 a03c f4d6 5a3e
00000010: c79b c83e 8ba3 b53d 6929 49be b3f6 3e3d
00000020: 8fc8 c6bd 9993 b73d 27b1 013d d8ad 35bd
00000030: 6f86 b63d b9ad 51be 8d5d ab3d bf8c 9c3d
00000040: 61a4 323e fceb f73b 08a6 b03e b42f 8f3d
00000050: 6e38 a5be 9100 58bb 877c b2bd 3f70 983d
00000060: ccaa aa3e 7401 2d3d d7a6 60be a125 72be
00000070: 45ca 3fbe 8622 ae3e f307 c83d cdb6 203e
00000080: c0ba a23e c77f 02be 9dad 2cbe 1e6a 4bbe
00000090: 42bf 983c cef9 babd b632 57bd aa85 653e
000000a0: 8ba5 46bd 6df5 83bc 11a5 c7be ff1f 963e
000000b0: 1f10 15be 73a4 95bd 6edc 993d f9d1 52be
000000c0: 148b df3e 749e c13d b8ff 463a 5720 de3d
000000d0: 4ce9 18be b2a4 0cbc 7306 f33d c93e efbe
000000e0: ba75 2d3d 163a bbbd 4c60 853e b716 533e
000000f0: fc94 9bbd 0d12 88bd 0865 943c 56c9 4b3e
00000100: 8589 0d3e 91dc 81bd 3f69 5d3e 1f33 2c3f
00000110: 3ed5 dbbc 0fc6 113e fa75 efbe 9719 78be
00000120: 675d 513d c8ae 1d3e e4d0 09bd c0e6 74be
00000130: 5e0d 26be aa1d 67ba c6ea 71bb 43b8 813e
00000140: 141c 7ebd b2ab 6f3d 8c58 793d 38f2 623c
00000150: e1aa 20bb d90a fdbd bf28 8cbd 5114 653e
00000160: 0359 a73c 6d2f 613d d926 553e d61e 7b3e
00000170: 531c fc3c 4439 60be cc33 f8be 4e24 43bd
00000180: defd 863c 6500 87bd 93ca abbd eb2d 91be
00000190: 0a76 283e b8a7 9cbd 433c c53d 4e1c 08be
000001a0: c650 283c 363d 743d 00a7 89bd 6fcd 273e
000001b0: 5bf5 3fbd ffda 173e 4fe1 893d db03 2bbd
000001c0: 531d 053e dcaf ec3d da53 83be c761 743e
000001d0: 52d0 513e a33e 053e da3e 63be e12b 61be
000001e0: 1bb9 5abc c403 49be 371f a8bd 870e 713e
000001f0: 3d4f c8bd e502 bebd 23a7 46be 4bd1 25bd
00000200: 4f9a ce3e 082a 633d 8b54 8fbd 4721 263e
00000210: f700 a8be c06e 01be 24d9 933d fe74 05bd
00000220: 9cfa 53bd 8736 25be 8df7 81bd 21f9 1fbe
00000230: b9cf 8abe c45c 463e c066 12bd 72a2 d0bc
00000240: b1fb 23be 8176 103d 5186 80be 28d4 303e
00000250: 2c6d 073e f72c 623e 83a2 8cbd a536 853d
00000260: 8d4d 403e 7f6d 85be 212f eebd fc40 82be
00000270: 9a46 6e3d fe8a 193e 8777 04bd 1527 2dbe
00000280: 2ea7 25be 85cd bdbe 1c5c bdbe e68a a73a
00000290: c07a 3fbd af2f b83c 2af8 40be 5fac a43e
000002a0: 8c20 7ebe abc1 09bd 6110 e2be 2ca1 103c
000002b0: 4637 693d 7581 f43d 1d37 19be 8c3f 843d
000002c0: 1bdc 27be 1bd1 6bbd 0743 24be 16ea d2bc
000002d0: 7e94 29be d27a b9be 1860 74be 227f 113c
000002e0: 546a dcbb ecb4 4b3d 90d7 2bbe 82f5 bd3d
000002f0: 09cb 2d3d e324 053e e356 f13d 0499 f7bd
00000300: 2203 71bd 8786 f6bd c324 c1bd 1bfe 82be
00000310: e784 b4bd a2e3 a0bd 1f07 a63e 1ba2 70bd
00000320: 7cc3 a63d 1516 7bbe 7cec 91bd 185f f03d
00000330: 92aa b53d 2ef0 bcbc 559b 7cbc e7d9 e23d
00000340: 7ce9 073e 48c5 9d3e 5915 a73e 5259 00be
00000350: 88f8 90be bb53 51be 478d 1abe e2db 8cbc
00000360: bfec 3cbe c1d3 cabc d0a0 22bd 7eb4 063e
00000370: 81b0 20bb 0ba0 97be 8408 783e 23cb e0bd
00000380: 9c9f 89be 3624 98bd b90d 423d f3d6 04be
00000390: aec3 0a3e 4be7 9a3e bd49 04bc 9b61 70bd
000003a0: 8ee5 3fbd d520 a6bd 2861 27be 5a91 773c
000003b0: a2b4 4bbd 4dcf 8a3d 1b13 00bd b07a 50bd
000003c0: 401a 34be a63e 873e e620 183e 7fa5 fe3c
000003d0: 49d0 8a3c 6c45 90be 5427 f73c 76f6 f13d
000003e0: e969 a6bd 9d27 cc3d 43a4 c5bd 1908 003e
000003f0: 6dd8 d03d 90d7 1cbe cc0e 18be 6bdf 91be

network_body._body_endoder.seq_layers.0.bias f4 [128]
0.0033038985 -0.0027418875 0.0026222328 0.005649037 0.0018301633 -0.0029548286 -0.0015273292 9.6992975e-05
-0.0041233688 0.0050894786 -0.0005514549 -0.00046060685 0.0030556559 -0.0043835035 0.0027835893 -0.002108798
0.002633419 -0.00013350976 0.0009566391 -0.0043328665 -0.0005926283 -0.00015511035 0.0025415616 -0.00038976787
-0.0038077014 -0.003311178 0.002010828 0.003805854 0.00014452398 -0.003991812 -0.0018377547 -0.00018733856
0.0023180854 0.0031318401 0.00055396516 -0.002547428 0.0025296304 0.0025287217 0.0021684873 -0.00083464495
0.0015753866 -0.0052186656 -0.0019722108 0.0019448005 0.00081092905 -0.0037834498 -0.0058565415 0.0013199168
0.0024844438 0.0012369616 -0.009894741 -0.0052949134 0.0034775625 0.00015954679 0.001987965 -0.0014883963
-0.0009297698 -0.0030443126 0.005789351 0.0068967496 0.0005461273 -0.004418291 0.0037431822 -0.0023310431
-0.0014646252 0.002053312 -0.0044911075 -0.001401016 -0.0018083053 -0.0036777887 0.009352987 -0.0021519
-0.0016548669 -0.002794384 -0.003718433 0.004396819 0.0057534734 -0.0005235936 0.0045216954 0.0072251274
0.0027533933 0.005122914 -0.0028424729 -0.0049754884 0.0016301658 -0.0033805387 -0.0011032185 -0.0034854012
0.0019184587 0.001326493 0.0025733232 -0.00023041062 0.0042596003 -0.00373681 0.0019295347 -0.0025343928
0.0011924523 0.0040826164 0.0056608976 -0.0048133642 -0.0025117393 0.0010215003 0.0042985003 -0.0037231576
0.0027837348 -0.00262352 0.0026517294 -0.0068429736 0.0008407023 0.000333062 -0.0017458833 -0.0039544352
0.001691601 0.00015938291 -0.002541305 0.004328118 0.0035893656 -0.0026157151 -0.00054560945 -0.0044188886
-0.0039565433 -0.0012136842 -0.0012025015 0.0041993093 -0.0031336092 -0.0017462238 -0.00075288466 -0.0027322832
00000000: 3886 583b 3db1 33bb c4d9 2b3b 8f1b b93b
00000010: 17e2 ef3a cca5 41bb aa30 c8ba b568 cb38
00000020: 531d 87bb a4c5 a63b 838f 10ba 9b7d f1b9
00000030: 6641 483b 7ea3 8fbb e16c 363b c233 0abb
00000040: 7095 2c3b c1fe 0bb9 f7c6 7a3a b8fa 8dbb
00000050: 9d5a 1bba 1ea5 22b9 5490 263b c259 ccb9
00000060: a18a 79bb 5900 59bb 18c8 033b a26b 793b
00000070: 5c8b 1739 bfcd 82bb d1e0 f0ba 5070 44b9
00000080: 05eb 173b 8f3f 4d3b f937 113a c0f2 26bb
00000090: 28c8 253b e9b8 253b 2e1d 0e3b 13cc 5aba
000000a0: 347d ce3a 5701 abbb 3540 01bb ade8 fe3a
000000b0: 8794 543a c1f3 77bb 3be8 bfbb 0f01 ad3a
000000c0: 0dd2 223b 8b21 a23a 8d1d 22bc f480 adbb
000000d0: d1e7 633b 044c 2739 8548 023b 4b16 c3ba
000000e0: ccbb 73ba 1783 47bb 99b4 bd3b 21fe e13b
000000f0: fc29 0f3a 50c7 90bb 2d50 753b 6ac4 18bb
00000100: abf8 bfba dc90 063b 242a 93bb 4ca2 b7ba
00000110: a804 edba 0e07 71bb 453d 193c e406 0dbb
00000120: 1ee8 d8ba fc21 37bb f4b0 73bb 3113 903b
00000130: a287 bc3b c641 09ba bb2a 943b c3c0 ec3b
00000140: 4672 343b 1ede a73b c848 3abb 6c09 a3bb
00000150: 4aab d53a 078c 5dbb df99 90ba 546b 64bb
00000160: cb74 fb3a b8dd ad3a 33a5 283b 619a 71b9
00000170: 1e94 8b3b 45e5 74bb 71e8 fc3a 0e18 26bb
00000180: 0f4c 9c3a 78c7 853b 0d7f b93b 6db9 9dbb
00000190: fe9b 24bb dde3 853a 6fda 8c3b 3800 74bb
000001a0: 526f 363b 5def 2bbb a3c8 2d3b 063b e0bb
000001b0: 9462 5c3a d39e ae39 1fd6 e4ba 3594 81bb
000001c0: b6b8 dd3a 0620 2739 068c 26bb e3d2 8d3b
000001d0: 903b 6b3b 6b6c 2bbb 3b07 0fba 53cc 90bb
000001e0: e4a5 81bb 7c14 9fba 419d 9dba 5c9a 893b
000001f0: 3d5d 4dbb 8ce1 e4ba 3c5d 45ba 1b10 33bb

network_body._body_endoder.seq_layers.2.weight f4 [128, 128]
-0.073764965 -0.061699122 -0.05038333 -0.053818457 -0.053227574 0.1486381 0.033085495 -0.019347616
0.070156716 0.114243954 -0.038537152 -0.016756987 0.060801204 -0.0043597477 -0.075277574 -0.013151963
-0.09260893 0.028553924 0.023510521 -0.20257095 -0.13620658 8.7239256e-05 -0.013171204 -0.023421621
0.023467254 -0.112108134 0.19231476 -0.029382803 0.025397608 0.03121047 -0.14278607 -0.011575639
-0.055383787 -0.0030906904 0.012462096 0.02680358 -0.040946055 0.07175408 -0.020461714 -0.101483144
-0.061883233 -0.036197867 0.011539051 -0.08792101 0.08731018 0.14577684 -0.007478443 -0.06898366
-0.05947237 -0.031898994 -0.13076459 -0.05315325 -0.1251068 0.04433992 -0.054368407 -0.13512559
-0.020366432 0.0019089772 0.06873735 -0.05281062 0.09902879 -0.1799246 -0.20273755 0.20109737
-0.14879033 0.045636125 -0.11723792 0.11118457 -0.10596212 -0.049232263 -0.037201192 0.0136681525
0.023131365 0.097423464 0.016589371 -0.084103815 -0.050852805 -0.120444395 -0.053449202 0.024902584
-0.0021996542 0.10385958 0.01775803 -0.063598156 -0.14004816 -0.090438224 0.06790206 -0.21738723
0.020342968 -0.026630322 0.09621927 0.06322656 -0.10991597 -0.027944863 0.039958935 0.16204701
-0.054602858 0.02295936 -0.04026696 -0.11921642 0.26065263 0.08882518 0.08632421 0.04495391
-0.02945079 0.16520219 -0.1540399 0.016750673 -0.08631738 0.06332096 -0.005524119 0.021041626
0.08264296 0.010567768 -0.112997696 -0.03232116 -0.058248002 0.014981203 0.07740929 -0.067028955
-0.003587546 -0.059368808 0.0337859 -0.060994193 -0.0764867 0.025026271 0.108884506 -0.057285506
-0.023596583 -0.11016715 -0.0065629785 -0.05509304 -0.042674806 0.102368444 -0.06478513 -0.017139466
0.060704313 0.02206527 0.107105166 0.038948912 0.018370207 -0.012237193 0.00474828 -0.1482502
0.074086815 0.00846143 0.2923897 -0.042655163 -0.0076749264 0.029207746 -0.00089894823 -0.110073216
0.20762017 0.008494482 0.18582782 -0.14222588 -0.093971476 -0.0618933 -0.027896222 0.1699604
-0.10846597 0.054407995 -0.06495984 -0.0971997 -0.17458445 -0.012165274 -0.09703663 -0.12749854
0.03633627 0.084902294 -0.07165364 0.07167133 0.0075021107 0.03770506 0.10795882 -0.047597464
0.1522409 -0.055415925 -0.15955624 0.054829936 0.07708187 -0.012121325 -0.06894278 0.097126655
-0.046727486 0.06672635 0.1535817 -0.020566698 0.2940558 0.04846069 -0.0012155095 0.108202115
-0.09952791 0.1365549 0.010705741 -0.04387471 0.069156766 -0.10537425 -0.035744116 -0.011887495
0.10576993 0.07463352 0.0054380544 -0.06292965 -0.07091929 0.09777653 0.0341541 0.0021565813
0.036342002 -0.010886058 -0.052081484 -0.02790301 -0.012500601 0.053237323 0.07699077 0.09933125
0.0069979127 -0.011544483 -0.016367499 0.118020706 0.083259024 0.025905732 0.17886142 -0.065313414
-0.0715796 0.037222598 -0.008311797 -0.005951295 0.10657011 -0.10203335 -0.19785336 0.05985542
-0.018083047 0.07426287 0.07001675 -0.03252914 -0.12776019 0.064422116 0.043322902 0.035375178
-0.103783995 0.013094875 -0.045984834 -0.14023063 -0.14436562 0.036064528 -0.0005696774 -0.013562293
0.001881042 -0.15848945 -0.08147259 -0.0759094 -0.09758849 0.0370187 0.015345822 0.16402474
00000000: 1612 97bd 38b8 7cbd c05e 4ebd be70 5cbd
00000010: 2805 5abd 9634 183e a884 073d e47e 9ebc
00000020: 53ae 8f3d bcf8 e93d 22d9 1dbd f345 89bc
00000030: af0a 793d 37dc 8ebb 212b 9abd 557b 57bc
00000040: c0a9 bdbd ebe9 e93c 2399 c03c c26e 4fbe
00000050: bd79 0bbe 38f4 b638 09cc 57bc b3de bfbc
00000060: 663e c03c f398 e5bd 29ee 443e 34b4 f0bc
00000070: a50e d03c 19ad ff3c 8336 12be c0a7 3dbc
00000080: 1cda 62bd 2e8d 4abb d22d 4c3c 2e93 db3c
00000090: 0db7 27bd cef3 923d 539f a7bc 65d6 cfbd
000000a0: 4679 7dbd 3744 14bd 4a0e 3d3c ee0f b4bd
000000b0: aecf b23d 8646 153e ba0d f5bb 4e47 8dbd
000000c0: 4d99 73bd 85a8 02bd 27e7 05be 39b7 59bd
000000d0: ff1b 00be c79d 353d 68b1 5ebd 5d5e 0abe
000000e0: 81d7 a6bc a536 fa3a 2bc6 8c3d f34f 58bd
000000f0: 9bcf ca3d 283e 38be 6f9a 4fbe 78ec 4d3e
00000100: 7e5c 18be f2ec 3a3d 6f1a f0bd bcb4 e33d
00000110: ab02 d9bd c5a7 49bd 4760 18bd 63f0 5f3c
00000120: fd7d bd3c f485 c73d 6fe6 873c 9f3e acbd
00000130: 084b 50bd 8dab f6bd 8ded 5abd 8100 cc3c
00000140: 1328 10bb 55b4 d43d 4a79 913c c03f 82bd
00000150: c968 0fbe ad37 b9bd 3c10 8b3d c29a 5ebe
00000160: 4ca6 a63c d527 dabc 9c0e c53d ed7c 813d
00000170: a01b e1bd a0ec e4bc fbab 233d a7ef 253e
00000180: 3fa7 5fbd 4515 bc3c f8ee 24bd bd27 f4bd
00000190: 4374 853e fae9 b53d bfca b03d 9721 383d
000001a0: c842 f1bc c32a 293e a3bc 1dbe b538 893c
000001b0: 2bc7 b0bd 6bae 813d ab03 b5bb 7d5f ac3c
000001c0: b640 a93d 6e24 2d3c 566b e7bd 3163 04bd
000001d0: 7595 6ebd b873 753c c388 9e3d 7a46 89bd
000001e0: 091d 6bbb b52c 73bd 1563 0a3d 0cd5 79bd
000001f0: 0fa5 9cbd e503 cd3c d7fe de3d 35a4 6abd
00000200: 9f4d c1bc 519f e1bd 410e d7bb 3da9 61bd
00000210: c7cb 2ebd 8ca6 d13d 11ae 84bd 1168 8cbc
00000220: 16a5 783d 3ac2 b43c f459 db3d e588 1f3d
00000230: 1e7d 963c 827e 48bc 7697 9b3b e7ce 17be
00000240: d4ba 973d cfa1 0a3c 1ab4 953e 2eb7 2ebd
00000250: f37d fbbb 1545 ef3c 65a7 6bba 116e e1bd
00000260: 629a 543e 712c 0b3c a649 3e3e a9a3 11be
00000270: 1e74 c0bd d483 7dbd 9e86 e4bc 190a 2e3e
00000280: 6823 debd ebda 5e3d aa09 85bd a310 c7bd
00000290: 44c6 32be db50 47bc 24bb c6bd fa8e 02be
000002a0: 57d5 143d 41e1 ad3d 25bf 92bd 6bc8 923d
000002b0: 44d4 f53b 9f70 1a3d 8419 dd3d 8ff5 42bd
000002c0: 0ae5 1b3e cffb 62bd b662 23be 5b95 603d
000002d0: 19dd 9d3d 8698 46bc df31 8dbd 57ea c63d
000002e0: 5265 3fbd d3a7 883d 8544 1d3e 7e7b a8bc
000002f0: 7b8e 963e b77e 463d bb51 9fba 1299 dd3d
00000300: 4ad5 cbbd 0cd5 0b3e 2267 2f3c f8b5 33bd
00000310: 10a2 8d3d 74ce d7bd 6c68 12bd c5c3 42bc
00000320: e89d d83d 75d9 983d b531 b23b 43e1 80bd
00000330: 223e 91bd 103f c83d 2be5 0b3d 6e55 0d3b
00000340: 5adb 143d 705b 32bc 6553 55bd da94 e4bc
00000350: 52cf 4cbc 610f 5a3d 56ad 9d3d 2f6e cb3d
00000360: bf4e e53b 1225 3dbc 2215 86bc d7b4 f13d
00000370: b583 aa3d 4238 d43c 7327 373e 0ac3 85bd
00000380: 5398 92bd b976 183d 342e 08bc 1503 c3bb
00000390: 6e41 da3d dcf6 d0bd 129a 4abe f52a 753d
000003a0: e622 94bc 2217 983d f164 8f3d 473d 05bd
000003b0: 91d3 02be beef 833d 5b73 313d 90e5 103d
000003c0: b48c d4bd e38b 563c 985a 3cbd 9e98 0fbe
000003d0: 95d4 13be 66b8 133d 6756 15ba 6134 5ebc
000003e0: 4c8d f63a 0f4b 22be 1adb a6bd 6376 9bbd
000003f0: 79dc c7bd eca0 173d 0b6d 7b3c 1af6 273e

network_body._body_endoder.seq_layers.2.bias f4 [128]
-0.0039807092 -0.00271047 -0.0037386385 0.00016817063 0.003658899 0.0008183751 -0.0023809483 -0.001321461
0.0046983194 -0.0030009449 0.004905253 -0.004472987 -0.00056852074 0.0019907712 -0.0007408446 -0.0034151548
0.0027092814 -0.001825747 -0.0014759898 -0.003926658 0.002941358 0.0045483964 0.003903083 -0.00057493756
0.004765327 -0.00014566667 0.0028082556 0.000275306 -0.00395004 -0.0017977976 0.002823362 -0.009586124
0.0033000936 0.0013557393 0.0026309015 0.0064117117 -0.000576078 0.0033910638 0.004151015 -0.0036944803
0.00027263805 -0.0032052074 0.00025854324 -0.0021098931 -0.0007911495 -0.0021548278 -0.0010367611 -0.0011803295
-0.005786372 0.0014142694 0.00060725433 0.00197205 -0.0010110403 -0.0003689063 -0.0048270025 0.0012257023
0.0031084938 -0.0017245316 -0.0047426065 0.004481415 0.0041482956 0.0038283297 0.0047724913 0.007721515
-0.0031141231 0.0051597776 -0.0015032929 7.314942e-05 -3.8490507e-05 0.0035882927 -0.0041608037 -0.0045814766
-0.002668157 0.0010736759 0.0015441654 0.002829235 -0.0044481917 0.0033557033 -0.0031722754 0.003634111
0.0017438699 0.0073275003 -0.0018030516 -0.0005943374 0.0013529047 -0.001160426 -0.002425457 0.0037381088
-0.0023546182 0.00051575387 0.0018661501 -0.0034747273 -0.0007847247 0.003045581 0.0034192812 -0.00039003478
-0.0011384026 -0.0037366517 0.003819729 -0.002915595 0.0048263837 -0.003461383 -0.0040090736 0.0020530168
0.0027420318 -0.0014770852 -0.004136839 0.0048793685 0.0035125639 -0.0008842689 0.0042270133 0.00034363757
-0.0017526746 -0.0026796965 -0.0038975698 0.0037057872 -0.0012469339 0.0015527288 -0.0035572862 0.0015712922
-0.003262469 -0.0032346023 -0.0017738768 -0.0025284057 0.004461969 -0.003729142 -0.003899546 0.0025329336
00000000: 9c70 82bb 24a2 31bb f203 75bb f656 3039
00000010: 24ca 6f3b 3988 563a af09 1cbb e034 adba
00000020: 5cf4 993b 80ab 44bb 3fbc a03b 2292 92bb
00000030: c808 15ba 9977 023b 3d35 42ba cad0 5fbb
00000040: 338e 313b e74d efba 0076 c1ba 32ab 80bb
00000050: ccc3 403b b70a 953b deca 7f3b 68b7 16ba
00000060: 7626 9c3b 19be 18b9 b60a 383b f256 9039
00000070: 566f 81bb 14a4 ebba 2708 393b 1e0f 1dbc
00000080: 6246 583b 10b3 b13a 346b 2c3b 5619 d23b
00000090: f103 17ba 9c3c 5e3b 3d05 883b 181f 72bb
000000a0: dcf0 8e39 750e 52bb 168d 8739 2246 0abb
000000b0: 2565 4fba 0338 0dbb eee3 87ba 49b5 9aba
000000c0: 9b9b bdbb 025f b93a 2630 1f3a 823d 013b
000000d0: e284 84ba c469 c1b9 d52b 9ebb bfa7 a03a
000000e0: dfb7 4b3b ae09 e2ba de67 9bbb d5d8 923b
000000f0: 6dee 873b b7e4 7a3b 8f62 9c3b c304 fd3b
00000100: 5116 4cbb 5a13 a93b 240a c5ba cc67 9938
00000110: de70 21b8 9029 6b3b 5a57 88bb 3620 96bb
00000120: 3fdc 2ebb 96ba 8c3a 9865 ca3a b06a 393b
00000130: 23c2 91bb 5ceb 5b3b f3e5 4fbb 442a 6e3b
00000140: 9092 e43a 871b f03b 5f54 ecba 4fcd 1bba
00000150: f353 b13a 6f19 98ba 6af4 1ebb 0ffb 743b
00000160: f04f 1abb a833 073a 9b99 f43a 40b8 63bb
00000170: fcb5 4dba 5f98 473b 0516 603b 957d ccb9
00000180: 7436 95ba 9de2 74bb 6b54 7a3b 9113 3fbb
00000190: a426 9e3b 5fd8 62bb 8c5e 83bb e88b 063b
000001a0: a9b3 333b c19a c1ba 528e 87bb 1ce3 9f3b
000001b0: 0b33 663b 48ce 67ba c282 8a3b 412a b439
000001c0: 00ba e5ba d99d 2fbb 5f6e 7fbb cbdc 723b
000001d0: 2970 a3ba ef84 cb3a 5c21 69bb d1f3 cd3a
000001e0: 26cf 55bb 9ffb 53bb 6e81 e8ba 9cb3 25bb
000001f0: b535 923b 9f64 74bb 878f 7fbb 93ff 253b

action_model._continuous_distribution.log_sigma f4 [1, 2]
0.0020762805 0.0054697827
00000000: 3512 083b dd3b b33b

action_model._continuous_distribution.mu.weight f4 [2, 128]
-0.02686391 -0.014201906 -0.012096264 -0.013890662 -0.00051441754 0.012640522 -0.0103710545 0.0021395425
0.018472983 -0.0121934265 0.012576835 -0.035345893 -0.011296103 0.02224797 0.013284627 -0.012280191
-0.0044471254 -0.02364817 0.0027226836 -0.025873045 0.00904293 0.018477144 0.017049279 0.006277574
0.017230442 0.0028876762 0.013467608 0.016829686 -0.02336767 -0.006752369 0.018036358 -0.0077673118
0.0051379204 0.026006099 0.02016551 0.008405321 0.0018811362 0.028288962 0.021524394 -0.039275784
-0.005108878 -0.003445011 -0.02322847 -0.026168479 -0.00026784174 -0.016821885 -0.01636764 -0.013040472
-0.029901948 0.021267425 0.03663485 0.022731772 0.009342609 -0.0061039487 -0.0063943723 0.054536905
0.018191889 -0.02316754 -0.022827279 0.0035763462 0.014513698 0.027218161 0.00048642376 0.01411981
-0.0389958 0.012925314 0.004893878 -0.0046577426 -0.013020873 0.009814776 -0.030957846 -0.011288754
-0.0057455595 0.0004357354 0.002183025 -0.0014569268 -0.026301073 0.015826594 -0.00994217 0.021848848
0.019072017 0.0060858517 0.0012122336 -0.0047765616 0.00677944 0.003378559 -0.013633417 0.030229641
-0.016924134 -0.012879099 0.012980562 -0.016950697 -0.0126722865 0.01882798 -0.0006279552 -0.0061315745
-0.011374771 -0.028541801 0.005955637 -0.008910495 0.0030621383 -0.021012098 -0.03707463 -0.011670176
0.021100996 -0.015698802 -0.0030532703 0.012267155 0.0121249175 -0.03353797 -0.00016625563 -0.004704875
-0.0013014827 -0.03172854 -0.026956255 0.005150302 -0.0021002481 0.016952654 -0.021645365 -0.007643016
-0.009517668 -0.038679745 -0.0008616558 -0.0012505725 0.018079126 -0.01872627 -0.0055180155 -0.0022884097
0.01892234 -0.00057302025 0.007632467 -0.013107073 -0.010899451 0.014981652 -0.0003912464 0.0077222995
-0.016658356 0.016025158 -0.018301267 0.005278836 -0.019246541 0.0068074716 0.035240367 0.0076718386
-0.0191226 -0.009593751 0.027822562 0.01841802 -0.00073725975 -0.033212803 -0.006983883 0.04704341
-0.032483533 0.025845584 -0.0023879127 0.014793796 0.028539518 -0.0041338657 -0.0013170192 0.00817723
-0.0036796646 0.013814403 -0.002714049 -0.04921534 0.018331604 -0.013045485 -0.009423898 0.013879164
-0.0033937537 0.0068490556 -0.045065854 -0.0042432738 -0.0023246966 0.0030302133 -0.02304224 -0.0141698355
0.011162033 0.013891891 0.046929482 0.008434331 0.00996755 -0.01091969 0.0032970589 0.01558094
-0.005219152 -0.0037392513 0.012627689 -0.01036025 -0.01769603 -0.016183786 -0.01273499 -0.016722888
0.008752741 -0.00702855 0.015227568 0.009325426 -0.031562157 -0.0010869913 -0.0020113944 0.0076851402
-0.0012958237 0.0021982004 0.0105364965 -0.0077038663 0.030603781 -0.0011791672 0.0084505 -0.011813531
0.008150706 -0.021607513 0.015363023 -0.010416532 0.00080078875 0.011880245 -0.007787342 -0.008395882
-0.009074521 -0.022185717 0.0052898494 0.0062630135 -0.017189974 -0.0029751372 -0.00028504842 -0.011558748
-0.013738442 0.010964883 -0.01761519 0.031418744 -0.033343516 0.0012488094 0.0017343059 -0.039892484
-0.0014642605 -0.005746213 0.0078294 -0.01645968 -0.0019155669 -0.014896663 -0.0017737664 -0.0056866836
0.00875571 -0.0015344352 0.0075876573 -0.007435235 -0.0060616788 0.0042559723 0.0068115294 -0.016452597
0.006321773 -0.0010573887 0.014897819 0.0325597 -0.024839384 0.0055131735 0.037468664 -0.021601513
00000000: b411 dcbc 1caf 68bc 692f 46bc a995 63bc
00000010: fad9 06ba 311a 4f3c 5beb 29bc 9137 0c3b
00000020: a754 973c f0c6 47bc 120f 4e3c dbc6 10bd
00000030: 4a13 39bc 6041 b63c c4a7 593c db32 49bc
00000040: 31b9 91bb cfb9 c1bc 0d6f 323b b5f3 d3bc
00000050: cc28 143c 615d 973c eeaa 8b3c 1cb4 cd3b
00000060: db26 8d3c 2b3f 3d3b 3ea7 5c3c 69de 893c
00000070: 8e6d bfbc fa42 ddbb fcc0 933c ef84 febb
00000080: 005c a83b be0a d53c 2432 a53c 79b6 093c
00000090: 7590 f63a 41be e73c ed53 b03c a5df 20bd
000000a0: 6068 a7bb b2c5 61bb a249 bebc 475f d6bc
000000b0: 1c6d 8cb9 0dce 89bc 6e15 86bc b4a7 55bc
000000c0: eef4 f4bc 0639 ae3c 6d0e 163d fb37 ba3c
000000d0: be11 193c a203 c8bb e287 d1bb 1762 5f3d
000000e0: 2807 953c dac9 bdbc 4600 bbbc 2261 6a3b
000000f0: ddca 6d3c 9ff8 de3c b106 ff39 c756 673c
00000100: 0fba 1fbd b2c4 533c d35c a03b fa9f 98bb
00000110: 8055 55bc 27ce 203c 4f9b fdbc 77f4 38bc
00000120: 3f45 bcbb 6a73 e439 1511 0f3b 5af6 beba
00000130: 5975 d7bc c6a6 813c 7ce4 22bc 5bfc b23c
00000140: eb3c 9c3c d36b c73b cfe3 9e3a b484 9cbb
00000150: 1126 de3b d06a 5d3b b25e 5fbc 27a4 f73c
00000160: 7ba4 8abc db02 53bc 6cac 543c 30dc 8abc
00000170: 6c9f 4fbc 233d 9a3c 5c9d 24ba 60eb c8bb
00000180: 3f5d 3abc 7fd0 e9bc 8127 c33b 53fd 11bc
00000190: 28ae 483b 9021 acbc 91db 17bd 4434 3fbc
000001a0: ffdb ac3c c69a 80bc 6019 48bb 2dfc 483c
000001b0: 97a7 463c 1c5f 09bd e854 2eb9 5a2b 9abb
000001c0: 8396 aaba c9f5 01bd 5dd3 dcbc ddc3 a83b
000001d0: 51a4 09bb 4be0 8a3c 9f51 b1bc 4472 fabb
000001e0: feef 1bbc a76e 1ebd bee0 61ba 40ea a3ba
000001f0: ad1a 943c d667 99bc 78d0 b4bb 25f9 15bb
00000200: 0603 9b3c bd36 16ba c619 fa3b 0cbf 56bc
00000210: 9c93 32bc 9a75 753c 3420 cdb9 580b fd3b
00000220: 1b77 88bc 3147 833c 8aec 95bc 16fa ac3b
00000230: ecaa 9dbc 3611 df3b 3458 103d 0c64 fb3b
00000240: 00a7 9cbc 1c2f 1dbc 24ec e33c 63e1 963c
00000250: aa44 41ba 260a 08bd 0fd9 e4bb 97b0 403d
00000260: 740d 05bd 1eba d33c 877e 1cbb ae61 723c
00000270: b5cb e93c 6175 87bb d59f acba caf9 053c
00000280: 8726 71bb ce55 623c 30de 31bb 0696 49bd
00000290: 292c 963c bbbc 55bc b166 1abc 6f65 633c
000002a0: bd69 5ebb 0b6e e03b f996 38bd 290b 8bbb
000002b0: f059 18bb 8b96 463b 14c3 bcbc 9928 68bc
000002c0: f6e0 363c d09a 633c 2139 403d 2630 0a3c
000002d0: ef4e 233c 80e8 32bc 7813 583b 3347 7f3c
000002e0: 6c05 abbb 3a0e 75bb 5ee4 4e3c 0abe 29bc
000002f0: 44f7 90bc dc93 84bc 6ba6 50bc 70fe 88bc
00000300: a867 0f3c c04f e6bb 0d7d 793c acc9 183c
00000310: 5247 01bd 6079 8eba 99d1 03bb a1d3 fb3b
00000320: a1d8 a9ba af0f 103b 45a1 2c3c b770 fcbb
00000330: c8b4 fa3c 498e 9aba f773 0a3c 8a8d 41bc
00000340: 8a8a 053c 3d02 b1bc 30b5 7b3c 1aaa 2abc
00000350: 06ec 513a 5ca5 423c f62c ffbb e28e 09bc
00000360: 4dad 14bc d2be b5bc 7956 ad3b f739 cd3b
00000370: fdd1 8cbc 85fa 42bb 8d72 95b9 e760 3dbc
00000380: 3417 61bc 0da6 333c bb4d 90bc f1b0 003d
00000390: 3693 08bd 17af a33a a651 e33a 4d66 23bd
000003a0: 6eec bfba ba4a bcbb e246 003c 73d6 86bc
000003b0: c213 fbba 2211 74bc b97d e8ba 5c57 babb
000003c0: 1c74 0f3c 1a1f c9ba e2a1 f83b 46a3 f3bb
000003d0: 0ca1 c6bb af75 8b3b 4033 df3b 99c7 86bc
000003e0: e026 cf3b 1498 8aba fb15 743c 525d 053d
000003f0: f77b cbbc daa7 b43b be78 193d a8f5 b0bc

action_model._continuous_distribution.mu.bias f4 [2]
0.0030701854 -0.0023327246
00000000: 2a35 493b a0e0 18bb
