results/ppo/My Behavior/My Behavior-8995.pt (torch, 149303 bytes, 12 tensors)

network_body._body_endoder.seq_layers.0.weight f4 [128, 6]
0.058142144 0.3907482 0.24028866 -0.15782894 0.3058435 -0.26462442 0.18947807 -0.3533501
-0.09682808 0.34920514 -0.32123092 -0.6341816 -0.1691518 0.27744105 -0.19203927 0.164495
0.38709074 -0.14745082 -0.14547761 -0.7326725 0.95275044 -0.58282614 0.31361976 -0.026653416
0.021962283 0.22041789 -0.121204935 -0.039957933 -0.29648483 0.025275862 0.09265257 0.06343642
-0.07216431 -1.7026633 -0.6686155 0.66491574 -0.1212948 -0.07991712 -0.04957137 -0.34259698
0.2566132 -0.15117382 -0.4191702 -0.030761702 0.6279581 0.030076312 -0.25450957 0.27583078
0.17533012 0.78233963 0.26561168 0.08385587 -0.41428438 0.7451257 0.18412666 -0.34777802
-0.39302194 0.25835782 1.0593731 -0.88499844 -0.29091895 -0.12071696 0.7146019 0.05001439
0.5070764 0.61646783 0.011051345 -0.27349788 0.022496453 0.5912278 0.43522125 0.27557418
0.6214816 -0.23772454 -0.4905981 0.07268445 -0.11240296 0.28096145 0.33473417 -0.1049792
-0.77872324 0.25231522 0.14576328 0.18026723 -0.29269132 0.38383245 -0.27462977 0.7047151
-0.1820919 0.19143048 -0.1466409 0.40657565 0.25108075 0.33680403 0.032930758 0.3321677
0.6738046 -0.15416466 -0.3783202 -0.11303529 -0.27578112 -0.51618004 -0.33685786 0.16080269
0.5072854 -0.054864865 0.07500336 -0.45308638 -0.050155003 0.18538807 -0.15928935 -0.3175617
0.344016 0.09540262 -0.4830412 0.31166065 -0.51515216 -0.6290911 0.44231796 0.15638015
-0.105832756 0.15830179 -0.44543314 -0.8607823 -0.8220567 0.006111058 -0.36298677 -0.37200835
0.49686423 -0.42721704 -0.69117624 0.40355852 0.110977665 0.40933892 0.29196858 -0.26405728
0.6767735 0.6707181 0.9711026 -0.43814608 0.14437817 0.084486514 0.21441527 -0.3647542
-0.40068054 -0.18366262 -0.6846891 0.93732595 -0.509241 0.3336817 0.25783893 0.38630942
-0.63000447 -0.11267334 0.18769036 -0.39840564 0.6371865 -0.00037385462 -0.36156747 0.11612308
-0.074076906 -0.60265124 0.37429407 0.14202307 0.786808 0.38574183 0.26447532 1.2914504
-0.32144883 0.68307316 0.019294035 -0.546982 -0.2458948 0.10357621 -0.4215878 0.0021580805
-0.67671365 0.15802246 -0.14022134 -0.27847257 0.4281301 0.06825246 0.42570364 0.431226
0.3310231 0.17583343 -0.29701212 0.07935726 -0.060802337 -0.21390726 -0.3469079 0.6402597
0.34340635 0.80651 0.7302133 -0.35505065 -0.2370392 0.22001174 0.16521034 0.17894953
-0.30539587 -0.49590793 -0.8559036 0.39167997 -0.6423452 0.21313928 0.15363978 -0.024133641
-0.67663914 0.6594118 0.39657432 -0.5150415 -0.03280892 -0.41478184 -0.3390349 -0.4543428
-0.02015579 0.058897424 -0.59634507 -0.34263045 -0.25322574 0.335327 0.07624536 -0.2824257
-0.259561 0.36636794 0.41191006 -0.19199444 0.36284304 -0.26447532 -0.13292147 0.37869525
0.6610855 -0.03508866 -0.5322924 -0.4920901 -0.1748266 0.36258733 0.064153045 0.8030365
-0.024793666 -1.009848 -0.22833245 0.198768 0.26535368 0.33126482 1.0047706 -0.70354533
-0.17393997 -0.096401 0.25808617 0.06397995 -0.29447594 -0.29398125 1.0017744 0.2242582
00000000: 7526 6e3d 2610 c83e 3b0e 763e e99d 21be
00000010: 8597 9c3e da7c 87be 8a06 423e 4eea b4be
00000020: cd4d c6bd 04cb b23e 6178 a4be ba59 22bf
00000030: 2136 2dbe c10c 8e3e f1a5 44be 6171 283e
00000040: c230 c63e 59fd 16be 15f8 14be 6d90 3bbf
00000050: 74e7 733f 1834 15bf c592 a03e 4458 dabc
00000060: 3fea b33c 3ab5 613e 4b3a f8bd eeaa 23bd
00000070: dccc 97be 530f cf3c a1c0 bd3d f4ea 813d
00000080: e2ca 93bd dff0 d9bf 632a 2bbf eb37 2a3f
00000090: 6869 f8bd 96ab a3bd 590b 4bbd df68 afbe
000000a0: ce62 833e 4fcd 1abe 7a9d d6be f7ff fbbc
000000b0: ddc1 203f 9962 f63c 144f 82be b139 8d3e
000000c0: bd89 333e 6947 483f 41fe 873e a0bc ab3d
000000d0: 151d d4be 8fc0 3e3f b38b 3c3e f60f b2be
000000e0: 2c3a c9be 7a47 843e 8a99 873f 428f 62bf
000000f0: 54f3 94be 743a f7bd 26f0 363f e4db 4c3d
00000100: c2cf 013f d6d0 1d3f b310 353c ea07 8cbe
00000110: 7b4a b83c b55a 173f 52d5 de3e 0f18 8d3e
00000120: 6b19 1f3f 106e 73be ad2f fbbe 96db 943d
00000130: 8633 e6bd 2eda 8f3e 4762 ab3e 56ff d6bd
00000140: 685a 47bf 762f 813e f842 153e f997 383e
00000150: a3db 95be b085 c43e 469c 8cbe 3568 343f
00000160: 4d76 3abe 5a06 443e 0829 16be af2a d03e
00000170: a88d 803e 9471 ac3e 67e2 063d e311 aa3e
00000180: 757e 2c3f 57dd 1dbe 2fb3 c1be 0c7f e7bd
00000190: 2f33 8dbe 6024 04bf a278 acbe 76a9 243e
000001a0: 75dd 013f fbb9 60bd 5d9b 993d f0fa e7be
000001b0: 556f 4dbd 5fd6 3d3e bf1c 23be 7297 a2be
000001c0: dd22 b03e 7362 c33d 2d51 f7be fc91 9f3e
000001d0: 03e1 03bf 1d0c 21bf 8077 e23e 1e22 203e
000001e0: d8be d8bd dd19 223e d00f e4be 3b5c 5cbf
000001f0: 4f72 52bf 453f c83b 67d9 b9be e177 bebe
00000200: fd64 fe3e 31bc dabe edf0 30bf 399f ce3e
00000210: 4248 e33d df94 d13e e87c 953e 8432 87be
00000220: 0741 2d3f 2eb4 2b3f 2e9a 783f af54 e0be
00000230: dfd7 133e 4407 ad3d ad8f 5b3e 10c1 babe
00000240: 0026 cdbe 0e12 3cbe c947 2fbf 98f4 6f3f
00000250: 9e5d 02bf 54d8 aa3e 7703 843e 59ca c53e
00000260: f947 21bf 48c1 e6bd e731 403e d3fb cbbe
00000270: a81e 233f eb01 c4b9 5f1f b9be f0d1 ed3d
00000280: a2b5 97bd 5a47 1abf 79a3 bf3e 7f6e 113e
00000290: 406c 493f f47f c53e 4f69 873e 3f4e a53f
000002a0: f194 a4be e2dd 2e3f 860e 9e3c 0307 0cbf
000002b0: d9cb 7bbe c41f d43d 5bda d7be 956e 0d3b
000002c0: 1b3d 2dbf a4d0 213e 2f96 0fbe f593 8ebe
000002d0: de33 db3e f2c7 8b3d d4f5 d93e a7c9 dc3e
000002e0: dc7b a93e ae0d 343e f911 98be 0f86 a23d
000002f0: df0b 79bd 810a 5bbe ea9d b1be 0fe8 233f
00000300: f5d2 af3e 7077 4e3f 42ef 3a3f 33c9 b5be
00000310: 67ba 72be c24a 613e e62c 293e 8c3e 373e
00000320: d95c 9cbe a5e7 fdbe 801c 5bbf 478a c83e
00000330: bc70 24bf 2f41 5a3e bf53 1d3e eab3 c5bc
00000340: 3938 2dbf 36cf 283f ca0b cb3e c2d9 03bf
00000350: a562 06bd 495e d4be fb95 adbe 9f9f e8be
00000360: c11d a5bc 6d3e 713d 12aa 18bf 426d afbe
00000370: cea6 81be fbaf ab3e 8726 9c3d 1a9a 90be
00000380: 2ee5 84be 9494 bb3e e0e5 d23e 319a 44be
00000390: 90c6 b93e 4f69 87be 911c 08be 58e4 c13e
000003a0: e63c 293f 20b9 0fbd 5144 08bf 3cf3 fbbe
000003b0: bf05 33be 0ca5 b93e ac62 833d cd93 4d3f
000003c0: 161c cbbc b342 81bf fbcf 69be d789 4b3e
000003d0: 70dc 873e 8b9b a93e 539c 803f 8c1b 34bf
000003e0: 521d 32be e36d c5bd df23 843e ec07 833d
000003f0: 8dc5 96be b684 96be 253a 803f f1a3 653e

network_body._body_endoder.seq_layers.0.bias f4 [128]
0.0 0.0 0.0 0.0 0.0 0.0 0.0 0.0
0.0 0.0 0.0 0.0 0.0 0.0 0.0 0.0
0.0 0.0 0.0 0.0 0.0 0.0 0.0 0.0
0.0 0.0 0.0 0.0 0.0 0.0 0.0 0.0
0.0 0.0 0.0 0.0 0.0 0.0 0.0 0.0
0.0 0.0 0.0 0.0 0.0 0.0 0.0 0.0
0.0 0.0 0.0 0.0 0.0 0.0 0.0 0.0
0.0 0.0 0.0 0.0 0.0 0.0 0.0 0.0
0.0 0.0 0.0 0.0 0.0 0.0 0.0 0.0
0.0 0.0 0.0 0.0 0.0 0.0 0.0 0.0
0.0 0.0 0.0 0.0 0.0 0.0 0.0 0.0
0.0 0.0 0.0 0.0 0.0 0.0 0.0 0.0
0.0 0.0 0.0 0.0 0.0 0.0 0.0 0.0
0.0 0.0 0.0 0.0 0.0 0.0 0.0 0.0
0.0 0.0 0.0 0.0 0.0 0.0 0.0 0.0
0.0 0.0 0.0 0.0 0.0 0.0 0.0 0.0
00000000: 0000 0000 0000 0000 0000 0000 0000 0000
00000010: 0000 0000 0000 0000 0000 0000 0000 0000
00000020: 0000 0000 0000 0000 0000 0000 0000 0000
00000030: 0000 0000 0000 0000 0000 0000 0000 0000
00000040: 0000 0000 0000 0000 0000 0000 0000 0000
00000050: 0000 0000 0000 0000 0000 0000 0000 0000
00000060: 0000 0000 0000 0000 0000 0000 0000 0000
00000070: 0000 0000 0000 0000 0000 0000 0000 0000
00000080: 0000 0000 0000 0000 0000 0000 0000 0000
00000090: 0000 0000 0000 0000 0000 0000 0000 0000
000000a0: 0000 0000 0000 0000 0000 0000 0000 0000
000000b0: 0000 0000 0000 0000 0000 0000 0000 0000
000000c0: 0000 0000 0000 0000 0000 0000 0000 0000
000000d0: 0000 0000 0000 0000 0000 0000 0000 0000
000000e0: 0000 0000 0000 0000 0000 0000 0000 0000
000000f0: 0000 0000 0000 0000 0000 0000 0000 0000
00000100: 0000 0000 0000 0000 0000 0000 0000 0000
00000110: 0000 0000 0000 0000 0000 0000 0000 0000
00000120: 0000 0000 0000 0000 0000 0000 0000 0000
00000130: 0000 0000 0000 0000 0000 0000 0000 0000
00000140: 0000 0000 0000 0000 0000 0000 0000 0000
00000150: 0000 0000 0000 0000 0000 0000 0000 0000
00000160: 0000 0000 0000 0000 0000 0000 0000 0000
00000170: 0000 0000 0000 0000 0000 0000 0000 0000
00000180: 0000 0000 0000 0000 0000 0000 0000 0000
00000190: 0000 0000 0000 0000 0000 0000 0000 0000
000001a0: 0000 0000 0000 0000 0000 0000 0000 0000
000001b0: 0000 0000 0000 0000 0000 0000 0000 0000
000001c0: 0000 0000 0000 0000 0000 0000 0000 0000
000001d0: 0000 0000 0000 0000 0000 0000 0000 0000
000001e0: 0000 0000 0000 0000 0000 0000 0000 0000
000001f0: 0000 0000 0000 0000 0000 0000 0000 0000

network_body._body_endoder.seq_layers.2.weight f4 [128, 128]
-0.010353665 0.09623745 0.10846039 0.0722119 0.03251548 0.06761284 0.038056955 -0.026763264
-0.069248796 -0.0019241145 0.17946242 -0.07685337 0.0070197065 -0.06566429 -0.092277944 -0.042699836
0.07023764 -0.02504461 0.22876589 -0.103140905 0.0054568853 0.008366158 0.16928193 -0.20542732
-0.062946014 0.0066832704 0.17291339 -0.09481829 0.09447235 -0.039158966 0.19151251 -0.0892497
0.14565453 -0.019508159 -0.07178832 -0.00441671 -0.08532992 -0.0880955 0.063780665 -0.041983493
-0.043800276 -0.06725126 0.15253997 -0.1893251 0.10798423 -0.12512292 0.096440636 0.04109896
0.019743301 -0.06383248 0.21058314 -0.036859535 0.020179117 -0.18403246 -0.027889734 0.15863746
-0.11610012 -0.018218871 0.047076993 0.15711689 0.0419781 0.023229398 0.0019611383 0.07348229
-0.18299286 0.09359915 -0.04095435 0.012096115 0.07787338 -0.05913866 -0.025949448 -0.109190166
-0.096913435 -0.0077676107 0.17142995 -0.17036359 0.11088305 -0.114826165 0.061438855 -0.10441111
-0.039186586 0.042293612 -0.07584225 -0.18694842 0.07870645 0.030667884 -0.000449098 -0.050031945
0.10668428 -0.014493881 -0.029618667 0.06857604 -0.03526059 -0.026053132 -0.04481117 0.00834481
0.013669738 -0.004491903 -0.16212681 0.039745584 0.0156025365 -0.061170965 -0.022328926 -0.0008657902
-0.13620622 0.13760932 0.04390121 0.01732195 -0.049052287 0.011221737 -0.021444494 -0.05858734
0.06412691 0.08414044 0.0993209 -0.029711138 0.048111603 0.06845937 -0.17679174 0.1868098
0.09141235 -0.16451049 -0.13774353 -0.048765406 -0.18260151 -0.12954953 0.053426273 -0.07456813
-0.045971185 -0.20804337 0.01995742 0.08270625 0.07339231 0.12193734 0.031338282 0.049967945
0.05357781 -0.04330199 0.06334078 -0.12583846 0.02911595 -0.032158084 0.030780517 0.08204785
-0.10531247 0.014157898 -0.013846696 0.07208558 -0.0031691631 -0.038897075 -0.036982138 -0.10675845
0.07006138 -0.021788485 -0.030909238 -0.03659519 0.09228756 0.09494997 0.11474073 -0.028633947
-0.06763549 0.084638044 -0.15284166 -0.09877423 0.051221732 -0.124827534 -0.076137826 0.14534609
0.055594422 0.14849707 0.13518049 -0.017401515 0.08793601 -0.032523368 0.011699276 -0.10449355
-0.08465099 -0.102554366 0.037439786 0.09350227 0.02844456 -0.015302535 0.05228594 -0.016563898
0.0450881 0.01906637 0.05593959 0.09853675 -0.122607864 0.0013392894 0.16382013 0.09338885
-0.06458365 0.19980718 -0.040230334 0.027215455 -0.2024295 -0.047169518 0.05724656 -0.09729473
-0.049782835 -0.15242775 -0.048808046 -0.035885837 -0.21932118 -0.07123031 0.029194532 -0.0041968348
0.00934622 0.024484526 0.18264347 0.05563926 -0.01890148 -0.028482636 -0.09434051 1.8944087e-05
0.016861267 -0.057067018 0.101576425 -0.024237977 0.12448822 -0.029724298 0.004519112 -0.0006369482
-0.005709981 -0.13584726 0.040546294 -0.001919717 0.069770135 -0.05566812 0.053305816 0.0153226685
-0.011523058 -0.092371665 -0.0068282136 -0.019231379 -0.08919793 0.055231642 -0.0724189 -0.06315314
0.033245843 0.017852353 -0.12592514 0.03243858 0.031255443 0.08096459 -0.11555111 -0.027248388
0.03893149 -0.08913854 0.083015025 0.061196916 0.08337086 -0.03148566 -0.01258696 -0.11501972
00000000: 6ba2 29bc 2418 c53d 7b20 de3d d5e3 933d
00000010: f42e 053d 9a78 8a3d 9ce1 1b3d a23e dbbc
00000020: 50d2 8dbd 9232 fcba ffc4 373e 4d65 9dbd
00000030: 9105 e63b 007b 86bd 38fc bcbd 06e6 2ebd
00000040: c0d8 8f3d 5b2a cdbc 9b41 6a3e 8a3b d3bd
00000050: accf b23b 3612 093c 3e58 2d3e 8a5b 52be
00000060: d7e9 80bd 56ff da3b 3510 313e 1730 c2bd
00000070: b87a c13d 2765 20bd db1b 443e 8cc8 b6bd
00000080: 7626 153e 93cf 9fbc c105 93bd 0dba 90bb
00000090: 74c1 aebd 6a6b b4bd 709f 823d e2f6 2bbd
000000a0: eb67 33bd 07bb 89bd 7033 1c3e 70de 41be
000000b0: d626 dd3d 3920 00be ab82 c53d 6257 283d
000000c0: b4bc a13c 9aba 82bd 1ba3 573e 06fa 16bd
000000d0: ad4e a53c 0173 3cbe 0379 e4bc dc71 223e
000000e0: e6c5 edbd be3f 95bc ced3 403d 40e3 203e
000000f0: 3af1 2b3d 944b be3c 7186 003b e27d 963d
00000100: 7b62 3bbe e9b0 bf3d c0bf 27bd c92e 463c
00000110: 147c 9f3d 613b 72bd f093 d4bc 189f dfbd
00000120: 8d7a c6bd 7187 febb 558b 2f3e cb73 2ebe
00000130: a716 e33d fb29 ebbd 4fa7 7b3d 7ed5 d5bd
00000140: 1d82 20bd 113c 2d3d 2e53 9bbd 686f 3fbe
00000150: d930 a13d 373b fb3c ea74 ebb9 4cee 4cbd
00000160: 4a7d da3d be77 6dbc d9a2 f2bc 9871 8c3d
00000170: 696d 10bd 616d d5bc eb8b 37bd acb8 083c
00000180: 09f7 5f3c d030 93bb 9204 26be 44cc 223d
00000190: c8a1 7f3c 688e 7abd 27eb b6bc 32f6 62ba
000001a0: a579 0bbe 75e9 0c3e c1d1 333d c3e6 8d3c
000001b0: 0deb 48bd 60db 373c 5dac afbc 47f9 6fbd
000001c0: f854 833d d351 ac3d c268 cb3d c664 f3bc
000001d0: ac10 453d 6d34 8c3d e508 35be 114b 3f3e
000001e0: 6636 bb3d 7075 28be a40c 0dbe 3cbe 47bd
000001f0: e4fb 3abe a2a8 04be 82d5 5a3d 2db7 98bd
00000200: 484c 3cbd 5209 55be be7d a33c e561 a93d
00000210: b54e 963d 49ba f93d 925c 003d 30ab 4c3d
00000220: 6874 5b3d 6d5d 31bd d0b8 813d ccdb 00be
00000230: 9384 ee3c 32b8 03bd 6c27 fc3c b408 a83d
00000240: 10ae d7bd 87f6 673c 41dd 62bc 9ba1 933d
00000250: bcb1 4fbb 8a52 1fbd 957a 17bd 2da4 dabd
00000260: 577c 8f3d c47d b2bc 5f35 fdbc d7e4 15bd
00000270: 4301 bd3d 2175 c23d 30fd ea3d bd91 eabc
00000280: 7a84 8abd b656 ad3d 8682 1cbe 254a cabd
00000290: e1cd 513d 94a5 ffbd 26ee 9bbd 9bd5 143e
000002a0: fab6 633d 9e0f 183e c16c 0a3e 9f8d 8ebc
000002b0: cb17 b43d 3937 05bd 52ae 3f3c b700 d6bd
000002c0: 805d adbd 0608 d2bd 765a 193d 1e7e bf3d
000002d0: 9104 e93c 7cb7 7abc c829 563d 03b1 87bc
000002e0: 4dae 383d 1331 9c3c e920 653d a3cd c93d
000002f0: d519 fbbd 188b af3a 77c0 273e a742 bf3d
00000300: 6f44 84bd 419a 4c3e 90c8 24bd f2f2 de3c
00000310: ae49 4fbe d334 41bd 5e7b 6a3d 7642 c7bd
00000320: 16e9 4bbd 0516 1cbe f2ea 47bd 07fd 12bd
00000330: bb95 60be 32e1 91bd 5f29 ef3c 9a85 89bb
00000340: e320 193c c693 c83c e406 3b3e fee5 633d
00000350: 47d7 9abc 6b54 e9bc 9935 c1bd 1eea 9e37
00000360: a420 8a3c 1bbf 69bd 4d07 d03d b98e c6bc
00000370: aef3 fe3d 5f80 f3bc 0f15 943b dff8 26ba
00000380: cb1a bbbb 8b1b 0bbe df13 263d 039f fbba
00000390: a5e3 8e3d 4104 64bd 3357 5a3d ee0b 7b3c
000003a0: 35cb 3cbc 5b2d bdbd 35bf dfbb 208b 9dbc
000003b0: 68ad b6bd 933a 623d 5c50 94bd 6f56 81bd
000003c0: cb2c 083d 193f 923c 85f2 00be 51de 043d
000003d0: b505 003d c3d0 a53d 0fa6 ecbd 0338 dfbc
000003e0: a076 1f3d 448e b6bd c803 aa3d 9ea9 7a3d
000003f0: 57be aa3d 1bf7 00bd 8939 4ebc 758f ebbd

network_body._body_endoder.seq_layers.2.bias f4 [128]
0.0 0.0 0.0 0.0 0.0 0.0 0.0 0.0
0.0 0.0 0.0 0.0 0.0 0.0 0.0 0.0
0.0 0.0 0.0 0.0 0.0 0.0 0.0 0.0
0.0 0.0 0.0 0.0 0.0 0.0 0.0 0.0
0.0 0.0 0.0 0.0 0.0 0.0 0.0 0.0
0.0 0.0 0.0 0.0 0.0 0.0 0.0 0.0
0.0 0.0 0.0 0.0 0.0 0.0 0.0 0.0
0.0 0.0 0.0 0.0 0.0 0.0 0.0 0.0
0.0 0.0 0.0 0.0 0.0 0.0 0.0 0.0
0.0 0.0 0.0 0.0 0.0 0.0 0.0 0.0
0.0 0.0 0.0 0.0 0.0 0.0 0.0 0.0
0.0 0.0 0.0 0.0 0.0 0.0 0.0 0.0
0.0 0.0 0.0 0.0 0.0 0.0 0.0 0.0
0.0 0.0 0.0 0.0 0.0 0.0 0.0 0.0
0.0 0.0 0.0 0.0 0.0 0.0 0.0 0.0
0.0 0.0 0.0 0.0 0.0 0.0 0.0 0.0
00000000: 0000 0000 0000 0000 0000 0000 0000 0000
00000010: 0000 0000 0000 0000 0000 0000 0000 0000
00000020: 0000 0000 0000 0000 0000 0000 0000 0000
00000030: 0000 0000 0000 0000 0000 0000 0000 0000
00000040: 0000 0000 0000 0000 0000 0000 0000 0000
00000050: 0000 0000 0000 0000 0000 0000 0000 0000
00000060: 0000 0000 0000 0000 0000 0000 0000 0000
00000070: 0000 0000 0000 0000 0000 0000 0000 0000
00000080: 0000 0000 0000 0000 0000 0000 0000 0000
00000090: 0000 0000 0000 0000 0000 0000 0000 0000
000000a0: 0000 0000 0000 0000 0000 0000 0000 0000
000000b0: 0000 0000 0000 0000 0000 0000 0000 0000
000000c0: 0000 0000 0000 0000 0000 0000 0000 0000
000000d0: 0000 0000 0000 0000 0000 0000 0000 0000
000000e0: 0000 0000 0000 0000 0000 0000 0000 0000
000000f0: 0000 0000 0000 0000 0000 0000 0000 0000
00000100: 0000 0000 0000 0000 0000 0000 0000 0000
00000110: 0000 0000 0000 0000 0000 0000 0000 0000
00000120: 0000 0000 0000 0000 0000 0000 0000 0000
00000130: 0000 0000 0000 0000 0000 0000 0000 0000
00000140: 0000 0000 0000 0000 0000 0000 0000 0000
00000150: 0000 0000 0000 0000 0000 0000 0000 0000
00000160: 0000 0000 0000 0000 0000 0000 0000 0000
00000170: 0000 0000 0000 0000 0000 0000 0000 0000
00000180: 0000 0000 0000 0000 0000 0000 0000 0000
00000190: 0000 0000 0000 0000 0000 0000 0000 0000
000001a0: 0000 0000 0000 0000 0000 0000 0000 0000
000001b0: 0000 0000 0000 0000 0000 0000 0000 0000
000001c0: 0000 0000 0000 0000 0000 0000 0000 0000
000001d0: 0000 0000 0000 0000 0000 0000 0000 0000
000001e0: 0000 0000 0000 0000 0000 0000 0000 0000
000001f0: 0000 0000 0000 0000 0000 0000 0000 0000

action_model._continuous_distribution.log_sigma f4 [1, 2]
0.0 0.0
00000000: 0000 0000 0000 0000

action_model._continuous_distribution.mu.weight f4 [2, 128]
-0.0023161245 0.0073629552 -0.025902221 -0.016592251 0.007553521 -0.018552402 0.008519489 -0.007441574
0.017706268 -0.016126772 -0.01949896 -0.0022083744 0.015597521 0.0046311347 0.024870325 -0.006394359
-0.024194216 -0.037613675 -0.0018393 -0.0074522756 0.0033901155 0.007832397 0.030152699 0.012868396
-0.006145834 0.015478115 0.016512696 0.015229947 0.010311844 0.022089688 -0.008569834 -0.021785662
-0.0160295 0.0037530442 0.008104971 -0.017080436 0.015695011 0.00678122 -0.018212002 0.002759934
-0.015301849 0.0028928423 -0.01448067 -0.0077053974 0.022760164 0.0009888139 -0.02061016 0.02290253
0.0012956795 -0.007867027 -0.02753118 0.01418564 0.010882675 0.024540326 0.027356071 -0.026537841
-0.0015804596 -0.029535165 -0.037423857 -0.010244448 0.00028575564 -0.0012337887 0.030486304 0.008191597
0.01699016 -0.029119888 0.019025384 -0.028886244 0.00024515457 -0.03415225 0.0031545595 -0.008387896
-0.016730513 -0.010464005 0.010912889 0.0032131497 0.0067636273 0.020631598 -0.04582499 0.0069200234
0.019113779 -0.00074994256 0.018595038 0.0054379115 -0.014063074 0.013828294 0.0133006945 -0.027116511
-0.010311565 0.015545288 0.0024764042 0.011967126 0.019181143 -0.00014779763 0.0075896904 0.012436576
0.006464907 0.0039957874 -0.02558182 -0.0044237296 -0.0157188 -0.004877815 -0.0008641355 -0.031044615
0.014880023 0.004807383 -0.022313701 0.019118115 -0.04071001 -0.0054554986 0.014987511 -0.002375545
-0.0063820626 -0.03742696 0.0078017907 0.015347103 -0.018740965 0.03986477 0.0043310146 -0.00338118
0.003248237 -0.013244577 0.025531584 0.0019374744 0.02415556 -0.014118065 -0.0164496 -0.058325417
0.009811553 0.0076780743 -0.0366521 -0.010845738 -0.0031426921 0.02048343 -0.00042197853 -0.04963545
0.016400484 0.022805696 -0.0028974426 -0.012151685 -0.02836359 0.0017111407 -0.0025343818 0.006469866
-0.0041960096 -0.016423866 -0.005298029 -0.013145297 0.003843185 -0.009681894 -0.0055025234 -0.012373225
-0.008335012 0.016028665 0.003962979 0.00395436 -0.0105292965 0.0036241387 0.03338146 -0.017841393
-0.00792859 0.00035832892 -0.014365049 -0.011556781 -0.0055789 0.009615748 0.026717503 -0.009811073
-0.017415043 -0.003726363 0.013375449 -0.0021683902 -0.009300207 -0.0074758003 -0.032654822 -0.001984638
0.015456112 0.018626345 -0.014019114 -0.013303551 0.014535521 0.011161952 0.029998844 -0.01705171
-0.005611951 0.017214429 0.0014895193 -0.031110987 0.018805068 -0.009499266 0.03286208 0.006563092
-0.013568595 -0.023878185 0.019006474 -0.0055549415 0.046911746 -0.030486628 -0.018761007 0.03767566
0.0034699303 0.007961419 -0.02033361 0.010609004 -0.0045234887 -0.003675968 0.022456048 -0.0020483288
0.014106526 -0.0050685387 0.01444189 -0.008945483 -0.021677902 0.020406162 0.0033844102 -0.0058009787
0.010052453 0.0052810083 0.002235536 -0.0073908307 0.008900389 -0.00038667102 -0.040337905 0.01930539
-0.027131293 0.0130942855 0.03607175 -0.022674771 -0.02651318 0.019941825 0.008171867 -0.0064888196
-0.021738805 -0.013703192 0.016482053 -0.0068061324 -0.0024137835 0.0067050317 0.017335456 -0.0077973935
-0.009622784 -0.02790075 -0.0074278372 -0.00020452599 -0.013930248 -0.0032620372 -0.03548384 -0.0032737048
-0.009291177 -0.019332292 -0.020674743 0.004429179 0.006346941 -0.003539936 -0.044115968 -0.018669946
00000000: 1fca 17bb f244 f13b e530 d4bc 79ec 87bc
00000010: 8783 f73b 35fb 97bc 5495 0b3c 72d8 f3bb
00000020: bc0c 913c 4b1c 84bc 48bc 9fbc 60ba 10bb
00000030: bf8c 7f3c c6c0 973b dabc cb3c c587 d1bb
00000040: f332 c6bc cc10 1abd ab14 f1ba 3832 f4bb
00000050: b32c 5e3b 7453 003c cb02 f73c f7d5 523c
00000060: fe62 c9bb eb97 7d3c a245 873c 0787 793c
00000070: 02f3 283c 6ff5 b43c 7d68 0cbc d877 b2bc
00000080: 4c50 83bc a2f5 753b b6ca 043c 45ec 8bbc
00000090: d392 803c ff34 de3b 5631 95bc 02e0 343b
000000a0: 9bb4 7abc d795 3d3b 5540 6dbc 8f7d fcbb
000000b0: 8673 ba3c 179b 813a a3d6 a8bc 169e bb3c
000000c0: cad3 a93a b4e4 00bc 1289 e1bc e36a 683c
000000d0: 3f4d 323c cb08 c93c d719 e03c e365 d9bc
000000e0: 6d27 cfba bbf3 f1bc c249 19bd 54d8 27bc
000000f0: 79d1 9539 14b7 a1ba 6abe f93c 0c36 063c
00000100: f32e 8b3c d58c eebc 1fdb 9b3c d8a2 ecbc
00000110: 1788 8039 3be3 0bbd babc 4e3b 636d 09bc
00000120: 6e0e 89bc 3871 2bbc f9cb 323c b593 523b
00000130: 6ba1 dd3b 9903 a93c fcb2 3bbd 5dc1 e23b
00000140: 8094 9c3c cb97 44ba 9f54 983c 8230 b23b
00000150: cf68 66bc 1290 623c 28eb 593c 7223 debc
00000160: d7f1 28bc aab1 7e3c 2b4b 223b c411 443c
00000170: c621 9d3c 20fa 1ab9 f0b2 f83b c8c2 4b3c
00000180: 92d7 d33b 18ef 823b f790 d1bc eff4 90bb
00000190: b6c4 80bc 14d6 9fbb 2787 62ba 4751 febc
000001a0: 57cb 733c 4087 9d3b 39cb b6bc 989d 9c3c
000001b0: 8abf 26bd 0ac4 b2bb 2d8e 753c 08af 1bbb
000001c0: 9f20 d1bb 034d 19bd 2aa6 ff3b 6a72 7b3c
000001d0: a786 99bc 3e49 233d 2feb 8d3b ca96 5dbb
000001e0: 60e0 543b c8ff 58bc 9d27 d13c daf2 fd3a
000001f0: e2e1 c53c 754f 67bc 50c1 86bc a2e6 6ebd
00000200: a3c0 203c 5b98 fb3b 8320 16bd 53b2 31bc
00000210: a0f5 4dbb decc a73c 003d ddb9 8b4e 4bbd
00000220: 4f5a 863c 03d3 ba3c 05e3 3dbb dc17 47bc
00000230: c25a e8bc 5b48 e03a df17 26bb 2b01 d43b
00000240: ae7e 89bb 588b 86bc 179b adbb 5f5f 57bc
00000250: f2dd 7b3b cfa0 1ebc 834e b4bb 11b9 4abc
00000260: 938f 08bc 8c4e 833c e1db 813b 9393 813b
00000270: 1283 2cbc f582 6d3b ffba 083d 1d28 92bc
00000280: ebe6 01bc 18de bb39 625b 6bbc a758 3dbc
00000290: 35cf b6bb 5f8b 1d3c aade da3c 9fbe 20bc
000002a0: fea9 8ebc ff35 74bb b324 5b3c 8d1b 0ebb
000002b0: e55f 18bc 8ff7 f4bb 10c1 05bd b310 02bb
000002c0: a23b 7d3c 4796 983c 6db0 65bc 23f7 59bc
000002d0: 6526 6e3c 9fe0 363c 23c0 f53c 07b0 8bbc
000002e0: 75e4 b7bb 4605 8d3c f93b c33a 78dc febc
000002f0: 160d 9a3c cfa2 1bbc 639a 063d 350f d73b
00000300: d04e 5ebc 2f9c c3bc 77b3 9b3c 3a06 b6bb
00000310: 8826 403d 18bf f9bc afb0 99bc cb51 1a3d
00000320: c567 633b 9d70 023c ac92 a6bc 63d1 2d3c
00000330: c639 94bb 82e8 70bb bff5 b73c 413d 06bb
00000340: 0f1f 673c fc15 a6bb ad9d 6c3c 1390 12bc
00000350: db95 b1bc d32a a73c fbcc 5d3b 2316 bebb
00000360: 0bb3 243c 4f0c ad3b 1282 123b c82e f2bb
00000370: f0d2 113c 1bba cab9 5c39 25bd 5626 9e3c
00000380: 7242 debc 6a89 563c f9bf 133d 71c0 b9bc
00000390: 2b32 d9bc 0a5d a33c 4be3 053c 2aa0 d4bb
000003a0: 9415 b2bc 5a83 60bc 5f05 873c fa05 dfbb
000003b0: 9130 1ebb e2b5 db3b 1603 8e3c 4781 ffbb
000003c0: e2a8 1dbc 1d90 e4bc 3765 f3bb 0776 56b9
000003d0: b23b 64bc e7c7 55bb 8157 11bd a78b 56bb
000003e0: 053a 18bc c15e 9ebc 145e a9bc a522 913b
000003f0: 00fa cf3b 45fe 67bb f2b2 34bd b7f1 98bc

action_model._continuous_distribution.mu.bias f4 [2]
0.0 0.0
00000000: 0000 0000 0000 0000

network_body._body_endoder.seq_layers.0.weight f4 [128, 6]
-0.15385367 0.34684348 0.084299125 -0.20860188 0.3888779 -0.2079567 -0.22224326 -0.11832629
-0.13700739 0.24976636 0.5101522 -0.3900238 0.14013301 -0.6662711 -0.7406032 0.082822114
0.008925775 0.3788877 -0.34643036 0.043114264 0.2948381 0.17642708 -0.48267382 -0.886492
-0.49490115 0.525598 0.85828644 -0.2658768 -0.2923529 -0.064745724 0.13037737 0.1192502
-0.008333996 -0.09834044 0.16058086 -0.020638298 -0.10223045 0.2234894 -0.0879065 0.05063415
0.21830232 -0.068149626 0.5480457 0.33337346 0.22893924 0.41977412 -0.02033853 0.7135927
0.029311623 -0.3503782 0.6953959 -0.052346323 0.86699784 -0.1648218 -0.87337714 -0.11013979
0.50421983 0.6061393 -0.27702272 0.26554224 -1.362945 0.44637987 0.6333136 0.83122337
0.14931478 0.03676725 0.008457511 -0.16286652 -0.44192392 0.57237196 0.7252808 0.69960225
0.022384955 0.44837433 0.13912643 -0.32280678 -0.2286776 0.6902967 0.02631059 0.06126696
-0.23588839 -0.6169851 0.019319467 0.98969465 -0.17136832 0.382519 -0.16539362 -0.12003717
-0.044781312 0.8569731 0.0702367 0.036278177 -0.6747974 0.28132144 -0.39790255 0.20539911
-0.23616709 -0.29307854 0.24879386 -0.46771908 -0.20783442 -0.11388745 -0.09344715 0.04950728
0.126995 0.14749523 0.29354215 0.19684933 -0.6495777 -0.04272595 0.22316614 0.78014624
0.8109188 0.012265422 0.04353547 0.22208945 -0.7607994 -0.014859593 0.24553747 0.26629522
0.6120125 -0.030634055 0.05511759 -0.0383891 -0.10943647 -0.7982386 -0.13705762 0.010622325
-0.45113868 -0.5413158 0.47081506 0.0970922 0.08341053 -0.019445008 0.07894685 -0.69879776
0.34560084 0.021202136 0.66232866 -0.19514105 0.3185114 0.29124713 0.3150249 -0.03706369
0.32966658 -0.06590472 -0.24763018 0.40799326 0.46165448 -0.32915488 0.17599931 0.308569
-0.39013326 0.058312546 0.17871554 -0.16586265 -0.44844705 0.0007166996 -0.52314055 0.44222736
0.5521243 0.63744485 -0.21463817 -0.4622311 -0.07148686 -0.2615327 -0.13208997 -0.24616547
-0.1486231 -0.50946325 0.041534 0.6264326 -0.577721 -0.07629658 0.5481523 0.03679382
-0.2063968 -0.87231463 -0.61550695 0.11701052 -0.8793508 0.783229 0.1314448 0.39730167
-0.004538936 -0.2802494 0.7030613 -0.5312067 -0.109033756 0.17588149 0.24411175 -0.8389465
0.19419087 -0.16470657 0.32729298 0.016909799 -0.44310984 0.28800744 0.67874956 -0.13566728
0.47242323 -0.31910878 -0.8773116 0.020390863 -0.05416347 -0.44150746 -0.57126325 0.0921677
-0.24763134 0.4553401 0.18718967 -0.36824086 0.2428003 0.3119649 -0.08663991 0.24533196
-0.44005993 0.544948 0.0021052372 -0.42819005 -0.5413929 -0.6192231 0.15482974 0.4095245
-0.09130916 0.57233435 -0.18921651 -0.3712236 0.95708865 -0.17767072 0.35833108 0.1922989
0.53337324 -0.6444542 0.6217231 -1.0769753 0.13555996 0.4544943 0.69457173 0.21586962
0.10968881 -1.0821408 -0.018959865 0.028520782 -0.43169436 0.28868547 0.8700641 0.16333672
0.36349958 0.013281249 0.12251929 -0.11445801 -0.009376753 -0.298625 -0.555267 -0.3196538
00000000: d18b 1dbe 7895 b13e 05a5 ac3d bb9b 55be
00000010: 011b c73e 9af2 54be bd93 63be 0e55 f2bd
00000020: aa4b 0cbe c1c2 7f3e 5699 023f 33b1 c7be
00000030: 077f 0f3e be90 2abf 2c98 3dbf a49e a93d
00000040: 6a3d 123c 92fd c13e 525f b1be 9598 303d
00000050: 05f5 963e 4da9 343e 0621 f7be 24f1 62bf
00000060: af63 fdbe 978d 063f a9b8 5b3f 0121 88be
00000070: 48af 95be 6899 84bd a581 053e 7339 f43d
00000080: 508b 08bc b666 c9bd 4f6f 243e a611 a9bc
00000090: 335e d1bd 68da 643e 5308 b4bd c165 4f3d
000000a0: a58a 5f3e 0892 8bbd b94c 0c3f edaf aa3e
000000b0: 0c6f 6a3e a2ec d63e fd9c a6bc 03ae 363f
000000c0: ee1e f03c c564 b3be 7705 323f 1969 56bd
000000d0: 92f3 5d3f 0cc7 28be a595 5fbf f890 e1bd
000000e0: 8d14 013f f22b 1b3f ecd5 8dbe 27f5 873e
000000f0: fb74 aebf e78b e43e d720 223f 0ecb 543f
00000100: f9e5 183e 4299 163d 5f91 0a3c 7bc6 26be
00000110: da43 e2be f886 123f 01ac 393f 2219 333f
00000120: a760 b73c 5291 e53e 2977 0e3e ee46 a5be
00000130: 762a 6abe 49b7 303f 4e89 d73c 10f3 7a3d
00000140: ba8c 71be bcf2 1dbf dc43 9e3c a15c 7d3f
00000150: 2d7b 2fbe 88d9 c33e f25c 29be 0cd6 f5bd
00000160: 9c6c 37bd 9762 5b3f 42d8 8f3d 6d98 143d
00000170: 86bf 2cbf 5d09 903e e2b9 cbbe 2554 523e
00000180: c9d5 71be 640e 96be d1c3 7e3e e078 efbe
00000190: 8cd2 54be d33d e9bd 3861 bfbd 25c8 4a3d
000001a0: fa0a 023e fd08 173e 284b 963e df92 493e
000001b0: b94a 26bf 6801 2fbd aa85 643e aab7 473f
000001c0: 6098 4f3f e9f4 483c 4052 323d 6b6b 633e
000001d0: c0c3 42bf a675 73bc 2d6e 7b3e d957 883e
000001e0: daac 1c3f 45f4 fabc fbc2 613d e43d 1dbd
000001f0: 3a20 e0bd 5d59 4cbf d558 0cbe 4309 2e3c
00000200: a6fb e6be ac93 0abf ac0e f13e 46d8 c63d
00000210: 24d3 aa3d 234b 9fbc e3ae a13d 69e4 32bf
00000220: 98f2 b03e 1ab0 ad3c 5f8e 293f 0ed3 47be
00000230: ed13 a33e 581e 953e f24a a13e 19d0 17bd
00000240: 0fca a83e 0ef9 86bd c492 7dbe 7ee4 d03e
00000250: fa5d ec3e fd86 a8be 2a39 343e c2fc 9d3e
00000260: 8cbf c7be 23d9 6e3d 3501 373e e6d7 29be
00000270: da9a e5be e5e0 3b3a 8aec 05bf a06b e23e
00000280: 0558 0d3f 962f 233f 1cca 5bbe 8ea9 ecbe
00000290: b467 92bd 9de7 85be 9842 07be cd12 7cbe
000002a0: a730 18be 2f6c 02bf 8e1f 2a3d e35d 203f
000002b0: 86e5 13bf 6241 9cbd b653 0c3f 1eb5 163d
000002c0: af59 53be 0350 5fbf dd91 1dbf 36a3 ef3d
000002d0: 221d 61bf b281 483f 7799 063e 206b cb3e
000002e0: 5bbb 94bb d97c 8fbe d3fb 333f 2afd 07bf
000002f0: 174d dfbd 471a 343e 6ef8 793e 33c5 56bf
00000300: f9d9 463e d7a8 28be f292 a73e 6b86 8a3c
00000310: 4bdf e2be b675 933e 88c2 2d3f 5dec 0abe
00000320: 75e1 f13e 3a62 a3be 7e97 60bf bd0a a73c
00000330: 84da 5dbd 440d e2be 4f3e 12bf 6bc2 bc3d
00000340: 1293 7dbe 5622 e93e a6ae 3f3e 118a bcbe
00000350: a4a0 783e ddb9 9f3e 4470 b1bd 4d38 7b3e
00000360: 894f e1be b681 0b3f 05f8 093b ba3b dbbe
00000370: ba98 0abf 6885 1ebf b08b 1e3e 32ad d13e
00000380: 4c00 bbbd 8184 123f f9c1 41be 0511 bebe
00000390: c303 753f 50ef 35be 2c77 b73e 01ea 443e
000003a0: 268b 083f f3fa 24bf 3f29 1f3f 54da 89bf
000003b0: 3bd0 0a3e 7ab3 e83e 74cf 313f ed0c 5d3e
000003c0: 87a4 e03d 9783 8abf b851 9bbc 6aa4 e93c
000003d0: 0b07 ddbe 95ce 933e 85bc 5e3f be41 273e
000003e0: 9e1c ba3e 9999 593c 65eb fa3d f668 eabd
000003f0: f4a0 19bc 60e5 98be fa25 0ebf aaa9 a3be

network_body._body_endoder.seq_layers.0.bias f4 [128]
0.0 0.0 0.0 0.0 0.0 0.0 0.0 0.0
0.0 0.0 0.0 0.0 0.0 0.0 0.0 0.0
0.0 0.0 0.0 0.0 0.0 0.0 0.0 0.0
0.0 0.0 0.0 0.0 0.0 0.0 0.0 0.0
0.0 0.0 0.0 0.0 0.0 0.0 0.0 0.0
0.0 0.0 0.0 0.0 0.0 0.0 0.0 0.0
0.0 0.0 0.0 0.0 0.0 0.0 0.0 0.0
0.0 0.0 0.0 0.0 0.0 0.0 0.0 0.0
0.0 0.0 0.0 0.0 0.0 0.0 0.0 0.0
0.0 0.0 0.0 0.0 0.0 0.0 0.0 0.0
0.0 0.0 0.0 0.0 0.0 0.0 0.0 0.0
0.0 0.0 0.0 0.0 0.0 0.0 0.0 0.0
0.0 0.0 0.0 0.0 0.0 0.0 0.0 0.0
0.0 0.0 0.0 0.0 0.0 0.0 0.0 0.0
0.0 0.0 0.0 0.0 0.0 0.0 0.0 0.0
0.0 0.0 0.0 0.0 0.0 0.0 0.0 0.0
00000000: 0000 0000 0000 0000 0000 0000 0000 0000
00000010: 0000 0000 0000 0000 0000 0000 0000 0000
00000020: 0000 0000 0000 0000 0000 0000 0000 0000
00000030: 0000 0000 0000 0000 0000 0000 0000 0000
00000040: 0000 0000 0000 0000 0000 0000 0000 0000
00000050: 0000 0000 0000 0000 0000 0000 0000 0000
00000060: 0000 0000 0000 0000 0000 0000 0000 0000
00000070: 0000 0000 0000 0000 0000 0000 0000 0000
00000080: 0000 0000 0000 0000 0000 0000 0000 0000
00000090: 0000 0000 0000 0000 0000 0000 0000 0000
000000a0: 0000 0000 0000 0000 0000 0000 0000 0000
000000b0: 0000 0000 0000 0000 0000 0000 0000 0000
000000c0: 0000 0000 0000 0000 0000 0000 0000 0000
000000d0: 0000 0000 0000 0000 0000 0000 0000 0000
000000e0: 0000 0000 0000 0000 0000 0000 0000 0000
000000f0: 0000 0000 0000 0000 0000 0000 0000 0000
00000100: 0000 0000 0000 0000 0000 0000 0000 0000
00000110: 0000 0000 0000 0000 0000 0000 0000 0000
00000120: 0000 0000 0000 0000 0000 0000 0000 0000
00000130: 0000 0000 0000 0000 0000 0000 0000 0000
00000140: 0000 0000 0000 0000 0000 0000 0000 0000
00000150: 0000 0000 0000 0000 0000 0000 0000 0000
00000160: 0000 0000 0000 0000 0000 0000 0000 0000
00000170: 0000 0000 0000 0000 0000 0000 0000 0000
00000180: 0000 0000 0000 0000 0000 0000 0000 0000
00000190: 0000 0000 0000 0000 0000 0000 0000 0000
000001a0: 0000 0000 0000 0000 0000 0000 0000 0000
000001b0: 0000 0000 0000 0000 0000 0000 0000 0000
000001c0: 0000 0000 0000 0000 0000 0000 0000 0000
000001d0: 0000 0000 0000 0000 0000 0000 0000 0000
000001e0: 0000 0000 0000 0000 0000 0000 0000 0000
000001f0: 0000 0000 0000 0000 0000 0000 0000 0000

network_body._body_endoder.seq_layers.2.weight f4 [128, 128]
0.0049171424 0.09388305 -0.09801564 -0.11688182 0.0923263 -0.025627095 -0.029380925 -0.015582364
-0.116768874 -0.07871518 -0.017492322 -0.042086683 -0.091548435 0.025984008 0.07814524 0.08667978
-0.07785534 0.0433709 0.098686695 0.018634543 0.080659464 -0.008947153 0.1325955 0.086553305
0.0507742 0.01713184 -0.2406221 -0.036998387 0.070236705 0.22125308 0.07784228 0.1360845
-0.065530464 -0.026211103 0.062176548 0.097871885 -0.022602621 0.053282235 0.15188304 -0.085441574
0.012664382 0.07051233 -0.02266925 0.13079478 0.04831947 -0.08361732 0.012086921 0.02858092
-0.11326967 -0.02843392 0.076614 -0.08234433 -0.025596634 -0.111500025 0.115770124 0.06727703
-0.17013714 -0.121260926 0.036372755 0.07703984 -0.060756378 -0.15295732 0.06633651 0.028566457
-0.07249322 0.038223572 0.060759448 0.0060742595 -0.11510025 -0.12252548 0.06676164 -0.06963689
-0.03985945 0.05954182 -0.07521491 -0.14112231 -0.03678692 0.067456014 0.016413698 0.09143924
-0.026947096 0.019892568 0.13326512 -0.050606154 -0.067366496 -0.01620633 -0.1392245 0.004892467
0.121118516 -0.21018027 -0.017894745 0.0146694435 0.18786542 -0.046846464 0.06437636 -0.03206661
-0.06525715 0.07425943 0.070401035 0.088869296 -0.0721706 0.052331913 -0.005070775 -0.032747906
0.10329621 0.0538095 -0.12837762 -0.01382336 -0.20499253 -0.1717132 0.019446226 0.24556293
-0.041136112 0.05292944 -0.1667329 0.019167112 0.0010303397 0.04938055 0.09297956 0.079254374
-0.043538813 0.2769995 0.101625204 0.09146541 0.15391953 0.009121131 -0.04592162 0.014713786
0.032661058 0.044802863 -0.06782966 -0.029940644 -0.017432077 -0.108988166 -0.0073580737 0.08587397
0.15927978 -0.084794044 -0.0589313 0.050623186 -0.037753973 0.07307154 0.015165718 0.068177484
-0.066271454 -0.09969149 -0.07999817 -0.00161916 -0.03975036 -0.02836839 0.058588002 -0.24330182
0.020176202 -0.04985981 0.01137009 -0.22738719 0.05258678 0.14121644 0.01997688 0.05684892
-0.041896448 0.076809704 -0.0475182 0.03156344 0.014353626 0.048381858 0.12728442 -0.052682906
-0.03587271 -0.034738112 -0.027999083 0.1518326 0.07583601 0.055125453 0.053484976 -0.17421348
0.1150459 0.2372916 -0.11076415 0.041793473 -0.062303957 -0.0634385 0.0031786468 -0.10260782
-6.992404e-05 -0.15860787 0.0229617 0.02307729 -0.08642122 0.0041930396 0.025968052 -0.052007712
-0.16671425 -0.042530153 -0.06810119 0.10648246 -0.06718215 -0.073301114 -0.13651851 -0.012295963
-0.2614767 0.09395374 0.014534178 -0.10502703 -0.045308463 -0.08355972 -0.07498897 -0.012030674
-0.08761483 -0.020811446 0.13161951 -0.058617905 0.070789814 0.084017746 -0.05703782 0.15165561
0.06450441 -0.018224183 -0.0027431585 0.022737881 -0.086090155 -0.08668199 0.134625 0.063321784
0.000889407 -0.15435861 -0.019770881 0.06648373 0.0061603365 0.11496859 0.0024138128 -0.122900516
0.045872208 -0.037407964 -0.023297546 0.030327443 0.04025895 -0.022636859 0.17897117 -0.022224763
0.079276085 -0.08606492 0.014883405 0.03469121 0.01540181 0.020687632 0.03564723 -0.09835992
-0.0023807017 0.01149074 0.08490903 0.09389928 -0.016091654 -0.041201416 0.16703409 -0.18919575
00000000: fb1f a13b c245 c03d 6dbc c8bd bc5f efbd
00000010: 9215 bd3d eaef d1bc 44b0 f0bc 2c4d 7fbc
00000020: 8524 efbd 6d35 a1bd 0f4c 8fbc 1663 2cbd
00000030: bf7d bbbd 6adc d43c 9d0a a03d 2b85 b13d
00000040: 9f72 9fbd afa5 313d 401c ca3d 78a7 983c
00000050: ca30 a53d 1497 12bc 1dc7 073e dc42 b13d
00000060: 9cf8 4f3d 1358 8c3c a465 76be 9f8b 17bd
00000070: 43d8 8f3d 2b90 623e c66b 9f3d bc59 0b3e
00000080: d634 86bd abb8 d6bc d6ac 7e3d 0e71 c83d
00000090: 2229 b9bc 793e 5a3d 3a87 1b3e fefb aebd
000000a0: 457e 4f3c c568 903d ddb4 b9bc 11ef 053e
000000b0: a3ea 453d 8f3f abbd 3908 463c 8922 ea3c
000000c0: eef9 e7bd 41ee e8bc cde7 9c3d 25a4 a8bd
000000d0: 08b0 d1bc 205a e4bd e318 ed3d 8ac8 893d
000000e0: 6e38 2ebe a657 f8bd 99fb 143d 10c7 9d3d
000000f0: aedb 78bd d8a0 1cbe 70db 873d 3404 ea3c
00000100: 5377 94bd 5290 1c3d e6de 783d 950a c73b
00000110: aeb9 ebbd a4ee fabd 54ba 883d c99d 8ebd
00000120: aa43 23bd 20e2 733d 460a 9abd 5e82 10be
00000130: e2ad 16bd 6126 8a3d 0576 863c 7f44 bb3d
00000140: 28c0 dcbc bdf5 a23c a776 083e 6648 4fbd
00000150: 72f7 89bd 23c3 84bc de90 0ebe fd50 a03b
00000160: fc0c f83d 7f39 57be 0098 92bc 1b58 703c
00000170: cb5f 403e 14e2 3fbd c1d7 833d 4758 03bd
00000180: 8aa5 85bd 5415 983d 6b2e 903d 1b01 b63d
00000190: 2ece 93bd fd59 563d be28 a6bb ab22 06bd
000001a0: f78c d33d 5a67 5c3d 6c75 03be 607b 62bc
000001b0: 90e9 51be 96d5 2fbe b14d 9f3c d974 7b3e
000001c0: 577e 28bd 8acc 583d 08bc 2abe 5904 9d3c
000001d0: 770c 873a 4243 4a3d 116c be3d 1e50 a23d
000001e0: c155 32bd e1d2 8d3e e020 d03d 3852 bb3d
000001f0: 159d 1d3e cc70 153c 4f18 3cbd 1712 713c
00000200: 9ac7 053d 3583 373d 47ea 8abd 1546 f5bc
00000210: b7cd 8ebc 3035 dfbd ff1b f1bb b1de af3d
00000220: 3d1a 233e 80a8 adbd f261 71bd 425a 4f3d
00000230: e9a3 1abd 88a6 953d a279 783c a3a0 8b3d
00000240: 54b9 87bd 0d2b ccbd 15d6 a3bd fe39 d4ba
00000250: 46d1 22bd d364 e8bc f9f9 6f3d 1d24 79be
00000260: 9048 a53c cd39 4cbd 9d49 3a3c 30d8 68be
00000270: 3c65 573d 0b9b 103e 8ea6 a33c 6ada 683d
00000280: 9c9b 2bbd 684e 9d3d 72a2 42bd aa48 013d
00000290: 792b 6b3c 0e2c 463d d956 023e 08ca 57bd
000002a0: 43ef 12bd 8d49 0ebd 555e e5bc 017a 1b3e
000002b0: e94f 9b3d 3acb 613d 1013 5b3d 0565 32be
000002c0: 2f9d eb3d 92fc 723e 51d8 e2bd a22f 2b3d
000002d0: 6f32 7fbd 0bec 81bd d850 503b 0c24 d2bd
000002e0: 2fa4 92b8 1a6a 22be 2d1a bc3c 960c bd3c
000002f0: 9cfd b0bd c465 893b f4ba d43c 0a06 55bd
00000300: 24b7 2abe 1934 2ebd a378 8bbd 7a13 da3d
00000310: cc96 89bd e51e 96bd 82cb 0bbe 0275 49bc
00000320: 46e0 85be d26a c03d c320 6e3c 6918 d7bd
00000330: 5e95 39bd 5c21 abbd d193 99bd 4e1c 45bc
00000340: 676f b3bd c47c aabc 44c7 063e 5419 70bd
00000350: 40fa 903d 7f11 ac3d 7da0 69bd 9c4b 1b3e
00000360: e31a 843d e24a 95bc 90c6 33bb cb44 ba3c
00000370: 0950 b0bd 5486 b1bd 23db 093e daae 813d
00000380: 1827 693a 2f10 1ebe 8bf6 a1bc 9f28 883d
00000390: a6dc c93b a774 eb3d 0f31 1e3b 44b3 fbbd
000003a0: 7fe4 3b3d 1839 19bd 7fda bebc 4271 f83c
000003b0: 92e6 243d ef70 b9bc 3844 373e b510 b6bc
000003c0: 805b a23d ce42 b0bd 86d9 733c 5f18 0e3d
000003d0: e057 7c3c 1c79 a93c d402 123d ed70 c9bd
000003e0: 8c05 1cbb a843 3c3c c9e4 ad3d 444e c03d
000003f0: a5d2 83bc d1c2 28bd fc0a 2b3e 88bc 41be

network_body._body_endoder.seq_layers.2.bias f4 [128]
0.0 0.0 0.0 0.0 0.0 0.0 0.0 0.0
0.0 0.0 0.0 0.0 0.0 0.0 0.0 0.0
0.0 0.0 0.0 0.0 0.0 0.0 0.0 0.0
0.0 0.0 0.0 0.0 0.0 0.0 0.0 0.0
0.0 0.0 0.0 0.0 0.0 0.0 0.0 0.0
0.0 0.0 0.0 0.0 0.0 0.0 0.0 0.0
0.0 0.0 0.0 0.0 0.0 0.0 0.0 0.0
0.0 0.0 0.0 0.0 0.0 0.0 0.0 0.0
0.0 0.0 0.0 0.0 0.0 0.0 0.0 0.0
0.0 0.0 0.0 0.0 0.0 0.0 0.0 0.0
0.0 0.0 0.0 0.0 0.0 0.0 0.0 0.0
0.0 0.0 0.0 0.0 0.0 0.0 0.0 0.0
0.0 0.0 0.0 0.0 0.0 0.0 0.0 0.0
0.0 0.0 0.0 0.0 0.0 0.0 0.0 0.0
0.0 0.0 0.0 0.0 0.0 0.0 0.0 0.0
0.0 0.0 0.0 0.0 0.0 0.0 0.0 0.0
00000000: 0000 0000 0000 0000 0000 0000 0000 0000
00000010: 0000 0000 0000 0000 0000 0000 0000 0000
00000020: 0000 0000 0000 0000 0000 0000 0000 0000
00000030: 0000 0000 0000 0000 0000 0000 0000 0000
00000040: 0000 0000 0000 0000 0000 0000 0000 0000
00000050: 0000 0000 0000 0000 0000 0000 0000 0000
00000060: 0000 0000 0000 0000 0000 0000 0000 0000
00000070: 0000 0000 0000 0000 0000 0000 0000 0000
00000080: 0000 0000 0000 0000 0000 0000 0000 0000
00000090: 0000 0000 0000 0000 0000 0000 0000 0000
000000a0: 0000 0000 0000 0000 0000 0000 0000 0000
000000b0: 0000 0000 0000 0000 0000 0000 0000 0000
000000c0: 0000 0000 0000 0000 0000 0000 0000 0000
000000d0: 0000 0000 0000 0000 0000 0000 0000 0000
000000e0: 0000 0000 0000 0000 0000 0000 0000 0000
000000f0: 0000 0000 0000 0000 0000 0000 0000 0000
00000100: 0000 0000 0000 0000 0000 0000 0000 0000
00000110: 0000 0000 0000 0000 0000 0000 0000 0000
00000120: 0000 0000 0000 0000 0000 0000 0000 0000
00000130: 0000 0000 0000 0000 0000 0000 0000 0000
00000140: 0000 0000 0000 0000 0000 0000 0000 0000
00000150: 0000 0000 0000 0000 0000 0000 0000 0000
00000160: 0000 0000 0000 0000 0000 0000 0000 0000
00000170: 0000 0000 0000 0000 0000 0000 0000 0000
00000180: 0000 0000 0000 0000 0000 0000 0000 0000
00000190: 0000 0000 0000 0000 0000 0000 0000 0000
000001a0: 0000 0000 0000 0000 0000 0000 0000 0000
000001b0: 0000 0000 0000 0000 0000 0000 0000 0000
000001c0: 0000 0000 0000 0000 0000 0000 0000 0000
000001d0: 0000 0000 0000 0000 0000 0000 0000 0000
000001e0: 0000 0000 0000 0000 0000 0000 0000 0000
000001f0: 0000 0000 0000 0000 0000 0000 0000 0000

value_heads.value_heads.extrinsic.weight f4 [1, 128]
-0.07432127 -0.12964499 -0.17626552 -0.103483915 -0.17991146 0.18174618 -0.0443148 -0.17586651
0.087406784 0.056772143 -0.20919296 0.14345539 -0.036441594 -0.15197942 -0.14000174 0.13274339
-0.20648213 -0.21489975 -0.209296 0.052354127 -0.075838536 0.1597884 -0.007946551 -0.038240716
-0.015059814 -0.09198004 -0.101544864 -0.0246716 -0.03723386 -0.0039087683 0.12335214 -0.025373906
-0.077708885 0.10222483 -0.1798439 -0.17922938 -0.007113442 -0.12777698 -0.17640433 -0.12942964
0.047403365 0.08919126 -0.096022956 -0.08841665 0.039230764 -0.11589363 -0.021408245 -0.10485157
-0.10365347 0.18947726 -0.005223334 0.08154625 0.027454585 0.0279098 -0.19521141 0.053965688
0.009708598 0.010038346 -0.10794381 -0.12096107 0.08393678 -0.021564424 0.06715807 -0.09923408
-0.021771103 -0.19089322 -0.1336559 0.031023964 -0.12177824 0.0037866235 0.09746191 -0.07866928
0.14389846 0.099558055 0.047993034 -0.20936139 0.05423528 0.110360295 -0.054751456 -0.10789186
0.12526104 -0.08966787 -0.008088216 0.022208914 -0.18514556 -0.17783996 -0.102749474 0.12825835
0.11518228 -0.06166573 0.16873327 -0.07613808 0.051582634 0.05011612 0.018326387 -0.20952055
-0.019489482 -0.025111854 0.10824141 0.06327149 0.027445108 0.18804142 0.16695899 0.038870037
-0.11953749 -0.18341675 -0.20955847 -0.19725165 0.16925764 -0.19735202 -0.15759592 -0.122084156
-0.21239412 0.015084699 0.11864588 0.030940905 0.012108639 -0.110950805 0.117694944 0.113447696
0.16467321 0.16258764 -0.2106931 -0.025437072 -0.10116295 0.072250575 0.074504584 0.19145885
00000000: c035 98bd a8c1 04be f37e 34be 60ef d3bd
00000010: b63a 38be ac1b 3a3e 7083 35bd 5a16 34be
00000020: 5402 b33d e889 683d ae36 56be f8e5 123e
00000030: c843 15bd 7ea0 1bbe 9e5c 0fbe e2ed 073e
00000040: 0d70 53be ae0e 5cbe b151 56be 4871 563d
00000050: 3c51 9bbd 929f 233e 4032 02bc 4ca2 1cbd
00000060: 70bd 76bc 0860 bcbd c1f6 cfbd 181c cabc
00000070: 8882 18bd 2015 80bb 0ca0 fc3d f0dc cfbc
00000080: d625 9fbd 405b d13d 0029 38be e887 37be
00000090: e017 e9bb f8d7 02be 56a3 34be 3489 04be
000000a0: 082a 423d e8a9 b63d afa7 c4bd ca13 b5bd
000000b0: 70b0 203d a459 edbd 5860 afbc 6cbc d6bd
000000c0: 4548 d4bd 5406 423e 8028 abbb b801 a73d
000000d0: 70e8 e03c 18a3 e43c 80e5 47be 200b 5d3d
000000e0: d010 1f3c e077 243c a511 ddbd 70ba f7bd
000000f0: 0ce7 ab3d e0a7 b0bc 2c8a 893d 3d3b cbbd
00000100: 5059 b2bc 8379 43be 18dd 08be f825 fe3c
00000110: df66 f9bd 0029 783b 1c9a c73d 5c1d a1bd
00000120: 1e5a 133e 18e5 cb3d 5894 443d d562 56be
00000130: d025 5e3d 9404 e23d 1043 60bd 68f6 dcbd
00000140: 6e44 003e caa3 b7bd 7084 04bc 78ef b53c
00000150: cc96 3dbe ae1b 36be 516e d2bd 2856 033e
00000160: b0e4 eb3d 3495 7cbd 6ac8 2c3e 48ee 9bbd
00000170: 5048 533d 9046 4d3d 3821 963c 8e8c 56be
00000180: 68a8 9fbc 60b7 cdbc acad dd3d 7c94 813d
00000190: 90d4 e03c ee8d 403e 4cf7 2a3e 3036 1f3d
000001a0: 12d0 f4bd 9ad1 3bbe 7f96 56be 56fc 49be
000001b0: e051 2d3e a616 4abe d360 21be 4207 fabd
000001c0: d87d 59be d025 773c 9cfc f23d c877 fd3c
000001d0: 5063 463c 2d3a e3bd 0c0a f13d 4457 e83d
000001e0: 18a0 283e 607d 263e efbf 57be 6861 d0bc
000001f0: 852e cfbd 1cf8 933d dc95 983d ca0d 443e
