results/carMinusFiveOnMaxSteps2/CarFindGoal/CarFindGoal-499943.pt (torch, 530875 bytes, 36 tensors)

network_body._body_endoder.seq_layers.0.weight f4 [128, 36]
0	0x3d923064	0.07138136
1	0xbe50b0b9	-0.20379914
2	0x3e054f41	0.13018514
3	0x3d9bf545	0.07615141
4	0xbe0f6d5d	-0.14006563
5	0x3f097890	0.5369959
6	0x3cd5d293	0.026101386
7	0x3d883ae3	0.06651857
8	0xbe3670e6	-0.17816505
9	0xbdbe60d5	-0.09295813
10	0x3de63f20	0.11242509
11	0x3c010d3b	0.00787669
12	0x3df12215	0.11774079
13	0xbd026c43	-0.031841528
14	0xbd305a9b	-0.043055158
15	0x3cfb776a	0.03069659
16	0xbe52afe0	-0.20574903
17	0xbe5e1859	-0.21688975
18	0xbeed3dbe	-0.46336168
19	0xbe681e3e	-0.22667786
20	0x3e24cfdc	0.16094917
21	0x3ca9a20f	0.020707158
22	0x3e168f9e	0.14703223
23	0x3e40a6d4	0.1881364
24	0x3e30fe94	0.17284614
25	0x3e555d73	0.2083643
26	0x3dd75c72	0.105156794
27	0x3e450553	0.19240312
28	0x3e382940	0.17984486
29	0x3d9e81a1	0.077395685
30	0x3e24541a	0.16047707
31	0x3e0f0856	0.13968024
32	0xbd92fe9b	-0.071774684
33	0xbe1791e7	-0.14801751
34	0xbd1853f7	-0.03718945
35	0xbe3722e1	-0.17884399
36	0xb73283e8	-1.0640339e-05
37	0xbe8a3be8	-0.2699883
38	0x3e726d01	0.23674394
39	0x3d641507	0.055684116
40	0xbe0341ba	-0.12818041
41	0x3e906662	0.28203112
42	0xbe07aa3c	-0.13248533
43	0xbcad24f9	-0.021135794
44	0x3cd92048	0.02650465
45	0xbd1bf106	-0.038071655
46	0x3e523c97	0.20530926
47	0x3db0773d	0.08616493
48	0x3d45978d	0.048240233
49	0x3e2b54f5	0.16731627
50	0xbdf12563	-0.11774709
51	0x3d4ef497	0.050526228
52	0x3e33ddf2	0.17565134
53	0xbda5d96c	-0.080981106
54	0x3e11809d	0.14209218
55	0x3e1f5fb5	0.15563853
56	0xbdd8bcb8	-0.1058287
57	0x3e6047a4	0.21902329
58	0xbec3ac76	-0.38217515
59	0xbdf7434b	-0.12073382
60	0x3e13254a	0.14369693
61	0x3dba1287	0.09085565
62	0x3c1ce13a	0.009575183
63	0x3e58f82b	0.21188419
64	0xbeed3504	-0.4632951
65	0xbd3d0e77	-0.046156373
66	0x3e118986	0.14212617
67	0x3b345a16	0.0027519516
68	0x3dfa670a	0.122266844
69	0xbbdc0b39	-0.006715205
70	0x3de3d9a7	0.11125498
71	0x3de5e1ea	0.1122473
72	0xbe03018b	-0.12793557
73	0xbe4d4b86	-0.20048341
74	0x3de65a6c	0.11247715
75	0xbe49309c	-0.1964745
76	0xbe083f43	-0.13305382
77	0xbe76a11f	-0.240849
78	0x3e4c18e6	0.19931373
79	0x3d8fcab4	0.070210844
80	0xbe7ff738	-0.2499665
81	0x3d50f218	0.05101213
82	0x3df26928	0.11836463
83	0xbe9986fe	-0.29985803
84	0xbe982869	-0.2971833
85	0xbddec114	-0.108766705
86	0xbe248b1d	-0.16068693
87	0x3d95f41f	0.07321953
88	0x3e4c59c3	0.19956116
89	0x3dac06ca	0.083997324
90	0xba7084fa	-0.00091750885
91	0xbe2e32f9	-0.17011632
92	0xbd3c33a8	-0.0459477
93	0xbda682bd	-0.08130405
94	0x3e2d7654	0.1693967
95	0xbef67ad1	-0.48140576
96	0x3d670b70	0.056407392
97	0x3e8d2870	0.27569914
98	0x3d4c9e16	0.04995545
99	0x3e4a5585	0.19759186
100	0x3eab7243	0.33485612
101	0xbe9b0f2c	-0.30285013
102	0x3e0232a7	0.12714635
103	0x3e8420cf	0.2580628
104	0x3e7ce593	0.2469695
105	0xbccabfc1	-0.024749639
106	0x3dcee50e	0.101022825
107	0x3e36c145	0.17847164
108	0xbcdff4f5	-0.027338484
109	0x3ee1482f	0.44000384
110	0x3e66c87f	0.2253742
111	0xbd5891bb	-0.052873354
112	0x3e3468b8	0.17618072
113	0xbe1cff8b	-0.15331857
114	0xbdf77179	-0.1208219
115	0x3e2a5bb5	0.16636546
116	0xbe324937	-0.17410742
117	0xbd54b408	-0.051929504
118	0xbe181fdc	-0.14855903
119	0x3d71aec4	0.05900456
120	0xbcf0722c	-0.029351316
121	0xbd5df66f	-0.054190096
122	0xbced3ae1	-0.02895874
123	0x3e8c12e5	0.27358165
124	0xbde73605	-0.112896
125	0x3e308f0f	0.17242073
126	0x3e4e2db4	0.20134622
127	0x3bf4c22f	0.0074694376
128	0x3e223ab3	0.15842704
129	0xbe166faa	-0.14691034
130	0xbe03e4f1	-0.12880303
131	0xbdfbc5c9	-0.12293584
132	0x3d509992	0.050927706
133	0x3e047b41	0.12937643
134	0x3d6d419f	0.05792391
135	0x3e804f52	0.25060517
136	0x3e32108f	0.17389129
137	0x3cad262a	0.021136362
138	0xbe83b303	-0.25722513
139	0xbdae6d17	-0.08516901
140	0x3da644e6	0.0811861
141	0xbcc5bf26	-0.024138998
142	0x3e8bb473	0.2728611
143	0x3d504680	0.050848484
144	0xbe92278e	-0.28545803
145	0x3e78612b	0.24255817
146	0x3dd08777	0.10182088
147	0xbd412552	-0.047154732
148	0x3b24e841	0.0025162848
149	0xbb1970e8	-0.0023413245
150	0xbe1aa677	-0.15102564
151	0x3da50cf1	0.08059109
152	0xbe9bb261	-0.3040953
153	0x3d478a6f	0.048716005
154	0xbe6f9d87	-0.23399936
155	0xbde442e3	-0.1114557
156	0xbdac9c60	-0.08428264
157	0x3df348cd	0.1187912
158	0xbc85e4cb	-0.016344449
159	0xbc6e7eb2	-0.014556574
160	0xbd5aeb01	-0.053446773
161	0xbdc24b7c	-0.09487054
162	0xbeacb3e4	-0.33730996
163	0x3d80b11d	0.06283782
164	0xbd946967	-0.072466664
165	0x3e2f5ae5	0.17124517
166	0x3df83a68	0.12120515
167	0x3d67638b	0.056491416
168	0x3d92e99a	0.07173462
169	0x3d1709d4	0.036874607
170	0xbc902370	-0.017595023
171	0xbe28f28b	-0.16498773
172	0xbe9f8097	-0.31152794
173	0xbcbc0d18	-0.022955462
174	0xbe9827ca	-0.29717857
175	0x3dfa0798	0.1220848
176	0x3de520c0	0.11187887
177	0x3e120a3c	0.14261717
178	0xbe2a6595	-0.16640313
179	0xbc6720d4	-0.014106948
180	0xbe9ee983	-0.3103753
181	0x3e62aacc	0.22135466
182	0xbd95410b	-0.072877966
183	0xbd117730	-0.035514057
184	0x3c579fc7	0.0131606525
185	0x3d583a07	0.052789714
186	0xbb03f5ce	-0.0020135525
187	0x3c4ef54a	0.012631724
188	0x3eb5f1d4	0.35536063
189	0x3eafd92b	0.34345374
190	0x3d8ad37b	0.06778618
191	0x3d6c1f6f	0.057647165
192	0x3de9c301	0.11414147
193	0x3d01d59b	0.03169785
194	0xbeaf91ee	-0.34291023
195	0x3e6d5f4a	0.23180881
196	0xbeed5c56	-0.4635951
197	0xbc4c7229	-0.01247839
198	0x3e34fdd7	0.17674957
199	0x3e72aef3	0.2369955
200	0xbca997e0	-0.020702302
201	0x3dde7945	0.10862974
202	0x3e60ef9d	0.21966405
203	0xbd8df8c0	-0.06932211
204	0xbb7de2b1	-0.0038739855
205	0x3e3396e9	0.17538036
206	0xbe8c1b3a	-0.27364522
207	0x3d490e7b	0.049086075
208	0x3e243919	0.16037406
209	0xbe3b6fa4	-0.18304306
210	0x3d8e3e9b	0.06945535
211	0xbd1e1620	-0.03859532
212	0x3dfaa3cd	0.12238274
213	0x3de8bdb7	0.1136431
214	0xbda96f2d	-0.08273158
215	0x3d9a8608	0.07545096
216	0x3e1c58c3	0.15268235
217	0xbe411337	-0.18854986
218	0x3d87fcb0	0.06639993
219	0x3ddc0c13	0.107444905
220	0xbe80648b	-0.25076708
221	0x3e395de0	0.18102217
222	0xbe93a0dd	-0.28833666
223	0x3e292e27	0.16521512
224	0x3e46d6e4	0.19417912
225	0x3db4a110	0.08819783
226	0x3eb27b57	0.34859726
227	0xbd9670ac	-0.07345709
228	0xbdb9ae99	-0.09066505
229	0xbc2982fe	-0.010346172
230	0x3d05327c	0.03251885
231	0x3dadbeb3	0.084836386
232	0x3b59e029	0.0033245182
233	0x3e71600e	0.23571798
234	0x3d7d1a28	0.061792523
235	0x3e1d2bec	0.15348786
236	0x3e5aba6f	0.21360181
237	0xbe030a8b	-0.1279699
238	0x3ec5e812	0.38653618
239	0xbd5bb13d	-0.053635824
240	0xbc94b7a3	-0.018153971
241	0x3e3baa5d	0.18326707
242	0x3d9f24a0	0.077706575
243	0xba42a794	-0.0007425484
244	0xbe902486	-0.28152865
245	0x3e825377	0.25454304
246	0xbe1dae32	-0.15398481
247	0x3dafd468	0.08585435
248	0xbc56d1c6	-0.013111537
249	0x3db64daf	0.08901536
250	0xbe8152cd	-0.25258484
251	0x3cb74a77	0.022374375
252	0xbeff5468	-0.49869084
253	0x3df04e34	0.11733666
254	0x3e8649dc	0.26228225
255	0xbeb38d40	-0.35068703

network_body._body_endoder.seq_layers.0.bias f4 [128]
0	0xbb860d6d	-0.004090956
1	0x3c7df76e	0.015500886
2	0x3bc07138	0.0058728717
3	0xbb3e9f36	-0.0029086596
4	0xbc2320a9	-0.009956517
5	0xbc4e169f	-0.0125786355
6	0xbb707110	-0.0036688484
7	0xbc83b123	-0.016075676
8	0x3a9b9981	0.0011871309
9	0x3c95230c	0.018205188
10	0x3bd0a039	0.0063667563
11	0x3c2c4b71	0.0105160335
12	0x3b29b808	0.0025897045
13	0xbb37fc53	-0.002807398
14	0x3cb3c241	0.021943213
15	0x3c51ae59	0.012797915
16	0x3c1bb76e	0.009504182
17	0xbb41c51d	-0.0029566952
18	0x3c6170ef	0.013759836
19	0xbc2caaba	-0.010538751
20	0x3c6eb748	0.014570065
21	0x3cdd203c	0.02699291
22	0x3b18add9	0.002329698
23	0xbc84f1ba	-0.016228545
24	0xbc94142c	-0.018076025
25	0x3b875879	0.00413042
26	0x3c39a473	0.011330712
27	0xbbb7e02d	-0.0056114406
28	0x3c2d495c	0.010576572
29	0x3bdd6e56	0.006757538
30	0xbbee42cf	-0.007271148
31	0xbc1fb70e	-0.0097482335
32	0xbba8b8c7	-0.0051489803
33	0x3c22bf46	0.009933298
34	0x3b518ab3	0.003197354
35	0xb80bd7a7	-3.3341024e-05
36	0xbc333719	-0.010938429
37	0xbc5ee719	-0.013604903
38	0x3c77697d	0.015100834
39	0xbb66b7b8	-0.003520472
40	0x3bbc8280	0.0057528615
41	0x3bc7136a	0.0060753124
42	0x3c054aa8	0.008135475
43	0xbc8c505e	-0.017128166
44	0x3b0ba502	0.002130807
45	0x3bcbe72a	0.0062226253
46	0xbbdf8a8b	-0.0068219355
47	0xbc381913	-0.011236447
48	0xbc2cb9e2	-0.010542365
49	0xbc90c505	-0.017672071
50	0x3ce66663	0.028124994
51	0xbc2f0c53	-0.010684091
52	0xb9c1977e	-0.000369247
53	0xbc0da3b2	-0.008644985
54	0xbc59a465	-0.013283824
55	0x3addcd49	0.0016922142
56	0xbc9045f5	-0.017611483
57	0x3c81ccf0	0.015844792
58	0x3c8a838e	0.016908433
59	0xbb33a57f	-0.0027411876
60	0xbb784a59	-0.0037886112
61	0xbbf5111a	-0.0074788453
62	0xbaa4de62	-0.0012578482
63	0x3bd1e2a9	0.006405194
64	0xbc72400f	-0.014785781
65	0x3b811755	0.003939549
66	0x3b7c8266	0.0038529872
67	0x3c8e341b	0.01735883
68	0xbb51a8d8	-0.0031991508
69	0x3b2d63d2	0.0026457203
70	0xbc44f903	-0.01202226
71	0xbc8bf82a	-0.017086107
72	0xbba1ce71	-0.00493794
73	0x3b90dc53	0.004420796
74	0xbb1829ae	-0.0023218202
75	0x3c056531	0.008141802
76	0xbbed2d38	-0.0072380565
77	0xbb9b8652	-0.004746237
78	0xbc81653a	-0.015795339
79	0x3b8ce751	0.004300036
80	0xbc00647d	-0.007836458
81	0xbbb340b6	-0.0054703606
82	0xbbb81fba	-0.0056190165
83	0xbbe90ce4	-0.0071121324
84	0x3c05dffd	0.008171079
85	0x3ba9a0c9	0.005176638
86	0x3ba1717e	0.0049268594
87	0x3c7ee2a5	0.015556966
88	0x3b6a929e	0.0035792957
89	0x3bda18ce	0.006655789
90	0x3ca1fa7d	0.019772762
91	0xbb15c609	-0.0022853634
92	0xbb091dab	-0.0020922225
93	0xbb1e994e	-0.0024200263
94	0xbc3093fa	-0.010777468
95	0xbc58b917	-0.013227723
96	0xbbbff0eb	-0.005857577
97	0x3c30a540	0.010781586
98	0xbc00a346	-0.007851427
99	0xbbcdcd72	-0.0062805945
100	0x3c4a199f	0.01233521
101	0xbc2f0c5c	-0.010684099
102	0x3c5cd084	0.013477448
103	0xbc9bd902	-0.019024376
104	0xbc223bcb	-0.009901951
105	0xbc13d8be	-0.009023843
106	0x3c4398af	0.011938258
107	0x3b780163	0.0037842623
108	0xbc33b239	-0.010967785
109	0xbc09358d	-0.008374584
110	0xbc044ac7	-0.008074469
111	0x3bd1a5b3	0.0063979267
112	0xbc712f05	-0.014720683
113	0xbc2a36f1	-0.010389076
114	0x3bcfe6ba	0.0063446434
115	0xbac10d4b	-0.0014728693
116	0x3c2fa559	0.010720574
117	0xbb3e2b91	-0.0029017667
118	0x3c30084e	0.0107441675
119	0x3b03f0b8	0.0020132493
120	0xbb9d4e58	-0.004800599
121	0xbca3dc0c	-0.020002387
122	0xb9f4da8e	-0.00046702143
123	0x3c52a519	0.012856745
124	0x3c8b8d71	0.017035218
125	0xbc19ae69	-0.0093799615
126	0xb965293b	-0.00021854501
127	0x3b09621f	0.0020963026

network_body._body_endoder.seq_layers.2.weight f4 [128, 128]
0	0xbd39f372	-0.045398183
1	0x3dfb1288	0.12259394
2	0x3c1e1687	0.009648926
3	0x3dda0699	0.1064579
4	0xbd4446f8	-0.047919244
5	0xbde15855	-0.11003176
6	0xbd58f9f4	-0.05297275
7	0x3e1086e3	0.14113955
8	0xbc7dbf13	-0.01548745
9	0x3da298db	0.07939311
10	0xbdcf6451	-0.10126556
11	0x3df85bb4	0.12126866
12	0xbce850a7	-0.02835877
13	0xbe4d2a53	-0.20035677
14	0x3e3dd179	0.18536939
15	0xbd940cc6	-0.07228999
16	0xbde9b84d	-0.11412106
17	0x3decb3a3	0.115577005
18	0x3d38ae53	0.045088124
19	0x3ac8890b	0.0015299631
20	0x3e331042	0.1748667
21	0x3d9469f0	0.072467685
22	0x3db14563	0.086558126
23	0xba857ff0	-0.0010185223
24	0x3c0896c3	0.008336726
25	0xbc05523f	-0.008137285
26	0x3d80fcfd	0.06298254
27	0x3e06feae	0.1318309
28	0x3d6f49cb	0.058419984
29	0x3c1dcb3b	0.009630973
30	0xbdf2ff3b	-0.118650876
31	0xbc162fea	-0.009166697
32	0xbdc39987	-0.095507674
33	0x3e1d18a4	0.15341431
34	0x3e1e0172	0.15430239
35	0xbd73220f	-0.059358653
36	0x3cd928b9	0.026508676
37	0xbdc330b2	-0.09530772
38	0x3d9cb371	0.07651413
39	0x3d7b3626	0.061330937
40	0xbdff1237	-0.12454646
41	0x3dd12ca6	0.10213594
42	0xbd557817	-0.05211648
43	0xbccbfbbf	-0.024900315
44	0x3c80ecbd	0.015737886
45	0xbdd6d54f	-0.10489904
46	0xbe18544f	-0.14875911
47	0x3c98fb78	0.018674597
48	0x3d83fc5c	0.06444618
49	0x3dda6556	0.106638595
50	0x3d4a0af0	0.049326837
51	0xbdb10931	-0.08644331
52	0x3d562473	0.052280854
53	0xbe181047	-0.1484996
54	0x3a878545	0.00103394
55	0x3d8f2f46	0.069914386
56	0xbd09771e	-0.033560865
57	0x3c5a778d	0.013334167
58	0xbd92fcd2	-0.07177128
59	0x3c0af6ff	0.00848174
60	0x3e466c35	0.19377215
61	0x3cd5d9b6	0.02610479
62	0x3e8ce2db	0.27516827
63	0xbc7497c4	-0.014928762
64	0x3d7f91b6	0.06239482
65	0xbc9532e3	-0.018212741
66	0xbe04e7e9	-0.12979092
67	0x3e259271	0.16169144
68	0xbc991cc7	-0.01869048
69	0x3d714b0e	0.05890947
70	0x3cd0ac40	0.02547276
71	0x3c54a7f5	0.012979497
72	0x3d8a8d81	0.06765271
73	0xbd15a2eb	-0.036532324
74	0xbe0f014d	-0.1396534
75	0x3e034dea	0.1282269
76	0xbd92679c	-0.07148668
77	0x3d2a1f1a	0.041533567
78	0xbe328b69	-0.17435993
79	0x3daa7500	0.08323097
80	0xbd868061	-0.06567455
81	0x3d8b71be	0.06808804
82	0xbe005447	-0.1253215
83	0x3e24ded7	0.16100632
84	0xbdee399b	-0.11632081
85	0x3c4de4be	0.012566743
86	0x3d6eedae	0.058332138
87	0xbc9cb765	-0.019130418
88	0xbdacac8f	-0.084313504
89	0x3aa91825	0.0012900872
90	0x3d86331c	0.06552717
91	0xbdbc310c	-0.091890424
92	0x3d11763a	0.03551314
93	0x3be2550c	0.006907111
94	0xbe01f3a7	-0.12690602
95	0xbe4e0fdb	-0.20123236
96	0x3da5af78	0.08090109
97	0xbe1c4be1	-0.1526332
98	0xbde45ae4	-0.111501485
99	0x3d563afa	0.05230234
100	0x3e81b09c	0.25330055
101	0x3d5e7c8e	0.054318003
102	0x3e1e66f4	0.15468961
103	0xbe4cecf0	-0.2001226
104	0x3cc81e97	0.024428649
105	0x3d8932dc	0.06699154
106	0x3e13b901	0.14426042
107	0x3d5f1904	0.054467216
108	0x3ccd1384	0.02503372
109	0xbdf72765	-0.12068061
110	0xbdd21a8b	-0.10258969
111	0x3e0eb288	0.13935292
112	0x3e18afbb	0.14910786
113	0xbc7acf47	-0.015308208
114	0x3d186448	0.03720501
115	0xbd4d6683	-0.05014659
116	0x3d9d77b6	0.07688849
117	0xbdaa1ac0	-0.083058834
118	0xbc1860fa	-0.009300465
119	0xbd0c1cb6	-0.03420707
120	0xbccaea56	-0.024769943
121	0xbdea9e68	-0.11455995
122	0x3d24e90f	0.040261324
123	0x3d546d32	0.05186195
124	0xbda31e5a	-0.079647735
125	0xbd5f8045	-0.054565687
126	0x3cafee18	0.021475837
127	0x3d0c3626	0.034231327
128	0x3cfdda4a	0.030987877
129	0xbd25bd76	-0.040463887
130	0x3e0ed03e	0.13946626
131	0x3e004f15	0.12530167
132	0x3c204ecc	0.009784412
133	0xbddd96fb	-0.10819813
134	0x3bea78fd	0.007155536
135	0x3e4060ed	0.18786974
136	0xbc3f0829	-0.01165966
137	0xbc6a87b3	-0.01431458
138	0xbd0126f7	-0.0315313
139	0x3dd72136	0.10504381
140	0x3d72d67a	0.059286572
141	0xbb461d51	-0.0030229876
142	0xbd8f02d2	-0.0698296
143	0xbdb24586	-0.08704667
144	0xbdaacadd	-0.08339474
145	0x3c882f5e	0.016624149
146	0xbe62a7d9	-0.22134341
147	0x3e7faa63	0.24967341
148	0xbbf6d283	-0.007532419
149	0x3e0a6da3	0.13518386
150	0xbd581f6a	-0.052764334
151	0x3da463d7	0.080268554
152	0xbe0ed007	-0.13946544
153	0x3e2c1ae4	0.16807133
154	0x3e873c06	0.26412982
155	0xbb5b6876	-0.0033479012
156	0xbd95a08b	-0.07306012
157	0x3d9ae450	0.075630784
158	0x3da91bff	0.08257293
159	0xbe76b12d	-0.24091025
160	0xbd8d63eb	-0.069038235
161	0xbdf32d35	-0.11873857
162	0x3dea50ec	0.11441216
163	0x3e224974	0.15848333
164	0xbddc06bf	-0.10743474
165	0x3cbf20d8	0.02333109
166	0xbe2b413a	-0.167241
167	0x3e3919e4	0.18076283
168	0xbde448d3	-0.111467026
169	0x3d974cfd	0.07387731
170	0x3c7a4500	0.01527524
171	0x3daa1230	0.0830425
172	0x39ee9c4d	0.0004551135
173	0x3d627b0e	0.055293135
174	0x3db163cb	0.08661612
175	0xbcb84df8	-0.022498116
176	0x3d11cec9	0.035597596
177	0x3d9714d6	0.07377021
178	0x3c299a69	0.010351756
179	0x3de35666	0.111004636
180	0xbdb6619f	-0.089053385
181	0x3b842f7d	0.0040339814
182	0xbce41bb5	-0.027845243
183	0xbde6811d	-0.11255095
184	0x3cbf1d6b	0.023329457
185	0xbd5be088	-0.053680927
186	0xbcd52982	-0.026020769
187	0x3d9f131a	0.07767315
188	0x3d11080a	0.035408057
189	0xbd2a7235	-0.041612823
190	0x3e3d9fef	0.18518041
191	0x3de788fa	0.11305423
192	0xbd4ee806	-0.050514244
193	0x3d0913ab	0.033466022
194	0x3c7ebe5e	0.015548317
195	0xbd73511d	-0.059403528
196	0x3dc56959	0.09639234
197	0xbd80225f	-0.06256556
198	0x3c25dff9	0.0101242
199	0xbe17203a	-0.14758387
200	0xbe3d7204	-0.18500525
201	0xbdeb6411	-0.114936955
202	0x3d52b470	0.05144161
203	0xbdb44f76	-0.088042185
204	0x3d6b8507	0.05749991
205	0xbe0ae79d	-0.13564916
206	0xbd0e6cda	-0.034771778
207	0x3defc3ce	0.11707269
208	0xbcfdaeef	-0.030967204
209	0xbcbc4360	-0.022981346
210	0xbd9c8251	-0.076420434
211	0xbdce3039	-0.100677915
212	0xbe012168	-0.126104
213	0x3e4014f3	0.18757991
214	0xbd54bc0a	-0.05193714
215	0xbe15aef2	-0.14617518
216	0x3d6bb378	0.0575442
217	0x3de5f658	0.11228627
218	0x3cb4b537	0.022059066
219	0x3d242d8d	0.040082503
220	0x3d96d48c	0.07364759
221	0xbd11f091	-0.035629813
222	0xbd489121	-0.04896653
223	0xbc7baa43	-0.015360418
224	0x3c294235	0.010330726
225	0xbce49b62	-0.027906124
226	0x3d533175	0.051560838
227	0x3d5585c9	0.05212954
228	0xbe299af2	-0.16563013
229	0x3c09ad41	0.008403123
230	0x3d61e3c1	0.055148844
231	0xbda3a80d	-0.079910375
232	0x3d1302d9	0.035891388
233	0x3dc69355	0.0969607
234	0xbc895c17	-0.016767545
235	0xbdadefb5	-0.08492986
236	0xbdb3536f	-0.08756148
237	0x3da97fe9	0.0827635
238	0xbd90720f	-0.07053005
239	0x3d8ed11a	0.06973477
240	0xbcc6d01b	-0.024269154
241	0x3e020474	0.12697011
242	0x3ae0b6d3	0.001714433
243	0xbd63f4e6	-0.055653475
244	0xbda2da3b	-0.079517804
245	0x3e27ed0c	0.1639902
246	0x3c8df6bb	0.017329564
247	0x3d02d83e	0.031944506
248	0x3d5653d7	0.05232605
249	0xbd77aa65	-0.060465235
250	0xbc94bc78	-0.018156275
251	0x3dea00c5	0.11425928
252	0xbe2c968d	-0.16854306
253	0xbd9c30bf	-0.07626485
254	0xbdc5688e	-0.09639083
255	0x3d58ac88	0.052898914

network_body._body_endoder.seq_layers.2.bias f4 [128]
0	0x3c36e3e0	0.011162728
1	0xbbff55ef	-0.0077922265
2	0xbb54e797	-0.003248667
3	0xbb6095ec	-0.0034269048
4	0x3baa8ad3	0.0052045374
5	0x38bd114a	9.0154426e-05
6	0xbb03707e	-0.0020056064
7	0xbb0ae3ec	-0.002119298
8	0x3b99d7b4	0.0046949033
9	0xbb20e825	-0.0024552431
10	0x3c30b1bb	0.010784562
11	0x3b9e48ff	0.004830479
12	0x3c95bbbd	0.018277997
13	0xbb3884de	-0.0028155367
14	0xbbd12471	-0.006382518
15	0xbc2a33fb	-0.01038837
16	0xbc0e336c	-0.008679252
17	0xbc1edb90	-0.0096959025
18	0xbbe4dea8	-0.0069845505
19	0xbb252706	-0.0025200262
20	0x3c06b380	0.008221507
21	0xbc1a1e0f	-0.009406581
22	0xbadc7139	-0.0016818411
23	0x3c3988c2	0.0113241095
24	0xbb357ef8	-0.0027694087
25	0xbbe4b137	-0.0069791335
26	0xbbd64ca0	-0.006539896
27	0x3b69b5fa	0.0035661445
28	0xbbf868ca	-0.007580851
29	0x3a9c22f4	0.0011912272
30	0x3b9d44df	0.00479947
31	0xbc0ba5a7	-0.008523381
32	0xbbfd9275	-0.0077384063
33	0xbbf9e9fb	-0.0076267696
34	0xbbaefb26	-0.005339998
35	0x3b30a6c2	0.0026954864
36	0xbaaf1ac5	-0.0013359418
37	0x3c071bf0	0.008246407
38	0xb995f668	-0.00028603082
39	0xbb90f0e5	-0.004423248
40	0x3c51e473	0.012810814
41	0x39c7227d	0.00037981934
42	0x3c0bc20e	0.008530153
43	0xbabde6bc	-0.001448832
44	0xbc07e992	-0.008295434
45	0xbb7827b0	-0.0037865452
46	0x37b914e8	2.2063454e-05
47	0xbb4ac754	-0.0030941563
48	0xbbcf4d6d	-0.0063263685
49	0xba7733d1	-0.00094300235
50	0x3b8653b6	0.0040993346
51	0xbb88d625	-0.0041759186
52	0xbc0b8730	-0.008516118
53	0x39134f32	0.00014048515
54	0x3ad51be2	0.001625892
55	0x3ab3deb0	0.0013722982
56	0xbbf92bbe	-0.0076040914
57	0x3b2485d9	0.0025104193
58	0x3c1fc67c	0.009751912
59	0xbbcf9e26	-0.0063359914
60	0x3b46a4b0	0.0030310564
61	0x3c1ce726	0.009576594
62	0xbc000a47	-0.00781495
63	0x3c0c06a4	0.008546505
64	0x3c16f807	0.009214408
65	0xba30831d	-0.00067334046
66	0xbb6d42ad	-0.0036203072
67	0x3c100592	0.008790391
68	0xbc103e4b	-0.008803914
69	0x3b183ed0	0.0023230799
70	0xba9026c2	-0.0010997879
71	0xbad876e9	-0.001651493
72	0x3a21e312	0.0006175499
73	0x3b84bb40	0.0040506423
74	0xbbaf6729	-0.005352874
75	0xba8a8f1d	-0.0010571216
76	0x3bad29d4	0.0052845273
77	0x3b6343b3	0.0034677803
78	0xbbf5164f	-0.007479466
79	0x3bbbbaf8	0.0057290755
80	0x3c307351	0.010769681
81	0xbbcd44ec	-0.0062643196
82	0xbc20b1f6	-0.009808054
83	0xbb33bef2	-0.0027427045
84	0x3c6c9f92	0.014442341
85	0xbc12bff4	-0.008956898
86	0x3b1324d8	0.002245238
87	0xbc2f05d4	-0.010682542
88	0xbc1db549	-0.009625741
89	0xbbb3deb6	-0.0054891957
90	0x3b35f694	0.002776538
91	0xbb7440d8	-0.0037270095
92	0xbbf73b4c	-0.0075449105
93	0x3ac482d1	0.00149926
94	0xbb84ca65	-0.0040524476
95	0x3beb9247	0.0071890685
96	0xbbc988bd	-0.0061503337
97	0xbbc4980f	-0.005999572
98	0xbbef0712	-0.007294544
99	0x3b3296a5	0.0027250436
100	0x3a830fb7	0.000999919
101	0x3b5d0d2d	0.0033729777
102	0xbbd9d878	-0.0066481195
103	0xbb8d4c45	-0.0043120706
104	0x3b807a4b	0.0039208285
105	0xbc0f36ae	-0.008741064
106	0xbb86f5ef	-0.004118673
107	0x3bf9a3ec	0.007618418
108	0x38b4dcd9	8.624205e-05
109	0xbc38b1cb	-0.011272858
110	0xbc047b2b	-0.008086006
111	0x3c0fb093	0.008770126
112	0x3a952833	0.0011379778
113	0xbb176f6a	-0.002310718
114	0xbbc86485	-0.0061154985
115	0xbc09adfe	-0.008403299
116	0x397e599d	0.00024256711
117	0xbc550fef	-0.013004287
118	0xbc2f7cf7	-0.010710946
119	0x3c227a44	0.009916846
120	0xbb5dd24e	-0.0033847275
121	0xbb1c5ed9	-0.0023860245
122	0x3bfe172a	0.007754226
123	0x3bd8ec2a	0.00661995
124	0xbc086551	-0.008324937
125	0xbc0d747b	-0.008633728
126	0xbc081165	-0.008304928
127	0x3c811b86	0.015760195

action_model._continuous_distribution.log_sigma f4 [1, 2]
0	0x3ccad0b8	0.024757728
1	0x3d35c8b1	0.044380847

action_model._continuous_distribution.mu.weight f4 [2, 128]
0	0xbd125d1d	-0.03573333
1	0x3c9a7896	0.018856328
2	0x3bb55a35	0.005534435
3	0x3d0be493	0.034153532
4	0x37cfb9f4	2.4762914e-05
5	0x3d32c7a0	0.04364741
6	0xbc8f5749	-0.017497675
7	0x3b8562d8	0.004070621
8	0xbc914808	-0.017734542
9	0x3d0a1830	0.033714473
10	0xbda017fa	-0.07817073
11	0xbc96b9d4	-0.018399157
12	0xbd5e5fab	-0.054290455
13	0xbb3ff3f9	-0.0029289706
14	0x3c2b14b8	0.010441951
15	0x3c55d0a5	0.013050233
16	0x3cdd5a08	0.02702047
17	0x3c004573	0.007829058
18	0x3b9ac569	0.00472324
19	0xbb897486	-0.004194799
20	0xbbaac2a0	-0.0052111894
21	0x3cf71dc6	0.030165564
22	0xbc1c2b21	-0.009531767
23	0xbce2ccff	-0.02768564
24	0x3d07c9c0	0.03315139
25	0x3ca83ac3	0.020535832
26	0x3d26c6ff	0.04071712
27	0xbc5eaac0	-0.013590515
28	0x3ca01803	0.0195427
29	0xbc89f6e2	-0.016841356
30	0xbcb924e4	-0.022600599
31	0x3d09d6a2	0.033651955
32	0x3d1ce1f8	0.038301438
33	0x3cd6e817	0.026233716
34	0x3c13b2f9	0.009014838
35	0x3c957164	0.018242545
36	0xbbbeb8e0	-0.0058203787
37	0xbc69c47f	-0.01426804
38	0xbc14b3c3	-0.009076062
39	0x3b4b979a	0.0031065703
40	0x3c2fd83d	0.010732708
41	0xbc3840bd	-0.011245904
42	0xba4291c1	-0.0007422232
43	0x3c82511c	0.015907817
44	0x3ca02e3a	0.019553293
45	0xbb7f2de3	-0.0038937263
46	0xbc7bb814	-0.015363712
47	0x3b646982	0.0034852927
48	0x3ce082e3	0.027406162
49	0x3c717c5e	0.014739124
50	0xbc8a77e3	-0.01690287
51	0xbb9a4a5c	-0.0047085714
52	0x3c942fff	0.018089293
53	0x3b0e6cbf	0.0021732298
54	0x3c23708c	0.009975564
55	0xbaf138d2	-0.0018403775
56	0x3d4986ff	0.049201008
57	0xbc8a8976	-0.01691125
58	0xbd15a1d1	-0.036531273
59	0x3a7b2443	0.00095802936
60	0x3c1264e0	0.008935183
61	0xbb426abc	-0.002966567
62	0x3d30e221	0.043184403
63	0xbcf457bd	-0.029826993
64	0xbc52de6e	-0.012870414
65	0xbc8e82e9	-0.017396407
66	0x3b622f69	0.0034513122
67	0xbcf6d019	-0.030128526
68	0x3d343511	0.04399592
69	0xbc29bf25	-0.010360514
70	0xbc5a7fb2	-0.013336109
71	0x3c10021d	0.008789566
72	0x3bbd398c	0.0057746824
73	0x3bae6a66	0.0053227423
74	0x3b0a4a2b	0.0021101336
75	0x3cd3939b	0.02582722
76	0xbc63fb11	-0.013914839
77	0xbca113a3	-0.019662684
78	0x3af7901d	0.0018887554
79	0xbc03932b	-0.008030693
80	0xbc62ba6d	-0.013838393
81	0x3d05ce3f	0.032667395
82	0x3d19ee53	0.0375808
83	0x3d0d0482	0.034428127
84	0xbc9dbf54	-0.019256271
85	0x3c38dbda	0.011282885
86	0xbb3da2fc	-0.0028936258
87	0x3c9fcab5	0.019505838
88	0xbc1f8143	-0.009735408
89	0x3c193998	0.00935211
90	0x3a8fbe89	0.0010966818
91	0x3bd80a0e	0.0065929955
92	0x3b56c8aa	0.0032773414
93	0xbcace5ea	-0.021105725
94	0x3c1da244	0.009621207
95	0xbc4f41e3	-0.012649986
96	0x3bbde4f3	0.005795115
97	0x3caeda4a	0.021344323
98	0x3c23c9ce	0.009996844
99	0xbb29c218	-0.0025903042
100	0x3b0cd092	0.0021486622
101	0xbc00b42b	-0.007855455
102	0x3d0192db	0.031634193
103	0x3a8e1f06	0.0010842986
104	0xbca12c88	-0.019674554
105	0x3d10459d	0.03522264
106	0x3aee267b	0.0018169427
107	0xbb8fb495	-0.0043855407
108	0xbbafc1ff	-0.0053637023
109	0x3c990ff8	0.018684372
110	0x3cd1796d	0.025570596
111	0xbcf94139	-0.030426608
112	0xbc99fe0c	-0.018797897
113	0x3c6b27e3	0.014352771
114	0x3a892255	0.0010462502
115	0x3d4308e7	0.04761591
116	0xbc39d21d	-0.011341599
117	0xbb439037	-0.0029840597
118	0x3caae224	0.020859785
119	0xbc7a793d	-0.0152876945
120	0x38a982df	8.0829246e-05
121	0xbc842d7c	-0.01613497
122	0xbca067c0	-0.019580722
123	0xbd0b0232	-0.03393764
124	0x3cffc79f	0.031223116
125	0x3ca66b89	0.020314949
126	0xbc1d99f8	-0.009619229
127	0x3c5f6cad	0.01363675
128	0x3bbe4b6d	0.0058073313
129	0xbc733048	-0.014843054
130	0xbbc0cc3f	-0.005883723
131	0xbb18e1ac	-0.002332787
132	0xbc812adf	-0.015767513
133	0xbc2fedc9	-0.010737845
134	0xbba7bb5d	-0.005118771
135	0xbca3f208	-0.02001287
136	0xb64ead20	-3.0797164e-06
137	0xbc3e1f08	-0.011604078
138	0x3bc73724	0.0060795713
139	0x39385ff2	0.0001758335
140	0xbc4df006	-0.012569433
141	0xbcc3c1bd	-0.023896093
142	0x3c3e80a8	0.011627354
143	0xbbc4a30e	-0.006000883
144	0x3c40f7a0	0.011777788
145	0x3c5ab115	0.013347884
146	0x3c9c3af2	0.019071076
147	0x3c4ceb5c	0.012507286
148	0xbc6630de	-0.014049737
149	0x3bf9edad	0.00762721
150	0x3c96b5dc	0.018397264
151	0x3c230189	0.0099490965
152	0x3cc2ecf7	0.023794634
153	0xbc25c10b	-0.010116826
154	0xbc5ac808	-0.013353355
155	0xbcca09f3	-0.024662947
156	0x3a18fbbf	0.0005835853
157	0xbc39b5d9	-0.01133486
158	0x3ce4404e	0.027862694
159	0xbbe7aa76	-0.007069881
160	0x3ca7d557	0.02048747
161	0xbb64a1b4	-0.0034886422
162	0xbc6d1e2c	-0.014472526
163	0x3c5a466f	0.013322457
164	0xbcb4b7ce	-0.022060301
165	0xbd1ef8dd	-0.038811553
166	0x3c9349b0	0.017979473
167	0xbc70b5b7	-0.014691762
168	0x3bc8f2f8	0.0061324798
169	0x3ca73398	0.020410344
170	0xbc415297	-0.011799476
171	0x3cba3f84	0.022735365
172	0xbc7ce174	-0.015434612
173	0xbb0f0cd0	-0.0021827705
174	0x3bc001f8	0.0058596097
175	0x3cace97f	0.021107433
176	0x3c0642f3	0.008194673
177	0xbcd5ebfc	-0.026113503
178	0x3ca0384c	0.019558094
179	0x3a437382	0.00074558717
180	0xbbd2f62f	-0.006438039
181	0xbc920016	-0.017822307
182	0xba9b2faf	-0.0011839772
183	0x3ac892dd	0.0015302558
184	0x3c66c6f9	0.014085525
185	0xbbd55576	-0.006510432
186	0x3c0172d8	0.007900916
187	0x3caca69e	0.021075543
188	0xbc85b140	-0.016319871
189	0xbc12c42c	-0.008957904
190	0x3cf1ffe7	0.029540969
191	0x3b66d6ee	0.0035223323
192	0xbbe34f12	-0.006936916
193	0x3c67b53c	0.014142331
194	0xbcb3b17f	-0.021935223
195	0xbb802c17	-0.003911506
196	0x3c2e1a1e	0.010626344
197	0xbb826deb	-0.0039803884
198	0x3d18b9b6	0.037286483
199	0xbc8d7d0f	-0.017271547
200	0x3c00b452	0.007855492
201	0xbb0b573e	-0.0021261717
202	0x3cc8cc6e	0.024511542
203	0x3c210f6b	0.009830336
204	0xbb279519	-0.0025571047
205	0xbb1d120c	-0.0023967056
206	0x3c9bc841	0.019016387
207	0xba3cfe97	-0.00072095677
208	0xbbca0751	-0.006165423
209	0x3bab53a6	0.0052284775
210	0x3c987699	0.01861124
211	0xbc0f9431	-0.008763359
212	0xbc2bfe6e	-0.0104976725
213	0x3c8530b6	0.016258579
214	0xbcd54cbc	-0.026037566
215	0xbbbe1158	-0.0058004074
216	0xbba2e267	-0.004970837
217	0x3cad4f7c	0.021156065
218	0x3cb538e6	0.022121858
219	0x3c8b9d6e	0.017042842
220	0x3ca1ee40	0.019766927
221	0x3c0d2ab1	0.008616135
222	0x3ce1f757	0.027583761
223	0xbcaa229d	-0.020768458
224	0xbc37ea15	-0.011225243
225	0x3c0856c2	0.008321466
226	0x3c83f11c	0.01610618
227	0x3c2f8f55	0.010715325
228	0x3d3fdb7c	0.046840176
229	0xbc52a8ae	-0.012857599
230	0xbc0e6e67	-0.008693314
231	0x3ca2a0a3	0.019851988
232	0xbd176f61	-0.036971454
233	0x3bd72902	0.006566168
234	0x3cdddfac	0.027084194
235	0x3b9002bb	0.0043948567
236	0x3c8d4d83	0.017248875
237	0xba95c5b3	-0.0011426717
238	0x3b22f09a	0.0024862648
239	0x3b879161	0.0041372036
240	0xba898550	-0.0010492001
241	0x3ca5078b	0.020145198
242	0xbc121d83	-0.008918169
243	0xbc40429f	-0.011734634
244	0x3c9077a4	0.017635174
245	0x3a90468e	0.0011007355
246	0x3c02614d	0.007957769
247	0x3ba21f7b	0.0049476004
248	0x3d0d38b4	0.034477904
249	0x3d0dbbc1	0.034602884
250	0xbad7fdef	-0.0016478876
251	0xbb8e703f	-0.004346877
252	0xbb10c488	-0.0022089798
253	0x3c98fcf5	0.018675307
254	0xbbda40eb	-0.006660571
255	0x3c7f5d12	0.015586155

action_model._continuous_distribution.mu.bias f4 [2]
0	0xbc1d0c17	-0.009585402
1	0xbb0a03cf	-0.00210594

exp_avg f4 [128, 36]
0	0xb741de92	-1.1555518e-05
1	0xb2b416cc	-2.0965125e-08
2	0xb7a85a87	-2.0069316e-05
3	0xb8018103	-3.087615e-05
4	0xb75ef535	-1.3289323e-05
5	0xb79da85d	-1.8794259e-05
6	0xb28cb4ab	-1.6380303e-08
7	0xb7a7d8ee	-2.0008967e-05
8	0xb710615d	-8.605738e-06
9	0x33ea0fd9	1.0899357e-07
10	0xb7b85103	-2.1972233e-05
11	0xb7fdf07f	-3.027194e-05
12	0xb7fbd25f	-3.0019493e-05
13	0x376c0a36	1.4069074e-05
14	0xb78892d8	-1.6280843e-05
15	0xb8289a10	-4.0197803e-05
16	0x34ac4e38	3.2094408e-07
17	0x36843d2e	3.941029e-06
18	0xb8130a59	-3.5057168e-05
19	0xb811d273	-3.476669e-05
20	0xb7f03311	-2.863401e-05
21	0xb670988c	-3.585158e-06
22	0x30125bd2	5.3244975e-10
23	0xb7cd6f7d	-2.448982e-05
24	0xb7f5273b	-2.9224544e-05
25	0xb5dc83a6	-1.6429592e-06
26	0x33ee8b14	1.1108037e-07
27	0xb7fce5d3	-3.0147761e-05
28	0xb804dce0	-3.167696e-05
29	0xb5031fee	-4.8847767e-07
30	0x2697a1da	1.05216e-15
31	0xb7df78e2	-2.6639962e-05
32	0xb808b776	-3.2595788e-05
33	0x34d9e7ee	4.058815e-07
34	0x82f97452	-3.6654026e-37
35	0xb7e49778	-2.7250251e-05
36	0xb75b1282	-1.3057726e-05
37	0x3344f59e	4.5858194e-08
38	0xb82afb51	-4.0765215e-05
39	0xb86333ab	-5.4169137e-05
40	0xb66615c8	-3.428535e-06
41	0xb820ab43	-3.8306473e-05
42	0xb758616e	-1.2897288e-05
43	0xb7dcadfa	-2.6307058e-05
44	0xb6ed36f6	-7.0695487e-06
45	0x3639e072	2.7697793e-06
46	0xb85131f2	-4.9876e-05
47	0xb8632e6a	-5.4164244e-05
48	0xb8567f6b	-5.1140243e-05
49	0x368be71f	4.169429e-06
50	0xb6f772ee	-7.374553e-06
51	0xb868160b	-5.533364e-05
52	0x369bab37	4.639292e-06
53	0xb65bf4f7	-3.2776131e-06
54	0xb86c081d	-5.627434e-05
55	0xb857db5f	-5.14643e-05
56	0xb83d51a1	-4.5137134e-05
57	0xb71cdb3a	-9.349367e-06
58	0x2ec5ded1	8.998103e-11
59	0xb836c7bf	-4.357821e-05
60	0xb86745db	-5.513975e-05
61	0xb57d1667	-9.4282444e-07
62	0x35ae4447	1.2983882e-06
63	0xb84f803d	-4.9472077e-05
64	0xb8638a7a	-5.4249984e-05
65	0xb48d06ea	-2.6268327e-07
66	0x275c09ef	3.0536518e-15
67	0xb839dd5e	-4.43136e-05
68	0xb86657fe	-5.4918222e-05
69	0x34bd9184	3.530987e-07
70	0x8247e9c5	-1.46873e-37
71	0xb83ab0bc	-4.4510452e-05
72	0x37616045	1.343346e-05
73	0xb2406759	-1.1199369e-08
74	0x37bd07e7	2.2534236e-05
75	0x38168c4e	3.5893456e-05
76	0x3762aa50	1.3510304e-05
77	0x37a4e825	1.9658424e-05
78	0x3684a7fc	3.9534625e-06
79	0x37c30f47	2.3252926e-05
80	0x371af06b	9.235092e-06
81	0xb5fa5b31	-1.8652992e-06
82	0x37e3b4f0	2.7144764e-05
83	0x380e232c	3.3888195e-05
84	0x381dd875	3.763331e-05
85	0xb7e98ead	-2.7842203e-05
86	0x37e5b001	2.7380886e-05
87	0x38609c61	5.35514e-05
88	0xb5e6ab39	-1.7186168e-06
89	0xb6be4bd7	-5.67127e-06
90	0x3833c497	4.2860014e-05
91	0x382b0e0c	4.078266e-05
92	0x37e5c7ac	2.7391907e-05
93	0x37250d8e	9.837922e-06
94	0xb02bc61e	-6.249098e-10
95	0x37df2c83	2.6604399e-05
96	0x3809c55a	3.2847143e-05
97	0x365e7aec	3.3152128e-06
98	0xb556fd09	-8.0089427e-07
99	0x381015e6	3.435267e-05
100	0x381a528a	3.679333e-05
101	0x34bba5d2	3.4952114e-07
102	0xa705e0f1	-1.8579399e-15
103	0x38050454	3.1713702e-05
104	0x381ea245	3.782126e-05
105	0xb5272dfa	-6.227925e-07
106	0x02bd0066	2.7771283e-37
107	0x38045639	3.1551554e-05
108	0x3728685b	1.00378775e-05
109	0x33894185	6.3914776e-08
110	0xb61e6d72	-2.360754e-06
111	0x36d40498	6.318627e-06
112	0x377e7c77	1.5168559e-05
113	0x34930caf	2.7390112e-07
114	0xb701b74e	-7.731678e-06
115	0x3711d65e	8.692585e-06
116	0x37100f20	8.58659e-06
117	0x35862997	9.995882e-07
118	0xb6462bc8	-2.9529783e-06
119	0x36cf778b	6.1829974e-06
120	0x368c0efc	4.1740695e-06
121	0xb758ae5b	-1.2915199e-05
122	0x378c0759	1.6692722e-05
123	0x37864e8f	1.6010626e-05
124	0x35befd94	1.4229904e-06
125	0xb69b5ba7	-4.6300297e-06
126	0x372445c5	9.791406e-06
127	0x373e1ced	1.1331617e-05
128	0x3713aa64	8.801555e-06
129	0xb57595d8	-9.1487664e-07
130	0xb0097e33	-5.001965e-10
131	0x36ae77c8	5.1995485e-06
132	0x36ae5a18	5.1960924e-06
133	0x3597d229	1.1311541e-06
134	0x34981f56	2.8335006e-07
135	0x3705d3e0	7.976749e-06
136	0x36f8505a	7.40033e-06
137	0x34e1f16a	4.2085168e-07
138	0xa5fb326f	-4.3575734e-16
139	0x36da697b	6.509186e-06
140	0x37065a5f	8.008064e-06
141	0xb452acd9	-1.9620656e-07
142	0x829c6d41	-2.2984849e-37
143	0x36f18900	7.1983086e-06
144	0x34af2689	3.2624328e-07
145	0xb11c00ef	-2.2701518e-09
146	0x3579886f	9.2958265e-07
147	0x35ade31c	1.2955602e-06
148	0x3485bcb3	2.4910477e-07
149	0x35aa7f23	1.2702989e-06
150	0xb45364a4	-1.9687519e-07
151	0x34dc6a0e	4.1055358e-07
152	0x33f5d4f3	1.1447437e-07
153	0xb4a83441	-3.1330458e-07
154	0x35b9d855	1.3846535e-06
155	0x35a4e235	1.2284787e-06
156	0x3611a4c2	2.1702585e-06
157	0xb5b5d1a1	-1.3546561e-06
158	0x35098262	5.122621e-07
159	0x360cb8a4	2.09691e-06
160	0xb4a5bc41	-3.0870618e-07
161	0xb46fecc9	-2.2344751e-07
162	0x35ecb8e8	1.7637185e-06
163	0x35c2c420	1.4511206e-06
164	0x353206d9	6.632013e-07
165	0x3533f9e4	6.7046335e-07
166	0x2c2e45b2	2.4765576e-12
167	0x35526c4b	7.8388683e-07
168	0x35923e19	1.089592e-06
169	0x3406dfb4	1.2561105e-07
170	0x31147ca4	2.1607685e-09
171	0x35b2ed69	1.3331129e-06
172	0x35afbdde	1.3093775e-06
173	0x328f2919	1.666608e-08
174	0xa5092b4e	-1.1897528e-16
175	0x35943edb	1.1045153e-06
176	0x35b63b76	1.3577362e-06
177	0xb2f0388f	-2.7965397e-08
178	0x00a635cb	1.526399e-38
179	0x359c65b0	1.1652501e-06
180	0x36508fd1	3.1078127e-06
181	0xaff98357	-4.538616e-10
182	0xb6986493	-4.5416614e-06
183	0xb5dd14ca	-1.6471834e-06
184	0x363a99a1	2.7805584e-06
185	0xb5cfd42b	-1.5484451e-06
186	0xb62d851f	-2.5856496e-06
187	0xb5367bf2	-6.798065e-07
188	0x362974fe	2.525106e-06
189	0x33fcfa1e	1.17801605e-07
190	0xb6924bce	-4.359964e-06
191	0xb5e82ca7	-1.7298343e-06
192	0x3542726e	7.243715e-07
193	0xb69e6bb1	-4.721304e-06
194	0x3630693f	2.6287305e-06
195	0x35d5bdcd	1.5924976e-06
196	0xb305c48e	-3.114524e-08
197	0xb53b4f7a	-6.977858e-07
198	0xb57f76f6	-9.5168014e-07
199	0xb572b371	-9.0413147e-07
200	0xb5f8b6f7	-1.853069e-06
201	0x3501b8bf	4.8325086e-07
202	0xaeec9e89	-1.0760199e-10
203	0xb5d8461c	-1.6113659e-06
204	0xb5f0c214	-1.7937878e-06
205	0xb3a8c304	-7.858583e-08
206	0x343d19d8	1.7611399e-07
207	0xb582e706	-9.752991e-07
208	0xb5bb7075	-1.3965315e-06
209	0x32ac1d2b	2.00367e-08
210	0xa5a25a18	-2.816357e-16
211	0xb589527f	-1.0231305e-06
212	0xb5b56a3e	-1.3516471e-06
213	0xb2ef5706	-2.7862836e-08
214	0x80a77dc0	-1.5381638e-38
215	0xb58a9e4b	-1.032787e-06
216	0xb6c1ca2a	-5.775383e-06
217	0xb3002513	-2.983604e-08
218	0xb6301feb	-2.6244622e-06
219	0xb6f567f6	-7.3136716e-06
220	0xb76b9270	-1.4041187e-05
221	0xb68d9ed4	-4.2206175e-06
222	0x37229bb7	9.692208e-06
223	0xb6fe5fb5	-7.5809317e-06
224	0xb6d30896	-6.2892896e-06
225	0xb5a03dd5	-1.1938924e-06
226	0xb403dc7d	-1.2280539e-07
227	0xb6e66cef	-6.8672157e-06
228	0xb72bc374	-1.0237902e-05
229	0x377e04d7	1.5140707e-05
230	0xb76521ab	-1.3657303e-05
231	0xb796c938	-1.7975093e-05
232	0xb60fbccb	-2.1418552e-06
233	0x36dae15f	6.523143e-06
234	0xb74a9acc	-1.207618e-05
235	0xb76560f5	-1.3672038e-05
236	0xb70c92e0	-8.378847e-06
237	0xb4b0f286	-3.2959014e-07
238	0x2ff73f1f	4.4973889e-10
239	0xb6b0d331	-5.2697947e-06
240	0xb6c65b3c	-5.911481e-06
241	0xb5d63b8e	-1.5961575e-06
242	0xb46badb3	-2.1949272e-07
243	0xb71612ab	-8.945043e-06
244	0xb706c1f0	-8.032177e-06
245	0xb524e565	-6.1428574e-07
246	0xa5df20e2	-3.8706616e-16
247	0xb6fba7af	-7.499904e-06
248	0xb716d433	-8.990103e-06
249	0x34b965c2	3.4532974e-07
250	0x8297a1a6	-2.2280238e-37
251	0xb708f75a	-8.163823e-06
252	0xb414699d	-1.3821996e-07
253	0x322e6c8f	1.0152816e-08
254	0xb6545bfd	-3.1644006e-06
255	0xb661ee70	-3.3666402e-06

exp_avg_sq f4 [128, 36]
0	0x31e4e6f1	6.6619283e-09
1	0x3105a5f3	1.9448378e-09
2	0x32549acc	1.2375221e-08
3	0x328ddd84	1.6515294e-08
4	0x31f9a8aa	7.2660287e-09
5	0x310766bb	1.970348e-09
6	0x32441dde	1.14154926e-08
7	0x3290eeeb	1.6872454e-08
8	0x31adc7ae	5.0576636e-09
9	0x310832da	1.981951e-09
10	0x3260411d	1.3053321e-08
11	0x328d8c42	1.6478342e-08
12	0x31c962bc	5.8610947e-09
13	0x308d615e	1.0286774e-09
14	0x3274b36a	1.4243463e-08
15	0x329b3661	1.8069104e-08
16	0x323b5aa3	1.0905441e-08
17	0x30bdb8e7	1.3804112e-09
18	0x3203d4aa	7.673558e-09
19	0x327ced82	1.4722334e-08
20	0x32510634	1.2166812e-08
21	0x3005e662	4.871251e-10
22	0x3200df92	7.501415e-09
23	0x328d83ed	1.6474553e-08
24	0x32aabf48	1.987759e-08
25	0x2fc2aa44	3.5409375e-10
26	0x3002bb2c	4.755971e-10
27	0x325749a1	1.2531388e-08
28	0x329bf01f	1.815357e-08
29	0x2faad8ef	3.107696e-10
30	0x30f4feda	1.782577e-09
31	0x32785956	1.44558125e-08
32	0x32af54d7	2.0411262e-08
33	0x2f84ae0a	2.4134322e-10
34	0x2e804b8e	5.834187e-11
35	0x324bbc30	1.1858944e-08
36	0x31ca412e	5.886384e-09
37	0x30809454	9.355383e-10
38	0x32353b22	1.0549032e-08
39	0x32853626	1.5507862e-08
40	0x31ec66a4	6.880173e-09
41	0x30c48a35	1.4300158e-09
42	0x321da091	9.175111e-09
43	0x32807ce3	1.4957953e-08
44	0x31d37847	6.154582e-09
45	0x306663d1	8.381536e-10
46	0x322bd815	1.0002641e-08
47	0x32837de4	1.5307656e-08
48	0x31e1148a	6.550697e-09
49	0x30b2b5c2	1.3002863e-09
50	0x322972f7	9.863235e-09
51	0x3283d934	1.534918e-08
52	0x3211044a	8.441086e-09
53	0x2fdca5b3	4.0135503e-10
54	0x321ac0e0	9.0078345e-09
55	0x326ce963	1.3790074e-08
56	0x324bc6e5	1.18613785e-08
57	0x306e9c36	8.6805885e-10
58	0x31a78775	4.8757394e-09
59	0x3268a4e2	1.3541667e-08
60	0x328def29	1.6523318e-08
61	0x2fb71407	3.3301736e-10
62	0x303f2c96	6.9548756e-10
63	0x3240ae96	1.1215567e-08
64	0x3260a180	1.3075237e-08
65	0x2fd40cda	3.8571707e-10
66	0x318e6c58	4.145061e-09
67	0x3259b6a3	1.2672589e-08
68	0x3296ce53	1.7556124e-08
69	0x2fa5699a	3.008836e-10
70	0x2d51912c	1.1912509e-11
71	0x323438c1	1.0490283e-08
72	0x32a4cd32	1.9185425e-08
73	0x31f5ac32	7.150015e-09
74	0x3333f24e	4.189706e-08
75	0x3363bccd	5.302427e-08
76	0x32e03b39	2.6103963e-08
77	0x31a27cde	4.7290163e-09
78	0x3325be74	3.8590272e-08
79	0x337458a6	5.6891302e-08
80	0x3299d1be	1.7906924e-08
81	0x32196f86	8.93113e-09
82	0x3328aba5	3.9271658e-08
83	0x335b69f7	5.1086285e-08
84	0x32a09071	1.8692136e-08
85	0x316ec466	3.4745198e-09
86	0x334a6862	4.7126726e-08
87	0x337a70df	5.8310317e-08
88	0x3338ced4	4.3028948e-08
89	0x31b51e0e	5.27121e-09
90	0x32957aef	1.7401787e-08
91	0x333d3b88	4.4059135e-08
92	0x330f6df7	3.3394794e-08
93	0x31196788	2.232328e-09
94	0x32fb2b04	2.9239807e-08
95	0x3369fb5a	5.4478143e-08
96	0x338d62ad	6.583773e-08
97	0x30dfa02d	1.627091e-09
98	0x3081fe87	9.458326e-10
99	0x33245a9e	3.826664e-08
100	0x337c61e0	5.876234e-08
101	0x2ff37d06	4.4290277e-10
102	0x32028584	7.597354e-09
103	0x33561118	4.9841304e-08
104	0x33940cfb	6.894148e-08
105	0x3009b16a	5.009243e-10
106	0x2f17e959	1.3816272e-10
107	0x33283582	3.9164213e-08
108	0x329ac88d	1.801916e-08
109	0x3189139b	3.9894537e-09
110	0x32837135	1.5301888e-08
111	0x32d89eca	2.5217918e-08
112	0x32c70ec1	2.3173358e-08
113	0x311a998e	2.2497235e-09
114	0x325ef954	1.2978791e-08
115	0x32eaab21	2.7319006e-08
116	0x329dfeba	1.8393042e-08
117	0x31741ba5	3.5522387e-09
118	0x326ce568	1.3789169e-08
119	0x32d25921	2.4487749e-08
120	0x328f3d5e	1.6675298e-08
121	0x30ccbf5b	1.489734e-09
122	0x329fb40f	1.8591917e-08
123	0x32f25de9	2.8215213e-08
124	0x32dd754e	2.578113e-08
125	0x311cdf9d	2.2828097e-09
126	0x32064ba1	7.817023e-09
127	0x32afd66a	2.0470186e-08
128	0x32a948a5	1.9707224e-08
129	0x3085bcca	9.730681e-10
130	0x32818062	1.5075958e-08
131	0x32efd324	2.7919278e-08
132	0x331854a1	3.5467227e-08
133	0x304b79fd	7.4024326e-10
134	0x30516e5d	7.619059e-10
135	0x329a4aab	1.7961915e-08
136	0x32f1fc07	2.8170701e-08
137	0x303860e8	6.707652e-10
138	0x31d5cdc6	6.2225096e-09
139	0x32e682ae	2.683495e-08
140	0x33200d36	3.726492e-08
141	0x3012e5af	5.344089e-10
142	0x2f41baaa	1.7619564e-10
143	0x32a43c26	1.9119465e-08
144	0x2ef2f659	1.1048646e-10
145	0x2f6d7f69	2.160029e-10
146	0x2feaf92c	4.27414e-10
147	0x300c02fe	5.0935955e-10
148	0x2fcacdaa	3.688972e-10
149	0x2f31948a	1.6150828e-10
150	0x2f83bf5d	2.3964733e-10
151	0x30187b1d	5.547223e-10
152	0x2f846837	2.408471e-10
153	0x2f732a1c	2.2115682e-10
154	0x2f926b87	2.6633648e-10
155	0x3000799e	4.6738957e-10
156	0x2f5c5881	2.0040326e-10
157	0x2ea101e2	7.321767e-11
158	0x3009a854	5.007952e-10
159	0x3035d3e0	6.614851e-10
160	0x30241953	5.969884e-10
161	0x2ea2b71d	7.3994345e-11
162	0x2ea496df	7.4846566e-11
163	0x2fe8a197	4.231537e-10
164	0x2f7f7a5b	2.3235584e-10
165	0x2e0bdb3d	3.1799664e-11
166	0x3007c39f	4.939071e-10
167	0x30364746	6.63125e-10
168	0x304a045b	7.349336e-10
169	0x2de5be49	2.611879e-11
170	0x2cb636de	5.1788426e-12
171	0x2fd85b84	3.9355197e-10
172	0x300f5e45	5.215706e-10
173	0x2e01d1c7	2.9517524e-11
174	0x2f534a09	1.9216641e-10
175	0x302ab40c	6.21015e-10
176	0x3053ef7e	7.710169e-10
177	0x2d4d2a02	1.16622285e-11
178	0x2ca4211d	4.6648367e-12
179	0x2ff34568	4.425076e-10
180	0x3166b4d8	3.3572203e-09
181	0x3065b3c4	8.3565177e-10
182	0x312d9096	2.5257e-09
183	0x31a62004	4.8348756e-09
184	0x319c9503	4.5571382e-09
185	0x301fa569	5.8078925e-10
186	0x30ed85ca	1.7282045e-09
187	0x31a4a612	4.791908e-09
188	0x318227a0	3.788003e-09
189	0x30553cd8	7.757541e-10
190	0x3105b232	1.945534e-09
191	0x31a74cea	4.869084e-09
192	0x31823dee	3.7905385e-09
193	0x2fe98979	4.2480133e-10
194	0x313bb91c	2.7317304e-09
195	0x31b6befc	5.3186096e-09
196	0x31b57fc0	5.282317e-09
197	0x2fdcca32	4.0161435e-10
198	0x30627ece	8.239852e-10
199	0x318308b1	3.81359e-09
200	0x310663c1	1.955627e-09
201	0x2f6b3e20	2.1395197e-10
202	0x31979820	4.411973e-09
203	0x31c3b221	5.695498e-09
204	0x31de4fdd	6.4701298e-09
205	0x2ee9ea65	1.063725e-10
206	0x2e8e949f	6.483813e-11
207	0x316177ad	3.2809837e-09
208	0x31924e07	4.25803e-09
209	0x2e881821	6.18885e-11
210	0x3117292f	2.1996802e-09
211	0x31be22d2	5.5336864e-09
212	0x31e22d70	6.5826313e-09
213	0x2eee4f99	1.0837126e-10
214	0x2d891736	1.5585404e-11
215	0x3173893a	3.5439158e-09
216	0x314da06b	2.9922613e-09
217	0x2fdf08e9	4.0569795e-10
218	0x31ae46e6	5.0721267e-09
219	0x31f076da	6.998431e-09
220	0x314dc269	2.9941936e-09
221	0x3009c93d	5.0126286e-10
222	0x31ad4dc8	5.0438054e-09
223	0x31f7bfa0	7.2104314e-09
224	0x31188227	2.2192894e-09
225	0x2fe7d669	4.2171003e-10
226	0x31be6840	5.5415796e-09
227	0x31f210c7	7.0450343e-09
228	0x311fa9d1	2.3234075e-09
229	0x2fa0371e	2.9142994e-10
230	0x31d031e1	6.0592673e-09
231	0x31fc16f3	7.3367743e-09
232	0x318878c4	3.9718504e-09
233	0x2f998b57	2.7929545e-10
234	0x318a16d7	4.018925e-09
235	0x31dc264c	6.4071966e-09
236	0x31ae2282	5.0679896e-09
237	0x2f47ea2c	1.8182139e-10
238	0x313b98ca	2.7298932e-09
239	0x31e013a8	6.5214927e-09
240	0x32057598	7.768357e-09
241	0x2fa6084d	3.0201122e-10
242	0x2f76ea7d	2.2456877e-10
243	0x31b126f5	5.155807e-09
244	0x31ec80ff	6.883169e-09
245	0x2f2dfa5a	1.5823201e-10
246	0x308582de	9.714218e-10
247	0x31c46efa	5.7169673e-09
248	0x320bae19	8.13045e-09
249	0x2f826c58	2.3723845e-10
250	0x2d82a63e	1.4853115e-11
251	0x31a914fe	4.920934e-09
252	0x2e5c13d5	5.0039823e-11
253	0x2e7ebf02	5.7922563e-11
254	0x2f1d36ce	1.4298537e-10
255	0x2f46dd24	1.808656e-10

exp_avg f4 [128]
0	0xb806ea23	-3.2166146e-05
1	0xb864a690	-5.451456e-05
2	0x381bcbee	3.7144804e-05
3	0x37033a4f	7.8217845e-06
4	0x35b2055c	1.3263593e-06
5	0xb5b8c973	-1.3767698e-06
6	0xb7111348	-8.647163e-06
7	0xb6631101	-3.3835533e-06
8	0xb6cbd43a	-6.074578e-06
9	0x37386ad5	1.0992128e-05
10	0xb5c5161f	-1.4684082e-06
11	0xb5e080d2	-1.6726792e-06
12	0xb5da0e18	-1.6246368e-06
13	0xb7273198	-9.965523e-06
14	0x382525fd	3.9374445e-05
15	0x36fa840c	7.465953e-06
16	0x35fb5a8a	1.8727308e-06
17	0x358a168e	1.0288366e-06
18	0xb6606a9c	-3.3440656e-06
19	0x379e9d8a	1.8908428e-05
20	0x3657a80e	3.2135317e-06
21	0x37ee9c01	2.8444456e-05
22	0xb7fcad2f	-3.0121386e-05
23	0xb69dbd3e	-4.7009953e-06
24	0xb66119f1	-3.3542713e-06
25	0x3758ed60	1.2929871e-05
26	0x36f70baa	7.3625315e-06
27	0xb76e690b	-1.4210363e-05
28	0x358b5bb0	1.0382992e-06
29	0x35db01f7	1.6317343e-06
30	0xb81a6107	-3.6806825e-05
31	0xb88e7510	-6.792892e-05
32	0x374c62b3	1.2182328e-05
33	0x36c7db80	5.9562153e-06
34	0xb80d22ab	-3.3649307e-05
35	0xb721e226	-9.649002e-06
36	0x3716ca49	8.987795e-06
37	0xb33a2d7d	-4.334787e-08
38	0x37895831	1.637274e-05
39	0xb67c4c47	-3.7595325e-06
40	0xb4f02902	-4.473332e-07
41	0xb883a334	-6.276966e-05
42	0x37c9c657	2.4053426e-05
43	0xb801cf4d	-3.094906e-05
44	0x37872716	1.6111455e-05
45	0x363c7c7a	2.8086638e-06
46	0xb76d5de9	-1.4148166e-05
47	0xb8038ddd	-3.1364954e-05
48	0xb6abd255	-5.120683e-06
49	0xb6e68849	-6.8704e-06
50	0x3623aaf3	2.4388398e-06
51	0x37e352b5	2.7099022e-05
52	0x369c4c92	4.6580763e-06
53	0xb65c2652	-3.280486e-06
54	0x36f1cd0b	7.20623e-06
55	0x37b0b455	2.1064809e-05
56	0xb59b94cb	-1.1591704e-06
57	0x3735e5a9	1.0841913e-05
58	0xb8269d48	-3.9723964e-05
59	0xb7e1a1ef	-2.6897496e-05
60	0xb6e0f916	-6.7047176e-06
61	0xb5d8be09	-1.6148562e-06
62	0x348e21b0	2.6474072e-07
63	0x37c191b9	2.307525e-05
64	0x3777131d	1.4726797e-05
65	0xb68c00ee	-4.1724334e-06
66	0x36807588	3.8283797e-06
67	0x370c050b	8.345824e-06
68	0x375abfb2	1.3038445e-05
69	0x382e5ec1	4.157308e-05
70	0x36c4ee31	5.8689843e-06
71	0x35e4b277	1.7039264e-06
72	0x359a36b7	1.1489818e-06
73	0xb704bcd6	-7.91178e-06
74	0x38222536	3.8658465e-05
75	0x3803d429	3.1430423e-05
76	0xb63d9be6	-2.825394e-06
77	0xb7bb3b13	-2.2319646e-05
78	0x3741c4c5	1.154951e-05
79	0x361506f3	2.2206775e-06
80	0xb7aa9146	-2.0333227e-05
81	0xb4b1c983	-3.3115438e-07
82	0x3779d26f	1.4890552e-05
83	0x3766e135	1.3761503e-05
84	0x372cc825	1.0298599e-05
85	0xb7c03d23	-2.2916653e-05
86	0x3761446f	1.34269785e-05
87	0xb7295c15	-1.00946245e-05
88	0xb724f086	-9.831163e-06
89	0x369d6107	4.69026e-06
90	0x3759773c	1.2961969e-05
91	0x3807513a	3.2262156e-05
92	0x35db0280	1.6317499e-06
93	0xb65e40fd	-3.3118406e-06
94	0xb7dcd032	-2.6322992e-05
95	0x36200905	2.3847108e-06
96	0x3699ea4c	4.587031e-06
97	0x360c58d9	2.0913342e-06
98	0x3724d92e	9.825728e-06
99	0x35d781ee	1.6056563e-06
100	0x358706c6	1.0060255e-06
101	0x377fc36e	1.5244686e-05
102	0x37b417f9	2.1468835e-05
103	0x37907c0c	1.7223902e-05
104	0x3671c89b	3.6028566e-06
105	0x373566b2	1.0812351e-05
106	0x3435f9c4	1.6947803e-07
107	0xb6b1e52a	-5.3016893e-06
108	0xb67a478c	-3.7294549e-06
109	0x3703a98d	7.847685e-06
110	0x36e4345c	6.801025e-06
111	0xb5f583ce	-1.8292283e-06
112	0xb5cfcf6f	-1.5483073e-06
113	0xb78cb182	-1.6771959e-05
114	0xb8330cab	-4.2688724e-05
115	0xb6bcc3aa	-5.625615e-06
116	0x3770eb94	1.4359965e-05
117	0xb5b68128	-1.3597646e-06
118	0xb629e20e	-2.5314544e-06
119	0x3784ca86	1.5829934e-05
120	0x3664006a	3.3974889e-06
121	0xb7a0f863	-1.918915e-05
122	0x37db13ea	2.6116108e-05
123	0xb6cd505b	-6.1188307e-06
124	0x3740f38a	1.1500795e-05
125	0x36a0b775	4.789729e-06
126	0xb3d2158e	-9.782808e-08
127	0x33fa6339	1.1659581e-07

exp_avg_sq f4 [128]
0	0x32b223aa	2.0738145e-08
1	0x329b0cf8	1.8050272e-08
2	0x33954ede	6.952699e-08
3	0x332145cb	3.754921e-08
4	0x305a3ad4	7.939154e-10
5	0x31e78c66	6.7389463e-09
6	0x320c6272	8.171456e-09
7	0x2f8ff461	2.618519e-10
8	0x320ef9bc	8.322271e-09
9	0x32434b8e	1.1367673e-08
10	0x301bce79	5.6682087e-10
11	0x3279f739	1.45499195e-08
12	0x2f3baa39	1.7068026e-10
13	0x30d487a6	1.5463584e-09
14	0x3334550d	4.198687e-08
15	0x32112e69	8.450663e-09
16	0x2fadfdf0	3.164895e-10
17	0x30673482	8.411193e-10
18	0x31d308ee	6.1419234e-09
19	0x33005692	2.9881058e-08
20	0x339239b6	6.809152e-08
21	0x3188cf5a	3.981694e-09
22	0x31895aa1	3.997528e-09
23	0x318f1480	4.1641783e-09
24	0x318e7016	4.1454866e-09
25	0x313f5120	2.7840272e-09
26	0x30640dcd	8.296553e-10
27	0x324c8881	1.19054e-08
28	0x318f9bf1	4.1795762e-09
29	0x30f2e971	1.7674165e-09
30	0x32bfd710	2.2333126e-08
31	0x338dd4b6	6.604516e-08
32	0x334d1ddb	4.7757435e-08
33	0x31434e72	2.8420826e-09
34	0x33570b44	5.0068834e-08
35	0x31bbe7ad	5.468755e-09
36	0x318226ac	3.7878944e-09
37	0x329210b8	1.700424e-08
38	0x3303873f	3.062382e-08
39	0x3177c7c5	3.6056786e-09
40	0x309062ff	1.0505515e-09
41	0x3291a302	1.6954349e-08
42	0x32be2968	2.213774e-08
43	0x32d8e38d	2.5249188e-08
44	0x31f452e9	7.1107604e-09
45	0x30a072be	1.1674144e-09
46	0x3236d067	1.06411795e-08
47	0x3282c180	1.5221985e-08
48	0x315200c4	3.0559457e-09
49	0x31d88649	6.301694e-09
50	0x30c02197	1.3979385e-09
51	0x32a89636	1.9626082e-08
52	0x32055103	7.760039e-09
53	0x31996173	4.4639648e-09
54	0x31f33eec	7.079384e-09
55	0x322342c2	9.503028e-09
56	0x2f3d3346	1.7207666e-10
57	0x31232932	2.3743039e-09
58	0x321266d5	8.5217e-09
59	0x324e7c84	1.201909e-08
60	0x31ad8925	5.050554e-09
61	0x2fc3af4d	3.5594852e-10
62	0x321af5a7	9.019835e-09
63	0x32cae69d	2.3620766e-08
64	0x31c35606	5.6850267e-09
65	0x312bb9df	2.498943e-09
66	0x2ff40518	4.438696e-10
67	0x319361b7	4.289372e-09
68	0x31805472	3.7348906e-09
69	0x33179995	3.529711e-08
70	0x3194b9f0	4.3285056e-09
71	0x319a8e00	4.4981334e-09
72	0x2f3068ce	1.6044341e-10
73	0x32741e31	1.4209534e-08
74	0x33055245	3.10413e-08
75	0x331e2e3b	3.6829288e-08
76	0x325f6616	1.300352e-08
77	0x32efdd5c	2.7923925e-08
78	0x31a62f7c	4.836634e-09
79	0x328ed0a6	1.6625858e-08
80	0x31aa6d1a	4.9600546e-09
81	0x312ccfcd	2.5147415e-09
82	0x322ff45a	1.02419e-08
83	0x3224dbc9	9.59603e-09
84	0x3137c3a0	2.6741205e-09
85	0x32282bd5	9.788853e-09
86	0x32eed3e4	2.7803203e-08
87	0x31a110d0	4.687628e-09
88	0x3226e25b	9.713939e-09
89	0x31c19d9b	5.634957e-09
90	0x31515f80	3.0467788e-09
91	0x32e16a77	2.6241862e-08
92	0x2fb7eae9	3.345442e-10
93	0x3114803c	2.1609727e-09
94	0x32d0ee4f	2.4322757e-08
95	0x323ba26e	1.0921765e-08
96	0x31c59ae1	5.7510623e-09
97	0x310e5b7b	2.071572e-09
98	0x30ce2b0d	1.5000708e-09
99	0x30d2d22c	1.5339245e-09
100	0x31fd44a9	7.371075e-09
101	0x31105151	2.100098e-09
102	0x324b15dd	1.1821126e-08
103	0x32b57728	2.112536e-08
104	0x30b86a62	1.3417998e-09
105	0x31cb8238	5.9228817e-09
106	0x30a8dec0	1.2286918e-09
107	0x30870065	9.822655e-10
108	0x316da589	3.4582135e-09
109	0x3085aa6a	9.725458e-10
110	0x31fc4f35	7.34317e-09
111	0x3287132d	1.5724789e-08
112	0x31c2c32a	5.6683307e-09
113	0x31b9e2f3	5.4100098e-09
114	0x3239b17f	1.0808775e-08
115	0x31b0e938	5.148788e-09
116	0x3271186c	1.4033599e-08
117	0x300afe9f	5.0565946e-10
118	0x317fe3b5	3.723682e-09
119	0x32ef0826	2.7826967e-08
120	0x31d8807b	6.301034e-09
121	0x320f3ffd	8.338245e-09
122	0x3216ee66	8.785355e-09
123	0x32b724df	2.1320771e-08
124	0x3131f6d3	2.5897193e-09
125	0x316acf06	3.416916e-09
126	0x3105a0f7	1.9445545e-09
127	0x302a66d4	6.199177e-10
