results/carMinusFiveOnMaxSteps2/CarFindGoal/CarFindGoal-1999958.pt (torch, 530875 bytes, 36 tensors)

network_body._body_endoder.seq_layers.0.weight f4 [128, 36]
0	0x3dd4605b	0.10369941
1	0xbe3799e1	-0.17929794
2	0x3df1cae9	0.1180628
3	0x3dab213d	0.08355949
4	0xbe114f48	-0.141904
5	0x3f0e0471	0.5547553
6	0x3cff9ef3	0.031203723
7	0x3d960a48	0.0732618
8	0xbe398e2d	-0.18120642
9	0xbe04cd32	-0.12968901
10	0x3e0a0754	0.13479358
11	0x3cd92c47	0.02651037
12	0x3e1f79ac	0.15573758
13	0x3c00c8e5	0.007860397
14	0xbd85e39b	-0.06537553
15	0x3d12c536	0.035832606
16	0xbe342839	-0.17593469
17	0xbe40052e	-0.18751976
18	0xbef1529b	-0.47133335
19	0xbe5e40e0	-0.21704435
20	0x3e2ee36f	0.17078947
21	0x3cfe6438	0.031053647
22	0x3e18742d	0.14888068
23	0x3e4b1b6c	0.1983468
24	0x3e39b016	0.18133578
25	0x3e4bffc1	0.19921781
26	0x3de0a0a1	0.109681375
27	0x3e547368	0.20747149
28	0x3e41ea4f	0.18937038
29	0x3dc740ca	0.097291544
30	0x3e23da59	0.16001262
31	0x3e1cf376	0.15327248
32	0xbd5173f3	-0.05113597
33	0xbe2cfa83	-0.16892438
34	0xbda8d9f8	-0.08244699
35	0xbe2e9830	-0.17050242
36	0xbc9502dc	-0.01818984
37	0xbe82886b	-0.25494704
38	0x3e82c181	0.25538257
39	0x3d82e7e8	0.06391889
40	0xbe0be3e2	-0.13661149
41	0x3ea957ae	0.33074707
42	0xbe0f2236	-0.13977894
43	0xbcc447c6	-0.023960005
44	0x3a8609e4	0.0010226336
45	0xbd115185	-0.035478134
46	0x3e693343	0.22773461
47	0x3dc89615	0.09794251
48	0x3d823baf	0.0635904
49	0x3e535e53	0.2064145
50	0xbe04ec01	-0.12980653
51	0x3d5fb1c1	0.05461288
52	0x3e2ac593	0.16676931
53	0xbcfc7ffc	-0.030822746
54	0x3e1d80a7	0.15381108
55	0x3e2802f1	0.16407372
56	0xbdc37398	-0.09543532
57	0x3e5cd129	0.21564163
58	0xbec17cc3	-0.37790498
59	0xbddfec33	-0.10933723
60	0x3e1790b1	0.14801289
61	0x3dd09c93	0.10186114
62	0xba6a0009	-0.0008926397
63	0x3e654850	0.22390866
64	0xbee99028	-0.45617795
65	0xbca13cc9	-0.019682305
66	0x3e0f1ef7	0.13976656
67	0x3c2e6819	0.010644936
68	0x3e11e77b	0.14248459
69	0xbcfa09c2	-0.030522231
70	0x3d9d3bb5	0.07677404
71	0x3dee4366	0.11633949
72	0xbe0d2093	-0.13781957
73	0xbe5baf99	-0.21453704
74	0x3dd6d971	0.104906924
75	0xbe57d147	-0.21075927
76	0xbe122acb	-0.14274137
77	0xbe80a23f	-0.25123784
78	0x3e42c41e	0.19020125
79	0x3d692c8a	0.05692724
80	0xbe812afb	-0.25228104
81	0x3d7c31f5	0.06157108
82	0x3dcb5bed	0.09929643
83	0xbea297f2	-0.3175655
84	0xbea8deff	-0.32982633
85	0xbe001761	-0.12508918
86	0xbe1ea50d	-0.1549265
87	0x3d77d50e	0.06050592
88	0x3e3e3364	0.18574291
89	0x3d7f8abe	0.062388174
90	0xbb3f93ac	-0.0029232306
91	0xbe3b7de0	-0.18309736
92	0xbd76bd2f	-0.060239013
93	0xbdbcbb33	-0.09215393
94	0x3e30c2cf	0.17261814
95	0xbefccad4	-0.49373496
96	0x3d41fe30	0.047361553
97	0x3e852bd9	0.26010016
98	0x3d4170f1	0.04722685
99	0x3e3b9ae9	0.18320812
100	0x3ea3824e	0.31935352
101	0xbe9e9945	-0.3097631
102	0x3e021165	0.12701948
103	0x3e766bc0	0.24064541
104	0x3e6c54c7	0.23079215
105	0xbd2637f9	-0.040580723
106	0x3e0c1109	0.13678373
107	0x3e2afadb	0.16697256
108	0xbd578a73	-0.05262227
109	0x3ee54025	0.447755
110	0x3e616a10	0.22013116
111	0xbd97a1c0	-0.07403898
112	0x3e2aa1d1	0.1666329
113	0xbe05abce	-0.1305382
114	0xbe13de73	-0.14440326
115	0x3e14dcf0	0.14537406
116	0xbe4228af	-0.18960832
117	0xbd06d8dc	-0.032921657
118	0xbe29c9b6	-0.16580853
119	0x3d1ea568	0.038731962
120	0xbd849829	-0.06474335
121	0xbd719aa9	-0.058985386
122	0xbcd3bf00	-0.025847912
123	0x3e853cae	0.26022857
124	0xbe07cce0	-0.13261747
125	0x3e3b74dc	0.18306297
126	0x3e466313	0.19373731
127	0xbc1a38db	-0.009412969
128	0x3e14a5ac	0.14516324
129	0xbe21f88b	-0.15817468
130	0xbe05007e	-0.12988469
131	0xbe08ec78	-0.13371456
132	0x3d15672d	0.03647535
133	0x3dcaeba8	0.09908229
134	0x3d693189	0.056932006
135	0x3e734d51	0.23759963
136	0x3e1f66fb	0.15566628
137	0x3d335128	0.04377857
138	0xbe836c74	-0.2566868
139	0xbdd45b51	-0.1036898
140	0x3d8eac23	0.06966426
141	0xbd6ba6c9	-0.057532106
142	0x3e8a9110	0.270638
143	0x3d095f31	0.033538047
144	0xbe944745	-0.28960624
145	0x3e7e25f4	0.24819165
146	0x3ddb144b	0.1069723
147	0xbd4600d8	-0.04834065
148	0xbb871faa	-0.0041236477
149	0x3b6d7046	0.003623025
150	0xbe0c26ee	-0.13686725
151	0x3dabbf5e	0.0838611
152	0xbe9ebe69	-0.31004646
153	0x3d7ca2d6	0.06167873
154	0xbe6f4991	-0.23367907
155	0xbdebeed1	-0.1152016
156	0xbdad0f68	-0.08450204
157	0x3dc67d29	0.09691841
158	0xba4bb206	-0.0007770363
159	0xbc1d77d0	-0.009611085
160	0xbd9a9506	-0.07547955
161	0xbdd7e6c5	-0.10542063
162	0xbea041a7	-0.3130009
163	0x3d840662	0.0644653
164	0xbd8384bb	-0.06421801
165	0x3e23917e	0.1597347
166	0x3dfcc8fc	0.12343022
167	0x3d7dedc5	0.061994333
168	0x3d8f5e35	0.070003904
169	0x3c9abd69	0.018889146
170	0xbb40871f	-0.0029377413
171	0xbe22a1fb	-0.15882103
172	0xbe9b4492	-0.30325752
173	0xbd44bea3	-0.048033368
174	0xbe9819b6	-0.29707116
175	0x3e002a27	0.1251608
176	0x3de02b0f	0.10945713
177	0x3e0f4b9e	0.1399369
178	0xbdf6b00c	-0.12045297
179	0xbc20db8c	-0.009817969
180	0xbea28468	-0.31741643
181	0x3e61b844	0.22042948
182	0xbd87cdc5	-0.06631044
183	0xbd0fd7da	-0.03511796
184	0x3b50fc50	0.0031888671
185	0x3db8cf8b	0.09023961
186	0xbcb55149	-0.022133486
187	0x3b5eb58e	0.0033982727
188	0x3eab4e90	0.33458376
189	0x3ea885e0	0.3291464
190	0x3d95304a	0.07284601
191	0x3d7fff12	0.062499113
192	0x3dcd65d1	0.100291856
193	0x3d7ab5a8	0.061208397
194	0xbeb36015	-0.35034242
195	0x3e68d3c1	0.22737028
196	0xbee6655e	-0.44999212
197	0xb977ad7c	-0.00023620384
198	0x3e30e860	0.17276144
199	0x3e7383e4	0.23780781
200	0xbcc299e6	-0.023755025
201	0x3ddfa9dc	0.1092107
202	0x3e5b8576	0.2143763
203	0xbd8f0923	-0.069841646
204	0x3b72495f	0.0036970002
205	0x3e169505	0.14705284
206	0xbe9c6da3	-0.30552396
207	0x3d4af111	0.049546305
208	0x3e1f23d4	0.15541011
209	0xbe23afc9	-0.15985025
210	0x3d8e0f7b	0.069365464
211	0xbd2d12cf	-0.042254265
212	0x3e048c32	0.12944105
213	0x3dc24f22	0.0948775
214	0xbde2ada8	-0.110682786
215	0x3d848395	0.0647041
216	0x3e47a6e3	0.19497256
217	0xbe342ef8	-0.17596042
218	0x3d1dde49	0.038542066
219	0x3dd5a8c5	0.10432581
220	0xbe7ab39d	-0.2448258
221	0x3e40a206	0.18811807
222	0xbe983312	-0.29726464
223	0x3e253b9f	0.16136025
224	0x3e49cc10	0.1970675
225	0x3d68abf8	0.056804627
226	0x3eb434a4	0.35196412
227	0xbd8cba31	-0.06871451
228	0xbd665525	-0.056233544
229	0x3c4b33e3	0.0124025075
230	0x3bbb04e4	0.00570737
231	0x3da25358	0.07926053
232	0x3cf3ecd0	0.029776007
233	0x3e82cda6	0.25547522
234	0x3d34db52	0.044154473
235	0x3e1aa248	0.15100968
236	0x3e56d2a1	0.20978786
237	0xbdf0c6c0	-0.117566586
238	0x3ec6e55a	0.38846856
239	0xbd6d5cc1	-0.057949785
240	0xbcbc9bbb	-0.023023477
241	0x3e3b1656	0.18270239
242	0x3da5379d	0.08067248
243	0xbaa25514	-0.0012384974
244	0xbe90dc18	-0.28292918
245	0x3e830392	0.2558866
246	0xbe1d203f	-0.15344332
247	0x3db3dd31	0.08782423
248	0xbc238133	-0.009979534
249	0x3dc0b635	0.09409753
250	0xbe99f8d2	-0.30072647
251	0x3ca3af4e	0.019981053
252	0xbf01c584	-0.5069201
253	0x3e0fe33f	0.14051531
254	0x3e9a4423	0.3013011
255	0xbea33e5f	-0.31883523

network_body._body_endoder.seq_layers.0.bias f4 [128]
0	0x3c104ff4	0.008808125
1	0x3cf503d6	0.029909056
2	0xbc313da6	-0.010817921
3	0xbc896a0f	-0.016774205
4	0xbc246c6a	-0.010035614
5	0xbc4cad91	-0.012492553
6	0xbb910325	-0.0044254237
7	0x3cdea874	0.027179934
8	0xbbc346c9	-0.005959366
9	0x3d3b38ac	0.045708343
10	0x3d50b0eb	0.050949972
11	0x3c99755b	0.018732717
12	0x3bb35a45	0.0054734075
13	0xbba1d42d	-0.0049386234
14	0x3cee69ad	0.029103125
15	0x3ca6b5ec	0.020350419
16	0x3cabb59a	0.020960618
17	0x3cf48a61	0.02985114
18	0x3ce0a4df	0.027422367
19	0xbd047a5c	-0.032343253
20	0x3c8ef032	0.017448518
21	0x3cf8b7af	0.030361025
22	0x3c4cce8e	0.012500418
23	0xbc9e9902	-0.01936007
24	0xbc809c86	-0.015699636
25	0xbc2a34ca	-0.010388562
26	0x3c4e336a	0.0125855
27	0x3c1d262c	0.00959162
28	0x3ce7b2b0	0.028283447
29	0x3c0ec2ad	0.0087134065
30	0xbc1d7338	-0.00960999
31	0xbc077a32	-0.00826888
32	0xbd1c7c1c	-0.038204297
33	0x3c569304	0.013096575
34	0x3c04a40d	0.008095753
35	0xbc5033f8	-0.012707703
36	0xbc3fa79f	-0.011697679
37	0xbcef3f60	-0.029205024
38	0x3ca57bc2	0.020200614
39	0xbc3ff4c9	-0.011716076
40	0x3b724c6a	0.0036971816
41	0x3c01c33d	0.007920084
42	0x3bba352c	0.005682608
43	0xbcc63c9d	-0.024198825
44	0xbc53fd1a	-0.012938762
45	0x3ca06beb	0.01958271
46	0xbb9b0b56	-0.004731576
47	0xbca7e98c	-0.020497106
48	0xbc172e02	-0.009227278
49	0xbc9ed9e8	-0.019391015
50	0x3d985db4	0.074397475
51	0xbd0a702e	-0.03379839
52	0xbb88cf27	-0.004175085
53	0x3bde54c0	0.0067850053
54	0xbd1889d9	-0.037240837
55	0xbbb12cb8	-0.005406942
56	0x3b6a6e62	0.003577136
57	0x3d069422	0.032856114
58	0x3cb9378c	0.022609495
59	0xbc803bdd	-0.015653545
60	0xbc836fc9	-0.016044514
61	0xbc86cdd0	-0.01645556
62	0xbcfb38ea	-0.030666787
63	0x3a22e416	0.0006213797
64	0xbce03227	-0.027367665
65	0x3cf8a891	0.030353816
66	0x3c50f03f	0.012752592
67	0x3cf491d8	0.0298547
68	0xbb05bbb6	-0.0020406074
69	0x3b7101ed	0.003677483
70	0xbd03abdd	-0.032146323
71	0xbcadfda6	-0.021239113
72	0x3d270c9f	0.04078352
73	0x3c52653c	0.012841519
74	0xbce411dd	-0.02784055
75	0x3c28d680	0.010305047
76	0xba63beb7	-0.00086877815
77	0xbc49521d	-0.012287644
78	0xbcd724ef	-0.026262728
79	0xbbdaeab7	-0.006680812
80	0xbc2bc7a8	-0.0104846135
81	0x3cee49e0	0.02908796
82	0xbca78b1d	-0.020452077
83	0xbbc3ea7d	-0.005978881
84	0x3c3d430e	0.011551632
85	0x3cd36dd3	0.025809204
86	0x3c0416d5	0.008062084
87	0x3d0358e4	0.032067195
88	0x3d39c15b	0.045350414
89	0x3c127f2a	0.008941451
90	0x3cf7b28c	0.030236505
91	0xbc89f9c7	-0.016842736
92	0xbd3432cf	-0.043993767
93	0x3c3a6cb0	0.011378452
94	0xbcbcfd83	-0.023070103
95	0xbcb96691	-0.022631915
96	0xbc89c34f	-0.016816763
97	0x36a6df48	4.973179e-06
98	0x3ad590da	0.001629378
99	0x3c51ce08	0.012805469
100	0x3c71514d	0.014728856
101	0xbc5327ef	-0.012887939
102	0x3c97683d	0.018482322
103	0xbcc53adc	-0.024075918
104	0xbc24d434	-0.010060359
105	0xbc7f674b	-0.015588592
106	0x3cc2b4e7	0.023767902
107	0x3cfbc467	0.0307333
108	0xbabbbec1	-0.0014323817
109	0x3c4fb602	0.012677671
110	0xbd09c1f3	-0.03363223
111	0x3c725479	0.014790648
112	0xbcbc3709	-0.022975462
113	0xbc3421d5	-0.010994394
114	0x3c4edf46	0.012626475
115	0x3af1caf4	0.0018447326
116	0x3c5e8111	0.0135805765
117	0x3c3dc53a	0.011582667
118	0x3c892c5a	0.016744781
119	0xbc66d825	-0.014089619
120	0xba4052af	-0.00073365396
121	0xbc33a913	-0.010965603
122	0xbc254204	-0.01008654
123	0x3ce6b402	0.028162006
124	0xbabbf870	-0.0014341008
125	0xbbd35de4	-0.0064504016
126	0x3b033d16	0.0020025424
127	0x3d049c85	0.03237583

network_body._body_endoder.seq_layers.2.weight f4 [128, 128]
0	0xbd2af07e	-0.041733257
1	0x3e051fc8	0.13000405
2	0x3c4dcadc	0.0125605725
3	0x3ddf3249	0.10898263
4	0xbd70808d	-0.058716346
5	0xbdcb7b53	-0.099356316
6	0xbd62b2e8	-0.0553464
7	0x3dd08324	0.10181263
8	0x3c6b0dda	0.014346564
9	0x3db16a9d	0.08662913
10	0xbdd4a9f8	-0.103839815
11	0x3df58979	0.119891115
12	0xbd17ed25	-0.037091393
13	0xbe556a93	-0.20841436
14	0x3e681de4	0.22667652
15	0xbd9d507f	-0.07681369
16	0xbdc313d3	-0.095252655
17	0x3d980a5f	0.07423853
18	0x3cbf87bc	0.023380153
19	0x3ca0f349	0.019647257
20	0x3e42a860	0.19009542
21	0x3dbbb084	0.09164527
22	0x3db94e70	0.09048164
23	0x3c6a461b	0.014298941
24	0xb9bd31ce	-0.00036085997
25	0x3c3227b2	0.010873722
26	0x3d841e52	0.06451096
27	0x3d84ba1c	0.0648081
28	0x3d9e2cf4	0.07723418
29	0xbb1ac8dd	-0.002361826
30	0xbe0a0438	-0.13478172
31	0xbb96de05	-0.0046041035
32	0xbdadbe17	-0.084835224
33	0x3e136d1e	0.14397094
34	0x3e25a89a	0.16177598
35	0xbd03ca09	-0.032175098
36	0x3d40ce02	0.047071464
37	0xbdbb8582	-0.09156324
38	0x3dd486d3	0.10377278
39	0x3d82720a	0.063694075
40	0xbe0acb2a	-0.13554063
41	0x3dd4c496	0.10389058
42	0xbce07ee3	-0.027404254
43	0xbc1f6cb8	-0.00973051
44	0x3d0203c3	0.03174187
45	0xbdfbe381	-0.12299252
46	0xbe2cbcb5	-0.16868861
47	0x3d072861	0.032997493
48	0x3d3a327b	0.0454583
49	0x3dd34536	0.10315935
50	0x3d5016bc	0.05080293
51	0xbd9b5a68	-0.07585603
52	0x3d661173	0.056168985
53	0xbe4f3352	-0.20234421
54	0xbc67f4e9	-0.014157512
55	0x3da2c072	0.07946862
56	0xbd3e6c9a	-0.04649029
57	0x3d7000ab	0.058594387
58	0xbdbe8245	-0.09302191
59	0x3c65662d	0.014001411
60	0x3e486c3a	0.19572535
61	0x3c448eaf	0.011996909
62	0x3e898606	0.26860064
63	0x3b8687a6	0.004105526
64	0x3d981300	0.07425499
65	0xbc8613df	-0.016366897
66	0xbe1390dc	-0.14410728
67	0x3e1ded0b	0.15422456
68	0xbb8f51bd	-0.0043737576
69	0x3d9e14a1	0.077187784
70	0x3d0833dc	0.033252582
71	0xbc2c83bf	-0.010529458
72	0x3d4a6659	0.049414013
73	0xbd289c2e	-0.04116457
74	0xbe0e37f3	-0.1388853
75	0x3e1238a7	0.14279424
76	0xbdecfbf2	-0.11571492
77	0x3d89a7d1	0.067214616
78	0xbe4970c5	-0.19671924
79	0x3dd322c1	0.10309363
80	0xbd9118ee	-0.07084833
81	0x3d2918ca	0.041283406
82	0xbe04a1c7	-0.12952338
83	0x3e326f49	0.17425264
84	0xbdb47e6a	-0.08813174
85	0x3cef6f9d	0.029228026
86	0x3dbd3d0d	0.0924016
87	0xbc9b0272	-0.018922064
88	0xbdb24a12	-0.08705534
89	0x3cb2f12a	0.021843512
90	0x3da86534	0.08222428
91	0xbd6289de	-0.05530726
92	0x3ce610ce	0.028084185
93	0xbc5fdd03	-0.013663533
94	0xbe061dfe	-0.13097379
95	0xbe43605e	-0.1907973
96	0x3dc5b9a5	0.096545495
97	0xbe267d7d	-0.16258807
98	0xbdeb04eb	-0.114755474
99	0x3d11a369	0.03555623
100	0x3e7884a5	0.2426935
101	0x3d64a326	0.055819653
102	0x3e2af819	0.16696204
103	0xbe77202b	-0.24133365
104	0x3ce9e80f	0.028553037
105	0x3d234d35	0.039868552
106	0x3df721b3	0.120669745
107	0x3ce370a9	0.027763681
108	0xbaa9e031	-0.0012960491
109	0xbe15349c	-0.1457085
110	0xbdd9ac8c	-0.10628614
111	0x3e0bcb61	0.13651802
112	0x3e1f5b1e	0.15562102
113	0xbca09785	-0.0196035
114	0x3d0718bb	0.03298257
115	0xbda89fd0	-0.08233607
116	0x3db723ce	0.08942376
117	0xbdbc38ca	-0.09190519
118	0xbcb5f584	-0.022211798
119	0xbce29ace	-0.027661707
120	0xbd476403	-0.048679363
121	0xbe17fa01	-0.14841463
122	0x3da69387	0.08133607
123	0x3da000da	0.078126624
124	0xbdc3be48	-0.09557778
125	0xbd80a58d	-0.06281576
126	0x3c84e8aa	0.016224224
127	0x3c2393eb	0.009983997
128	0x3c2545cc	0.010087442
129	0xbd5b7013	-0.05357368
130	0x3e04dfdf	0.12976025
131	0x3df12336	0.11774294
132	0x3cacdeae	0.021102276
133	0xbdf0f54e	-0.11765538
134	0xba02b2b0	-0.0004985733
135	0x3e52c9ed	0.20584841
136	0xbc82ad88	-0.015951887
137	0xbc888f28	-0.016669825
138	0xbcf805e8	-0.030276254
139	0x3de44aa5	0.1114705
140	0x3d93ba70	0.072132945
141	0x3c73408c	0.014846932
142	0xbdc2b032	-0.09506263
143	0xbdb61f3f	-0.088926785
144	0xbdba484f	-0.09095823
145	0x3d04a4ce	0.032383732
146	0xbe53d03c	-0.20684904
147	0x3e769042	0.24078467
148	0xbc8d59ce	-0.017254736
149	0x3dfe3862	0.12413098
150	0xbd7cae8b	-0.061689895
151	0x3d899075	0.06717006
152	0xbe182122	-0.14856389
153	0x3e193c24	0.14964348
154	0x3e8844d4	0.26615012
155	0x3cafd7be	0.021465179
156	0xbdc59730	-0.09647977
157	0x3db8e50d	0.09028063
158	0x3da5c69d	0.08094523
159	0xbe7d73cc	-0.24751204
160	0xbda34b34	-0.07973328
161	0xbde6b133	-0.11264267
162	0x3dead938	0.114672124
163	0x3e11065c	0.14162582
164	0xbdf81895	-0.12114064
165	0x3c1d2fa0	0.009593874
166	0xbe423cb1	-0.18968464
167	0x3e322510	0.1739695
168	0xbdc82a40	-0.097736835
169	0x3d9dba37	0.07701533
170	0x3c61beb8	0.013778381
171	0x3d94127d	0.07230089
172	0xbc476278	-0.012169473
173	0x3d93de9f	0.07220196
174	0x3db06fd4	0.086150795
175	0xbcf18b88	-0.029485479
176	0x3d5e5cc4	0.054287687
177	0x3d93de5f	0.07220148
178	0x3c1afd4c	0.009459805
179	0x3dcfca0a	0.10145958
180	0xbdb268db	-0.08711406
181	0x3cd0286d	0.025409902
182	0xbcef834f	-0.029237418
183	0xbdf760ea	-0.12079032
184	0x3d1fc26a	0.039003767
185	0xbd9bcae8	-0.07607061
186	0xbc837eaa	-0.01605161
187	0x3d9e7f53	0.07739129
188	0x3ceef092	0.029167447
189	0xbcd8ed0f	-0.026480226
190	0x3e35a614	0.17739135
191	0x3dc486c1	0.09596015
192	0xbd8310a1	-0.06399656
193	0x3d01156f	0.03151458
194	0x3cee2717	0.029071374
195	0xbd4e3589	-0.050344024
196	0x3da0bc24	0.07848385
197	0xbda285b5	-0.07935659
198	0x3927a3fa	0.00015987447
199	0xbe14c2b7	-0.14527403
200	0xbe2eafa3	-0.17059188
201	0xbdd453f4	-0.10367575
202	0x3d2ef223	0.04271139
203	0xbdd881ee	-0.10571657
204	0x3d66e6f3	0.056372594
205	0xbe157cf6	-0.1459845
206	0xbd1c3d95	-0.038144667
207	0x3dda20db	0.10650798
208	0xbcfdb0f8	-0.030968174
209	0xbb9526e3	-0.004551755
210	0xbda324bd	-0.07965992
211	0xbdeb9f44	-0.11504987
212	0xbe0ac0e8	-0.1355015
213	0x3e44547a	0.1917285
214	0xbd929d8f	-0.07158958
215	0xbe0a97cf	-0.13534473
216	0x3d7788cb	0.06043319
217	0x3ddeeda1	0.10885168
218	0x3c585acf	0.013205244
219	0x3ce05ceb	0.027388057
220	0x3dae658d	0.08515463
221	0xbcc91cd6	-0.024549883
222	0xbd5a8494	-0.053349093
223	0xbc500da8	-0.012698568
224	0x3a8bf004	0.0010676389
225	0xbc8290de	-0.015938219
226	0x3d2c5c2f	0.0420801
227	0x3d8d27e7	0.068923764
228	0xbe1a872d	-0.15090628
229	0xb9913316	-0.00027694617
230	0x3d1d566d	0.0384125
231	0xbd96d339	-0.07364506
232	0x3d13aaa8	0.036051422
233	0x3de03e57	0.109493904
234	0xbbd860e8	-0.006603349
235	0xbd92909f	-0.071564905
236	0xbd9c02f8	-0.07617754
237	0x3dbc92b7	0.09207671
238	0xbd97f1c8	-0.07419163
239	0x3d91224f	0.07086622
240	0xbd1f85f4	-0.038946107
241	0x3df80dc4	0.121120006
242	0xbbc52ce0	-0.0060173124
243	0xbd45a3c6	-0.04825189
244	0xbdcdb7c6	-0.100448176
245	0x3e2c4015	0.1682132
246	0x3cdcba71	0.026944371
247	0x3ca627ea	0.020282704
248	0x3d9c11d6	0.076205894
249	0xbd43cbe7	-0.04780188
250	0xbcd48390	-0.02594164
251	0x3de48045	0.11157278
252	0xbe20d94a	-0.15707889
253	0xbd8fb642	-0.07017185
254	0xbdabb432	-0.08383979
255	0x3d8c42ce	0.068486795

network_body._body_endoder.seq_layers.2.bias f4 [128]
0	0x3cb08f10	0.021552593
1	0xbcb2d37c	-0.02182936
2	0xbc0d2352	-0.008614378
3	0xbb9c9341	-0.004778296
4	0x3bc37332	0.00596466
5	0x3a600f8f	0.000854724
6	0xbc0f857f	-0.008759855
7	0xbc3e93d3	-0.011631924
8	0x3bb42cb7	0.0054984945
9	0xbba2e853	-0.004971543
10	0x3c2ddbaa	0.010611454
11	0xbb16a381	-0.002298564
12	0x3c4de7ad	0.012567443
13	0xbc90b4c1	-0.017664315
14	0xbad4b466	-0.0016228079
15	0xbb2447ba	-0.0025067166
16	0xbbe30ada	-0.006928784
17	0xbc41f150	-0.011837319
18	0x3c47225a	0.012154186
19	0x3c591b28	0.013251103
20	0x3cc9481b	0.024570515
21	0xbc18eafd	-0.009333369
22	0x3cb28ddb	0.021796158
23	0x3cb9ab4b	0.022664687
24	0x3c6ea400	0.014565468
25	0xbc412146	-0.011787718
26	0xbc37f201	-0.011227132
27	0xbba78593	-0.005112359
28	0xbcb34fe4	-0.02188868
29	0xbbc71a54	-0.0060761366
30	0x3cde25be	0.027117606
31	0xbc4c0622	-0.012452634
32	0x3c00a92c	0.007852834
33	0xbbd7fc6d	-0.006591371
34	0xbc379625	-0.011205231
35	0x3b5dd18c	0.0033846823
36	0xbc8635d3	-0.016383087
37	0xbc4177e5	-0.01180837
38	0x3c058013	0.008148211
39	0xbc8c984c	-0.017162465
40	0x3bbab0cf	0.0056973468
41	0x3ccca7bc	0.024982326
42	0x3c9fdc62	0.019514266
43	0x3ba660e2	0.0050774673
44	0xbcaf10ea	-0.02137037
45	0xbc1f07b0	-0.009706423
46	0xb8eaa5ed	-0.000111888956
47	0x3c099adb	0.008398737
48	0x3b885992	0.0041610682
49	0xbbf7cdd1	-0.007562377
50	0x3c97a850	0.018512875
51	0x3c0b0ee1	0.008487434
52	0xbc88b0a0	-0.016685784
53	0xbc45daf8	-0.012076132
54	0xbbba2f57	-0.005681913
55	0xbbff1739	-0.007784751
56	0xbc0d2b5e	-0.008616297
57	0x3ba7c7d5	0.0051202574
58	0x3c4017a4	0.011724386
59	0x3c813e04	0.015776642
60	0xbbd28712	-0.006424793
61	0xbb2f466c	-0.0026744856
62	0x3a64d3c6	0.00087290665
63	0x3b05b7b0	0.0020403676
64	0x3c787091	0.015163557
65	0x3c381074	0.0112343915
66	0xbc8549e2	-0.016270582
67	0x3b4740c9	0.0030403605
68	0x3a920bcc	0.0011142432
69	0xbc1fd10b	-0.00975443
70	0x3ca392a8	0.019967392
71	0xbc8e1053	-0.017341768
72	0xbc391f79	-0.011299008
73	0xbc369d4f	-0.011145904
74	0xba660ca6	-0.00087756885
75	0x3c2640d3	0.010147291
76	0x3b8d4d94	0.0043122265
77	0x3a9ef0d7	0.0012126219
78	0xb929ef85	-0.00016206324
79	0xbb4b08a2	-0.0030980487
80	0x3ce053fb	0.027383795
81	0xbafb57a2	-0.0019175897
82	0xbb84f405	-0.0040574097
83	0xbc3f330f	-0.011669888
84	0x3acf3aa2	0.0015810321
85	0xbb6c5137	-0.003605915
86	0xbc5bcd3b	-0.01341563
87	0xbcaf5490	-0.021402627
88	0xbb5a17d1	-0.0033278356
89	0xbb359722	-0.002770849
90	0x3c866dc1	0.016409757
91	0x3c2cd19b	0.010548021
92	0x3c3af7ba	0.011411602
93	0x3c1476dc	0.009061541
94	0x3c8f37dc	0.01748269
95	0xbc0ff1a5	-0.00878564
96	0xbcca200b	-0.024673482
97	0xbb96d3e2	-0.004602895
98	0xbab1f0a4	-0.0013575745
99	0x3c88a811	0.016681703
100	0x3cebabdd	0.028768474
101	0xbbc419ba	-0.005984512
102	0xbc0fc2af	-0.0087744435
103	0x3cb18c17	0.021673245
104	0xbc1debe7	-0.009638763
105	0xbb8c7709	-0.004286651
106	0x3be84a6e	0.007088951
107	0x3ca46d99	0.020071791
108	0x3c6c06c2	0.014405908
109	0xbc99fee0	-0.018798292
110	0xbb278217	-0.0025559717
111	0x3b921820	0.0044584423
112	0x3b8b4d55	0.004251162
113	0x3844098a	4.6738925e-05
114	0xbc900d26	-0.017584395
115	0xbbfeba00	-0.007773638
116	0x3ce33c65	0.02773876
117	0xbcab9d9c	-0.020949177
118	0xbc6d75da	-0.01449343
119	0xba23250c	-0.0006223477
120	0x3c2ed6ca	0.010671327
121	0x3c2ff263	0.010738942
122	0x3c7fad5d	0.015605298
123	0x3bad8bcc	0.005296206
124	0xbb182ab1	-0.0023218805
125	0xbb71614c	-0.0036831675
126	0xbc0cf79c	-0.008603957
127	0x3c30c328	0.010788716

action_model._continuous_distribution.log_sigma f4 [1, 2]
0	0x3dc4a3c2	0.09601547
1	0x3e26dd2f	0.16295312

action_model._continuous_distribution.mu.weight f4 [2, 128]
0	0xbce6793b	-0.028133979
1	0x3c1a6c8a	0.009425292
2	0xbbabebe2	-0.0052466253
3	0x3cbfc71b	0.02341037
4	0xba9fc1ee	-0.0012188533
5	0x3d27c242	0.040956743
6	0xbcf7e5c0	-0.03026092
7	0x3bb321dc	0.005466683
8	0xbbd717e7	-0.0065641287
9	0x3d1f4ef6	0.038893662
10	0xbd8e2f23	-0.06942584
11	0xbb780548	-0.0037844945
12	0xbd859d0a	-0.065240934
13	0xbc32292a	-0.010874072
14	0x3cd2be4d	0.025725508
15	0x3ac516ed	0.001503674
16	0x3ca2fcd0	0.019895941
17	0x3c14990e	0.009069694
18	0x3cfe030c	0.031007312
19	0x3c17ca62	0.00926456
20	0x3c041171	0.008060799
21	0x3d006f9f	0.03135645
22	0x3bf78f78	0.0075549446
23	0xbc3244f0	-0.010880694
24	0x3d03a4c3	0.03213955
25	0x39f2009c	0.0004615829
26	0x3d147081	0.036240105
27	0xbc7dab88	-0.015482791
28	0xbb2f8398	-0.0026781317
29	0xbc755eb1	-0.0149761895
30	0xba63c482	-0.0008688645
31	0x3ba110d7	0.0049153375
32	0x3d5626f7	0.052283254
33	0xbc06ecf8	-0.008235209
34	0x3bb72406	0.005589011
35	0x3c38802d	0.011261028
36	0xbbbf2451	-0.0058331867
37	0xbcc986f0	-0.024600476
38	0x3c6b2cd6	0.014353951
39	0xbb3dc36e	-0.0028955596
40	0xbc840534	-0.016115762
41	0x3c23adb5	0.009990145
42	0x3c812007	0.015762342
43	0x3ba6d17a	0.0050908895
44	0x34a03e00	2.9847433e-07
45	0x3b9f9fe3	0.004871355
46	0xbba60a54	-0.005067149
47	0x3ca57216	0.020196002
48	0x3cae7fc1	0.021301152
49	0x3a64b113	0.0008723896
50	0xbb0a8800	-0.0021138191
51	0x3b323311	0.0027191082
52	0x3c59c034	0.013290454
53	0xbc127852	-0.008939819
54	0xbbf6ba35	-0.007529522
55	0xbbabfa7a	-0.005248365
56	0x3d47a45c	0.04874073
57	0x3c7d34e8	0.015454508
58	0xbd03a9b8	-0.03214428
59	0x3ca8f4cb	0.020624539
60	0xbbe027d1	-0.006840684
61	0xbc58ffcd	-0.013244581
62	0x3d85fd56	0.065424606
63	0xbcb94fe1	-0.022621097
64	0x3ad9acbf	0.0016607268
65	0xbaae74da	-0.0013309971
66	0xbc2dcd5d	-0.010608044
67	0xbcf51fe2	-0.02992243
68	0x3d7be75f	0.06149995
69	0xbbbab79d	-0.005698158
70	0xbabcc896	-0.0014403041
71	0x3b796e9f	0.003806032
72	0xbc0b8fb7	-0.008518151
73	0xbc3ebb36	-0.011641314
74	0x3c984f40	0.018592477
75	0x3d0daa91	0.034586493
76	0xbc913b2a	-0.017728407
77	0xbc36af4c	-0.0111501925
78	0x3c6e96cf	0.014562323
79	0xbc79d031	-0.015247391
80	0xbc934f56	-0.017982166
81	0x3d08d6a0	0.033407807
82	0x3d28d553	0.041219067
83	0x3cabe910	0.020985156
84	0xbcb9bc89	-0.022672908
85	0x3c4b3a4e	0.012404038
86	0xbc979094	-0.018501557
87	0xbc851ca6	-0.016249012
88	0xbc08f31e	-0.008358745
89	0x3c073789	0.008252987
90	0x3ce89f8e	0.028396394
91	0x3c91259d	0.01771813
92	0x3d1483ac	0.036258385
93	0xbbbb3d1d	-0.0057140724
94	0x3bfafe99	0.007659745
95	0xbca6ee1f	-0.020377217
96	0xbc173b76	-0.009230485
97	0xbbaee5f9	-0.0053374735
98	0x3b31d621	0.0027135687
99	0x3c6a060f	0.014283671
100	0x3c7366e5	0.014856075
101	0xbcf05cb9	-0.029341089
102	0x3c264025	0.010147129
103	0x3c695ae5	0.014242862
104	0xbd0c79ee	-0.03429597
105	0x3cae6a8d	0.021291042
106	0x3c89005b	0.016723802
107	0x3c8f2e62	0.017478172
108	0x3b8452cc	0.0040381905
109	0x3be860fc	0.0070916396
110	0x3d1bccb3	0.038037013
111	0xbc836003	-0.016036993
112	0xbb6b78c8	-0.0035930146
113	0xbbe7334f	-0.007055677
114	0xbc05148d	-0.0081225755
115	0x3d11d6b4	0.035605147
116	0x3bc7d3c0	0.0060982406
117	0xbbbace76	-0.0057008816
118	0x3c939b6e	0.01801845
119	0xbca9b4f8	-0.020716175
120	0x3c474b8f	0.012164011
121	0x3bd7205b	0.0065651364
122	0x3c6c4a32	0.014421986
123	0xbcdb6ada	-0.02678435
124	0x3c9912b6	0.01868568
125	0x3cb6950c	0.022287868
126	0xbc06a062	-0.008216949
127	0x3b9201d9	0.0044557867
128	0x3d4e69eb	0.05039398
129	0xbb7713b8	-0.0037700962
130	0xbd0745f4	-0.033025697
131	0xbd0c444a	-0.034244813
132	0xbaaf8a33	-0.0013392627
133	0xbd1c1a6a	-0.038111128
134	0xbb762aba	-0.0037562088
135	0xbd1c546b	-0.038166445
136	0x3cd95e8f	0.026534347
137	0xbccfb86b	-0.025356492
138	0x3d17f8c9	0.037102494
139	0x3ccd4a74	0.025059916
140	0x3cac5026	0.021034312
141	0xbd13c8ba	-0.0360801
142	0x3c556e48	0.013026781
143	0xbce5284c	-0.027973317
144	0xbcdd7634	-0.027033903
145	0x3acde517	0.0015708533
146	0x3bd9c6cb	0.0066460124
147	0x3cffdc94	0.03123311
148	0x3c773e1b	0.015090491
149	0xbcf3d5f0	-0.0297651
150	0x3d06a0cd	0.032868195
151	0x3d4b5c82	0.04964877
152	0x3b94ad8a	0.004537289
153	0xbd13ccf5	-0.036084134
154	0xbcd43a3f	-0.02590668
155	0xbcac26dd	-0.021014625
156	0xbc7f76bd	-0.015592274
157	0xbd37bd7d	-0.044858444
158	0x3d3b95d0	0.04579717
159	0xbcd2988b	-0.025707504
160	0xbc035100	-0.008014917
161	0xbcdc483e	-0.026889917
162	0xbd33431d	-0.043765176
163	0xbb309bed	-0.0026948408
164	0xbc3ab189	-0.011394867
165	0xbce9fbfe	-0.028562542
166	0x3cc99fb4	0.024612285
167	0xbcc487ae	-0.023990478
168	0xbd071508	-0.03297904
169	0x3d153072	0.036423154
170	0x3cac7071	0.02104971
171	0xbc9e6378	-0.01933454
172	0xbc9074c0	-0.017633796
173	0xbc1f29d0	-0.009714559
174	0x3c421f34	0.01184826
175	0x3d07c48d	0.03314643
176	0xbce57a1a	-0.028012324
177	0xbd281407	-0.041034725
178	0x3cb1b8ef	0.021694629
179	0x3d1bd50c	0.038044974
180	0xbb9c7fd3	-0.00477598
181	0xbc7b916a	-0.015354494
182	0xbcf11696	-0.029429715
183	0xbc94b110	-0.018150836
184	0xbc86e2ef	-0.016465632
185	0x3d06158b	0.03273539
186	0x3d02a706	0.031897567
187	0x3d37414a	0.04474
188	0xbc9df407	-0.0192814
189	0xbc8e59b3	-0.017376756
190	0x3bbe72ec	0.0058120396
191	0x3b4354c7	0.002980517
192	0x3cdc32c7	0.026879681
193	0x3d26b39a	0.040698625
194	0xbd2d7849	-0.04235104
195	0x3cc2d37b	0.023782482
196	0x3aeb1cb3	0.001793763
197	0xbc7f9e89	-0.015601763
198	0x3d5bb13d	0.053635824
199	0xbcb06f54	-0.02153746
200	0xbccc1b91	-0.024915488
201	0xbc2e4ee1	-0.010638923
202	0x3c9d1a6f	0.019177644
203	0xbc20c5c4	-0.009812776
204	0x3cdaa481	0.02668977
205	0x3cabd9b4	0.020977832
206	0x3c8ed636	0.017436128
207	0xbb3b5837	-0.0028586516
208	0x3d73bdac	0.059507057
209	0x3b4a9d28	0.0030916426
210	0x3aadec2f	0.0013269241
211	0xbcaf773b	-0.021419158
212	0xbc4a52fb	-0.012348886
213	0x3cbc1097	0.02295713
214	0xbcfa860d	-0.030581499
215	0xbc849c7b	-0.016187897
216	0x3cf7a4bb	0.030229917
217	0x3bf2b91c	0.0074073207
218	0x3cc66445	0.024217734
219	0x3cd8d92e	0.026470747
220	0x3cb66533	0.022265052
221	0x3d120fe7	0.035659697
222	0x3b7870e4	0.0037909085
223	0xbcc0cf1e	-0.023536261
224	0xbbf1a286	-0.0073741106
225	0xbc93f4a2	-0.018060986
226	0xbbdeedb9	-0.006803241
227	0x3d0e54c5	0.03474881
228	0x3d83686c	0.06416401
229	0xbccbf1a8	-0.024895504
230	0xbd22b0d9	-0.039719436
231	0x3d0e6d39	0.03477213
232	0xbd1ab683	-0.037771713
233	0xbc7dc1a7	-0.015488065
234	0x3c974c74	0.018469073
235	0x3c8c2dbb	0.01711165
236	0x3cad603b	0.02116405
237	0xbd18f131	-0.037339393
238	0xbc88cd20	-0.016699374
239	0x3d063471	0.032764856
240	0x3ceb0e14	0.028693236
241	0xbc9ed459	-0.019388365
242	0xbcc6c438	-0.024263486
243	0xbd12fbc9	-0.035884652
244	0x3d0357ca	0.032066144
245	0xbcfc9cbd	-0.030836457
246	0xbccfb545	-0.02535499
247	0xbc95f47a	-0.018305052
248	0x3cd73515	0.026270429
249	0x3d54ad17	0.051922884
250	0x3d0b3fce	0.033996396
251	0x3cf65b84	0.030072935
252	0xbc87acb6	-0.016561847
253	0x39fc0b63	0.0004807367
254	0x3c704f11	0.014667288
255	0xbbf6b7c3	-0.0075292303

action_model._continuous_distribution.mu.bias f4 [2]
0	0xbbad1700	-0.005282283
1	0x3c8aa7a0	0.016925633

exp_avg f4 [128, 36]
0	0xb89075fa	-6.88843e-05
1	0x379173bc	1.733924e-05
2	0x3706a43d	8.025262e-06
3	0xb7ede2ab	-2.8358152e-05
4	0x3890a3ab	6.8969406e-05
5	0xb80d7720	-3.3727963e-05
6	0xb880a82e	-6.1348415e-05
7	0xb62efef8	-2.6076432e-06
8	0x369d55bf	4.688947e-06
9	0xb66f5ff5	-3.566963e-06
10	0xb82b1b70	-4.079513e-05
11	0xb7b4be8a	-2.1546399e-05
12	0xb6ee3867	-7.099519e-06
13	0xb6bc571e	-5.6129784e-06
14	0xb76d1c6c	-1.4132918e-05
15	0xb8074325	-3.224904e-05
16	0xb82cc435	-4.1190728e-05
17	0xb81c5593	-3.7272996e-05
18	0x385b670c	5.230964e-05
19	0xb8077843	-3.229851e-05
20	0xb817eb36	-3.6220263e-05
21	0x37147279	8.84814e-06
22	0x3497b4be	2.825745e-07
23	0xb7e6df5d	-2.7522148e-05
24	0xb8720ff7	-5.7712165e-05
25	0x36b5fc92	5.4236234e-06
26	0x37da9097	2.6054955e-05
27	0xb7e663b8	-2.7464572e-05
28	0xb7e7ebb0	-2.7647096e-05
29	0x34de6035	4.1420722e-07
30	0x00000004	6e-45
31	0xb79e4dea	-1.887135e-05
32	0xb83711cc	-4.3647175e-05
33	0xb77bef09	-1.5016421e-05
34	0x38038c57	3.1363536e-05
35	0xb700feb8	-7.688701e-06
36	0xb8ab7118	-8.174981e-05
37	0x37eb259b	2.8031694e-05
38	0x37ffb6c1	3.048347e-05
39	0xb72dd423	-1.03609955e-05
40	0x38da7522	0.00010416868
41	0xb79bd41b	-1.857621e-05
42	0xb8c0e8ed	-9.198659e-05
43	0x358a9111	1.0324021e-06
44	0x381653a4	3.5840683e-05
45	0x35880635	1.0134596e-06
46	0xb87221cf	-5.7728783e-05
47	0xb65b980b	-3.2722044e-06
48	0x382facb7	4.1884105e-05
49	0xb6d39e88	-6.3067455e-06
50	0xb8321977	-4.2462223e-05
51	0xb7df841c	-2.664519e-05
52	0xb828dd99	-4.02607e-05
53	0xb84b855a	-4.8523165e-05
54	0x38ac1fde	8.207535e-05
55	0x37069090	8.020681e-06
56	0xb77081b0	-1.433531e-05
57	0x36eea4ef	7.1121535e-06
58	0x34387da6	1.7182046e-07
59	0xb79e955e	-1.8904622e-05
60	0xb8c43b2a	-9.3570285e-05
61	0xb6613ac0	-3.356181e-06
62	0x38bdaf21	9.0448426e-05
63	0x3704c45d	7.9135325e-06
64	0xb720c790	-9.583207e-06
65	0x361eedb7	2.3682203e-06
66	0x00000004	6e-45
67	0xb65c489a	-3.2824814e-06
68	0xb811b73a	-3.4741337e-05
69	0xb7ebd480	-2.8113136e-05
70	0x3868f051	5.5536922e-05
71	0x37f5df2a	2.9310195e-05
72	0x36ee884e	7.1088207e-06
73	0x360e2f39	2.1187136e-06
74	0xb7d30a45	-2.5157942e-05
75	0xb7accd13	-2.0599493e-05
76	0xb7a1464c	-1.922543e-05
77	0x3730aa9f	1.0530143e-05
78	0xb733c011	-1.071395e-05
79	0xb7e7a01e	-2.7611906e-05
80	0x37088ca8	8.138981e-06
81	0x369c1945	4.652104e-06
82	0xb8021b44	-3.101981e-05
83	0xb7c23bad	-2.315439e-05
84	0xb6b535d7	-5.400488e-06
85	0x3636c87f	2.7236817e-06
86	0xb78979ca	-1.6388385e-05
87	0xb79d1907	-1.8727513e-05
88	0x378ef891	1.7043467e-05
89	0x36b5d700	5.4192496e-06
90	0xb82ff7fb	-4.19542e-05
91	0xb6dbe97c	-6.5538898e-06
92	0xb74f1291	-1.2342484e-05
93	0xb6d8327e	-6.4431797e-06
94	0xb40a9175	-1.2905168e-07
95	0xb780d86c	-1.5359568e-05
96	0xb72c70e6	-1.0278285e-05
97	0xb70a532b	-8.244805e-06
98	0xb52592bc	-6.1680817e-07
99	0xb70fbd8f	-8.567599e-06
100	0xb79d3e9f	-1.8745019e-05
101	0xb3ca56ea	-9.4221676e-08
102	0x80000004	-6e-45
103	0xb78b44b5	-1.6602085e-05
104	0xb73cbad1	-1.124917e-05
105	0xb6d4ff42	-6.3478083e-06
106	0xb5a1ee7e	-1.2064845e-06
107	0xb722745d	-9.683045e-06
108	0xb7291b9e	-1.0079615e-05
109	0x37655cc8	1.3671066e-05
110	0xb79769d9	-1.8049892e-05
111	0xb780255f	-1.5276191e-05
112	0xb6dbc4af	-6.5496056e-06
113	0x3732a682	1.0648395e-05
114	0xb792428e	-1.7435548e-05
115	0xb7bd9c29	-2.2603273e-05
116	0x378f5c56	1.7089926e-05
117	0x36680c63	3.4577904e-06
118	0xb81d0c2d	-3.7443056e-05
119	0xb77bce76	-1.5008836e-05
120	0x36c5b2c0	5.8918667e-06
121	0xb4db338f	-4.0829443e-07
122	0xb79bc065	-1.856703e-05
123	0xb78ec041	-1.7017244e-05
124	0x374c69bc	1.2183966e-05
125	0xb6d3b247	-6.3090442e-06
126	0xb7a0e6b1	-1.918091e-05
127	0xb644c377	-2.9320051e-06
128	0xb71e8a17	-9.449685e-06
129	0xb66af6e1	-3.501242e-06
130	0xb1c02257	-5.5918394e-09
131	0xb76287de	-1.3502284e-05
132	0xb7f1b5ff	-2.8814187e-05
133	0xb6f2cbe4	-7.235898e-06
134	0x37c1aaca	2.3086923e-05
135	0xb5e122a9	-1.6773894e-06
136	0xb779d7be	-1.4891788e-05
137	0x3600af69	1.9175588e-06
138	0x00000004	6e-45
139	0xb745fe47	-1.1801319e-05
140	0xb75fdeb5	-1.3343689e-05
141	0xb7319fe2	-1.0587248e-05
142	0x3737aa3b	1.0947285e-05
143	0x35526dfb	7.839114e-07
144	0xb5b83bc8	-1.3726467e-06
145	0xb494918b	-2.7673045e-07
146	0xb4a7e411	-3.1272114e-07
147	0xb622d6b3	-2.4264853e-06
148	0xb523a7aa	-6.0966215e-07
149	0x35e04385	1.6708951e-06
150	0xb6791565	-3.7116345e-06
151	0xb68bf451	-4.170965e-06
152	0x361ac0a0	2.305991e-06
153	0x35e4af72	1.7038385e-06
154	0xb6d1f317	-6.2569848e-06
155	0xb67acdae	-3.7372624e-06
156	0x3590bfbd	1.0784639e-06
157	0x345282a7	1.9605305e-07
158	0xb681e378	-3.8709804e-06
159	0xb64d8c6f	-3.0629124e-06
160	0x3656ed49	3.2026603e-06
161	0x369a0866	4.5905354e-06
162	0xb72fe514	-1.0484149e-05
163	0xb5f3efb5	-1.8174675e-06
164	0xb597c709	-1.1308304e-06
165	0xb5b5f081	-1.3555547e-06
166	0xb30288ba	-3.0392336e-08
167	0xb61dd10f	-2.3516511e-06
168	0xb69395ea	-4.3983937e-06
169	0xb59c4783	-1.1643718e-06
170	0x3649ebae	3.0088518e-06
171	0xb56dc542	-8.857643e-07
172	0xb62d954c	-2.586591e-06
173	0x33bda8e4	8.8317194e-08
174	0x80000004	-6e-45
175	0xb61b722a	-2.3163252e-06
176	0xb6540e67	-3.1598845e-06
177	0xb54c6bf0	-7.615299e-07
178	0x35bf0190	1.4231064e-06
179	0xb553c038	-7.888334e-07
180	0xb7acdcc1	-2.0606794e-05
181	0x36b67931	5.438131e-06
182	0x3851a5da	4.9983944e-05
183	0x382665a2	3.9672137e-05
184	0x3896e3e4	7.195005e-05
185	0xb7a14895	-1.9226494e-05
186	0xb748d514	-1.197054e-05
187	0x38576954	5.135809e-05
188	0x378d3530	1.6833277e-05
189	0xb60383d2	-1.959725e-06
190	0x37b5eff6	2.1688622e-05
191	0x38312707	4.2236436e-05
192	0x382b267a	4.080541e-05
193	0xb5de69fd	-1.6571136e-06
194	0x358e4073	1.0598582e-06
195	0x37ef3837	2.8517197e-05
196	0xb78e9866	-1.6998685e-05
197	0xb7a82c06	-2.004766e-05
198	0x38a27906	7.747304e-05
199	0x382772af	3.992271e-05
200	0x380ae113	3.311138e-05
201	0x36e34344	6.772958e-06
202	0x3392855d	6.8229134e-08
203	0x37e02b00	2.6722904e-05
204	0xb71becac	-9.293824e-06
205	0x372f6f92	1.045679e-05
206	0x3823c5ed	3.904656e-05
207	0x3805fc6d	3.194476e-05
208	0x382917ee	4.0315026e-05
209	0xb4df3940	-4.1578642e-07
210	0x00000004	6e-45
211	0x380dc367	3.3799002e-05
212	0x3734f1e1	1.0785153e-05
213	0x355303a9	7.860895e-07
214	0x37ed83f3	2.8314045e-05
215	0x3823712e	3.8967635e-05
216	0xb7d194ab	-2.498397e-05
217	0x36bca154	5.6216177e-06
218	0x3825b213	3.950491e-05
219	0x37e58819	2.7362303e-05
220	0x387069af	5.7318885e-05
221	0xb7edd1db	-2.8350323e-05
222	0xb5220b65	-6.0366284e-07
223	0x384a7bf2	4.8275986e-05
224	0x36d23a93	6.2653066e-06
225	0xb6484ee5	-2.9848245e-06
226	0x379f0344	1.8955798e-05
227	0x3801d236	3.095177e-05
228	0x376f1127	1.4249504e-05
229	0xb6342ced	-2.684824e-06
230	0x37865bdf	1.6016826e-05
231	0x37bbd994	2.2393455e-05
232	0xb7ba7db8	-2.223147e-05
233	0xb7a93e19	-2.0175286e-05
234	0x3893cea8	7.047999e-05
235	0x3792e613	1.7511693e-05
236	0x37ad213b	2.0638681e-05
237	0x36d948e8	6.4755914e-06
238	0x3418136b	1.4163167e-07
239	0x37a82273	2.0043202e-05
240	0xb6b59584	-5.4116263e-06
241	0x379b558e	1.851728e-05
242	0x37742bc2	1.45537215e-05
243	0x370b4214	8.300431e-06
244	0x37ecc597	2.8225402e-05
245	0xb588eb40	-1.0201256e-06
246	0x00000004	6e-45
247	0x37c8dd34	2.3944864e-05
248	0xb64c83b0	-3.047502e-06
249	0x3713bd27	8.805923e-06
250	0x37b38ce0	2.1404063e-05
251	0x379199f8	1.7357044e-05
252	0xb66e52fe	-3.5513071e-06
253	0x362f6f2a	2.6141738e-06
254	0xb85b8a40	-5.2342424e-05
255	0xb85e06bb	-5.2935193e-05

exp_avg_sq f4 [128, 36]
0	0x328be555	1.6286018e-08
1	0x32bc646a	2.1931744e-08
2	0x348cea24	2.6247392e-07
3	0x3495d06f	2.7905068e-07
4	0x3302ad90	3.0425838e-08
5	0x330dcc94	3.3015183e-08
6	0x346daa99	2.2134408e-07
7	0x348bd9a0	2.604911e-07
8	0x3280759b	1.4954642e-08
9	0x329793d7	1.7645943e-08
10	0x348c7364	2.616099e-07
11	0x34982fca	2.8346977e-07
12	0x34296de3	1.5779328e-07
13	0x32ae5c13	2.0298137e-08
14	0x340369fa	1.223888e-07
15	0x3482bbc0	2.4350993e-07
16	0x32b9aead	2.1616268e-08
17	0x329ce95d	1.8266912e-08
18	0x348729cb	2.5176118e-07
19	0x3497b519	2.8257708e-07
20	0x34998607	2.8595989e-07
21	0x31b2c5e3	5.202979e-09
22	0x31c10811	5.6179563e-09
23	0x3450757f	1.9414254e-07
24	0x3442a3a9	1.8127197e-07
25	0x31fc5c4e	7.344659e-09
26	0x33f2c101	1.13041104e-07
27	0x348c4b80	2.6131966e-07
28	0x349c7684	2.9143496e-07
29	0x31e0fec7	6.548223e-09
30	0x2f1ad593	1.4082095e-10
31	0x34483b5d	1.8648048e-07
32	0x3490a7a8	2.6944076e-07
33	0x3218d562	8.896082e-09
34	0x329b811a	1.8103083e-08
35	0x345b4e51	2.0424456e-07
36	0x327e3694	1.47971555e-08
37	0x32a09105	1.8692399e-08
38	0x34ab0f24	3.1862248e-07
39	0x34b3dee0	3.350351e-07
40	0x3345636c	4.595806e-08
41	0x334001bc	4.470506e-08
42	0x3485aabc	2.4897406e-07
43	0x34a159f8	3.0054048e-07
44	0x32c07986	2.2407004e-08
45	0x32872e1f	1.5737042e-08
46	0x34a6a822	3.1042242e-07
47	0x34b511b9	3.3726772e-07
48	0x344388ae	1.8210514e-07
49	0x3309cd20	3.208436e-08
50	0x341ea31d	1.4774237e-07
51	0x3497f9f2	2.83078e-07
52	0x32a509ad	1.9212928e-08
53	0x322c7203	1.0037641e-08
54	0x34aab65e	3.1797657e-07
55	0x34b73e65	3.4131804e-07
56	0x34b5c92f	3.3860258e-07
57	0x3227c583	9.765588e-09
58	0x31731f83	3.5379066e-09
59	0x347200ba	2.253827e-07
60	0x3465c8d2	2.1400345e-07
61	0x31fe2fae	7.3977935e-09
62	0x340fecb5	1.3404026e-07
63	0x34a3dcb1	3.052169e-07
64	0x34b6789c	3.3987897e-07
65	0x3240ce75	1.1222814e-08
66	0x2fda6e41	3.973231e-10
67	0x3468eafb	2.1692169e-07
68	0x34a6a956	3.1043118e-07
69	0x320ddc39	8.257353e-09
70	0x32d8eb48	2.5252703e-08
71	0x3482d962	2.4372554e-07
72	0x31c14dba	5.6258758e-09
73	0x319ea7f1	4.617498e-09
74	0x3396c6c1	7.0210724e-08
75	0x33a1db01	7.536983e-08
76	0x31e00414	6.5197217e-09
77	0x314299c5	2.8318123e-09
78	0x3395511d	6.9531076e-08
79	0x33a4107d	7.639844e-08
80	0x3144b074	2.8622056e-09
81	0x31c46171	5.7154286e-09
82	0x33984bb8	7.091825e-08
83	0x33a02864	7.4579276e-08
84	0x32f43c19	2.8432668e-08
85	0x31d73a60	6.26396e-09
86	0x33431a27	4.542576e-08
87	0x3393bfe6	6.880127e-08
88	0x3235bfab	1.0579167e-08
89	0x31bf0e50	5.5604588e-09
90	0x338605ec	6.2409384e-08
91	0x339efe20	7.4036734e-08
92	0x339f2635	7.410964e-08
93	0x310ea4ff	2.075751e-09
94	0x31737c40	3.5431782e-09
95	0x33704936	5.594594e-08
96	0x337f7f0e	5.948737e-08
97	0x3135c5ee	2.6451477e-09
98	0x32a61643	1.9335067e-08
99	0x338aa7f4	6.456676e-08
100	0x33aa4c6e	7.9301444e-08
101	0x2fbcf53f	3.437126e-10
102	0x300eebf1	5.199459e-10
103	0x335b4cbe	5.1059708e-08
104	0x33a6f0b1	7.773759e-08
105	0x30a14124	1.1732806e-09
106	0x30f9bb35	1.8170342e-09
107	0x336155e7	5.2465023e-08
108	0x31a6576d	4.841175e-09
109	0x3203bf61	7.668718e-09
110	0x337b3b74	5.8494564e-08
111	0x3388cfcb	6.370791e-08
112	0x329148e9	1.6913377e-08
113	0x31ecb9fe	6.889649e-09
114	0x334c7627	4.760491e-08
115	0x3383c669	6.1362535e-08
116	0x31d8c59d	6.3088934e-09
117	0x31ec6fef	6.8812294e-09
118	0x33734824	5.6643458e-08
119	0x33895807	6.395572e-08
120	0x331c4385	3.638299e-08
121	0x3151f242	3.055121e-09
122	0x33035b1e	3.0583685e-08
123	0x33746ac6	5.6907787e-08
124	0x319fd039	4.651181e-09
125	0x31873dfb	3.9360635e-09
126	0x33843b08	6.157467e-08
127	0x338e44a0	6.624873e-08
128	0x339275ff	6.820118e-08
129	0x30d24525	1.5299163e-09
130	0x30b04b70	1.2827126e-09
131	0x33423d28	4.5224766e-08
132	0x332f92ed	4.087899e-08
133	0x30f11eb0	1.754378e-09
134	0x32fcede7	2.9444847e-08
135	0x338227bc	6.0608244e-08
136	0x3395d0fc	6.976367e-08
137	0x30d90ad9	1.5791911e-09
138	0x2feb1130	4.2758463e-10
139	0x333f8095	4.4587598e-08
140	0x33821f01	6.059236e-08
141	0x309a9034	1.124596e-09
142	0x320e3188	8.27675e-09
143	0x335dfa79	5.1683376e-08
144	0x2d83da8a	1.4990027e-11
145	0x2f64b6bc	2.08014e-10
146	0x3098febd	1.1131857e-09
147	0x3099ff84	1.1204837e-09
148	0x2f22ad59	1.47954e-10
149	0x2f07c03a	1.2346471e-10
150	0x30908a23	1.051664e-09
151	0x30a5607f	1.2032756e-09
152	0x2e7714fa	5.617993e-11
153	0x2fab43e4	3.1152958e-10
154	0x30842282	9.614072e-10
155	0x30912aa3	1.0562257e-09
156	0x2fc1132c	3.5120118e-10
157	0x2f4a0c7f	1.8376232e-10
158	0x30567fe5	7.8034496e-10
159	0x3094caf0	1.0826096e-09
160	0x2f83e0e9	2.398857e-10
161	0x2f50d49e	1.8993027e-10
162	0x306d6f93	8.6378654e-10
163	0x30965991	1.0939393e-09
164	0x309aa500	1.125187e-09
165	0x2e776c78	5.6257637e-11
166	0x2f169d19	1.3698233e-10
167	0x3080cf27	9.372102e-10
168	0x3089508c	9.990955e-10
169	0x2e8c3dcc	6.37744e-11
170	0x2f876ddf	2.4634425e-10
171	0x30895f47	9.995141e-10
172	0x30ab6e0f	1.2473168e-09
173	0x2e852fb5	6.056614e-11
174	0x2d6e6587	1.3551277e-11
175	0x3061949f	8.2065726e-10
176	0x30ac6276	1.2542631e-09
177	0x2e7a4690	5.690609e-11
178	0x2db4960d	2.0530267e-11
179	0x30554b50	7.7595974e-10
180	0x313d1cd9	2.7519518e-09
181	0x3203cced	7.671798e-09
182	0x3380fe03	6.006669e-08
183	0x338757a6	6.3023705e-08
184	0x322ac16f	9.939284e-09
185	0x32008845	7.481565e-09
186	0x3354c2e0	4.9537334e-08
187	0x3382f098	6.0973605e-08
188	0x31d75ccd	6.2678738e-09
189	0x31b0aed7	5.142151e-09
190	0x33773637	5.7558477e-08
191	0x338d46ed	6.5787255e-08
192	0x33340acc	4.1919336e-08
193	0x3192004e	4.249194e-09
194	0x32c5992b	2.3003471e-08
195	0x336d4797	5.5245973e-08
196	0x3108d171	1.9909658e-09
197	0x3130da29	2.573538e-09
198	0x338a68b3	6.4451704e-08
199	0x3390fa25	6.7510236e-08
200	0x338f4186	6.670875e-08
201	0x310f7740	2.0877025e-09
202	0x3047ee28	7.273422e-10
203	0x333b9a29	4.3679538e-08
204	0x332a3f37	3.9638703e-08
205	0x3116e2d7	2.1956816e-09
206	0x32f4afcf	2.8485287e-08
207	0x3383f83c	6.1453164e-08
208	0x3393c4e4	6.881035e-08
209	0x30a2fad9	1.1858347e-09
210	0x2f2fa40f	1.5974443e-10
211	0x333c4c3a	4.384149e-08
212	0x3384f79e	6.19177e-08
213	0x31137632	2.1458502e-09
214	0x318b9ef8	4.063505e-09
215	0x3356636c	4.991618e-08
216	0x31fd74cf	7.3765487e-09
217	0x3196e316	4.3913913e-09
218	0x339ff8ef	7.449295e-08
219	0x33ae3de6	8.113766e-08
220	0x322212e8	9.43394e-09
221	0x3216619f	8.753346e-09
222	0x33896c45	6.399254e-08
223	0x33a2aed0	7.575511e-08
224	0x319a1713	4.484613e-09
225	0x317a10fa	3.6389438e-09
226	0x33a1b2fe	7.529705e-08
227	0x33b01b95	8.200656e-08
228	0x3338bd4b	4.3013e-08
229	0x31a35bf1	4.754377e-09
230	0x33234a68	3.8019067e-08
231	0x339791e8	7.0580256e-08
232	0x31a84454	4.8972115e-09
233	0x319ec0f2	4.6203406e-09
234	0x33a13120	7.5060825e-08
235	0x33aef154	8.146404e-08
236	0x33b01bef	8.20072e-08
237	0x309e9b74	1.1540195e-09
238	0x30d8824d	1.5753102e-09
239	0x336f7ffc	5.5762925e-08
240	0x335cb37c	5.138598e-08
241	0x316fce94	3.4896503e-09
242	0x33075272	3.150712e-08
243	0x339ccd40	7.301651e-08
244	0x33b0839e	8.21958e-08
245	0x314c2a0f	2.9709815e-09
246	0x2e99c26a	6.992169e-11
247	0x3362b770	5.278656e-08
248	0x33a84a4a	7.836623e-08
249	0x315ae2f1	3.1852176e-09
250	0x31830823	3.813527e-09
251	0x337be115	5.8645202e-08
252	0x300a9bfd	5.042578e-10
253	0x319c8eb5	4.5564215e-09
254	0x3338f699	4.3065118e-08
255	0x333c6bd6	4.3870237e-08

exp_avg f4 [128]
0	0xb7e4a749	-2.7257616e-05
1	0xb6f5b92f	-7.323127e-06
2	0xb79e27f7	-1.8853678e-05
3	0xb75a73e8	-1.3020799e-05
4	0xb62888f5	-2.511367e-06
5	0x38276de6	3.9918254e-05
6	0x37e4600c	2.7224443e-05
7	0xb85d4b2b	-5.276051e-05
8	0xb692a3cc	-4.3702075e-06
9	0x37e0b3ec	2.6786664e-05
10	0x37c421d1	2.3380768e-05
11	0x37d28550	2.509603e-05
12	0xb4c6832c	-3.6975814e-07
13	0xb78bba9f	-1.6656993e-05
14	0x38fdf9db	0.00012110519
15	0x374df6cb	1.2276413e-05
16	0xb68c2da9	-4.1776407e-06
17	0xb68f8aea	-4.277904e-06
18	0x3703e67b	7.861871e-06
19	0x376d3fa5	1.4141119e-05
20	0x38b513a4	8.634411e-05
21	0x384639bc	4.7260648e-05
22	0xb7be6d10	-2.2700551e-05
23	0x38137307	3.515466e-05
24	0xb8305bae	-4.2047053e-05
25	0x37eb583d	2.8055272e-05
26	0x37c3e995	2.3354582e-05
27	0xb88cdb3a	-6.716554e-05
28	0x37da405b	2.6017593e-05
29	0xb5114097	-5.41107e-07
30	0xb8b78967	-8.751713e-05
31	0xb72562d3	-9.857776e-06
32	0xb8333879	-4.272952e-05
33	0x36c91c05	5.9935287e-06
34	0x37f7b692	2.952971e-05
35	0x36b2ccfd	5.328677e-06
36	0x378b33a6	1.6594142e-05
37	0xb6b5efda	-5.4221427e-06
38	0x38b0efe5	8.437018e-05
39	0xb62328f6	-2.4312735e-06
40	0xb563492c	-8.467057e-07
41	0x37f5e82d	2.9314391e-05
42	0x38b688ee	8.7039414e-05
43	0xb828a4e3	-4.0207884e-05
44	0x378cf59a	1.6803668e-05
45	0x36a15d97	4.809069e-06
46	0xb86fcadc	-5.7170968e-05
47	0x373e1c34	1.1331449e-05
48	0xb728ba64	-1.0056978e-05
49	0xb82465d0	-3.9195467e-05
50	0x3782dc56	1.559981e-05
51	0x373f6f0d	1.1410343e-05
52	0x3816ee82	3.5984915e-05
53	0xb8c517c6	-9.39812e-05
54	0xb80ccfde	-3.3572192e-05
55	0x37a0879e	1.9136638e-05
56	0x35939ccb	1.0997986e-06
57	0x38a3cbfd	7.8104415e-05
58	0xb797d665	-1.8100438e-05
59	0x377bb34f	1.5002514e-05
60	0x374d0656	1.2220427e-05
61	0x36c3342d	5.817527e-06
62	0xb6c36924	-5.823693e-06
63	0x38c049cd	9.16902e-05
64	0x38063842	3.2000484e-05
65	0x36b809da	5.484774e-06
66	0xb720e200	-9.589363e-06
67	0xb685974d	-3.9813226e-06
68	0x3837af9b	4.3794145e-05
69	0x3894ddef	7.098528e-05
70	0x377fa617	1.5237855e-05
71	0xb89d93c1	-7.513865e-05
72	0xb75c623c	-1.3135894e-05
73	0x3758aed3	1.2915308e-05
74	0xb77c9b00	-1.5056459e-05
75	0x384cac0d	4.8797625e-05
76	0xb89849fe	-7.261707e-05
77	0xb74e692d	-1.2303045e-05
78	0xb84e8c3a	-4.9244823e-05
79	0x388471ce	6.315448e-05
80	0x37961eb0	1.7895683e-05
81	0x37e1d14b	2.691955e-05
82	0x3696c41a	4.4931776e-06
83	0x37be6589	2.2697046e-05
84	0x37fbe7a8	3.0029405e-05
85	0x3695944c	4.45781e-06
86	0x388e575e	6.787361e-05
87	0x371b0036	9.238769e-06
88	0x362973e1	2.5250413e-06
89	0x37cbdb3c	2.4301575e-05
90	0x381a9a39	3.6860092e-05
91	0x3879df81	5.957438e-05
92	0x3606dcf5	2.009617e-06
93	0xb8293371	-4.034065e-05
94	0xb83f028f	-4.554033e-05
95	0xb738fe6e	-1.1026494e-05
96	0x35096925	5.118948e-07
97	0x37820a8e	1.5502123e-05
98	0x38538f07	5.0439525e-05
99	0x36dd37ea	6.5928225e-06
100	0xb78a11e1	-1.6459207e-05
101	0x363aaeb0	2.7817841e-06
102	0x383aa06e	4.4495268e-05
103	0xb8b992f4	-8.8488596e-05
104	0x379ebcc4	1.8922969e-05
105	0xb776e860	-1.4716847e-05
106	0xb89a79fe	-7.366015e-05
107	0xb80d9995	-3.3760054e-05
108	0xb7cd8f5c	-2.4504661e-05
109	0xb80b5b76	-3.3225362e-05
110	0xb5b419de	-1.3418573e-06
111	0x3423ff65	1.527347e-07
112	0x37b55152	2.161475e-05
113	0xb7b2f618	-2.133385e-05
114	0xb74f3d2e	-1.2352406e-05
115	0xb6ad4eff	-5.164998e-06
116	0x385f209e	5.319772e-05
117	0xb55a691c	-8.136428e-07
118	0xb81fa689	-3.8063652e-05
119	0x38301810	4.198408e-05
120	0xb7f13fc6	-2.8759136e-05
121	0xb866350b	-5.4885673e-05
122	0x382710f0	3.9831677e-05
123	0x38772908	5.8927602e-05
124	0xb7d13790	-2.4940615e-05
125	0xb74bd7dc	-1.2150002e-05
126	0xb68bdff9	-4.1685967e-06
127	0xb708f658	-8.163588e-06

exp_avg_sq f4 [128]
0	0x34a0e3ba	2.9968015e-07
1	0x34bcc7b9	3.5163046e-07
2	0x33ad1231	8.059249e-08
3	0x33991a30	7.129381e-08
4	0x30b656c9	1.3266909e-09
5	0x3396e75a	7.027002e-08
6	0x33b7a83f	8.552205e-08
7	0x334e44eb	4.8025793e-08
8	0x326cd08b	1.3784425e-08
9	0x339ff09e	7.4477825e-08
10	0x3258834a	1.2602706e-08
11	0x328ac095	1.615289e-08
12	0x30933550	1.071081e-09
13	0x3166b504	3.35723e-09
14	0x34f42311	4.5474056e-07
15	0x32b8f2b7	2.1530793e-08
16	0x31798d05	3.631443e-09
17	0x316152d4	3.2788892e-09
18	0x313e6901	2.7708327e-09
19	0x325b1620	1.2752508e-08
20	0x34c1e741	3.611731e-07
21	0x340d0c80	1.3136196e-07
22	0x33a24191	7.555639e-08
23	0x33b8f0fc	8.6120025e-08
24	0x342c6656	1.6055978e-07
25	0x32acc8be	2.0114722e-08
26	0x31e7bf54	6.7447363e-09
27	0x34dfd975	4.1695208e-07
28	0x334a26c6	4.7067054e-08
29	0x317bc150	3.6635193e-09
30	0x34c44805	3.6560246e-07
31	0x3509b28f	5.1296314e-07
32	0x340d5629	1.3162993e-07
33	0x32abb2c6	1.9988317e-08
34	0x3341682e	4.5031065e-08
35	0x31c74852	5.799884e-09
36	0x33bc4953	8.76777e-08
37	0x32a7e67a	1.9546167e-08
38	0x34818f7d	2.4132524e-07
39	0x32ca303b	2.3537828e-08
40	0x3035fdad	6.620791e-10
41	0x33e26bc3	1.0543547e-07
42	0x33c2cdc5	9.071258e-08
43	0x334cce2d	4.7684967e-08
44	0x327afb9f	1.4609127e-08
45	0x3196486a	4.373807e-09
46	0x346f76a7	2.2301775e-07
47	0x340108af	1.201722e-07
48	0x31f36dae	7.0847e-09
49	0x336b29e2	5.4753293e-08
50	0x332f6292	4.0835012e-08
51	0x333a7afe	4.341836e-08
52	0x334ada28	4.7230202e-08
53	0x34c8ec67	3.7424908e-07
54	0x32e39544	2.6494156e-08
55	0x339cddc6	7.3046564e-08
56	0x312afd5f	2.488228e-09
57	0x34803f66	2.3887986e-07
58	0x33b2ac16	8.320073e-08
59	0x32a331dd	1.8998373e-08
60	0x322fd0a4	1.023378e-08
61	0x30bbd8ee	1.3667696e-09
62	0x3246a990	1.1563671e-08
63	0x346d437d	2.2096897e-07
64	0x32a5eab3	1.9315257e-08
65	0x327ae26e	1.4603399e-08
66	0x31232abb	2.3743911e-09
67	0x325fa9f9	1.3018956e-08
68	0x33bf9104	8.920509e-08
69	0x34a317c3	3.0378405e-07
70	0x328ac23e	1.6153646e-08
71	0x348ba208	2.600866e-07
72	0x3202d925	7.616369e-09
73	0x3249c1c3	1.1743796e-08
74	0x33cbad8a	9.484491e-08
75	0x34e22fe3	4.2130623e-07
76	0x3416939e	1.4023541e-07
77	0x33287ba2	3.922799e-08
78	0x3456210a	1.9942323e-07
79	0x34121002	1.3603133e-07
80	0x32ea8728	2.7302647e-08
81	0x31a9b040	4.9385847e-09
82	0x331fb2e5	3.7182776e-08
83	0x33f983ee	1.1618964e-07
84	0x3319e3e2	3.5830347e-08
85	0x33f38288	1.1339313e-07
86	0x34b96bf8	3.4537493e-07
87	0x327272ae	1.4112329e-08
88	0x338d2c78	6.573913e-08
89	0x33606563	5.2246275e-08
90	0x328b18a4	1.6192935e-08
91	0x33dd5aee	1.03076545e-07
92	0x2fdc5301	4.0076745e-10
93	0x331165dd	3.3853087e-08
94	0x33b62f18	8.483602e-08
95	0x31bff499	5.586639e-09
96	0x32c1471a	2.250049e-08
97	0x31f30df3	7.0738166e-09
98	0x3380cf2b	5.998148e-08
99	0x3057d82b	7.852374e-10
100	0x32439283	1.1383807e-08
101	0x324011bc	1.1179903e-08
102	0x33bfb71b	8.927437e-08
103	0x346e7d78	2.2211123e-07
104	0x31a929fb	4.92332e-09
105	0x3231c4a9	1.0347471e-08
106	0x340e6308	1.3260808e-07
107	0x33206bde	3.7351008e-08
108	0x32b8b6e8	2.1503595e-08
109	0x33180447	3.5394148e-08
110	0x322d0dec	1.0073091e-08
111	0x33b6dced	8.5152216e-08
112	0x33e17f38	1.050052e-07
113	0x32e61704	2.678599e-08
114	0x34a55ed9	3.0802656e-07
115	0x32603136	1.3049705e-08
116	0x342789b3	1.5603182e-07
117	0x31705987	3.4975487e-09
118	0x3360372b	5.220424e-08
119	0x339a7883	7.193105e-08
120	0x33ac7e0f	8.032304e-08
121	0x349eb3b9	2.956056e-07
122	0x3431c13e	1.655471e-07
123	0x349631ed	2.7976003e-07
124	0x32be9150	2.2184992e-08
125	0x31848a1d	3.8574073e-09
126	0x3044e5de	7.1631046e-10
127	0x32a00db5	1.8632685e-08
