results/PenaltyOnMaxStepsTests/carMinusFiveOnMaxSteps/CarFindGoal/CarFindGoal-932867.pt (torch, 530875 bytes, 36 tensors)

network_body._body_endoder.seq_layers.0.weight f4 [128, 36]
00000000: 1a05 2e3e 87ea 753d f631 843e e72a 2dbd
00000010: e96c edbd 90a3 1abe 41c2 d23d 66a7 66bc
00000020: b6cd 503e 36b1 c7bd ebbd 86bc 653d 533e
00000030: 3906 e7be 800e 33be d810 0a3d 620f 7abd
00000040: 9173 803e 0413 00bd d3c5 cc3d b26d bc3d
00000050: 1020 553e dd71 b23c 49f8 06be 915e b3bd
00000060: d50a f93b ef04 e43d d437 8e3c 802f abbe
00000070: 027e 82bd 6875 53bc 253c 5ebe 3e41 553d
00000080: 48d4 43bd a22d 58bd 4dc0 8b3e 22b3 15be
00000090: c89b 7d3e 39be d7be 1a21 cfbd 6345 2b3e
000000a0: da45 6c3d 4489 9b3e 1d76 8b3d 8206 4a3e
000000b0: 406e b4bd 0b28 8bbe 87e9 513e a784 c73e
000000c0: bf99 9bbd 19fa 9bbe 14ca 953c 5ae0 6bbe
000000d0: 9315 8ebd 1f5b 6f3d b940 5d3e 4dc0 64bd
000000e0: e923 a03e 4819 553e 11be 453d 6202 8ebc
000000f0: 4269 cdbc b050 b83e d51b 4ebb ed33 97be
00000100: 4014 223d 43a2 993e cf46 803e a2d4 733e
00000110: 686c 9fbe 6a8b b93c 10e7 15be 2060 21bd
00000120: d2dd 663e 599b 28be 6c92 3b3e 1c9c 843d
00000130: d4ba 18bd c661 543d 1523 863d 89b4 a23e
00000140: 86ea 90be 8035 da3d 5c0c bcbd 508e e33d
00000150: b076 af3d 4a02 e53d a8d1 1a3e 6fe0 88be
00000160: cae6 01bd c303 40be c0fa 393e 9b73 20bd
00000170: 5aa8 f7bd f205 86bd 1e5b b23e 6d8f 3dbe
00000180: e7ee c1bc b0f0 d23d c657 803d 04de 89be
00000190: f500 783d 3807 a73e fb63 debd 178f b63d
000001a0: 4971 853e f726 2a3d 380c 8f3c d4bb 2ebe
000001b0: f634 4cbe 6a09 6dbd 5811 5b3e faae 1ebe
000001c0: 3e34 753e 5fb3 0c3e 34ed edb9 2d76 0abc
000001d0: 76de 09be 0e4e 7d3d a256 563d f99a 38bc
000001e0: cac8 8dbd 5943 503e 8126 37bd b698 4f3e
000001f0: 43ee 3abd 7e68 093e aad1 0e3e 1c53 debd
00000200: 535e c23d 4e13 43bd bd6b 813d 9a9e 893d
00000210: 53ae 193e 0278 eebd 21b2 23be 99d0 59be
00000220: 0c58 bebe f376 9cbd 91eb 2e3d 8b95 28bd
00000230: 0540 1e3e b87e 5dbe 7d1c 053d d38b ac3e
00000240: fef8 1dbe a7f0 503e 14d8 d83a 76c7 3d3e
00000250: abc2 41be bbfc 653e 0751 4abe bab8 dcbd
00000260: 4911 973e d68d d43d c5ed bbbe 2cbc 833d
00000270: 72a6 01be e3c4 9e3e 3fb8 533d 816f 283e
00000280: 86da 3e3d ee09 0bbe e214 743d 3615 e0bd
00000290: ae78 92bd ae96 003d d559 18bd 537d e43d
000002a0: 9f66 7e3e f51b 42be c9dd 453d bdfa e93d
000002b0: 1016 223d dd2d 26be 63f4 a5bd 0307 e3bd
000002c0: ac61 863c 8e45 06be 41a3 f3bd 5774 56be
000002d0: e752 b8bc 9fcd 22bd 0b88 acbe f70f af3d
000002e0: ac23 cdbd db01 36be 2156 c5be b306 6d3e
000002f0: b77f e2bd db2d a83e bf0b 423e 3cff 3f3e
00000300: dce5 b9be 061f 39be b145 06bd 43ad 8d3d
00000310: 6cd3 7bbe f8c2 533e e364 2dbe 48f0 ab3d
00000320: c8d7 11be 1069 1bbe 3825 e6bc ae46 83be
00000330: a9e9 1c3e 3634 163e 7bbe 49bd f3ae 723a
00000340: 746f a83c 9ee4 f23d 6961 f93d e60a 42bc
00000350: 51d7 82bd da28 d3bd d701 9d3d 538b 5abe
00000360: e616 113d db5b 913c e8cb 8d3e 9ab9 0dbc
00000370: e639 e7bc 2c94 16be df21 993e 4b29 3abd
00000380: dfb9 2ebd 3333 933e fbe2 6cbe 5174 223d
00000390: 71df 2a3e 316e 9fbe bd2d a93d 05df f43c
000003a0: 521d 9cbd dd6e 1ebe a515 183d 2ae6 333e
000003b0: be69 983e 613d 74bd e611 cabc b448 823e
000003c0: fca3 81bc beae e6bd f22e 35bd 188f 2f3d
000003d0: f031 fbbd a8c1 0cbe d39a dcbd 58b7 0d3e
000003e0: c611 21bf 4eeb 733d 1b16 d7bd 4368 9fbd
000003f0: 1237 50bd 850c 96be 493b 62be cd22 2abe
0.16994134 0.060038116 0.25819367 -0.042277243 -0.115930386 -0.15101457 0.10290957 -0.014077997
0.20390972 -0.09750597 -0.016447982 0.20628889 -0.45121935 -0.17486 0.03370747 -0.061049826
0.2508817 -0.031268135 0.099986695 0.0920061 0.20813012 0.02178281 -0.13180651 -0.087582715
0.007600168 0.111337535 0.017360605 -0.33434677 -0.0637169 -0.01290641 -0.21702631 0.052064173
-0.04780987 -0.052777894 0.2729515 -0.14619115 0.24766457 -0.42137316 -0.101137355 0.16725688
0.057683803 0.30378163 0.06809638 0.19729045 -0.08810091 -0.27178988 0.2049924 0.38968393
-0.07597684 -0.30464247 0.018284835 -0.23034802 -0.06937709 0.05843651 0.21606721 -0.055847455
0.31277397 0.20810425 0.048276965 -0.01733512 -0.025074605 0.3599906 -0.0031449695 -0.29531804
0.039570093 0.30006608 0.25054023 0.23811582 -0.31137395 0.022649486 -0.14638925 -0.039398313
0.22545555 -0.1646551 0.18317574 0.06475088 -0.03728755 0.051851057 0.0654966 0.31778362
-0.28303927 0.106547356 -0.09182045 0.11111128 0.0856756 0.11182077 0.1511904 -0.2673373
-0.03171424 -0.18751435 0.1816206 -0.03917275 -0.120926574 -0.06544103 0.34835142 -0.18511744
-0.023673488 0.10299814 0.062667415 -0.26927197 0.060547788 0.32622695 -0.108589135 0.08914011
0.26062992 0.041541066 0.017461881 -0.17063838 -0.19942078 -0.057870306 0.21393335 -0.15496436
0.2394571 0.137403 -0.00045380893 -0.008451027 -0.13463768 0.061842017 0.052328713 -0.011267417
-0.06923063 0.20338191 -0.044714455 0.20273098 -0.04563738 0.13418767 0.13947168 -0.108556956
0.09490647 -0.047625832 0.063193776 0.06719704 0.15007906 -0.116439834 -0.1598592 -0.2127098
-0.3717655 -0.07639875 0.042705122 -0.04115824 0.15454109 -0.2163037 0.03249787 0.33700427
-0.15427014 0.20404302 0.0016543888 0.1853312 -0.18921916 0.2245969 -0.19757472 -0.10777421
0.29505375 0.103786156 -0.3670484 0.06432375 -0.1266115 0.31009588 0.051689383 0.16448785
0.04659512 -0.13578007 0.059590228 -0.10941546 -0.07151924 0.0313937 -0.037195046 0.11156716
0.24843834 -0.18955977 0.048307214 0.11424778 0.03957182 -0.16228433 -0.08103254 -0.11085322
0.016403995 -0.1311247 -0.118963726 -0.20942818 -0.022500468 -0.039746877 -0.33697543 0.08547967
-0.100165695 -0.17774145 -0.38542274 0.23147087 -0.11059516 0.32847485 0.18949793 0.18749708
-0.3630818 -0.18078241 -0.032781307 0.06917813 -0.2459237 0.20679843 -0.16933016 0.083954394
-0.1424247 -0.15176797 -0.02809392 -0.25639862 0.1532351 0.14668354 -0.049253922 0.0009257637
0.020560957 0.118600115 0.12176783 -0.011843419 -0.063887246 -0.10310526 0.076663665 -0.2134221
0.03542223 0.017743995 0.2769463 -0.008650208 -0.02822585 -0.1470496 0.29908654 -0.045449536
-0.04265773 0.2875 -0.23133461 0.03966171 0.16686799 -0.31138757 0.08260677 0.0298915
-0.0762278 -0.15471978 0.037130017 0.1756827 0.29768175 -0.059628848 -0.024666738 0.25446093
-0.015825264 -0.11263798 -0.044234224 0.042861074 -0.12265384 -0.13745749 -0.10771718 0.13839471
-0.62917745 0.059550576 -0.10502263 -0.07783558 -0.05083377 -0.29306427 -0.22092928 -0.16614838

network_body._body_endoder.seq_layers.0.bias f4 [128]
00000000: 7148 79bc 1056 853b be5c aebb 6d3d be3c
00000010: ca87 0d3b 608e 9d3b 75bb 833c f2b9 12bd
00000020: d13b 3cbc 467f 9d3a ccec a8bb 5502 333c
00000030: ab73 373c a6ca 7c3a dde6 1dba f9c7 8a3c
00000040: e268 e53b ccde fabb 924c 943c 6f10 bb3c
00000050: d4a8 0abc 9ae6 41bc f2d9 c43c 448a 43bc
00000060: bfc9 cd3a eb54 393d 8e9c 363b f911 cd3c
00000070: f2e2 283b abf4 e03b 6716 4f3c bc10 e63b
00000080: 6429 953c 7d40 a33b 3831 c0ba 1b2f 55bc
00000090: b915 c1b9 a03e 18bd d47a 6bbc b8ad aa3c
000000a0: 1be7 443c 1234 e03c 9944 eabb 51ef a23c
000000b0: af29 19bc debc d73a 4278 fcbb 7b7d 5abc
000000c0: 7154 4abb 7a0d 1abc a4d8 ccbb 8b7f a5ba
000000d0: 28e2 433b 31a9 62bb 7be7 aabc 1699 26bc
000000e0: d51c 5cbc eddb 65bb 57b0 4b3c 2cd8 803b
000000f0: 2240 91bb ff21 bbbb fc11 e63b 23e8 aabc
00000100: e4b6 b0bc 2084 143c 4feb 883b 836e 02bc
00000110: a58b b73c 0e1b 6ebc 29be 093b 9888 69bb
00000120: 9a03 8abb 7a94 8f3c 336c 123c bbd9 f03a
00000130: 6243 0cbc c356 6a3c 5112 4abc c59b 69bc
00000140: 1819 a83b b17c 85bb 568e 3e3c aa99 9d3c
00000150: fe57 19bc 8c46 f23b d255 3bbc 55dd 98bc
00000160: d53f dc3c cd3b afbb 50fc 1f3c d64c 323d
00000170: d53e 6abc bac6 543a d8c4 e4bb 12c6 4cba
00000180: de21 ccbb c581 483a b52c 9bbc f9de 943c
00000190: 318c c03a 01bb 163d bcb8 1ebc 6738 c93a
000001a0: 37a7 89bb 1c96 4a3c 080c e8bc 3e2f a3ba
000001b0: 0cfa bf3c a634 3d3c fb61 c03b 38c9 e33c
000001c0: a505 b63a 71a3 9fbb 0a12 9939 8a2b 25bc
000001d0: 33f6 c93c 2b77 e739 c32d d8bc c530 943c
000001e0: eea2 02bd bf41 8ebb 59a1 f7bb 0e17 15bc
000001f0: 9994 38bb 9bb1 88bb b793 e8bb 60b8 093d
-0.015215025 0.0040690973 -0.0053211143 0.02322265 0.002159583 0.004808232 0.016080597 -0.035821863
-0.011488871 0.001201608 -0.0051551815 0.010925849 0.011197011 0.0009643234 -0.0006023476 0.016941058
0.0070010284 -0.007655954 0.018102918 0.022834985 -0.008463103 -0.011834765 0.024029706 -0.011934821
0.0015700384 0.045247 0.002786431 0.025032984 0.0025770036 0.006865104 0.0126396185 0.007021038
0.018208213 0.004982053 -0.0014663106 -0.013011719 -0.00036828013 -0.0371691 -0.014372546 0.020834789
0.01201799 0.027368579 -0.0071492908 0.019889506 -0.009348317 0.0016459485 -0.0077047655 -0.013335581
-0.0030873085 -0.009402627 -0.0062514115 -0.0012626512 0.0029889438 -0.003458571 -0.020862332 -0.0101683345
-0.0134346085 -0.0035073713 0.012432179 0.0039320197 -0.004432694 -0.0057108398 0.007021187 -0.020862645
-0.021571584 0.009064704 0.0041784416 -0.007960918 0.022405455 -0.0145328175 0.0021017885 -0.0035634395
-0.004211855 0.017526854 0.0089369295 0.0018375436 -0.008560987 0.014302912 -0.0123334685 -0.01425833
0.0051299445 -0.0040737023 0.011630615 0.019238312 -0.009359358 0.0073936637 -0.011434035 -0.018660227
0.026885906 -0.005347705 0.009764746 0.043530308 -0.014297207 0.0008116771 -0.0069814734 -0.0007811497
-0.006229623 0.00076487317 -0.018942216 0.018172728 0.0014690218 0.036799435 -0.009687599 0.0015351892
-0.0042008418 0.01236489 -0.02832605 -0.0012449992 0.023434661 0.011548197 0.005871055 0.02780591
0.001388718 -0.0048717787 0.00029195874 -0.010081181 0.02465353 0.0004414854 -0.026389008 0.018089661
-0.031893663 -0.0043413336 -0.007557076 -0.009099735 -0.0028164743 -0.004171563 -0.007097687 0.0336231

network_body._body_endoder.seq_layers.2.weight f4 [128, 128]
00000000: 479f 0fbb 36d4 cabc 3753 1dbe 6f1e a23d
00000010: 1015 b23b 386d 403d 6f32 4d3d 9570 823d
00000020: 9d28 80bc fa8c f03c 78c4 23be 8211 eb3d
00000030: bdd1 e0bd c121 bfbd 01c1 1e3c 50b0 f6bc
00000040: 485e aabc 5c1b c53d 9514 71bd ff01 4b3d
00000050: 6c59 01bd 0127 f8bc 0152 60be 65e7 013e
00000060: 76c4 9c3c cb86 95bc 9f2f 15be 97c2 0d3d
00000070: 59b9 633d 2049 1cbe 4a68 32bc e674 a3bd
00000080: 5fa5 60bd 17da eebd a0b7 c0bd efd2 edbc
00000090: 51e7 b6bd c35b e93d 7523 d4bd 8d66 73bd
000000a0: 90d0 663e 0a24 ca3d 7c04 d33d 307c 51bb
000000b0: f959 9dbd 56e1 2e3e 1575 f73d 97fb adbc
000000c0: a8c7 c7bd 032c 453d e1bf 503d fb57 03be
000000d0: 0040 4d3d 5af6 973c 0afe a3bd 7e8d d1bb
000000e0: 5008 0dbe a9ba a03d ac40 553c 4ae9 a13d
000000f0: a55f bd3d 6a58 60bd 4d9c ed3d bea3 6d3e
00000100: 3800 b03b 9eea 983d eeb0 fc3d 5af2 aabc
00000110: 3576 5ebd cd14 26bd 7f3b 913b 02fc 86bd
00000120: 52af b93d 045a 05bd 8870 d03c a409 eb3d
00000130: e4d0 3ebe 6161 a73d 8ac6 bbbc 9780 a63d
00000140: 5107 18bd 84e7 bebc 32a9 46bd bf07 92bd
00000150: 81d3 96bc 57a5 4fbc 632b 03be 29d4 7b3d
00000160: 3648 ce3d a41a 093e 8214 123e 2eb7 edbc
00000170: 547d 5fbc cc61 e43b fc4f fe3c ebb7 04bd
00000180: 0fcc 263d 5a02 4f3c 5407 adba e9dc cb3d
00000190: 52ed a13d 1ddf a33d 28b4 953d 6b69 103c
000001a0: cdab d33d 6d27 e8bd 5981 993d 8f7e 723c
000001b0: 422f 0dbe 33d5 213d 82cf 09bd 803a 08be
000001c0: c9f3 243e 2150 313d dd7b f13d a825 e83d
000001d0: a2bc 1dbc 4eec 6b3e 57e6 4bbd 1678 ea3b
000001e0: e2b3 933d 949c 023e 3372 823c 2e72 d6bd
000001f0: aaf3 1dbe 438f c8bd 3b76 103e 9ac4 40bd
00000200: b0ec 353d 4985 21bd 6ef6 793e fe18 3f3d
00000210: 07c5 d23c 0629 eabb c417 313c 7b46 263e
00000220: 27ee 553d 204e 7ebc 546f 013c ef32 34be
00000230: f56f ec3d 4eb4 833d c382 fc3d 435f 393e
00000240: caf5 3b3b 2c58 bc3d bf04 1abe 89fc 513c
00000250: 758b 0b3d b13e bebd 4f63 0d3e 6227 a1bd
00000260: 48f8 cb3d b477 63be f035 a1bd 2621 a8bd
00000270: 0e64 13bd 233e d2bb 706b a1ba d555 41bc
00000280: 41f2 d53c 67f2 083e ce37 17be 8e80 8ebd
00000290: aae0 2a3d 9091 c53d 1e72 f8bd 44fe cf3b
000002a0: ea35 30be 4b99 fc3c aa99 2ebe fa48 853d
000002b0: a977 c5bc 0ff9 00be 14c8 5dbd 880e e6bd
000002c0: ad99 4cbd 1700 a63d fb7f a4bc 502e 55bd
000002d0: 568e 0dbe d363 3bbe 6926 86bb 0e1e 4e3d
000002e0: 86a8 803d d478 c33c 858f 733d 7131 243e
000002f0: c827 003c f483 913d 0ca6 79bc 649e a03d
00000300: 8c48 37be edb9 bb3d 055c 4ebe f024 6b3c
00000310: ef28 853d eed2 92bd bd02 28bc a1b1 2f3d
00000320: b5e7 b13d 749e e4bc 2b0f ebbd 3cf9 93bd
00000330: 3dec cf3d 1200 a8bd 4627 7c3b 9ff7 f13d
00000340: 03ad 043d d84c 153d 6941 ecbc 1848 ecbd
00000350: f188 b03c 7cd8 8ebe 2017 c63d 869e 1abc
00000360: d4f8 19be 3ed1 2abe 81fa 43be 0ed3 16bc
00000370: 6139 87bc 2e77 50be 3bf6 b23d cd8f 043c
00000380: 4461 bcbd ddde e8bd 22b7 1cbd ac8e 1b3a
00000390: fa7d ed3c 55bb 32be 6f30 253e e968 443d
000003a0: ff75 f3bd 995b 3f3d 7056 963c c70e 583d
000003b0: 3081 98bd ccb2 50be 4048 843d 2482 a03d
000003c0: 7e24 06bd de21 acbd 1cf4 c73d 849a a53c
000003d0: 0ad1 41be 7031 92bb 9260 993b 7d42 91bd
000003e0: c5b9 183d 2929 debc ccca c4bd 4d48 1cbd
000003f0: b019 e9bd fe0b 90bc fe3e e03c e60d 9c3d
-0.0021915005 -0.024759393 -0.15363775 0.07915961 0.0054346398 0.04697916 0.050096925 0.063691296
-0.015644366 0.029364098 -0.15992916 0.11477949 -0.109775044 -0.0933261 0.00968957 -0.03011337
-0.02079691 0.09624359 -0.05885752 0.04956245 -0.03157942 -0.030292036 -0.21906282 0.12685926
0.019136649 -0.01825275 -0.14568947 0.034609403 0.055596683 -0.1526227 -0.010889122 -0.07981281
-0.05484521 -0.11662691 -0.09410024 -0.029031245 -0.08930839 0.11394455 -0.103583254 -0.059423972
0.22540498 0.09870155 0.1030359 -0.003196489 -0.076831765 0.17078146 0.120828785 -0.021238131
-0.09754878 0.048137676 0.05096424 -0.1282653 0.050109863 0.018550087 -0.080074385 -0.006395041
-0.13772702 0.078481026 0.013015907 0.079058245 0.09246758 -0.05477182 0.11602078 0.23206994
0.00537112 0.07466625 0.12338434 -0.020867515 -0.05431195 -0.04054718 0.0044321413 -0.065910354
0.09066643 -0.03255655 0.025444284 0.11476448 -0.18634373 0.081728704 -0.02292182 0.08129995
-0.037116352 -0.023303755 -0.0485012 -0.07130384 -0.0184114 -0.012673697 -0.1280952 0.06148163
0.10072367 0.13389069 0.14265636 -0.029018011 -0.01364072 0.006969666 0.031043999 -0.03240196
0.04072195 0.012634838 -0.0013201036 0.09954245 0.079065934 0.0800154 0.07309753 0.008814196
0.10335503 -0.11335645 0.07495374 0.014800682 -0.13787559 0.039509963 -0.03364516 -0.13303566
0.16108622 0.043289308 0.11791203 0.11335307 -0.009627493 0.23039362 -0.049780216 0.0071554286
0.07212044 0.12755042 0.015923595 -0.10470997 -0.15424982 -0.0979295 0.14107601 -0.047062494
0.044415176 -0.03943375 0.24410412 0.046654694 0.025728716 -0.0071460037 0.010808889 0.16237824
0.052229073 -0.015521556 0.007900078 -0.17597555 0.115447916 0.06430875 0.12329628 0.18102746
0.0028680437 0.09196505 -0.15040873 0.012816557 0.034068543 -0.09289301 0.13807414 -0.0786884
0.09959465 -0.22213632 -0.07871616 -0.082094476 -0.03598409 -0.0064160987 -0.0012315344 -0.011800249
0.026116492 0.13373719 -0.14767382 -0.069581136 0.041718163 0.096469045 -0.12131141 0.0063474495
-0.17208067 0.030834815 -0.17050806 0.0650806 -0.02410491 -0.12595008 -0.054145887 -0.1123324
-0.049951244 0.08105486 -0.020080557 -0.05204612 -0.13823828 -0.18299799 -0.0040939343 0.05032163
0.06282143 0.023861326 0.059463043 0.16034485 0.007821985 0.07105246 -0.015237343 0.078427106
-0.17898768 0.09166322 -0.2015229 0.014352068 0.06501948 -0.07169138 -0.010254559 0.04289401
0.08686773 -0.027907588 -0.114775024 -0.07225272 0.10152481 -0.082031384 0.0038475557 0.11814808
0.03239156 0.036450237 -0.028839784 -0.11537188 0.021549674 -0.2789954 0.096723795 -0.009437209
-0.15036327 -0.16681382 -0.19138528 -0.009205593 -0.016506853 -0.20357963 0.08738371 0.008090925
-0.091982394 -0.11370633 -0.038260587 0.00059340405 0.028990734 -0.17454274 0.16131757 0.047951613
-0.1188774 0.046718214 0.018351763 0.052748468 -0.074465156 -0.20380706 0.06459093 0.07837322
-0.032749645 -0.08404897 0.09763357 0.02021528 -0.18927398 -0.00446146 0.0046807015 -0.0709276
0.03728654 -0.027119236 -0.09608993 -0.03815489 -0.113818526 -0.017583843 0.027373787 0.076198384

network_body._body_endoder.seq_layers.2.bias f4 [128]
00000000: eb62 84bc 54ab ef3b 7c13 41bc b929 023c
00000010: ee9d 6a3c dd83 fe3b 59ff 993b f2bc b73b
00000020: f491 cfba 7d12 86bb f7e8 9fbc 2e3d ee39
00000030: 5c4f 08bb 061a 50bc 0b11 6a3c 2c5c bbbb
00000040: 9aef 16bc 5704 0fbc dc0a 493a 2207 4a3b
00000050: 63dc 6f3b cc17 16bc 8502 b5bb 80b8 a7bc
00000060: cd5b f73b ad27 38bb f7b1 6fbc af4f 87bc
00000070: ee05 8abc 20ef 47bc bd37 7b3c 4c0d 54bb
00000080: 55f8 513b 37ca 963b 1671 6e3c aa55 36bb
00000090: 4393 4c3c cdfd 8d3c 3b84 18bd c7ee 883c
000000a0: 66f0 693c 5952 893c 41ab 5ebc 2cd0 c93c
000000b0: 6186 0d3b 0c27 4b3b 64bb f53b 7399 f1b9
000000c0: 5511 163b 509e df3c a995 b1bb ae9a 983c
000000d0: 642f 253b 6b4d 48bc 6031 cdbb f351 05bb
000000e0: 551c 763b 4a23 9c3b b90c 9abc b897 873c
000000f0: 764e 1e3c 8e18 e0bb 7dcd c03c b5f9 cf3c
00000100: e368 503c 0d92 b3bc 45c5 49bc f796 f93a
00000110: e008 ac38 22f0 20b9 7a8d 443c 498f 6e3c
00000120: 81e8 663b 8f62 95bb 9bdc 8fbc 315d a4bb
00000130: 5e76 733c 4a6e 56bc 7501 573d da00 99bb
00000140: 81a7 de3c d050 673b 9227 0abc 1a64 2f3b
00000150: 42a4 aa3b fb21 b73c 542c a13b 4298 d93b
00000160: 1521 b73a 555d 19bc ff6f 523c d71b 243b
00000170: d801 cd3c 7dc3 bbbb ff60 93bc c485 34bc
00000180: 5883 f03a 3c89 53bc 56a2 64bc eac7 a03b
00000190: 9a6a 15b9 22da 8c3b 81ce 663c 7ed3 673c
000001a0: cf41 13bc 007f 253c f04a 2a3c 09ee 9e3c
000001b0: 2cb4 8e3c 8d05 133b b035 54bc f13e 553c
000001c0: eaeb a6bc 5aac 62bb 2d9c 523c ea90 173c
000001d0: f3f0 d03b 76fa 8c3c ba90 29bc aac6 2ebc
000001e0: 57d4 e33b 0e06 df3b 2b01 133a 2cf1 dabc
000001f0: 912d f0bb 151d cc3b 4e75 873c 3bd6 2ebc
-0.016160449 0.007314125 -0.011784431 0.007944518 0.01431988 0.007767184 0.0046996293 0.005607241
-0.0015836344 -0.0040915594 -0.019520266 0.0004544048 -0.0020799255 -0.012701517 0.01428629 -0.005717775
-0.009212399 -0.008729062 0.00076691597 0.0030827005 0.0036599867 -0.009160947 -0.005523982 -0.020473719
0.0075487853 -0.002809982 -0.0146298325 -0.016517488 -0.01684853 -0.012203008 0.015333113 -0.0032356558
0.0032038887 0.0046017426 0.014553329 -0.0027822056 0.012486282 0.017332936 -0.03723548 0.01671542
0.014278507 0.0167629 -0.013590635 0.024635397 0.0021594989 0.0030998616 0.0074991453 -0.0004608143
0.0022898514 0.027297169 -0.005419452 0.018628445 0.002520525 -0.012225489 -0.0062619895 -0.0020343035
0.0037553508 0.004764949 -0.018804895 0.016551837 0.009662261 -0.0068388646 0.023535484 0.025387624
0.012720319 -0.021920228 -0.012315099 0.0019042183 8.203252e-05 -0.00015348246 0.011996621 0.014560529
0.0035233798 -0.0045588682 -0.017561248 -0.005015992 0.014859764 -0.013087818 0.052491624 -0.004669291
0.027179481 0.003529597 -0.008432286 0.0026762546 0.0052075693 0.02235507 0.0049186144 0.006640465
0.0013971651 -0.009360631 0.012844085 0.0025041008 0.025025293 -0.005730091 -0.017990587 -0.01101822
0.001834969 -0.012911137 -0.0139547195 0.004906644 -0.0001424946 0.0042984644 0.01408732 0.014149545
-0.008987858 0.01010108 0.010393843 0.019400613 0.017419897 0.0022433728 -0.012952253 0.013015495
-0.020376164 -0.0034587593 0.012854618 0.009250859 0.0063763796 0.017209273 -0.010349447 -0.010667482
0.006952803 0.0068061417 0.0005607779 -0.026726328 -0.0073296507 0.006229053 0.016535427 -0.010671194

action_model._continuous_distribution.log_sigma f4 [1, 2]
00000000: a2eb 933d 9fac 8b3d
0.07222678 0.06820034

action_model._continuous_distribution.mu.weight f4 [2, 128]
00000000: 37c4 f4bc c13b 963c c10d c93c 6f8b 80bc
00000010: 8e0c afbb c46b 8c3d 9eea 50bd 5649 02bc
00000020: 3cd8 153d 57e8 723d 451f 9e3a 264b a2bc
00000030: af81 dd3c 8f57 ac3c 824a d5bc 7445 bfbc
00000040: c506 5a3c 6fd6 40bc 11b9 00bd b88f b7bc
00000050: ece4 563d c311 fdba 40cb f03b 5cb8 a63a
00000060: c7b5 3abd 46da e43c cb01 433c e518 e1bc
00000070: 3134 34bc bf5d ae3c a22f 07bd 2b21 453c
00000080: c477 bebc 84b0 55bc a353 3bbc df78 183d
00000090: 878c 153d 048a ed3c ce12 02bb cb91 a2bc
000000a0: 9e9b c9bc 70d1 4dba 246d 23bc d7ed bfbc
000000b0: 4db0 73bc 2e7f 72bd 09bd 833c e261 05bd
000000c0: 5d6c 9fbc 5a2c 30bc c404 e03c a045 163d
000000d0: 9403 253d ba05 ee3c dbaa 9e3c 296e 293c
000000e0: f58f 113d 6011 e8bc aeda 9fbc 0a39 09bd
000000f0: 93ea bebc 06a2 353d a900 303c 9f4c f53b
00000100: 534f 28bc d8ec 38bc 2635 47ba fab7 c93c
00000110: 0d44 413d 2748 c63c 9b0c fdbc 355d 06bd
00000120: 61c3 7abc 2bf4 c33c 9b92 bd3c 61fc 0a3d
00000130: 21f9 46bc f7cd abbc 9d8b d23b 8a9f e9bb
00000140: d22c ffbb 9dca 64bb f7e4 db3c 9ded e5bc
00000150: 0b2c 1c3c 8985 863c 5ce1 45bc 6dd2 6dbd
00000160: 4c44 f0b9 7a0c 18bd a702 e63b df9f 2dbd
00000170: 9209 3e3c bc11 33bc c57d 7fbb c91c 713c
00000180: 571b bcbb 2e3f 7abc 98ce b73c b6a0 eabb
00000190: 93eb 3b3d 46ba 6e3d 21d8 3bbd 7dde 76bd
000001a0: a2ba 05bd 4481 933d 9b86 fcbc f348 e43b
000001b0: d06e 72bd c96b 043d f131 093d b901 b7ba
000001c0: 3e62 d63b 190f edbc e161 dd3c 5986 2f3a
000001d0: af6d 9cbc 7ef7 7f39 a2cf ad3c 27a3 56bc
000001e0: 1077 3cbd cfa4 c1bb f166 ea3c 1ec4 8cbb
000001f0: b92f c5bc 096d 343d b958 483c e289 823c
00000200: d95c 153d bb00 9cb8 0419 7d3c 444c b7ba
00000210: 45c2 cbbc 38ca ecbb eedc 743c 4b52 acbc
00000220: ebda cc3c 7eb9 733c a074 193d bcd2 b03c
00000230: 4cf6 68bc 62e9 313d 03e7 36bd 85bc 073d
00000240: a6fe 693b 1f03 a23c f220 553b 58bd b4bc
00000250: 95cd 463b b6eb 5d3b c1c8 d83c 94c5 323d
00000260: 1aa0 fd3b f808 5a3a f192 31bb d45c 323d
00000270: d54b c93c b912 1a3d 0cda 173b b6b8 63bc
00000280: d4d6 d5bb fafe 363c f849 d6bc b096 333c
00000290: 526f 37bd d38b 2abd 2e4b e23c 6ac6 16bb
000002a0: 952d efbc 306a 2ebc a6db 673d 8d62 c5bc
000002b0: 9002 15bc 7876 513b a3bb 813b 50d5 c13c
000002c0: 05e2 b23c 6768 d1bc 45df 0cbc 5bd0 81bc
000002d0: 87bf 503b 697a 0e3c f30b b33c 987f 2dbc
000002e0: 3a84 8cbc 3866 5c3c 5883 3e3d f068 73bc
000002f0: 29d2 ebbc 4587 0a3d 3db0 74bb 5e26 25bd
00000300: f7fc b6bc 766e 0a3d c17f 583a 8b43 583b
00000310: 32da 973c 9afb 9e3b 2131 cabc 6bb6 1bbc
00000320: dd12 58bc 30dd c83c 8785 083d f831 99bb
00000330: 6ef0 1bbc c40e babb 7373 66bd 68dc 083c
00000340: 5886 89bb 2a81 bfba 2e6e 283c 3b93 85bc
00000350: 3be0 063b c7a8 06bd 855f cbbc b271 31bb
00000360: 6d9e fa3b e8a7 513c 2b7d 1fbd 61e9 9f3a
00000370: 3190 23bd 53ac bf3a 8b65 a53c 4f04 bcba
00000380: 7215 23bc 9e88 6f3d 18ed 173d 2a0b 743b
00000390: 0ac4 673c 42a2 4b3b 0e20 00bc 4d0e cabc
000003a0: 784e 543c bb19 45bc a52a d2bc 07e7 86ba
000003b0: 7b39 9abc b67b 25bc a5e6 133d f030 8bbc
000003c0: a7e8 0e3d 3f3c 8f3b 7a07 93bc a1bc afbc
000003d0: d019 bdbc efb6 2ebd 4bc3 be3a ce18 963c
000003e0: b704 f43b 9efa 2dbc a81c 9d3b b826 1c3d
000003f0: 2a0e 4eba b03c babb 58a1 69bc cfe7 c03c
-0.029878719 0.01833904 0.024542691 -0.015691487 -0.005342073 0.06856492 -0.051005 -0.007952055
0.03658317 0.059303608 0.0012063762 -0.019811224 0.027039377 0.021037845 -0.026036505 -0.023348548
0.013307278 -0.011769875 -0.031426493 -0.022407398 0.05246441 -0.0019307662 0.007348448 0.0012719738
-0.045583513 0.027936112 0.011902283 -0.027477691 -0.0109987715 0.021284936 -0.03300441 0.012031834
-0.023250468 -0.013042573 -0.011433515 0.037224647 0.03651097 0.028996475 -0.0019847634 -0.01984491
-0.024610337 -0.0007851338 -0.009974752 -0.02342884 -0.014873576 -0.05920332 0.01608135 -0.03256405
-0.019460851 -0.010752762 0.027346022 0.036687493 0.040286615 0.029055465 0.01936858 0.010341206
0.03553768 -0.028328598 -0.019513454 -0.033501662 -0.023305213 0.04434397 0.010742345 0.0074859406
-0.010272819 -0.011286937 -0.00075991673 0.02462386 0.04718404 0.024204327 -0.0308898 -0.032803733
-0.015305371 0.02392014 0.023141196 0.033932094 -0.012144358 -0.020972235 0.0064253346 -0.0071296142
-0.0077873254 -0.0034910806 0.026842577 -0.028067404 0.009531985 0.016421096 -0.012077656 -0.058062006
-0.00045827252 -0.037121274 0.007019359 -0.042388793 0.011598961 -0.010929521 -0.0038984877 0.014716336
-0.005740564 -0.015273852 0.022437379 -0.0071602715 0.045878958 0.058283113 -0.045860413 -0.060270775
-0.03264869 0.0720239 -0.030825904 0.006966704 -0.05918771 0.032329354 0.033494893 -0.0013962305
0.006542473 -0.028937863 0.027024211 0.00066957396 -0.01909527 0.00024410893 0.021217171 -0.013100422
-0.046011984 -0.0059095393 0.02861354 -0.00429584 -0.024070607 0.044049297 0.012228184 0.015934888
0.0364655 -7.438796e-05 0.015447859 -0.0013984521 -0.024872908 -0.007226255 0.014945252 -0.021035334
0.025006732 0.014875768 0.037464738 0.021584861 -0.014218878 0.04343546 -0.044653904 0.03313877
0.003570476 0.019776879 0.0032520858 -0.022062942 0.0030334939 0.0033862418 0.026462914 0.043645456
0.007740033 0.00083173765 -0.002709564 0.04354556 0.024572292 0.03761551 0.0023170738 -0.013899019
-0.0065258536 0.01116919 -0.026158318 0.01096122 -0.044783898 -0.041637253 0.02762374 -0.0023006448
-0.02919654 -0.010645434 0.056605957 -0.024094844 -0.009094849 0.0031961482 0.0039591356 0.023661286
0.02183629 -0.025562478 -0.0085981535 -0.015846422 0.003185244 0.008696177 0.021856284 -0.010589503
-0.017152894 0.013452105 0.046511978 -0.014856562 -0.028786736 0.03382041 -0.0037336492 -0.040319793
-0.02233742 0.03379675 0.0008258783 0.0032999243 0.01853666 0.0048517706 -0.02468163 -0.009503941
-0.013188091 0.024519533 0.033330467 -0.004675146 -0.009517772 -0.0056780297 -0.056262445 0.00835333
-0.004196923 -0.0014610637 0.010280175 -0.016305557 0.002058043 -0.032875802 -0.02482582 -0.0027075824
0.0076482804 0.01279638 -0.03893773 0.001220029 -0.039932434 0.00146235 0.020190021 -0.0014344546
-0.009953843 0.058479898 0.037091345 0.00372381 0.01414586 0.0031072055 -0.007820142 -0.024665022
0.0129581615 -0.01203006 -0.0256551 -0.001029224 -0.018826237 -0.010100296 0.03610863 -0.016991109
0.034889843 0.0043711956 -0.017947901 -0.02145225 -0.023083597 -0.042654928 0.0014554051 0.018322375
0.007446851 -0.010618834 0.004794676 0.038122863 -0.0007860387 -0.005683504 -0.014259659 0.023548035

action_model._continuous_distribution.mu.bias f4 [2]
00000000: e9c1 10b9 5c9c 9ebc
-0.00013805147 -0.019361667

exp_avg f4 [128, 36]
00000000: 0961 9035 3570 feb6 ea19 6e38 623f 6538
00000010: c1a3 d035 7f10 9b36 338b 3838 819c 4e38
00000020: d9a0 0338 3c13 f6b5 6b46 a837 7c58 4638
00000030: d291 1536 444b 7c37 6538 0a38 8ec2 2338
00000040: 0705 2e38 1c7e e5b4 d11c 1737 21f7 3638
00000050: 959c 49b8 3c70 a037 87c4 a438 397d 1538
00000060: abd1 4d38 32df 6e35 bdfa e618 16f3 2338
00000070: 9940 3038 0346 2f35 f965 fd36 17e3 3838
00000080: 5ff0 5038 4b1c 0433 ef5b dc13 3049 3038
00000090: 7b5d 06b6 56d2 3837 c202 82b8 92ea 78b8
000000a0: 65a9 a7b6 3739 d4b6 0aca 2eb8 2a13 58b8
000000b0: 7156 d3b7 1785 e835 2f92 f0b7 5327 54b8
000000c0: 9bb2 81b6 6328 93b7 36c4 03b8 b962 27b8
000000d0: b925 28b8 acd3 9cb4 1993 4db7 0c44 44b8
000000e0: 52c8 4138 4af9 a8b7 f2fb a3b8 11e0 1eb8
000000f0: 5372 59b8 b1aa 36b5 36a8 cd99 dbe4 2eb8
00000100: f797 3cb8 ad89 08b3 c944 04b7 f7c7 3fb8
00000110: 0e38 5bb8 47bc 81b3 837e 6393 3ccf 38b8
00000120: 078c bfb5 01d0 5736 440f 07b9 e13d 02b9
00000130: 9438 57b7 bb45 12b6 26a0 ecb8 8ef2 03b9
00000140: 2469 24b8 4508 e8b6 623a a7b8 10ed ebb8
00000150: 8405 9db6 8004 ceb7 cc92 ccb8 96d6 e4b8
00000160: 2437 f5b8 0263 58b6 0ce9 d4b6 b082 e6b8
00000170: c7d5 feb6 1ab4 cab7 a3f3 c4b8 2b00 efb8
00000180: 4918 03b9 9324 cbb5 f7b1 0b99 6321 cbb8
00000190: 64bc 00b9 4fe2 8236 da09 03b7 938e edb8
000001a0: 507d 04b9 b335 9cb2 e18b 2093 8161 d2b8
000001b0: 4ad3 5235 9452 f6b7 dd07 7db8 3de2 75b8
000001c0: 77bf 3fb8 8610 2637 158b 62b8 89fa bbb8
000001d0: 9f4c 75b5 2ab6 01b8 63ab 6db8 2045 7db8
000001e0: d062 1db6 35e2 2fb7 b2e3 9eb8 6281 acb8
000001f0: 83d4 c8b8 ad42 13b7 2c88 8437 048e 9ab8
00000200: 2c17 afb8 a6ec 9ab6 9458 0bb4 3d16 c7b8
00000210: 04a1 b6b8 f86d 05b6 9689 fc16 bf70 88b8
00000220: 71c2 d5b8 cbe1 1e37 fcc2 7536 4134 afb8
00000230: ddff bab8 40b3 9333 178b 4913 2f23 89b8
00000240: 0d9f 8e36 089c beb7 7c94 3c39 7bf7 3539
00000250: 1aea bbb5 f463 3d37 fea6 1e39 22c7 2539
00000260: 0d40 be38 69e7 9cb6 a0f0 9938 b5da 1c39
00000270: b97c 3437 7ee2 0c38 7b88 f338 e1ba 0e39
00000280: 1fa8 1639 2bd5 15b5 3dd6 9137 a68e 0e39
00000290: 5790 30b8 fc01 0f38 9f27 2f39 3b06 1039
000002a0: 2d6f 2739 c232 3f35 a5d6 4519 be5f ff38
000002b0: 86fc 0f39 64bb c9b4 f94d c837 0df2 1839
000002c0: 0dcc 2739 fb97 af33 6c1b a214 bad8 0739
000002d0: bb71 65b4 5a74 1e37 5f8e 3137 45a6 2737
000002e0: e139 5237 d8b3 c7b5 90a3 1737 3fad a537
000002f0: dd66 a635 295d 2b37 ecda 0a37 4d27 2537
00000300: c42d f233 cc4d 8935 bd30 9c37 f062 a037
00000310: cf14 ad37 4c6d 1036 5408 4eb6 99bb 8637
00000320: abef 5137 a1e9 9d35 eb0e c636 e6c1 ad37
00000330: 8ade a237 a8bf cb34 ba4d 3098 7da7 7237
00000340: bab4 b537 b9cc d8b5 2b14 a4b4 68a5 9a37
00000350: 0b46 a637 5257 aeb2 d1a7 2e93 9720 7537
00000360: cc1c 6035 718a 9cb7 97af 56b8 9add 4fb8
00000370: aa5e d7b7 7e0c c236 7e1a 50b8 9f25 92b8
00000380: a791 d036 9637 afb7 2f31 63b8 3832 57b8
00000390: e2b4 9233 395b 04b6 9645 8cb8 bb29 8fb8
000003a0: 61cc a4b8 bf6b 99b6 8f9b 6937 fcca 7bb8
000003b0: f37d a6b8 f652 3ab6 f056 6037 bd69 9bb8
000003c0: 0bc6 90b8 2a7f 07b5 11fa cc18 aa03 59b8
000003d0: b2dc a7b8 7736 ca36 bfd8 a536 2ca5 84b8
000003e0: b224 92b8 6502 0834 b6c0 5a13 b8a8 55b8
000003f0: 6fd2 5d32 191a 6bb3 a46d 3eb6 df02 31b6
1.0757077e-06 -7.5828525e-06 5.6767756e-05 5.4656884e-05 1.5544866e-06 4.6212804e-06 4.3998658e-05 4.9259983e-05
3.1382635e-05 -1.8334026e-06 2.0059952e-05 4.7289286e-05 2.2287609e-06 1.5037895e-05 3.2954285e-05 3.904342e-05
4.1489515e-05 -4.274633e-07 9.007011e-06 4.3622338e-05 -4.8067963e-05 1.912575e-05 7.8567355e-05 3.564099e-05
4.9071077e-05 8.89867e-07 5.9706787e-24 3.908862e-05 4.202183e-05 6.529446e-07 7.5518587e-06 4.4080512e-05
4.9814927e-05 3.0759377e-08 5.562646e-27 4.202983e-05 -2.0021969e-06 1.1016227e-05 -6.199397e-05 -5.934627e-05
-4.996708e-06 -6.324753e-06 -4.1672996e-05 -5.151626e-05 -2.5193413e-05 1.7324081e-06 -2.8678302e-05 -5.0581362e-05
-3.865292e-06 -1.7542572e-05 -3.141557e-05 -3.9907845e-05 -4.0089453e-05 -2.9211276e-07 -1.2253201e-05 -4.6793415e-05
4.620135e-05 -2.0143245e-05 -7.819374e-05 -3.7878814e-05 -5.1843304e-05 -6.804867e-07 -2.1264443e-23 -4.169797e-05
-4.496422e-05 -3.1790183e-08 -7.883828e-06 -4.572418e-05 -5.2265874e-05 -6.041278e-08 -2.8713803e-27 -4.406202e-05
-1.4271362e-06 3.215857e-06 -0.0001288029 -0.00012420818 -1.2828172e-05 -2.1796284e-06 -0.00011283187 -0.00012583492
-3.9198567e-05 -6.9151015e-06 -7.974055e-05 -0.000112498295 -4.6796067e-06 -2.455921e-05 -9.754821e-05 -0.00010911857
-0.00011692781 -3.2244138e-06 -6.3452226e-06 -0.00010991597 -7.594677e-06 -2.4164143e-05 -9.391389e-05 -0.000113964394
-0.0001250218 -1.5135323e-06 -7.222071e-24 -9.686013e-05 -0.00012277212 3.9006477e-06 -7.810502e-06 -0.00011327597
-0.00012635184 -1.818521e-08 -2.0263805e-27 -0.00010031742 7.853856e-07 -2.9363939e-05 -6.0327224e-05 -5.8623253e-05
-4.5716264e-05 9.898218e-06 -5.401213e-05 -8.963521e-05 -9.138111e-07 -3.092565e-05 -5.666482e-05 -6.038428e-05
-2.345234e-06 -1.0483481e-05 -7.576439e-05 -8.2256985e-05 -9.5763266e-05 -8.777407e-06 1.5799036e-05 -7.369745e-05
-8.3489664e-05 -4.617107e-06 -1.2977608e-07 -9.493202e-05 -8.708428e-05 -1.9882555e-06 4.0799625e-25 -6.505986e-05
-0.00010192849 9.470105e-06 3.662134e-06 -8.354383e-05 -8.9168294e-05 6.877826e-08 2.5438343e-27 -6.5392225e-05
4.2504457e-06 -2.2722423e-05 0.00017984392 0.00017353699 -1.4000718e-06 1.128855e-05 0.00015130264 0.00015809809
9.0718364e-05 -4.676102e-06 7.3404284e-05 0.00014958794 1.0757875e-05 3.358954e-05 0.000116125644 0.00013611793
0.00014367745 -5.5817026e-07 1.738511e-05 0.00013595316 -4.2096097e-05 3.4095705e-05 0.0001670406 0.00013735231
0.00015967777 7.1226907e-07 1.02280084e-23 0.00012177181 0.00013731615 -3.7575512e-07 2.3878167e-05 0.0001458602
0.00016002376 8.1767176e-08 1.6368636e-26 0.0001295534 -2.1368662e-07 9.444624e-06 1.05831705e-05 9.992688e-06
1.2530451e-05 -1.4878997e-06 9.038384e-06 1.9750207e-05 1.2397901e-06 1.0214085e-05 8.276413e-06 9.843917e-06
1.1277328e-07 1.0229937e-06 1.8619345e-05 1.9119558e-05 2.0632897e-05 2.1521291e-06 -3.070124e-06 1.6061402e-05
1.2513173e-05 1.1765406e-06 5.9025965e-06 2.0713498e-05 1.9415533e-05 3.7951145e-07 -2.2786709e-24 1.446332e-05
2.1661039e-05 -1.6152836e-06 -3.0562055e-07 1.8435254e-05 1.9821358e-05 -2.0295975e-08 -2.2044627e-27 1.4610726e-05
8.348841e-07 -1.8661116e-05 -5.1185107e-05 -4.955903e-05 -2.5674079e-05 5.783105e-06 -4.9615737e-05 -6.96883e-05
6.215839e-06 -2.088751e-05 -5.4166823e-05 -5.1306764e-05 6.831557e-08 -1.9722631e-06 -6.6886816e-05 -6.826544e-05
-7.858198e-05 -4.5722986e-06 1.3924101e-05 -6.0032107e-05 -7.938957e-05 -2.776445e-06 1.3371682e-05 -7.410671e-05
-6.9033435e-05 -5.0476467e-07 5.2985267e-24 -5.1740244e-05 -8.004288e-05 6.0264097e-06 4.9426158e-06 -6.325016e-05
-6.9686575e-05 1.2666858e-07 2.7610482e-27 -5.094029e-05 1.291174e-08 -5.4738937e-08 -2.8376026e-06 -2.6376727e-06

exp_avg_sq f4 [128, 36]
00000000: 47d2 8a31 0abe 4b30 d1b5 bd32 98eb da32
00000010: f9f3 fc30 06f7 a430 a175 cb32 9afe d832
00000020: a64b 1031 35e4 6130 3d6a cf32 f51d dc32
00000030: f997 3131 9b90 cf30 886e bd32 3bd3 d432
00000040: 584d 1332 5892 ef30 5204 7532 c8fe cf32
00000050: 0763 d732 b6e1 4130 725e e330 9e74 b232
00000060: 1172 ce32 8c76 dc30 9431 1f30 384e 9c32
00000070: cdb7 df32 691a 0730 3d5c 3d2d bb2d 8f32
00000080: 35d4 d632 b2e7 1830 e6aa 0f2e 9f25 8732
00000090: bb0c 9032 4e08 2b31 e9cd 9433 a710 b333
000000a0: 650b fc31 c6b7 d731 d1e4 9d33 eef5 ae33
000000b0: 6f3a 8331 422a 3f31 b03f ae33 d0de b333
000000c0: caa8 0032 c53a 7631 65e7 a033 d1b4 b133
000000d0: ab25 db32 f564 f031 6df4 5633 062f a933
000000e0: baa7 ae33 b1bb 1131 6ceb a431 73e1 9333
000000f0: 6bf9 ab33 ee0e b931 ccc9 a12f b0f0 7e33
00000100: d348 b533 1efb 0531 8af3 882e 991f 6733
00000110: 45f5 ae33 767f 1631 11ae 342c e108 5f33
00000120: abf8 0b31 c3c5 ac30 2a1d 7732 2d67 8732
00000130: a660 b330 e25f 7730 a087 7c32 702d 8b32
00000140: ce84 7230 324f fa30 aed6 7932 8ba1 8232
00000150: 43f4 1231 e1f4 9230 6e93 6532 b71f 8732
00000160: 4f7e d631 1301 6d30 40f2 2532 0459 8432
00000170: 3550 7432 0bf9 2230 3d36 6f31 81e7 6a32
00000180: fef1 8832 28e6 4d30 b8fd 722f a334 4932
00000190: 7751 8f32 776a 922f c604 e52d ad49 3e32
000001a0: cac1 8c32 5185 b52f ada8 752c 5f09 2d32
000001b0: c6b4 db30 2bbb 2131 ed36 e832 9bc0 f332
000001c0: 4e35 ec30 b2cf 3531 a91a d632 8731 e832
000001d0: fe70 7a30 ac80 4d31 bf84 e632 af54 ed32
000001e0: 9200 5031 c6af 1f31 a1dc d732 3127 ed32
000001f0: 96ee 7332 ff92 5931 66c7 8132 84d9 e832
00000200: 7125 dd32 1daa 6f30 749a 2c31 c357 d032
00000210: 6549 fa32 dd03 6f30 4565 062f 77bd af32
00000220: 1aa3 fc32 c659 9530 540b be2e faba a032
00000230: 203d fb32 4466 552f 236b 8e2c ab3a 9e32
00000240: 4aa8 6032 016f bb32 75df de33 310d f433
00000250: cba1 2232 52df b232 7592 e233 72bc f633
00000260: e06f 3432 4185 c032 1659 e433 9a7d f233
00000270: 1b60 7632 9aa0 2032 f705 ef33 40fd 0334
00000280: 1b1f 4533 1367 1f32 4572 9a33 97fd 0034
00000290: d7a7 fc33 ad08 9631 5ada 7a32 77fc e233
000002a0: 45a5 0934 ab72 fa30 aa8f 4230 e617 c733
000002b0: 4663 0c34 3648 bf30 88e5 4b2f 31b9 b933
000002c0: 3f20 0834 1bae e930 8667 582d 9be8 ab33
000002d0: 714d 1230 1a44 532f 7299 b130 57e3 f030
000002e0: 9e02 c72f b52e 272f adf4 d030 a925 f830
000002f0: 32cb 232f b4bb af2f 7a71 d930 b631 ed30
00000300: 20a9 132f 9b6c 902e caa3 fc30 d8a1 0331
00000310: 793f 1c30 ba3c da2f db02 9c30 445e e530
00000320: 8334 f030 b885 372e 2f03 5a2f 5de0 da30
00000330: e587 0131 f083 142f 12b7 252c bfc9 b930
00000340: 6179 0731 9000 042e 302b 262c 8b61 ae30
00000350: 72ad 0431 4364 932e 38c5 182b b794 a430
00000360: 0663 c930 71e3 d130 029c ba32 c08f c432
00000370: d1ac 5b30 cdec 6230 82b7 ba32 bda7 c132
00000380: 1209 5130 ab32 7931 f856 b432 39cf bb32
00000390: 22b0 1a31 3d74 2230 dda9 b832 aa91 c432
000003a0: c70a 5232 d3f3 3c31 7b08 4632 b215 be32
000003b0: be23 b932 8b89 a82f 167a c630 7722 a932
000003c0: cee7 c532 b7d7 c230 bd8b 842f 8a09 8b32
000003d0: 7188 c932 c80c 0630 deb3 c22d 235b 8032
000003e0: ba32 c232 e836 b330 5a0a c12c 345d 7532
000003f0: 35ea 8d2d fce4 212d 290e a22e 30e5 c62e
4.0402344e-09 7.412103e-10 2.2085176e-08 2.5485676e-08 1.8404754e-09 1.2002779e-09 2.3685802e-08 2.5261489e-08
2.099776e-09 8.2178825e-10 2.4146283e-08 2.5624994e-08 2.5843276e-09 1.5102332e-09 2.205276e-08 2.4776105e-08
8.574112e-09 1.7431132e-09 1.4261859e-08 2.4213833e-08 2.5074327e-08 7.0533746e-10 1.6543267e-09 2.0774959e-08
2.4033428e-08 1.60408e-09 5.791432e-10 1.819636e-08 2.60442e-08 4.9150245e-10 1.0763887e-11 1.6668187e-08
2.500938e-08 5.5626537e-10 3.2666224e-11 1.5733177e-08 1.6769595e-08 2.4888496e-09 6.929242e-08 8.338366e-08
7.3354607e-09 6.278216e-09 7.352504e-08 8.147241e-08 3.819245e-09 2.7818179e-09 8.114091e-08 8.3758664e-08
7.488959e-09 3.5831118e-09 7.492671e-08 8.275095e-08 2.5512085e-08 6.996397e-09 5.004806e-08 7.878229e-08
8.133016e-08 2.1206967e-09 4.7997926e-09 6.88623e-08 8.008177e-08 5.385906e-09 2.9429115e-10 5.9357887e-08
8.441716e-08 1.949679e-09 6.227825e-11 5.3812617e-08 8.147121e-08 2.1900326e-09 2.5676165e-12 5.192931e-08
2.0368514e-09 1.2570854e-09 1.4383923e-08 1.5762987e-08 1.3051433e-09 8.9994334e-10 1.4699168e-08 1.6202392e-08
8.8227814e-10 1.8212403e-09 1.454252e-08 1.5207453e-08 2.1384643e-09 1.0692497e-09 1.3363076e-08 1.573049e-08
6.2425793e-09 8.6221624e-10 9.659345e-09 1.5407302e-08 1.4220906e-08 5.928917e-10 3.4809908e-09 1.36732305e-08
1.5942529e-08 7.490564e-10 2.2099911e-10 1.1711708e-08 1.6684437e-08 2.6632893e-10 2.6036406e-11 1.10762075e-08
1.638627e-08 3.3018435e-10 3.4910228e-12 1.0072056e-08 1.5985726e-09 2.3534976e-09 2.7033332e-08 2.837651e-08
1.718641e-09 2.6457028e-09 2.4925003e-08 2.7030877e-08 9.111004e-10 2.9904568e-09 2.683589e-08 2.7628941e-08
3.0268308e-09 2.323746e-09 2.5129625e-08 2.7608253e-08 1.419871e-08 3.1661214e-09 1.5108252e-08 2.710727e-08
2.5744813e-08 8.718944e-10 2.511709e-09 2.4254296e-08 2.9137206e-08 8.6953184e-10 1.2223207e-10 2.045884e-08
2.9410831e-08 1.0866692e-09 8.642212e-11 1.8711479e-08 2.9248042e-08 1.9408569e-10 4.0477773e-12 1.84203e-08
1.30767805e-08 2.1820144e-08 1.0378327e-07 1.1364535e-07 9.4664285e-09 2.0823482e-08 1.05505855e-07 1.1489546e-07
1.0502816e-08 2.2412339e-08 1.0633282e-07 1.129185e-07 1.4340936e-08 9.349742e-09 1.113039e-07 1.2292458e-07
4.5895927e-08 9.2784544e-09 7.191969e-08 1.2013184e-07 1.1765194e-07 4.366561e-09 1.4601563e-08 1.0569868e-07
1.2819244e-07 1.8222485e-09 7.078095e-10 9.271007e-08 1.3074632e-07 1.3917603e-09 1.8544288e-10 8.64842e-08
1.2677718e-07 1.7002465e-09 1.2301165e-11 8.005119e-08 5.322454e-10 1.9214533e-10 1.2922057e-09 1.7526912e-09
3.619975e-10 1.5205155e-10 1.5203533e-09 1.8055079e-09 1.4896953e-10 3.1965686e-10 1.582108e-09 1.7258148e-09
1.3429657e-10 6.567654e-11 1.8381965e-09 1.9155006e-09 5.684267e-10 3.9697118e-10 1.1351305e-09 1.6688735e-09
1.7477223e-09 4.172815e-11 1.9828116e-10 1.5925355e-09 1.8849218e-09 1.3507395e-10 2.3549535e-12 1.3517861e-09
1.9714081e-09 3.0013825e-11 2.3613993e-12 1.268789e-09 1.930712e-09 6.702596e-11 5.4274944e-13 1.1974838e-09
1.4652819e-09 1.5271394e-09 2.1724194e-08 2.2882773e-08 7.991732e-10 8.2554835e-10 2.17367e-08 2.2544436e-08
7.6046647e-10 3.626307e-09 2.0994307e-08 2.18639e-08 2.251007e-09 5.910044e-10 2.1497664e-08 2.2883643e-08
1.2226059e-08 2.7496199e-09 1.1527045e-08 2.2128777e-08 2.1553088e-08 3.0656752e-10 1.4441095e-09 1.9689862e-08
2.3039231e-08 1.4176668e-09 2.410995e-10 1.6186068e-08 2.3461526e-08 4.876708e-10 2.2135124e-11 1.4942605e-08
2.260764e-08 1.3039569e-09 5.486539e-12 1.4282069e-08 1.6133853e-11 9.202635e-12 7.3694224e-11 9.0447094e-11

exp_avg f4 [128]
00000000: 8ea2 5238 b4bf 5db8 ced3 04b9 b93c bab8
00000010: 199c 2839 399b a537 aade 90b8 9d64 40b6
00000020: 4eff d2b7 7f27 2bb8 b5d2 06b7 1473 7eb9
00000030: 69dd e6b7 cdb5 9337 cb22 ccb6 156c b636
00000040: 8464 51b7 9aa9 5537 f6b5 bab8 1c9b 5238
00000050: afcb 9138 3fd2 fc36 742f 2f38 339f 07b8
00000060: c9ce 0e37 c6de 87b8 3a43 09b9 ff5b 32b9
00000070: 02ba b237 b38a 38b9 8d91 bc38 e9a4 1e38
00000080: eeea b235 fed8 2337 f6a7 3537 a216 9f37
00000090: 61a1 96b8 a50b 0e38 516b 5c38 af1a f1b8
000000a0: 713e 0fb8 3361 e3b7 208e 4938 67eb 45b9
000000b0: be72 cdb7 064b 4237 60d6 cab5 126a b737
000000c0: 3d88 fe37 606a 0838 0156 37b9 0671 d437
000000d0: 865b 60b6 00be f737 bae0 b637 7e45 1738
000000e0: c356 9438 4220 ed37 03e1 9537 ec54 ffb8
000000f0: abd8 e3b8 8b80 1038 2c84 5f37 8a30 9b38
00000100: 92b7 34b8 58f0 9cb7 c793 0938 c729 b4b7
00000110: 948a 81b8 83f5 8cb7 7547 64b8 3154 6638
00000120: 0b2e 8ab8 7c79 14b9 2e72 6737 4255 3337
00000130: f344 d2b8 7790 0c38 8540 b938 9717 f837
00000140: afaa c5b8 a75f 12b5 0c18 46b8 ce80 0938
00000150: 1044 dc37 5a23 89b9 bece df36 d9a6 a336
00000160: bce4 36b8 bf5d cc36 43fa a4b8 4cf7 30b8
00000170: 4fc2 5bb8 e866 cb36 e262 7c38 9df4 3eb6
00000180: 9368 afb6 f575 a0b8 48cd 2b36 ad43 c437
00000190: e8c0 29b8 1624 28b7 9a72 1239 f40f fe37
000001a0: 420f 2938 08d2 2db7 8236 46b6 5aa3 2d38
000001b0: e4e6 fab8 23a4 31b7 a236 9d37 1697 16b9
000001c0: 0b25 9237 02d4 6337 1d35 7eb8 8628 10b9
000001d0: 0aca 72b8 2a63 1cb9 372a 1ab9 c41a 71b7
000001e0: 491d aa38 434f 5138 9fcc 1338 4cf5 8637
000001f0: cdcc f2b8 1fb7 23b3 397e d636 2e4f 0fb8
5.0219292e-05 -5.2869043e-05 -0.00012667404 -8.8804816e-05 0.0001607988 1.9741814e-05 -6.9079295e-05 -2.8668794e-06
-2.5152836e-05 -4.080636e-05 -8.036081e-06 -0.00024266198 -2.7521239e-05 1.7608423e-05 -6.083724e-06 5.436605e-06
-1.2480774e-05 1.2735278e-05 -8.903064e-05 5.021236e-05 6.952078e-05 7.534661e-06 4.1767446e-05 -3.2334774e-05
8.5120055e-06 -6.4787964e-05 -0.00013090382 -0.00017009674 2.130587e-05 -0.00017599277 8.9916495e-05 3.782372e-05
1.3330407e-06 9.7660795e-06 1.0827547e-05 1.8964816e-05 -7.1826165e-05 3.3866283e-05 5.2552034e-05 -0.00011496746
-3.415201e-05 -2.710577e-05 4.80545e-05 -0.00018875078 -2.4491335e-05 1.1580769e-05 -1.5112564e-06 2.1864693e-05
3.03426e-05 3.2523996e-05 -0.00017484279 2.5325e-05 -3.3431875e-06 2.953317e-05 2.1800737e-05 3.6065925e-05
7.0733506e-05 2.8267623e-05 1.7866963e-05 -0.000121751655 -0.00010864561 3.445199e-05 1.3322609e-05 7.400017e-05
-4.3086307e-05 -1.8708568e-05 3.2800974e-05 -2.1477126e-05 -6.1770115e-05 -1.6803626e-05 -5.4425986e-05 5.4914683e-05
-6.588929e-05 -0.00014159636 1.37952575e-05 1.0689082e-05 -0.00010026423 3.3513144e-05 8.833505e-05 2.9574889e-05
-9.425484e-05 -5.452843e-07 -4.7229274e-05 3.2783304e-05 2.6257738e-05 -0.00026157015 6.669986e-06 4.877202e-06
-4.3605207e-05 6.0905872e-06 -7.866744e-05 -4.2191983e-05 -5.2394633e-05 6.0618513e-06 6.0173574e-05 -2.845459e-06
-5.2275805e-06 -7.651366e-05 2.5600475e-06 2.3396535e-05 -4.0472398e-05 -1.0021982e-05 0.00013966337 3.0286588e-05
4.030695e-05 -1.0360505e-05 -2.9536027e-06 4.1398547e-05 -0.00011963936 -1.0588238e-05 1.8741299e-05 -0.00014361399
1.7421806e-05 1.3579616e-05 -6.0607785e-05 -0.00013748006 -5.788546e-05 -0.00014914261 -0.0001470231 -1.4370951e-05
8.1116865e-05 4.99033e-05 3.52381e-05 1.608827e-05 -0.00011577606 -3.8117943e-08 6.3923912e-06 -3.41676e-05

exp_avg_sq f4 [128]
00000000: f3c6 e232 e29d b933 0e2c 9132 ca1a fc32
00000010: 747f 0d34 fc4b 0831 4d4f c932 0896 e12e
00000020: e4c8 7b32 ebf2 8332 1a8f 1033 f687 be34
00000030: f288 0331 da2b 6031 656e 8032 7416 0831
00000040: 66bc 2433 3c7b 5a31 f0fe be31 8db9 ac33
00000050: a6cb c932 fc0f 9031 27d8 6834 72bd 5033
00000060: 8288 b733 e9d9 0934 613d 3033 fe28 3833
00000070: f2db ea30 86a6 8f33 b3b4 ff33 1467 8a31
00000080: c509 e133 edaf 5232 8836 922f 4fe6 9933
00000090: 9eb8 4032 1f59 9c31 309f fe31 1a73 a333
000000a0: a8f3 e632 8a9c 4b33 509c 2532 c857 7b34
000000b0: 3c76 5332 e895 9e31 aa7f 0332 9a0a 0b32
000000c0: 4a3f 8332 f576 1c32 1476 ec32 ceac 1132
000000d0: 0d32 4531 7a45 8832 9ec3 1732 0855 7133
000000e0: d779 1033 0b79 5033 f654 9e33 63c9 5532
000000f0: 32c1 3a33 197f 2832 b142 5332 0b28 0b32
00000100: a32e 5632 a493 aa31 daa0 0332 1e7a 2033
00000110: 8e5e 6333 4575 7a33 b36c 4e32 34c7 bf32
00000120: 84bf e532 9ab6 2e33 c98c 8633 05e0 ac32
00000130: 700e 4434 eed6 2e31 06dc b333 9a82 9a32
00000140: c535 f632 e713 1132 ec23 5f34 181e d331
00000150: fafc 3932 72ac 9834 9823 8f31 2590 0432
00000160: f570 ae32 2010 8331 7d8c 1833 ed58 3333
00000170: ec9e f432 8b54 9b30 e5c7 5931 861c 1132
00000180: 3abb 2f30 2ca3 2933 f39c 3d32 19a7 6731
00000190: 97ed 5933 644e bb31 3b4d be33 f76d e831
000001a0: 454c 8033 2bc5 0532 a7ac d62f cfaa 1a32
000001b0: caf5 1634 ec7e 8132 15dd f931 6f77 4c32
000001c0: 5767 9032 562c 7533 2a82 2932 7e95 3833
000001d0: 7a95 d331 81ac f033 0f2b 9333 4567 f031
000001e0: 342e 9c32 8fbb 8931 2af5 a631 f39e 0e33
000001f0: 671c 6432 aa95 5e33 1b16 8631 8d87 8633
2.6400334e-08 8.6434525e-08 1.6900255e-08 2.9348843e-08 1.3178015e-07 1.9833797e-09 2.3435542e-08 1.0258466e-10
1.46558e-08 1.5360873e-08 3.3657763e-08 3.5489182e-07 1.9140853e-09 3.2621217e-09 1.4951363e-08 1.9803368e-09
3.8355573e-08 3.1793226e-09 5.558711e-09 8.0431256e-08 2.3492088e-08 4.192769e-09 2.168532e-07 4.8601073e-08
8.546432e-08 1.2838395e-07 4.1034017e-08 4.287812e-08 1.7088253e-09 6.689247e-08 1.1907232e-07 4.0280472e-09
1.0479156e-07 1.226361e-08 2.6595992e-10 7.1665106e-08 1.1217848e-08 4.5503294e-09 7.4104705e-09 7.611216e-08
2.6886326e-08 4.7406992e-08 9.639805e-09 2.3408131e-07 1.23087e-08 4.6154476e-09 7.654231e-09 8.093275e-09
1.5279188e-08 9.107443e-09 2.7527712e-08 8.479402e-09 2.8695724e-09 1.5864078e-08 8.833835e-09 5.618952e-08
3.3638425e-08 4.8538862e-08 7.3729026e-08 1.2444022e-08 4.348221e-08 9.807786e-09 1.229698e-08 8.09997e-09
1.2467043e-08 4.964436e-09 7.661777e-09 3.7363968e-08 5.2938553e-08 5.8314317e-08 1.20154935e-08 2.2325914e-08
2.67462e-08 4.0678607e-08 6.26547e-08 2.0125308e-08 1.8259175e-07 2.5442506e-09 8.375359e-08 1.798735e-08
2.866262e-08 8.444636e-09 2.0781562e-07 6.1443295e-09 1.08259375e-08 2.8437677e-07 4.1658943e-09 7.716186e-09
2.0307633e-08 3.814435e-09 3.551803e-08 4.1757563e-08 2.8477608e-08 1.1301763e-09 3.1691283e-09 8.446596e-09
6.3930694e-10 3.9496783e-08 1.1036934e-08 3.3709908e-09 5.0740336e-08 5.4513283e-09 8.8616126e-08 6.76459e-09
5.974338e-08 7.78645e-09 3.904905e-10 9.002817e-09 1.4059256e-07 1.5075294e-08 7.271988e-09 1.1901519e-08
1.68108e-08 5.708383e-08 9.866691e-09 4.29768e-08 6.1579017e-09 1.1207249e-07 6.853053e-08 6.9966597e-09
1.8181801e-08 4.0085477e-09 4.859108e-09 3.3206515e-08 1.3277805e-08 5.182452e-08 3.9024264e-09 6.264518e-08
