results/car3/CarFindGoal/CarFindGoal-4207883.onnx (onnx, 88006 bytes, 7 tensors)

network_body._body_endoder.seq_layers.0.weight f4 [128, 36]
0	0xbe7d4e03	-0.2473679
1	0xbdc04499	-0.09388084
2	0x3da0c067	0.07849198
3	0xbd4b44d9	-0.049626205
4	0x3e304ad7	0.17216049
5	0xbd2af9e4	-0.04174222
6	0xbe9b318a	-0.30311233
7	0x3c58f9e2	0.01324317
8	0xbe6ec625	-0.23317774
9	0xbde1c4b8	-0.11023849
10	0x3d8433b6	0.064551756
11	0xbe43bed7	-0.19115768
12	0xbdf8ad52	-0.12142433
13	0xbc92b4cf	-0.017908482
14	0xbe50750d	-0.20357151
15	0xbe386b6c	-0.18009728
16	0xbd7a87c7	-0.061164644
17	0x3dbe664c	0.09296855
18	0xbccda68d	-0.025103832
19	0xbe074d17	-0.13213001
20	0x3e98378a	0.29729873
21	0x3dedade0	0.1160543
22	0xbea08608	-0.31352258
23	0x3e94c2e3	0.29054937
24	0xbd77a17b	-0.060456734
25	0x3e63aa24	0.22232872
26	0x3d3b862e	0.04578226
27	0xbd25bfa9	-0.040465984
28	0x3da7e105	0.08197216
29	0x3e1c7135	0.1527756
30	0x3ce86edb	0.028373173
31	0x3e1c1fa2	0.15246442
32	0xbe2532eb	-0.16132705
33	0x3e7b7c4d	0.24559136
34	0x3e15de7f	0.14635657
35	0x3e58d9a3	0.21176772
36	0xbd73c0c9	-0.059510026
37	0x3ca2e349	0.019883769
38	0x3db21ed6	0.08697288
39	0xbe5fb5db	-0.21846716
40	0x3dc400de	0.09570478
41	0xbb83a7a4	-0.004017787
42	0x3c28d52d	0.010304731
43	0x3d852b8d	0.06502447
44	0x3e472d87	0.19450961
45	0x3c736599	0.014855766
46	0xbe103cb6	-0.1408566
47	0x3ec14702	0.37749487
48	0x3d807c06	0.062736556
49	0x3d0ecce5	0.03486337
50	0x3caec1ee	0.021332707
51	0x3d3034bb	0.043019038
52	0x3d12c467	0.035831835
53	0xbdd18122	-0.10229708
54	0xbe9ad932	-0.30243832
55	0x3d94a082	0.07257177
56	0x3ed6a563	0.41923055
57	0x3e65a0a9	0.22424568
58	0xbe58c591	-0.21169116
59	0xbdb748ea	-0.08949454
60	0x3ecde2c7	0.4021208
61	0xbca44892	-0.020054135
62	0x3de715e0	0.11283469
63	0xbcdb6d70	-0.026785582
64	0x3c0fdd9c	0.008780863
65	0x3e0a9492	0.13533238
66	0x3e4e3aef	0.20139669
67	0xbdb019a0	-0.085986376
68	0xbe40b934	-0.1882065
69	0xbdc338f0	-0.09532344
70	0xbd976310	-0.073919415
71	0x3e1ab5c5	0.15108402
72	0x3c3805cd	0.011231852
73	0x3e08379b	0.13302462
74	0xbe2ce7bb	-0.16885273
75	0xbce5d5c8	-0.02805604
76	0xbe310a0e	-0.17288992
77	0xbe47c0e4	-0.19507176
78	0xbe81dc5e	-0.2536344
79	0xbe35cee6	-0.17754707
80	0xbe7650b5	-0.24054225
81	0x3d7c5831	0.061607543
82	0x3e491c94	0.19639808
83	0x3da06a0e	0.07832728
84	0x3e255a95	0.16147836
85	0xbd819b85	-0.06328491
86	0x3e057e6b	0.13036506
87	0xbea308ff	-0.318428
88	0xbea76476	-0.32693833
89	0xbe0a955e	-0.13533542
90	0x3c77e5a9	0.015130439
91	0xbe13789e	-0.1440148
92	0x3e28e39a	0.16493073
93	0xbe5c0b8b	-0.21488778
94	0xbe8544d2	-0.26029068
95	0x3e07bc0a	0.13255325
96	0x3db983e8	0.09058362
97	0xbe216b89	-0.15763678
98	0x3cf84791	0.030307563
99	0xbe96020a	-0.2929843
100	0xbe8e8291	-0.2783399
101	0xbe1a44a2	-0.15065244
102	0xbdc4d2ac	-0.09610495
103	0xbe0397ed	-0.12850924
104	0xbe6ee024	-0.2332769
105	0xbda72e46	-0.08163123
106	0xbc9be3e5	-0.019029567
107	0xbe7121c5	-0.23548038
108	0xbe157469	-0.14595188
109	0x3ea90a89	0.3301585
110	0xbd8e2630	-0.069408774
111	0xbe09b489	-0.13447775
112	0xbd55a83a	-0.052162386
113	0x3d05811a	0.032593824
114	0xbcd0f69b	-0.025508216
115	0x3bb8efe5	0.005643832
116	0xbc2e2527	-0.010628975
117	0xbcab9506	-0.020945083
118	0x3d340009	0.043945346
119	0xbd6e26a2	-0.058142312
120	0xbe01d512	-0.12678936
121	0xbe189ecd	-0.14904328
122	0xbcd5cd0e	-0.026098754
123	0xbd1d8a23	-0.038461816
124	0x3dcb511f	0.09927582
125	0xbe1c7f53	-0.15282945
126	0x3cc4aadd	0.024007255
127	0x3da890fd	0.08230779
128	0x3cc314b8	0.02381359
129	0x3b1fb7a6	0.0024370938
130	0x3c579d94	0.013160128
131	0xbdefc71f	-0.11707901
132	0x3cec41dc	0.028839998
133	0x3de321aa	0.11090405
134	0x3e24d217	0.16095768
135	0x3c7bf04f	0.015377118
136	0xbd2ce2df	-0.04220855
137	0xbcf6ef96	-0.03014354
138	0x3e026ef2	0.12737635
139	0xbcebe2f6	-0.028794747
140	0xbe66be05	-0.22533424
141	0x3e38bab0	0.18039966
142	0xbcf030b5	-0.0293201
143	0x3e63fe91	0.22265078
144	0xbe8bd3e5	-0.273101
145	0x3e9fa924	0.31183732
146	0xbe0ba4f1	-0.13637139
147	0xbd8b8605	-0.068126716
148	0xbd001074	-0.03126569
149	0xbe6e7e9f	-0.2329049
150	0x3d3b74d0	0.045765698
151	0xbe010ef1	-0.12603356
152	0xbe4a1d5a	-0.19737759
153	0x3e547bc3	0.20750336
154	0xbd9d7c1f	-0.0768969
155	0xbee2df24	-0.44310868
156	0x3b486d38	0.0030582678
157	0xbe4bd2fd	-0.19904704
158	0xbea7c17a	-0.32764798
159	0xbe352442	-0.17689613
160	0x3dee4844	0.11634877
161	0x3ca8e90f	0.020618943
162	0xbe9de2d7	-0.30837128
163	0xbe4b2148	-0.19836915
164	0xbc9089e1	-0.01764387
165	0xbda47b95	-0.08031384
166	0xbec13ced	-0.37741795
167	0xbe2ef965	-0.17087324
168	0xbe9ee932	-0.3103729
169	0x3d8aee73	0.06783762
170	0xbd9d1f6e	-0.0767201
171	0xbe95cbb4	-0.29256976
172	0x3e0edea9	0.13952126
173	0x3e7398b1	0.23788716
174	0x3e68df66	0.2274147
175	0xbd8311db	-0.0639989
176	0xbdca16d8	-0.09867638
177	0xbddb6423	-0.10712459
178	0x3e86a3b1	0.26296762
179	0x3e047ba0	0.12937784
180	0xbd98cbeb	-0.07460769
181	0x3e365190	0.17804551
182	0x3dfa95d8	0.12235612
183	0xbd5a3c4b	-0.053280156
184	0xbd045827	-0.03231063
185	0x3d4d0354	0.050052002
186	0xbcb63b55	-0.022245089
187	0xbdef3368	-0.11679727
188	0xbe07b57c	-0.13252825
189	0x3d940ad8	0.07228631
190	0x3e1cab5e	0.15299746
191	0x3dc071b5	0.09396688
192	0xbd9959dd	-0.07487843
193	0x3df6233d	0.1201844
194	0x3e3a82fa	0.18214026
195	0xbd19e083	-0.037567627
196	0xbda1f9fa	-0.07909007
197	0x3d09f9d1	0.03368551
198	0xbd072980	-0.03299856
199	0x3c48a972	0.01224743
200	0x3d4c4579	0.04987094
201	0xbca5f5e8	-0.020258859
202	0x3e4f8317	0.2026485
203	0x3e7b39a4	0.24533707
204	0xbd5cf23b	-0.053941946
205	0x3e3926d0	0.18081212
206	0xbdd4ecf3	-0.10396757
207	0xbdd9d444	-0.106361896
208	0xbd0e7a70	-0.034784734
209	0xbda0aedb	-0.07845851
210	0xbe027f0d	-0.12743779
211	0x3e518acf	0.20463108
212	0xbe26907b	-0.16266052
213	0xbec0b5e6	-0.37638777
214	0xbd017886	-0.03160908
215	0x3e26a617	0.16274296
216	0xbbf1475b	-0.0073632426
217	0xbe531424	-0.20613152
218	0xbd98fea2	-0.07470442
219	0xbdbedb3b	-0.09319159
220	0xbe102343	-0.14075951
221	0x3e94219f	0.289319
222	0xbcfd82b6	-0.030946117
223	0xbe0435c1	-0.1291113
224	0x3ca118c8	0.019665137
225	0xbd070ac5	-0.032969255
226	0x3da593f0	0.080848575
227	0x3c197d30	0.009368226
228	0xbd00bf12	-0.03143222
229	0x3ebb6827	0.366029
230	0xbe063edd	-0.13109918
231	0xbe21e6f4	-0.15810758
232	0x3eb8ac6e	0.36069053
233	0xbeb7e739	-0.35918596
234	0x3e2a8ba9	0.16654839
235	0x3e9d6ada	0.30745584
236	0xbc90795e	-0.017635997
237	0xbe9102f8	-0.28322577
238	0x3e595fff	0.21228026
239	0x3d5c1901	0.053734783
240	0xbd7c44d2	-0.06158907
241	0xbda95090	-0.08267319
242	0xbcc99242	-0.024605874
243	0xbeb14d80	-0.3462944
244	0x3db37768	0.08763009
245	0xbdb5fb46	-0.08885817
246	0x3e5b4ac6	0.21415243
247	0xbd7ab26e	-0.06120532
248	0xbc9ac099	-0.018890666
249	0xbe669ead	-0.22521468
250	0xbe75a851	-0.23989989
251	0xbe8ece01	-0.27891544
252	0xbd84820d	-0.06470118
253	0xbbb8f0f8	-0.00564396
254	0xbd22ca82	-0.039743908
255	0x3d86fc09	0.06591041

network_body._body_endoder.seq_layers.0.bias f4 [128]
0	0x3c3c14cf	0.0114795705
1	0xbc1aee9f	-0.009456306
2	0xbd05b073	-0.03263898
3	0x3cf280e8	0.029602483
4	0xbba8277e	-0.005131661
5	0x3be77aca	0.007064198
6	0x3ccb4d1b	0.02481704
7	0x3c2fd6a9	0.010732331
8	0xbbde0c05	-0.006776335
9	0x3c0cbdc7	0.008590168
10	0x3d4f1f2a	0.05056683
11	0x3d983de6	0.07433681
12	0x3bedd8e9	0.0072585237
13	0x3bc627b2	0.0060472125
14	0x3d4279e5	0.04747953
15	0x3c63b537	0.013898185
16	0xbc3e9449	-0.011632034
17	0xbc951a52	-0.018201027
18	0x3d3c39f2	0.0459537
19	0xbc421cf0	-0.01184772
20	0xbcae6ff0	-0.02129361
21	0xbc1e16fc	-0.009649035
22	0x3c68d987	0.014212019
23	0x3bcf9fc0	0.0063361824
24	0x3bad0767	0.0052804234
25	0x3ca6d852	0.020366821
26	0x3c13ffb6	0.009033134
27	0x3b6c5152	0.0036059213
28	0x3c607bd4	0.013701398
29	0xbbbb9753	-0.0057248264
30	0x3d3fc741	0.046820883
31	0x3d19bac3	0.037531625
32	0x3d40e5a8	0.047094017
33	0x3cb70b73	0.022344327
34	0x3b007c15	0.0019605209
35	0xba4c2e02	-0.0007788838
36	0x3c53126d	0.012882811
37	0xbc710a10	-0.014711872
38	0x3cbaebd4	0.02281753
39	0x3d112ed9	0.035445068
40	0x3c3dfbd7	0.011595688
41	0x3c9a5648	0.01883997
42	0x3db1e263	0.08685758
43	0x3a784a2e	0.0009471503
44	0x3c25d7c3	0.010122242
45	0x3cb28034	0.021789648
46	0x3c94dab0	0.018170685
47	0x3d0016eb	0.031271856
48	0x3b94d9a7	0.0045425477
49	0xbcaa8beb	-0.020818671
50	0x3c08dc50	0.008353308
51	0x3c2fae19	0.01072266
52	0x3ca4da55	0.02012364
53	0xbb2ca0a4	-0.0026340866
54	0x3d98b137	0.07455676
55	0x3c2a6cdd	0.010401932
56	0x3c8227cb	0.015888115
57	0x3afb6d3a	0.0019182332
58	0x3d318ea6	0.04334893
59	0x3cd6453f	0.026156066
60	0xbbc303da	-0.005951387
61	0xbca1eb3f	-0.019765494
62	0x3bda8a54	0.006669322
63	0xbc048722	-0.008088859
64	0x3c655e82	0.013999583
65	0xba797802	-0.0009516479
66	0xbc282b5b	-0.010264243
67	0x3d35d7fd	0.044395436
68	0xbc2bbdc8	-0.010482259
69	0x3c909a98	0.017651841
70	0x3cd38f07	0.025825037
71	0x3c454f64	0.012042854
72	0xbaf953bb	-0.0019022146
73	0x3cc47aac	0.023984276
74	0x3c2e64ee	0.010644181
75	0x3cf827d0	0.030292422
76	0x3c47fe6f	0.012206658
77	0x3c4545e3	0.012040588
78	0xbba1c420	-0.00493671
79	0x3d282ceb	0.041058462
80	0x3c14b833	0.00907712
81	0x3bc04a53	0.005868235
82	0x3cd2d34b	0.025735518
83	0xbb40b4d2	-0.0029404652
84	0x3cf3a44c	0.029741429
85	0xb9614156	-0.00021482012
86	0xbc11b58c	-0.008893382
87	0x3a0ab17c	0.00052907295
88	0x3c0c66e4	0.008569453
89	0x3bfb2e0b	0.007665401
90	0x3cab0da2	0.020880524
91	0x3bed7e24	0.007247703
92	0x3c460a1c	0.012087371
93	0xbbf433fc	-0.007452486
94	0x3d26c2c0	0.04071307
95	0xbc9b381d	-0.018947655
96	0x3ccd1dd3	0.025038635
97	0x3c2c69c7	0.010523266
98	0x3d017e85	0.0316148
99	0x3be12b3d	0.0068716095
100	0x3bc3a36f	0.0059704105
101	0x3bff67f5	0.007794375
102	0x3bfd3bf8	0.007728096
103	0x3d7a9255	0.06117471
104	0x3ca8208e	0.020523336
105	0x3b8949b2	0.0041896934
106	0xbd20b720	-0.03923714
107	0x3c567b38	0.013090901
108	0x3b3ea493	0.0029089793
109	0x3cd67c26	0.026182245
110	0xbb9fd1ed	-0.00487732
111	0x3ccbf7e1	0.024898471
112	0x3beb3e20	0.0071790367
113	0xbb57691f	-0.0032869054
114	0x3c5e9a20	0.013586551
115	0xbc4a84d4	-0.01236077
116	0xbc5fe746	-0.01366598
117	0x3d1c6dea	0.03819076
118	0x39fc557c	0.00048128876
119	0xbccb4f22	-0.024818007
120	0x3c079479	0.008275145
121	0xbd03eee5	-0.03221025
122	0x3c189c5e	0.009314625
123	0xbd26ce90	-0.040724337
124	0x3c0cd49e	0.008595614
125	0xbb9ca673	-0.0047805845
126	0x3c5f05dd	0.013612238
127	0x3a86846e	0.0010262856

network_body._body_endoder.seq_layers.2.weight f4 [128, 128]
0	0x3a9d9082	0.0012021216
1	0x3e0165ff	0.12636565
2	0xbd6f6612	-0.05844695
3	0xbdc70723	-0.09718158
4	0x3ce6cb71	0.02817318
5	0xbde95045	-0.11392263
6	0xbc9f4e95	-0.01944665
7	0x3e17553a	0.14778605
8	0xbc654301	-0.013993026
9	0xbd86381c	-0.06553671
10	0x3c6a22c0	0.014290512
11	0x3df19393	0.11795726
12	0xbe2052d8	-0.15656602
13	0x3dc79855	0.09745852
14	0x3d85a949	0.06526429
15	0x3e0cb4bf	0.13740824
16	0x3dbb9adc	0.091603965
17	0x3e37f4b5	0.17964442
18	0x3df90ec7	0.12161022
19	0x3d4fda83	0.0507455
20	0x3d714719	0.058905695
21	0xbd7f8f91	-0.062392775
22	0x3be6067b	0.0070198155
23	0x3d3a48af	0.045479473
24	0xbe01d794	-0.12679893
25	0xbddca9bf	-0.10774564
26	0x3d5df9f5	0.054193456
27	0x3d7910c5	0.06080701
28	0xba10a907	-0.0005518351
29	0x3d020828	0.03174606
30	0x3e05efe2	0.1307979
31	0x3d20ea64	0.039286032
32	0x3c39402d	0.011306805
33	0x3d7f2d61	0.062299136
34	0xbe4135c5	-0.18868168
35	0x3c254b73	0.010088789
36	0x3d812fe3	0.06307962
37	0x3d9a3762	0.07530095
38	0x3cf48453	0.029848253
39	0xbe616735	-0.22012027
40	0xbd9fb6d7	-0.07798546
41	0x3e29af7c	0.16570848
42	0xbd7458a5	-0.05965485
43	0x3c22cc04	0.009936336
44	0x3d082f50	0.033248246
45	0x3e3a85b9	0.18215074
46	0x3dc324e4	0.09528521
47	0xbe768dcf	-0.24077533
48	0x3dadbe00	0.08483505
49	0x3c20e024	0.009819064
50	0x3d8d6425	0.06903867
51	0x3c4705b8	0.01214736
52	0xbe28066d	-0.16408701
53	0x3d8451b6	0.064608976
54	0xbd946734	-0.07246247
55	0xbd9eccdb	-0.07753917
56	0xbd93e6f8	-0.07221788
57	0xbe146746	-0.1449252
58	0x3bfe03b8	0.007751908
59	0x3da9fb44	0.08299878
60	0x3c9ff9de	0.019528326
61	0x3e0c16be	0.1368055
62	0x3cabcb44	0.020970948
63	0x3c15474c	0.009111237
64	0x3c206d57	0.009791694
65	0x3d906795	0.07051007
66	0xbcd0a21d	-0.025467927
67	0x3ddfaf21	0.10922075
68	0x3e175646	0.14779004
69	0x3cbf184a	0.023327012
70	0x3d570d4f	0.052502926
71	0x3e7352b1	0.23762013
72	0x3dc63720	0.09678483
73	0xbe3c507a	-0.18390074
74	0xbe20d27a	-0.1570529
75	0x3d2c2063	0.042023074
76	0xbc75ab82	-0.014994504
77	0xbe0a9ad0	-0.13535619
78	0x3dba3d63	0.0909374
79	0xbe303a42	-0.17209724
80	0x3c832cc4	0.016012557
81	0x3dcbffa2	0.099608675
82	0x3b710757	0.0036778057
83	0xbc3cc6cb	-0.011522005
84	0x3dcf1367	0.101111226
85	0x3d1a490c	0.03766732
86	0x3e20525e	0.1565642
87	0x3c3f67dc	0.011682477
88	0x3d20fcb7	0.039303508
89	0xbde31fef	-0.11090075
90	0x3e15b663	0.14620356
91	0x3dada9a6	0.084796235
92	0xbdb63ec1	-0.08898688
93	0x3cc3e480	0.023912668
94	0x3bb8a2ee	0.005634657
95	0xbd73c671	-0.05951542
96	0x3d802197	0.06256407
97	0x3d744124	0.059632435
98	0xbe06e686	-0.13173875
99	0xbde9d85f	-0.11418223
100	0xbd9871c7	-0.07443576
101	0xbe419bce	-0.18907091
102	0xbd9c4bd4	-0.076316506
103	0xbd064b7d	-0.032786835
104	0xbe869031	-0.26281884
105	0x3d596c5e	0.053081863
106	0x3bb97b0a	0.0056604194
107	0xbd252bf1	-0.04032511
108	0xbcef452d	-0.02920779
109	0x3ca9b662	0.02071685
110	0x3d5fdc8a	0.05465368
111	0xbcd7dd93	-0.026350772
112	0x3d877e37	0.066158704
113	0x3dbef7a8	0.093245804
114	0xbd95b0d7	-0.0730912
115	0x3de9e241	0.11420108
116	0xbc99af0d	-0.018760229
117	0x3dfef258	0.12448567
118	0xbe2690c8	-0.16266167
119	0xbdd32013	-0.10308852
120	0x3d363661	0.044485454
121	0x3b12984b	0.0022368606
122	0x3d80c293	0.06287112
123	0xbd396542	-0.045262583
124	0xbdd812f6	-0.105504915
125	0xbdbdb412	-0.09262861
126	0xbdb18904	-0.08668712
127	0x3c584361	0.013199658
128	0x3c8b1042	0.016975526
129	0x3e5d3e51	0.21605803
130	0xbc9c308f	-0.019066123
131	0xbd473577	-0.048634972
132	0xbe0344e6	-0.12819251
133	0x3cac9199	0.02106552
134	0xbdb71943	-0.08940365
135	0x3d2be9e2	0.041971095
136	0x3de8e204	0.11371234
137	0xbdaf3714	-0.08555427
138	0x3dd58f12	0.10427679
139	0xbdc5e9e2	-0.0966375
140	0xbcc706bb	-0.024295202
141	0xbb0d9a79	-0.0021606965
142	0x3e36e595	0.17861016
143	0xbd8826d6	-0.06648032
144	0x3dd430a7	0.10360842
145	0x3d23743e	0.03990578
146	0x3de2cdc2	0.110744014
147	0xbc6d1d3a	-0.0144723
148	0xbe2b95da	-0.16756383
149	0x3dab3059	0.08358831
150	0xbd0cc5ae	-0.03436821
151	0xbd07307f	-0.033005234
152	0xbd69534d	-0.056964207
153	0x3d998c2c	0.07497439
154	0xbe1e6a87	-0.15470324
155	0xbc358bd5	-0.011080702
156	0xbe16fedf	-0.14745663
157	0x3dc89858	0.09794682
158	0x3e8e44fa	0.27787
159	0xbbe37fa9	-0.0069427085
160	0x3d9fb490	0.077981114
161	0x3dde9015	0.10867325
162	0xbded8fbc	-0.11599681
163	0xbd2fb2ac	-0.042895004
164	0x3c471e8e	0.012153281
165	0xbda18a1c	-0.078876704
166	0xbe490f51	-0.19634749
167	0xbd220c53	-0.039562535
168	0x3d323052	0.043503113
169	0x3e1c758d	0.15279217
170	0xbb981555	-0.004641215
171	0x3dca13b6	0.09867041
172	0xbdb8585c	-0.09001228
173	0x3cc51080	0.02405572
174	0x3cbfea53	0.023427164
175	0xbdc3ecbf	-0.0956664
176	0x3e0526dd	0.13003106
177	0x3c8941db	0.016755035
178	0x3cf5eacd	0.030019188
179	0xbc011409	-0.007878312
180	0xbd3e4b13	-0.046458315
181	0xbd822449	-0.06354577
182	0xbdfd24fd	-0.123605706
183	0xbce6c7ff	-0.028171537
184	0xbe39cc4e	-0.18144342
185	0xbdcfc064	-0.101441175
186	0xbe169eab	-0.14708965
187	0x3cfb3e38	0.030669317
188	0x3dc8541a	0.09781666
189	0xbdb7647b	-0.08954712
190	0x3daf17cf	0.08549463
191	0x3daa6bc0	0.08321333
192	0x3c5b8a5b	0.013399686
193	0x3d8a619a	0.06756897
194	0x3d406d52	0.046979256
195	0x3e2117d3	0.15731744
196	0xbdf991b1	-0.121859916
197	0xbda1d3fb	-0.0790176
198	0xbd273275	-0.040819604
199	0x3cba7a94	0.022763528
200	0x3dafd056	0.08584659
201	0xbd5a2312	-0.053256102
202	0xbd49e8e4	-0.049294367
203	0x3e160eb2	0.14654043
204	0xbc474580	-0.012162566
205	0xbe1c5766	-0.15267715
206	0x3e0c1b37	0.13682257
207	0xbe0f1517	-0.13972889
208	0xbd3011ee	-0.04298585
209	0x3d8ec6dc	0.06971523
210	0x3dedd140	0.11612177
211	0xbd74ab63	-0.05973376
212	0xbd8d71f0	-0.069064975
213	0xbdb9523a	-0.090488866
214	0xbe073360	-0.13203192
215	0xbe263fbd	-0.16235252
216	0x3d1f327b	0.0388665
217	0xbd3630b5	-0.044480044
218	0x3e06c545	0.1316119
219	0xbd9522bd	-0.072820164
220	0x3df54424	0.119758874
221	0xbcad2162	-0.021134082
222	0x3d08e3ca	0.03342036
223	0xbe5b0f75	-0.21392615
224	0x3d389719	0.045065973
225	0xbdf5d8f5	-0.12004272
226	0xbe5f7d4d	-0.21825142
227	0xbdb78ad9	-0.0896203
228	0x3d2b83f1	0.041873876
229	0x3e236ce6	0.1595951
230	0xbdfe2fa6	-0.12411432
231	0x3da36c17	0.07979601
232	0x3d4ce103	0.050019275
233	0xbd0909c4	-0.03345658
234	0xbdceb3c6	-0.10092883
235	0xbdb34093	-0.08752551
236	0xbe2903e5	-0.16505392
237	0x3bbc11a0	0.0057394058
238	0x3e72e875	0.23721488
239	0x3e167805	0.14694221
240	0xbdc39c6c	-0.095513195
241	0x3d4bba05	0.04973795
242	0x3d0bb9ec	0.034112856
243	0x3e5f818f	0.21826766
244	0x3d9d7ce5	0.07689837
245	0x3e0b235a	0.13587704
246	0xbd6c0d38	-0.057629794
247	0xbc52a3a6	-0.0128564
248	0x3daac94e	0.08339177
249	0xbe1280a9	-0.14306892
250	0x3d8493de	0.06473516
251	0x3d97b74f	0.0740801
252	0xbcddb7cf	-0.027065186
253	0x3d0ac281	0.0338769
254	0x3df8f5ec	0.12156281
255	0xbd8a8e8b	-0.06765469

network_body._body_endoder.seq_layers.2.bias f4 [128]
0	0xbb8e00b9	-0.0043335822
1	0x3cb1125c	0.0216152
2	0x3984fc4a	0.00025364972
3	0x3be2e6dd	0.0069244937
4	0x3cac737c	0.021051161
5	0x3ba6e2b2	0.005092942
6	0x3c7dc38d	0.0154885175
7	0x3b8518fc	0.0040618163
8	0x3c8a4aed	0.01688143
9	0x3c57ef34	0.013179589
10	0x3c303fef	0.01075743
11	0x3cc7d075	0.024391392
12	0xbc2d4727	-0.010576046
13	0xbbd17868	-0.0063925274
14	0xbbb44f5d	-0.005502625
15	0x3c4475dc	0.0119909905
16	0x3c961934	0.018322565
17	0x3b96d3a7	0.0046028676
18	0xbb8a6389	-0.0042232913
19	0x3c7fa881	0.015604139
20	0x3cd4d354	0.025979675
21	0xbbd2630f	-0.0064205
22	0x3c6fd54f	0.014638259
23	0xbb131b8e	-0.0022446844
24	0x3bf77839	0.0075521735
25	0x3bd7fbb2	0.0065912837
26	0xbcade81b	-0.02122884
27	0x3b1fa8f5	0.002436218
28	0x3c7c11f0	0.015385136
29	0x3ba655fc	0.005076168
30	0x3c82c466	0.01596279
31	0x3c5fc8c7	0.013658709
32	0x3c55165a	0.013005817
33	0x3ac25238	0.0014825528
34	0x3c17c9d9	0.009264433
35	0x3cbce2e3	0.023057407
36	0x3c88f33f	0.016717551
37	0xbc6a63c0	-0.014306009
38	0x3c3af729	0.011411467
39	0x3cb53502	0.022120003
40	0x3ac2f476	0.001487388
41	0x3b4ce16b	0.003126229
42	0x3ccd6cfc	0.025076382
43	0x3b4c2107	0.0031147616
44	0x3c86501d	0.016395623
45	0xbbd4fb8f	-0.0064997147
46	0x3b88ad68	0.0041710623
47	0x3b533507	0.0032227652
48	0x3c2fe8a0	0.0107366145
49	0x3b7fb01f	0.0039014888
50	0xba287ed5	-0.0006427591
51	0x3b1dbfa1	0.0024070519
52	0x3c1368c8	0.00899715
53	0x3c3b0cb5	0.011416604
54	0x3cbb4127	0.022858215
55	0x3c26de6c	0.010184865
56	0x3b835128	0.0040074773
57	0x3bc124b8	0.00589427
58	0x3be13b5d	0.0068735317
59	0x3c392c33	0.011302042
60	0x3d3e3524	0.046437398
61	0x3d3d9806	0.04628756
62	0x3c1c8492	0.009553092
63	0x3bddbde7	0.006767023
64	0x3c9db43c	0.019250982
65	0x3c505321	0.012715132
66	0x3c6ce9d1	0.014460043
67	0xbb4b534e	-0.0031024995
68	0x3beae919	0.0071689007
69	0xbbca4dbb	-0.006173817
70	0x3bc6483e	0.0060510924
71	0xb842c292	-4.6434412e-05
72	0x3ca2cd51	0.019873293
73	0xbb9b3c2a	-0.0047373967
74	0x3cbea626	0.023272585
75	0x3aab91b6	0.001308969
76	0xbbea90ea	-0.0071583884
77	0x3c9cccc7	0.019140614
78	0x3c6d0936	0.014467528
79	0x3bca3ec5	0.0061720335
80	0x3c8d915c	0.017281227
81	0xbbb0a374	-0.005390579
82	0x3c0eb611	0.0087104
83	0xbbce7612	-0.006300696
84	0x3c44f148	0.012020417
85	0x3c9f5d0c	0.019453548
86	0x3c6e092f	0.014528557
87	0x3c19c98f	0.009386434
88	0x3c38cb4b	0.011278938
89	0x3cb76609	0.022387521
90	0x3c9a298d	0.018818641
91	0x3c26101f	0.0101356795
92	0xbac17ee5	-0.0014762549
93	0xbc07b24b	-0.008282254
94	0x3c3c196b	0.0114806695
95	0x3cf8fa68	0.03039284
96	0x39eea514	0.0004551789
97	0xbb4ce2f1	-0.0031263197
98	0x3ab0c64a	0.0013486829
99	0x3bb4ffa6	0.0055236397
100	0x3ae588b7	0.0017512058
101	0x392a0687	0.00016214895
102	0x3b04dc03	0.0020272739
103	0x3c1d3584	0.009595279
104	0x3b7abd1f	0.0038259698
105	0x3b1c4e11	0.0023850242
106	0x3bbeceba	0.0058229836
107	0x3b3ae7e2	0.002851956
108	0x3cab98ca	0.020946879
109	0x3c566955	0.013086637
110	0xbc61d214	-0.013782997
111	0x3cefffc2	0.02929676
112	0x3ba7f7c5	0.005125972
113	0x3c22bbe0	0.009932488
114	0x3c030bb0	0.007998392
115	0x3c625bc0	0.01381582
116	0xbb34cce1	-0.0027587938
117	0x3a9a0009	0.0011749278
118	0x3ba7f70f	0.005125887
119	0xbbf1d68e	-0.0073803132
120	0x3c0ee8d6	0.008722505
121	0x3c5b9131	0.013401316
122	0x3c57c37d	0.013169167
123	0x3ccfdec6	0.025374781
124	0xbbce49ae	-0.0062954044
125	0x3b039373	0.00200769
126	0x3c972e21	0.018454613
127	0x3c75c80b	0.015001307

action_model._continuous_distribution.log_sigma f4 [1, 2]
0	0x3daa03e5	0.08301524
1	0x3d4668ee	0.048439912

action_model._continuous_distribution.mu.weight f4 [2, 128]
0	0xbc8bd857	-0.017070932
1	0xbd830a96	-0.063985035
2	0x38814bb1	6.165298e-05
3	0xbcf311b3	-0.029671526
4	0x3c834959	0.016026186
5	0xbdac2b7b	-0.08406731
6	0x3d45df9d	0.048308957
7	0xbd264319	-0.040591333
8	0xbd445691	-0.04793412
9	0x3d55d05e	0.052200668
10	0x3da8f7aa	0.08250363
11	0x3d35ddeb	0.04440109
12	0xbad408a4	-0.0016176892
13	0x3c87a90d	0.016560102
14	0xb988c01d	-0.00026083077
15	0xbd224e67	-0.03962555
16	0x3ce1460f	0.027499227
17	0x3c28ab05	0.0102946805
18	0x3cec046e	0.028810706
19	0xbd4c4fd0	-0.049880803
20	0x3bb0c833	0.0053949594
21	0xbcfc2367	-0.0307786
22	0xbc446cf5	-0.011988868
23	0xbbe3aa5e	-0.0069477996
24	0xbcee1892	-0.02906445
25	0xbcd0c54f	-0.02548471
26	0x3c9da592	0.01924399
27	0x3c833b3f	0.016019462
28	0x3cbf9e42	0.023390893
29	0x3cdc9ec9	0.026931183
30	0xbb7ed03e	-0.0038881446
31	0x3a883521	0.001039181
32	0x3c9bc6f0	0.01901576
33	0x3afe36a7	0.001939495
34	0xba7ba26b	-0.00095990923
35	0x3d3581b2	0.04431314
36	0x3d4a57aa	0.04940001
37	0x3cafde11	0.021468194
38	0x3c9aef05	0.018912802
39	0x3da2e1b2	0.07953204
40	0x3cbb5f53	0.022872603
41	0x3cec901b	0.028877309
42	0xbd90fb89	-0.070792265
43	0x3c3fa4b5	0.011696984
44	0xbd03ab3e	-0.03214573
45	0xbc1c9ec6	-0.009559339
46	0xbc1043aa	-0.008805195
47	0x3c3ec4c7	0.011643595
48	0x3ce1c2f3	0.02755878
49	0x3c012fc6	0.007884925
50	0x39965c7f	0.00028679144
51	0x3cf8153b	0.030283561
52	0x3cff3809	0.03115465
53	0x3d19e75e	0.037574165
54	0x3c9f771f	0.019465981
55	0x3d4f6361	0.050631884
56	0x3ca4324f	0.02004352
57	0x3c3f8c96	0.011691233
58	0x3d42cc16	0.047557913
59	0x3cf9b81c	0.030483298
60	0xbdccbef1	-0.09997357
61	0xbdbd0c59	-0.09230871
62	0xbd60f667	-0.054922488
63	0xbd365b2a	-0.044520535
64	0xbd8232ca	-0.063573435
65	0x3ce9d90d	0.02854588
66	0x3c62c539	0.013840967
67	0x3d286c1c	0.041118726
68	0x3bd03360	0.0063537806
69	0xbce759ea	-0.028241117
70	0x3cd5b249	0.02608599
71	0x3cd0bfa9	0.025482016
72	0xbd5d8e29	-0.054090653
73	0x3c7481f7	0.014923564
74	0x3d3065bb	0.043065768
75	0xbc4054f7	-0.011739007
76	0xbd8bacc7	-0.06820064
77	0xbdb7ca73	-0.08974161
78	0x3d23ab51	0.039958302
79	0x3c5a1cff	0.013312577
80	0x3d14f001	0.036361698
81	0xbbb7ed95	-0.005613039
82	0x3cb720cf	0.022354512
83	0xbd354119	-0.044251535
84	0xbd3e938a	-0.046527423
85	0x3d778ee4	0.060439005
86	0x3c914e84	0.017737634
87	0xbd561b8e	-0.052272372
88	0x3d06fdfb	0.03295706
89	0x3d0096f6	0.031393968
90	0x3cec9db8	0.0288838
91	0xbc7ea6fb	-0.015542741
92	0x3d55201b	0.05203257
93	0xbccf8132	-0.02533016
94	0xbc93ac0b	-0.018026372
95	0xbd9bee81	-0.076138504
96	0xbd6bec93	-0.05759866
97	0x3c337518	0.01095321
98	0xbd3bd9f3	-0.04586215
99	0xbc6b4c33	-0.014361429
100	0xbd86878c	-0.06568822
101	0xbd98890e	-0.07448016
102	0xbd27171b	-0.04079352
103	0x3a6ceb62	0.00090377603
104	0x3cf07250	0.029351383
105	0x3c71bb18	0.014754079
106	0x3ca8e62d	0.020617569
107	0x3ca89a62	0.020581428
108	0xbbad4574	-0.0052878205
109	0xbbf6b1b5	-0.0075285085
110	0x3c6a2f17	0.014293454
111	0x3cfe17c9	0.031017201
112	0xbccdead2	-0.025136385
113	0x3cbd1661	0.02308196
114	0x3d3bbd7a	0.045834996
115	0x3d326891	0.043556754
116	0xbaf097c7	-0.001835578
117	0xbd888e43	-0.06667759
118	0x3c434647	0.011918611
119	0x3c9c3d4a	0.019072194
120	0x3c169a0b	0.009192
121	0x3d23ef83	0.040023338
122	0x3cb16d0d	0.021658445
123	0xbd76a18e	-0.060212664
124	0xba55464c	-0.000813578
125	0x3d07b9f2	0.033136316
126	0x3d0f4ee2	0.034987338
127	0xbdac9a7a	-0.084279016
128	0xbd0a7221	-0.033800248
129	0xbd097056	-0.033554398
130	0x3d113c30	0.03545779
131	0xbd39ba86	-0.0453439
132	0xbdb19af3	-0.08672132
133	0xbd304bd9	-0.043041084
134	0x3cb1d8e1	0.021709861
135	0x3d5a7a40	0.053339243
136	0xbb746b7e	-0.0037295516
137	0xbc0b1204	-0.008488182
138	0xbc5031db	-0.012707199
139	0x3d871bd8	0.06597108
140	0xbc6efcf0	-0.014586672
141	0x3c5f3d7c	0.013625499
142	0x3d090a70	0.03345722
143	0xbd76e78e	-0.06027942
144	0xbd29741f	-0.041370507
145	0x3d52b66f	0.051443513
146	0x3c9d6054	0.019210972
147	0xbd631bc1	-0.05544639
148	0xbd454c37	-0.048168387
149	0x3c830ccf	0.015997319
150	0xbd77cf6d	-0.06050055
151	0x3cb81035	0.022468666
152	0x3d5858e4	0.052819148
153	0xbd47d7c9	-0.048789773
154	0x3cc42947	0.023945464
155	0x3d813f10	0.06310856
156	0xbd276eb4	-0.04087706
157	0x3d13d74d	0.036094
158	0x3d896d39	0.06710286
159	0xbd42d700	-0.04756832
160	0xbd044c06	-0.032299064
161	0xbce9c22f	-0.028534977
162	0xbd5d851a	-0.054082014
163	0xbd892907	-0.066972785
164	0x3d135ac4	0.035975233
165	0x3ce2f253	0.02770344
166	0x3d2f161e	0.042745702
167	0xbda3c221	-0.079960115
168	0x3d041cb7	0.032253947
169	0xbc672144	-0.014107052
170	0xbd6fc2e0	-0.058535457
171	0xbd0469d4	-0.032327488
172	0xbd86bcc6	-0.065789744
173	0xbcc466c2	-0.02397478
174	0x3b8521a5	0.0040628486
175	0xbd8df90e	-0.06932269
176	0xbd49f6cc	-0.04930763
177	0xbd373b6a	-0.044734396
178	0x3d3902a0	0.04516852
179	0x3c627f60	0.013824314
180	0xbc94a158	-0.018143341
181	0xbd1057a5	-0.035239834
182	0x3da57fa1	0.08080984
183	0x3d6e84f7	0.058232274
184	0xbcec6491	-0.028856548
185	0x3d9a89f7	0.07545846
186	0x3cd0e7b3	0.025501108
187	0x3d30173f	0.04299092
188	0xbd7c7df5	-0.06164356
189	0xbd29c08c	-0.041443393
190	0xbcc051be	-0.023476478
191	0x3cfd9237	0.03095351
192	0xbd6255db	-0.05525766
193	0x3dfe3022	0.12411524
194	0xb9c265f2	-0.0003707852
195	0x3c02d98b	0.007986437
196	0x3d9a7ac2	0.075429454
197	0x3d5c2af8	0.053751916
198	0xbd24147f	-0.04005861
199	0x3cb7b0a6	0.0224231
200	0xbd130396	-0.03589209
201	0x3d26947c	0.04066895
202	0xbd9471cc	-0.072482675
203	0x3d4521c8	0.04812792
204	0x3d048dc6	0.03236177
205	0xbd1d96ed	-0.038474012
206	0x3da67b6b	0.08129009
207	0xbd0d4012	-0.03448493
208	0xbd184777	-0.03717753
209	0x3c403d4c	0.011733364
210	0xbd4ba518	-0.049717993
211	0xbad06299	-0.0015898525
212	0xbd66aed0	-0.056319058
213	0xbd40925d	-0.047014583
214	0x3d84a5dd	0.064769484
215	0xbcba2478	-0.022722468
216	0xbd8c1816	-0.068405315
217	0xbd70bf39	-0.058776114
218	0xbd708de2	-0.05872906
219	0xbcbc7041	-0.023002746
220	0x3d15be6c	0.036558554
221	0xbcb48882	-0.022037748
222	0x3d633e02	0.055479057
223	0xbc122fd3	-0.008922535
224	0xbc4cce08	-0.012500294
225	0x3cfb6e3e	0.030692216
226	0xbc9e6d65	-0.019339273
227	0x3ceba971	0.02876732
228	0xbba55cce	-0.0050464636
229	0xbbf406ee	-0.007447115
230	0x3c32e3b0	0.010918543
231	0x3d5658d7	0.052330818
232	0xbcf9df51	-0.030501993
233	0xbc88bd1b	-0.016691735
234	0x3d199e15	0.037504274
235	0xbd082a7e	-0.03324365
236	0x3d8d6980	0.06904888
237	0x3d1f838a	0.038943805
238	0x3cd82a9e	0.026387509
239	0x3da800c6	0.082032725
240	0x3db09320	0.08621812
241	0xbd31b2e3	-0.04338349
242	0x3cf4772b	0.02984198
243	0x3c36f577	0.011166922
244	0xbbbf7374	-0.0058426205
245	0xbcd2f65f	-0.025752245
246	0x3c198b93	0.009371656
247	0x3bd03ffd	0.0063552842
248	0xbd5b7d32	-0.053586192
249	0x3d6c83fd	0.05774306
250	0x3dc22f7b	0.094817124
251	0xbd8052bb	-0.062657796
252	0x3d4170f7	0.047226872
253	0x3dac55a4	0.08414772
254	0xbd736ed4	-0.059431866
255	0xbd69bce6	-0.057064913

action_model._continuous_distribution.mu.bias f4 [2]
0	0x3bf5f77c	0.007506309
1	0xbc8fd539	-0.017557727
