results/car6/CarFindGoal/CarFindGoal-3499986.pt (torch, 530875 bytes, 36 tensors)

network_body._body_endoder.seq_layers.0.weight f4 [128, 36]
0	0xbe864a01	-0.26228335
1	0x3ca1cc4b	0.019750735
2	0x3da0c6a7	0.0785039
3	0x3e4082ec	0.18799943
4	0xbd340d4a	-0.043957986
5	0xbc2b3872	-0.010450469
6	0x3e4e30e7	0.20135842
7	0x3e568134	0.20947725
8	0x3b7113e6	0.0036785542
9	0x3e722455	0.23646672
10	0x3d87fa3c	0.06639525
11	0xbd8a8a90	-0.0676471
12	0x3d436902	0.047707565
13	0xbe26ecab	-0.16301219
14	0x3db5a7f3	0.088699244
15	0x3ddd702f	0.10812413
16	0x3e2a190b	0.16611116
17	0xbd69ab84	-0.057048336
18	0xbd0663f2	-0.03281016
19	0xbdd2767e	-0.10276507
20	0x3da1e261	0.079045065
21	0xbd253956	-0.040337883
22	0x3c9a2fb5	0.018821577
23	0x3ee8cb55	0.4546763
24	0xbe15b1cb	-0.14618604
25	0x3e6514b1	0.22371174
26	0xbd29b3cf	-0.041431244
27	0x3e3969f0	0.18106818
28	0x3d3bdc16	0.045864187
29	0x3ca0995d	0.01960438
30	0x3eaffdd1	0.34373334
31	0x3e649baf	0.22325014
32	0xbe60e676	-0.21962914
33	0x3e9a61df	0.30152795
34	0xbdbdcedc	-0.09267971
35	0x3db95882	0.09050085
36	0xbc9976cc	-0.018733405
37	0x3eff9c45	0.49923912
38	0xbeb36d66	-0.35044402
39	0xbd99555e	-0.074869856
40	0xbe96a440	-0.29422188
41	0x3e655aed	0.22397967
42	0xbd8d60ff	-0.06903266
43	0x3d682710	0.056677878
44	0xbe1e1040	-0.15435886
45	0xbee047d5	-0.43804803
46	0x3d29062d	0.041265655
47	0x3cf93330	0.030419916
48	0xbc8d7838	-0.017269239
49	0xbd8b1d32	-0.06792678
50	0xbe5058b5	-0.20346339
51	0xbe65924e	-0.22419092
52	0x3e8f8504	0.2803117
53	0x39c772d7	0.000380418
54	0x3eae96ec	0.3409952
55	0xbcee61f9	-0.029099451
56	0x3e6bc1d6	0.23023161
57	0xbcbc3a78	-0.022977099
58	0xbe221215	-0.1582721
59	0xbdb0cb84	-0.086325675
60	0x3eb8d774	0.36101878
61	0xbe860b25	-0.26180378
62	0x3d401a12	0.046899863
63	0x3e7d967a	0.24764434
64	0xbd678395	-0.05652197
65	0x3e1b6e1b	0.1517872
66	0x3e030523	0.12794928
67	0x3e409e5d	0.18810411
68	0xbe9a1f7a	-0.3010214
69	0x3d4d6412	0.050144263
70	0xbdece96f	-0.115679614
71	0xbe0c383b	-0.13693325
72	0xbe9c39d7	-0.30512878
73	0xbdd1e8a8	-0.10249454
74	0x3d8b2d44	0.06795743
75	0x3d888b90	0.066672444
76	0xbe1ba16e	-0.151983
77	0xbd07f77b	-0.033195
78	0x3e0cbba2	0.13743451
79	0xbc6beb70	-0.014399394
80	0x3d6f2702	0.05838681
81	0x3dcf2d61	0.10116077
82	0x3ce3ee9d	0.02782374
83	0x3da5e488	0.081002295
84	0xbdb143fa	-0.086555436
85	0xbc39221d	-0.011299637
86	0x3ed23399	0.4105499
87	0xbe05b285	-0.13056381
88	0xbdfcec4f	-0.1234976
89	0xbde5a5a4	-0.11213234
90	0x3e5f35c8	0.2179786
91	0x3e894593	0.26810893
92	0x3e2605ad	0.16213103
93	0xbc8c51ca	-0.017128844
94	0xbe631d9d	-0.22179265
95	0xbdc81987	-0.09770494
96	0xbea692a8	-0.32533765
97	0x3dc00e9d	0.09377787
98	0xbebb21ea	-0.36549312
99	0xbd41d44c	-0.047321603
100	0x3cd9e36e	0.026597705
101	0x3d7255c1	0.059163813
102	0xbe848b9e	-0.2588777
103	0x3e9aa770	0.3020587
104	0x3dbe4a10	0.0929147
105	0xbde714d4	-0.112832695
106	0x3e07c987	0.1326047
107	0x3e3ba237	0.18323599
108	0xbdda596a	-0.10661586
109	0x3d3e599b	0.046472173
110	0x3e085ac2	0.13315871
111	0x3dcd868e	0.1003543
112	0xbe398665	-0.18117674
113	0x3e2500d3	0.16113596
114	0x3e0c26d5	0.13686688
115	0x3e8914a8	0.26773572
116	0xbe1a55fa	-0.1507186
117	0x3e8af352	0.27138764
118	0x3d2ba60c	0.0419064
119	0xbda72dbe	-0.081630215
120	0xbeb617f9	-0.35565165
121	0xbe564272	-0.20923784
122	0xbe348de8	-0.17632258
123	0x3df9fa2b	0.12205919
124	0xbd9f2603	-0.07770922
125	0xbcb661ab	-0.022263369
126	0x3d10abf8	0.035320252
127	0x3de723b8	0.1128611
128	0x3d92e0f4	0.07171813
129	0x3e90dc9d	0.28293315
130	0x3e48a439	0.19593896
131	0xbe56febd	-0.20995612
132	0x3e589174	0.21149236
133	0x3e02dd4d	0.12779732
134	0xbdc91fe3	-0.09820535
135	0x3c37cee4	0.01121876
136	0xbc1c432c	-0.009537499
137	0xbe184965	-0.14871748
138	0xbe31985b	-0.17343275
139	0x3e80090b	0.250069
140	0xbdac6589	-0.08417804
141	0xbee0d880	-0.43915176
142	0x3d285e48	0.04110554
143	0x3e2bdb80	0.16782951
144	0xbdb28ce9	-0.08718283
145	0xbe265d7a	-0.16246596
146	0x3c4ed0fc	0.012623068
147	0xbe780731	-0.24221493
148	0x3e4393ab	0.190993
149	0xbe10383e	-0.14083955
150	0xbe0573e9	-0.13032497
151	0xbca4ca93	-0.020116126
152	0x3e221eb0	0.15832019
153	0x3dd42214	0.103580624
154	0xbe44794f	-0.191869
155	0x3db79d69	0.089655705
156	0xbd229ab2	-0.03969831
157	0xbe48adc2	-0.19597533
158	0xbd1ad3a0	-0.037799478
159	0x3e7222b3	0.23646049
160	0xbb038bcf	-0.0020072346
161	0x3e8f8ee4	0.28038704
162	0xbc95d4d2	-0.018289957
163	0x3e1835c3	0.14864258
164	0x3e674f0c	0.22588748
165	0xbecf9958	-0.4054668
166	0xbea1ec37	-0.3162553
167	0xbe660344	-0.22462183
168	0x3ea688ce	0.3252625
169	0xbea548bd	-0.32282057
170	0x3e3b0131	0.18262173
171	0xbe8c97c7	-0.27459547
172	0x3c4bb11f	0.012432366
173	0x3e1d525f	0.15363453
174	0x3d345be2	0.04403294
175	0x3df5f5c9	0.120097704
176	0x3d9c47f6	0.07630913
177	0xbda46d5a	-0.0802867
178	0x3ca125e9	0.019671397
179	0x3d6dacce	0.058026128
180	0x3e5eb67e	0.21749303
181	0xbe59f804	-0.21286017
182	0xbdb679ec	-0.089099735
183	0xbdc518b1	-0.0962385
184	0x3dae954f	0.08524572
185	0x3d37b51d	0.044850457
186	0xbd0ee83b	-0.03488944
187	0x3d814420	0.06311822
188	0xbd74aaee	-0.059733324
189	0x3bfbc6c2	0.007683606
190	0x3da623ae	0.08112274
191	0x3d09ce74	0.033644155
192	0x3daa8c1e	0.083275065
193	0xbd8c4144	-0.06848386
194	0x3cc075c9	0.023493664
195	0x3d469ccd	0.04848938
196	0xbc432eed	-0.011913043
197	0xbdb879c3	-0.09007599
198	0xbe3907b4	-0.18069345
199	0x3bc2e8cf	0.005948163
200	0x3e0b8be0	0.13627577
201	0x3d6a70c2	0.05723644
202	0x3d77a270	0.060457647
203	0xbe6716ff	-0.22567366
204	0xbe1f29cc	-0.15543288
205	0x3d28f58a	0.04124979
206	0xbd9f019e	-0.0776398
207	0x3da0b182	0.07846357
208	0xbe081388	-0.132887
209	0xbe96e22a	-0.29469424
210	0xbbb2d815	-0.005457888
211	0xbd926d14	-0.07149711
212	0xbcffb6f1	-0.031215163
213	0xbe9990f3	-0.299934
214	0xbe3ae25b	-0.1825041
215	0x3e50f563	0.20406108
216	0x3e0c7796	0.13717493
217	0xbe913de4	-0.2836753
218	0x3d5cb75c	0.053885803
219	0x3d2e6f80	0.042586803
220	0xbe8c1d3b	-0.2736605
221	0x3e127334	0.14301759
222	0x3d773b86	0.0603595
223	0xbe09b5c3	-0.13448243
224	0xbdd98a98	-0.10622138
225	0xbdeae6ed	-0.11469827
226	0x3d98094a	0.07423647
227	0x3de68bf4	0.11257163
228	0x3e253686	0.1613408
229	0x3d539e0a	0.05166439
230	0xbdc7ff88	-0.097655356
231	0x3c972ae6	0.018453073
232	0x3ea2ebe1	0.31820586
233	0xbe554b07	-0.20829402
234	0xbe7adc7c	-0.2449817
235	0x3bc864aa	0.0061155157
236	0xbe0b607f	-0.13611029
237	0x3e0ec0f0	0.13940787
238	0xbef57ef0	-0.47948408
239	0xbdaff5a9	-0.08591778
240	0x3d8a048f	0.06739151
241	0x3be8d2e4	0.0071052182
242	0xbd5ae8db	-0.053444725
243	0x3a8bc01c	0.0010662111
244	0x3e3a66e9	0.1820332
245	0xbe4deffe	-0.20111081
246	0x3ea792be	0.32729143
247	0x3e5ef5af	0.21773408
248	0xbd3eb66e	-0.046560697
249	0x3b408df7	0.0029381493
250	0xbe464ac0	-0.19364452
251	0x3e14fa78	0.14548671
252	0x3e8784f7	0.26468632
253	0xbdd8e79f	-0.10591053
254	0x3b85384c	0.004065549
255	0xbd0c0205	-0.034181613

network_body._body_endoder.seq_layers.0.bias f4 [128]
0	0x3ae1cc34	0.0017226995
1	0x3d02a4ac	0.031895325
2	0x3c3afa69	0.0114122415
3	0xbbc5445e	-0.006020113
4	0xbc7a4851	-0.015276031
5	0x3bb9ae68	0.005666543
6	0x3b786b4d	0.0037905753
7	0x3be18d56	0.0068833036
8	0x3d08b2dd	0.033373702
9	0xbc18c91d	-0.009325293
10	0x3d0f4b39	0.034983847
11	0x3b8e639c	0.0043453705
12	0x3cac7e4b	0.021056315
13	0xbcf2492e	-0.02957591
14	0xbc188629	-0.00930933
15	0x3cfa4f48	0.030555382
16	0xbb90253f	-0.0043989713
17	0xbcf510bd	-0.029915208
18	0xbac90dda	-0.0015339211
19	0x3cac561d	0.021037156
20	0xbc25b41c	-0.010113742
21	0xb92023c7	-0.00015272117
22	0xbc523d29	-0.0128319645
23	0x3c3ae6d7	0.011407576
24	0x370372a0	7.834897e-06
25	0x3c6c39df	0.014418094
26	0x3c0477f0	0.008085236
27	0xbc65cdff	-0.014026164
28	0x3ca25295	0.019814769
29	0x3a97e4c0	0.0011588559
30	0x3c7b5bbc	0.015341695
31	0x3c6f1d84	0.014594439
32	0xbc225783	-0.00990856
33	0x3b277a20	0.002555497
34	0x3c7ea344	0.015541855
35	0x3c9324b4	0.017961837
36	0x3bb005e8	0.005371798
37	0x3c546514	0.012963552
38	0x3d831d63	0.064020894
39	0x3cb5aaa3	0.022176092
40	0x3c2d4733	0.010576057
41	0xbccf0803	-0.025272375
42	0xbc82c5c5	-0.015963444
43	0x3d1312dd	0.03590666
44	0x3c902734	0.017596819
45	0x3c830a28	0.015996054
46	0xbc7774c3	-0.015103522
47	0xbc7fc674	-0.01561128
48	0x3aca1e6f	0.0015420447
49	0xbd08fd8a	-0.03344492
50	0xbbea8683	-0.0071571483
51	0x3c7dc88b	0.015489708
52	0x3c7ae967	0.0153144365
53	0x3d6485d7	0.055791702
54	0x3cf11626	0.029429507
55	0x3d1bcd1c	0.038037404
56	0x3c4c8ec3	0.012485209
57	0x3d194619	0.037420366
58	0x3c252714	0.010080118
59	0xbbe572cc	-0.0070022102
60	0x3d5938a9	0.05303255
61	0x3d612f92	0.054977007
62	0xbac50027	-0.0015029953
63	0x3cc4c36a	0.024018962
64	0xbd22edfc	-0.03977774
65	0x3d32883e	0.043586962
66	0x3cef0e07	0.029181493
67	0x3b4e07bc	0.0031437716
68	0x3b570cb6	0.0032813973
69	0x3b86dc61	0.0041156267
70	0xbb4e1672	-0.0031446484
71	0xbb10cd07	-0.0022094862
72	0xbbc6ddc4	-0.006068917
73	0xbc3d09a1	-0.01153794
74	0x3c770cda	0.015078748
75	0x3c1a1cb2	0.009406256
76	0xbbeefd1b	-0.007293356
77	0x3ca57dc8	0.020201579
78	0x3c006c21	0.00783828
79	0x3d23537a	0.03987453
80	0x3d956ccb	0.07296141
81	0x3c459d8a	0.012061486
82	0x3cc6c84d	0.024265433
83	0xbbeb227c	-0.0071757417
84	0xbb9460a6	-0.004528123
85	0x3d1629c7	0.036660936
86	0x3d13fbbf	0.036128756
87	0x3cfd6d8e	0.030936029
88	0x3d0e0804	0.034675613
89	0xbbd5a25c	-0.006519599
90	0xbbd46114	-0.006481299
91	0x3ce5dacb	0.02805843
92	0x3d4906a5	0.049078602
93	0x3c4aa26d	0.012367827
94	0x3ca19d65	0.019728372
95	0x3cd1e301	0.02562094
96	0xbcb6527d	-0.02225613
97	0xbb721668	-0.0036939625
98	0x3d4b245b	0.04959522
99	0x3d29be44	0.041441217
100	0xbbe7c656	-0.007073204
101	0xbc9f4367	-0.01944132
102	0xbd86c140	-0.06579828
103	0x3d63f78f	0.055656012
104	0xbcd1dd0e	-0.025618102
105	0x3c51b358	0.012799107
106	0xbbd8e18b	-0.0066186837
107	0x3bd1e99f	0.0064060236
108	0x3c980037	0.01855479
109	0x3cc8d6c4	0.02451647
110	0x3c0ae4e0	0.00847742
111	0xbba33eb8	-0.004981842
112	0x3cfd6497	0.030931754
113	0xbcbc1547	-0.022959365
114	0xbc8eae67	-0.017417146
115	0xbba9b283	-0.005178751
116	0x3cc5cc18	0.024145171
117	0x3d060617	0.03272065
118	0xbba976ac	-0.0051716175
119	0x3cb6e7fc	0.022327416
120	0x3b59566a	0.003316308
121	0x3cbb5c19	0.022871064
122	0xbb4cc85c	-0.0031247353
123	0xbc8152b8	-0.015786514
124	0x3d386811	0.04502112
125	0xbca4077d	-0.020023102
126	0xbc849a77	-0.016186936
127	0xbc340d7a	-0.010989541

network_body._body_endoder.seq_layers.2.weight f4 [128, 128]
0	0x3ddd586a	0.10807879
1	0x3e2b434d	0.16724892
2	0x3d23eab9	0.04001877
3	0xbddc7717	-0.10764902
4	0xbc547b8d	-0.01296891
5	0x3dbfe8bb	0.09370562
6	0x3def6d6d	0.11690793
7	0x3d5aebfc	0.05344771
8	0xbe5b2aa6	-0.21402988
9	0x3ba01dc2	0.00488636
10	0xbd725e62	-0.05917204
11	0x3d5b67a5	0.05356564
12	0xbcfc36a1	-0.030787768
13	0x3d6c43e3	0.05768193
14	0xbdd91bcc	-0.10601005
15	0x3c4d23af	0.012520715
16	0x3e15a11c	0.1461224
17	0x3b60c41a	0.0034296573
18	0x3a0adfee	0.00052976504
19	0xbd85e892	-0.065385
20	0xbdbe2d24	-0.09285954
21	0x3dd61bb6	0.10454504
22	0xbe10116e	-0.14069149
23	0xbd4ee4ca	-0.05051116
24	0x3e25c81a	0.16189614
25	0xbd1f49b8	-0.038888663
26	0x3e0cb6ff	0.13741682
27	0xbdee223c	-0.116276234
28	0x3d605c10	0.054775298
29	0xbcc85082	-0.024452452
30	0xbb55f6c5	-0.0032648307
31	0x3dd2c9f3	0.10292425
32	0xbe030897	-0.12796246
33	0xbd1b3818	-0.037895292
34	0x3d9c05db	0.07618304
35	0x3d31cd96	0.043408953
36	0xbd664025	-0.056213517
37	0xbd40bc32	-0.047054477
38	0x3c82ceff	0.015967844
39	0xbd1f90e6	-0.038956545
40	0x3da3cc45	0.07997946
41	0xbe6cb29b	-0.23115008
42	0xbc805b87	-0.015668644
43	0x3e13327c	0.14374727
44	0x3e015857	0.12631355
45	0x3db78442	0.08960773
46	0xbd95b4c0	-0.07309866
47	0x3d14f22c	0.036363766
48	0xbd8c7933	-0.068590544
49	0xbda32df7	-0.079677515
50	0xbdf08327	-0.11743765
51	0xbe076851	-0.13223387
52	0xbd8191b8	-0.06326622
53	0x3de91245	0.11380438
54	0xbd8f13ef	-0.06986224
55	0x3d44e1a0	0.048066735
56	0xbd3752cd	-0.0447567
57	0xbd9598a1	-0.07304502
58	0x3cf9f75b	0.030513456
59	0x3d2a6330	0.0415985
60	0xbdc02fb9	-0.093841024
61	0xbbe1a611	-0.0068862517
62	0x3d4509df	0.048105117
63	0xbe14675f	-0.14492558
64	0x3d99478f	0.07484352
65	0x3db2d4b8	0.08731979
66	0x3dd6a06c	0.10479817
67	0xbe024bb0	-0.12724185
68	0x3d999a58	0.07500142
69	0x3daf8d05	0.08571819
70	0xbb1b41bf	-0.002369031
71	0xbcb80dc7	-0.022467507
72	0xbd503fc5	-0.050842065
73	0xbe45f207	-0.19330607
74	0xbd2b739e	-0.041858308
75	0x3dfaccb9	0.12246079
76	0x3dd24b9e	0.10268329
77	0xbd56d166	-0.05244579
78	0x3d63894c	0.05555086
79	0x3e1c9961	0.15292884
80	0xbd93448a	-0.07190807
81	0xbe021797	-0.12704311
82	0xbb03104b	-0.0019998725
83	0x3ce62eb9	0.028098451
84	0x3ca0b594	0.019617833
85	0x3d17676c	0.036963865
86	0x3d8fba82	0.070179954
87	0xbc7dbd2c	-0.015486997
88	0xbd1e45f4	-0.03864093
89	0x3e2b446d	0.16725321
90	0x3e3304e2	0.17482331
91	0xbd282c19	-0.04105768
92	0x3db99312	0.090612546
93	0x3e9eebaa	0.31039172
94	0x3e2b00d0	0.16699529
95	0x3df2d153	0.11856332
96	0xbcaf7da5	-0.021422217
97	0x3e0e61ba	0.13904467
98	0xbc8b7bc2	-0.017026786
99	0xbe868c25	-0.26278797
100	0xbdf061ef	-0.11737429
101	0xbdc6fd58	-0.0971629
102	0xbdcc7efa	-0.09985156
103	0x3d8b70fe	0.06808661
104	0x3d437a2f	0.047723945
105	0xbd336966	-0.043801688
106	0x3cc02d93	0.023459231
107	0x3da4d3db	0.08048221
108	0x3d55480b	0.05207066
109	0x3e770548	0.24123108
110	0x3d1dc988	0.038522273
111	0x3dc52e8a	0.09628017
112	0x3e2f67b1	0.17129399
113	0xbe136757	-0.1439489
114	0xbdd915f2	-0.10599889
115	0xbdb1888d	-0.08668623
116	0x3e56153c	0.20906538
117	0xbdb5085c	-0.08839485
118	0x3d3537ee	0.04424279
119	0xbc37c393	-0.011216062
120	0x3e02d466	0.12776336
121	0xbe538a14	-0.20658141
122	0x3de90181	0.1137724
123	0xbd4f71f1	-0.050645772
124	0x3d697b50	0.057002366
125	0xbda7e24c	-0.081974596
126	0xbe0e3a2c	-0.13889378
127	0xbcb49c35	-0.022047142
128	0x3e6846e5	0.22683294
129	0xbd4640f7	-0.0484018
130	0x3d27fd6f	0.041013177
131	0x3c214bb7	0.009844712
132	0x3bc3d4d2	0.005976298
133	0x3d8d590d	0.06901751
134	0x3d211eb4	0.03933592
135	0x3c9c8741	0.019107463
136	0xbe224979	-0.1584834
137	0xbe00136b	-0.12507407
138	0xbce610e8	-0.028084233
139	0xbd3a7565	-0.045522112
140	0x3cc0517a	0.023476351
141	0x3cfad00d	0.030616784
142	0xbe09ec31	-0.13469006
143	0xbe608c6a	-0.21928564
144	0x3d773e8a	0.060362376
145	0x3d9764ce	0.07392274
146	0xbdb67055	-0.089081444
147	0x3ca7d4ce	0.020487215
148	0x3d8ae22f	0.06781422
149	0xbc048af0	-0.008089766
150	0xbe394cc4	-0.1809569
151	0x3c921d48	0.017836228
152	0x3dad36b3	0.08457699
153	0xbdf32dcb	-0.11873969
154	0x3ad150d7	0.0015969527
155	0x3de31bf8	0.11089319
156	0xbd9ca11d	-0.076479174
157	0xbd9fc4fd	-0.078012444
158	0xbd00126f	-0.03126758
159	0x3e02f4ba	0.12788668
160	0x3e04d29d	0.12970968
161	0xbdd3ddc1	-0.103450306
162	0xbbc2d1df	-0.0059454287
163	0x3c8d0202	0.017212871
164	0x3e7ea73c	0.24868482
165	0xbd9af86a	-0.075669125
166	0x3be1ca46	0.006890568
167	0x3be56362	0.0070003727
168	0x3dff852d	0.12476573
169	0x3bf87650	0.0075824633
170	0x3d618666	0.055059813
171	0xbdd30f9d	-0.10305712
172	0xbdcd4156	-0.100222275
173	0xbb16a76c	-0.0022987975
174	0xbd31d638	-0.043417186
175	0xbd3118f7	-0.0432367
176	0x3d46a768	0.048499495
177	0x3e4e1f1e	0.20129058
178	0x3d0abcd7	0.033871498
179	0x3da79b4e	0.08183919
180	0xbd809575	-0.06278507
181	0xbd96def0	-0.07366741
182	0xbb8ac0cb	-0.0042344085
183	0xbcbbc988	-0.022923246
184	0x3d9e5f81	0.0773306
185	0x3db916e5	0.0903757
186	0x3cfce513	0.03087095
187	0x3d4cd037	0.050003257
188	0xbdec6e7c	-0.11544511
189	0xbde6a5b5	-0.11262075
190	0xbdcc4558	-0.09974164
191	0xbd51bf43	-0.051207792
192	0x3d7d35cc	0.061818883
193	0x3c2bf20e	0.010494722
194	0x3d623053	0.055221867
195	0xbd1dc6bd	-0.03851961
196	0xbd0d05c2	-0.03442932
197	0xbcbfdc37	-0.023420436
198	0x3d6eacac	0.05827014
199	0x3e0afca1	0.13572933
200	0x3db50740	0.088392735
201	0xbe24c0cb	-0.1608917
202	0xbd53bcdc	-0.051693782
203	0xbe1addf9	-0.15123738
204	0x3d118141	0.035523657
205	0xbd848347	-0.06470352
206	0x3df26c3c	0.1183705
207	0xbdd954c7	-0.10611873
208	0xbd360ace	-0.044443898
209	0x3d9839d1	0.074329026
210	0x3ddb95f1	0.107219584
211	0x3e0970e2	0.13421968
212	0xbd78b30e	-0.060717635
213	0x3e123ce8	0.14281046
214	0xbdaf3322	-0.08554675
215	0xbe901ce3	-0.2814704
216	0xbdbd5353	-0.092444085
217	0xbc87c6e2	-0.016574327
218	0x3d022a2d	0.031778503
219	0xbdcf13b7	-0.10111182
220	0x39b9c769	0.00035434522
221	0xbdf50061	-0.11962963
222	0x3c7c2042	0.01538855
223	0xbda4923c	-0.080357045
224	0x3ce084ea	0.027407128
225	0x3d5096ba	0.050924994
226	0xbe080ff4	-0.13287336
227	0x3e83a6b8	0.25713134
228	0x3de6ee0e	0.11275874
229	0xbdb25a21	-0.08708597
230	0xbd0be0c4	-0.0341499
231	0x3d8d3c31	0.06896246
232	0x3c06070b	0.00818039
233	0x3d48a887	0.048988845
234	0xbd8d027c	-0.068852395
235	0x3da94f77	0.0826711
236	0xbdb50acb	-0.08839949
237	0xbda88918	-0.082292736
238	0x3e22ad10	0.1588633
239	0x3ce302f5	0.027711371
240	0xbd4f0c59	-0.050548885
241	0x3d0aa313	0.033846926
242	0xbd001d5e	-0.031278007
243	0x3c72b0bf	0.014812647
244	0x3b929fbb	0.0044746078
245	0x3d216215	0.03940018
246	0xbd2353cf	-0.039874848
247	0x3db40d3c	0.08791587
248	0x3e91e323	0.28493604
249	0xbdc46cca	-0.09591062
250	0x3c5ebf17	0.013595364
251	0x3d89808e	0.06713973
252	0x3dd77334	0.1052002
253	0x3e2605f2	0.16213205
254	0x3d170d46	0.036877893
255	0x3d02b337	0.031909194

network_body._body_endoder.seq_layers.2.bias f4 [128]
0	0x3cbbdda9	0.022932844
1	0xbc9ac7f9	-0.018894183
2	0xbc02c74d	-0.007982087
3	0xbca125d1	-0.019671353
4	0x3ca89299	0.020577716
5	0x3d03f340	0.032214403
6	0x3b834719	0.0040062782
7	0x3cd7d638	0.026347265
8	0x3c2c1044	0.010501925
9	0xbc0ceb0d	-0.008600962
10	0xbb02b45f	-0.0019943935
11	0xbb8b58af	-0.0042525153
12	0x3d135ce0	0.035977244
13	0xbd12eae1	-0.03586853
14	0xbaf93b56	-0.0019014876
15	0x3c47fb6b	0.012205939
16	0x3d129dd2	0.03579504
17	0xbc7c76d9	-0.015409195
18	0xbbb823cc	-0.0056195017
19	0x3ce9ff12	0.02856401
20	0xbc2b759d	-0.010465053
21	0xbcc866c3	-0.024463063
22	0x3c356fb4	0.011073995
23	0x3acc3266	0.0015578985
24	0x3cb47c17	0.022031827
25	0x3ca58165	0.020203302
26	0xbce423cd	-0.027849102
27	0x3c8854cf	0.016642002
28	0x3cde0d05	0.027105818
29	0xbcc68ed4	-0.024238028
30	0xbb8e47f4	-0.0043420736
31	0x3d054822	0.032539494
32	0xbb8da3f9	-0.0043225256
33	0x3c6eec69	0.014582732
34	0x3d08e12a	0.03341786
35	0xbcbcb453	-0.023035204
36	0xbbfd8152	-0.0077363634
37	0x3cfe507c	0.031044237
38	0x3bcffccc	0.0063472744
39	0x3c9c2ca9	0.019064264
40	0x3ce97030	0.028495878
41	0x3ca45d0c	0.0200639
42	0x3d03cf29	0.032179985
43	0x3ca260bb	0.019821515
44	0x3c916f1e	0.01775318
45	0x3cdd4281	0.02700925
46	0xbcfdaff3	-0.030967688
47	0xbd86230b	-0.06549653
48	0x3ce40dc3	0.027838593
49	0x3c0fffdf	0.008789032
50	0xbd220e16	-0.039564215
51	0x3c4ca71a	0.012491012
52	0x3d09d096	0.03364619
53	0x3c97c23a	0.018525232
54	0xbbb817ac	-0.0056180563
55	0xbcc7f155	-0.024407068
56	0xbd0b2632	-0.033971973
57	0x3c7fe4ee	0.015618546
58	0x3cf80f46	0.03028072
59	0x3bfbf8c9	0.0076895696
60	0x3cb808df	0.022465168
61	0x3cfe0f37	0.031013114
62	0xbca9e58e	-0.020739343
63	0xbc870bb8	-0.01648508
64	0x3cde6277	0.027146561
65	0x3cb86d2e	0.022512998
66	0xbc488a9e	-0.01224008
67	0x3c3ba9a6	0.011454022
68	0x3ba1247f	0.0049176808
69	0x3c74d311	0.0149429
70	0x3d34e542	0.04416395
71	0x3c006cb6	0.007838419
72	0x3cb6ac01	0.022298815
73	0xbacecedf	-0.0015778205
74	0xbc972c37	-0.0184537
75	0x3cc51b10	0.024060756
76	0xbc3ee3f6	-0.01165103
77	0x3c967941	0.018368365
78	0x3c81837a	0.015809763
79	0xbb84d394	-0.0040535424
80	0x3c52a4ba	0.012856657
81	0x3c360b05	0.011111026
82	0xbd01888a	-0.031624354
83	0x3c6988e6	0.014253831
84	0x3c921ef5	0.017837027
85	0x3c71f423	0.014767679
86	0xbacf31ae	-0.0015807652
87	0x3d18889d	0.03723966
88	0x3c99c01f	0.018768368
89	0x3c7b1740	0.015325367
90	0x3c72249e	0.014779238
91	0x3c52503a	0.01283651
92	0x3c906520	0.017626345
93	0x3c98b6af	0.018641798
94	0x3adc71b5	0.0016818555
95	0x3ccb16f5	0.02479122
96	0x3c4b6b18	0.01241567
97	0x3d1022e3	0.03518952
98	0x3cf26a1f	0.029591618
99	0xbb9a2bbe	-0.0047049215
100	0xbc948680	-0.01813054
101	0xbc245c7e	-0.0100318175
102	0x3bc0b35c	0.0058807563
103	0xbd0b3025	-0.03398146
104	0x3c19b4ac	0.009381454
105	0xbcad4030	-0.021148771
106	0xbc933e1b	-0.01797395
107	0xbc68ac8c	-0.014201295
108	0x3c888b10	0.016667873
109	0xbc79fcd1	-0.01525803
110	0x3c8d49a9	0.017247038
111	0x3c9c5231	0.01908216
112	0x3ce9a330	0.028520197
113	0xbc98648e	-0.018602636
114	0x3cbe388b	0.023220321
115	0x3cb56f35	0.022147754
116	0xbb806644	-0.003918441
117	0x3d12af8d	0.03581195
118	0xbc353282	-0.011059405
119	0xbcb94b7e	-0.022619005
120	0xb9508c3f	-0.00019888672
121	0xbbbd6ad7	-0.0057805586
122	0xbbd7c157	-0.006584327
123	0x3cc98841	0.024601104
124	0x3cc13bcf	0.02358809
125	0x3cb0b606	0.02157117
126	0x3c9ef060	0.01940173
127	0xba36f6e4	-0.00069795386

action_model._continuous_distribution.log_sigma f4 [1, 2]
0	0x3cf1eaa1	0.029530825
1	0xbda6d03c	-0.08145186

action_model._continuous_distribution.mu.weight f4 [2, 128]
0	0x3d8fd19b	0.07022401
1	0xbc7f319d	-0.015575794
2	0x3d440d1d	0.04786407
3	0x3c326ed2	0.010890679
4	0x3d6447a8	0.0557324
5	0x3dbb0d3e	0.09133385
6	0x3d3cdf92	0.04611165
7	0x3d502a1f	0.05082142
8	0xbda8fe38	-0.082516134
9	0xbbea1874	-0.0071440283
10	0xbd6b2a3d	-0.05741333
11	0x3c0de8f6	0.008661499
12	0x3d78c125	0.060731072
13	0xbccc5686	-0.024943601
14	0x3d662f55	0.056197483
15	0x3d87e9c1	0.06636382
16	0x3c308271	0.010773287
17	0xbd018400	-0.031620026
18	0x3d44755c	0.047963485
19	0xbb4386a5	-0.0029834893
20	0xbd27f03d	-0.041000593
21	0xbd476c23	-0.04868711
22	0xbcb54318	-0.02212672
23	0x3d43af56	0.047774635
24	0xbbaea242	-0.005329401
25	0x3da7f61c	0.082012385
26	0xbcf92223	-0.030411785
27	0xbaaf8c05	-0.001339317
28	0xbbb1caa2	-0.005425767
29	0x3b9685d9	0.0045935926
30	0xbd68e4d9	-0.05685887
31	0x3b5cdbcf	0.0033700352
32	0x3d52b59b	0.051442724
33	0x3daacbef	0.083396785
34	0x3d2b312c	0.04179494
35	0xbd617457	-0.05504259
36	0x38a6ddf2	7.956837e-05
37	0x3c4a567c	0.012349721
38	0x3d6fffc8	0.05859354
39	0xbd86adc0	-0.06576109
40	0x3c4031c7	0.011730618
41	0x3d0f9536	0.035054408
42	0x3caff8e6	0.021480989
43	0xbcfe6d7d	-0.031058067
44	0x3d15a6de	0.03653609
45	0x3c86a439	0.01643573
46	0xbc7db307	-0.015484578
47	0xbcfe3b54	-0.03103415
48	0x3cb5c7b5	0.022189954
49	0x3d97043d	0.07373855
50	0xbd32df2b	-0.04366986
51	0xbd227c5d	-0.039669383
52	0x3d855c66	0.06511764
53	0xbd199e43	-0.037504446
54	0x3d8f93b4	0.07010594
55	0xbd4a45c9	-0.04938296
56	0xbd37b8b5	-0.044853885
57	0xbc635b8f	-0.01387681
58	0xba6a417a	-0.00089361484
59	0x3d812a77	0.06306928
60	0xbd4b9687	-0.0497041
61	0xbb800513	-0.003906855
62	0xbd2e1a16	-0.042505346
63	0xbd99c78c	-0.07508764
64	0x3dceb721	0.10093523
65	0xbd063efc	-0.03277491
66	0x3c37d421	0.011220009
67	0x3d0aabb9	0.033855174
68	0xbdb71937	-0.08940356
69	0xbb9b71c8	-0.0047437884
70	0xbd380919	-0.04493055
71	0xbd0a3902	-0.033745773
72	0xbd1b1f74	-0.037871793
73	0x3d935d01	0.071954735
74	0xbd3fd3f6	-0.046833
75	0x3d813651	0.06309188
76	0x3d450121	0.04809678
77	0x3cfa762f	0.030573932
78	0xbcf77e7a	-0.030211676
79	0xbc35dd60	-0.011100143
80	0x3beca88c	0.007222241
81	0x3d4799d3	0.048730683
82	0x3bdb1f49	0.006687079
83	0x3af7fd0a	0.0018920016
84	0x3d59e444	0.053196207
85	0x3d8eb056	0.06967227
86	0xbd99c730	-0.07508695
87	0xbcac89b5	-0.021061758
88	0x3d9b6e5c	0.07589409
89	0x3d3ae64b	0.04562978
90	0x3dab7b31	0.08373106
91	0x3d923827	0.071396165
92	0x3c4acded	0.012378198
93	0x3dac4741	0.08412028
94	0xbda3209e	-0.079652056
95	0x3b1ae7a6	0.0023636608
96	0xbcea2680	-0.028582811
97	0x3d8aba18	0.06773776
98	0x3d740282	0.059572704
99	0x3d14b41c	0.03630458
100	0xbd1122ad	-0.03543346
101	0x3d365f9a	0.044524767
102	0x3d6e3a72	0.058161207
103	0xbd835126	-0.06411962
104	0x3dacc00d	0.08435068
105	0xbca7d009	-0.020484941
106	0xbc578197	-0.013153455
107	0x3ce55af0	0.027997464
108	0xbdd7cb89	-0.10536868
109	0x3ceba902	0.028767113
110	0x3d7d3ed2	0.06182749
111	0x3cce6466	0.025194358
112	0x3d0b1a7c	0.033960804
113	0xbd838160	-0.06421161
114	0x3c9e5efd	0.019332403
115	0x3c50e91c	0.01275089
116	0x3c45a5c8	0.012063451
117	0x3dd297de	0.102828726
118	0x3d1c8702	0.03821469
119	0xbc82a424	-0.015947409
120	0x3d716ef1	0.058943693
121	0xbd95a7c6	-0.07307391
122	0x3da29e31	0.07940329
123	0x3d2a74e0	0.041615367
124	0xbabebd78	-0.0014552316
125	0xbd4f68e2	-0.050637133
126	0x3b4480f1	0.0029984082
127	0xbd6c9ccb	-0.057766717
128	0x3a993172	0.001168771
129	0xbd7ce680	-0.06174326
130	0xbcefb103	-0.02925921
131	0xbcb148fa	-0.021641243
132	0x3c576853	0.013147431
133	0xbc384c9b	-0.011248733
134	0xbc92186c	-0.01783391
135	0x3d56b577	0.052419152
136	0x3caa67a0	0.020801365
137	0xbd26053d	-0.04053234
138	0x3c4d7fe7	0.012542701
139	0x3b20c5a1	0.0024531859
140	0xbba69ccf	-0.005084611
141	0xbd678f78	-0.056533307
142	0xbcdf415e	-0.02725285
143	0xbc65cc6f	-0.014025792
144	0x3d8eb41d	0.06967948
145	0xbd0ff80a	-0.035148658
146	0xbd228260	-0.039675117
147	0x3d8e9968	0.06962854
148	0xbcc4c2f0	-0.024018735
149	0xbd9a47e2	-0.07533242
150	0x3c970f37	0.018439872
151	0xbcaeaafe	-0.02132177
152	0x3d87d1a7	0.06631785
153	0x3bd72eaa	0.006566842
154	0xbd29ecb1	-0.041485492
155	0x3d424598	0.04742965
156	0x3d9b5df4	0.075862795
157	0xbd7303b8	-0.05932972
158	0xbd143215	-0.036180574
159	0x3d90ad54	0.0706431
160	0xba1c93d4	-0.0005972956
161	0xbc95003a	-0.018188585
162	0x3da73644	0.08164647
163	0xbd597520	-0.053090215
164	0x3c1afc95	0.009459634
165	0x3c8988a0	0.01678878
166	0xbc76be5a	-0.015060032
167	0x3d84c2f4	0.06482497
168	0x3d297176	0.04136797
169	0x3c643bc7	0.013930268
170	0x3d4bc5a8	0.049749047
171	0x3d4e883a	0.050422885
172	0x3b13a22f	0.002252709
173	0x3d2c298d	0.042031813
174	0xbd5e47cd	-0.054267693
175	0xbcf50565	-0.029909799
176	0x3d45352c	0.04814641
177	0xbd050236	-0.03247281
178	0xbd8ed96b	-0.06975063
179	0x3d19c046	0.037536882
180	0x3cf2cdfc	0.029639237
181	0x3d5dccaf	0.05415028
182	0xbd2866a0	-0.041113496
183	0xbccbb868	-0.024868205
184	0xbd7eb376	-0.062182866
185	0x3d6b4e0a	0.05744747
186	0x3da77488	0.081765234
187	0xbb12fa34	-0.0022426965
188	0x3ca49bc6	0.02009381
189	0x3da15656	0.078777954
190	0xbc3b7e25	-0.011443649
191	0xbc8f0c99	-0.017462062
192	0xbd494509	-0.049138103
193	0x3d9fc87c	0.07801911
194	0xbd8c05d9	-0.06837053
195	0x3c43a2c3	0.011940661
196	0xbce5b082	-0.028038267
197	0x3cf0dc6b	0.029401978
198	0x3d59419f	0.053041097
199	0x3d288a07	0.041147258
200	0x3cbbac41	0.022909286
201	0xbd3a506d	-0.045486856
202	0xbcbf6ec4	-0.023368247
203	0x3c027bae	0.007964058
204	0xbc2088d4	-0.009798247
205	0x3d3f9c23	0.046779763
206	0xbb8da879	-0.004323062
207	0x3a482627	0.00076350797
208	0x3d07c0f5	0.033143003
209	0xbc1992d2	-0.009373384
210	0xbc88dfdf	-0.016708313
211	0x3d15e46a	0.036594786
212	0xbb214000	-0.0024604797
213	0xbc6b031a	-0.014344001
214	0xbcf53554	-0.029932655
215	0x3da581cd	0.08081398
216	0xbc1a263f	-0.009408533
217	0x3c54da4d	0.0129915
218	0xbd35e644	-0.04440905
219	0xbb350bf1	-0.0027625526
220	0x3d0d5d60	0.034512877
221	0xbd0327ae	-0.032020263
222	0xbad942dc	-0.0016575712
223	0x3d44989d	0.047997106
224	0x3d36785f	0.04454839
225	0x3d6f6138	0.058442324
226	0x3d1f6396	0.038913332
227	0xbd3b6b78	-0.045756787
228	0xbd61979e	-0.055076234
229	0xbd03da17	-0.03219041
230	0xbd838312	-0.06421484
231	0xbd601975	-0.054711778
232	0xbd24e908	-0.0402613
233	0xbc020e45	-0.007937972
234	0xbca814c1	-0.020517709
235	0xbd316b5e	-0.043315284
236	0xbc581529	-0.013188639
237	0xbd66f965	-0.056390185
238	0x3ba324a6	0.004978734
239	0x3d0f467f	0.03497934
240	0x3d853f18	0.06506175
241	0xbc8a4826	-0.016880106
242	0x3d44860b	0.047979396
243	0x3d6e6086	0.05819752
244	0xbb37eefd	-0.0028066032
245	0xbd0e385e	-0.034721725
246	0xbd3826ef	-0.044959005
247	0x3b34f97a	0.002761452
248	0xbca4a7ef	-0.020099608
249	0xbd1bbe4d	-0.03802328
250	0xbd92b013	-0.0716249
251	0x3cadd53a	0.021219838
252	0x3d8ac363	0.06775548
253	0x3c6dd473	0.014515984
254	0x3d6378f4	0.05553527
255	0x3c92927d	0.017892117

action_model._continuous_distribution.mu.bias f4 [2]
0	0x3cb8b8c9	0.02254905
1	0x3ce19eae	0.027541485

exp_avg f4 [128, 36]
0	0x38c95249	9.599754e-05
1	0x379998bf	1.831015e-05
2	0x3916c7c9	0.0001437954
3	0x399a44cd	0.0002942443
4	0x39e17e3e	0.00043009402
5	0xb817eb4f	-3.6220354e-05
6	0xb90376ab	-0.00012537341
7	0x39573504	0.00020523748
8	0xb66e6980	-3.5526173e-06
9	0x377bf083	1.5016764e-05
10	0x396e100c	0.00022703427
11	0x397bf0a9	0.00024026878
12	0x39806614	0.00024490117
13	0x38869cb2	6.418805e-05
14	0xb8178413	-3.612421e-05
15	0x38c79c47	9.5181684e-05
16	0x37290183	1.0073537e-05
17	0xb6b05fd5	-5.256365e-06
18	0x3984ac8d	0.00025305562
19	0x3981a80f	0.0002473001
20	0x394a2bd3	0.00019280547
21	0x38850257	6.34237e-05
22	0x1cc6aa4a	1.314656e-21
23	0x39085e94	0.00013005204
24	0xb83c56fb	-4.49037e-05
25	0x37c9afe0	2.4042965e-05
26	0x398c325a	0.00026740396
27	0x396d6c8a	0.00022642515
28	0x3953cc6a	0.00020198678
29	0xb80963cb	-3.2756285e-05
30	0x28a1e0a2	1.797201e-14
31	0x38e30d38	0.00010826666
32	0xb96f84f8	-0.00022842351
33	0x358230b5	9.69993e-07
34	0x39e9a065	0.00044560726
35	0x398d806a	0.00026989292
36	0x3927f726	0.00016018431
37	0xb8856497	-6.3606705e-05
38	0xb8c3b049	-9.33116e-05
39	0x3909d186	0.00013143392
40	0x39f3f6ef	0.00046532552
41	0xb96454d1	-0.00021775371
42	0xb97f9e07	-0.00024377565
43	0x38d171b5	9.987076e-05
44	0xb486faac	-2.5141833e-07
45	0x354fd300	7.7420555e-07
46	0xb7876135	-1.613852e-05
47	0xb656682b	-3.1949119e-06
48	0x3970dea2	0.00022971121
49	0xb7bc644a	-2.2458047e-05
50	0xb9487975	-0.00019118733
51	0xb9003061	-0.00012225054
52	0x3715bc2e	8.924906e-06
53	0x360da10a	2.1104374e-06
54	0xb800704a	-3.0622155e-05
55	0xb6de3da6	-6.6232924e-06
56	0xb8961f6b	-7.1584094e-05
57	0x388c9e98	6.7052606e-05
58	0x1c5a23f7	7.2176633e-22
59	0xb8c973f4	-9.606025e-05
60	0xb98ef658	-0.0002726789
61	0x374e6e76	1.23042755e-05
62	0x39752ff1	0.0002338288
63	0xb1f64c14	-7.1681914e-09
64	0xb799293f	-1.8258228e-05
65	0xb81157c8	-3.4652447e-05
66	0x28f960e1	2.7686568e-14
67	0xb8eed77a	-0.0001138886
68	0xba10bce3	-0.00055213104
69	0x37017e95	7.718471e-06
70	0x3a097e60	0.00052449666
71	0x389c58c8	7.4551965e-05
72	0xb736e8f8	-1.0902288e-05
73	0x3781c316	1.5468842e-05
74	0x394df242	0.00019640572
75	0x3966aa29	0.00021997899
76	0x3957706e	0.00020545881
77	0x375a0378	1.299462e-05
78	0x35cd7356	1.5307257e-06
79	0x391d0db2	0.00014977789
80	0xb6a9de5b	-5.062478e-06
81	0x37c34bb6	2.3281067e-05
82	0x393930a7	0.00017661099
83	0x393a6b9d	0.00017778431
84	0x389dcdb4	7.5246586e-05
85	0x38aa20d1	8.112344e-05
86	0x38899bdc	6.5617e-05
87	0x38c6df9f	9.4830284e-05
88	0x36525eb2	3.1347558e-06
89	0xb6e240b6	-6.742858e-06
90	0x395dec0f	0.00021164141
91	0x3948aa55	0.0001913694
92	0x39282e9c	0.00016039092
93	0x38444d81	4.6802223e-05
94	0x1c18e31f	5.058613e-22
95	0x38f95f7f	0.00011891033
96	0x38d268e2	0.00010033116
97	0x3780720a	1.5311893e-05
98	0x389ca5ab	7.469518e-05
99	0x39276ac5	0.00015966136
100	0x3927202b	0.00015938345
101	0xb807a23d	-3.2337604e-05
102	0x25f990a3	4.3292624e-16
103	0x39121873	0.00013932753
104	0xb89e0611	-7.535157e-05
105	0xb66c048e	-3.5169392e-06
106	0x396f323b	0.00022811528
107	0x393bfb98	0.00017927436
108	0x37dc6368	2.6272333e-05
109	0xb771a8fe	-1.4404066e-05
110	0x3828223a	4.0086197e-05
111	0x389bd5af	7.4307776e-05
112	0x38f9b749	0.00011907385
113	0xb896151a	-7.156488e-05
114	0x371d3e85	9.372486e-06
115	0x38cfdf17	9.912083e-05
116	0xb555bd8d	-7.9624516e-07
117	0x36c00d3b	5.723586e-06
118	0x38364882	4.345971e-05
119	0x3841adb5	4.6176563e-05
120	0x388f948e	6.846442e-05
121	0x38184a07	3.6308567e-05
122	0xb83b4a12	-4.4653258e-05
123	0xb70fb778	-8.566181e-06
124	0x35b24f22	1.3285064e-06
125	0xb61c34aa	-2.3276466e-06
126	0x386cd05f	5.6460845e-05
127	0x3852af50	5.0231174e-05
128	0xb4d76394	-4.0119323e-07
129	0x38655843	5.4680055e-05
130	0x1b91c256	2.4113824e-22
131	0xb6ddf46c	-6.6147677e-06
132	0xb6a6d997	-4.9725163e-06
133	0x36e9b6c6	6.9652187e-06
134	0x3845c511	4.7151992e-05
135	0x382cd742	4.120847e-05
136	0x381ad94f	3.6918846e-05
137	0xb7ab59b4	-2.042656e-05
138	0x26cd0d2f	1.4228306e-15
139	0x37a274d8	1.9366315e-05
140	0xb8a890f0	-8.037861e-05
141	0x335d92ea	5.158919e-08
142	0x38ff1fc0	0.000121652614
143	0x387a95a8	5.9744023e-05
144	0x38117e98	3.4688594e-05
145	0xb7edd4cf	-2.8351698e-05
146	0xb88703aa	-6.437984e-05
147	0xb7babaaa	-2.225985e-05
148	0x387ffdd3	6.103313e-05
149	0xb8111648	-3.4591445e-05
150	0xb8b83245	-8.783167e-05
151	0xb831137d	-4.221824e-05
152	0x361c62f4	2.330341e-06
153	0xb750094d	-1.2399932e-05
154	0xb85ae62d	-5.2189618e-05
155	0xb8506fd2	-4.9695205e-05
156	0x37271141	9.957993e-06
157	0xb74e07f8	-1.2280412e-05
158	0xb86cdec2	-5.6474244e-05
159	0xb88bc94d	-6.665532e-05
160	0x36809275	3.831747e-06
161	0x35c5e5a4	1.4744478e-06
162	0xb8906556	-6.8853304e-05
163	0xb8718255	-5.758026e-05
164	0xb8787db0	-5.9244863e-05
165	0xb55ddcff	-8.265051e-07
166	0x1b0a18dc	1.1423125e-22
167	0xb85bb061	-5.2377934e-05
168	0xb8b1a30b	-8.470387e-05
169	0xb3d3f78c	-9.870482e-08
170	0x37d06749	2.4843628e-05
171	0xb84bb0a4	-4.856348e-05
172	0xb86d7593	-5.6614703e-05
173	0x3699339f	4.565765e-06
174	0x2781e2d1	3.6050607e-15
175	0xb888a7c4	-6.516234e-05
176	0xb8e59f7d	-0.00010949278
177	0x365fd5bb	3.3353997e-06
178	0x3871bfdc	5.763756e-05
179	0xb8181cb2	-3.626635e-05
180	0xb898ec73	-7.291967e-05
181	0x371a781c	9.20708e-06
182	0x358b0a7a	1.0359356e-06
183	0xb8a7b1b2	-7.996279e-05
184	0xb91998da	-0.00014648159
185	0x3801e962	3.097335e-05
186	0x38590c2f	5.174818e-05
187	0xb884e0c2	-6.336115e-05
188	0xb5b0b91a	-1.3166893e-06
189	0xb4152d6a	-1.3893228e-07
190	0xb8511875	-4.985226e-05
191	0xb87ce778	-6.0297054e-05
192	0xb8dd9940	-0.00010566646
193	0x35c2245a	1.4464706e-06
194	0x381ef241	3.7895752e-05
195	0xb7b97823	-2.2109662e-05
196	0xb681cc82	-3.8683074e-06
197	0xb5c965f8	-1.5005344e-06
198	0xb857a9f7	-5.1418287e-05
199	0xb878ff09	-5.9365328e-05
200	0xb84a147a	-4.8179623e-05
201	0xb76ef4e0	-1.424292e-05
202	0x9b640f1d	-1.8864601e-22
203	0xb7e88834	-2.771998e-05
204	0x383dbe50	4.5238354e-05
205	0xb702728a	-7.775272e-06
206	0xb8ca7e11	-9.655592e-05
207	0xb879fba6	-5.9600592e-05
208	0xb87af184	-5.9829574e-05
209	0x3731bd0d	1.0594039e-05
210	0xa7fdd09c	-7.044778e-15
211	0xb7506266	-1.2420676e-05
212	0x38abca29	8.191571e-05
213	0xb6190b96	-2.280552e-06
214	0xb916204a	-0.00014317143
215	0xb89f983d	-7.6100674e-05
216	0xb9304d39	-0.00016813436
217	0x38ca93fa	9.6596734e-05
218	0x390a112f	0.00013167107
219	0xb8104af2	-3.4402074e-05
220	0xb99b8309	-0.00029661533
221	0x392c4435	0.00016428607
222	0x394ac3a6	0.00019337106
223	0xb82186e8	-3.8511032e-05
224	0xb6908a04	-4.3076016e-06
225	0x36ae5cee	5.1964225e-06
226	0x38b04d03	8.4066785e-05
227	0x38813dd6	6.162717e-05
228	0xb90b45d0	-0.0001328208
229	0x36ce05b4	6.1399423e-06
230	0x393efab1	0.00018213202
231	0x39182011	0.00014507795
232	0xb7035c43	-7.82969e-06
233	0xb5e73a4a	-1.7227806e-06
234	0x38a1831e	7.701501e-05
235	0x38857e7b	6.365493e-05
236	0x3912f937	0.00014016485
237	0xb8a37a80	-7.795263e-05
238	0x9c7f7955	-8.452924e-22
239	0x390d75c1	0.00013490675
240	0x396d4dfc	0.00022631133
241	0xb78802b8	-1.621373e-05
242	0xb9173a6e	-0.00014422249
243	0x386afbb8	5.602438e-05
244	0x38a53314	7.877327e-05
245	0x3774f235	1.45999265e-05
246	0xa911cd50	-3.2374548e-14
247	0x3911c9ce	0.00013903456
248	0x39b8bf53	0.00035237762
249	0xb70e7273	-8.490507e-06
250	0xb99a687b	-0.00029451013
251	0xb5d4ee82	-1.5864646e-06
252	0xb95fae07	-0.00021331767
253	0x378e45dd	1.6960252e-05
254	0x388b9670	6.656058e-05
255	0xb942d61f	-0.00018581048

exp_avg_sq f4 [128, 36]
0	0x34ad518f	3.2283103e-07
1	0x351ed2e5	5.916648e-07
2	0x354a15c4	7.528254e-07
3	0x359576f8	1.113599e-06
4	0x35636d41	8.4723075e-07
5	0x342fe835	1.6382621e-07
6	0x353f2c82	7.121781e-07
7	0x35a4d5ae	1.2281141e-06
8	0x34c52d5f	3.672712e-07
9	0x339db7ba	7.344302e-08
10	0x35a6d956	1.2431217e-06
11	0x35d7306f	1.6032844e-06
12	0x35bc2a27	1.401936e-06
13	0x3326a7c1	3.8802458e-08
14	0x349b65b1	2.894499e-07
15	0x3590f6cf	1.0800667e-06
16	0x3499922b	2.8604822e-07
17	0x32b81173	2.1428354e-08
18	0x35b6c65f	1.361779e-06
19	0x35de666a	1.6570095e-06
20	0x35ebc67b	1.756663e-06
21	0x326c1a0c	1.374293e-08
22	0x32e8ab7d	2.7086339e-08
23	0x35772fac	9.208404e-07
24	0x34e541d6	4.2702476e-07
25	0x32a56d1b	1.9258144e-08
26	0x35939ea2	1.0998522e-06
27	0x35d9367d	1.6183618e-06
28	0x35ea0aed	1.7437538e-06
29	0x31eadc66	6.8353527e-09
30	0x32d33f3a	2.4592385e-08
31	0x356585b8	8.5503734e-07
32	0x35442ab6	7.307784e-07
33	0x3298f3ac	1.7805938e-08
34	0x354ea102	7.697528e-07
35	0x35c7ecde	1.4895593e-06
36	0x34cdfc11	3.8367628e-07
37	0x354f09f4	7.7127993e-07
38	0x34f289c9	4.5176265e-07
39	0x356c865f	8.8112387e-07
40	0x3543b05a	7.2899786e-07
41	0x34c20b26	3.6143427e-07
42	0x35146440	5.528018e-07
43	0x3584ebfd	9.903448e-07
44	0x34b4f7e8	3.3707988e-07
45	0x32a93b47	1.9701146e-08
46	0x35b10093	1.3187695e-06
47	0x35db4435	1.6336622e-06
48	0x35b227f1	1.3273658e-06
49	0x33c6e69e	9.2620425e-08
50	0x347ddad5	2.3642072e-07
51	0x357f0b4e	9.5011353e-07
52	0x3485a728	2.4894803e-07
53	0x313731bf	2.6658282e-09
54	0x35c2e0d8	1.4519565e-06
55	0x35e1c3e1	1.6820815e-06
56	0x35e39ee9	1.6959067e-06
57	0x33063083	3.1243427e-08
58	0x315a0f96	3.1732035e-09
59	0x355f5fc3	8.3213325e-07
60	0x34f11a0c	4.49087e-07
61	0x30da84b0	1.58993e-09
62	0x3598488a	1.1345994e-06
63	0x35dcfbf8	1.646461e-06
64	0x35df4cd8	1.6637159e-06
65	0x32a14ae2	1.877692e-08
66	0x31909cc8	4.2087756e-09
67	0x354df638	7.6726747e-07
68	0x3528010f	6.258642e-07
69	0x31c4024b	5.7046114e-09
70	0x356c6fc8	8.8079514e-07
71	0x35cb9c6f	1.5170207e-06
72	0x341d2065	1.463355e-07
73	0x3491ca86	2.715571e-07
74	0x34d3b201	3.9431328e-07
75	0x35132d3f	5.482761e-07
76	0x34b6de83	3.406204e-07
77	0x33c5cabb	9.210404e-08
78	0x34d53f71	3.97205e-07
79	0x3521edaf	6.032305e-07
80	0x34229c7d	1.5144356e-07
81	0x32cde5c5	2.3969628e-08
82	0x352923db	6.300958e-07
83	0x354ed5f1	7.7052306e-07
84	0x3524d81a	6.140923e-07
85	0x33352a34	4.218073e-08
86	0x343fe6b2	1.7872188e-07
87	0x350fa697	5.351407e-07
88	0x3395d07b	6.9762756e-08
89	0x3220b99c	9.355428e-09
90	0x353f71f4	7.131887e-07
91	0x35560be7	7.973853e-07
92	0x35602340	8.34978e-07
93	0x326a239c	1.3628689e-08
94	0x315efefa	3.245019e-09
95	0x34f16b7d	4.4967956e-07
96	0x347bae7e	2.3439677e-07
97	0x323bc811	1.0930322e-08
98	0x3502ee8e	4.8775917e-07
99	0x354b842d	7.5815734e-07
100	0x355d3e18	8.2419274e-07
101	0x32044e20	7.701175e-09
102	0x3167bafd	3.3721215e-09
103	0x34de6d21	4.1430124e-07
104	0x34db5373	4.0852646e-07
105	0x32191c23	8.91217e-09
106	0x34a6744c	3.1004527e-07
107	0x35380c0f	6.856289e-07
108	0x330f95b7	3.3430947e-08
109	0x3321d197	3.7676354e-08
110	0x34002dc3	1.1937577e-07
111	0x3425d1ed	1.5443193e-07
112	0x33751474	5.706211e-08
113	0x3312d577	3.418742e-08
114	0x33d73431	1.0021211e-07
115	0x34174522	1.4088121e-07
116	0x32d43048	2.4702004e-08
117	0x31d8c411	6.3087175e-09
118	0x3431e345	1.656709e-07
119	0x344bf9eb	1.8996768e-07
120	0x3409a9d4	1.2820902e-07
121	0x327ab77b	1.4593634e-08
122	0x33419fc2	4.5081613e-08
123	0x340b881b	1.2994899e-07
124	0x327a8c2a	1.4583785e-08
125	0x310e5510	2.0712072e-09
126	0x343e9c11	1.7751906e-07
127	0x34503ec8	1.9394349e-07
128	0x344a5d1e	1.8846592e-07
129	0x31f5551b	7.140114e-09
130	0x30cf9740	1.510422e-09
131	0x33e81a5f	1.0808139e-07
132	0x33959b3c	6.96659e-08
133	0x30f357a4	1.7705486e-09
134	0x33e36433	1.0588737e-07
135	0x34447ffa	1.830048e-07
136	0x344d5b76	1.9125386e-07
137	0x3152a347	3.0651834e-09
138	0x30ff92d5	1.8595424e-09
139	0x33d54373	9.9308544e-08
140	0x33ebde25	1.0983448e-07
141	0x30a7d7e4	1.2212209e-09
142	0x338c64bb	6.537581e-08
143	0x342e9354	1.625861e-07
144	0x33a45591	7.6524096e-08
145	0x33b0fb5c	8.241361e-08
146	0x3363f786	5.3077677e-08
147	0x33dd567c	1.0306846e-07
148	0x34191f87	1.4260705e-07
149	0x32b87b10	2.1476382e-08
150	0x334f40dd	4.8254936e-08
151	0x34027678	1.2150292e-07
152	0x33de2f5a	1.0346294e-07
153	0x3246ec77	1.1578883e-08
154	0x33c76543	9.285079e-08
155	0x3431c3f0	1.6555691e-07
156	0x344b8bdc	1.8956729e-07
157	0x31965e59	4.3763007e-09
158	0x32cd6a19	2.3913389e-08
159	0x33ea6893	1.0915496e-07
160	0x338d0b3b	6.567867e-08
161	0x3164df03	3.3305134e-09
162	0x340acf92	1.2927765e-07
163	0x34480f02	1.8631911e-07
164	0x3465f0fc	2.1414957e-07
165	0x30cea9fb	1.5036784e-09
166	0x30fdb22a	1.845881e-09
167	0x33cd298b	9.553613e-08
168	0x337eb5b3	5.9304238e-08
169	0x31069e0b	1.9589403e-09
170	0x3412ece4	1.368349e-07
171	0x34510c18	1.9469041e-07
172	0x3462bc5a	2.1116412e-07
173	0x302fdf1b	6.398168e-10
174	0x31141506	2.1548785e-09
175	0x33c26200	9.051655e-08
176	0x3381cce9	6.0443035e-08
177	0x311c6fb3	2.2764481e-09
178	0x3405aeb2	1.2450144e-07
179	0x3449ffea	1.8812685e-07
180	0x333ba093	4.368537e-08
181	0x32d5f9c8	2.4910051e-08
182	0x332e5464	4.0589285e-08
183	0x33a56144	7.701104e-08
184	0x338fe2ae	6.700189e-08
185	0x329007c2	1.6767334e-08
186	0x33012692	3.0070233e-08
187	0x3392d792	6.837867e-08
188	0x32db2fe6	2.5516737e-08
189	0x3147ada7	2.9057021e-09
190	0x33ab99b4	7.9907664e-08
191	0x33e50e7d	1.0666279e-07
192	0x33db1746	1.02022156e-07
193	0x317f9cde	3.7196553e-09
194	0x32169a62	8.766252e-09
195	0x338399f4	6.128167e-08
196	0x32981238	1.7703414e-08
197	0x30410dd0	7.023262e-10
198	0x33b66fb3	8.4953534e-08
199	0x33e77cf4	1.07795046e-07
200	0x33f73eda	1.15132664e-07
201	0x30b93953	1.3476814e-09
202	0x3026ad4f	6.0636735e-10
203	0x336afc33	5.4711744e-08
204	0x32976fc8	1.7629546e-08
205	0x302f8263	6.384992e-10
206	0x33aa2fc3	7.92493e-08
207	0x33e51257	1.06669795e-07
208	0x33f4bbd3	1.13963004e-07
209	0x2fe57620	4.173879e-10
210	0x305217e4	7.6431506e-10
211	0x3351c2c6	4.883875e-08
212	0x331553aa	3.4767858e-08
213	0x2fae4c61	3.1704686e-10
214	0x337fa480	5.9521426e-08
215	0x33d9787a	1.01267645e-07
216	0x3499af10	2.8625846e-07
217	0x3489c128	2.5658778e-07
218	0x35175463	5.637468e-07
219	0x355dc938	8.262173e-07
220	0x34d7bf7e	4.01862e-07
221	0x3472ba89	2.2605867e-07
222	0x350a0b4e	5.1425457e-07
223	0x354ba988	7.5870093e-07
224	0x3483999b	2.4512414e-07
225	0x330c5d90	3.2681385e-08
226	0x355d76a7	8.250158e-07
227	0x35905a12	1.075505e-06
228	0x357990f9	9.297069e-07
229	0x335221db	4.8925227e-08
230	0x342d7df6	1.6157705e-07
231	0x353eef44	7.1128693e-07
232	0x346f54cd	2.228946e-07
233	0x3218e387	8.899298e-09
234	0x35618507	8.401261e-07
235	0x3590c103	1.078501e-06
236	0x359a0568	1.1475468e-06
237	0x32d3d515	2.4660531e-08
238	0x327a1a1f	1.45578545e-08
239	0x351fb860	5.9500417e-07
240	0x34b62d66	3.3933173e-07
241	0x3214b8bb	8.656737e-09
242	0x352c0ad2	6.409074e-07
243	0x358de76a	1.0572669e-06
244	0x359b6140	1.1576703e-06
245	0x3209dc55	8.024547e-09
246	0x329d9b58	1.8347848e-08
247	0x35173de6	5.634196e-07
248	0x35134ed8	5.48765e-07
249	0x32131c0c	8.562903e-09
250	0x34e6f5c9	4.301967e-07
251	0x3580fefa	9.610951e-07
252	0x34e04485	4.1773106e-07
253	0x349dfb67	2.9426448e-07
254	0x3515636a	5.565149e-07
255	0x357263d2	9.0297283e-07

exp_avg f4 [128]
0	0x39873ba3	0.0002579364
1	0x36b51f74	5.397882e-06
2	0x3950b0ab	0.0001990224
3	0x385903ec	5.1740484e-05
4	0xb86e642a	-5.6836907e-05
5	0xb8852a28	-6.3497864e-05
6	0x3870d79e	5.7421268e-05
7	0xb909cb85	-0.00013141155
8	0xb97512db	-0.00023372045
9	0x38b19a9f	8.468818e-05
10	0x38055080	3.1784642e-05
11	0x38d98a56	0.000103731334
12	0xb99e0eb0	-0.0003014705
13	0xb9296f19	-0.00016158483
14	0x38d916f1	0.000103516395
15	0x3904ac97	0.00012652796
16	0xb708aba2	-8.146193e-06
17	0x35f73a0d	1.8419829e-06
18	0xb81116ab	-3.4591805e-05
19	0x390d6177	0.00013483116
20	0xb7ced9d2	-2.4658544e-05
21	0x3710dde4	8.634732e-06
22	0xb882e304	-6.241168e-05
23	0x3948e829	0.00019159973
24	0x394a50f4	0.00019294379
25	0xb941b838	-0.00018474541
26	0x3914c174	0.00014186447
27	0xb8cf403f	-9.882496e-05
28	0x39ad1f4a	0.00033020444
29	0x3905755f	0.00012727593
30	0x3849434b	4.7984806e-05
31	0x38ae40f3	8.309064e-05
32	0x3939d4bf	0.00017722229
33	0x35d4ae33	1.584593e-06
34	0x386cf9c9	5.6499415e-05
35	0xb88b8e91	-6.6545916e-05
36	0xb927413e	-0.00015950666
37	0x39261fdf	0.00015842867
38	0xb91921be	-0.00014603787
39	0x389f822b	7.6059565e-05
40	0xb66b811a	-3.5092876e-06
41	0xb7b46e3b	-2.1509002e-05
42	0x38d13612	9.975968e-05
43	0x3999c01d	0.0002932557
44	0x38703da6	5.7277874e-05
45	0x39898dea	0.0002623641
46	0xb907c1f5	-0.00012946858
47	0xb7b0f127	-2.109313e-05
48	0xb837d412	-4.3828106e-05
49	0xb87e1a76	-6.0582963e-05
50	0x382b3bfb	4.082544e-05
51	0xb90b2364	-0.00013269257
52	0xb8df1604	-0.00010637569
53	0x3885fd0e	6.389069e-05
54	0x393470b5	0.00017208124
55	0x39c2b18a	0.0003713484
56	0xb867cfa8	-5.5268087e-05
57	0xb9a7092d	-0.0003185956
58	0x39801472	0.00024429295
59	0x388a3a60	6.591226e-05
60	0x39308686	0.00016834782
61	0x38d7bef7	0.00010287569
62	0xb7b184a0	-2.1161803e-05
63	0x3630e032	2.6356543e-06
64	0xb4971a87	-2.8145243e-07
65	0x39c386d4	0.00037293753
66	0x3993a102	0.00028157985
67	0x37cd3af1	2.4465351e-05
68	0x38b42e5e	8.5917054e-05
69	0x391c631b	0.00014914239
70	0xb88cd03c	-6.714507e-05
71	0x38998858	7.3210045e-05
72	0xb634b59d	-2.6927803e-06
73	0xb88efaac	-6.817779e-05
74	0xb9d15801	-0.00039929154
75	0x398cbfa7	0.00026845673
76	0x36992105	4.5635993e-06
77	0x3854f130	5.0769362e-05
78	0x39140763	0.00014117132
79	0x389aba5c	7.3780044e-05
80	0xb9a3a6a9	-0.00031213954
81	0xb80be814	-3.3356322e-05
82	0xb9727a39	-0.0002312445
83	0x38aa385d	8.11673e-05
84	0x37edd061	2.8349636e-05
85	0x383b3916	4.463744e-05
86	0x36ef3a7e	7.1295644e-06
87	0x396601dd	0.00021935203
88	0xb7bef5a4	-2.276415e-05
89	0xb875b1ac	-5.857802e-05
90	0x38509e9d	4.9738785e-05
91	0x371e38b5	9.430737e-06
92	0x3949b8e8	0.00019237737
93	0x394f76f9	0.00019785379
94	0x386937dc	5.5603552e-05
95	0x389655fc	7.168573e-05
96	0x37bc4d44	2.2447326e-05
97	0x3902f29e	0.00012488148
98	0x39821bb6	0.00024816178
99	0xb7a4e356	-1.9656185e-05
100	0xb8b3d225	-8.5745276e-05
101	0xb8be0a8c	-9.0618705e-05
102	0x377d0f73	1.5083572e-05
103	0x392b509d	0.00016337862
104	0xb9886245	-0.00026013158
105	0x3886abd0	6.4216205e-05
106	0x37774477	1.4738288e-05
107	0xb7f9359d	-2.9708079e-05
108	0x39262d74	0.00015847926
109	0x3985daf3	0.00025530867
110	0xb8e0de0b	-0.00010722511
111	0x391c3ff5	0.00014901145
112	0x382e73d7	4.1592717e-05
113	0xb7e79d86	-2.7610698e-05
114	0x388c02d8	6.67625e-05
115	0xb9baad7e	-0.00035605946
116	0x3895f3b3	7.150266e-05
117	0x369b18df	4.6222553e-06
118	0xb8922f5e	-6.970645e-05
119	0x388afe05	6.6276676e-05
120	0x38e855f5	0.00011078633
121	0x38944628	7.0702576e-05
122	0xb7885205	-1.6250657e-05
123	0xb918c936	-0.00014570807
124	0x38dec944	0.000106232736
125	0xb97c8ba4	-0.00024084613
126	0xb5b59447	-1.3528705e-06
127	0xb8c16978	-9.222602e-05

exp_avg_sq f4 [128]
0	0x35f87380	1.8511055e-06
1	0x35f17edd	1.7992821e-06
2	0x3568fde3	8.679619e-07
3	0x345f3337	2.0787125e-07
4	0x346d3f32	2.2095335e-07
5	0x340243a4	1.2131801e-07
6	0x35a5715b	1.2326449e-06
7	0x35b83c3d	1.37266e-06
8	0x3677a237	3.690029e-06
9	0x35072a25	5.035275e-07
10	0x342aa18e	1.5891257e-07
11	0x34bcbc88	3.5154903e-07
12	0x36333342	2.6702915e-06
13	0x34a07ef8	2.9894704e-07
14	0x3517ff42	5.662333e-07
15	0x3498ff41	2.8497928e-07
16	0x3435aa77	1.6918953e-07
17	0x31fd0b4d	7.364554e-09
18	0x3436b028	1.7014156e-07
19	0x358c1408	1.0436643e-06
20	0x332606cf	3.865608e-08
21	0x31c88495	5.835839e-09
22	0x33bcd768	8.7936144e-08
23	0x3569e22e	8.71284e-07
24	0x354868ce	7.4658317e-07
25	0x3507226a	5.03415e-07
26	0x355eba24	8.2972315e-07
27	0x33cf0a20	9.6410304e-08
28	0x35b48bc6	1.3451724e-06
29	0x36618b19	3.3608578e-06
30	0x35e4468f	1.7007859e-06
31	0x34050961	1.2390002e-07
32	0x3613b845	2.2011966e-06
33	0x340c177a	1.3047057e-07
34	0x361bc4bd	2.3211317e-06
35	0x34bbc0bf	3.4971706e-07
36	0x35184ade	5.673336e-07
37	0x3513a8d0	5.500742e-07
38	0x35fd5ff5	1.8877896e-06
39	0x361c4d6a	2.3290872e-06
40	0x356a5712	8.7298497e-07
41	0x32ef0740	2.7826559e-08
42	0x354b466a	7.572586e-07
43	0x360210c9	1.938128e-06
44	0x360b5df6	2.0767307e-06
45	0x35d0b153	1.5548816e-06
46	0x34508a40	1.9421805e-07
47	0x34c6a26c	3.6998551e-07
48	0x3431c1be	1.6554893e-07
49	0x33097d96	3.2012018e-08
50	0x357ea1bb	9.485772e-07
51	0x34acf1ab	3.2213333e-07
52	0x3420abd1	1.4963668e-07
53	0x34eb124e	4.378548e-07
54	0x3600fcf3	1.9220722e-06
55	0x35af5fa9	1.3066357e-06
56	0x34feb6ca	4.7444183e-07
57	0x360db2c9	2.1114704e-06
58	0x357db015	9.450608e-07
59	0x357f03c1	9.5000365e-07
60	0x35a9ad6a	1.2641951e-06
61	0x3486a926	2.5082517e-07
62	0x340aaa1b	1.2914136e-07
63	0x343426fb	1.6777987e-07
64	0x339f6019	7.4214945e-08
65	0x364db451	3.0652338e-06
66	0x36122661	2.1778035e-06
67	0x359ca5bb	1.167114e-06
68	0x35e8e131	1.7350886e-06
69	0x34bac92b	3.479157e-07
70	0x34942b0b	2.7598466e-07
71	0x33da0cf4	1.0153772e-07
72	0x3340b244	4.4865615e-08
73	0x352068c5	5.9757105e-07
74	0x367b7011	3.7467146e-06
75	0x35a8b3eb	1.2569338e-06
76	0x34325725	1.6609245e-07
77	0x35c7e644	1.4893672e-06
78	0x34e86935	4.3289916e-07
79	0x34ed1386	4.4158895e-07
80	0x37685423	1.3847867e-05
81	0x331d54e8	3.6631633e-08
82	0x36467aa0	2.9575676e-06
83	0x35fc7c7a	1.881169e-06
84	0x3469201e	2.17115e-07
85	0x34485ae1	1.8659513e-07
86	0x36a46978	4.899859e-06
87	0x369159d2	4.331793e-06
88	0x3668ccae	3.4689833e-06
89	0x35619da4	8.404843e-07
90	0x35e05410	1.6713766e-06
91	0x360e2b36	2.11848e-06
92	0x368a82ef	4.127963e-06
93	0x35c84efb	1.4924148e-06
94	0x351a4faf	5.7485425e-07
95	0x34a5a5bf	3.085424e-07
96	0x34d7ecb6	4.02191e-07
97	0x3402dced	1.2187566e-07
98	0x35188bab	5.6827656e-07
99	0x35bc8126	1.4044679e-06
100	0x351416d7	5.516753e-07
101	0x35066db9	5.007856e-07
102	0x31f0ae07	7.004704e-09
103	0x34f4e79a	4.5617054e-07
104	0x35966490	1.1205138e-06
105	0x3535ec25	6.777139e-07
106	0x3207b82a	7.899908e-09
107	0x356c97ad	8.813757e-07
108	0x3512d551	5.4699655e-07
109	0x35d7f1b9	1.6089099e-06
110	0x34c6ef9b	3.705471e-07
111	0x35229049	6.0559665e-07
112	0x33a2d0c1	7.581685e-08
113	0x334dfe45	4.796154e-08
114	0x34d660bf	3.9930998e-07
115	0x35931cef	1.0960774e-06
116	0x35d31488	1.57267e-06
117	0x331207cd	3.400037e-08
118	0x33b9b8ac	8.6483254e-08
119	0x340a0d2c	1.2857043e-07
120	0x3540ca92	7.182035e-07
121	0x3657b743	3.214417e-06
122	0x331d76fa	3.666262e-08
123	0x350cb115	5.241175e-07
124	0x3440db06	1.7961074e-07
125	0x358dd970	1.0568601e-06
126	0x33d8975a	1.00858145e-07
127	0x3577e61e	9.2349535e-07
