results/car4/CarFindGoal/CarFindGoal-1.pt (torch, 180023 bytes, 12 tensors)

network_body._body_endoder.seq_layers.0.weight f4 [128, 36]
000000 d3 a5 a6 be 33 6d 63 3e 92 9c 5c 3e f0 81 ab bc
       -0.3254839 0.22209625 0.21544102 -0.020935982
000010 5e 7d 96 bd 14 d1 3f 3d 86 de df bd 1b 42 a3 3d
       -0.07348131 0.04683025 -0.10931115 0.07971593
000020 ef 97 93 3e 2a 99 a0 bc 08 00 54 3e ed 41 8c bd
       0.28826854 -0.019604284 0.20703137 -0.06848512
000030 f5 0f 9c be 77 2c 1e 3b bf 62 b8 bd e2 b0 00 3e
       -0.30480924 0.002413539 -0.09003209 0.12567475
000040 a6 a6 37 be a5 50 90 bd a2 c9 f6 bc a9 88 94 bd
       -0.17934665 -0.07046632 -0.030125443 -0.07252628
000050 b4 ba 0e 3e 68 ea 97 be 6a a1 04 3e 33 04 c2 3d
       0.13938409 -0.29671025 0.129522 0.09473457
000060 6e ed ac 3d b9 a2 92 3e 76 53 19 3d fa c5 30 3e
       0.084437236 0.28639773 0.03743311 0.17263022
000070 96 f0 a8 3d 82 11 f6 3d 52 23 71 3e ca 60 34 3e
       0.08249013 0.12015058 0.2354863 0.17615047
000080 48 c9 ac 3e 7b 87 4b 3e 17 1a 54 3e 03 30 f3 3c
       0.33747315 0.198759 0.20713077 0.02968598
000090 5f b7 36 be e2 3d 5e be f0 26 5f 3e b7 a9 f0 bd
       -0.17843388 -0.21703294 0.21792197 -0.117511205
0000a0 f2 35 30 3c e4 10 7e bd c1 a3 25 be 1f 30 84 bd
       0.010755049 -0.062027827 -0.16175748 -0.06454491
0000b0 fb 3d 99 3d f8 78 7e 3d 4e 7c 29 3e ab f0 09 be
       0.07482525 0.062127084 0.16551325 -0.13470714
0000c0 36 3a b9 3d ee fd 5e 3e bc 60 03 3d 3a 5d f7 bd
       0.09044306 0.21776554 0.032074675 -0.120783284
0000d0 77 fb 52 3e 4f ac ef bd 2b bc b2 3d 98 8e 10 3e
       0.20603739 -0.11702787 0.087272964 0.14116895
0000e0 ca 1a 3c be 60 b9 87 3d 87 ed 57 bd ff d1 ef 3d
       -0.18369594 0.06627154 -0.052716758 0.117099755
0000f0 ba e5 d6 3d 04 97 80 bb 28 9f 8f 3d 36 9e 27 3b
       0.104930356 -0.0039242525 0.070127785 0.0025576479
000100 aa 35 b2 3e 06 b6 57 be fb dd 5a 3d 7c 11 88 3e
       0.34806567 -0.2106553 0.053434353 0.2657584
000110 ca d2 f9 3c 48 a5 11 3e bc 85 28 bd 42 83 a1 3d
       0.03049602 0.14223206 -0.041143164 0.078863636
000120 02 54 9e bd 74 40 f1 3b 67 3e 5a bd a4 47 fc 3d
       -0.07730867 0.0073624197 -0.053282168 0.12318352
000130 80 fa 03 bd f2 4e 2a be b4 2f b8 bd 50 9a 09 3e
       -0.032221317 -0.16631678 -0.08993474 0.13437772
000140 46 f4 40 be a8 33 70 3e 72 97 20 ba 00 5a ef be
       -0.18843183 0.23457205 -0.0006126083 -0.46748352
000150 e6 7f c7 3d 16 c0 9e 3e ef 4d 55 3d 7b ad b2 bd
       0.097411916 0.31005925 0.052076276 -0.08724495
000160 1a b5 25 be 94 db 23 3e 0a 71 a9 bd 6e fc 4c 3e
       -0.16182366 0.16001731 -0.082735136 0.2001817
000170 28 53 0d 3d 64 5b b4 be ec 6d 8b be e0 8c a7 bd
       0.034503132 -0.35225976 -0.272323 -0.08181167
000180 94 22 7c be 34 20 63 3d 0e 3e 8f 3e 11 e5 87 3d
       -0.24622566 0.055450633 0.2797703 0.06635488
000190 7e 71 0c 3e b0 c2 13 3e 5e cd 17 be 4c af 84 3c
       0.13715169 0.14429736 -0.14824435 0.01619687
0001a0 53 0a a1 bc 9f c4 c9 3d bb f0 e2 bd ba e4 82 3e
       -0.019658243 0.098519556 -0.11081072 0.2556513
0001b0 16 9c f8 bd 7e 92 15 be 1c a2 68 be 88 b1 c2 bd
       -0.12139146 -0.14606664 -0.2271809 -0.09506518
0001c0 54 44 05 be 72 03 88 be 72 89 52 be cc a4 e3 bc
       -0.13014346 -0.2656513 -0.20560244 -0.027788542
0001d0 24 e0 25 be e2 f0 03 3e 90 90 02 3d 12 80 32 3d
       -0.16198784 0.12884858 0.031876147 0.04357917
0001e0 5a 73 05 bc 12 92 a4 bb 4e 0c cb 3d 1e 2c 99 3c
       -0.008145178 -0.0050222958 0.09914456 0.018697795
0001f0 8c 3e 59 3d ab 63 f8 bd c2 b4 d8 3c cf 06 e6 3e
       0.053038165 -0.12128385 0.02645338 0.4492707
000200 36 f2 bc 3d fe 69 df bc 9a 14 28 3d b2 67 88 3c
       0.092258856 -0.02727222 0.041035272 0.016651008
000210 0f 77 e1 3d bf 97 9d 3e cc ae ef 3d 26 78 f4 3b
       0.11009037 0.30779836 0.11703262 0.007460612
000220 a3 38 a1 be 64 99 85 be 0e fa 1b 3d 37 37 d1 bd
       -0.31488523 -0.2609359 0.038080268 -0.102156095
000230 ee a1 d2 bd 90 c9 90 3e 60 a0 62 3e b4 7d ca 3d
       -0.10284792 0.2827878 0.2213149 0.09887257
000240 92 1f f0 bd 8b 1c 25 be e2 f7 8e be ab f9 cd bd
       -0.117247716 -0.1612417 -0.27923495 -0.10057386
000250 b8 f2 18 bb 17 68 9b 3e f6 d7 03 bd 04 56 77 3e
       -0.002333803 0.30352852 -0.03218838 0.24153906
000260 2c d1 05 be e7 03 09 be 4c 1c b9 3d 74 d0 aa 3c
       -0.13068074 -0.13380395 0.090386 0.020851351
000270 af f0 d5 be 32 1a d4 bd 2b a4 bc b9 17 4d 5a 3e
       -0.4178519 -0.10356559 -0.0003598047 0.2131847
000280 a3 ce 7a be 47 1e 2e ba 8b 71 b1 3c 08 a4 47 bd
       -0.24492888 -0.0006642085 0.021660587 -0.048740417
000290 08 3b 73 be f7 6c 9d be 9c fc af 3b 38 09 32 bd
       -0.23752987 -0.30747196 0.0053706896 -0.043465823
0002a0 e4 9a 17 3e 50 0e 89 3d 32 96 3a 3d 8c ac c5 be
       0.1480518 0.06692183 0.045553394 -0.38608205
0002b0 4b b4 7c be 55 2b 91 3c 7b 40 5c be 1c ae a1 bd
       -0.24678151 0.017720858 -0.21508972 -0.07894537
0002c0 af 87 6f 3e f8 81 9c bb e4 76 a2 3d 32 dc 0b be
       0.23391603 -0.0047762357 0.07932833 -0.13658217
0002d0 3e b2 2d bd b4 d2 1d be 6f 82 b4 bd 98 5c 91 bd
       -0.042406313 -0.15412408 -0.08813941 -0.07097739
0002e0 1b f1 65 bc 6f e7 cb bd 78 79 d1 3e fb 64 c7 3c
       -0.014034535 -0.09956252 0.40912986 0.024340143
0002f0 3e 7b f5 3d 3a 0a 09 3e 6c d6 8c 3d 44 5e a3 be
       0.11986397 0.13382807 0.06876835 -0.31907856
000300 d8 fe 9a 3d 50 e4 22 be 5f 6b 90 3e 37 03 e3 bd
       0.07568139 -0.15907407 0.28206918 -0.110845976
000310 e0 9a 56 be d2 8a 51 be d0 ec a3 be dc 87 0d 3e
       -0.20957518 -0.20463112 -0.3201661 0.13821357
000320 22 0f 23 bd d8 59 2c 3e 83 e5 b1 bd 22 12 03 3e
       -0.039809354 0.16831148 -0.08686354 0.12799886
000330 96 f5 2b bd d0 b5 8e bd f7 ab 03 3c 64 d0 93 bd
       -0.041982256 -0.06968272 0.008036605 -0.07217482
000340 74 e9 d2 3c 8b 17 6c 3d d8 61 bd 3d 4a 98 52 be
       0.025746085 0.05763964 0.09247178 -0.20565906
000350 96 57 5c 3e 50 c9 d9 3c 12 0e 6c bc da 67 a8 3d
       0.21517786 0.026585251 -0.0144076515 0.08222933
000360 1c 4e 78 3e 32 75 f9 bd c8 54 ba bd 9a 2b b9 3d
       0.24248546 -0.12180556 -0.09098202 0.090415195
000370 27 67 3f be 78 9b e1 bd fa a8 54 3d f8 b3 58 3e
       -0.18691693 -0.110159814 0.05191896 0.21162403
000380 ba 9f 5a 3e c4 d0 a5 3e 8c dc 17 bd 70 10 d3 bc
       0.21349993 0.32385838 -0.037075564 -0.025764674
000390 e2 ca 35 be 48 27 a2 3d c8 75 16 be f0 ee 4b 3e
       -0.17753175 0.079176486 -0.14693367 0.19915366
0003a0 b6 4b 06 3e 53 04 f5 bd f0 a4 80 3e de 6d 6b 3e
       0.13114819 -0.119637154 0.25125837 0.2299113
0003b0 3c f6 b7 3d e8 68 db 3d ee b8 4f 3e f2 1c c9 3e
       0.08982512 0.10713369 0.20285389 0.39279896
0003c0 dc 3a a2 3d 7c 82 41 bc ef d4 ef 3b 4e 36 da bb
       0.07921383 -0.011810895 0.007319085 -0.0066593057
0003d0 fc 27 b4 3e 0c 6f 99 3e a8 29 e5 3d 10 8b d5 3d
       0.35186756 0.29967535 0.11189586 0.10426915
0003e0 6f 47 42 bc a7 6f 47 3d 76 cf 76 bd a2 38 2e be
       -0.011857851 0.048690464 -0.060256444 -0.17013791
0003f0 fc bf 9c 3c d7 65 55 be 6c aa 05 3d ff a1 86 be
       0.019134514 -0.2083963 0.03263323 -0.26295468

network_body._body_endoder.seq_layers.0.bias f4 [128]
000000 00 00 00 00 00 00 00 00 00 00 00 00 00 00 00 00
       0.0 0.0 0.0 0.0
000010 00 00 00 00 00 00 00 00 00 00 00 00 00 00 00 00
       0.0 0.0 0.0 0.0
000020 00 00 00 00 00 00 00 00 00 00 00 00 00 00 00 00
       0.0 0.0 0.0 0.0
000030 00 00 00 00 00 00 00 00 00 00 00 00 00 00 00 00
       0.0 0.0 0.0 0.0
000040 00 00 00 00 00 00 00 00 00 00 00 00 00 00 00 00
       0.0 0.0 0.0 0.0
000050 00 00 00 00 00 00 00 00 00 00 00 00 00 00 00 00
       0.0 0.0 0.0 0.0
000060 00 00 00 00 00 00 00 00 00 00 00 00 00 00 00 00
       0.0 0.0 0.0 0.0
000070 00 00 00 00 00 00 00 00 00 00 00 00 00 00 00 00
       0.0 0.0 0.0 0.0
000080 00 00 00 00 00 00 00 00 00 00 00 00 00 00 00 00
       0.0 0.0 0.0 0.0
000090 00 00 00 00 00 00 00 00 00 00 00 00 00 00 00 00
       0.0 0.0 0.0 0.0
0000a0 00 00 00 00 00 00 00 00 00 00 00 00 00 00 00 00
       0.0 0.0 0.0 0.0
0000b0 00 00 00 00 00 00 00 00 00 00 00 00 00 00 00 00
       0.0 0.0 0.0 0.0
0000c0 00 00 00 00 00 00 00 00 00 00 00 00 00 00 00 00
       0.0 0.0 0.0 0.0
0000d0 00 00 00 00 00 00 00 00 00 00 00 00 00 00 00 00
       0.0 0.0 0.0 0.0
0000e0 00 00 00 00 00 00 00 00 00 00 00 00 00 00 00 00
       0.0 0.0 0.0 0.0
0000f0 00 00 00 00 00 00 00 00 00 00 00 00 00 00 00 00
       0.0 0.0 0.0 0.0
000100 00 00 00 00 00 00 00 00 00 00 00 00 00 00 00 00
       0.0 0.0 0.0 0.0
000110 00 00 00 00 00 00 00 00 00 00 00 00 00 00 00 00
       0.0 0.0 0.0 0.0
000120 00 00 00 00 00 00 00 00 00 00 00 00 00 00 00 00
       0.0 0.0 0.0 0.0
000130 00 00 00 00 00 00 00 00 00 00 00 00 00 00 00 00
       0.0 0.0 0.0 0.0
000140 00 00 00 00 00 00 00 00 00 00 00 00 00 00 00 00
       0.0 0.0 0.0 0.0
000150 00 00 00 00 00 00 00 00 00 00 00 00 00 00 00 00
       0.0 0.0 0.0 0.0
000160 00 00 00 00 00 00 00 00 00 00 00 00 00 00 00 00
       0.0 0.0 0.0 0.0
000170 00 00 00 00 00 00 00 00 00 00 00 00 00 00 00 00
       0.0 0.0 0.0 0.0
000180 00 00 00 00 00 00 00 00 00 00 00 00 00 00 00 00
       0.0 0.0 0.0 0.0
000190 00 00 00 00 00 00 00 00 00 00 00 00 00 00 00 00
       0.0 0.0 0.0 0.0
0001a0 00 00 00 00 00 00 00 00 00 00 00 00 00 00 00 00
       0.0 0.0 0.0 0.0
0001b0 00 00 00 00 00 00 00 00 00 00 00 00 00 00 00 00
       0.0 0.0 0.0 0.0
0001c0 00 00 00 00 00 00 00 00 00 00 00 00 00 00 00 00
       0.0 0.0 0.0 0.0
0001d0 00 00 00 00 00 00 00 00 00 00 00 00 00 00 00 00
       0.0 0.0 0.0 0.0
0001e0 00 00 00 00 00 00 00 00 00 00 00 00 00 00 00 00
       0.0 0.0 0.0 0.0
0001f0 00 00 00 00 00 00 00 00 00 00 00 00 00 00 00 00
       0.0 0.0 0.0 0.0

network_body._body_endoder.seq_layers.2.weight f4 [128, 128]
000000 50 7e b5 bd ac 57 38 bb 84 a6 98 bd 5e 43 0b 3d
       -0.08861983 -0.0028128428 -0.07453635 0.033999793
000010 30 d8 bc bd 20 3f 36 bd 19 87 eb bd 24 79 7e 3c
       -0.09220922 -0.044493794 -0.11500377 0.015531812
000020 d5 b0 48 bd 71 51 99 bc a6 1f b3 bc 0f f6 03 be
       -0.048996765 -0.018715592 -0.021865677 -0.12886833
000030 6a 01 5d bd 0d ce 17 3b ea d9 21 3e f9 45 06 be
       -0.053956427 0.0023163587 0.15805784 -0.1311263
000040 18 d0 8b bd 49 23 87 3d b9 0b ac 3d 48 09 02 bd
       -0.068268 0.06598527 0.084006734 -0.031747133
000050 71 8b 8d bc d1 a2 24 3e df ed eb bc ef 40 21 3c
       -0.017278405 0.16077735 -0.02879995 0.0098421415
000060 4f 52 ec bc 81 3c 31 3c 26 12 fa bd 47 dd d8 3d
       -0.028847842 0.010817648 -0.12210493 0.1058908
000070 d7 a3 15 3d 20 7e 03 be 30 2f ee bd 1c b8 17 3d
       0.036533203 -0.12841082 -0.11630094 0.037040815
000080 72 b3 49 3c ce 3f 85 bd 4a 0a dc bc 5d 01 5e bd
       0.0123108495 -0.065063104 -0.026860375 -0.05420052
000090 15 10 93 bc d9 23 a2 bc 30 b9 ef bc c8 19 b9 3d
       -0.017952004 -0.019792484 -0.029263109 0.090381205
0000a0 79 6b 9f bd 4f b1 19 3e 64 1d 99 bd e1 6d de 3d
       -0.07784171 0.15009044 -0.07476309 0.108608015
0000b0 b8 16 cf 3d 98 6b 96 bd f8 2c bc 3d 24 8c b9 3d
       0.10111755 -0.07344741 0.091882646 0.09059933
0000c0 78 a8 e5 3d b8 49 ab bc a1 6b 8c bd 1a 4e 84 3d
       0.112137735 -0.020909175 -0.06856466 0.06460209
0000d0 61 3f 6e 3d f3 71 9e bd 07 b6 01 bc b9 c3 58 bb
       0.05816591 -0.07736578 -0.007916934 -0.0033075644
0000e0 44 f7 21 3d db 1d f8 3b 95 e3 90 bd af 15 16 be
       0.03954245 0.0075719184 -0.07074658 -0.14656709
0000f0 7c d7 5f 3d 09 99 ed 3d ee 8e 79 3d b6 26 64 bc
       0.05464886 0.11601455 0.060927324 -0.013925245
000100 53 c8 57 3d da 19 2f 3e 4e 61 16 3c 56 bb d4 3d
       0.05268128 0.17099705 0.009178473 0.10387294
000110 ad eb 1e 3d c3 ba 57 3d 09 5b e3 bd af c5 6b be
       0.038798977 0.052668344 -0.11101348 -0.23024629
000120 c1 c7 cd 3d fb 0c a4 bd 58 3e 51 3d 8a 7b 87 bd
       0.10047866 -0.08010288 0.051084846 -0.0661536
000130 48 99 19 3e e2 8b a2 bc 16 1e be bc 84 58 f0 bd
       0.14999878 -0.019842092 -0.023207705 -0.11735633
000140 fa 5a bf 3c 39 12 8d bc 8f 14 0a 3e 22 46 3b bd
       0.02335881 -0.017220603 0.13484405 -0.04572118
000150 a8 54 90 bc f0 61 6b be ce ae f0 bd 17 ed b0 3d
       -0.017618492 -0.22986579 -0.11752091 0.08638971
000160 1a d4 e8 bc 4b b2 9b 3d 90 2d 00 3e 81 67 26 bd
       -0.02842145 0.07602366 0.1251738 -0.040626053
000170 7f 67 ed 3c 98 b6 96 3c 36 58 49 3d b1 1f 09 3d
       0.028980015 0.018397614 0.04915639 0.03347749
000180 45 6c a6 3d 0f ce ad 3d 24 62 1e bd 0c 43 21 3c
       0.081261195 0.08486568 -0.038667813 0.009842645
000190 f3 21 55 3c f0 d2 43 3e eb 11 fc 3d f4 01 ee 3c
       0.013008582 0.19123435 0.12308105 0.029053666
0001a0 d4 3f b5 bd 68 95 30 3e 43 a1 66 bc 5d 9f 74 3d
       -0.08850065 0.17244494 -0.014076534 0.059722293
0001b0 93 14 c1 bd 2f 8f 1e 3c 8e f9 6a 3d fa e8 c0 bc
       -0.09427752 0.009677692 0.0573669 -0.023548592
0001c0 f7 e2 63 bc 44 b4 8f bc 46 dc ac bc 44 10 31 bd
       -0.013909093 -0.017542012 -0.021101128 -0.043228403
0001d0 fc 57 4f 3d c8 cd 2f bd 7c 56 ce 3d d6 84 dc bd
       0.050621018 -0.042920858 0.10075089 -0.10767524
0001e0 b5 ae 54 bb c7 8b 94 ba c7 21 ad 3d 51 a1 91 bd
       -0.0032452766 -0.0011333161 0.08453708 -0.07110847
0001f0 e2 52 1a be a7 a4 96 bd 68 67 01 3e 76 f8 8f bd
       -0.1507068 -0.07355624 0.12637103 -0.07029812
000200 bb 5f 60 3d 83 78 34 3e 82 85 66 3c d9 a8 68 3d
       0.054778796 0.17624097 0.014069917 0.05680165
000210 e2 62 c4 bd 75 5d c2 bd e1 38 72 3d f1 c8 96 3d
       -0.09589173 -0.09490482 0.059136275 0.07362545
000220 70 da af 3d 24 10 2b 3d c6 77 56 bd 69 12 c1 3c
       0.085865855 0.04176344 -0.05236032 0.023568349
000230 13 d5 58 bc 67 c9 a0 bd 51 d1 99 bc 62 e6 24 bd
       -0.013234395 -0.078509144 -0.018776568 -0.040258773
000240 2d eb 66 3d d9 18 f2 3c 29 33 89 bc 0b 69 34 3e
       0.056376625 0.029552864 -0.016748028 0.17618196
000250 96 0f 55 be 1a 99 f6 3d cd 2a 2a 3e 0b 71 2a bc
       -0.20806727 0.120409206 0.1661789 -0.010402928
000260 54 82 91 bd 61 3d 5e 3d e3 db 0e bd 6e e5 f4 bd
       -0.07104936 0.054257754 -0.03487767 -0.11957823
000270 fa 64 47 bd 32 01 c3 3c 2d 8c 9c bd cf 5a 01 bd
       -0.048680283 0.02380428 -0.07643924 -0.031580742
000280 44 38 8d 3c c9 b0 24 3d a0 14 81 bd 33 50 b0 3c
       0.017238744 0.040207658 -0.06302762 0.021522617
000290 a7 51 9d bc 93 3f b8 bd 94 d0 37 3d 84 17 00 3e
       -0.019203974 -0.08996501 0.04487665 0.1250897
0002a0 ae af 07 3e 23 99 b3 bd e3 ed f2 3d 26 6f 79 bd
       0.1325061 -0.08769443 0.118617795 -0.060897015
0002b0 76 d1 b0 bd 7f e4 19 bd ef a4 53 bd 03 48 93 3e
       -0.086337015 -0.037571426 -0.051670965 0.28765878
0002c0 4d 76 da bd d2 18 3b be 2d 94 29 bd 39 9e c4 3d
       -0.10667095 -0.18271187 -0.041401077 0.09600491
0002d0 64 ce 96 3d eb 5a 94 bd 27 ef 07 bd db aa 00 3e
       0.07363585 -0.07243904 -0.033187058 0.12565176
0002e0 ca 4f ba 3d 9e 93 e7 bc 36 96 3b 3d 86 eb 20 3e
       0.0909725 -0.028268632 0.04579755 0.15714845
0002f0 56 a3 11 be 87 65 b2 3d 4f 6f 9e bc 15 16 e9 3c
       -0.14222464 0.08710771 -0.019340185 0.028452912
000300 2c c1 34 3e ba 78 c8 bd 4a 73 db bc 59 c6 5c 3d
       0.17651814 -0.09788652 -0.026788373 0.053900097
000310 41 a2 bb bd 5d 28 bf 3d 79 23 a8 bb 19 cd 01 be
       -0.09161807 0.093338706 -0.005131182 -0.12675895
000320 91 00 44 bd a2 bb fa 3d d7 87 8e 3b f3 74 04 bd
       -0.047852103 0.12242819 0.0043496895 -0.032338094
000330 91 24 52 bd 8f df 2b bd ad 22 72 be 58 20 27 be
       -0.051304404 -0.04196125 -0.2364604 -0.16320932
000340 49 fc e4 3d 3d 68 55 bd 8b 07 7c bd 6f 7f f1 3d
       0.11180932 -0.052101362 -0.06153063 0.11791884
000350 38 d1 02 3b 83 fc 9b 3d 5e ab 14 be a0 dd 66 3d
       0.001996113 0.07616522 -0.14518496 0.0563637
000360 7b 28 d8 bc 5d e9 04 3e f0 e1 fa bc 0f 49 b2 3d
       -0.02638649 0.12979646 -0.030625314 0.08705341
000370 88 c8 bc bd ea 03 80 3d c3 ec b2 bc 97 42 f0 3d
       -0.09217936 0.062507465 -0.021841412 0.11731451
000380 a1 15 d3 bd d8 7e a0 bd 5a 19 b3 3d 53 05 ae 3c
       -0.1030686 -0.078366935 0.0874507 0.021242773
000390 32 c9 01 be ef f9 2d 3e 50 67 9d 3c c9 24 ad bd
       -0.12674406 0.16989873 0.019214302 -0.08454282
0003a0 83 ab 9c bc 15 ae 42 3d 2b 30 56 3d 0b 7d a9 bc
       -0.019124752 0.0475293 0.05229203 -0.020689508
0003b0 cb 86 9f 3d 5a 41 f8 3c 2f 27 0c be 81 77 00 3e
       0.077893816 0.0303046 -0.13686822 0.12545587
0003c0 e8 a3 20 3d 64 5e 31 be 5c a5 76 3d 67 3f fb 3c
       0.039218813 -0.17321163 0.060216293 0.030669881
0003d0 02 53 f9 bd cf f5 cf bc 79 7f 99 bb 20 70 19 bd
       -0.121740356 -0.025385765 -0.0046843854 -0.037460446
0003e0 e8 da 0a be 40 d3 74 bd 6b 89 06 3c 2a d5 35 3a
       -0.13560069 -0.059771776 0.008211474 0.0006936366
0003f0 dc c3 99 3d 04 cb 71 bd 0c 4f cc 3d 1d 5d d0 3d
       0.0750806 -0.0590315 0.099760145 0.1017401

network_body._body_endoder.seq_layers.2.bias f4 [128]
000000 00 00 00 00 00 00 00 00 00 00 00 00 00 00 00 00
       0.0 0.0 0.0 0.0
000010 00 00 00 00 00 00 00 00 00 00 00 00 00 00 00 00
       0.0 0.0 0.0 0.0
000020 00 00 00 00 00 00 00 00 00 00 00 00 00 00 00 00
       0.0 0.0 0.0 0.0
000030 00 00 00 00 00 00 00 00 00 00 00 00 00 00 00 00
       0.0 0.0 0.0 0.0
000040 00 00 00 00 00 00 00 00 00 00 00 00 00 00 00 00
       0.0 0.0 0.0 0.0
000050 00 00 00 00 00 00 00 00 00 00 00 00 00 00 00 00
       0.0 0.0 0.0 0.0
000060 00 00 00 00 00 00 00 00 00 00 00 00 00 00 00 00
       0.0 0.0 0.0 0.0
000070 00 00 00 00 00 00 00 00 00 00 00 00 00 00 00 00
       0.0 0.0 0.0 0.0
000080 00 00 00 00 00 00 00 00 00 00 00 00 00 00 00 00
       0.0 0.0 0.0 0.0
000090 00 00 00 00 00 00 00 00 00 00 00 00 00 00 00 00
       0.0 0.0 0.0 0.0
0000a0 00 00 00 00 00 00 00 00 00 00 00 00 00 00 00 00
       0.0 0.0 0.0 0.0
0000b0 00 00 00 00 00 00 00 00 00 00 00 00 00 00 00 00
       0.0 0.0 0.0 0.0
0000c0 00 00 00 00 00 00 00 00 00 00 00 00 00 00 00 00
       0.0 0.0 0.0 0.0
0000d0 00 00 00 00 00 00 00 00 00 00 00 00 00 00 00 00
       0.0 0.0 0.0 0.0
0000e0 00 00 00 00 00 00 00 00 00 00 00 00 00 00 00 00
       0.0 0.0 0.0 0.0
0000f0 00 00 00 00 00 00 00 00 00 00 00 00 00 00 00 00
       0.0 0.0 0.0 0.0
000100 00 00 00 00 00 00 00 00 00 00 00 00 00 00 00 00
       0.0 0.0 0.0 0.0
000110 00 00 00 00 00 00 00 00 00 00 00 00 00 00 00 00
       0.0 0.0 0.0 0.0
000120 00 00 00 00 00 00 00 00 00 00 00 00 00 00 00 00
       0.0 0.0 0.0 0.0
000130 00 00 00 00 00 00 00 00 00 00 00 00 00 00 00 00
       0.0 0.0 0.0 0.0
000140 00 00 00 00 00 00 00 00 00 00 00 00 00 00 00 00
       0.0 0.0 0.0 0.0
000150 00 00 00 00 00 00 00 00 00 00 00 00 00 00 00 00
       0.0 0.0 0.0 0.0
000160 00 00 00 00 00 00 00 00 00 00 00 00 00 00 00 00
       0.0 0.0 0.0 0.0
000170 00 00 00 00 00 00 00 00 00 00 00 00 00 00 00 00
       0.0 0.0 0.0 0.0
000180 00 00 00 00 00 00 00 00 00 00 00 00 00 00 00 00
       0.0 0.0 0.0 0.0
000190 00 00 00 00 00 00 00 00 00 00 00 00 00 00 00 00
       0.0 0.0 0.0 0.0
0001a0 00 00 00 00 00 00 00 00 00 00 00 00 00 00 00 00
       0.0 0.0 0.0 0.0
0001b0 00 00 00 00 00 00 00 00 00 00 00 00 00 00 00 00
       0.0 0.0 0.0 0.0
0001c0 00 00 00 00 00 00 00 00 00 00 00 00 00 00 00 00
       0.0 0.0 0.0 0.0
0001d0 00 00 00 00 00 00 00 00 00 00 00 00 00 00 00 00
       0.0 0.0 0.0 0.0
0001e0 00 00 00 00 00 00 00 00 00 00 00 00 00 00 00 00
       0.0 0.0 0.0 0.0
0001f0 00 00 00 00 00 00 00 00 00 00 00 00 00 00 00 00
       0.0 0.0 0.0 0.0

action_model._continuous_distribution.log_sigma f4 [1, 2]
000000 00 00 00 00 00 00 00 00
       0.0 0.0

action_model._continuous_distribution.mu.weight f4 [2, 128]
000000 c3 9d a4 3b 1a be 06 bd fb 02 df bc 1a aa fa bc
       0.0050236895 -0.03289614 -0.0272231 -0.030598689
000010 d0 1d 8c 3c 24 2d 33 bc 43 cd 47 3b 3b 68 c9 bc
       0.01710406 -0.010936055 0.0030487336 -0.024585834
000020 c2 ad 25 bc 74 72 25 3c 97 2a 09 bc 77 b0 8d 3c
       -0.010112228 0.0100980885 -0.008371971 0.017296059
000030 9b ab 85 3c b7 43 cf 3c cf d1 ca bc a3 c3 b8 3b
       0.01631718 0.025300844 -0.024758248 0.005638556
000040 da 24 e5 3b 0c 1d 41 3c 38 9a 00 3c 93 4e ff b6
       0.0069929184 0.0117867105 0.007849269 -7.6087395e-06
000050 43 3e e3 bb f7 b5 c0 3b ae d4 0a 3c 1b 5a 74 bc
       -0.0069349124 0.005881067 0.008473558 -0.014914061
000060 53 a8 98 bb 1a 7e e4 3b 32 37 d3 3c d1 fc 85 3c
       -0.0046587377 0.0069730403 0.025783155 0.016355904
000070 e3 06 09 bd 73 77 ce bc 23 65 3a bc 6a ae 3d bc
       -0.033453833 -0.025203442 -0.011376652 -0.011577228
000080 e8 09 67 3d e7 5b 8c 3c 73 79 f7 bb 8d 14 09 ba
       0.05640593 0.017133666 -0.0075523197 -0.00052291976
000090 47 be 10 3c db d3 e9 bb d2 a6 11 bd b2 54 61 bc
       0.008834428 -0.007135851 -0.035559483 -0.013753103
0000a0 a1 a5 31 3b 3c 94 42 bc 5b 14 3d bc 03 d0 11 bc
       0.002710678 -0.011876162 -0.011540498 -0.0088996915
0000b0 fd a0 50 bc 8c c9 a1 3c 98 7a 04 bd 02 06 e2 3c
       -0.012733695 0.019749425 -0.032343477 0.027590755
0000c0 94 74 b2 3c 28 e3 a6 bc 75 6c d2 3b 85 58 37 3d
       0.021784104 -0.020371988 0.0064216205 0.044762153
0000d0 bb f5 a7 bc 02 55 e8 3c b5 90 e1 bb 6d d7 f5 3c
       -0.020502916 0.028360847 -0.0068837055 0.03000995
0000e0 20 91 db 3b 7f d7 e8 ba e2 b0 a1 ba 4d 58 29 ba
       0.00670065 -0.0017764418 -0.001233604 -0.0006459996
0000f0 37 40 6e 3b 28 31 d2 bc 42 f2 b4 ba 55 76 84 38
       0.0036354193 -0.025658205 -0.0013805109 6.3162915e-05
000100 8d 04 80 bc 67 18 42 bc 60 8d 69 bc d2 9e 7f ba
       -0.01562717 -0.011846638 -0.014254898 -0.0009751144
000110 e2 6e f4 ba 50 39 63 bc c3 3a 27 bc d7 94 0b 3c
       -0.0018648768 -0.013868645 -0.010206881 0.008519373
000120 73 4e e6 3c ea 83 83 3b 9b 45 ae ba f0 0f 15 bd
       0.02811358 0.004013528 -0.001329589 -0.036392152
000130 c7 df 98 3c a9 c7 c0 3b aa 35 db 3b 33 bc 22 bc
       0.018661393 0.0058831763 0.006689747 -0.0099325655
000140 f3 9e bb 3c 5b 05 4d 3c 3a 43 fc 3c 8f 07 76 3c
       0.022902941 0.012513484 0.030793775 0.015016451
000150 e0 aa e2 3b 5a 86 ef 3c 7c 45 b8 bc 54 b1 92 3a
       0.0069173425 0.029238869 -0.02249407 0.0011191764
000160 42 16 db bc 0f bd b0 3c 63 7c 88 bc a3 8c fd bc
       -0.026744012 0.021574525 -0.016660875 -0.03095085
000170 22 bf 3b 3c fb f3 cd bc aa ae 08 3d 48 b1 b8 bc
       0.011459144 -0.025140753 0.033369698 -0.022545472
000180 83 5a b6 3c cb 82 0a 3c df d0 1b bd 24 df a5 bc
       0.022259956 0.008454035 -0.038040992 -0.020248003
000190 3d 78 26 bb cd ae 59 bc c5 49 c0 bc f8 74 70 3a
       -0.0025401257 -0.013286305 -0.023472676 0.0009172703
0001a0 0a 1c d7 3c 35 09 66 bc 30 51 76 3c 83 2f 76 bc
       0.026258487 -0.014040281 0.015034005 -0.015025976
0001b0 03 5f 0c 3c b4 e1 17 bc 86 05 ab bb 49 c9 93 3c
       0.008567574 -0.00927012 -0.0052191643 0.018040316
0001c0 4e 37 9d bc 2b 71 4a 3c 3f 9d 8e 3b ea 61 ae bb
       -0.01919141 0.012356083 0.0043522413 -0.005321731
0001d0 c6 57 c7 3a 1d 74 0b 3d c1 d7 1f 3b af 46 99 3c
       0.0015208654 0.03404628 0.0024390074 0.018710462
0001e0 b6 f9 95 bc 0a e1 74 bc b5 18 e4 3b 54 43 16 3d
       -0.018307548 -0.014946232 0.006960953 0.036685303
0001f0 03 d9 6b bc 97 6b 80 bc 1f 2a 1e bd 13 85 a1 3c
       -0.014395001 -0.015676303 -0.03861439 0.019716775
000200 9a fc c0 3b 23 d1 b9 bc 8d a5 8d ba f7 70 e0 3c
       0.0058894875 -0.022682732 -0.0010806784 0.027397616
000210 e2 a6 e9 3b 92 b5 89 3c 53 ae 58 3c 8b d0 57 bc
       0.0071304897 0.016810212 0.013225156 -0.013172279
000220 98 12 17 3c 73 ce 09 bc e5 3b 8c bc d8 8f 85 3c
       0.009220742 -0.008411038 -0.017118404 0.016303942
000230 a0 3d d7 bb 5b c5 cc bb 4c b8 cc 3b 49 c6 c0 bc
       -0.0065686256 -0.0062491125 0.006247556 -0.02353205
000240 e3 cf 82 bc eb b4 71 3c 98 29 12 3d 53 2a 18 bc
       -0.015968269 0.014752607 0.0356842 -0.009287435
000250 53 75 61 bc b1 02 bb bb e6 91 bb bc 4a 8b 7a bc
       -0.013760882 -0.005707108 -0.022896718 -0.015291998
000260 79 69 86 3c 10 2f 8b bb 93 2f 89 bb 3b ed a3 3c
       0.016407715 -0.0042475536 -0.0041865795 0.020010581
000270 3f 58 66 3b 22 82 43 bb 1d 47 9c bb 30 f2 4d bc
       0.0035147814 -0.0029832204 -0.0047692196 -0.012569949
000280 e0 b9 73 3c 53 37 83 3c eb b3 b4 bb 53 d8 21 bd
       0.014875859 0.016017592 -0.005514612 -0.039512943
000290 af d0 1e 3c 8e 8c 05 3b 74 20 87 3c cf b5 27 bd
       0.009693309 0.0020377967 0.016494967 -0.04094487
0002a0 7f 5f e5 bb 7b 90 0c bc 92 38 7b bc 96 b5 25 3b
       -0.0069999094 -0.008579369 -0.015333312 0.0025285236
0002b0 b3 15 01 bd ec d4 9a 3c 27 52 71 3c 1b e1 ab 38
       -0.031514835 0.018900357 0.014729059 8.1958446e-05
0002c0 3c c6 a8 3b e8 29 75 3c 68 16 db 3b 9d 54 9b bb
       0.0051505845 0.0149636045 0.0066860206 -0.0047403113
0002d0 78 85 6d 3c c3 b3 7f bc a4 25 43 bc 1b 91 20 bb
       0.014497153 -0.015606823 -0.01191083 -0.0024500552
0002e0 3b e7 2b bd 1b 24 34 3c 4a 0f 07 b9 c3 c6 79 bb
       -0.041968565 0.010994936 -0.00012880299 -0.0038112856
0002f0 47 65 0c bc 06 28 31 3c d2 45 47 bb 1d 69 da 3b
       -0.008569068 0.010812765 -0.0030406606 0.0066653625
000300 93 db f3 bb e0 21 b5 3b 6f c9 40 3c 5a 6a f4 bc
       -0.007441947 0.00552772 0.0117667755 -0.029835869
000310 2d 31 84 bc 1a ef 6e bb a4 ee 42 bb 68 eb bd 3c
       -0.01613673 -0.0036458434 -0.0029744292 0.02318354
000320 6c 5a 15 3d d2 40 ea ba a6 b1 1b bd 61 ba c5 3b
       0.036463186 -0.0017872101 -0.038011216 0.006034181
000330 d5 81 f1 ba 72 81 9a 3b 3b 28 22 ba f8 ab 8f bb
       -0.0018425534 0.004715138 -0.00061858044 -0.004384514
000340 c7 db c6 bc ac af 3b bc 33 2f 1d bc ca a9 02 bb
       -0.02427472 -0.011455458 -0.009593773 -0.0019937628
000350 62 ac a3 3c a7 a5 82 3a 0e 20 29 3d 78 e2 76 3c
       0.01997966 0.0009967581 0.041290335 0.015068643
000360 0f 83 60 3b 11 22 be bb f5 d8 ce bb da 9d 01 3c
       0.0034257805 -0.005802401 -0.0063124844 0.00791117
000370 72 9f 2e 3b f7 24 e6 bc 78 dc 42 bc 38 a2 8f 3c
       0.002664533 -0.028093798 -0.011893384 0.017533407
000380 93 29 19 bb 38 d3 82 bc 4f fe 41 bc d0 39 e4 3c
       -0.0023370727 -0.015969858 -0.011840417 0.027859598
000390 75 1f e2 bc b0 6e eb bb 2d 23 ff 3c 1b 50 6c 3c
       -0.02760289 -0.007184826 0.031144703 0.0144233955
0003a0 87 61 2e bb 48 9f 8a 3a 07 37 21 bc cb 66 89 bc
       -0.0026608424 0.0010576034 -0.00983978 -0.016772648
0003b0 c8 c6 a8 3c 92 71 21 3b 3f e9 6e 3b f6 74 04 bd
       0.020602599 0.0024634344 0.0036454943 -0.032338105
0003c0 cf a7 b0 3c fb e6 85 3c 6b e3 95 bb d0 cc 6f 3c
       0.021564392 0.016345492 -0.0045742295 0.014636233
0003d0 73 b1 1e bd 9b fe a4 bb 97 f2 f8 3b b5 0b d7 3c
       -0.038743448 -0.005035234 0.0075972783 0.0262507
0003e0 f3 71 77 bc 83 9c 2c 3a 8b 28 6c 3c 88 7b 14 3c
       -0.015102851 0.00065846014 0.014413963 0.009062655
0003f0 0d 25 54 bc 9d 14 3e 3c fd 2f 7c 3b 65 f4 28 3c
       -0.012948287 0.011601594 0.0038480752 0.010312174

action_model._continuous_distribution.mu.bias f4 [2]
000000 00 00 00 00 00 00 00 00
       0.0 0.0

network_body._body_endoder.seq_layers.0.weight f4 [128, 36]
000000 7c 49 3f 3e 78 15 6f bd 34 bb 12 be d3 94 e5 3c
       0.18680376 -0.058370084 -0.14329225 0.028025066
000010 32 e5 c9 3d c6 c2 24 be b6 d2 a5 3c 24 94 67 3e
       0.09858169 -0.16089925 0.020242076 0.22615105
000020 e7 f5 3c 3e 93 6d b6 3d de 03 29 be 5c 90 21 be
       0.1845318 0.089076184 -0.16505381 -0.15777725
000030 28 d5 9e bd 0a 34 2c bd 02 8c df bd 58 bd 3f 3e
       -0.077555 -0.042041816 -0.10915376 0.18724573
000040 c7 00 e2 bd 55 45 16 3b c0 ba e2 3d 9e f7 1e be
       -0.110353045 0.0022929509 0.11070776 -0.15524146
000050 fe a0 33 be 8b 5a b5 bd f0 35 05 3e 9f 28 1e be
       -0.17541882 -0.0885516 0.13008857 -0.15445183
000060 74 e6 e3 3d 6f 20 42 be 2c 4a 28 3d 68 e9 53 3e
       0.1112794 -0.18957685 0.04108636 0.20694506
000070 e2 32 bf 3d 33 d2 ad 3d bb 7b ba bd 01 d4 96 3e
       0.09335877 0.08487358 -0.09105631 0.2945862
000080 6b 87 33 3e 80 d3 1d 3e 9c b4 70 3e 63 c8 d0 3d
       0.17532127 0.15412712 0.23506397 0.10194471
000090 de 95 09 3d 4a 5f 4c 3e 87 a0 5d 3d 86 b7 b5 bd
       0.03359019 0.19958225 0.05410817 -0.08872895
0000a0 c2 79 fd bc 80 b1 85 3d 82 00 00 bd 5e 31 37 ba
       -0.030941848 0.06527996 -0.031250484 -0.0006988252
0000b0 c0 64 80 be 90 d1 3a be 4a 33 c2 3b 5c dc 73 3e
       -0.25076866 -0.18244004 0.0059265243 0.23814529
0000c0 ac d7 ca bd 40 c4 08 3e d0 51 21 be 97 65 cf 3d
       -0.099044174 0.13356113 -0.15753865 0.101267986
0000d0 d4 32 c6 3d 1b 79 a7 3d 7a 9c a9 be 30 bd 32 3e
       0.096776634 0.08177396 -0.33127195 0.17454982
0000e0 ac 76 79 bd 1d 20 9f 3c 52 1e 32 3e fe ae 8f be
       -0.06090419 0.019424492 0.17394379 -0.28063196
0000f0 16 77 5b 3d bc df 1a be 1c 90 d9 be 36 48 c4 3e
       0.053580366 -0.1512441 -0.4249276 0.38336343
000100 45 e5 1c be c6 27 f4 bd 87 ed 06 bd 37 bb 60 be
       -0.15321834 -0.11921649 -0.032941367 -0.21946417
000110 90 5d e0 be 70 e7 b0 3d 33 08 fc 3d 88 c5 d8 3d
       -0.43821383 0.08637893 0.123062514 0.10584551
000120 a3 3c 00 bf ce 82 1c 3e 5f dd b6 3e ee 05 38 3e
       -0.50092524 0.15284273 0.35715768 0.17971012
000130 f4 9f a1 3d 2f 66 3b be 25 7d 0a bd e4 36 93 3c
       0.07891837 -0.18300699 -0.033810753 0.01797051
000140 1c b3 13 bc 8b b9 77 be c9 27 09 3d e8 38 dc 3e
       -0.009014871 -0.24191873 0.033485208 0.43012166
000150 b3 94 ad bc c3 96 98 3e 4c 6b 93 3e c6 f3 e4 bd
       -0.02118907 0.29802522 0.287928 -0.111793086
000160 a7 f2 11 3d 0b c3 fa bc da 0b 08 3e 9e c6 e4 3c
       0.035631802 -0.030610582 0.13285771 0.02792674
000170 86 51 72 3e 35 86 19 3e fc 09 01 3e c8 6e 1c be
       0.23663911 0.14992602 0.12601465 -0.15276635
000180 74 09 83 3e 07 26 1a bd f5 99 27 be 64 a3 ce 3d
       0.2559315 -0.037633922 -0.16367324 0.10089758
000190 e3 fa 57 3e 56 4f f9 3d cd d1 05 be be 55 24 be
       0.210918 0.12173335 -0.13068314 -0.16048333
0001a0 c4 57 94 be b8 7c 06 3d bc cf 8a bd ee 34 fd 3d
       -0.2897321 0.032833785 -0.067779034 0.12363611
0001b0 b6 5f 1f be 6c 88 22 3d 83 91 3b bd c3 0a 31 bd
       -0.15563855 0.039680883 -0.045793068 -0.043223154
0001c0 fe 3a 27 3e 99 b9 18 3e 4c 5e 86 be 97 58 c7 bd
       0.16331097 0.1491455 -0.26243818 -0.09733694
0001d0 af 76 d5 3e cf 4f a9 3c a2 28 d8 3d ea a0 15 be
       0.4169211 0.020667939 0.10554625 -0.14612165
0001e0 f0 ea 0f be 1c f2 be 3c 02 45 58 3e 0c cf 2a 3b
       -0.14054465 0.023308806 0.21120074 0.002606335
0001f0 ef dd f5 3c 1e b6 ef 3d 90 be 03 3e a0 0f 90 bd
       0.030013053 0.11704658 0.12865663 -0.0703423
000200 a0 1e d9 bd 82 1f 80 be 17 11 66 be 64 e1 8e 3d
       -0.106015444 -0.2502404 -0.22467457 0.069765836
000210 4d 24 99 bd ac 35 7c bd f6 6d 54 be 84 d6 b2 3d
       -0.07477627 -0.061574623 -0.20745072 0.08732322
000220 e6 86 41 3d 6e e1 cd 3c 37 33 4b be 0c c0 a5 3d
       0.04724779 0.025131907 -0.19843756 0.08093271
000230 c2 09 77 3c 22 ea 69 3e eb cc 0c 3d 37 ec 57 be
       0.01507801 0.22843221 0.034375113 -0.21086203
000240 72 13 f8 bc 9a 61 81 3d c8 d9 c8 bd ba 49 29 be
       -0.03028271 0.06317444 -0.098071635 -0.1653203
000250 73 1a b7 3d 84 95 99 3e 1a f4 8a bc b8 10 7a 3d
       0.08940592 0.29996884 -0.0169621 0.0610511
000260 13 73 fe bc 23 3e fe 3b 38 d4 52 3d c8 c6 3f 3d
       -0.031060731 0.007758872 0.05147192 0.046820432
000270 5a 7b 2c bd 78 dd 72 be 91 d9 28 be e4 40 9f 3c
       -0.042109825 -0.23717296 -0.16489245 0.019440122
000280 32 1d 78 3e a9 a8 19 3e b7 11 ff bd 20 0f 49 3b
       0.24229887 0.15005745 -0.12454551 0.0030679181
000290 c7 fe e0 bc 0c 01 34 3e a2 cb ce 3e 16 08 08 bd
       -0.027465237 0.17578524 0.40389735 -0.033210836
0002a0 1e 3f ab be a4 fa 20 3e 93 cc 63 be b7 7c 2e be
       -0.33446592 0.15720612 -0.22246008 -0.17039762
0002b0 ab 4f af bd 55 01 8e bd 6a 7c cb 3e c0 2e 4b bd
       -0.08560117 -0.06933848 0.39743358 -0.04960513
0002c0 ec 22 ba be 02 6b e0 bc cb 01 d7 3e 63 ac f7 3d
       -0.36354768 -0.027394775 0.41993555 0.12093427
0002d0 12 b5 95 ba ca a1 f6 bd 20 55 07 3d 56 b7 7d 39
       -0.0011421761 -0.120425776 0.033040166 0.00024196258
0002e0 7f ee b0 be a4 1c 92 3d 28 53 22 bd 6c 0c e2 3d
       -0.34556958 0.07134369 -0.039630085 0.110375255
0002f0 8a 69 68 3e 6c c7 35 3d 7b 59 35 3d c5 4d a1 3e
       0.2269651 0.044379637 0.04427479 0.31504646
000300 e6 5b e3 bd 4b a9 e1 bc 7c d9 bc 3c f8 66 b2 3d
       -0.111015126 -0.027546545 0.023052923 0.08711046
000310 98 d9 8d 3b f6 4e 6a be eb 65 4a be 72 62 b5 bd
       0.0043289177 -0.22881684 -0.19765441 -0.088566676
000320 fe dc bf bd 44 90 d0 3d 34 34 ec bd 5f 3d e1 bd
       -0.09368323 0.101837665 -0.115333945 -0.10998034
000330 69 27 29 3d e2 2d 80 be ca db 90 bc 16 1c 1d 3e
       0.04129735 -0.25035006 -0.017682929 0.15342745
000340 3f 9f ce bd 69 04 9b be c0 1a f3 3d f8 1e 19 bc
       -0.100889675 -0.30276802 0.118703365 -0.009345762
000350 e8 32 b9 bd 46 4a 2f be 84 95 82 be 97 d1 23 3d
       -0.09042913 -0.17118177 -0.25504696 0.039994802
000360 c6 3c e8 3c d6 bc ec 3d 5f cd 41 3e c0 c6 9f bc
       0.028349292 0.11559455 0.18925999 -0.019503951
000370 ca f7 37 3e 5d fe 07 3d 03 8e 1e 3e 2e ff a1 3c
       0.17965618 0.033201564 0.1548386 0.019775
000380 d4 ad e2 3c a6 8c 68 3b be 89 64 3e 1f 73 4a bc
       0.027670778 0.0035484224 0.2231817 -0.012356549
000390 c4 db 8b bd c2 97 01 3e 64 69 55 3d 56 0c 7d 3e
       -0.06829026 0.12655547 0.05210246 0.24711737
0003a0 1a 08 92 be 9c d5 85 bd 2e a6 71 3c 3f 84 99 3e
       -0.28521806 -0.065348834 0.014749093 0.29983708
0003b0 e0 b6 b5 3e d4 0d 05 3d 9c 71 a8 bd 0c 84 1c be
       0.35491085 0.03248389 -0.08224794 -0.15284747
0003c0 96 85 13 3d 32 8f 44 be 5a a1 80 3e 29 b6 08 bb
       0.03601607 -0.1919525 0.251231 -0.002086053
0003d0 9e 71 9d be c4 d7 ac bd 7c f2 8b 3c 13 50 5a be
       -0.30750746 -0.084395915 0.017083399 -0.21319608
0003e0 43 d5 b6 bd 23 45 ab 3a d8 9a 92 bd 43 ae 19 3d
       -0.08927395 0.0013066869 -0.0715844 0.037519705
0003f0 bb b8 fa bd cf 4c 31 3e c2 fd 75 be 53 d6 32 3e
       -0.12242266 0.17314456 -0.24022582 0.1746457

network_body._body_endoder.seq_layers.0.bias f4 [128]
000000 00 00 00 00 00 00 00 00 00 00 00 00 00 00 00 00
       0.0 0.0 0.0 0.0
000010 00 00 00 00 00 00 00 00 00 00 00 00 00 00 00 00
       0.0 0.0 0.0 0.0
000020 00 00 00 00 00 00 00 00 00 00 00 00 00 00 00 00
       0.0 0.0 0.0 0.0
000030 00 00 00 00 00 00 00 00 00 00 00 00 00 00 00 00
       0.0 0.0 0.0 0.0
000040 00 00 00 00 00 00 00 00 00 00 00 00 00 00 00 00
       0.0 0.0 0.0 0.0
000050 00 00 00 00 00 00 00 00 00 00 00 00 00 00 00 00
       0.0 0.0 0.0 0.0
000060 00 00 00 00 00 00 00 00 00 00 00 00 00 00 00 00
       0.0 0.0 0.0 0.0
000070 00 00 00 00 00 00 00 00 00 00 00 00 00 00 00 00
       0.0 0.0 0.0 0.0
000080 00 00 00 00 00 00 00 00 00 00 00 00 00 00 00 00
       0.0 0.0 0.0 0.0
000090 00 00 00 00 00 00 00 00 00 00 00 00 00 00 00 00
       0.0 0.0 0.0 0.0
0000a0 00 00 00 00 00 00 00 00 00 00 00 00 00 00 00 00
       0.0 0.0 0.0 0.0
0000b0 00 00 00 00 00 00 00 00 00 00 00 00 00 00 00 00
       0.0 0.0 0.0 0.0
0000c0 00 00 00 00 00 00 00 00 00 00 00 00 00 00 00 00
       0.0 0.0 0.0 0.0
0000d0 00 00 00 00 00 00 00 00 00 00 00 00 00 00 00 00
       0.0 0.0 0.0 0.0
0000e0 00 00 00 00 00 00 00 00 00 00 00 00 00 00 00 00
       0.0 0.0 0.0 0.0
0000f0 00 00 00 00 00 00 00 00 00 00 00 00 00 00 00 00
       0.0 0.0 0.0 0.0
000100 00 00 00 00 00 00 00 00 00 00 00 00 00 00 00 00
       0.0 0.0 0.0 0.0
000110 00 00 00 00 00 00 00 00 00 00 00 00 00 00 00 00
       0.0 0.0 0.0 0.0
000120 00 00 00 00 00 00 00 00 00 00 00 00 00 00 00 00
       0.0 0.0 0.0 0.0
000130 00 00 00 00 00 00 00 00 00 00 00 00 00 00 00 00
       0.0 0.0 0.0 0.0
000140 00 00 00 00 00 00 00 00 00 00 00 00 00 00 00 00
       0.0 0.0 0.0 0.0
000150 00 00 00 00 00 00 00 00 00 00 00 00 00 00 00 00
       0.0 0.0 0.0 0.0
000160 00 00 00 00 00 00 00 00 00 00 00 00 00 00 00 00
       0.0 0.0 0.0 0.0
000170 00 00 00 00 00 00 00 00 00 00 00 00 00 00 00 00
       0.0 0.0 0.0 0.0
000180 00 00 00 00 00 00 00 00 00 00 00 00 00 00 00 00
       0.0 0.0 0.0 0.0
000190 00 00 00 00 00 00 00 00 00 00 00 00 00 00 00 00
       0.0 0.0 0.0 0.0
0001a0 00 00 00 00 00 00 00 00 00 00 00 00 00 00 00 00
       0.0 0.0 0.0 0.0
0001b0 00 00 00 00 00 00 00 00 00 00 00 00 00 00 00 00
       0.0 0.0 0.0 0.0
0001c0 00 00 00 00 00 00 00 00 00 00 00 00 00 00 00 00
       0.0 0.0 0.0 0.0
0001d0 00 00 00 00 00 00 00 00 00 00 00 00 00 00 00 00
       0.0 0.0 0.0 0.0
0001e0 00 00 00 00 00 00 00 00 00 00 00 00 00 00 00 00
       0.0 0.0 0.0 0.0
0001f0 00 00 00 00 00 00 00 00 00 00 00 00 00 00 00 00
       0.0 0.0 0.0 0.0

network_body._body_endoder.seq_layers.2.weight f4 [128, 128]
000000 c1 2e b3 bc 24 05 d9 bd 11 cf 4e 3d 12 e2 80 3c
       -0.02187288 -0.105966836 0.050490443 0.015732799
000010 3d 8c 4b 3b 29 86 35 3e 7f 29 46 be 6a f2 08 3e
       0.003105893 0.1772696 -0.19351767 0.13373724
000020 69 cc 0c be e3 be 2c bd fa 47 b7 bb 82 d0 04 bd
       -0.13749851 -0.04217423 -0.005593297 -0.03242541
000030 fe d4 81 3c c3 1e 53 3d 99 d4 91 3c 76 d4 d5 bd
       0.015848633 0.05154301 0.01780157 -0.10440914
000040 84 68 56 3b db ba 22 3e 85 4c 43 bd 17 0c ea bd
       0.0032716105 0.15891592 -0.047680397 -0.11428087
000050 09 b5 f2 3c 1a 27 86 3d 7a 96 17 bc 1f cf c5 3d
       0.02962734 0.06550427 -0.009252185 0.09658646
000060 15 22 53 3d f0 c1 94 3d 68 9f c0 bd 3a 1b ee bc
       0.051546175 0.07263553 -0.09405404 -0.029065717
000070 e9 62 95 bd 90 c2 68 bd 62 ae 2d bc 35 43 25 3d
       -0.07294256 -0.056826174 -0.010600658 0.040347297
000080 8d fe 49 3d cf 06 4f bb f9 d0 dd bc 13 8d 31 3e
       0.049315024 -0.0031589752 -0.027077185 0.17338972
000090 d4 36 9c bd a1 11 fe bc 1b f8 70 bd ef 20 e9 bb
       -0.07627645 -0.031014265 -0.05883036 -0.0071145217
0000a0 cb 36 98 bc 4e 91 62 3d fc ae 08 3e a9 e6 d1 bd
       -0.018580815 0.055314355 0.13348001 -0.10249073
0000b0 9e 11 0a 3b 89 f2 0b bd 41 ff 9c 3d 22 f1 69 bd
       0.002106763 -0.034166846 0.07665873 -0.057114728
0000c0 35 b7 5a bd 31 bd fb bc 1e 2a d9 bd 83 73 ee 3b
       -0.053397376 -0.030729862 -0.10603736 0.0072769537
0000d0 72 07 ac ba b2 41 cf bc 56 4a a7 bc 0c e2 ec 3c
       -0.0013124777 -0.02529988 -0.020421188 0.028916381
0000e0 7c 0e 64 3d 7f d3 31 be af d8 d8 bc a2 c9 a7 bc
       0.055677876 -0.17365836 -0.02647051 -0.020481888
0000f0 1d c2 1a be a1 d2 f4 bd 46 b7 60 3d 64 9e a4 bd
       -0.15113111 -0.11954237 0.054862283 -0.08038023
000100 bc 49 95 bc 1f 96 94 3d d2 d2 42 3d 1b 31 51 3d
       -0.018223636 0.07255196 0.047564335 0.05107222
000110 59 c6 c3 3c 3a 4f c5 3c c4 02 54 be 71 74 36 bc
       0.02389829 0.02408563 -0.2070418 -0.01113616
000120 2a b8 f5 3c de fe 47 3e 44 1a 3d be c0 c5 2c bd
       0.029995043 0.19530818 -0.18467051 -0.042180777
000130 75 8d 55 bd b9 c3 a4 bd 11 97 5c 3e 21 7e 80 bd
       -0.052136857 -0.08045144 0.21542002 -0.06274057
000140 5b dc ef bd 88 d9 10 bc a1 5a 10 3d af 5d 08 bd
       -0.11711951 -0.008840926 0.03524268 -0.03329247
000150 dd 01 85 bd 34 1a df bd ea 85 10 3e 62 73 3f 3d
       -0.06494496 -0.1089367 0.14113584 0.046740897
000160 75 3c bb 3d b7 bc 3b 3c 5e fd c2 bd 0b e4 5f 3d
       0.09142391 0.011458567 -0.09520982 0.054660838
000170 1d 66 87 3c 9b 57 c3 bd 20 c1 67 3d c6 70 63 3d
       0.016528184 -0.09538194 0.056580663 0.05552747
000180 70 c5 e4 3d cb 84 32 3e 47 b9 10 3e 50 cf 1b 3c
       0.11170471 0.17433469 0.14133178 0.009509876
000190 a8 4c d5 3c 3c 41 0f 3e 7e 62 cc 3d 6f 69 55 3e
       0.02603753 0.13989729 0.099797234 0.20841001
0001a0 0c e0 e0 3b 69 22 f9 bd 06 91 96 3d c9 e9 81 bd
       0.006862646 -0.12164766 0.0735188 -0.06343419
0001b0 b6 6f 0c 3e 47 3b 14 3e b7 3b 1f 3d 07 6d 07 3d
       0.1371449 0.14475738 0.038875308 0.03306296
0001c0 e1 68 e4 3c 9d bc ff 3d 1d 63 87 3d b7 2e ca bd
       0.027882041 0.12487147 0.06610701 -0.098721914
0001d0 0a 30 c5 3c 54 c7 1e 3e e2 7e 90 be 7b f7 2f be
       0.024070758 0.15505725 -0.28221804 -0.1718425
0001e0 5f 13 d1 3b 39 48 83 3d 9c 5f fe 3b ff 82 59 3d
       0.006380483 0.0641026 0.0077628624 0.053103443
0001f0 36 74 79 3d cf c8 f9 bd ca 36 eb 3d 69 3c 2a be
       0.060901843 -0.12196504 0.114850596 -0.16624607
000200 68 a8 f0 bd 7a 8d 12 3e 59 88 48 be 74 4e e4 3d
       -0.11750871 0.14311782 -0.19583263 0.11147776
000210 7f 5f 04 3e 5c 6f a5 be c9 14 5c bc ac ff 2c 3d
       0.12927054 -0.32311523 -0.01343269 0.042236015
000220 5d c7 5a 3d a4 8d d4 3d 48 fd 5e 3d 0c 71 36 bd
       0.053412784 0.10378578 0.054440767 -0.044541404
000230 ac e9 06 3d 97 9a 95 3d 79 2b 9c bd f6 b0 e5 bc
       0.03293769 0.07304876 -0.07625479 -0.028038483
000240 e6 6c c9 bc d3 c5 0b 3d cf b4 4a 3d f5 9e 30 3d
       -0.02458806 0.034124207 0.04948884 0.043120343
000250 ac 00 3d bd e5 d2 44 3d 4c 56 85 bc 86 01 9b 3d
       -0.04614322 0.048052687 -0.016276501 0.0756865
000260 10 26 85 bc 57 6f e9 bc 49 e7 b3 bc 4d eb d2 bd
       -0.016253501 -0.028495474 -0.021960871 -0.10298786
000270 55 db 07 bd 86 da df bb d1 ab f4 bd f7 fa 0e be
       -0.033168156 -0.00683147 -0.11946834 -0.13962923
000280 95 b8 86 bb 69 38 62 3e ad 39 95 3c 47 2a db bd
       -0.0041113594 0.22091831 0.018215979 -0.10701423
000290 66 8a 23 be 0f f5 e5 bd 1e 99 3f 3d 8d d0 11 3e
       -0.15970764 -0.11228382 0.046776883 0.14239712
0002a0 32 ee 21 3d db c6 45 bd 4d d3 c8 3d 0d 8b 27 3d
       0.0395338 -0.048285346 0.098059274 0.040904094
0002b0 4d fe b3 3d 85 b4 2a bd c6 9e da 3d e0 ad c8 bd
       0.087887384 -0.041676063 0.10674815 -0.09798789
0002c0 c5 30 a1 3d dd 9a a6 3d 38 1c 1a 3d 28 fa 88 3d
       0.0787063 0.081350066 0.037624568 0.066883385
0002d0 cf 14 49 3e d9 42 a8 bd c2 45 b4 bd 77 c1 82 be
       0.19636844 -0.08215875 -0.08802368 -0.25538227
0002e0 74 ee be bc eb 42 6b 3d c0 00 5e 3d 7f 09 64 3c
       -0.023307063 0.057436865 0.054199934 0.01391828
0002f0 3e ef 01 be 35 c7 b1 bc cc 1c ee 3d 0c a5 57 bd
       -0.1268892 -0.021701435 0.11626586 -0.052647635
000300 9c ff a4 bc 32 e8 dd bd ff 5a b8 bd 24 eb 07 3e
       -0.020141415 -0.10835303 -0.09001731 0.13273293
000310 f2 50 28 3e 6f 03 81 3d e9 01 40 3d 61 c8 87 3d
       0.16437128 0.06299483 0.04687682 0.06630016
000320 c2 f7 c8 3d 58 e9 1e 3d 52 ca 93 3d 5d b0 ac 3c
       0.09812881 0.038796753 0.07216324 0.02108019
000330 1d 1c e7 3c 17 b6 6a 3c fc e7 f1 bd 3a 05 09 3e
       0.028211648 0.01432564 -0.11811826 0.133809
000340 7b c6 d6 bd ae 0a a6 bd b5 8b 22 bd 88 36 a6 3b
       -0.10487076 -0.08107506 -0.039684016 0.0050724186
000350 42 05 ff 3c 1e c1 0a be 68 40 ee bd ff b4 36 3d
       0.031130437 -0.13550231 -0.11633378 0.044606205
000360 df b6 1c be 88 cf ce bd 87 65 58 bb bc ba 8a bd
       -0.15304135 -0.10098177 -0.00330195 -0.06773898
000370 bd 26 87 bc 1a 18 6c 3c cc 9d 93 bd 88 82 8e 3e
       -0.016497964 0.014410043 -0.07207832 0.27833962
000380 0e b9 9d 3d 4e cf cf 3d d2 72 ed bd ab d0 84 3d
       0.07701312 0.10146962 -0.11594166 0.06485113
000390 28 d1 fc bc 9a fe ac 3d 91 13 f4 3c 62 e3 db 3d
       -0.030861452 0.08446999 0.029794486 0.10736729
0003a0 44 c4 ef 3d 72 c6 e4 3c 0e 95 0e bc 04 bf 20 3b
       0.117073566 0.027926657 -0.00870253 0.0024527917
0003b0 62 62 54 3e a3 31 76 be d6 09 e6 3d 39 c0 e3 3d
       0.20740655 -0.24042372 0.11232345 0.11120648
0003c0 25 5e 1f bc 55 37 e0 3d c5 01 56 ba a4 d3 71 3d
       -0.009727036 0.10948054 -0.0008163716 0.059039727
0003d0 96 1f ed 3d dd 5f 9c 3c f6 9e ad 3d 01 20 b0 3c
       0.1157829 0.01908868 0.08477585 0.021499636
0003e0 19 b4 05 3a c7 19 7d bd 4b d6 e7 bc b3 74 3a 3c
       0.0005100384 -0.06179216 -0.028300425 0.011380362
0003f0 fb 35 58 3d 45 de 8f bd f7 82 17 bd 1d ae 2a bd
       0.052785855 -0.070248164 -0.036990132 -0.041669954

network_body._body_endoder.seq_layers.2.bias f4 [128]
000000 00 00 00 00 00 00 00 00 00 00 00 00 00 00 00 00
       0.0 0.0 0.0 0.0
000010 00 00 00 00 00 00 00 00 00 00 00 00 00 00 00 00
       0.0 0.0 0.0 0.0
000020 00 00 00 00 00 00 00 00 00 00 00 00 00 00 00 00
       0.0 0.0 0.0 0.0
000030 00 00 00 00 00 00 00 00 00 00 00 00 00 00 00 00
       0.0 0.0 0.0 0.0
000040 00 00 00 00 00 00 00 00 00 00 00 00 00 00 00 00
       0.0 0.0 0.0 0.0
000050 00 00 00 00 00 00 00 00 00 00 00 00 00 00 00 00
       0.0 0.0 0.0 0.0
000060 00 00 00 00 00 00 00 00 00 00 00 00 00 00 00 00
       0.0 0.0 0.0 0.0
000070 00 00 00 00 00 00 00 00 00 00 00 00 00 00 00 00
       0.0 0.0 0.0 0.0
000080 00 00 00 00 00 00 00 00 00 00 00 00 00 00 00 00
       0.0 0.0 0.0 0.0
000090 00 00 00 00 00 00 00 00 00 00 00 00 00 00 00 00
       0.0 0.0 0.0 0.0
0000a0 00 00 00 00 00 00 00 00 00 00 00 00 00 00 00 00
       0.0 0.0 0.0 0.0
0000b0 00 00 00 00 00 00 00 00 00 00 00 00 00 00 00 00
       0.0 0.0 0.0 0.0
0000c0 00 00 00 00 00 00 00 00 00 00 00 00 00 00 00 00
       0.0 0.0 0.0 0.0
0000d0 00 00 00 00 00 00 00 00 00 00 00 00 00 00 00 00
       0.0 0.0 0.0 0.0
0000e0 00 00 00 00 00 00 00 00 00 00 00 00 00 00 00 00
       0.0 0.0 0.0 0.0
0000f0 00 00 00 00 00 00 00 00 00 00 00 00 00 00 00 00
       0.0 0.0 0.0 0.0
000100 00 00 00 00 00 00 00 00 00 00 00 00 00 00 00 00
       0.0 0.0 0.0 0.0
000110 00 00 00 00 00 00 00 00 00 00 00 00 00 00 00 00
       0.0 0.0 0.0 0.0
000120 00 00 00 00 00 00 00 00 00 00 00 00 00 00 00 00
       0.0 0.0 0.0 0.0
000130 00 00 00 00 00 00 00 00 00 00 00 00 00 00 00 00
       0.0 0.0 0.0 0.0
000140 00 00 00 00 00 00 00 00 00 00 00 00 00 00 00 00
       0.0 0.0 0.0 0.0
000150 00 00 00 00 00 00 00 00 00 00 00 00 00 00 00 00
       0.0 0.0 0.0 0.0
000160 00 00 00 00 00 00 00 00 00 00 00 00 00 00 00 00
       0.0 0.0 0.0 0.0
000170 00 00 00 00 00 00 00 00 00 00 00 00 00 00 00 00
       0.0 0.0 0.0 0.0
000180 00 00 00 00 00 00 00 00 00 00 00 00 00 00 00 00
       0.0 0.0 0.0 0.0
000190 00 00 00 00 00 00 00 00 00 00 00 00 00 00 00 00
       0.0 0.0 0.0 0.0
0001a0 00 00 00 00 00 00 00 00 00 00 00 00 00 00 00 00
       0.0 0.0 0.0 0.0
0001b0 00 00 00 00 00 00 00 00 00 00 00 00 00 00 00 00
       0.0 0.0 0.0 0.0
0001c0 00 00 00 00 00 00 00 00 00 00 00 00 00 00 00 00
       0.0 0.0 0.0 0.0
0001d0 00 00 00 00 00 00 00 00 00 00 00 00 00 00 00 00
       0.0 0.0 0.0 0.0
0001e0 00 00 00 00 00 00 00 00 00 00 00 00 00 00 00 00
       0.0 0.0 0.0 0.0
0001f0 00 00 00 00 00 00 00 00 00 00 00 00 00 00 00 00
       0.0 0.0 0.0 0.0

value_heads.value_heads.extrinsic.weight f4 [1, 128]
000000 20 89 39 bd 76 0d 29 3e 88 4f bd 3d fc 4a 19 3e
       -0.04529679 0.16509041 0.09243685 0.1497001
000010 b8 cf a8 bc b0 39 c5 3d 18 93 20 be 09 f1 e2 bd
       -0.02060686 0.09630144 -0.15681112 -0.1108113
000020 20 6b 98 3b 54 b3 92 3d 61 24 db bd a2 b2 d9 bd
       0.004651442 0.071631104 -0.10700298 -0.10629775
000030 24 b3 ac bd a4 70 67 bd 4c aa 04 be 16 1d f6 bd
       -0.08432606 -0.056503907 -0.12955588 -0.120172665
000040 0c c4 17 3e e2 9b a5 bd 78 a7 7d 3d d0 62 3d 3e
       0.1482088 -0.08086373 0.06192729 0.18494725
000050 fc 94 b9 3d 9e 5c 06 be aa a1 23 be 0a fd 0d be
       0.0906162 -0.13121268 -0.15979639 -0.13866058
000060 e8 4e 7d 3d c8 78 00 bd 30 e8 92 3d 60 88 f9 3b
       0.06184283 -0.031365186 0.071731925 0.007615134
000070 d0 ef f7 bc 30 ef 39 3d 40 1c 12 3b e0 0c af 3d
       -0.030265719 0.045394123 0.002229467 0.085473776
000080 6c 6a 08 3d 50 3e a5 3c 24 06 26 3e 50 6f 56 3c
       0.033304617 0.020171314 0.1621328 0.013088062
000090 92 a7 14 3e 3e 1a 8a bd 5b 1d 5a be f8 16 43 bd
       0.14517048 -0.067432866 -0.2130026 -0.047629327
0000a0 74 12 cb 3d 70 96 bf 3c e6 6d 8c bd 10 c6 ec 3d
       0.09915629 0.023387164 -0.06856899 0.11561215
0000b0 88 76 1d 3d 1c 4d 2c bd 3c ac 87 bd 75 d1 d7 bd
       0.03844312 -0.042065725 -0.06624648 -0.10537998
0000c0 7e b3 ed bd 10 12 7f 3d 27 3c f9 bd d2 31 2a be
       -0.11606501 0.062273085 -0.12169676 -0.16620567
0000d0 27 b1 e6 bd f0 53 b0 3d 99 2d 38 be b0 e3 0c 3c
       -0.11264258 0.0860976 -0.17986144 0.008599207
0000e0 08 f4 e9 3d fe 0e 17 3e 1b 16 c0 bd e0 0f e1 3d
       0.114234984 0.14751813 -0.09379216 0.10989356
0000f0 ca 27 28 be c6 ec 34 3e f0 b2 eb 3d 91 b4 d0 bd
       -0.16421428 0.17668447 0.11508739 -0.1019069
000100 c4 f6 bf 3d fe 78 0f 3e 40 64 0d 3c d0 7a ee bc
       0.09373239 0.14010999 0.0086298585 -0.029111296
000110 5c 8a f5 3d 18 37 1c 3e 58 77 84 3d f1 3b 31 be
       0.119892806 0.15255392 0.064680755 -0.17308022
000120 a0 ab a7 3d 38 6f 51 be c8 5b 0e 3d 0e ce 37 3e
       0.08187032 -0.20452583 0.0347555 0.17949697
000130 0d 5d fa bd f6 9f 43 be a2 73 b0 bd 94 8e a0 bd
       -0.12224779 -0.19103989 -0.08615805 -0.078396946
000140 b0 b8 30 3d b2 44 2b 3e e0 9e d7 3d 00 9d 73 bc
       0.04314488 0.16725424 0.1052835 -0.014868975
000150 38 7e b8 bd 99 33 0f be 9c 1f cc 3d 60 c5 ff bb
       -0.09008449 -0.13984527 0.099669665 -0.0078055114
000160 30 03 e1 3d 2e cb 95 bd 0a b0 2a 3e 7c 02 ae 3d
       0.10986936 -0.07314144 0.16668716 0.084965676
000170 10 1e 1d 3e 10 60 f1 bc f2 b7 56 3e 21 3b 4f be
       0.15343499 -0.029464751 0.20968607 -0.202374
000180 86 9f 36 3e 8c d5 17 3e 94 1b 17 3e 7c 94 bb 3d
       0.17834291 0.14827555 0.14756614 0.091591805
000190 6a a7 49 3e 97 ee 52 be a0 25 b8 3d 10 cb b2 3d
       0.1969277 -0.20598827 0.089915514 0.08730137
0001a0 89 d5 2d be 01 dd d0 bd 1f c3 4c be 48 9f 26 3e
       -0.16975988 -0.10198403 -0.19996308 0.16271698
0001b0 b0 0e 13 bc 58 6e f0 3c 7f 8f 44 be 88 79 81 bd
       -0.00897567 0.029349491 -0.19195364 -0.06322008
0001c0 2c 3e d2 3d 86 ec 47 be dc 6b 79 bd e8 81 1e be
       0.102657646 -0.1952382 -0.06089388 -0.15479243
0001d0 f8 4b 51 be 1c 90 2a bd 74 1e 87 3d 98 52 07 be
       -0.20439136 -0.04164134 0.06597605 -0.13215101
0001e0 5c 1c 85 bd b0 b9 28 bc 18 c1 e2 3d 98 dc c9 bd
       -0.0649955 -0.010298178 0.11071986 -0.09856528
0001f0 04 6f 6e bd d4 9c e3 3d fa a3 23 be 74 6c d3 3d
       -0.05821134 0.11113897 -0.15980521 0.1032342
