results/car4/CarFindGoal/CarFindGoal-1999943.pt (torch, 530875 bytes, 36 tensors)

network_body._body_endoder.seq_layers.0.weight f4 [128, 36]
000000 c7 da 9a bd b4 b7 9b 3c da b1 a6 3a 63 e5 62 bd
       -0.0756126 0.019008495 0.0012717799 -0.05539454
000010 4b 5d b3 bc 19 cd 48 3d 3e 96 cf 3d f9 d4 40 be
       -0.021895071 0.04902372 0.10136078 -0.18831243
000020 a1 1d d8 be 33 e8 4d 3e df 52 d8 bd 8e 46 29 3d
       -0.42210105 0.20108108 -0.105626814 0.04132705
000030 b7 27 40 3e e4 69 f0 bd a7 db bf 3d a6 c6 04 3f
       0.1876515 -0.11738947 0.09368067 0.51865613
000040 f2 c2 78 bc ce 3d 4b 3c e9 13 2c be b6 01 29 3e
       -0.015183197 0.012404872 -0.1680447 0.16504559
000050 38 88 5a be 3f 91 39 bc 70 42 9e 3e 1c df 2a bb
       -0.21341026 -0.011326133 0.30910063 -0.0026072925
000060 15 11 f6 bd 99 1c 44 3e 25 36 c7 3c c6 05 c3 bd
       -0.12014977 0.19151534 0.02431781 -0.095225856
000070 59 1f fa 3e aa 5f 4c 3c ba 1a 97 3d 6e b6 a6 bd
       0.4885204 0.01247398 0.073781446 -0.081402645
000080 3f a7 16 3e 3f 67 47 3d 70 8c 20 3d e3 22 46 3e
       0.14712237 0.048682448 0.03919643 0.19349246
000090 e9 22 2f be aa f0 8b 3e a5 09 85 3e dc 92 6b be
       -0.17103161 0.2733205 0.2598392 -0.23005241
0000a0 44 12 30 be f6 44 af be cb 38 3d 3d ff b8 9e be
       -0.17194468 -0.342323 0.04619674 -0.31000516
0000b0 29 77 44 3d 54 17 15 bc 0e fc bb 3c e7 15 74 3e
       0.047965202 -0.0090998 0.022947337 0.2383648
0000c0 3c a7 ca bd 1a dc 83 be 5c 5b a4 3e 54 dc 46 be
       -0.09895179 -0.25753862 0.32100952 -0.19419986
0000d0 d6 7b 01 bd 75 73 17 be eb 5f aa 3d 77 fd 4e be
       -0.03161224 -0.14790137 0.08319076 -0.20213877
0000e0 0a 60 37 3d 25 a6 80 be 3c 8c df 3c 00 50 1e bd
       0.044769324 -0.25126758 0.027288549 -0.038650513
0000f0 3f 67 a8 3b f5 53 ca 3d 69 a8 dd be 27 a6 37 bd
       0.005139261 0.09879295 -0.4329255 -0.04483619
000100 09 02 6e 3d 41 82 f7 bc ab d5 96 3d bc 6b 0f be
       0.05810741 -0.030213477 0.07364973 -0.14005941
000110 7d c9 96 be 01 09 4a be b2 f9 51 be b8 91 e0 bd
       -0.29450598 -0.19729997 -0.20505407 -0.10965294
000120 ad db e8 bd 9e 94 57 3d 6a ef ca bd f6 b9 6a be
       -0.11370025 0.052631967 -0.09908946 -0.22922501
000130 5a 9e 04 3e 93 79 02 be bc 0a cc bc d8 b4 38 3d
       0.12951031 -0.1274169 -0.024907462 0.04509434
000140 dd c1 0b 3e 45 30 0f 3d 03 e9 b4 bd f0 2f 1a 3d
       0.13648172 0.034958143 -0.08833506 0.037643373
000150 60 ed ec 3d 35 32 4c be a8 11 3e be ff 15 8c bb
       0.11568713 -0.19941027 -0.18561423 -0.004275083
000160 5c 3b 38 be 3f de a6 bd 5b 8d c5 bd f0 46 ab 3a
       -0.17991394 -0.08147859 -0.09646102 0.0013067406
000170 62 2b b6 3d 2f 1e a3 3d 8e b9 b6 3d 81 2c 62 3e
       0.08894993 0.079647414 0.089221105 0.2208729
000180 ea 4c ca 3d fc 87 08 3e d6 19 5a bd a4 c0 34 bd
       0.098779514 0.13333124 -0.053247295 -0.04412903
000190 f8 65 5f bc a6 68 28 bd 40 7e 45 3e 1d c3 f5 ba
       -0.013635151 -0.041115426 0.19286442 -0.0018750165
0001a0 08 a3 98 bd f8 98 b0 3d 2e c4 22 3d da 54 c6 3d
       -0.07452971 0.086229265 0.039737873 0.09684153
0001b0 f9 7b b9 3d 08 2e c8 bd 4c e3 04 3e 34 08 95 be
       0.09056849 -0.09774405 0.12977332 -0.2910782
0001c0 4d 6f 82 3d 3b 6e 2f be 87 11 bf bb b5 a5 bc bb
       0.06368885 -0.17131893 -0.005830947 -0.0057570585
0001d0 94 b8 e6 3d fa 95 d8 3d 8e 72 c3 bd b6 da cb 3e
       0.11265674 0.10575481 -0.09543334 0.398153
0001e0 49 6c 67 bd dc ab 24 3e 9b 9c 45 bd f8 9c 62 3e
       -0.056499753 0.16081184 -0.048245054 0.22130191
0001f0 97 11 d1 3e 0e 66 14 be 06 5b 86 be a1 8f 13 bd
       0.40833732 -0.14492056 -0.2624132 -0.036025647
000200 63 aa dd 3e 0e ea a0 3d 0e 0e 43 be f5 8b 92 be
       0.43294057 0.078571424 -0.1904833 -0.28622404
000210 7c 1d 8b be de 1a 9c 3c dd 2c cc 3d e5 da 84 3e
       -0.27170932 0.01905578 0.099694945 0.25948253
000220 9e 4e 2d 3d 83 50 02 bd 4b f9 68 3c 55 02 12 be
       0.042311303 -0.031815063 0.014219592 -0.14258702
000230 ce e4 b9 bd 67 b3 94 3d e0 91 19 bd 84 29 53 3e
       -0.09076844 0.07260781 -0.037492633 0.20621306
000240 f1 56 78 3d 8c 6a 84 be 88 5a d0 bd 18 d9 db be
       0.06062979 -0.2586254 -0.101735175 -0.42939067
000250 21 04 15 3e 19 77 22 bd a3 49 e3 3d 4d 5c 4b 3d
       0.14552356 -0.03966436 0.110980295 0.04964857
000260 50 08 ef 3d 17 1a 3c 3e d4 0c 8c 3d 44 8a 5b be
       0.11671507 0.18369327 0.06838384 -0.21439463
000270 1b 6d 42 3e 32 3d 22 be 53 bc 9e bd 33 d1 59 bc
       0.18986933 -0.15843657 -0.07750764 -0.013294506
000280 34 42 14 3e 78 04 19 bd 52 e9 69 be 7e b3 ed bd
       0.1447838 -0.037357777 -0.22842911 -0.11606501
000290 a9 4f 54 be 9a e2 6d bd f4 3e c5 bb 67 2b 13 3d
       -0.20733513 -0.058077432 -0.0060194675 0.035930064
0002a0 49 55 5d 3a 7d 88 a1 3d 84 97 30 be 4d 82 11 3e
       0.00084431894 0.07887361 -0.17245299 0.14209862
0002b0 b9 37 b5 bd 42 1b 2e be ae dc 5e 3e 46 0f 44 be
       -0.08848519 -0.17002586 0.2176387 -0.19146451
0002c0 5b c8 05 3e 45 bd 4b bd 0d e9 2e 3e 29 a8 61 3c
       0.13064711 -0.04974105 0.1708109 0.013773003
0002d0 c0 7f a4 3d 11 55 91 bd 76 2b a2 3d 18 58 32 be
       0.08032179 -0.07096303 0.07918446 -0.17416418
0002e0 f7 04 41 be f8 5b 53 3e ee a9 89 be b0 ac 66 3c
       -0.1884955 0.20640552 -0.2688746 0.014079258
0002f0 54 c9 f2 bb a9 c0 6d 3d b9 99 96 3d cc f4 aa bc
       -0.007409254 0.058045063 0.07353539 -0.020868681
000300 23 b6 8d be 35 1d 9e 3e bb a6 b9 bd e2 ee 29 3e
       -0.27678022 0.30881658 -0.090650044 0.16595033
000310 18 7f 3e be 75 46 8f bc e5 ca 0f 3e 6c 8a 2a bb
       -0.1860317 -0.017489651 0.14042242 -0.0026022447
000320 4a 68 4b 3e 34 29 7a bc 22 6a 30 be f2 87 02 3e
       0.19864002 -0.015268613 -0.17227986 0.12747172
000330 32 50 e7 3d 4f 20 97 3e 0b 5d 1e 3d e4 1c cc 3e
       0.11294593 0.29516837 0.03866295 0.39865792
000340 32 ec cc 3d 7b 1e 77 3d 79 1e 11 bc b4 73 ef bd
       0.10005988 0.060331803 -0.008857363 -0.116919905
000350 f2 7a 04 3e b8 e3 32 3c 58 be 54 bd eb d2 b6 3e
       0.12937525 0.01091855 -0.05193934 0.35707793
000360 1e 7b 37 3c b4 f8 fe bd 8a 80 de bc 74 a3 c3 3d
       0.011198787 -0.1244978 -0.027160902 0.095526606
000370 a0 fd 86 3d 39 92 56 be d0 c8 c6 bc b9 03 11 3d
       0.06591344 -0.20954217 -0.024265677 0.03540394
000380 9a 0f 9b 3c e3 5f 00 3d b4 ee 8a 3e 93 b3 c4 be
       0.018928338 0.031341445 0.2713524 -0.38418254
000390 a7 03 3b 3e d3 a5 75 be 8a fc 22 be fa 50 cf bd
       0.18263112 -0.23989038 -0.15916649 -0.10122867
0003a0 69 7a f4 3d 24 f4 02 bc 2e f3 30 3d 71 85 40 bd
       0.119374104 -0.007992778 0.043200664 -0.04700226
0003b0 5a 18 b4 3e 21 77 1e bd 81 37 11 3e ed 67 1c bc
       0.3517483 -0.03868783 0.1418133 -0.009546262
0003c0 4f 07 50 3e 9b 8b 1f 3d 88 c9 3b 3d 53 01 d1 be
       0.20315288 0.038951498 0.045846492 -0.40821323
0003d0 ac 5d 41 3e 64 2c 70 be 52 f1 11 3d 14 68 df 3d
       0.18883389 -0.23454434 0.03563053 0.10908523
0003e0 42 9d 0e 3e a7 a2 b7 bd ec 3a 09 3e a3 b5 66 3e
       0.13927177 -0.0896657 0.13401383 0.22530226
0003f0 94 40 4a 3e 1c c1 27 bd fa a1 89 bd ea 2d c3 3d
       0.19751197 -0.040955648 -0.06720348 0.09530242

network_body._body_endoder.seq_layers.0.bias f4 [128]
000000 de b3 0b 3c 01 96 e2 bc ac 8c 36 bc 96 b9 2f 3c
       0.00852677 -0.027659418 -0.011141937 0.0107253995
000010 bf 6b 07 3c dd 2f e2 3b 14 93 9b 3c ac a2 c6 3c
       0.008265435 0.0069026784 0.01899103 0.02424749
000020 4b c5 9a bb 41 be a3 3c f7 d1 85 bc 39 c7 0f 3c
       -0.004723226 0.019988181 -0.01633547 0.008775526
000030 b1 9a 46 bc 35 a8 97 3b 78 f3 a3 3c 9d 20 20 bc
       -0.012121842 0.004628206 0.020013556 -0.009773401
000040 c9 fc 86 3a ae bf 07 3d ea a3 02 3c b2 12 ab 3c
       0.0010298725 0.033141784 0.0079736505 0.020882938
000050 ea 5d 81 3b 47 86 14 bb 9a d2 99 3b bc d8 94 bb
       0.003947963 -0.0022663043 0.004694295 -0.0045424383
000060 85 72 79 3c 4d 73 11 3d fb 5f 9c 3c 77 ac 8e 3c
       0.0152250575 0.03551035 0.019088736 0.017416222
000070 58 26 09 bc 57 20 61 ba 66 55 a7 3c 60 f7 15 3d
       -0.008370958 -0.0008587888 0.020426463 0.03661287
000080 e4 03 87 bc 04 66 00 3c 53 9f c8 bb a5 f3 b2 3c
       -0.016481347 0.007836822 -0.0061225086 0.021844694
000090 30 60 b8 3b 36 4e ef 3c 54 2e 91 bc b9 2e ec 3c
       0.005626701 0.029212099 -0.017722286 0.028830873
0000a0 ed 9a 41 3d 7f ed 6c 3c 71 49 76 3c 26 5b f2 bc
       0.04726689 0.01446092 0.015032158 -0.029584479
0000b0 8b 41 cc 3c 39 c9 79 3c 6c 0c e5 3b bb af ff 3b
       0.024933597 0.015245729 0.006990006 0.007802931
0000c0 09 82 91 3c c7 62 53 3c 34 66 a3 bb 33 34 28 3d
       0.0177622 0.012901968 -0.004986549 0.041065406
0000d0 6d df d1 3b 22 04 b0 3c ad 15 6c bb 21 73 1c 3c
       0.0064048083 0.021486346 -0.0036023662 0.009548933
0000e0 4d f6 f6 3b 64 b4 9e 3c 2b ba 3b 3c 52 dd ca 3c
       0.0075366856 0.019373126 0.01145796 0.024763737
0000f0 0f df 49 3d 6f 91 91 3c b3 44 1b ba 6f 3f e4 3c
       0.04928499 0.017769543 -0.0005923018 0.027862279
000100 92 50 81 3c 23 89 94 3c c4 61 96 bb 50 79 05 3c
       0.01578549 0.018131798 -0.0045892913 0.008146599
000110 b8 c5 8d 3d e0 33 93 bc 6a ed 9d bc 61 e5 dc ba
       0.069224775 -0.017969072 -0.019278247 -0.0016853028
000120 92 14 7d bd 45 fc a7 bb 8e f6 87 3d d7 c9 20 3c
       -0.061787196 -0.0051265084 0.066388234 0.009813747
000130 e0 a8 c6 3c b8 b4 d7 3c 01 0f 9e 3c 0d a0 83 3c
       0.024250448 0.02633129 0.019294264 0.01606753
000140 46 49 25 3c 7b 0d fa 3c b6 14 ce 3b 66 1b ea ba
       0.0100882705 0.030524006 0.00628909 -0.0017860949
000150 1b 35 29 3d 91 38 89 3c 43 69 a3 bb 5c 73 c1 bb
       0.04131041 0.016750606 -0.0049869134 -0.0059036445
000160 39 27 cd bb 2a 20 d8 37 2a a0 e4 bc 18 4c 29 3c
       -0.006260779 2.5764184e-05 -0.027908403 0.010333084
000170 47 9d 72 3c 26 c7 17 3c 06 81 81 3c 32 1a 59 bb
       0.014808006 0.009263789 0.015808593 -0.0033127186
000180 4b 88 fb 3b 5a e0 07 3d 1d 06 ab 3c a9 a9 3e 3c
       0.0076761595 0.033172943 0.020876938 0.01163713
000190 a9 f3 3b 3b a2 26 07 bb cd d6 dc 3c 31 5a 92 3c
       0.0028679168 -0.0020622392 0.026957894 0.017865272
0001a0 f8 4a 6f 3c 42 76 0e b9 5e e8 9e bc 74 e7 1b 3c
       0.014605276 -0.0001358623 -0.01939791 0.009515632
0001b0 4d 72 be 3c c7 fb 23 bc 35 62 18 3d 63 57 7f 3c
       0.023247862 -0.010008759 0.037203033 0.015584799
0001c0 e5 23 e9 3c ab f2 2c 3d b1 b1 12 3c 1c e0 fe 3a
       0.028459499 0.042223614 0.008953498 0.0019445452
0001d0 3a bf be 3c fa 68 d6 3b 75 15 3e 3d 3b fd 24 bc
       0.023284543 0.006543276 0.04640718 -0.0100701405
0001e0 90 79 0d 3d 54 ae ab ba f4 37 3c bd 0f 1e 14 3c
       0.03453976 -0.0013098218 -0.0459518 0.00904037
0001f0 54 26 76 bc 38 3a 86 3b a4 e7 f8 3c 00 e2 6f 3c
       -0.015023787 0.0040962957 0.030383892 0.014641285

network_body._body_endoder.seq_layers.2.weight f4 [128, 128]
000000 a5 00 7d 3a 38 0a 44 bc cb 02 69 3d 6e d0 f3 bd
       0.000965128 -0.011965327 0.05688743 -0.11904989
000010 98 b0 ae bd 05 9d 42 3d 1c 60 78 3d 96 65 53 be
       -0.08529776 0.047513027 0.060638532 -0.2064422
000020 30 fb 0e 3e 14 79 ce 3d 76 87 c8 bc 20 6b a5 3d
       0.13963008 0.100816876 -0.024478655 0.08077073
000030 70 9a 6b 3d 1a 40 a1 bc e8 b4 15 3d 8d 81 99 3d
       0.05752033 -0.019683886 0.03654948 0.07495413
000040 39 c7 d8 bc 79 07 1f 3e 61 71 fa bd da 7d 21 3d
       -0.026462184 0.15530194 -0.122286566 0.039426662
000050 61 57 ba bd 67 fd bf bd b9 1b b6 bd 3a f5 d9 38
       -0.090986975 -0.093745045 -0.088920064 0.00010393043
000060 51 b9 01 3e 28 1e 67 bd bb d2 da 3d 03 2a 37 bd
       0.12668349 -0.056425244 0.10684725 -0.0447178
000070 6a e0 f1 3d e5 0d 74 3e 32 b0 fc 3d a3 5b bb bd
       0.11810382 0.23833425 0.12338294 -0.09148338
000080 4c ce 7a bd f8 b5 a3 3d 9f 80 f5 3d 1c 6b 3d bd
       -0.061231896 0.07993692 0.11987423 -0.046244726
000090 70 53 88 be 2a be bd bd a9 e2 3c bd 75 a8 de bc
       -0.26626158 -0.092647865 -0.046114597 -0.027179936
0000a0 9f 7e 2d be 01 61 3b bc eb aa 08 3e 41 6a 05 3d
       -0.16942833 -0.011436702 0.1334645 0.032572035
0000b0 44 2e 5e 3d 3e 87 d0 3d ca 7e b6 3c 93 db 67 3c
       0.05424334 0.101820454 0.022277255 0.014151472
0000c0 64 d4 54 bd 3a 0b e6 3d 65 8a 7e be d5 b3 9e bd
       -0.051960364 0.1123261 -0.24857481 -0.07749144
0000d0 40 8c 9f 3c d5 7b 7b 3e 90 86 a2 3d 7d 5a 7d 3d
       0.019476056 0.24558957 0.07935822 0.061853874
0000e0 e4 18 3f 3d 3f e7 60 bd 97 48 13 3b 5a 8c 32 bb
       0.046654597 -0.054908033 0.0022473687 -0.00272443
0000f0 55 0a 30 be 96 05 13 3e b6 b3 cd 3d 57 d6 a5 bc
       -0.17191441 0.143576 0.10044043 -0.020243807
000100 a4 3d 62 3b 63 59 08 bd 1b 12 69 bd 33 d2 cf 3d
       0.0034521604 -0.03328837 -0.056902032 0.10147514
000110 db 71 f9 3c 5d bd ee 3d 63 d9 eb bd 7e 89 1c be
       0.030449798 0.11657212 -0.115160726 -0.15286824
000120 ee 0f 0a 3e d6 32 50 3d 73 3d 13 bd 9a 60 36 be
       0.13482639 0.05082973 -0.035947274 -0.17810288
000130 86 31 09 bc 57 38 30 bd 3c e1 15 bc 4e e2 05 be
       -0.008373624 -0.04302248 -0.009147938 -0.1307461
000140 fd c6 bf bd 16 49 a3 3d d9 04 2b 3e ce f7 8e 3d
       -0.09364126 0.079729244 0.16701068 0.06980859
000150 6b 80 39 bd 12 f5 ee 3d 08 b0 3d bd 6d cc c7 3d
       -0.045288485 0.11667837 -0.046310455 0.09755788
000160 9c 05 db bd fc ee e1 bd 2e 49 01 3d fb 4f 2a be
       -0.10694429 -0.11031911 0.03156393 -0.16632073
000170 9d 9f 0f 3e 3a 48 ba 3d d0 ae 88 3c 31 a8 17 3e
       0.14025731 0.090958074 0.01668492 0.14810254
000180 98 5b 31 3e a5 69 3d be 85 c5 58 3d a7 74 8c bc
       0.17320096 -0.18497331 0.052922744 -0.017145468
000190 59 67 82 bc 76 a9 01 3d 89 1b 04 bd 83 66 9b bd
       -0.01591842 0.03165575 -0.032252822 -0.07587912
0001a0 ab 0f 5b bd 4a bc 13 be 46 53 0f 3c 24 a1 c8 bd
       -0.05348174 -0.14427295 0.008747881 -0.0979636
0001b0 7f 54 87 3b 5b cc 1d 3d 17 a7 87 3d 4e c2 bd 3b
       0.0041299458 0.038524967 0.06623667 0.005790985
0001c0 09 e1 3f 3e 4b c4 65 3d a0 db d7 bd 15 97 24 3e
       0.18738188 0.056095403 -0.10539937 0.16073258
0001d0 d5 4f db bc e3 05 aa 3d 37 27 5a bd 7b 01 43 3d
       -0.026771465 0.08301904 -0.053260054 0.047608834
0001e0 8e c1 a1 bb 42 5c 28 3e b5 47 cb bd 32 3c 69 3d
       -0.0049364036 0.16441444 -0.099257864 0.056942172
0001f0 f3 51 92 3d 5f 3f ef 3d f5 b5 38 bc 62 e3 93 bb
       0.07144537 0.11682009 -0.011273851 -0.00451319
000200 27 18 a0 bd e5 d5 f2 bd 3c cd 10 3d 5c 5d e1 bc
       -0.07817107 -0.118572034 0.035351977 -0.027510338
000210 13 70 04 3e 86 4a 57 3d 54 3e 42 bc a9 b4 ce 3d
       0.12933378 0.052561305 -0.0118556805 0.10093052
000220 57 5f a4 3c 12 c2 0a 3c bc e4 ce bd e2 8b a5 3c
       0.020064993 0.0084691215 -0.10102221 0.020208303
000230 b3 a1 ad 3d e0 4a 87 bd cb ce 3e 3d 35 42 16 3e
       0.08478107 -0.06606078 0.046583932 0.14673693
000240 a0 76 ff 3d dc e2 1e 3a c5 0f 9f 3a e2 3b ba 3c
       0.12473798 0.00060610264 0.0012135437 0.022733632
000250 25 01 0f bd a0 fb ef bc 2b 5f 8d 3d c4 30 2c bc
       -0.0349132 -0.029294789 0.069029175 -0.0105096735
000260 1f bb cd 3d 52 44 0a be 1f b9 ca 3d 6c 86 8e 3c
       0.10045456 -0.13502625 0.0989859 0.017398082
000270 d7 11 33 3d 22 e1 4a 3d fd 40 71 bc 6d 31 0a be
       0.043718185 0.04953111 -0.014724967 -0.13495417
000280 5d 4b c5 bb ee 17 28 3d fe 74 df 3d 99 35 93 3d
       -0.006020947 0.041038446 0.10910986 0.07187957
000290 45 53 de bc 34 56 71 3d cd 12 da 3b cd 55 24 bd
       -0.027139315 0.0589201 0.0066550733 -0.04012089
0002a0 21 69 14 be 00 66 c5 3c 37 3b 3f 3e a4 5c b6 3c
       -0.14493228 0.024096489 0.18674932 0.022260971
0002b0 2b e1 be bc 67 ca 23 be c5 1c cc bd 0d 1c 23 be
       -0.023300728 -0.15995179 -0.09966425 -0.1592867
0002c0 0c 96 40 3d 36 1a 3c bd fb b4 00 3e f5 bf fd bb
       0.047018096 -0.045923434 0.12569039 -0.0077438303
0002d0 26 c0 bb 3d 38 18 22 3c f0 71 8f 3d da 24 0c 3c
       0.09167509 0.0098934695 0.07004154 0.008553708
0002e0 ec c8 01 3c e3 6b 39 3e 35 e8 be bc 69 e4 99 bd
       0.007921439 0.18107562 -0.023304084 -0.07514269
0002f0 b7 28 03 3e 36 a2 d8 bc b6 82 83 3d e2 1b 68 bc
       0.128085 -0.026444536 0.064214155 -0.014166804
000300 0e a1 81 3d 0e 98 ab 3c bd ba de bd d0 00 51 bd
       0.06329547 0.020946529 -0.10875461 -0.051026165
000310 fa a5 07 be 31 ab 0e 3e c9 2c dc 39 5d 96 a3 bd
       -0.13246909 0.13932492 0.00041995037 -0.07987664
000320 92 c5 3a bd 34 9f 03 be 09 92 bd bd 89 db e0 bb
       -0.045598574 -0.128537 -0.092563696 -0.006862108
000330 5d b1 b0 bd db e3 73 3c 5d fb 16 3d e8 fb cb 3c
       -0.08627579 0.014885868 0.036860812 0.024900392
000340 bf 00 c0 3c 00 78 ad 3d ba 6b 82 3d d0 b9 1e 3e
       0.023437856 0.08470154 0.063682035 0.1550057
000350 fa 71 05 be 83 76 16 bd 2a 31 76 bd 4e a8 fd 3c
       -0.1303176 -0.036734115 -0.06010548 0.030964043
000360 75 f8 03 bd 31 27 ff bd 94 23 c6 3d 07 ea b2 3c
       -0.03221937 -0.12458647 0.09674755 0.021840109
000370 79 3b 81 bd c6 4a 8d 3b 95 b3 b0 bd 08 f1 d8 bc
       -0.06310172 0.004311892 -0.086280026 -0.02648212
000380 87 01 41 bc 7e 41 20 bd d1 c4 75 bd 19 48 92 bd
       -0.011780149 -0.03912496 -0.060002152 -0.07142658
000390 c9 2c 15 3c 6a f0 20 bd e3 26 58 3d ea 78 89 bd
       0.009104916 -0.039291777 0.05277146 -0.06712516
0003a0 00 e0 78 bd 5c 33 c6 3b 99 71 c2 3d a8 08 a6 bc
       -0.060760498 0.006048603 0.09494323 -0.0202678
0003b0 04 7a 00 3d 1c c5 82 3e 0d 31 9f bb 56 01 47 3d
       0.031366363 0.25541008 -0.004858142 0.04858526
0003c0 12 2e 2b be b0 b5 84 bd 3d bf 67 3d b6 71 3a bd
       -0.16716793 -0.06479967 0.056578863 -0.0455186
0003d0 50 3b b8 3d c8 f2 df 3c dc c4 e1 bc 41 bd 18 3e
       0.08995688 0.027337447 -0.02755969 0.14915945
0003e0 d4 67 8b bd 6d 84 a0 bd e9 0a a7 bd c1 eb 96 3c
       -0.06806913 -0.07837758 -0.08156378 0.018422963
0003f0 d5 f1 c4 3d 55 80 06 3d 8b c1 d5 3c 20 1d 9f ba
       0.09616438 0.03283723 0.026093265 -0.0012139417

network_body._body_endoder.seq_layers.2.bias f4 [128]
000000 4d 9b 4a 3c 9a aa 26 bb 8c 72 f3 3c d7 33 26 bc
       0.012366128 -0.0025431276 0.029717706 -0.0101441955
000010 3e 88 3f 3d 6b 64 66 3c 51 b7 d9 3a 2f eb 95 3c
       0.04676079 0.014062027 0.0016610419 0.01830062
000020 22 ff 33 3d fc aa 72 3b ae 07 1a bb a1 a2 ed 3b
       0.043944485 0.0037028184 -0.0023503113 0.007252053
000030 84 4d c8 3c e0 03 b0 3b 20 41 82 3c 0d 65 fd 3c
       0.024451025 0.0053715557 0.015900195 0.030931974
000040 0d b0 66 3c ec 0f 74 3b b7 25 0d 3b 19 ed c0 3b
       0.01408006 0.0037240935 0.0021537372 0.0058876392
000050 cc 60 64 3c 64 3a b7 3b 96 e1 6b 3b 43 e2 3d 3b
       0.013939094 0.0055916775 0.0035992614 0.0028973974
000060 de b5 c0 3c a3 6a 25 3c 82 95 97 3c f4 25 81 39
       0.023524221 0.010096225 0.018503908 0.00024633075
000070 df df 90 3a ed 6f 53 3b f9 11 8c 3c 64 8d 43 bb
       0.0011053047 0.0032262758 0.017098414 -0.0029838914
000080 b3 18 70 3a 4b 73 00 3c 87 86 b6 3c 66 59 81 3c
       0.0009158954 0.007839988 0.022280945 0.015789699
000090 3c 84 e2 3c 42 56 63 3b 71 a4 83 3c f6 ce bc 3c
       0.027650945 0.0034688865 0.016069623 0.023047905
0000a0 2c 2e 5d 3c 63 73 eb 3b 0f 27 07 bb 2a 31 ed 3b
       0.013499778 0.007185386 -0.0020622646 0.007238527
0000b0 b7 8a a8 3c ba be fb 3a 1d cf 9e 3c cf 76 17 3d
       0.020573957 0.0019206621 0.019385869 0.03697854
0000c0 ec d6 fe 3c 7d 38 8b 3c 82 57 9f 3b 0b f9 10 3d
       0.031108342 0.01699471 0.0048627267 0.035393756
0000d0 20 45 90 3b d6 c8 ee 38 12 94 c7 3c b0 1d 7d 3c
       0.0044027716 0.00011386133 0.024362598 0.015448973
0000e0 5a 2e 57 3c 58 10 3e 3c 4c b3 81 3b 6a cd 9c 3c
       0.01313361 0.011600576 0.0039581414 0.019140918
0000f0 44 92 2a bc 9c dd 26 3b c1 c7 17 bc 0b 5c 3c 3c
       -0.010410849 0.002546168 -0.009263934 0.011496554
000100 08 4b 9c 3c c6 2c 38 3c a2 f5 2a 3b 7e 02 19 3c
       0.019078746 0.011241144 0.002608635 0.009338973
000110 f3 1c 3e 3c a0 a8 e1 3b 22 ce da 3a 5f be b9 3c
       0.011603582 0.0068865567 0.0016693512 0.022673784
000120 6b 0f 83 3c ae 4c bd 3b 40 59 11 bc 22 3d 12 3c
       0.015998563 0.005776963 -0.0088713765 0.008925708
000130 00 04 34 3b 90 c3 11 b7 74 13 96 3a 1c 44 e4 3c
       0.0027468204 -8.688206e-06 0.0011449889 0.027864508
000140 c0 c6 f5 bb a3 20 50 3b e7 88 50 3c 76 2c c9 3b
       -0.0075004995 0.0031757734 0.012727953 0.0061393334
000150 dc 77 50 3c b2 a0 0b 3b 26 3f d3 3b 15 d8 00 3d
       0.012723889 0.0021305499 0.006446737 0.031456072
000160 b1 0e 69 3c b0 be 76 3c a3 00 04 3d 5f 6a cd 3b
       0.014224694 0.015060112 0.03222717 0.006268784
000170 7f ad f6 bb 88 7e a2 3c 09 87 96 3c 94 24 09 ba
       -0.0075280066 0.019835725 0.018374937 -0.0005231586
000180 74 b4 4d 3c 8b 2c 55 3c 4f b6 84 3b 10 61 49 3c
       0.01255523 0.013011108 0.004050053 0.012291208
000190 bb 47 15 3c 3f c3 0b 3c a7 fd 27 3c 4e d9 0d 3c
       0.00911134 0.008530437 0.0102533465 0.0086577665
0001a0 6d 14 de 3c d1 23 44 bb 4a 2f 87 3c 4b 60 15 3c
       0.02710935 -0.0029928575 0.016502041 0.009117196
0001b0 30 c6 cf 3b 70 53 93 bc 64 c1 5c 3c dc cd 98 3c
       0.0063407645 -0.017984122 0.013473842 0.018652849
0001c0 e1 de 92 3c f8 77 a7 3c 6b 3e 9f 3c 8a 83 e3 3b
       0.017928543 0.020442948 0.019438943 0.006943171
0001d0 d9 ab fe 3c 7b f5 03 3c 21 0e c9 3c 3e ce cb 3c
       0.031087803 0.008054133 0.02454287 0.024878617
0001e0 54 3a fa 3a 46 1e 73 bb e1 23 12 3b 18 4b 00 3c
       0.001909087 -0.0037096902 0.0022299218 0.007830404
0001f0 87 64 cf 3c c8 1c 06 ba 8c 62 01 3c 8c 3f b1 3b
       0.02531649 -0.0005115983 0.007897031 0.0054091867

action_model._continuous_distribution.log_sigma f4 [1, 2]
000000 1c f5 f1 3c 38 b6 48 ba
       0.029535823 -0.0007656547

action_model._continuous_distribution.mu.weight f4 [2, 128]
000000 2c c6 45 3d e1 92 98 bb 04 80 8a 3d f7 36 fd b8
       0.048284695 -0.004656181 0.06762698 -0.00012074218
000010 8a 1a 5e 3d d4 db b0 3c 4e eb 5b 3b ef dd 0c bd
       0.05422453 0.021589197 0.0033557 -0.03439134
000020 ca 86 bd 3c ae 22 9d 3c 69 b0 36 bd 50 82 70 bd
       0.023135561 0.019181576 -0.04460183 -0.058718026
000030 9c 79 ad 3c fb 9a 89 bd b9 47 57 3d e8 97 04 3a
       0.021176152 -0.06719013 0.052558634 0.0005058036
000040 f1 22 8c bd 3f f2 cc 3c bf b5 7b bd d4 d5 c4 3c
       -0.06842602 0.025017856 -0.061452623 0.024027742
000050 10 2c 06 3d ef ae 25 bc 36 48 2b 3d 67 4e ab bd
       0.032756865 -0.010112508 0.041816913 -0.083645634
000060 b7 b3 23 3d 61 57 c2 bd 60 35 f2 3b fe 48 19 3c
       0.03996631 -0.094893225 0.0073916167 0.009355782
000070 00 b3 fd 3c bf 28 91 bc 86 53 83 3d 2f 47 93 bd
       0.030969143 -0.017719625 0.06412415 -0.071913116
000080 c5 d1 45 bd 65 d5 25 3d e6 ae 20 3d a7 65 b5 bd
       -0.048295755 0.040486712 0.039229296 -0.08857279
000090 72 50 11 3c 57 95 ca bd 87 db 8b 3d db 17 98 bd
       0.008869277 -0.098917656 0.06828981 -0.07426425
0000a0 f4 96 95 3d 05 ea 6c bc c9 e8 05 bd e4 69 a2 bd
       0.07304183 -0.0144600915 -0.032692704 -0.07930353
0000b0 bb 33 a4 3d 8c 99 57 bd d5 4f 6d 3d 4d 71 3a 3d
       0.08017679 -0.052636668 0.057937462 0.04551821
0000c0 7f f2 07 3c 8e ba a2 3d ff 08 b5 bd fa 50 83 3d
       0.008297562 0.07945739 -0.088396065 0.064119294
0000d0 6c 28 e8 3c 24 18 2f 3c 0a a6 8c 3b 08 81 74 3d
       0.028339587 0.010686908 0.0042922543 0.059693366
0000e0 e1 f8 48 3d 88 4f 81 3d 05 62 9e bc 9a c9 a9 bc
       0.049065474 0.063139975 -0.019333849 -0.020726014
0000f0 bf 3a 58 bb 00 f9 0f 3d 60 3b 12 bd 51 03 b5 bd
       -0.0032994 0.035149574 -0.035701156 -0.08838523
000100 f1 6b 3a 3d b6 0b e2 bb 69 d0 c5 3c 83 0c ab bc
       0.045513097 -0.0068983687 0.02414723 -0.02087999
000110 d6 51 1e 3a 6b 86 83 bd 64 46 f3 bc 8f 57 30 3d
       0.0006039416 -0.064221226 -0.02969665 0.043052252
000120 55 10 63 3d 82 7c ea bc 2d 8d 00 bd 98 9a 56 bd
       0.055435497 -0.028623823 -0.031384636 -0.052393526
000130 1b 25 50 3c 02 e5 0e bd 59 10 94 bb 33 9a 64 3d
       0.012704159 -0.034886368 -0.0045185504 0.05581112
000140 60 a8 28 bd 0d 83 75 bd f3 f1 ea bc f8 3f 26 3d
       -0.0411762 -0.059939433 -0.028679824 0.04058835
000150 7b ea c9 bd 92 f1 b4 bd 1a b1 00 3d 28 4f f7 3c
       -0.09859177 -0.088351384 0.031418897 0.030189112
000160 1f 20 57 3d 37 55 27 3b f3 ec a4 3d 0e 34 02 bd
       0.052520867 0.002553297 0.08053007 -0.031787924
000170 4d 49 36 bd 2d da 5d 3d ee 07 7e 3d de 36 e7 bc
       -0.0445035 0.054163147 0.06201928 -0.028224405
000180 d3 93 d4 3c 59 6d 02 3d 26 b3 4b 3c 5a 17 3f 3d
       0.025949394 0.031842563 0.012432849 0.04665313
000190 e0 6a ad 3c 9a 04 6e bd fb e1 8a bd ab bf 67 bd
       0.021169126 -0.058109857 -0.067813836 -0.056579273
0001a0 f8 c2 c9 3d a4 8e 74 bd 1c 81 0e bd 67 27 27 3b
       0.098516405 -0.059706345 -0.034791097 0.0025505663
0001b0 81 03 e9 3c 3c e2 a9 3b e6 89 49 bc 12 79 36 3d
       0.028444054 0.00518444 -0.012300944 0.044549055
0001c0 10 d0 17 3d 4d 2a aa 3d 16 59 9d 3d 4e a8 20 3d
       0.03706366 0.083088495 0.076830074 0.039223008
0001d0 df d5 68 3d 76 5a ca 3c 9a 12 c2 3d 3b 87 8b 3c
       0.05684459 0.024701338 0.09476204 0.017032256
0001e0 2d f6 c3 bc dd 33 0f bd 07 b0 8b bd aa 85 0c bd
       -0.023921097 -0.03496157 -0.06820684 -0.03430716
0001f0 ee 88 7a 3d 95 ab c5 3c a5 3c 61 bd 4c 15 43 bb
       0.061165743 0.024129668 -0.054989476 -0.0029767333
000200 50 93 97 bd de 29 f7 bc b8 6f ef 3c eb 84 71 bc
       -0.074011445 -0.030171331 0.029228076 -0.014741163
000210 75 0c 9a 3d 2d df a4 3d 4f eb 20 3d be ec e9 3c
       0.07521907 0.0805038 0.039286908 0.02855527
000220 6d c3 48 3d 13 c0 e0 3c 65 32 f9 3b a4 99 cc bc
       0.049014498 0.027435338 0.0076048844 -0.024975605
000230 7b 9b 8f 3d f3 f3 83 bb 4b 07 04 3c 31 c8 44 bd
       0.070120774 -0.0040268837 0.008058379 -0.04804248
000240 cd ff 80 3d 66 1a 09 bd 38 dc 7c 3c b9 07 0a bd
       0.0629879 -0.03347244 0.015433364 -0.03369877
000250 39 0e 38 3d 3a ab 76 bd 43 3c bb bb 88 55 eb bc
       0.04493544 -0.060221888 -0.005713971 -0.028727308
000260 9c 0b 6c bd 32 45 d4 bb d4 14 a6 bd 92 a2 5b bd
       -0.05762826 -0.0064779753 -0.081094414 -0.053621836
000270 65 c9 7a 3c 52 c3 a4 bd b8 fa 16 3d 22 9f 3d bd
       0.015306805 -0.08045067 0.036860198 -0.04629434
000280 ec 45 ac 3b 21 98 2e bd 26 27 35 3d 22 fe b7 bc
       0.005257359 -0.04262555 0.044226788 -0.022460047
000290 c5 68 c5 bd b5 ed 42 bd 38 22 1d bd 51 df 9b 3c
       -0.09639124 -0.047589976 -0.03836271 0.019027384
0002a0 66 1d b6 bc 6e fb 87 3d 79 1c 6f bd 46 4e b8 3c
       -0.022230815 0.06639753 -0.058376763 0.022498261
0002b0 a2 fe a2 ba c8 ce 0d 3d 4c be 63 bc 33 9d 43 3d
       -0.0012435506 0.03462103 -0.013900351 0.04775734
0002c0 c3 bd c8 3d 76 ef 27 bc ec ea d3 bb a1 2a ae 3d
       0.09801819 -0.010249963 -0.006467214 0.085042246
0002d0 95 c7 41 bd 03 fd 05 3d 65 b9 67 3d 95 1e 99 bc
       -0.047309477 0.032711994 0.05657329 -0.01869134
0002e0 e5 57 40 3c a2 84 7c 3c f7 1e 47 3d d7 55 8f bd
       0.011739706 0.0154124815 0.048613515 -0.069987945
0002f0 6b ba 4e bc 8a 1c 3c 3c a5 3c ea bc 80 26 81 3d
       -0.012617688 0.011481414 -0.02859337 0.063061714
000300 e3 3b 64 3d 4f 1b 3e bd e4 e7 6a bd c5 ef 1c 3c
       0.055721175 -0.046412762 -0.057350054 0.00957865
000310 77 a6 3b bd 15 68 8b bd ab 97 37 bb c4 93 af bb
       -0.04581305 -0.068069614 -0.0028013985 -0.005358191
000320 ca 50 2e 3d c8 49 95 3a 04 d5 81 bc 8a 78 33 3d
       0.042557515 0.0011389786 -0.015848644 0.043816127
000330 6d 96 14 bd 09 86 33 3d de b4 39 3d 55 71 99 3d
       -0.03627627 0.043828998 0.045338504 0.074923195
000340 1b 04 cc bc 8d 03 0d bd e9 6e 99 3d 12 46 46 bd
       -0.024904301 -0.034427214 0.074918576 -0.048406668
000350 47 a2 ab 3c 35 e3 f9 3b d1 2b 05 3d a9 2d b7 3d
       0.020951403 0.007625962 0.03251249 0.08944256
000360 96 45 30 bc e0 a4 df 3c bf 7c 63 3c c4 23 ae ba
       -0.010758778 0.027300298 0.013884722 -0.0013285805
000370 04 03 c3 3b 2a 40 75 3d 84 60 88 3d a4 7b 42 bd
       0.005951287 0.059875645 0.06659034 -0.047481194
000380 1b e7 2a 3d f4 6e 0e bd 32 d0 f9 bc 20 b1 fe bb
       0.041724306 -0.034773782 -0.030494783 -0.00777258
000390 a1 cf f3 3c 87 a7 03 3d 1a e5 e2 3b 4d d9 61 bd
       0.029762091 0.03214219 0.0069242837 -0.055138875
0003a0 b8 db 61 3c dc 9b 0c bd 18 36 db 3c 4d 38 8b 3c
       0.013785295 -0.034328327 0.026759192 0.01699462
0003b0 b2 00 52 bd 9b e8 df ba 1d 77 92 bd ab e0 3c 3d
       -0.051270194 -0.0017082872 -0.07151625 0.046112698
0003c0 30 d2 ad 3d 91 c2 9f bb b4 cc 22 bc 47 61 40 bd
       0.08487356 -0.004875489 -0.0099365 -0.04696777
0003d0 29 ea 97 3d 32 f2 63 bd 51 02 68 bd 12 ee c7 3d
       0.074177094 -0.055650897 -0.056642834 0.09762205
0003e0 23 74 83 bd d5 f2 02 3d 26 69 d6 3c c8 67 2a 3d
       -0.06418636 0.031969864 0.026173186 0.04160288
0003f0 e6 aa 53 3d d6 e6 bb bc fb ff 46 3d 5b c4 b0 bd
       0.051676653 -0.02293722 0.048583966 -0.08631202

action_model._continuous_distribution.mu.bias f4 [2]
000000 cb 4b 3e 3c 28 bc 92 3b
       0.01161475 0.0044779964

exp_avg f4 [128, 36]
000000 ab e4 fb b6 da ec 27 38 be 8f 28 b9 ac e6 33 b9
       -7.5070034e-06 4.0036488e-05 -0.00016075277 -0.00017156702
000010 38 60 9b b8 75 8a f1 37 a0 94 a6 38 a7 43 0d b9
       -7.408898e-05 2.8793913e-05 7.9431804e-05 -0.0001347201
000020 d9 77 12 b9 a9 e1 b9 b8 be e7 4e 38 0a 86 ab b8
       -0.00013968292 -8.86352e-05 4.9330054e-05 -8.178882e-05
000030 ea 35 19 b8 1b e4 b7 b7 3d 7d 54 38 59 c7 d1 b8
       -3.6528254e-05 -2.192152e-05 5.0661376e-05 -0.00010003028
000040 ea 47 1b 38 73 81 59 36 36 c5 45 b9 0c f5 e5 b8
       3.7021855e-05 3.241087e-06 -0.00018860851 -0.000109652145
000050 35 a6 67 37 1d 19 da b6 b0 37 aa b7 64 3b ed b8
       1.3807371e-05 -6.49983e-06 -2.029151e-05 -0.00011312103
000060 98 13 b1 b9 4f e4 07 b7 ff 05 f9 38 7c e9 b9 b8
       -0.0003377467 -8.099784e-06 0.00011874362 -8.864977e-05
000070 bd 88 43 31 35 84 0c 36 fa 14 f8 b8 e2 c0 0b b9
       2.8453961e-09 2.093858e-06 -0.00011829469 -0.00013327927
000080 06 78 a4 b9 d2 c5 e7 b7 95 0f 71 39 d7 37 d1 b8
       -0.00031369942 -2.7629463e-05 0.00022989356 -9.9762976e-05
000090 3f d5 93 36 c6 a1 b3 b6 cf b5 71 b5 92 dd 2a 36
       4.4057665e-06 -5.3534486e-06 -9.004406e-07 2.5460945e-06
0000a0 4b dc 80 35 7d 5b 91 b7 a0 15 80 37 03 49 3f 37
       9.600857e-07 -1.732795e-05 1.5268859e-05 1.14014865e-05
0000b0 85 17 f9 b6 de e2 e9 b5 98 3c 13 37 eb f6 d1 b5
       -7.4235163e-06 -1.742588e-06 8.775991e-06 -1.5643576e-06
0000c0 7e 01 c5 34 8e 91 37 b7 40 fc 17 37 7a 58 ac 36
       3.6695195e-07 -1.094154e-05 9.059033e-06 5.1362995e-06
0000d0 2e 6b f4 b6 c2 ac 3d 34 d8 cb 60 37 cb a7 ed 35
       -7.284244e-06 1.7664846e-07 1.33989015e-05 1.770671e-06
0000e0 9e 21 04 b4 a1 eb 5e b3 01 79 88 b6 da 4e 2d b6
       -1.2305688e-07 -5.1902706e-08 -4.0672026e-06 -2.5824907e-06
0000f0 1f d0 75 b7 41 b0 33 35 c0 08 f0 36 c6 34 92 36
       -1.4651595e-05 6.693918e-07 7.153576e-06 4.3572827e-06
000100 84 3a f9 2e fc ef 3c b4 b4 1b 18 b6 11 03 17 b6
       1.13336035e-10 -1.759617e-07 -2.266589e-06 -2.2502538e-06
000110 e2 0f 31 b7 c7 b9 db b4 2b cd 48 37 cf 6c 3c 36
       -1.055372e-05 -4.09271e-07 1.1968698e-05 2.8077518e-06
000120 c9 8d 0a b7 c8 dd 4a b6 67 03 89 b6 86 ea 26 b7
       -8.258453e-06 -3.022944e-06 -4.0833143e-06 -9.948975e-06
000130 34 51 59 b6 49 ab 29 b7 15 7a 94 37 7f de a0 b5
       -3.2382786e-06 -1.0113065e-05 1.7699824e-05 -1.1985684e-06
000140 83 76 f4 b7 0e 11 cf b6 20 3c e1 37 1d c7 01 b7
       -2.9142253e-05 -6.171066e-06 2.6850088e-05 -7.735359e-06
000150 54 72 dc b6 cd c2 f2 b5 51 99 dd 36 15 96 01 b7
       -6.5698205e-06 -1.80871e-06 6.6041616e-06 -7.723943e-06
000160 01 7c 9e b7 71 e4 78 b6 8b 12 4b 37 92 83 f3 b6
       -1.8892812e-05 -3.708785e-06 1.210406e-05 -7.257281e-06
000170 6b d2 ad 35 0f c2 2c b3 db c0 86 b7 3c 32 83 b7
       1.2950744e-06 -4.0223366e-08 -1.606385e-05 -1.563981e-05
000180 e4 c4 0e b8 db 3f 8a 35 cc e0 b5 37 59 b8 d1 b6
       -3.4038807e-05 1.0300386e-06 2.168156e-05 -6.2501463e-06
000190 47 d9 a6 2f 36 66 6e b4 49 52 bc b7 7e 7e 85 b7
       3.034961e-10 -2.2202661e-07 -2.2449663e-05 -1.5913738e-05
0001a0 ab a9 1f b8 d1 0b 66 b6 51 a6 f5 37 a6 71 d2 b6
       -3.806657e-05 -3.4279549e-06 2.9283723e-05 -6.271718e-06
0001b0 7a 3c 94 b8 10 e5 d7 b8 c4 22 f9 39 c5 9c da 39
       -7.0684546e-05 -0.00010294665 0.00047518883 0.00041697003
0001c0 23 c5 e6 38 07 e4 65 b9 7a 48 5e 39 11 9c 09 3a
       0.00011003974 -0.00021924089 0.0002119857 0.0005249391
0001d0 c6 ca eb 38 ed 28 db 37 8c ae 92 39 fa a0 ab 39
       0.00011243443 2.6125892e-05 0.00027977338 0.00032735599
0001e0 94 5a 88 b6 ac dc 36 39 49 9d fd 37 22 63 88 39
       -4.0636605e-06 0.00017439079 3.0233192e-05 0.000260138
0001f0 af 94 e5 b8 6b 9d 21 b8 63 be 08 3a bd 09 a5 39
       -0.000109472654 -3.8531998e-05 0.0005216358 0.00031478508
000200 fb c4 5c b8 b4 d5 24 37 0c 2e e1 36 d7 01 83 39
       -5.263554e-05 9.824918e-06 6.710883e-06 0.00024987638
000210 cc 0f eb 39 19 12 32 37 94 a6 0f 38 9a b0 98 39
       0.00044834462 1.06138405e-05 3.4248995e-05 0.00029123278
000220 cc f3 a3 2f 77 8f b4 b6 d3 69 cc 38 91 e9 96 39
       2.9822755e-10 -5.3811195e-06 9.747189e-05 0.0002878425
000230 81 1f 97 37 dd 4a 07 38 2d 88 a1 39 f0 9b b2 39
       1.8015273e-05 3.225623e-05 0.00030809772 0.00034066988
000240 fd 2b 90 b7 7d 39 80 b7 a3 57 b2 37 d7 58 f9 36
       -1.7186621e-05 -1.528556e-05 2.1260063e-05 7.4311206e-06
000250 fb d3 d7 b5 69 33 96 b7 ee f0 c6 37 17 76 5e 37
       -1.6080443e-06 -1.7905333e-05 2.3715631e-05 1.3259726e-05
000260 71 41 1c b8 ba d2 cf b6 3f 10 32 38 d6 c1 17 35
       -3.7254245e-05 -6.1936125e-06 4.2453637e-05 5.653395e-07
000270 56 bc 1f b7 40 30 34 36 0c 70 9d 36 60 6b 04 b6
       -9.520989e-06 2.6850175e-06 4.6920086e-06 -1.9732033e-06
000280 df f4 d9 b7 e9 a4 4f b7 7b d9 01 38 a5 fe 22 36
       -2.5982443e-05 -1.2376558e-05 3.095854e-05 2.4288104e-06
000290 91 d9 f1 b5 32 59 e7 33 a1 1f b2 b7 05 ae 3b b7
       -1.8019219e-06 1.0773e-07 -2.1233982e-05 -1.1186586e-05
0002a0 e8 1a f0 b7 16 47 ff 35 9c 43 b3 37 5d c4 02 33
       -2.8622759e-05 1.9019669e-06 2.1369946e-05 3.0446575e-08
0002b0 22 ab 0e 2f ba 6d 44 b4 24 f1 c7 b7 b6 9e 2c b7
       1.2975623e-10 -1.8293841e-07 -2.3834938e-05 -1.0288952e-05
0002c0 e6 98 6d b8 63 c1 35 b4 9e 11 29 38 eb b0 b3 34
       -5.66476e-05 -1.6927292e-07 4.0309147e-05 3.3470073e-07
0002d0 1f 7d 92 38 93 1e fa 38 dc 1f 19 ba bc 42 0a ba
       6.985128e-05 0.00011926624 -0.0005841234 -0.00052742264
0002e0 81 d0 2c b8 0e aa 08 39 d1 ae 01 ba 04 53 27 ba
       -4.120218e-05 0.00013033321 -0.0004947009 -0.0006382915
0002f0 54 d9 95 38 72 22 02 b5 d3 68 0f ba 5c d4 df b9
       7.145354e-05 -4.84789e-07 -0.0005470637 -0.00042692095
000300 02 d7 86 37 d5 b4 70 b8 74 1a d1 b9 7f de 01 ba
       1.6074166e-05 -5.7388872e-05 -0.00039883296 -0.0004954114
000310 bd 75 c9 38 28 32 0a 38 90 71 15 ba c7 9a e1 b9
       9.606357e-05 3.2948476e-05 -0.0005700821 -0.00043030662
000320 15 0b f5 37 5b c0 a9 b6 f4 ec 18 b9 b0 cf b4 b9
       2.9211436e-05 -5.0589856e-06 -0.00014584122 -0.00034487015
000330 b7 c4 09 b9 64 ca c1 b7 5d 88 d0 b9 91 9d df b9
       -0.0001313862 -2.3101638e-05 -0.0003977445 -0.0004265127
000340 77 ea 2b b1 37 c5 f6 36 a7 b2 5c b9 f0 ba c1 b9
       -2.5017053e-09 7.35433e-06 -0.00021047388 -0.00036951108
000350 51 4d 9f 38 bc cd 06 b7 27 6e 1c ba 4f c9 eb b9
       7.596112e-05 -8.034924e-06 -0.0005967342 -0.0004497268
000360 23 51 ca b7 9d 7d a8 b7 f3 b3 39 39 65 7b 2d 39
       -2.4118059e-05 -2.0085654e-05 0.00017710011 0.00016544534
000370 54 f0 ae 34 85 44 63 b7 dc 12 53 39 df 9b 42 39
       3.2584887e-07 -1.3546208e-05 0.00020129554 0.00018559348
000380 43 63 d0 b7 6b b4 33 b7 7a c8 48 39 e6 25 1f 39
       -2.4841755e-05 -1.0711238e-05 0.0001914817 0.0001517754
000390 39 7b c1 b7 99 9d 44 38 f2 20 23 39 e0 cd 15 39
       -2.3064773e-05 4.6876816e-05 0.00015557164 0.00014286442
0003a0 88 32 9f b6 30 a9 c4 b7 e3 37 39 39 43 b8 22 39
       -4.744452e-06 -2.3443805e-05 0.00017663794 0.00015518167
0003b0 3d 62 70 b7 1f d5 49 35 9c b1 b1 38 5a 02 02 39
       -1.4327988e-05 7.5188467e-07 8.4731e-05 0.00012398642
0003c0 1f 80 05 b5 2e 9f b1 36 c1 6a 25 39 06 ba 21 39
       -4.97328e-07 5.293542e-06 0.00015775395 0.00015423456
0003d0 e9 f6 0b 30 5d 4d cd b5 70 50 a0 38 8b ac 05 39
       5.0918786e-10 -1.5296206e-06 7.644377e-05 0.00012748146
0003e0 44 05 93 b8 ea 74 79 b4 e0 92 69 39 4d 0b 27 39
       -7.010487e-05 -2.3232465e-07 0.00022275327 0.00015930571
0003f0 c4 09 9b 37 a1 b2 63 38 9f ad 6a b9 1b 0a 65 b9
       1.8481987e-05 5.428738e-05 -0.00022380658 -0.00021842906

exp_avg_sq f4 [128, 36]
000000 65 bc 5e 34 a4 55 43 34 c9 bb 9e 35 5d f1 b9 35
       2.0743899e-07 1.8191946e-07 1.182657e-06 1.385382e-06
000010 58 f2 01 34 5d 55 a6 34 32 d0 9c 35 9c 2f b1 35
       1.2102225e-07 3.098202e-07 1.1683499e-06 1.3201384e-06
000020 c0 26 9a 34 37 ba ee 33 ef 82 9c 35 8a fc bf 35
       2.871293e-07 1.1116611e-07 1.1661012e-06 1.4304107e-06
000030 47 6b a6 33 ee 50 3f 34 27 bf ae 35 93 64 c0 35
       7.749491e-08 1.7817703e-07 1.3019643e-06 1.4334386e-06
000040 81 1e 9a 34 fb 9b 47 33 69 88 a1 35 f6 e7 c6 35
       2.870693e-07 4.647516e-08 1.2035135e-06 1.4819659e-06
000050 e8 92 a5 32 b7 90 c4 31 62 10 d5 35 d3 3e db 35
       1.9275333e-08 5.720803e-09 1.5874505e-06 1.6335056e-06
000060 e8 21 61 34 b3 eb ba 32 30 2a a8 35 64 10 c8 35
       2.0967093e-07 2.1760433e-08 1.2529254e-06 1.4905931e-06
000070 ad 19 5e 32 40 86 a7 31 d2 55 d1 35 53 0b da 35
       1.2927939e-08 4.875602e-09 1.559669e-06 1.6245561e-06
000080 ee 6c e3 34 f4 79 0a 32 8f 61 88 35 70 a7 c7 35
       4.2361302e-07 8.060386e-09 1.0161183e-06 1.4875386e-06
000090 33 7c af 2f 73 8d 47 31 73 f6 db 31 66 15 eb 31
       3.1920563e-10 2.9038716e-09 6.401757e-09 6.841833e-09
0000a0 a3 5f 88 2f 2e d3 45 31 67 2c df 31 34 17 eb 31
       2.480621e-10 2.8787315e-09 6.495202e-09 6.842038e-09
0000b0 b0 0a 9d 30 4f f3 87 2f ea 0e 07 32 a8 88 15 32
       1.1426291e-09 2.4729238e-10 7.861425e-09 8.7040135e-09
0000c0 c3 70 1e 2f 2f 69 bf 30 b9 0d 0b 32 6a f2 0d 32
       1.4410077e-10 1.3926974e-09 8.093985e-09 8.262399e-09
0000d0 84 ff d6 30 43 a3 16 2f e9 7d dc 31 e0 7b 0e 32
       1.5643171e-09 1.3700423e-10 6.417157e-09 8.293654e-09
0000e0 60 33 2e 2e 54 9a 69 2e 54 43 22 32 54 8c 23 32
       3.960865e-11 5.3115137e-11 9.44495e-09 9.519756e-09
0000f0 5f bf 16 31 a7 89 51 2f fc bc 8a 31 c7 53 ff 31
       2.1936655e-09 1.9057343e-10 4.0378136e-09 7.431001e-09
000100 9f f4 39 2e 55 11 52 2e dd a6 20 32 88 9a 23 32
       4.2281397e-11 4.7763866e-11 9.351166e-09 9.522985e-09
000110 45 59 f7 30 08 6d 8e 2e fd 72 98 31 eb 22 fc 31
       1.7996987e-09 6.47678e-11 4.436855e-09 7.338135e-09
000120 59 b3 36 32 d5 f6 98 32 be 6e dc 32 e4 eb 14 33
       1.0634573e-08 1.7807375e-08 2.566173e-08 3.4673477e-08
000130 1a 6e 21 32 d7 11 4d 32 ea 23 12 33 af 18 35 33
       9.396468e-09 1.1936627e-08 3.4025938e-08 4.2164796e-08
000140 89 45 a5 32 dd 4f b9 31 08 98 fc 32 09 56 3c 33
       1.9240149e-08 5.393288e-09 2.9405797e-08 4.385041e-08
000150 ef 60 03 32 6b ff c1 31 6c a3 33 33 23 d1 51 33
       7.647244e-09 5.646077e-09 4.1825317e-08 4.8851813e-08
000160 8d 5f a3 32 1f 0f e0 30 5d 59 0e 33 58 11 4b 33
       1.9019149e-08 1.6302443e-09 3.3143227e-08 4.7280395e-08
000170 92 9b 01 31 69 c1 b3 2f ea e6 6a 33 e3 df 71 33
       1.8860402e-09 3.2697337e-10 5.4692386e-08 5.631581e-08
000180 7c 61 95 32 28 c5 31 30 14 b4 19 33 fb c8 50 33
       1.7390214e-08 6.46724e-10 3.578687e-08 4.8611565e-08
000190 8d e4 5b 2f 62 fd 6a 2f 90 85 6e 33 98 3d 73 33
       1.9999132e-10 2.1372196e-10 5.5535168e-08 5.6633866e-08
0001a0 7d 88 9b 32 ca be c9 2f 20 68 13 33 8b 3a 57 33
       1.8106443e-08 3.669725e-10 3.4320806e-08 5.0111833e-08
0001b0 53 c9 ca 34 c9 2c 12 34 bb 46 3e 35 80 4c 82 35
       3.7771915e-07 1.3613602e-07 7.088344e-07 9.708019e-07
0001c0 31 aa 8a 34 f0 50 4a 34 7b c2 47 35 cf 5c 7e 35
       2.5828334e-07 1.8842161e-07 7.4416283e-07 9.475743e-07
0001d0 2b 74 08 35 0b b2 72 33 ff c1 1d 35 05 23 82 35
       5.0832995e-07 5.6506945e-08 5.876936e-07 9.695947e-07
0001e0 19 c5 45 34 8f fd 75 34 03 bc 50 35 6b af 7e 35
       1.8418758e-07 2.2909647e-07 7.775963e-07 9.487764e-07
0001f0 e1 6a 0d 35 67 e4 e4 32 ef ff 28 35 da f8 8b 35
       5.268212e-07 2.6646559e-08 6.295731e-07 1.0428732e-06
000200 45 15 cc 33 6d d9 a3 32 ae ba 8c 35 72 a8 9d 35
       9.503359e-08 1.9074571e-08 1.0485144e-06 1.1746436e-06
000210 ba 85 99 34 5f 70 4b 32 bc b5 6a 35 ac 6c 93 35
       2.859577e-07 1.1841705e-08 8.743625e-07 1.0983981e-06
000220 af 25 0c 32 1e 85 63 32 b1 b5 9b 35 8d 38 a4 35
       8.157641e-09 1.3243406e-08 1.1601279e-06 1.2235411e-06
000230 2a d8 b6 34 36 7e 10 32 2d 2d 4c 35 ce e9 98 35
       3.4057422e-07 8.4106e-09 7.606166e-07 1.1392929e-06
000240 c6 77 44 33 99 da 56 32 03 66 ae 32 fd 4a 31 33
       4.574374e-08 1.2506143e-08 2.0302656e-08 4.1279225e-08
000250 ec 06 07 33 9f d0 a2 32 63 6e de 32 94 56 37 33
       3.1438432e-08 1.8954152e-08 2.58944e-08 4.268675e-08
000260 51 44 57 33 e6 31 ce 31 2a d8 98 32 11 90 2d 33
       5.0120722e-08 6.001062e-09 1.7793429e-08 4.041073e-08
000270 db 39 e3 32 76 0a 69 32 d8 62 1b 33 bc e6 5e 33
       2.6452588e-08 1.35647635e-08 3.6178648e-08 5.1898255e-08
000280 3e e1 60 33 52 ae 53 31 bc 81 a1 32 cf 79 47 33
       5.235892e-08 3.080363e-09 1.8801863e-08 4.6444082e-08
000290 2c b0 1b 32 7c b5 a7 30 d1 70 8f 33 c7 81 9f 33
       9.062244e-09 1.220243e-09 6.6794776e-08 7.427621e-08
0002a0 ee b1 48 33 29 37 b1 30 70 5e e1 32 fc c3 5e 33
       4.6727955e-08 1.2894122e-09 2.6236393e-08 5.186665e-08
0002b0 ae 2e 0c 30 a3 50 25 30 e3 5c a4 33 53 97 a8 33
       5.099804e-10 6.014124e-10 7.653741e-08 7.850635e-08
0002c0 17 42 24 33 53 82 0f 30 2e 5c 11 33 5c f0 83 33
       3.8244334e-08 5.22083e-10 3.384428e-08 6.143884e-08
0002d0 5c 12 a7 34 97 9f 91 34 ff a2 d2 35 fa 6e fc 35
       3.1119532e-07 2.7124472e-07 1.5693657e-06 1.8807762e-06
0002e0 5a 17 3e 34 00 f7 07 35 46 db bb 35 f9 6f e6 35
       1.7703624e-07 5.065085e-07 1.3996403e-06 1.7168924e-06
0002f0 3d 2d d7 34 60 40 ec 33 d8 fd d2 35 17 94 02 36
       4.0079786e-07 1.1001316e-07 1.5720098e-06 1.945771e-06
000300 b7 04 ef 33 f4 35 fc 34 12 52 d1 35 f3 cd f0 35
       1.11301624e-07 4.6977914e-07 1.5595599e-06 1.7941333e-06
000310 ae 78 c2 34 8f e8 43 33 ce 07 e3 35 c0 f1 07 36
       3.6223122e-07 4.5613486e-08 1.6915089e-06 2.0257285e-06
000320 fd 31 3d 33 41 12 b4 32 e3 f0 08 36 e9 8b 11 36
       4.4050456e-08 2.0963059e-08 2.0405794e-06 2.1688122e-06
000330 71 1a b9 34 65 8c 8e 32 6e 0b dd 35 53 c1 09 36
       3.4478174e-07 1.659482e-08 1.646911e-06 2.052712e-06
000340 2a 16 32 32 94 3b 3a 32 76 50 0d 36 55 7d 13 36
       1.0366003e-08 1.0840171e-08 2.1057472e-06 2.197766e-06
000350 08 8f 0d 35 d0 22 f6 31 0c 9a c8 35 0e 4c 09 36
       5.273473e-07 7.1635e-09 1.4945995e-06 2.045886e-06
000360 56 b3 fb 33 e8 47 42 33 02 c9 66 34 91 9d 97 34
       1.1720719e-07 4.5234543e-08 2.1493545e-07 2.8240586e-07
000370 19 47 d2 33 f2 38 25 33 cb d7 7a 34 e1 bb 9e 34
       9.7918196e-08 3.8468848e-08 2.336157e-07 2.9566493e-07
000380 84 6a 03 34 ad b8 19 33 e5 6a 64 34 70 b1 99 34
       1.2239076e-07 3.579105e-08 2.1273043e-07 2.8627574e-07
000390 c7 8f ae 33 97 8a 1f 33 72 1f 87 34 4b d8 a5 34
       8.128659e-08 3.714612e-08 2.516859e-07 3.089102e-07
0003a0 2f f4 0a 34 2a d9 b2 32 6b b3 72 34 dd 83 a5 34
       1.2941085e-07 2.0820682e-08 2.2603278e-07 3.0829588e-07
0003b0 5e f3 20 33 ea 2a a4 30 4d 1e b8 34 5c cf ca 34
       3.7474244e-08 1.1944767e-09 3.4294717e-07 3.7776306e-07
0003c0 c8 bc 04 34 36 f6 23 32 e6 29 7d 34 ae c6 ac 34
       1.2362136e-07 9.543831e-09 2.3577704e-07 3.2182055e-07
0003d0 c1 cb c0 31 a0 a0 4a 30 88 0c c9 34 06 22 d2 34
       5.6110996e-09 7.3715434e-10 3.7448285e-07 3.9140303e-07
0003e0 00 86 13 34 8a 5d 56 31 a9 f0 70 34 26 f4 b7 34
       1.3739191e-07 3.119427e-09 2.2439293e-07 3.4264048e-07
0003f0 ce 1b 91 34 bf a1 7a 34 76 dc d1 35 5b 51 f8 35
       2.7028585e-07 2.3341907e-07 1.5635876e-06 1.8501117e-06

exp_avg f4 [128]
000000 34 25 18 b9 8e 67 21 b6 bf ce 80 b7 45 64 ac 39
       -0.00014509709 -2.4051146e-06 -1.5355063e-05 0.00032881103
000010 7a 49 0c b7 74 c5 d3 b9 46 76 0e 39 ed 3c 21 b9
       -8.361758e-06 -0.0004039217 0.00013586236 -0.00015376853
000020 88 5a c2 b8 1e da 15 b9 d3 b2 69 b6 1d 19 da 37
       -9.2675036e-05 -0.00014291002 -3.4823795e-06 2.599932e-05
000030 0d b5 f4 b7 27 9d 51 39 f7 e8 10 39 12 97 34 38
       -2.9171375e-05 0.00019990337 0.00013819696 4.305604e-05
000040 ba 40 37 b8 d4 3c 42 ba f7 fc da 38 75 99 fb b8
       -4.369088e-05 -0.0007409577 0.000104421684 -0.00011997196
000050 54 bd 4f b9 92 89 d8 36 80 7b aa 39 dc 03 35 38
       -0.00019811589 6.453317e-06 0.0003251694 4.3157357e-05
000060 f7 df 22 39 ad ec 5e b9 32 8e 8a b9 d2 1b f6 b9
       0.00015532957 -0.00021259738 -0.00026427355 -0.00046941504
000070 6d 0f e4 37 64 86 66 39 49 cb d6 b9 07 04 c1 35
       2.7186901e-05 0.00021984574 -0.0004096872 1.4380793e-06
000080 40 06 45 38 85 8d 96 b9 62 67 1b 38 78 3c 14 3a
       4.697428e-05 -0.0002871567 3.7051163e-05 0.00056547625
000090 03 7c cd 39 76 cf 2d ba 52 8a 80 39 4e 44 0c 38
       0.00039193043 -0.00066303404 0.0002451712 3.3442215e-05
0000a0 04 53 4f 39 55 a7 cb b8 5a 6e 89 37 d9 7e ce 37
       0.00019771984 -9.710962e-05 1.638306e-05 2.4616182e-05
0000b0 84 33 a3 39 7d 4e df 37 c7 99 88 b9 ac b7 82 39
       0.00031128165 2.662022e-05 -0.00026054514 0.00024932378
0000c0 d2 77 b2 39 b7 f9 26 b8 60 4d 57 38 1a 20 fa b9
       0.0003404008 -3.981005e-05 5.1332056e-05 -0.00047707633
0000d0 60 61 9c 39 2d a3 24 b9 47 fa 37 38 11 7f 6f b7
       0.0002982719 -0.00015701047 4.386369e-05 -1.4275095e-05
0000e0 36 f0 fc b5 25 1e 1f b9 4c 29 43 38 00 03 27 b9
       -1.8845374e-06 -0.00015174651 4.6530084e-05 -0.00015927479
0000f0 ae 42 e9 38 75 1d 9c b9 b2 fa f3 39 41 c3 17 b8
       0.00011122726 -0.00029776586 0.00046535354 -3.618305e-05
000100 a0 c2 24 b8 3c db 1b 38 73 6c c6 39 30 0f 42 b7
       -3.9281906e-05 3.7159058e-05 0.00037846304 -1.1566837e-05
000110 06 6b 92 b8 21 da 82 b7 46 29 d5 35 a4 e2 23 39
       -6.981757e-05 -1.5598782e-05 1.5881749e-06 0.00015629322
000120 ba fe 26 b7 9d 3e 70 b6 07 c3 77 b8 d9 ee 39 3a
       -9.953679e-06 -3.5799233e-06 -5.9071022e-05 0.0007092781
000130 d6 e5 3c b9 a8 b3 2a 39 63 a8 53 b8 dc a3 89 39
       -0.00018014698 0.0001627939 -5.0463143e-05 0.0002625276
000140 3c c4 34 3a fd 9d 3f b9 a0 82 47 37 39 a4 f4 b7
       0.0006895696 -0.00018274035 1.1891738e-05 -2.9163539e-05
000150 d0 1d 81 39 17 7e 92 b9 5a 58 fe 39 04 92 20 39
       0.0002462701 -0.00027941234 0.00048512482 0.00015313184
000160 cd d6 c8 b8 7e 7f 47 b8 eb b8 ad b5 5c 1c 8c 39
       -9.576753e-05 -4.7564034e-05 -1.2943323e-06 0.0002672401
000170 81 d0 a0 b9 51 ac 8a 38 5c 28 91 b8 36 6e 0f b8
       -0.00030672926 6.612449e-05 -6.921656e-05 -3.41965e-05
000180 59 1e 43 38 73 df 9f 38 d8 69 b7 38 7f 84 f8 b8
       4.6519886e-05 7.6233315e-05 8.745835e-05 -0.00011850241
000190 b3 b7 21 39 82 9f 0f 39 98 ab f4 b8 b6 4a d8 38
       0.0001542259 0.00013696964 -0.000116667885 0.000103135986
0001a0 b2 7d 8e b9 ed 63 5e 39 6a 4c d3 b7 9b 0c a6 b9
       -0.00027178 0.00021208795 -2.5188743e-05 -0.0003167138
0001b0 0a 87 81 b5 80 fc 30 38 db bf 83 b9 cb 2b b1 39
       -9.65055e-07 4.219683e-05 -0.0002512921 0.000337927
0001c0 0d 55 91 b9 4c 6b 52 b9 6a d8 96 39 f5 02 1a b9
       -0.00027719923 -0.00020067132 0.0002877147 -0.00014687686
0001d0 cf e2 c2 39 c7 10 ea b9 ad b9 7f 39 1d 41 14 b9
       0.0003717155 -0.00044644458 0.00024387865 -0.00014138636
0001e0 5c 6d 5a b8 37 38 19 39 d0 22 ac b6 e0 e1 3b 39
       -5.20771e-05 0.00014612159 -5.130052e-06 0.00017917855
0001f0 12 4e d0 38 98 e7 1d b9 58 7e 37 b9 e9 b7 98 39
       9.9327546e-05 -0.00015058962 -0.00017499307 0.00029128723
