results/car4/CarFindGoal/CarFindGoal-3876026.pt (torch, 530875 bytes, 36 tensors)

network_body._body_endoder.seq_layers.0.weight f4 [128, 36]
0	0xbd857304	-0.06516078
1	0x3c484850	0.012224272
2	0x3b51533f	0.0031940488
3	0xbd5d4f0a	-0.054030456
4	0xbcc989ab	-0.024601778
5	0x3d560989	0.052255187
6	0x3dcff315	0.10153786
7	0xbe46f16d	-0.19428034
8	0xbee47764	-0.44622338
9	0x3e4af549	0.19820131
10	0xbdbb1bba	-0.09136148
11	0x3d2d50c2	0.042313345
12	0x3e50bf8a	0.20385566
13	0xbdff7f33	-0.12475433
14	0x3dc2a236	0.095035955
15	0x3f06cfa8	0.5266061
16	0xbc480e40	-0.012210429
17	0x3d264692	0.040594645
18	0xbe2ed8a1	-0.17074825
19	0x3e273005	0.16326912
20	0xbe3cd30f	-0.18439887
21	0xbc37ddce	-0.011222316
22	0x3e9ff1e7	0.31239244
23	0xbab97bcc	-0.0014151274
24	0xbd96463e	-0.073376164
25	0x3e3ce47d	0.18446536
26	0x3cb0e737	0.021594627
27	0xbdb71807	-0.0894013
28	0x3ef09d1d	0.46994868
29	0xbbf57630	-0.0074908957
30	0x3dad32c5	0.08456949
31	0xbda48244	-0.08032659
32	0x3e5443d7	0.20729004
33	0x3d3d6a28	0.046243817
34	0x3ccfd294	0.025368966
35	0x3e4b25da	0.19838658
36	0xbe6c1aeb	-0.23057143
37	0x3e7a98ff	0.24472426
38	0x3e85d75a	0.26140863
39	0xbe80c293	-0.25148448
40	0xbe692b9f	-0.22770546
41	0xbeb189dc	-0.3467549
42	0x3cced6b6	0.025248867
43	0xbeafdffd	-0.34350577
44	0x3b2923c3	0.002580867
45	0xbd5f1a0a	-0.054468192
46	0x3cf65992	0.030072007
47	0x3e68d6c5	0.22738178
48	0xbddfd2d6	-0.10928886
49	0xbe8f2b8f	-0.2796292
50	0x3e971602	0.29508978
51	0xbe64d08d	-0.22345181
52	0xbd31db58	-0.043422073
53	0xbe0b828f	-0.13624023
54	0x3d8b31fb	0.067966424
55	0xbe64a0ff	-0.2232704
56	0x3cfcb198	0.030846402
57	0xbe800dc3	-0.250105
58	0xbb68cf7d	-0.0035524063
59	0xbd8dae96	-0.06918065
60	0x3c5b535a	0.013386572
61	0x3dd880f2	0.10571469
62	0xbee1692a	-0.44025546
63	0xbd837642	-0.0641904
64	0x3daf86e2	0.08570649
65	0xbd3ebbe5	-0.04656591
66	0x3d2d55a6	0.04231801
67	0xbe2e031f	-0.16993378
68	0xbe9cbb53	-0.30611667
69	0xbe3ac95b	-0.18240874
70	0xbe582dd4	-0.21111232
71	0xbe019762	-0.12655404
72	0xbe0b269f	-0.13588952
73	0x3cc19e5e	0.023635086
74	0xbd949508	-0.07254988
75	0xbe6fa8af	-0.23404191
76	0x3e10c246	0.1413661
77	0xbe05c713	-0.13064222
78	0xbcd58c13	-0.02606777
79	0x3d2f4a07	0.042795207
80	0x3e0e00de	0.13867518
81	0xbc922c1b	-0.017843297
82	0xbd9bb287	-0.07602411
83	0x3d1fe932	0.03904075
84	0x3e158d94	0.14604789
85	0xbe3bad92	-0.1832793
86	0xbe52ac41	-0.20573522
87	0xbbb3bb56	-0.0054849787
88	0xbe30d3cb	-0.17268293
89	0xbde7e4d5	-0.11322943
90	0xbdb92ee6	-0.09042148
91	0xba28e1a1	-0.0006442313
92	0x3d89aa4d	0.067219354
93	0x3da5a66c	0.08088383
94	0x3dba130a	0.09085663
95	0x3e618165	0.22022016
96	0x3dc1ef77	0.094695024
97	0x3e052949	0.1300403
98	0xbd5aadf5	-0.053388555
99	0xbd4c79f4	-0.04992099
100	0x3c5bf6a3	0.013425502
101	0xbd8290bf	-0.063752644
102	0x3e43965c	0.19100326
103	0xbb2679ee	-0.0025402266
104	0xbdacd603	-0.08439257
105	0x3dae2866	0.08503799
106	0x3d1bab94	0.038005427
107	0x3dbca638	0.09211391
108	0x3d5f242d	0.05447786
109	0xbddcb0e2	-0.10775925
110	0x3e2282a9	0.15870155
111	0xbe94cc4c	-0.29062116
112	0x3dbb5b96	0.09148328
113	0xbe2fef0f	-0.17181037
114	0xbae45f8c	-0.0017423495
115	0x3a8039d5	0.000978286
116	0x3dfb1b37	0.1226105
117	0x3dbdb15c	0.09262344
118	0xbdbc3cc5	-0.09191278
119	0x3ed00565	0.40629116
120	0xbc9d7ec3	-0.019225484
121	0x3e2efca3	0.17088561
122	0xbd6b186c	-0.057396337
123	0x3e69d8ff	0.22836684
124	0x3ed30b56	0.41219586
125	0xbe2ed327	-0.17072736
126	0xbe801109	-0.25012997
127	0xbce6916c	-0.028145514
128	0x3eda508c	0.42639577
129	0x3db7de78	0.089779794
130	0xbe3b64f3	-0.18300228
131	0xbe8efb7b	-0.2792624
132	0xbe9b6d4f	-0.30356833
133	0x3bc54427	0.0060200873
134	0x3df14614	0.117809445
135	0x3e8850b0	0.2662406
136	0x3d9c8e99	0.07644386
137	0xbc8c205b	-0.017105272
138	0x3c857af1	0.016293975
139	0xbe09f376	-0.13471779
140	0xbde81a3d	-0.113331296
141	0x3d97e74a	0.07417162
142	0xbcdcbeb6	-0.026946407
143	0x3e594387	0.21217166
144	0x3d984535	0.07435075
145	0xbe8ba50d	-0.2727436
146	0xbdb6c6ac	-0.089246124
147	0xbedba333	-0.4289795
148	0x3e3ef7ed	0.18649264
149	0xbd651dcf	-0.05593663
150	0x3ddf52ee	0.109044895
151	0x3d61f8ef	0.055169042
152	0x3df216ae	0.11820732
153	0x3e2b9850	0.16757321
154	0x3db3690a	0.08760269
155	0xbe57e43e	-0.21083161
156	0x3e7eebf0	0.2489469
157	0xbe1cb4d1	-0.15303351
158	0xbdcaf4b9	-0.099099584
159	0x3b137a5f	0.0022503359
160	0x3e24cd78	0.16094005
161	0xbcf51ed6	-0.02992193
162	0xbe6e61d6	-0.23279509
163	0xbdf06134	-0.1173729
164	0xbe560bcb	-0.20902936
165	0xbda8e4a0	-0.08246732
166	0x3c8099b4	0.015698291
167	0x3d41199b	0.04714356
168	0x3cb8af37	0.022544486
169	0x3d8c6f39	0.068571515
170	0xbe2d3dff	-0.16918181
171	0x3e183770	0.14864898
172	0xbd3bd198	-0.04585418
173	0xbe43b7ed	-0.19113131
174	0x3e6cb337	0.2311524
175	0xbe392e89	-0.18084158
176	0x3e1d9c50	0.1539166
177	0xbd2297f7	-0.039695706
178	0x3e2bc797	0.16775356
179	0x3ca2c98f	0.019871501
180	0x3dc2588f	0.094895475
181	0xbcbec4a4	-0.023287125
182	0x3d5c1d42	0.05373884
183	0xbe346d86	-0.17619905
184	0xbe52e424	-0.20594841
185	0x3e57e0a2	0.21081784
186	0xbe8a3305	-0.2699205
187	0x3c77e7d3	0.015130955
188	0xbc843b49	-0.01614155
189	0x3dc430b1	0.095796
190	0x3d87a41b	0.066230975
191	0xbcd6d2f1	-0.026223632
192	0xbea460e6	-0.32105178
193	0x3e97baab	0.29634604
194	0xbd9870d0	-0.07443392
195	0x3e271b25	0.16318949
196	0xbe3818bc	-0.17978185
197	0xbc229c5f	-0.009924977
198	0x3e078da5	0.13237627
199	0xbb497f88	-0.003074618
200	0x3e4bc84b	0.19900624
201	0xbcf29bbd	-0.029615277
202	0xbe334b18	-0.17509115
203	0x3e02c06f	0.1276872
204	0x3e073926	0.13205394
205	0x3e9db109	0.3079913
206	0x3ce706bf	0.028201459
207	0x3ecb8822	0.397523
208	0x3d8d454d	0.06897984
209	0x3d7bb8b4	0.061455444
210	0xbc492425	-0.012276684
211	0xbdf37d31	-0.11889113
212	0x3e045f24	0.12926918
213	0x3baa9e3b	0.005206851
214	0xbd3c71b3	-0.04600687
215	0x3eb73f76	0.35790604
216	0x3cb11c0f	0.021619825
217	0xbe22229b	-0.15833513
218	0xbc0e7b62	-0.008696409
219	0x3dc66c9f	0.096886866
220	0x3dc4ff84	0.09619048
221	0xbe661095	-0.22467263
222	0xbcb277fd	-0.02178573
223	0x3d1c5c57	0.038174
224	0x3cf9a325	0.030473301
225	0xbbf8f4e9	-0.007597555
226	0x3e930ab4	0.28719103
227	0xbebffebc	-0.37499034
228	0x3e6d6465	0.23182829
229	0xbe7554dc	-0.23958153
230	0xbe2d67b9	-0.16934098
231	0xbdadeb92	-0.08492197
232	0x3e17a2e8	0.14808238
233	0x3a8e28d1	0.0010845904
234	0x3d2181db	0.03943048
235	0xbd3a141a	-0.045429327
236	0x3eb88989	0.3604243
237	0xbd2c978c	-0.042136714
238	0x3e1e9926	0.15488109
239	0xbabfdafa	-0.0014637404
240	0x3e697a94	0.22800666
241	0x3c65a0fe	0.014015434
242	0x3d5479fa	0.05187414
243	0xbecb9671	-0.39763215
244	0x3e692340	0.22767353
245	0xbe832670	-0.25615263
246	0x3d453b76	0.04815241
247	0x3df0eb0b	0.11763581
248	0x3e320cd3	0.17387705
249	0xbdc9795f	-0.09837603
250	0x3e02719d	0.12738653
251	0x3e6fbc30	0.23411632
252	0x3e425e32	0.18981245
253	0x3c961ce5	0.018324325
254	0xbdb4cdb8	-0.088283
255	0x3dbcc1b5	0.09216634

network_body._body_endoder.seq_layers.0.bias f4 [128]
0	0x3c14c905	0.00908113
1	0xbd61a091	-0.05508477
2	0xbc3e1d27	-0.01160363
3	0x3c9d57fb	0.019206991
4	0x3c9523ee	0.01820561
5	0x3bb8f0f3	0.0056439578
6	0x3cdd3762	0.027003948
7	0x3cca6a5d	0.024708921
8	0xbb2f1f71	-0.0026721621
9	0x3cb10427	0.021608425
10	0xbd4f40a1	-0.050598744
11	0x3b18e776	0.002333132
12	0xbc40503e	-0.011737881
13	0x3c14fa52	0.009092884
14	0x3c48c681	0.012254358
15	0xbcaea342	-0.021318082
16	0x3c399afc	0.011328455
17	0x3d0bd7cd	0.03414135
18	0x3b98a5a1	0.0046584164
19	0x3c930f91	0.017951759
20	0x3bf28b75	0.0074018785
21	0x3c164ae7	0.009173132
22	0x3bbcfe47	0.005767617
23	0x3b94060d	0.004517323
24	0x3c361a1c	0.011114623
25	0x3d0512e8	0.032488734
26	0x3cb0c6c3	0.021579152
27	0x3c3bff43	0.011474433
28	0xbb7e0bcf	-0.0038764363
29	0xbbcd03bf	-0.00625655
30	0x3c88c500	0.0166955
31	0x3c888306	0.01666404
32	0xbcbc7d40	-0.023008943
33	0x3bd060ff	0.006359219
34	0x3b3c3399	0.0028717278
35	0x3cec5ab4	0.028851844
36	0x3c18dd4b	0.009330104
37	0x3d0f9997	0.035058584
38	0xbc73cab6	-0.014879873
39	0x3d0b166e	0.033956937
40	0x3d3f12c1	0.046648744
41	0x3c975e01	0.018477442
42	0x3c243185	0.010021572
43	0xbc71db58	-0.014761768
44	0x3cb614e1	0.022226753
45	0x3bdd462d	0.0067527504
46	0x3bcc361c	0.0062320363
47	0x3c7e289a	0.01551261
48	0x3c8c9b4c	0.017163895
49	0x3b4d5c99	0.003133571
50	0xbae02c7a	-0.0017103099
51	0x3d2fb34d	0.042895604
52	0x3bc55fb2	0.0060233707
53	0x3cfa5049	0.030555861
54	0xbc2421f5	-0.010017862
55	0x3bb70170	0.005584888
56	0x3bac96c1	0.0052669947
57	0x3ca208d6	0.019779604
58	0x3bbf02f5	0.00582921
59	0x3ca5e61d	0.020251328
60	0x3d6c99bf	0.05776381
61	0x3ca13b32	0.019681547
62	0xbba38962	-0.0049907425
63	0x3cc9cbce	0.024633314
64	0x3cc3b2dd	0.023889
65	0x3cc1b194	0.023644246
66	0xbbaf8c30	-0.005357288
67	0x3d03acd6	0.03214725
68	0x3d7ea034	0.0621645
69	0xbab45119	-0.0013757079
70	0xbb5d3311	-0.0033752362
71	0xbc263046	-0.010143345
72	0xbd508b0b	-0.05091385
73	0xbca2b392	-0.019861016
74	0x3d8c8e3e	0.06863068
75	0x3c90f8fd	0.017696852
76	0x3cad73a3	0.021173304
77	0x3cbb6458	0.022874996
78	0x3c9dbde9	0.019255595
79	0x3c946ee5	0.018119285
80	0x3c691d4e	0.014228178
81	0x3cef0ea9	0.029181795
82	0xbb615293	-0.0034381493
83	0xbbb8bea5	-0.005637961
84	0x3d1147cc	0.03546886
85	0x3c74bab0	0.014937088
86	0xbb3b509e	-0.0028581987
87	0xbc44da8a	-0.012014994
88	0xbc35de3f	-0.011100351
89	0xbb9516f5	-0.004549856
90	0xbd852cec	-0.06502709
91	0x3b5c7db1	0.0033644254
92	0x3c18bd3e	0.009322463
93	0x3c16c856	0.009203037
94	0x3c67c47c	0.014145967
95	0xbc2bc0d9	-0.01048299
96	0x3b7660f4	0.003759441
97	0x3d1027ca	0.035194196
98	0x3cd0e5b2	0.025500152
99	0x3c768ea4	0.015048657
100	0xbab36265	-0.001368594
101	0xbc06e978	-0.008234374
102	0x3cc3eb52	0.02391592
103	0x3c87c7de	0.016574796
104	0x3c841943	0.016125327
105	0x3b6306da	0.0034641535
106	0x3c039cd8	0.008033
107	0x3c4e5a59	0.012594783
108	0x3d303188	0.043015987
109	0xbca90024	-0.02062995
110	0x3d006fb7	0.03135654
111	0x3cb912ce	0.022591975
112	0x3ce59be9	0.028028445
113	0x3d413784	0.047172084
114	0x3c9a663a	0.018847574
115	0xbb872335	-0.00412407
116	0x3cd25a6e	0.025677886
117	0x3bf57704	0.0074909944
118	0x3d273abe	0.040827505
119	0xbc8c2c9b	-0.017111113
120	0x3d2236bc	0.03960298
121	0x3bba6ad8	0.0056890063
122	0xbd766f72	-0.060164876
123	0x3c8746be	0.016513225
124	0xbca98043	-0.020691043
125	0xbaf6e06f	-0.0018835197
126	0x3d15acfa	0.036541916
127	0x3c5d9154	0.013523418

network_body._body_endoder.seq_layers.2.weight f4 [128, 128]
0	0x3bc4a9b1	0.006001674
1	0xbc4ffe1c	-0.012694862
2	0x3d4d3d26	0.050107144
3	0xbe081192	-0.13287953
4	0xbda080ef	-0.07837092
5	0x3d6fc88e	0.058540873
6	0x3dd0357a	0.1016645
7	0xbe5150b3	-0.2044094
8	0x3e232890	0.15933442
9	0x3dd1eb84	0.10249999
10	0xbc7f71a7	-0.015591062
11	0x3dae2a7e	0.085041985
12	0x3d1f3c33	0.03887577
13	0xbcd67075	-0.02617667
14	0x3c041fd6	0.008064231
15	0x3d991d21	0.07476259
16	0x3cc9682f	0.024585811
17	0x3e0fa6d0	0.14028478
18	0xbdf90c93	-0.121606015
19	0x3d6392d4	0.055559948
20	0xbdbeba13	-0.093128346
21	0xbd96b148	-0.073580325
22	0xbdadbd0f	-0.08483326
23	0x3bf6a283	0.007526697
24	0x3e0165cb	0.12636487
25	0xbd70e02a	-0.05880753
26	0x3dee3242	0.1163068
27	0xbd3c129c	-0.045916185
28	0x3dcc7700	0.09983635
29	0x3e7288be	0.23684976
30	0x3df839e5	0.121204175
31	0xbdbac270	-0.09119117
32	0xbd32b40e	-0.043628745
33	0x3d8b4d0d	0.06801806
34	0x3df9e6c2	0.12202217
35	0xbdab1380	-0.08353329
36	0xbe868629	-0.2627423
37	0xbdcd0776	-0.10011189
38	0xbd4e69f4	-0.050394014
39	0xbd367c6a	-0.044552244
40	0xbe24cac6	-0.16092977
41	0x3ca7bfee	0.020477261
42	0x3e059307	0.13044368
43	0x3d0c9dc4	0.034330145
44	0x3d2d8b7a	0.042369343
45	0x3e12021a	0.14258614
46	0x3d2d0a88	0.04224637
47	0x3b8e84af	0.004349313
48	0xbd3e5567	-0.046468165
49	0x3da2c7d5	0.07948271
50	0xbe817cf2	-0.25290638
51	0xbd971734	-0.073774725
52	0x3c8a8a83	0.01691175
53	0x3e900cfa	0.281349
54	0x3daa9c78	0.08330625
55	0x3da628f0	0.08113277
56	0x3d4002bc	0.046877608
57	0xbd2f90da	-0.04286275
58	0xbcd7d0d6	-0.026344698
59	0xbc95184e	-0.018200066
60	0xbe4913a8	-0.19636405
61	0x3e2106b2	0.1572521
62	0x3db5b6d2	0.08872761
63	0xbcefd9f7	-0.029278738
64	0x3cc83868	0.02444096
65	0xbba20755	-0.0049447217
66	0xbcc866b6	-0.024463039
67	0x3df284c8	0.11841732
68	0x3cb51cd8	0.02210848
69	0x3df5a5af	0.11994492
70	0xbde29871	-0.11064232
71	0xbe117de2	-0.14208177
72	0x3e0bfb55	0.13670094
73	0x3d602508	0.054722816
74	0xbd591a26	-0.053003453
75	0xbe339770	-0.17538238
76	0xbaa294fd	-0.0012404021
77	0xbcf07ede	-0.02935737
78	0xbb9e5892	-0.0048323357
79	0xbe11b1fe	-0.14228055
80	0xbdadad25	-0.0848029
81	0x3d9897b3	0.07450809
82	0x3e1d958b	0.15389077
83	0x3d9c7124	0.07638767
84	0xbcbf1226	-0.023324084
85	0x3dd9b411	0.10630048
86	0xbd2257d5	-0.039634544
87	0x3de96f34	0.113981634
88	0xbdc67f55	-0.096922554
89	0xbdf0d93b	-0.117601834
90	0x3d0ddcba	0.03463433
91	0xbe0d04bd	-0.13771339
92	0x3e0d7393	0.1381362
93	0x3dbe4647	0.09290748
94	0x3c2fe5b9	0.0107359225
95	0x3e1754c0	0.14778423
96	0x3e374ee8	0.17901194
97	0xbe341dc9	-0.17589487
98	0x3d118b21	0.035533074
99	0xbc0537fe	-0.008131025
100	0xbc7972d8	-0.015225135
101	0x3d209212	0.039201804
102	0xbc72e530	-0.01482515
103	0xbdae0147	-0.084963374
104	0xbd833cf1	-0.06408108
105	0xbe5e8c59	-0.21733226
106	0x3b582ba4	0.0032984996
107	0xbdb6a931	-0.089189894
108	0xbbeb3db5	-0.007178987
109	0x3cf56335	0.029954532
110	0x3d9ae163	0.0756252
111	0xbb0d3cc0	-0.0021551102
112	0x3e3d1fb4	0.18469125
113	0x3d0b5796	0.034019075
114	0xbde11d6e	-0.109919414
115	0x3e1fb596	0.15596613
116	0xbc5a8877	-0.0133382
117	0x3dbfcbfa	0.09365077
118	0xbdc05a05	-0.0939217
119	0x3d72900c	0.059219405
120	0x3c165dbc	0.009177621
121	0x3e16d5e9	0.14730038
122	0xbdc6ffc2	-0.09716751
123	0x3d6780af	0.056519207
124	0x3dabd8cb	0.08390959
125	0x3de3106a	0.11087115
126	0xbd17e8ad	-0.03708713
127	0x3a25b717	0.0006321533
128	0xbda75198	-0.0816986
129	0xbde3e5be	-0.11127804
130	0x3d3f71ad	0.04673927
131	0xbd24a221	-0.04019368
132	0x3e1c87b8	0.15286148
133	0x3d53e9e3	0.051736724
134	0x3cea993c	0.028637521
135	0x3dbb68bb	0.09150835
136	0x3d3ab396	0.045581423
137	0xbb00092e	-0.0019536722
138	0xbdb31575	-0.08744327
139	0x3cc03ffe	0.023468014
140	0x3d8c3de5	0.06847743
141	0xbd993b3e	-0.07482003
142	0x3cb8954a	0.022532124
143	0x3e125010	0.14288354
144	0x3e22da5b	0.15903609
145	0xbd0c0ea5	-0.034193654
146	0x3cc03b86	0.023465883
147	0x3d272627	0.04080787
148	0xbd5b02e9	-0.053469572
149	0xbc55a0cc	-0.013038825
150	0x3d57cefd	0.052687634
151	0x3b5e113f	0.0033884791
152	0x3dbd3d6f	0.09240233
153	0xbe017387	-0.12641726
154	0x3dcc0cf3	0.09963407
155	0x3c6617c0	0.014043748
156	0x3d2581db	0.040407043
157	0x3d28fdae	0.041257553
158	0xbcb48280	-0.022034883
159	0xbe05e207	-0.13074504
160	0x3caab92f	0.020840256
161	0x3c99a933	0.018757438
162	0x3dd9f48a	0.10642345
163	0x3d66a276	0.05630728
164	0xbc9530a7	-0.018211676
165	0x3ceb83ae	0.028749313
166	0x3c9904ac	0.018678986
167	0xbd83a957	-0.064287834
168	0xbe14afa1	-0.14520122
169	0x3d528f23	0.051406037
170	0x3e3330f4	0.17499143
171	0x3d083f5c	0.03326355
172	0xbd09cf01	-0.03364468
173	0xbdfbf8cf	-0.12303316
174	0xbdc58167	-0.09643822
175	0xbe1e03e9	-0.15431179
176	0x3d841b93	0.06450572
177	0xbd8fa78a	-0.070143774
178	0x3dccc70a	0.09998901
179	0xbc9f8c90	-0.019476205
180	0x3dadc450	0.08484709
181	0x3ce44c58	0.027868435
182	0x3db3e159	0.08783216
183	0x3cfcb245	0.030846724
184	0x3b06884b	0.0020528014
185	0x3e2ddc8a	0.1697866
186	0xbd06183a	-0.032737948
187	0xbdd8b851	-0.105820306
188	0x3dcf6b86	0.1012793
189	0xbcd45bfc	-0.025922768
190	0x3d40db43	0.047084104
191	0xbca35c4f	-0.019941477
192	0x3dbd7142	0.09250118
193	0x3d399895	0.04531153
194	0xbda72ae0	-0.08162475
195	0xbcf7eead	-0.030265177
196	0xbdf44731	-0.11927641
197	0x3e196959	0.14981593
198	0x3c658e63	0.014010998
199	0xbda0df80	-0.07855129
200	0xbd23d16c	-0.039994642
201	0xbdf09d79	-0.117487855
202	0xbdbbe5c6	-0.09174685
203	0x3bcfc869	0.0063410294
204	0xbdb20b5e	-0.08693574
205	0x3c852b51	0.016256006
206	0x3d1d7430	0.038440883
207	0x3cb53ae5	0.02212281
208	0x3d0a191a	0.033715345
209	0x3d88d31a	0.066808894
210	0x3d497290	0.04918152
211	0x3e1eff1d	0.15527005
212	0xbdc8be45	-0.09801916
213	0xbd795296	-0.060869776
214	0xbd63aa19	-0.05558214
215	0x3d21de63	0.039518725
216	0xbcfff6eb	-0.03124567
217	0xbe1269d1	-0.14298178
218	0x3dd8f175	0.10592929
219	0x3d0fe9a3	0.035134923
220	0xbd9c91fd	-0.076450326
221	0x3ca154e3	0.019693797
222	0xbdc4f00a	-0.09616096
223	0xbd03ba9d	-0.03216039
224	0x3a9e07ad	0.0012056731
225	0xbd2220a5	-0.039581914
226	0xbd95d583	-0.07316115
227	0xbd8e1199	-0.0693695
228	0xbb061bb6	-0.0020463294
229	0xbd3e90d0	-0.046524823
230	0x3d7ceb00	0.06174755
231	0xbd5def5e	-0.054183356
232	0xbdad1304	-0.084508926
233	0xbd2bbf19	-0.04193029
234	0x3dc453af	0.09586274
235	0xbcfe4406	-0.031038295
236	0x3cba971c	0.022777133
237	0x3e7415bd	0.23836417
238	0x3bdb095e	0.0066844663
239	0x3d3d81be	0.04626631
240	0xbe34e256	-0.17664465
241	0xbdc56385	-0.096381225
242	0x3d6142d4	0.054995373
243	0xbd712de7	-0.058881667
244	0x3ddcb7a7	0.107772164
245	0x3d01145d	0.03151356
246	0xbd83ed20	-0.064417124
247	0x3e1a59a6	0.1507326
248	0xbd3af433	-0.045643043
249	0xbdd342f2	-0.10315503
250	0xbd94f8ac	-0.07273993
251	0x3d09f2f9	0.033678982
252	0x3dc86a8f	0.097859494
253	0x3cd9f6de	0.026606973
254	0xbbe0bdd8	-0.0068585686
255	0xbc02dd4f	-0.007987334

network_body._body_endoder.seq_layers.2.bias f4 [128]
0	0x3c1536e2	0.009107323
1	0xbc35166a	-0.011052707
2	0x3d14b793	0.036307883
3	0xbc557fb8	-0.013030939
4	0x3d3d1065	0.046158213
5	0x3c78d0d1	0.015186504
6	0xbabc938b	-0.0014387233
7	0x3cb6bfd7	0.022308273
8	0x3d48fc96	0.04906901
9	0x3bb12eb8	0.0054071806
10	0x39d8278e	0.000412282
11	0x3c2d1250	0.010563448
12	0x3ca6217b	0.020279637
13	0x3c8f89b0	0.01752171
14	0x3c7afdf6	0.015319338
15	0x3cc65875	0.024212101
16	0x3ca3920a	0.019967098
17	0xbad05968	-0.0015895786
18	0x3c232f48	0.009960003
19	0x3baaf8ca	0.0052176462
20	0x3c42261e	0.011849908
21	0x3b515d2e	0.0031946409
22	0x3b673d77	0.0035284439
23	0x3bd02d2b	0.0063530407
24	0x3cb4c121	0.022064747
25	0x3c871900	0.016491413
26	0x3c6a46a0	0.014299065
27	0xbbbaba95	-0.005698512
28	0x3bb4bf83	0.005515994
29	0xbadfac92	-0.001706498
30	0x3cad99fd	0.021191591
31	0xbb814da9	-0.0039460254
32	0x3bf59bb4	0.007495368
33	0x3bb00b25	0.0053724223
34	0x3cc64093	0.024200713
35	0x3cbcd06a	0.023048598
36	0x3cb01c6d	0.02149793
37	0x3c09483a	0.008379037
38	0x3c897ad4	0.016782202
39	0x3d025a70	0.03182453
40	0x3c75f8cc	0.015012931
41	0x3b45b81a	0.0030169548
42	0xbc041a30	-0.008062884
43	0x3c57f2de	0.013180463
44	0x3cc4c63a	0.024020303
45	0x3c04a3d9	0.008095705
46	0x3ca5bba6	0.02023108
47	0x3d2360ba	0.039887168
48	0x3cc33e92	0.023833547
49	0x3c9ce090	0.019150048
50	0x3c5df91e	0.013548164
51	0x3d1e1015	0.038589556
52	0x3b1320bf	0.0022449938
53	0x3ae0e6f8	0.0017158678
54	0x3c9dfc9d	0.019285494
55	0x3c824caa	0.015905697
56	0x3c80bde3	0.015715545
57	0x3c8f2b2f	0.017476646
58	0x3bf92925	0.0076037818
59	0x3c51c4f7	0.012803308
60	0xbc37b9db	-0.011213745
61	0x3c019134	0.007908154
62	0xbc40fc8b	-0.011778961
63	0x3c87a31f	0.016557274
64	0x3cb21225	0.021737168
65	0x3b8824f8	0.0041547976
66	0xb8661831	-5.4858803e-05
67	0x3ca1ccce	0.019750979
68	0x3bd42616	0.0064742668
69	0x3b913f0d	0.004432565
70	0x3c02da86	0.00798667
71	0x3cd9d93e	0.026592847
72	0x3cae06ce	0.02124348
73	0x3c7765f7	0.015099994
74	0xbc57e1f7	-0.013176433
75	0x3c825c23	0.015913075
76	0xbb8077f6	-0.0039205505
77	0x3bde8f47	0.0067919823
78	0x3b64afcc	0.0034894822
79	0x3cf0e7f0	0.029407471
80	0xbacd7866	-0.001567614
81	0x3b8ee990	0.004361339
82	0x3c586441	0.013207496
83	0xba62c142	-0.00086500135
84	0x3c8ff10b	0.017570993
85	0x3beb17b7	0.007174458
86	0x3c154bc1	0.009112299
87	0x3cee4401	0.029085161
88	0x3c79a23d	0.0152364345
89	0x3c9584e1	0.018251838
90	0x3d10eee0	0.03538406
91	0x3c64909d	0.013950494
92	0xbbc78b69	-0.006089617
93	0x3c96de20	0.018416464
94	0x3cc0e918	0.023548648
95	0xbb457dad	-0.0030134723
96	0x3c65c09b	0.0140229715
97	0x3c2e84e2	0.010651799
98	0xbb04fb81	-0.002029151
99	0x3c6ea885	0.014566545
100	0x3c442b07	0.011973149
101	0x3c47e4e0	0.012200564
102	0x3c9ae9bc	0.018910281
103	0x3bb52297	0.005527805
104	0x3cff26e5	0.031146476
105	0xbb624f8c	-0.0034532277
106	0x3c86cd4c	0.016455315
107	0x3c4762dd	0.012169567
108	0x3a593e9a	0.00082872214
109	0xbcb8fb99	-0.022580909
110	0x3bfc6893	0.007702896
111	0x3ca83d9c	0.02053719
112	0x3c6f49e8	0.014605023
113	0x3cc2d99a	0.023785401
114	0x3cb1eb6c	0.021718703
115	0x3a8b4b4a	0.0010627296
116	0x3d00e273	0.03146596
117	0x3b743f73	0.0037269264
118	0x3cdb26a5	0.026751826
119	0x3ccdb087	0.025108589
120	0x3bbb2d03	0.005712153
121	0x3b1fd2eb	0.0024387192
122	0x3b4a2995	0.0030847539
123	0x3c45d5fe	0.0120749455
124	0x3cff2605	0.031146059
125	0xbbe0328f	-0.0068419646
126	0x3c4271d8	0.011867963
127	0xbb80b540	-0.0039278567

action_model._continuous_distribution.log_sigma f4 [1, 2]
0	0x3be45282	0.0069678435
1	0xbd56fa26	-0.052484654

action_model._continuous_distribution.mu.weight f4 [2, 128]
0	0x3d6042be	0.05475115
1	0x3bf475cc	0.0074603315
2	0x3db27c3e	0.087151036
3	0x3bdfc16c	0.0068284776
4	0x3d6a2e2a	0.05717293
5	0x3ccddeef	0.025130717
6	0xbbe63b5d	-0.0070261196
7	0xbd4d5a18	-0.05013475
8	0x3d083f56	0.033263527
9	0x3d03a560	0.032140136
10	0xbd3702e9	-0.04468051
11	0xbd84552c	-0.06461558
12	0x3c780008	0.015136726
13	0xbdd62c07	-0.10457616
14	0x3d6f8877	0.058479752
15	0x3c549ea1	0.012977273
16	0xbdb80913	-0.08986106
17	0x3d10d3a0	0.03535807
18	0xbda61279	-0.08108992
19	0x3ce81f31	0.028335186
20	0x3d1497ec	0.036277696
21	0xbc00bb72	-0.00785719
22	0x3d507cc7	0.050900247
23	0xbdcaf983	-0.09910872
24	0x3d560b82	0.05225707
25	0xbde67c6c	-0.112542
26	0x3c6107cf	0.013734772
27	0x3c7c3017	0.015392325
28	0x3d3a7988	0.045526057
29	0xbce2a3d1	-0.027666004
30	0x3d9d211d	0.076723315
31	0xbda82589	-0.08210284
32	0xbd80ebc9	-0.062949724
33	0x3d518f9f	0.05116236
34	0x3d5729c4	0.052530065
35	0xbde2bb50	-0.11070883
36	0x3c7f96ec	0.015599947
37	0xbdf5856d	-0.119883396
38	0x3daab45a	0.083351806
39	0xbdcba8f5	-0.09944335
40	0x3dac7889	0.08421428
41	0xbc7df15c	-0.015499439
42	0xbd085d63	-0.033292186
43	0xbdc95cd0	-0.09832156
44	0x3dc0154f	0.09379064
45	0xbd8d084c	-0.06886348
46	0x3d8f7d5b	0.070063315
47	0x3d356613	0.0442868
48	0x3bd0a2d8	0.0063670687
49	0x3db6acd8	0.08919686
50	0xbdf2552d	-0.11832652
51	0x3d96510f	0.073396794
52	0x3d19db22	0.037562497
53	0x3c4c5b5b	0.012472953
54	0x3aae43e5	0.0013295381
55	0x3d8f6510	0.07001698
56	0x3d83a69c	0.064282626
57	0x3dae2e37	0.085049085
58	0xbcf49eba	-0.029860843
59	0xbca34cd2	-0.019934092
60	0xbb951db7	-0.0045506614
61	0x3d7f49f5	0.06232639
62	0xbd38f4f2	-0.045155473
63	0xbde6f8a7	-0.112778954
64	0x3d570176	0.052491628
65	0xbbf61424	-0.007509725
66	0x3cf72cbd	0.0301727
67	0xbd15a541	-0.03653455
68	0x3bb64018	0.00556184
69	0xbd87d75d	-0.06632874
70	0xbd182299	-0.03714237
71	0x3d8c0d9f	0.068385355
72	0x3d88569e	0.06657146
73	0xbd70c6a7	-0.0587832
74	0xbd292ce2	-0.04130257
75	0xbd90e2f3	-0.07074537
76	0x3c71b03a	0.014751488
77	0xbd4ef8ad	-0.050530124
78	0xbb7b2b37	-0.0038325319
79	0x3d8269a1	0.06367803
80	0xbd447200	-0.04796028
81	0xbd8fbcbe	-0.070184216
82	0xbd16603d	-0.036712874
83	0x3d484dbe	0.048902266
84	0xbddc7bd3	-0.10765805
85	0xbdd5fe5b	-0.10448905
86	0x3d0cb14e	0.03434878
87	0x3cb432cb	0.021996876
88	0x3d827c23	0.063713335
89	0x39d2c39f	0.0004020007
90	0x3dbbb2ef	0.09164988
91	0xbd3d7c06	-0.046260856
92	0xbd5ec262	-0.054384597
93	0x3d4d7189	0.050157104
94	0x3d82846b	0.06372913
95	0xbd2965f9	-0.041357014
96	0x3ce4cff1	0.027931185
97	0x3d3193d1	0.04335386
98	0x3c5f3ed4	0.013625819
99	0x3d8589d2	0.06520428
100	0x3d0a042f	0.033695396
101	0xbd926a98	-0.071492374
102	0xbdaa2b13	-0.08308997
103	0xbd789f98	-0.060699075
104	0x3ddf951c	0.10917112
105	0xbd927208	-0.07150656
106	0xbd23cf5a	-0.039992668
107	0x38a09d5a	7.6587035e-05
108	0x3d095471	0.033527795
109	0x3b123e4e	0.0022314969
110	0xbb951edd	-0.0045507983
111	0x3d44eb6d	0.048076082
112	0x3d035645	0.032064695
113	0x3dc5eed3	0.09664693
114	0x3db387b7	0.0876612
115	0x3d57f78e	0.05272632
116	0x3d83fcb5	0.064446844
117	0x3d0d7423	0.034534585
118	0x3de3edb1	0.111293204
119	0x3c5de308	0.013542898
120	0xbcd47c2f	-0.025938122
121	0xbd74f1f3	-0.059801053
122	0xbd8bf82b	-0.06834444
123	0xbd56418f	-0.052308615
124	0x3d92dab8	0.071706235
125	0x3cf77397	0.030206485
126	0xbd8dc027	-0.06921416
127	0x3b39a49a	0.002832687
128	0xbd8b19cd	-0.067920305
129	0xbcb4859a	-0.022036362
130	0x3cfbd7b8	0.030742511
131	0xbd2c1254	-0.042009667
132	0x3d8ff67b	0.07029434
133	0x3d9a4334	0.07532349
134	0x3cc9743d	0.02459156
135	0x3cb4dcb6	0.0220779
136	0x3d5acebb	0.05341981
137	0x3cf3c198	0.029755399
138	0xb856db9c	-5.1226103e-05
139	0xbd38f171	-0.04515213
140	0x3d74baa6	0.059748314
141	0xbd283d93	-0.041074347
142	0x3c55aaf1	0.013041244
143	0xbd3738e8	-0.044732004
144	0x3d674657	0.056463566
145	0xbcb597b9	-0.022167074
146	0x3c1083dd	0.008820501
147	0xbcdff971	-0.027340623
148	0x3d107f69	0.035277758
149	0xbd8a49e4	-0.06752375
150	0xbb4896fe	-0.0030607576
151	0xbce3a7d3	-0.027789986
152	0xbd510aad	-0.05103557
153	0xbc2b7f0c	-0.010467302
154	0xbda026a3	-0.07819869
155	0xbd484d27	-0.048901703
156	0x3ccbf6c5	0.024897942
157	0xbd98e864	-0.074662
158	0x3d26e2c8	0.04074362
159	0xbd2cc4c7	-0.04217985
160	0xbc6d928c	-0.0145002715
161	0xbd1a2b6d	-0.03763907
162	0x3d093d9e	0.03350603
163	0xbcec2538	-0.028826341
164	0xbdb7ce63	-0.08974912
165	0xbd6b9745	-0.05751731
166	0xbd02ca3b	-0.031931143
167	0x3c256697	0.01009526
168	0xbc4a1734	-0.012334634
169	0x3d5329d9	0.05155358
170	0xbd4f94cc	-0.050679013
171	0x3c217712	0.009855049
172	0x3b945e51	0.004527845
173	0x3d3b8930	0.04578513
174	0xbc3ebe39	-0.011642032
175	0x3d46269d	0.04837667
176	0x3db1fb84	0.08690551
177	0xbb40ec2f	-0.0029437651
178	0xbc0c327e	-0.00855696
179	0x3dab3f08	0.08361632
180	0xbd54583a	-0.051841952
181	0x3d221723	0.039572846
182	0x3d4c5b9f	0.049892064
183	0xbc4b8e40	-0.012424052
184	0x3bfcf21f	0.007719293
185	0x3cd6b714	0.026210345
186	0x3d53df91	0.05172688
187	0xbd724f92	-0.059157915
188	0xbc4e2e8a	-0.012584338
189	0xbc897d73	-0.016783452
190	0xbcd044ec	-0.02542349
191	0x3d4a2a64	0.049356833
192	0x3d5c5bf3	0.053798627
193	0xbd2b5a69	-0.04183427
194	0xbd7b6904	-0.061379448
195	0x3cea88ee	0.028629746
196	0xbd42dd56	-0.047574364
197	0xbd88d39e	-0.06680988
198	0xbc413296	-0.011791846
199	0x3c00cd5c	0.0078614615
200	0x3d68551e	0.0567218
201	0xbc281a3c	-0.010260161
202	0xbc011bc6	-0.007880157
203	0x3d4ce5c7	0.05002382
204	0xbd129244	-0.03578402
205	0x3d5d1398	0.053973764
206	0x3d5fadd3	0.05460913
207	0x3d90d81a	0.07072468
208	0xbd00948a	-0.031391658
209	0xbd2dddeb	-0.042447966
210	0x3d95e958	0.073198974
211	0xbce27b9b	-0.02764683
212	0x3cb0b541	0.021570804
213	0x3c67f725	0.014158045
214	0x3d271ff7	0.04080197
215	0x3dae5e1d	0.085140444
216	0xbbe65ac8	-0.007029865
217	0x3cacffa2	0.021117989
218	0x3c3698be	0.011144815
219	0xbc078a75	-0.008272757
220	0x3c664c1f	0.014056235
221	0x3d5a3efd	0.053282727
222	0x3d98e087	0.074647
223	0xbd51bbf0	-0.05120462
224	0x3d29ceb5	0.041456897
225	0xbcc9d2e4	-0.024636693
226	0xbd06117d	-0.032731522
227	0x3b7d6b77	0.003866879
228	0x3cf7592a	0.030193884
229	0x3ceeb2f8	0.029138073
230	0xbb797999	-0.0038066863
231	0xbd52aca3	-0.05143417
232	0x3c89c67e	0.016818281
233	0xbd156843	-0.036476385
234	0x3adbc3c5	0.0016766718
235	0x3bf591a7	0.0074941698
236	0xbd327b31	-0.043574516
237	0xbbc39b0d	-0.005969411
238	0xbd8e937f	-0.069617264
239	0x3d2c96f7	0.04213616
240	0x3d9b41e9	0.07580931
241	0x3bfce439	0.007717636
242	0x3b4f78ea	0.0031657764
243	0xbce759bd	-0.028241033
244	0x3d8c9501	0.06864358
245	0xbd519451	-0.051166836
246	0xbd46b775	-0.048514802
247	0x3dc6408e	0.096802816
248	0xbdbc50ae	-0.09195076
249	0x3d0911b0	0.033464134
250	0x3c044c17	0.008074782
251	0x3ce575e6	0.02801032
252	0x3d655595	0.05598982
253	0xbc1b7de1	-0.009490461
254	0x3d431afe	0.047633164
255	0xbd8c8ead	-0.06863151

action_model._continuous_distribution.mu.bias f4 [2]
0	0x3c428adf	0.01187393
1	0x3c0d4fa6	0.008624947

exp_avg f4 [128, 36]
0	0x3753e959	1.26309105e-05
1	0xb94b3801	-0.00019380452
2	0x39522f62	0.00020044812
3	0x397863b8	0.00023688271
4	0xb76b55a8	-1.4027035e-05
5	0xb7ae6a19	-2.0791822e-05
6	0xb6e53588	-6.8309637e-06
7	0x385315a8	5.032649e-05
8	0x38a0706d	7.6503355e-05
9	0xb91f8796	-0.00015213931
10	0x390bbf5a	0.00013327357
11	0x39368327	0.0001740573
12	0x3605650e	1.9877366e-06
13	0xb87c5f80	-6.0170423e-05
14	0xb754ac48	-1.2676297e-05
15	0x379da13d	1.879094e-05
16	0x38024c7c	3.1065647e-05
17	0xb952deda	-0.0002011018
18	0x38e4fe21	0.000109192224
19	0x392905ed	0.00016119303
20	0xb607ae24	-2.021793e-06
21	0xb5b2f93b	-1.3334569e-06
22	0xb81ff397	-3.8135415e-05
23	0xb7bfc594	-2.2860979e-05
24	0xb77ac6df	-1.49474645e-05
25	0xb8c68699	-9.4664465e-05
26	0xb66d03f9	-3.5318064e-06
27	0x386d02f7	5.6507964e-05
28	0xb8508123	-4.9711332e-05
29	0x35a252b2	1.2094008e-06
30	0x3689a36d	4.1019434e-06
31	0xb7ab1e96	-2.0399031e-05
32	0x388f5ffd	6.8366506e-05
33	0xb8d01105	-9.921383e-05
34	0xb9476e4f	-0.00019019212
35	0x37a450f0	1.9588013e-05
36	0xb36a6b49	-5.4579946e-08
37	0xb80827a1	-3.2461834e-05
38	0x37d2571d	2.5074516e-05
39	0x37c356ae	2.3286175e-05
40	0x35116b89	5.4173194e-07
41	0x35a159cb	1.2021568e-06
42	0xb6d03f4c	-6.206252e-06
43	0xb6d5d8b7	-6.3731236e-06
44	0xb5283d93	-6.267448e-07
45	0xb8027c0d	-3.1109947e-05
46	0x37ba5aac	2.221515e-05
47	0x37b7a316	2.1891243e-05
48	0x33811558	6.010913e-08
49	0x363283fc	2.6600892e-06
50	0xb6ef00eb	-7.122862e-06
51	0xb6fba7f4	-7.4999352e-06
52	0xb3c42c04	-9.1349676e-08
53	0xb7ec7f6a	-2.8192724e-05
54	0x373a6edf	1.1112278e-05
55	0x378f2adb	1.7066885e-05
56	0x3436e145	1.7032023e-07
57	0x32d0519c	2.4251499e-08
58	0xb6974382	-4.5080096e-06
59	0xb6c782d3	-5.945892e-06
60	0x34c16cad	3.6028123e-07
61	0xb7ae3e59	-2.077145e-05
62	0x364895bb	2.9889477e-06
63	0x37058168	7.9575475e-06
64	0x34218fc3	1.5046594e-07
65	0x32b67081	2.123875e-08
66	0xb6bf64f3	-5.7039956e-06
67	0xb6c8dc8f	-5.986141e-06
68	0xb59ab358	-1.152609e-06
69	0xb7b08187	-2.104115e-05
70	0x3672f20e	3.6201704e-06
71	0x36f4f9ca	7.300846e-06
72	0xb6afc2e7	-5.238096e-06
73	0xb841ef47	-4.623763e-05
74	0x38dd4dd0	0.00010552595
75	0x38e2970e	0.00010804656
76	0xb6904ec9	-4.300706e-06
77	0x348071fb	2.392479e-07
78	0x384d04a2	4.8880123e-05
79	0x3863c02e	5.43e-05
80	0xb5625f8b	-8.4330594e-07
81	0xb765a50c	-1.3687892e-05
82	0x389f86c4	7.606813e-05
83	0x38ae79a1	8.319622e-05
84	0x35a1adbf	1.2046002e-06
85	0xb7ed363c	-2.8277856e-05
86	0x38a3a9d8	7.8040815e-05
87	0x389f265e	7.588857e-05
88	0xb69def0d	-4.706794e-06
89	0x377d80d9	1.5109975e-05
90	0x380252c7	3.1071508e-05
91	0x382c19c9	4.103201e-05
92	0x35d0ba25	1.5551383e-06
93	0xb5b3a8ea	-1.33857e-06
94	0x38534b43	5.0376413e-05
95	0x3882af9f	6.231595e-05
96	0x361b2b1e	2.3121897e-06
97	0x3813c628	3.523208e-05
98	0x370e797c	8.492145e-06
99	0x37ad736d	2.0676956e-05
100	0x359d5899	1.1723197e-06
101	0xb41dc1c3	-1.4692255e-07
102	0x3868a319	5.5465007e-05
103	0x3886621a	6.407891e-05
104	0x36a8e55c	5.033491e-06
105	0x381f0435	3.7912472e-05
106	0x36a5331c	4.923333e-06
107	0x3787f9c3	1.6209558e-05
108	0xb853c11c	-5.0486167e-05
109	0xb789ece8	-1.644199e-05
110	0x38b72bcc	8.734278e-05
111	0x389110db	6.9172784e-05
112	0xb6b71bba	-5.457053e-06
113	0xb7a84a78	-2.0061838e-05
114	0x384918ca	4.794522e-05
115	0x36c11319	5.7540715e-06
116	0xb8ecbffe	-0.00011289118
117	0x374f723d	1.236476e-05
118	0x390dfcd2	0.00013540991
119	0x38b2409b	8.499735e-05
120	0xb55b6667	-8.173287e-07
121	0xb8e4e48e	-0.00010914459
122	0x394c5599	0.00019486844
123	0x391a13be	0.00014693939
124	0xb833209c	-4.2707296e-05
125	0x38a5d999	7.908344e-05
126	0x3701c38d	7.734529e-06
127	0x364da7bb	3.0645012e-06
128	0x375140e1	1.2472477e-05
129	0xb6d9ef05	-6.4949295e-06
130	0x381f47fb	3.797559e-05
131	0x38cd51fe	9.790434e-05
132	0x37ba1188	2.2181091e-05
133	0x38ea91e7	0.00011185166
134	0xb821647e	-3.8478982e-05
135	0xb8073353	-3.2234308e-05
136	0x3837703c	4.3735126e-05
137	0xb6339931	-2.6762248e-06
138	0x38103b3f	3.4387453e-05
139	0x38d533aa	0.00010166255
140	0xb7142d37	-8.832015e-06
141	0x39055f4a	0.00012719366
142	0x388f6eae	6.839387e-05
143	0xb7dfb642	-2.6668542e-05
144	0xb7370f90	-1.0911273e-05
145	0xb8f5570f	-0.00011698726
146	0x390f56d1	0.00013669884
147	0x39120261	0.00013924531
148	0xb7341065	-1.0732653e-05
149	0x368b840a	4.157894e-06
150	0xb6320d89	-2.6531945e-06
151	0x36df9781	6.6635553e-06
152	0x36787b2d	3.7026578e-06
153	0xb8798b35	-5.9495873e-05
154	0x38a6996b	7.944073e-05
155	0x38bed728	9.099982e-05
156	0x3670bac0	3.587149e-06
157	0xb8097da4	-3.2780357e-05
158	0x3803d2d4	3.1429183e-05
159	0x3812a91b	3.4966604e-05
160	0xb732c6d8	-1.0655924e-05
161	0xb835cf7b	-4.3346994e-05
162	0x3839d4cf	4.430563e-05
163	0x3854963f	5.0684666e-05
164	0x361735de	2.2532108e-06
165	0xb5aeb8f3	-1.3017838e-06
166	0x35abc19f	1.2796844e-06
167	0x379261a0	1.7450016e-05
168	0x36528408	3.136929e-06
169	0xb77b9263	-1.4994849e-05
170	0x37047fd8	7.897579e-06
171	0x37cf41a3	2.4706887e-05
172	0x3485ef85	2.4947454e-07
173	0xb3aaf749	-7.961223e-08
174	0x37107042	8.609206e-06
175	0x37a542f9	1.970072e-05
176	0x36b5820c	5.40936e-06
177	0xb732f6b9	-1.0667071e-05
178	0xb647aa2d	-2.9752366e-06
179	0x378cdaef	1.679125e-05
180	0x370a0b54	8.2280785e-06
181	0x38ddb595	0.000105719235
182	0xb93ea48e	-0.00018181113
183	0xb95495cb	-0.00020273698
184	0x372a1316	1.0137233e-05
185	0x38071c35	3.2212778e-05
186	0xb8b12b43	-8.448076e-05
187	0xb81712d7	-3.601875e-05
188	0x37ac7006	2.0556163e-05
189	0x383206f6	4.244499e-05
190	0xb9239e92	-0.00015603963
191	0xb9377215	-0.00017494739
192	0xb6893a9f	-4.0897426e-06
193	0x38fae809	0.00011964149
194	0xb95a6dce	-0.00020831006
195	0xb940c2b9	-0.00018383087
196	0x36d5b387	6.3687944e-06
197	0xb5d11634	-1.5578175e-06
198	0xb89cbf57	-7.4742995e-05
199	0xb8c49048	-9.372883e-05
200	0xb69fa75c	-4.7580525e-06
201	0x36aa7ef6	5.081175e-06
202	0xb897d31b	-7.2395625e-05
203	0xb902604c	-0.0001243364
204	0xb72ce83c	-1.030607e-05
205	0xb88d723e	-6.744683e-05
206	0xb80f5a5c	-3.417801e-05
207	0xb82e398e	-4.1538435e-05
208	0xb813064c	-3.5053396e-05
209	0x351da3d5	5.8725465e-07
210	0xb898089a	-7.249527e-05
211	0xb9084475	-0.00012995473
212	0x375e2112	1.3239931e-05
213	0xb8b36521	-8.554222e-05
214	0xb8a3b840	-7.806765e-05
215	0xb7fe896f	-3.0343157e-05
216	0xb77b833d	-1.4991322e-05
217	0xb9973af0	-0.00028844876
218	0x3a268cb8	0.0006353366
219	0x3a2b8765	0.00065433077
220	0xb7d428c1	-2.5291347e-05
221	0xb7d5ca71	-2.5485848e-05
222	0x39ae799e	0.00033278478
223	0x39b1d049	0.00033915255
224	0x38038dfd	3.136507e-05
225	0xb8c75429	-9.5047355e-05
226	0x39e4778d	0.0004357662
227	0x39fd9203	0.00048364708
228	0x370a5f6f	8.247661e-06
229	0xb914b099	-0.00014180168
230	0x39e72f29	0.0004409489
231	0x39e683a6	0.00043967104
232	0xb71e1320	-9.421987e-06
233	0x3823f352	3.9088838e-05
234	0x3949f0b4	0.00019258523
235	0x3981b724	0.00024741248
236	0x36ce56b9	6.1493743e-06
237	0xb6939271	-4.3979894e-06
238	0x39a41627	0.00031297022
239	0x39bc321c	0.0003589549
240	0x366fc9a2	3.573114e-06
241	0x392bd130	0.00016385759
242	0x3875b1f4	5.8578284e-05
243	0x3909bda6	0.00013135988
244	0x350cf32b	5.250792e-07
245	0x32c38633	2.2762014e-08
246	0x39aed7b6	0.00033348583
247	0x39bf5932	0.00036496815
248	0xb6eeebcb	-7.1204026e-06
249	0x39435148	0.00018626929
250	0x37942a01	1.7662534e-05
251	0x38bd0122	9.012433e-05
252	0x3737b66e	1.0950125e-05
253	0x38594de1	5.1809362e-05
254	0xb981795c	-0.00024695217
255	0xb986323b	-0.00025595896

exp_avg_sq f4 [128, 36]
0	0x35041255	4.920051e-07
1	0x3511c5c2	5.4304485e-07
2	0x367c764c	3.7619784e-06
3	0x36904355	4.299373e-06
4	0x34f4d8bc	4.5606237e-07
5	0x34ee6d12	4.4410314e-07
6	0x3685c384	3.98647e-06
7	0x36941b21	4.413902e-06
8	0x351716c9	5.628504e-07
9	0x351c8e98	5.832203e-07
10	0x366cbbe0	3.5276098e-06
11	0x368cf8b7	4.2012794e-06
12	0x3493930c	2.7487874e-07
13	0x34b87ee3	3.4364993e-07
14	0x368cbfec	4.194668e-06
15	0x36983150	4.5356937e-06
16	0x3540bef6	7.180346e-07
17	0x34a8198b	3.1311023e-07
18	0x3671a0a4	3.6005304e-06
19	0x36925207	4.3606883e-06
20	0x3386b3ae	6.272545e-08
21	0x32241d32	9.552695e-09
22	0x369bdf28	4.645339e-06
23	0x36a1fb5e	4.827437e-06
24	0x35464e58	7.3874753e-07
25	0x341795ef	1.4117516e-07
26	0x367e2d91	3.7875473e-06
27	0x3694ab55	4.4306894e-06
28	0x3324ce2c	3.8371738e-08
29	0x31c81d35	5.8240865e-09
30	0x369b9cca	4.6376126e-06
31	0x36a23a6d	4.834778e-06
32	0x359569ea	1.113219e-06
33	0x33f5fd14	1.1454736e-07
34	0x3664ecf3	3.411257e-06
35	0x3692d824	4.376301e-06
36	0x2f9cb094	2.85017e-10
37	0x30ca39b3	1.4713833e-09
38	0x31657353	3.338944e-09
39	0x317dd6ec	3.6938514e-09
40	0x2f92667f	2.6630073e-10
41	0x308095a6	9.355758e-10
42	0x31888d9a	3.974219e-09
43	0x3193a2e6	4.2967825e-09
44	0x301e14c1	5.750956e-10
45	0x3000649d	4.670911e-10
46	0x3182105a	3.785357e-09
47	0x31962e13	4.3708126e-09
48	0x2eee7788	1.084422e-10
49	0x2ff93551	4.533072e-10
50	0x319d7c61	4.5834416e-09
51	0x31a3efb0	4.7711737e-09
52	0x3039f5f9	6.7652156e-10
53	0x300aa598	5.043943e-10
54	0x314e8bc3	3.005639e-09
55	0x318b7269	4.0584394e-09
56	0x2dfd5baa	2.8803477e-11
57	0x2e0b732f	3.1707244e-11
58	0x31b0d040	5.1459494e-09
59	0x31b36219	5.220738e-09
60	0x308610a2	9.75451e-10
61	0x302cbe00	6.284324e-10
62	0x30eee861	1.7382825e-09
63	0x31707846	3.4992964e-09
64	0x2dddf39d	2.5232977e-11
65	0x2de4ce80	2.6012303e-11
66	0x31b0b0ac	5.1423594e-09
67	0x31b352b9	5.21899e-09
68	0x304b2a19	7.3910794e-10
69	0x30171051	5.4956667e-10
70	0x3104e8d9	1.9340887e-09
71	0x3167154c	3.362703e-09
72	0x331cc5f6	3.6501625e-08
73	0x32df4c6d	2.5995371e-08
74	0x33fb442c	1.1700499e-07
75	0x34266897	1.5498004e-07
76	0x3327e516	3.909107e-08
77	0x3236e125	1.0644986e-08
78	0x340c1c0a	1.3048717e-07
79	0x34369390	1.7003754e-07
80	0x3372ac3b	5.650166e-08
81	0x3290ef2c	1.687257e-08
82	0x33ddf339	1.03353564e-07
83	0x342ac1e7	1.5903025e-07
84	0x32d2a6f5	2.452314e-08
85	0x3292abb9	1.7074727e-08
86	0x3415f63c	1.3966286e-07
87	0x343797ef	1.7098476e-07
88	0x335c06b4	5.1228838e-08
89	0x325ffba7	1.30375275e-08
90	0x33eec7c3	1.1119075e-07
91	0x3433260e	1.6684518e-07
92	0x31f2a342	7.0616872e-09
93	0x3041a35f	7.0445155e-10
94	0x34417a0a	1.8018923e-07
95	0x3450561b	1.9402835e-07
96	0x334f8e94	4.8325617e-08
97	0x31b59135	5.2843014e-09
98	0x34060fc9	1.2485465e-07
99	0x3437b3f0	1.7108664e-07
100	0x311462d4	2.1593012e-09
101	0x2f5a81e9	1.9873138e-10
102	0x344dbc86	1.9160697e-07
103	0x3453cee4	1.9726173e-07
104	0x336ee879	5.5625126e-08
105	0x3199a7d3	4.4719655e-09
106	0x33fa8f87	1.166764e-07
107	0x3439668a	1.7266771e-07
108	0x35bc1b1b	1.401498e-06
109	0x354f55fa	7.723862e-07
110	0x36e673c4	6.868011e-06
111	0x370dc37c	8.44977e-06
112	0x35a3d530	1.2206492e-06
113	0x3531936b	6.615216e-07
114	0x36f6a77e	7.35087e-06
115	0x37131a92	8.768069e-06
116	0x360bd0c8	2.083414e-06
117	0x353b6639	6.981168e-07
118	0x36cb92b6	6.066951e-06
119	0x370d3e67	8.418784e-06
120	0x353720cf	6.8220555e-07
121	0x359ed805	1.1834787e-06
122	0x36f0c5e5	7.1755953e-06
123	0x370ca2cb	8.3825535e-06
124	0x36234c73	2.4333392e-06
125	0x34c3d8b3	3.647925e-07
126	0x36cbd915	6.075143e-06
127	0x37128715	8.733729e-06
128	0x34a43ad3	3.059018e-07
129	0x341e3b90	1.4736565e-07
130	0x3710626c	8.6059845e-06
131	0x371dfdbd	9.417007e-06
132	0x35d3aba9	1.5770685e-06
133	0x33bc0782	8.755798e-08
134	0x36ff9bf2	7.6177466e-06
135	0x3718bb95	9.103581e-06
136	0x3425ba68	1.5434637e-07
137	0x3340e3ce	4.491067e-08
138	0x37170f04	9.0037975e-06
139	0x372116ed	9.601686e-06
140	0x360ad2de	2.0686343e-06
141	0x33981786	7.0823305e-08
142	0x36ed69cc	7.075467e-06
143	0x37191de3	9.126469e-06
144	0x33d8c558	1.00941804e-07
145	0x334f0712	4.8202374e-08
146	0x33cebbe7	9.626802e-08
147	0x343b987d	1.7471207e-07
148	0x33bb940f	8.734798e-08
149	0x3302743d	3.03737e-08
150	0x34042607	1.2307292e-07
151	0x3454dcb0	1.9824324e-07
152	0x33f00546	1.117683e-07
153	0x336954b2	5.432657e-08
154	0x33af4970	8.162431e-08
155	0x3434b035	1.682791e-07
156	0x33832150	6.1062224e-08
157	0x329abb94	1.801326e-08
158	0x343990fa	1.728221e-07
159	0x347226ef	2.255217e-07
160	0x340a8fcc	1.2904565e-07
161	0x32fc9f86	2.9409204e-08
162	0x33af8e83	8.174995e-08
163	0x3448eb7b	1.8712119e-07
164	0x3289ef50	1.6057726e-08
165	0x3025074a	6.003701e-10
166	0x3480c5f8	2.39859e-07
167	0x3489ba62	2.565385e-07
168	0x3408ab52	1.2728313e-07
169	0x323df0bc	1.1055985e-08
170	0x33e4381b	1.0627283e-07
171	0x34565cfe	1.9964133e-07
172	0x31d170cd	6.0955245e-09
173	0x2f60a433	2.0431017e-10
174	0x3489ccab	2.5667154e-07
175	0x348c78be	2.6164884e-07
176	0x33efe0d7	1.1170203e-07
177	0x322b42ba	9.968682e-09
178	0x33fe1889	1.18322596e-07
179	0x3464afe8	2.1298149e-07
180	0x34fcb030	4.706685e-07
181	0x34b16de6	3.304878e-07
182	0x3668a9d9	3.4669558e-06
183	0x3689d9b7	4.1082635e-06
184	0x34bab6b7	3.4778142e-07
185	0x35089b6b	5.089011e-07
186	0x36694774	3.4761297e-06
187	0x3688a70f	4.072564e-06
188	0x3524aee0	6.134924e-07
189	0x34c45a07	3.6573348e-07
190	0x365b6699	3.2693263e-06
191	0x3687cddc	4.0472787e-06
192	0x34235c62	1.5214167e-07
193	0x3536b1d2	6.8059046e-07
194	0x3668493c	3.4613322e-06
195	0x36828595	3.889853e-06
196	0x3514dc9f	5.545534e-07
197	0x34503a2f	1.9392677e-07
198	0x366e1f6a	3.548305e-06
199	0x368ea3a8	4.250982e-06
200	0x3386d4db	6.2785794e-08
201	0x334838e1	4.661786e-08
202	0x368edd31	4.25768e-06
203	0x36970248	4.5004163e-06
204	0x3527552c	6.233629e-07
205	0x3368e16c	5.422173e-08
206	0x3673d95e	3.6336346e-06
207	0x36916a9e	4.3337486e-06
208	0x33428cce	4.5297206e-08
209	0x3242971a	1.1326643e-08
210	0x36921063	4.3530467e-06
211	0x369897b5	4.547614e-06
212	0x35816e52	9.643356e-07
213	0x333a72f4	4.341105e-08
214	0x36575023	3.2084142e-06
215	0x368e5e42	4.242903e-06
216	0x35365ed6	6.793829e-07
217	0x34927b16	2.7284176e-07
218	0x362d3818	2.581166e-06
219	0x3655a20f	3.1833804e-06
220	0x353d8106	7.059574e-07
221	0x344442fe	1.8278294e-07
222	0x362e5e7a	2.5983013e-06
223	0x3659fe49	3.2483533e-06
224	0x3536a5e6	6.80417e-07
225	0x34fa88cf	4.666567e-07
226	0x361e95ac	2.3630955e-06
227	0x364c877c	3.047723e-06
228	0x350b16bf	5.1814635e-07
229	0x34abd760	3.2007938e-07
230	0x3635ac4a	2.7071387e-06
231	0x3655bfb5	3.1851062e-06
232	0x35523dd8	7.832109e-07
233	0x34906744	2.6897226e-07
234	0x361efe50	2.3691864e-06
235	0x3654ea88	3.1726977e-06
236	0x344638bf	1.8460831e-07
237	0x325cd328	1.2853697e-08
238	0x36661936	3.4287345e-06
239	0x36721609	3.6073636e-06
240	0x3579e4e0	9.3092785e-07
241	0x33aecb94	8.139537e-08
242	0x36266555	2.479491e-06
243	0x365a3ba3	3.2519245e-06
244	0x33b99721	8.642224e-08
245	0x30d115dc	1.5212964e-09
246	0x366ff47e	3.5756088e-06
247	0x367675b8	3.6725378e-06
248	0x358e3b9b	1.0597172e-06
249	0x3381e2b5	6.0482684e-08
250	0x36182d71	2.2676215e-06
251	0x365b796f	3.2704227e-06
252	0x34a1a727	3.0110206e-07
253	0x3492a429	2.731406e-07
254	0x362c7d7b	2.5703036e-06
255	0x364a584e	3.0151746e-06

exp_avg f4 [128]
0	0x37194f5a	9.137986e-06
1	0xb6e66164	-6.865872e-06
2	0x3898b9ab	7.282508e-05
3	0x38e22a18	0.0001078436
4	0x380e61ef	3.3946646e-05
5	0xb91c4f7b	-0.00014906928
6	0x39cf4a73	0.00039537586
7	0xb9726a73	-0.00023118574
8	0x38c8aae3	9.568573e-05
9	0xb91769e3	-0.00014439928
10	0xb6d40127	-6.3182265e-06
11	0x39692eed	0.00022238093
12	0x3831b043	4.2364245e-05
13	0x38791d6d	5.939363e-05
14	0x39ae2276	0.00033213542
15	0x3863d76b	5.432164e-05
16	0xb9460ece	-0.00018888267
17	0xb9f78670	-0.00047211675
18	0x38ed6e2d	0.000113215625
19	0xb91be3f7	-0.00014866875
20	0xb9481b79	-0.0001908372
21	0xb6dd1706	-6.5889935e-06
22	0xb8b4bd68	-8.6183485e-05
23	0xb79fcd9f	-1.9050027e-05
24	0x39946046	0.0002830049
25	0xb92f1392	-0.00016696591
26	0xb958b7e9	-0.00020667877
27	0xb89a46bb	-7.356467e-05
28	0x392b8d73	0.00016360525
29	0x39952272	0.00028445158
30	0xb91e1c78	-0.0001507866
31	0x36ca7654	6.0338443e-06
32	0xb8058667	-3.1834843e-05
33	0xb93a0c2c	-0.00017742877
34	0x36cc5508	6.0895727e-06
35	0x39e3bce6	0.00043437554
36	0x3900f9a4	0.0001230003
37	0xb9b8bc4f	-0.00035235516
38	0x3a01a7f4	0.00049459864
39	0xb89767e1	-7.21959e-05
40	0xb99b29f1	-0.00029595153
41	0xb8dc84eb	-0.000105151754
42	0xb753dad8	-1.2627534e-05
43	0x37cd1908	2.444956e-05
44	0x39c54c15	0.00037631454
45	0xb7c082bc	-2.2949062e-05
46	0xb936a548	-0.00017418445
47	0x39683b30	0.00022147293
48	0x388d5905	6.739985e-05
49	0xb90b40dc	-0.00013280235
50	0xb8ad5290	-8.264661e-05
51	0xb98ae7de	-0.00026494166
52	0x39eaa56e	0.00044755213
53	0xb93c099b	-0.00017932655
54	0xb87da739	-6.047564e-05
55	0x383d5403	4.5139353e-05
56	0xb721f430	-9.653202e-06
57	0xb90e1e2d	-0.00013553417
58	0x3859c5b9	5.1920975e-05
59	0xb92175bf	-0.0001539802
60	0xb960aaeb	-0.00021425977
61	0xb831636f	-4.2292693e-05
62	0x39a2d201	0.00031055513
63	0xb8274b0c	-3.9885796e-05
64	0x38e8595a	0.00011079265
65	0x39f8a3ae	0.00047424197
66	0x3953bbda	0.00020192508
67	0xb79490e3	-1.7710443e-05
68	0xb89ed594	-7.573809e-05
69	0x3675e749	3.664247e-06
70	0x37c0a277	2.2963837e-05
71	0x381994b8	3.6616548e-05
72	0xb636787e	-2.719025e-06
73	0x35fb7167	1.8733962e-06
74	0xb8988ae7	-7.2737974e-05
75	0x3a07ac92	0.0005175556
76	0x37e2dbbf	2.7043627e-05
77	0xb931a842	-0.00016942716
78	0x39472232	0.00018990858
79	0x39101db7	0.0001374398
80	0x3a8351db	0.0010018902
81	0xb9427a8c	-0.00018546934
82	0xb7f4ad85	-2.9167868e-05
83	0x38944a63	7.0710455e-05
84	0xb854209c	-5.057511e-05
85	0xb8f0de16	-0.000114854585
86	0x3a3a7669	0.00071129814
87	0x394a9002	0.00019317868
88	0xb8d2348b	-0.00010023367
89	0x36ef2bc2	7.127849e-06
90	0x36f32fcc	7.2475286e-06
91	0x35a43587	1.2234531e-06
92	0xb833ad64	-4.283841e-05
93	0x380ee5ba	3.4069388e-05
94	0xb8eaa310	-0.00011188362
95	0x39858652	0.00025467813
96	0xb58af2f2	-1.0352508e-06
97	0xb8938aaf	-7.035338e-05
98	0xb9113ce7	-0.00013850965
99	0xb962bc90	-0.00021623285
100	0x39b38d7c	0.00034246955
101	0xb82ac334	-4.0712956e-05
102	0xb8860681	-6.3908294e-05
103	0xb9241755	-0.0001564895
104	0xb9656b06	-0.00021879011
105	0x3866e135	5.5046014e-05
106	0xb8ab521c	-8.1692095e-05
107	0xb9bd5960	-0.0003611548
108	0xb83d5bcf	-4.5146615e-05
109	0x39138c71	0.00014071331
110	0xb9c663c1	-0.00037839825
111	0x39cbb954	0.00038857257
112	0xb99ce1bf	-0.00029922833
113	0xb99740ae	-0.00028849154
114	0x39c0717d	0.0003670565
115	0x38f839ae	0.00011836305
116	0x39e7fc44	0.00044247706
117	0xb9a3dd4f	-0.0003125467
118	0x3469622f	2.1735535e-07
119	0x36c85cf6	5.9712866e-06
120	0xb904d13f	-0.00012666451
121	0xb884c4ca	-6.330905e-05
122	0x365632d9	3.1918082e-06
123	0x38ee5279	0.00011364086
124	0xb7d6beb2	-2.5599587e-05
125	0xb84114c5	-4.603413e-05
126	0xb91e895e	-0.00015119227
127	0x39cfbbbc	0.0003962199

exp_avg_sq f4 [128]
0	0x36a59d05	4.9356627e-06
1	0x31b7b1b2	5.3462026e-09
2	0x34572f30	2.0040602e-07
3	0x37272ab9	9.963923e-06
4	0x348ff887	2.6816653e-07
5	0x369cc789	4.6723912e-06
6	0x367babd1	3.7501925e-06
7	0x366212d9	3.3687595e-06
8	0x35be5312	1.418028e-06
9	0x36481ed9	2.9820278e-06
10	0x31969c9a	4.383378e-09
11	0x35b651d1	1.3583868e-06
12	0x346e6e75	2.2205661e-07
13	0x35afd69d	1.3100977e-06
14	0x36773bff	3.684079e-06
15	0x34cf880f	3.865575e-07
16	0x36a93b15	5.0434705e-06
17	0x37a2228c	1.9327992e-05
18	0x353dfe45	7.0778e-07
19	0x35afe9e0	1.3106583e-06
20	0x36353c05	2.7006038e-06
21	0x33976096	7.049054e-08
22	0x35f47bf3	1.8215491e-06
23	0x349f541c	2.9677255e-07
24	0x365f4909	3.3272102e-06
25	0x36289dd0	2.512581e-06
26	0x36f08c84	7.1689155e-06
27	0x36ac0a79	5.1272186e-06
28	0x34dd4d0d	4.122052e-07
29	0x3633c46f	2.6787418e-06
30	0x36f98eea	7.4374157e-06
31	0x31363b84	2.6518316e-09
32	0x34112b25	1.3519873e-07
33	0x362f9b5b	2.616746e-06
34	0x336ddbd5	5.53808e-08
35	0x37687844	1.3856279e-05
36	0x371b7623	9.266226e-06
37	0x37722dc8	1.4434983e-05
38	0x36afdd98	5.2412033e-06
39	0x35e53440	1.7077036e-06
40	0x36d9440b	6.475025e-06
41	0x3598d56d	1.1386998e-06
42	0x362496bb	2.452564e-06
43	0x339db775	7.344253e-08
44	0x370de719	8.4580615e-06
45	0x33d30a9c	9.827383e-08
46	0x363179e0	2.6445996e-06
47	0x36c20ad7	5.7829125e-06
48	0x3666db7e	3.4400432e-06
49	0x3502e8cc	4.876754e-07
50	0x35aa4724	1.2686692e-06
51	0x3760c32f	1.3396885e-05
52	0x36c4ac5d	5.861321e-06
53	0x3721c830	9.642958e-06
54	0x32c4d43b	2.2913914e-08
55	0x34961d75	2.796111e-07
56	0x3562a5d6	8.4432884e-07
57	0x365f5c4f	3.328332e-06
58	0x34b51324	3.3727804e-07
59	0x368cf2bf	4.2005845e-06
60	0x36641ba5	3.3990739e-06
61	0x371dcef9	9.406119e-06
62	0x3705a642	7.966128e-06
63	0x356c27bf	8.797469e-07
64	0x350276d7	4.860171e-07
65	0x36bd4398	5.640508e-06
66	0x3639da07	2.7694057e-06
67	0x348f9f88	2.67519e-07
68	0x35669ff3	8.5914434e-07
69	0x328f0b77	1.6652605e-08
70	0x331c3d2c	3.6377216e-08
71	0x355ee0d4	8.302861e-07
72	0x32077a91	7.885903e-09
73	0x3199b7b1	4.4737694e-09
74	0x3569f647	8.7157645e-07
75	0x3757266b	1.28239435e-05
76	0x36598b2d	3.241653e-06
77	0x362eb27e	2.6031917e-06
78	0x3587e06a	1.0123597e-06
79	0x36d5369e	6.354253e-06
80	0x379d1549	1.872577e-05
81	0x363a0953	2.7721587e-06
82	0x352dc716	6.473723e-07
83	0x352fd7da	6.5506686e-07
84	0x36a96f9d	5.049586e-06
85	0x36588c32	3.2268113e-06
86	0x37309d99	1.0527111e-05
87	0x357e9c9e	9.485028e-07
88	0x34868120	2.5053396e-07
89	0x35bc699f	1.4037831e-06
90	0x311b281e	2.2578273e-09
91	0x35a99bce	1.2636826e-06
92	0x36eeb03e	7.11347e-06
93	0x35f2a732	1.8079065e-06
94	0x3585dfe1	9.97443e-07
95	0x366bcee5	3.5138157e-06
96	0x33d1f8f8	9.777608e-08
97	0x368f99bb	4.2796287e-06
98	0x3691d470	4.3460677e-06
99	0x36014588	1.926297e-06
100	0x36a0d7b5	4.793483e-06
101	0x3559671e	8.0988855e-07
102	0x35cc12b8	1.5204632e-06
103	0x3624b2e0	2.4542023e-06
104	0x36c306e5	5.8122555e-06
105	0x35974a49	1.1271997e-06
106	0x345730aa	2.0041139e-07
107	0x37337f29	1.0698838e-05
108	0x344f4dcf	1.9306684e-07
109	0x34c3196b	3.6340074e-07
110	0x36a01f3d	4.772008e-06
111	0x3701b961	7.732161e-06
112	0x36da9441	6.5141653e-06
113	0x366498e3	3.406364e-06
114	0x371b626d	9.2616365e-06
115	0x369cc79f	4.6724012e-06
116	0x36eff729	7.1515283e-06
117	0x373af39d	1.1143185e-05
118	0x3539de84	6.9241673e-07
119	0x36377a79	2.7340413e-06
120	0x347ba2ef	2.3435472e-07
121	0x3622680e	2.420045e-06
122	0x32065165	7.8183335e-09
123	0x35f18ac4	1.7996285e-06
124	0x34608f83	2.0913835e-07
125	0x3485656a	2.484697e-07
126	0x36cfb528	6.19017e-06
127	0x35c86182	1.492954e-06
