results/car4/CarFindGoal/CarFindGoal-2499979.pt (torch, 530875 bytes, 36 tensors)

network_body._body_endoder.seq_layers.0.weight f4 [128, 36]
00000000: 1435 97bd 7bf9 2a3b 1ca1 553b d85b 65bd
00000010: b6e5 bebc c080 793d 32ca bf3d 8da3 47be
00000020: a895 dfbe 8199 443e b844 c9bd 8bbf 253d
00000030: 4468 4d3e 5e71 e4bd 32dc b13d f7ea 033f
00000040: 2612 62bc 53d6 133c 6485 2dbe 8cd5 263e
00000050: fa89 5cbe 5be8 d6bc 151a 9f3e 8060 97bb
00000060: 44a8 d3bd ac93 483e 725c 883c 7735 c9bd
00000070: b166 f43e 95b1 febc acc7 a23d 36fc a8bd
00000080: c8dc 1e3e 1418 6a3d 10af 013d 519d 423e
00000090: 9ce0 44be 2c89 863e 916e 873e 858d 71be
000000a0: 94b5 4bbe 9061 abbe 7b14 173d 05fc a4be
000000b0: 9f85 e13c 7527 33bc c09f ee3c 4b38 723e
000000c0: 7369 ccbd c19d 84be e963 9f3e 9086 50be
000000d0: aff7 10bd 8faf 00be c33e a23d a9d9 55be
000000e0: 6145 2e3d cd03 7fbe b427 8f3c fa56 41bd
000000f0: 1ec0 0bba e16b de3d 1765 debe 1aac 51bd
00000100: 1318 7b3d a06b 22bd 944b 863d 01ce 17be
00000110: 1a54 99be e57a 30be d22b 58be 3810 efbd
00000120: ab4d f5bd 7834 053d 7f62 adbd 03a6 6cbe
00000130: 1ab4 093e 7444 f9bd 0f39 dabc 7b59 2d3d
00000140: 7977 0f3e 960d a83c 655d b0bd 054a 203d
00000150: e663 0f3e 56c7 41be 4bc0 4abe 0b2a 5dbb
00000160: 8fe6 2abe b074 babd 65a2 cfbd 71ca 9b3a
00000170: 39b3 ba3d c32d ba3d 2d7d b73d 4825 623e
00000180: c90c cc3d 9cc2 f33d ee70 51bd 8986 30bd
00000190: 7960 92bc a73b 20bd b65a 473e 1001 feba
000001a0: 1262 91bd 496f b93d 226a 183d 3999 c93d
000001b0: 70e4 a53d 0c22 c1bd 1b5f 153e 861d 92be
000001c0: 4055 9a3d e911 26be 0343 073b 2dc5 723b
000001d0: c8d8 fe3d 76d5 e73d af20 c0bd b62b d13e
000001e0: cc77 33bd cb08 2a3e e655 2dbd 3873 703e
000001f0: 52c4 d53e 8e8f 11be 7aa6 82be 01d6 d2bc
00000200: c1ea e13e f761 d13d 4e4c 3cbe 4d13 8dbe
00000210: d841 91be f4c0 eb3b 2d96 f13d c309 8b3e
00000220: 7342 1f3d 0e93 313b 20a4 9e3c 46d7 07be
00000230: b1bd b8bd 1f89 8b3d ed8b c9bc 844f 603e
00000240: e484 843d 78ed 8abe 92c3 b5bd cb66 dabe
00000250: 39a0 1f3e 6ddb 2abd 249b e93d 080a 543d
00000260: b554 fb3d 34ba 323e 69ba 9b3d 115b 55be
00000270: 85df 573e a4ad 0dbe b02b c4bd 5d40 31bc
00000280: 0eb2 213e 22cf 2cbd f439 6dbe fc39 e3bd
00000290: 46cb 51be e6da 62bd 81d7 e13a 7f37 283d
000002a0: 1111 213c a7b3 833d cacd 2cbe 727d 183e
000002b0: 3de7 b5bd 39bb 39be c62c 683e 404f 3ebe
000002c0: 4771 103e f0dd 18bd 4c30 2f3e ceae 9e3c
000002d0: e396 c03d 90dd 61bd 174b 873d 0a70 32be
000002e0: 04b2 42be e126 4e3e bd97 89be a5ca 7c3c
000002f0: 5125 20bc c828 723d ed13 953d 98d0 bdbc
00000300: 8794 96be 8031 9c3e 7c7d afbd a2c5 263e
00000310: 3f96 43be aec0 83bc 82c3 0e3e 8d85 80bb
00000320: 4fc9 433e a768 ffbc a389 2ebe cf1f 023e
00000330: ecb2 f83d 82b4 9f3e 18f8 f83c 03a3 ca3e
00000340: 5650 d93d e031 3e3d b859 06bc 2485 f0bd
00000350: e834 023e b4a8 d03b f8a9 58bd 4972 b53e
00000360: 1f72 323c 98d2 13be de81 a6bc bed0 bd3d
00000370: e7ef 983d 3982 4ebe f779 f6bc 1904 fe3c
00000380: 3a87 c63c bc9e 953c 41c6 8b3e a4c8 c3be
00000390: 03a0 4f3e 9c87 6dbe 2144 2fbe b7bd cebd
000003a0: 902a 0b3e 60ac 90bc 582a 193d 6057 3dbd
000003b0: eeb4 b63e da78 13bd a40b 123e d515 1bbc
000003c0: e98a 573e 3190 c03c 754e 3c3d 2517 d0be
000003d0: 144c 3b3e 1d4d 7dbe c0d1 1c3d b890 df3d
000003e0: 820b 173e f8ad a6bd 4066 033e 1e6f 673e
000003f0: 9b9d 533e ef9a 41bc 4159 a3bd 8e0d c33d
-0.07383171 0.0026088643 0.003259725 -0.055995792 -0.023302894 0.0609138 0.093647376 -0.19495983
-0.43668866 0.19199182 -0.0982756 0.040465873 0.20059305 -0.111544356 0.08684577 0.515304
-0.013798272 0.009023267 -0.16945416 0.16292399 -0.21537009 -0.026233843 0.31074587 -0.004619658
-0.103348285 0.19587582 0.016645644 -0.09824651 0.47734597 -0.031090537 0.07948241 -0.082512304
0.15513909 0.05715187 0.031661093 0.19005324 -0.19226307 0.2627653 0.26451543 -0.23589142
-0.19893485 -0.33472872 0.036884766 -0.32223526 0.027529536 -0.0109347 0.02912891 0.23654287
-0.0998105 -0.25901607 0.31130913 -0.20363832 -0.03539246 -0.1256697 0.07922127 -0.20883812
0.042546634 -0.24903794 0.017474987 -0.047202088 -0.0005331057 0.1086042 -0.434365 -0.05118952
0.061302256 -0.03965342 0.06557384 -0.14824678 -0.29946977 -0.1723438 -0.21110466 -0.11673015
-0.119777046 0.03252074 -0.08466052 -0.23110203 0.1344761 -0.121712595 -0.026638536 0.042321663
0.14010419 0.02051429 -0.086115636 0.03913309 0.14002952 -0.18923697 -0.19799916 -0.0033746983
-0.16689514 -0.091042876 -0.10138396 0.0011885894 0.09116215 0.090907596 0.08959422 0.22084534
0.09963376 0.11902353 -0.05113309 -0.043097053 -0.017868267 -0.03911939 0.19468197 -0.0019378979
-0.070987836 0.09054429 0.03721059 0.09843678 0.081002116 -0.09430322 0.14587061 -0.2853815
0.075357914 -0.1621777 0.0020639307 0.0037043795 0.124436915 0.11320011 -0.09381234 0.4085366
-0.04381542 0.16604917 -0.042318247 0.23481452 0.41751343 -0.14214918 -0.25517637 -0.02573681
0.44124416 0.102237634 -0.18388483 -0.27553788 -0.28370547 0.0071946327 0.11796222 0.27155885
0.03888173 0.0027095708 0.01936537 -0.13265714 -0.09020556 0.06813263 -0.024602855 0.21905333
0.064706594 -0.271343 -0.08875193 -0.4265655 0.15588464 -0.041713167 0.11406544 0.05176738
0.12272016 0.17453843 0.07603914 -0.2083552 0.2108136 -0.1383577 -0.09578645 -0.010818568
0.15790579 -0.042189725 -0.23166639 -0.11095044 -0.20487699 -0.05538454 0.0017230363 0.04106855
0.009830729 0.0643075 -0.16875377 0.14891604 -0.08881996 -0.18137826 0.2267333 -0.18584919
0.14105712 -0.03732103 0.17108268 0.019370463 0.09403779 -0.05514294 0.06606119 -0.17425552
-0.1901322 0.20132019 -0.2687358 0.015429174 -0.009774522 0.059120923 0.07279191 -0.023170754
-0.29410192 0.30506516 -0.08568856 0.16286328 -0.19100283 -0.016083088 0.13941768 -0.0039221705
0.19119762 -0.031177832 -0.17044692 0.12707447 0.12143502 0.31192404 0.030391738 0.39577493
0.10611026 0.046434283 -0.008200102 -0.117441446 0.12715495 0.006367767 -0.05289647 0.35438755
0.010891466 -0.14435804 -0.020325597 0.0926833 0.07467633 -0.20166864 -0.030087454 0.031007813
0.024234403 0.018264167 0.27299693 -0.38239014 0.20275883 -0.23196262 -0.17115833 -0.10094779
0.13590455 -0.01766032 0.037393898 -0.046225905 0.35684913 -0.036003925 0.14262253 -0.009465654
0.21049084 0.023506256 0.04597326 -0.40642658 0.1829074 -0.24736448 0.03828597 0.10916275
0.14750484 -0.08138651 0.12831974 0.22600982 0.2066559 -0.011816724 -0.07976008 0.0952407

network_body._body_endoder.seq_layers.0.bias f4 [128]
00000000: 15f3 a73b 3011 0ebd 90fe 29bc c875 c53c
00000010: 29d2 6c3c b790 8c3b ab35 a03c 4271 cc3c
00000020: d342 42bc 719f 943c d040 8ebc f643 2a3b
00000030: 4c26 02bc c965 433c e23f 713c 8b56 83bc
00000040: 18de 7cba 3b18 ef3c cc4e fc3b 20e2 653c
00000050: ccd5 953b 8412 0a3b df4c 4c3c e198 af3b
00000060: d8e9 403c b15c 063d 1b90 783c f881 453c
00000070: 9950 71bb abf0 67bb 076f 743c 37e9 0a3d
00000080: a69c 96bc 559d b03b e1e7 983b 0877 d53c
00000090: d507 233c ac54 f73c 2352 87bc 4b9a 043d
000000a0: 170f 423d b566 503c 273d 173c 2b4b d4bc
000000b0: 98f0 d93c 425e 343c 77b1 9e3b 1b07 513c
000000c0: 527d a43c 484d b23b 79c5 e43a 0306 313d
000000d0: 6db8 f43b 1519 b53c 50c5 2dbc 6976 e33b
000000e0: bb9b ff3b 545f 883c ece8 3d3c 004a 903c
000000f0: a8eb 693d 54c7 7c3c f10f 86ba 640d c03c
00000100: f30b 8f3c e8bc 9b3c a5cd a5bb e286 483c
00000110: 3de3 853d ec72 57bb 7ab7 33bc 6e89 2dbb
00000120: 13b9 5cbd e049 20bc 4f91 813d 67e4 803c
00000130: 4fda a83c aa21 c73c 3aed 893c f90d b63c
00000140: b4d9 4b3c dc0b fb3c c646 c63a 80cc a5bb
00000150: 8005 233d 595a 513c c4b6 c939 e857 10bc
00000160: 1769 f5bb 5ff3 c0bb 8784 1fbd 0d13 123c
00000170: e6fa 1b3c 07d1 693b 38c5 5e3c 2f3c 0fbc
00000180: ba61 1d3c cf1a 123d f775 c33c bf15 853c
00000190: e098 1abb 8385 05bb be74 cb3c 96e8 5f3c
000001a0: 1849 543c 84a0 acb9 0a99 b7bb 1501 193c
000001b0: b3d0 f73c 0bea 5fbc 0264 083d 3aa1 c03c
000001c0: 6e02 e63c 6a9c 233d 0e23 913c 3793 80bb
000001d0: b361 de3c 61b1 fb3a aa37 3e3d 57ff 8abc
000001e0: 08e4 0c3d f8e4 ab3b 8b83 58bd 5444 843c
000001f0: 465f 30bc 36ff 5ab9 2bca 093d 6402 863c
0.005125413 -0.03468436 -0.010375634 0.024104014 0.014454403 0.0042897123 0.01955684 0.02495635
-0.011856752 0.018142434 -0.01736489 0.002598045 -0.007943701 0.011926123 0.0147247035 -0.016032478
-0.00096461317 0.029186359 0.007699823 0.014030963 0.0045726057 0.0021068165 0.012469499 0.0053588008
0.011774503 0.03280324 0.015171076 0.012054913 -0.0036821722 -0.0035391252 0.014919049 0.033913817
-0.018385243 0.005389849 0.004666314 0.026057735 0.009950598 0.030191742 -0.016518658 0.032373708
0.047377672 0.0127198 0.009230888 -0.02591475 0.026603982 0.011008801 0.004842933 0.012758042
0.020079289 0.0054413415 0.0017453871 0.043218624 0.0074682743 0.022106687 -0.010606125 0.006941606
0.007800547 0.016647018 0.011591177 0.017613411 0.057109505 0.015428383 -0.001022814 0.023443885
0.017461753 0.019010976 -0.005059915 0.01223919 0.06537483 -0.0032874895 -0.010969037 -0.002647962
-0.053887438 -0.009783238 0.063265435 0.01573391 0.02061191 0.024308044 0.016836751 0.02222346
0.012442041 0.030645303 0.0015127293 -0.0050597787 0.039800167 0.012777888 0.00038473879 -0.008810021
-0.0074893343 -0.005888387 -0.038944747 0.008915675 0.009520268 0.0035677569 0.013596825 -0.008742376
0.009605819 0.035670098 0.023859961 0.01624572 -0.0023589656 -0.0020373769 0.02483594 0.013666293
0.01295688 -0.0003292599 -0.0056029605 0.009338637 0.030250883 -0.01366664 0.0332985 0.023514379
0.02807733 0.03994409 0.01771691 -0.0039237994 0.027146196 0.0019202643 0.046439804 -0.016967459
0.034397155 0.005245801 -0.052859824 0.016145863 -0.010764902 -0.00020885174 0.033640068 0.016358562

network_body._body_endoder.seq_layers.2.weight f4 [128, 128]
00000000: b8d0 35bb cb82 b6bb 200a 543d d350 0abe
00000010: 311a a1bd dbd4 413d eff8 9b3d da4d 55be
00000020: ed06 113e 3627 c83d 03a1 82bc df33 9f3d
00000030: 3b4b 6d3d bd68 00bd facf bf3c fc4d 983d
00000040: a1d6 c4bc 4cf6 163e 9b81 f4bd 783a 443d
00000050: 523f bfbd f66e b3bd 3886 d5bd 297e 213c
00000060: 7d02 f73d f9e3 11bd 6de5 d43d d446 35bd
00000070: 738a e33d d98d 6c3e 93c4 f63d 04fe adbd
00000080: 849a 42bd 65c3 9b3d 3ea7 f63d c475 60bd
00000090: d78f 88be 43f4 c1bd 8ae8 51bd c1af 02bd
000000a0: 7d24 25be 3207 23bc e1e7 fd3d a9e9 273d
000000b0: 9a76 1b3d c105 023e e7f8 c83c 9ec7 463c
000000c0: 7164 4dbd fafd c63d 4945 85be f6bf 9fbd
000000d0: c8ee 373c 0f91 7f3e 4792 b53d 2559 8b3d
000000e0: 36f1 2d3d cbee 5cbd 063d 07bc d593 3dbc
000000f0: 4025 39be 5b44 133e 8bc9 af3d 98d7 a4bc
00000100: da99 4e3c 7a2c f4bc 9b7e 2cbd ef06 d53d
00000110: 5cb3 483d c374 f63d 492e e6bd 0cb4 19be
00000120: 34b5 103e 6036 683d 8a43 f7bc 8913 3dbe
00000130: d7bd d2bb 755d 1bbd 8cef 3abc 2ba3 09be
00000140: 069c cabd d094 913d 9343 1e3e 97b8 893d
00000150: 9252 10bd 33cc e13d b3d0 44bd 8073 d13d
00000160: 7293 d4bd f32f eebd edad 183d dd87 1dbe
00000170: f20c 0e3e a08d bb3d 8a0a 813c e8d4 133e
00000180: f735 343e e74d 3dbe fabc 353d a2c4 2e3a
00000190: b8fa d9bc 326c f93c bdaf 2ebc ff60 74bd
000001a0: dcdf 83bd ff32 25be 61f0 2e3c 518d d0bd
000001b0: cb49 e53a 4682 fe3c 7c12 ab3d f765 14bc
000001c0: 4c63 423e 8a31 673d 6f52 dabd 0e06 1e3e
000001d0: b072 dabc d645 973d b2cd 9bbd be85 4e3d
000001e0: 95a7 223b 76ca 1f3e 3f0b bebd 34df 603d
000001f0: b844 8b3d 9448 ee3d 0085 91bc 6049 06bc
00000200: bba0 aabd 4eaf e6bd 5fc6 073d a002 c2bc
00000210: 27ba 0f3e 9c79 4f3d 7084 b13a f053 c63d
00000220: a19a 833c f3e8 a1ba a253 bcbd fea8 883c
00000230: abe8 bb3d da68 9ebd 8f29 1b3d d7ca 123e
00000240: 5a7a fb3d 8ad2 4bbc f5da 083c f2a7 e53c
00000250: 3c7c 22bd 0cfa aabc e91a 663d 20e6 bf3a
00000260: bd89 c13d 08b3 f8bd 28a1 b83d fb5f 843c
00000270: b47d 1f3d df7e 333d b301 a9bc 398f 02be
00000280: adea 253c a97e 0e3d e1bf e23d 6ea2 913d
00000290: 6dd1 9fbc 21be 3c3d d966 e33b 059c 45bd
000002a0: 71dd 0fbe 8c82 c03c 746f 383e 76bf f93c
000002b0: f30d 00bd c51c 0fbe f8e5 ccbd 03d7 1bbe
000002c0: bd20 7f3d a919 85bd 8e59 e23d 1389 92bc
000002d0: b07f b13d fa5b ac3b 8b24 a63d 897f 563c
000002e0: 7afa 453b 09f4 313e dd03 c6bc 16bc b9bd
000002f0: c43c fd3d 3346 09bd 953f 5b3d b416 03bc
00000300: ca9f 8e3d 86d5 c63c d2c5 c3bd 6b94 47bd
00000310: 7731 f4bd 6945 143e 8a3b 9f3b 8afc 99bd
00000320: a192 22bd fe21 f9bd e8e3 acbd 48ab 88bb
00000330: 26c1 b6bd 4faf 8c3c d4c9 0a3d e9bd fd3c
00000340: 7ccc bb3c b80c 9b3d 8171 563d b0a3 183e
00000350: 755b e1bd f46d 3dbd f7d2 60bd d38e 0c3d
00000360: 7364 0bbd 644e 09be 4107 d33d d8e3 003d
00000370: 1b8b 8cbd b282 daba 9c90 b5bd f694 fabc
00000380: 117f 19bc 44c4 0fbd 750f 6ebd f326 95bd
00000390: 6b45 65ba 6f2f 2dbd 373e 743d ee15 40bd
000003a0: 8e8d 9cbd 55b1 06bc 4417 ca3d 9197 15bd
000003b0: 96b4 fe3c d46e 7e3e 0b43 fb3b eb18 2f3d
000003c0: fb75 2fbe d302 8cbd b4e4 8b3d db10 5bbd
000003d0: 3e8c c43d bbe9 4c3c d02a 29bd 4fda 183e
000003e0: daeb 84bd 566c aabd 2572 98bd d637 d03c
000003f0: a13e b93d 2e2c 0d3d 9911 e73b e00e 01bc
-0.0027742814 -0.005569791 0.05176747 -0.13507394 -0.07866324 0.047322135 0.0761584 -0.2083048
0.14162798 0.09773104 -0.015945917 0.077735655 0.057933073 -0.031349886 0.0234146 0.07436749
-0.024028124 0.14742392 -0.11938783 0.047907323 -0.09338249 -0.087613985 -0.10425991 0.009856739
0.120610215 -0.035617802 0.10395322 -0.044257 0.111103915 0.23100986 0.12049212 -0.08495715
-0.04751064 0.07605628 0.12043618 -0.05479981 -0.2667224 -0.09470417 -0.051247157 -0.031905893
-0.161272 -0.009950446 0.12397743 0.04099432 0.037954904 0.12697507 0.024532748 0.012132553
-0.050144617 0.09716411 -0.26029423 -0.078002855 0.0112263635 0.24957679 0.08865791 0.06804112
0.042466365 -0.05393867 -0.008254295 -0.01157089 -0.18080616 0.14381544 0.08583363 -0.020122334
0.012609923 -0.029806364 -0.042112928 0.10401713 0.048999175 0.12033989 -0.11239297 -0.15010089
0.14131624 0.05669248 -0.030183572 -0.18464483 -0.006431322 -0.037930924 -0.0114096515 -0.1344115
-0.0989304 0.07108462 0.15455465 0.06724661 -0.035234995 0.11025276 -0.048050594 0.10227108
-0.103796855 -0.11630239 0.037275244 -0.15383859 0.13872126 0.09157872 0.015752096 0.14436686
0.17598711 -0.18486749 0.044369675 0.0006666874 -0.02660881 0.0304471 -0.010662016 -0.059662815
-0.06439182 -0.16132735 0.010677428 -0.10183204 0.0017493305 0.031067979 0.08353135 -0.009057513
0.18983191 0.05644373 -0.10660254 0.15431997 -0.026666015 0.07386367 -0.07607593 0.050420515
0.0024819125 0.15604576 -0.09279489 0.054900363 0.068002164 0.11634937 -0.017763615 -0.008196205
-0.08331438 -0.112639055 0.033148166 -0.023682892 0.14035855 0.050653085 0.0013543498 0.096839786
0.016064944 -0.001235275 -0.09195639 0.016682144 0.09175237 -0.077348426 0.03788143 0.1433519
0.12279196 -0.012440333 0.008352985 0.028034184 -0.03966926 -0.020871185 0.056178007 0.0014640726
0.094500996 -0.121435225 0.09015113 0.016159048 0.03893824 0.043822166 -0.020630693 -0.12749948
0.010126752 0.03478876 0.11071754 0.07111059 -0.019509042 0.04607976 0.0069397506 -0.048244495
-0.14049317 0.02349975 0.18011266 0.030486804 -0.031263303 -0.13975818 -0.100048006 -0.15218739
0.06228708 -0.06499035 0.110522375 -0.017887628 0.086669326 0.005259988 0.08112439 0.01309193
0.003020911 0.17378248 -0.024171764 -0.09069078 0.12365106 -0.033514213 0.053527433 -0.008001018
0.06964071 0.024271738 -0.095592156 -0.048725527 -0.11923497 0.14479603 0.0048593925 -0.07518871
-0.039690617 -0.121646866 -0.08441907 -0.004170809 -0.08923559 0.017173437 0.033883885 0.030974345
0.022924654 0.07570785 0.05235434 0.14906192 -0.11003772 -0.046247438 -0.05488869 0.034315895
-0.034031343 -0.1340881 0.10304118 0.03146729 -0.0686247 -0.001667103 -0.08865473 -0.030588608
-0.009368674 -0.035099283 -0.05812021 -0.072828196 -0.0008746001 -0.042281564 0.059629645 -0.046895914
-0.07644187 -0.00822099 0.09867719 -0.036521498 0.03109197 0.24846965 0.0076679043 0.042748373
-0.1713485 -0.06836476 0.06830731 -0.05348287 0.095970616 0.012506898 -0.041300595 0.14927028
-0.064902976 -0.08321445 -0.07443646 0.02541725 0.09045149 0.03446596 0.0070516584 -0.007877082

network_body._body_endoder.seq_layers.2.bias f4 [128]
00000000: 7895 b93b 0dfe 18bc e7c2 fe3c 6288 85bc
00000010: eeac 3c3d 22b9 793c d59c 0a39 43b9 c43c
00000020: 091e 2f3d f585 613b ab09 a33b 83ee 233c
00000030: 237c a83c 21d0 653c 0e73 783c 3d8a c13c
00000040: 8a8d 903c f72c 6fbb 7633 2f3c 765d 99ba
00000050: 00dd 4d3c 41c6 ce39 9398 723a ee64 173c
00000060: 2d8b 8c3c d7ba 893c dc3c 443c 89b6 c3bb
00000070: d22b 573b ac57 2fbb b2fa 8d3c 6548 9db9
00000080: 0329 1d3c dac4 7c3a 8f06 b33c e822 c33c
00000090: 8201 ac3c 8446 043c 8d96 3d3c da5d 063d
000000a0: f434 3d3c 4380 a23b 0f2b a6bb 3681 603c
000000b0: 4d87 a33c 9e61 0c3c 7992 863c baa7 153d
000000c0: 1e5d d63c e967 713c e301 5a3c 788e 113d
000000d0: 92a4 8cba c4f1 9d3a 61cd aa3c a627 433c
000000e0: d316 573c f941 363c 095d aa3b 6fee 573c
000000f0: dc38 85bc 8137 3a3b 1b40 19bc f03f 843c
00000100: fdd6 993c 9e55 b23b 6b68 34bb 2a50 af3c
00000110: 7916 b23b 4b12 ba3b 9c0d 0e3c 7aa9 a43c
00000120: ce50 8b3c b6a2 7c3c d8e2 10bc 5cd3 8c3c
00000130: 1bf7 94bb 9aed b93b a38d 823b 7f19 ea3c
00000140: cc8e 93bb 9499 ee3b ad87 4a3c 9838 83ba
00000150: fccf ad3c 2a9d 323c 9cbe e53b ebd3 d93c
00000160: 6e2e 443c c5bc 5b3c 8ee5 013d 5909 4f3c
00000170: 9f7d 43bb 56f8 943c 3825 8a3c 6408 65bb
00000180: 17f7 3d3c 4dcb e73b a8ab 04bb 94ae 323c
00000190: 2b95 3f3c 681f 743c a733 883c d9aa fd3b
000001a0: b39d e23c ef92 19ba 874f a13c d055 383c
000001b0: 9323 4bba ce5f 9abc 55d6 fd3b 2bb3 953c
000001c0: 3ade 673c f3ba 9a3c 310c 903c bc68 87ba
000001d0: 198d 013d 2ac1 403a 5680 ae3c a4d2 ba3c
000001e0: bc4b 5a37 1b11 203b 90b1 b33b 9b54 113c
000001f0: 6861 e23c 5088 dbbb ede0 5a3c 926a d0ba
0.00566357 -0.009337914 0.031098796 -0.016300384 0.046063356 0.015241893 0.0001321913 0.02401412
0.042753253 0.003441212 0.0049755177 0.010005596 0.020567006 0.014026673 0.01516415 0.023625487
0.017645616 -0.0036495307 0.010693422 -0.0011700827 0.012564898 0.00039439093 0.0009254303 0.009240372
0.017156208 0.016812725 0.011977401 -0.0059726876 0.0032832515 -0.0026755137 0.017331455 -0.00029999312
0.0095922975 0.000964237 0.021853713 0.023820356 0.020996813 0.008073453 0.011571539 0.032804348
0.01154827 0.0049591376 -0.005071051 0.013702681 0.019961977 0.008568196 0.016427265 0.03653691
0.026167449 0.014734247 0.013306114 0.03553626 -0.0010730198 0.0012050201 0.020849885 0.011911308
0.013128 0.011124128 0.005199079 0.013179406 -0.016262464 0.002841443 -0.009353663 0.016143769
0.018779272 0.0054423353 -0.0027528058 0.02140053 0.005434808 0.00567845 0.008670237 0.020100344
0.017006304 0.015419653 -0.008843146 0.017190628 -0.004546059 0.0056740763 0.0039841696 0.02857661
-0.0045031067 0.0072814915 0.012361449 -0.0010011373 0.021217339 0.010901729 0.007011248 0.026590308
0.01197396 0.013411705 0.03171306 0.012636506 -0.0029829515 0.018184822 0.01686345 -0.0034947628
0.011594555 0.007073796 -0.0020243917 0.0109058805 0.011693279 0.014900066 0.016626192 0.007741314
0.027663087 -0.00058583816 0.019691242 0.011250928 -0.00077491364 -0.018844511 0.0077464976 0.01827391
0.014152104 0.018887972 0.017583938 -0.0010330896 0.0316287 0.00073530024 0.02130143 0.02280552
1.3011446e-05 0.0024424258 0.0054838136 0.008870269 0.027634338 -0.0066995993 0.013359291 -0.0015900901

action_model._continuous_distribution.log_sigma f4 [1, 2]
00000000: 336d e13c 94ca 1fbc
0.02751789 -0.009752888

action_model._continuous_distribution.mu.weight f4 [2, 128]
00000000: 8eb6 493d d3d3 09bc fc93 993d 0bda a038
00000010: a792 733d e480 b83c 2a67 f53a e676 2fbd
00000020: 18eb c23c 083e ab3c 1fa8 3abd d8bb 82bd
00000030: 7163 b63c 01dd a2bd a6c4 733d 61bb 52ba
00000040: d0a3 94bd 34f8 e63c 2383 96bd 23f3 083d
00000050: ee0a 063d 9195 0dbc d51b 3d3d 6b48 c5bd
00000060: c486 303d fb96 d9bd c0ef 0a3c cb5a 3c3c
00000070: 4ba0 273d a83e 94bc 8dad 8f3d ff27 acbd
00000080: f959 72bd 2a33 2e3d 9b8f 433d 81c5 d4bd
00000090: b5e6 163c 43c2 e5bd 2390 993d a77a b7bd
000000a0: d3ce a43d 4596 4fbc f50c 1fbd ef75 b5bd
000000b0: 63c5 b23d 8589 80bd 3927 7b3d 6005 493d
000000c0: 5bfc 613c a3b8 ab3d 4911 d8bd 33e0 8d3d
000000d0: cf52 023d 50eb 3e3c f788 fc3b a8da 7c3d
000000e0: 92a9 6e3d ba46 8d3d 60f0 aabc 023d d1bc
000000f0: 739e daba 4533 4a3d ef05 2cbd 39be c4bd
00000100: b61e 453d bfe7 29bc f8fa da3c 3229 08bd
00000110: c59e 32b9 0983 8cbd 4142 10bd 2939 4f3d
00000120: 1510 7f3d 0c81 1fbd b4cb 08bd 582b 89bd
00000130: fa65 463c 6705 34bd 9d3a aebb 3f59 813d
00000140: 5add 27bd 478a 90bd f72f 02bd bbaa 2d3d
00000150: fdc7 dfbd 97d7 d2bd 037a 023d a5d6 fa3c
00000160: a891 693d 7742 9b3b 5231 af3d cf79 10bd
00000170: a0e2 4bbd a809 623d 6a3e 7c3d 8cc2 fcbc
00000180: dcdd d43c 63db 153d afc8 603c e0dd 703d
00000190: b25c 083d e565 84bd 8db0 93bd 0f46 81bd
000001a0: 41e4 d73d 0661 92bd 9032 16bd 3a39 1a3c
000001b0: 3063 f03c 4820 b33b eefe 6dbc 029b 423d
000001c0: 290b 1e3d 11dc b53d 8e65 a73d e864 293d
000001d0: 5af6 803d 5cf1 dd3c a388 d13d ee17 7f3c
000001e0: dbc6 d9bc 50c5 4dbd ee5c 92bd 6e01 12bd
000001f0: eff9 8a3d 8c98 f63c 28e8 80bd adde a0bb
00000200: dca7 87bd 3d77 77bc dfe9 003d 495f 46bc
00000210: 66a8 853d 3600 9c3d a0e0 d93c 44db 8b3c
00000220: f3f6 323d 0086 ce3c 2fb9 1fbb 10d7 01bd
00000230: bfdb 6e3d 18d3 f1bc f17e 383c 9e68 1fbd
00000240: ad5a 3d3d 8dcd adbc e445 943a 9b9d a0bc
00000250: 7568 1b3d a69a 5ebd fcf7 1fbb 94ef e6bc
00000260: 025f 44bd 98e7 73bc 1d8b 91bd b693 3abd
00000270: 31ac 9a3c 11ea 8ebd ba9d 143d 2bc1 3ebd
00000280: 45fb c7bb 48d7 0ebd b030 043d 8125 c5bc
00000290: 379e b1bd 142f 55bd 7fea 03bd ee9a be3b
000002a0: 9e90 aebc 05e6 4e3d da0f 51bd 167f 123c
000002b0: 1915 c23b b310 d03c 8883 4fbc 4c83 153d
000002c0: 982c a83d b1d3 c0bb 2cb4 43bc 9ae5 a03d
000002d0: 64cb 31bd 0e74 073d 0fcb 323d b7a6 5bbc
000002e0: 0144 093c 0962 a03c 3f05 2e3d 2014 6dbd
000002f0: cbed 34bc a10b 0939 23f4 c4bc a351 4f3d
00000300: f650 4c3d 033e 1bbd d1d6 59bd e367 763c
00000310: 1eca 21bd e0d3 83bd e741 66bb 12ef 313b
00000320: 215a 303d 9125 babb 2a25 1bbc 1c1d 163d
00000330: bc24 e8bc 03ed 1d3d 298a 463d 4a7f 8a3d
00000340: 365c f0bc 8e24 0abd 3762 803d a107 17bd
00000350: 82a0 4f3c 8bf2 143c 2093 0c3d bef9 9e3d
00000360: 005e bebb b8c4 753c 644a 173c 2ebe 40bc
00000370: def2 e13b f9a8 4e3d f378 6f3d 446c 37bd
00000380: 4e3f 133d 76fb c4bc 9bf5 eabc e635 5d3b
00000390: 8250 df3c 6241 ca3c 2c6d 3bbc 776f 4dbd
000003a0: 5d2a 643c 65e7 fdbc 43e3 9b3b 53c3 bb3b
000003b0: ca71 29bd 7f9f b23b e267 7fbd 0572 203d
000003c0: bb7d 8f3d 2b16 a53b 373f 1ebb 4432 0cbd
000003d0: 6ca5 893d ac38 3cbd f7db 49bd b545 b83d
000003e0: b886 89bd 7453 a73c 2c4c 543c 7c1f d03c
000003f0: 0880 4f3d 38da 4ebc 6a93 2b3d bb81 96bd
0.049246363 -0.008412319 0.07498929 7.670008e-05 0.05946603 0.022522397 0.0018722762 -0.042838
0.023793742 0.020903602 -0.04557049 -0.063834846 0.022264214 -0.079523094 0.05951371 -0.0008038786
-0.07257807 0.028194524 -0.07349231 0.033435 0.032725267 -0.008641616 0.04616912 -0.09632953
0.043097273 -0.106245 0.008480012 0.011496256 0.04092435 -0.018096283 0.07015524 -0.08406066
-0.059167836 0.042529263 0.047744375 -0.103892334 0.009210278 -0.11218693 0.07498195 -0.08958941
0.08047261 -0.012670104 -0.038830716 -0.08860385 0.08729055 -0.0627623 0.061316703 0.04907739
0.013793076 0.08384826 -0.10550172 0.06927528 0.031817254 0.011652783 0.007706757 0.061731964
0.058267184 0.06898256 -0.020866573 -0.025541786 -0.0016679302 0.0493653 -0.041997846 -0.096065946
0.04812499 -0.010370194 0.026731 -0.033242412 -0.00017034549 -0.068609305 -0.035219435 0.05059162
0.062271196 -0.038941428 -0.03339739 -0.0669772 0.012109274 -0.043950465 -0.005317046 0.063158505
-0.04098258 -0.07057624 -0.031784024 0.04239915 -0.109268166 -0.10295027 0.03185464 0.030619929
0.057023674 0.004738148 0.08554329 -0.035272416 -0.049776673 0.05518499 0.06158296 -0.030854486
0.025984697 0.036586177 0.013719722 0.058805346 0.033291526 -0.06464747 -0.07211409 -0.06312191
0.10541583 -0.07147412 -0.036669314 0.009413058 0.029344171 0.0054664947 -0.014526112 0.04751111
0.038584862 0.08879865 0.08173667 0.041355997 0.06296988 0.027092628 0.102311395 0.01556967
-0.02658408 -0.050237 -0.07146631 -0.035645895 0.06785952 0.030102037 -0.0629428 -0.0049093575
-0.066238135 -0.015104112 0.031473037 -0.012107679 0.0652626 0.07617228 0.026596367 0.017072327
0.04369254 0.02521038 -0.0024371853 -0.03169924 0.058315035 -0.029519603 0.011260734 -0.03891813
0.046229053 -0.021216178 0.0011312333 -0.019606402 0.037941415 -0.054346703 -0.0024409285 -0.028190412
-0.04794217 -0.014886759 -0.07106612 -0.045551024 0.018880935 -0.069782384 0.036283232 -0.046570938
-0.0061029517 -0.034873277 0.032272995 -0.024065735 -0.08672755 -0.05204685 -0.032206055 0.005816809
-0.021309193 0.050512332 -0.051040508 0.008941432 0.005922925 0.025398588 -0.012665637 0.036502168
0.082116306 -0.0058846106 -0.011944812 0.07856293 -0.04340686 0.033069663 0.043650683 -0.013406447
0.00837803 0.019577997 0.04248547 -0.05788052 -0.011043022 0.0001306967 -0.024042195 0.050614964
0.049881898 -0.037900936 -0.05318338 0.015039417 -0.039499395 -0.06436896 -0.0035134496 0.0027150554
0.043054704 -0.005680748 -0.00946931 0.036648855 -0.028337829 0.03855611 0.048471604 0.0676256
-0.029340845 -0.033726268 0.06268733 -0.03687251 0.012672545 0.00909103 0.034319997 0.07762478
-0.0058095455 0.015000515 0.009234045 -0.011764092 0.006895407 0.050454114 0.058464956 -0.044780985
0.035949044 -0.024045687 -0.028681567 0.003375405 0.027260069 0.02468938 -0.011439603 -0.05015513
0.013926116 -0.030994127 0.0047573163 0.0057300716 -0.041368283 0.0054511423 -0.06235493 0.039171237
0.07006403 0.005038043 -0.0024146566 -0.034227625 0.06721005 -0.045952484 -0.04928204 0.089976706
-0.06715149 0.020425536 0.012957614 0.025405638 0.05065921 -0.01262527 0.041888632 -0.07348963

action_model._continuous_distribution.mu.bias f4 [2]
00000000: a6fe 0a3c 7c25 0d3c
0.0084835645 0.008614894

exp_avg f4 [128, 36]
00000000: 701f 46b7 6b22 8bb9 7074 14b9 45b7 78b9
00000010: d38d adb7 834d ddb9 2b41 7ab7 5ee3 36b9
00000020: 9a3c 2537 76e2 b438 8a5f f3b9 4928 e6b9
00000030: f392 f2b7 ec2e 6d38 86d4 e6b9 9421 fdb9
00000040: ec08 1ab8 dc40 6833 8de1 d2b9 aca6 d0b9
00000050: 04be 80b6 2f00 ee37 463c 03ba 7113 fcb9
00000060: 3d23 2fb8 353a 0234 4ba8 90b9 20d3 d3b9
00000070: 8a47 06b7 8a6f 4138 1227 f4b9 ea24 fbb9
00000080: fcb7 89b8 8278 6436 34e7 eab6 1200 c4b9
00000090: 7dfe 9b34 61bd 86b7 9e81 88b6 93f6 0cb7
000000a0: d738 2335 afd7 9336 acc3 d0b7 16fa bbb7
000000b0: 682c 8035 4ae0 91b6 1d7f 21b5 38a8 72b7
000000c0: e72b 8635 af01 feb6 813e 59b7 932f 5ab7
000000d0: 3154 71b6 8459 7530 c11f 0db7 b000 67b7
000000e0: 760d 1833 b41a c8b6 457c 72b7 e9fc 71b7
000000f0: d353 37b5 c2d3 9032 bb5c 43b7 425a 7bb7
00000100: 6504 d4b4 0532 04b6 a5b4 94b7 5176 9ab7
00000110: 6b08 8336 2a48 9b34 8be3 ecb6 2ad2 80b7
00000120: 2e86 c637 de5f 02b8 4e53 7636 2d70 3a37
00000130: 571c 9937 39ee 87b7 5d79 43b6 80f7 3fb5
00000140: d5d8 c737 2673 c536 b86f f9b7 52e0 5bb7
00000150: c569 8e37 7fb4 56b5 c9ad 4db7 baee 47b6
00000160: 4d5c 3fb7 6f47 4a31 8d2b 1b37 640b 82b6
00000170: a059 eab4 a3b5 9cb6 c068 5f37 1e9e 0436
00000180: 2ec3 8eb6 0739 0032 203f 24b6 488c 66b6
00000190: 4a7f a135 a087 4d36 23d2 9c35 1a7e e9b5
000001a0: 7d11 7c37 8afc de35 c44c 4fb7 9a4c 8fb6
000001b0: 8f41 5739 ae78 acb8 e134 8a38 bce1 6d39
000001c0: 316b 3639 b86a 5939 6447 a2b8 8d65 ff37
000001d0: bc30 0739 993f eeb8 f740 6f39 7ebc 4b39
000001e0: 2b54 3a39 7b44 3db9 afd9 9139 3292 cf39
000001f0: ff4c 15b9 faf2 44b3 bd99 e139 40ea 5139
00000200: 189d ca36 0830 41b9 b9e8 2b3a e0bf ed39
00000210: 5d77 9137 ccb7 91b3 d2ab 8e38 010b 5f39
00000220: 1c05 8338 86f1 18b9 8b2b e539 ba47 dc39
00000230: 7fb9 4c39 f1d2 5537 e06d b3b9 7584 2a39
00000240: 38d4 2638 707b 64b8 16a0 dd37 0dcf 3538
00000250: 0c50 ee37 aadc ebb6 e114 7337 ad78 9336
00000260: 4195 3c38 9371 a9b5 b226 c3b7 c893 f536
00000270: 6ea7 e337 9734 54b6 ad21 9d37 3290 b737
00000280: 4cc6 09b8 7410 cc31 eb68 5138 7374 4a37
00000290: bb7f 3db5 f68b e1b6 34f8 6138 ed8f fa37
000002a0: 956f c5b7 c5c3 2432 dde5 f737 db78 5d37
000002b0: 4908 5935 d026 d936 6910 1c38 551f c137
000002c0: 1972 0238 2113 8035 0dba 6fb7 875e 4037
000002d0: 9b64 07b9 3c13 1439 bb2b 69b9 fde5 90b9
000002e0: 3a12 e4b8 6ff1 f3b8 79e0 30b8 f604 b4b8
000002f0: 1a9c e5b8 b151 95b7 2601 20b9 7b41 2bb9
00000300: b4ab cfb8 81da 8c38 d813 85b9 1fed 97b9
00000310: 6506 9f38 490b 8d30 33b6 bfb9 6623 6fb9
00000320: 2b27 1b34 585e 8238 e820 ecb9 f5ce a3b9
00000330: 199c 92b5 81f0 86b2 74a7 0ab9 751e 72b9
00000340: 5ee0 0bb8 d8e6 9c37 fde1 acb9 eb60 99b9
00000350: 3b4c 32b9 30fa 4eb7 c81c 0739 6c4a 4ab9
00000360: 5ef7 ae38 a1cf e6b8 63d9 ab38 f8d8 dd38
00000370: 5d3c 8938 4591 4ab8 3284 7138 8f5d 4538
00000380: 498b ac38 10a4 8638 85a0 b2b8 4fac 5db6
00000390: 2505 8238 c762 ce37 f4b1 5737 fb7e 1b38
000003a0: c593 92b8 6727 8632 7c8b fe38 19ec 5538
000003b0: 8f5d 43b6 97e1 8c36 c9ee ea38 a13e 8138
000003c0: 9f3f acb7 b80b 3033 01ec 7038 bc7e 5338
000003d0: a389 2037 cc01 f336 f6d7 bc38 32eb 9138
000003e0: ec73 8c38 66b8 b436 686c 1b37 3810 4538
000003f0: 1b76 a1b8 9ba5 4639 a65e 38b9 50fc 27b9
-1.1809039e-05 -0.0002653779 -0.00014157756 -0.00023719396 -2.068925e-05 -0.00042210156 -1.4916334e-05 -0.00017441573
9.848876e-06 8.6252505e-05 -0.00046419754 -0.00043899033 -2.8917077e-05 5.6548903e-05 -0.0004402736 -0.00048280938
-3.672477e-05 5.40757e-08 -0.0004022237 -0.00039797032 -3.836818e-06 2.8371896e-05 -0.0005006235 -0.0004807967
-4.175607e-05 1.2128369e-07 -0.00027591208 -0.00040402357 -8.003679e-06 4.6118665e-05 -0.00046568416 -0.00047901954
-6.566939e-05 3.4044792e-06 -7.000659e-06 -0.00037384086 2.9056164e-07 -1.6062231e-05 -4.0682053e-06 -8.40206e-06
6.0804945e-07 4.4060503e-06 -2.4886649e-05 -2.2408592e-05 9.549667e-07 -4.3474474e-06 -6.016215e-07 -1.44634905e-05
9.996555e-07 -7.569986e-06 -1.2948761e-05 -1.3004889e-05 -3.5960804e-06 8.925769e-10 -8.411648e-06 -1.3768833e-05
3.54025e-08 -5.963573e-06 -1.4453258e-05 -1.4423605e-05 -6.829479e-07 1.6860103e-08 -1.1644496e-05 -1.4981781e-05
-3.9491275e-07 -1.9698648e-06 -1.7727094e-05 -1.8413326e-05 3.905084e-06 2.8923506e-07 -7.0598376e-06 -1.5356654e-05
2.3665922e-05 -3.10837e-05 3.6705346e-06 1.1112582e-05 1.8252218e-05 -1.6204185e-05 -2.9127907e-06 -7.1513205e-07
2.3823619e-05 5.8844626e-06 -2.9735136e-05 -1.3105646e-05 1.6976972e-05 -7.998387e-07 -1.2259415e-05 -2.9792268e-06
-1.1405978e-05 2.9435474e-09 9.24886e-06 -3.875628e-06 -4.3651107e-07 -4.6703076e-06 1.3316225e-05 1.976157e-06
-4.2546517e-06 7.463547e-09 -2.4474648e-06 -3.4354325e-06 1.2032481e-06 3.0626325e-06 1.1684064e-06 -1.7396553e-06
1.5024442e-05 1.6613787e-06 -1.2356035e-05 -4.2706497e-06 0.0002052842 -8.2240775e-05 6.590202e-05 0.00022686174
0.00017396804 0.00020734488 -7.7380595e-05 3.0445657e-05 0.00012892758 -0.0001136057 0.00022817017 0.00019429807
0.00017769697 -0.00018049956 0.00027818742 0.0003959104 -0.0001423843 -4.5855792e-08 0.00043029888 0.00020019058
6.0383572e-06 -0.00018423807 0.00065578107 0.0004534712 1.734093e-05 -6.785521e-08 6.803092e-05 0.00021271037
6.2475185e-05 -0.00014585824 0.00043710726 0.0004201511 0.00019524059 1.2744903e-05 -0.00034223404 0.00016261807
3.977513e-05 -5.4474396e-05 2.6419799e-05 4.3346594e-05 2.8409086e-05 -7.0292344e-06 1.448879e-05 4.39499e-06
4.4961696e-05 -1.2624536e-06 -2.326383e-05 7.318773e-06 2.7138474e-05 -3.1621073e-06 1.873154e-05 2.1882446e-05
-3.2848024e-05 5.939052e-09 4.9927196e-05 1.2067251e-05 -7.059386e-07 -6.721816e-06 5.3875337e-05 2.9869343e-05
-2.353619e-05 9.590569e-09 2.9551733e-05 1.3200765e-05 8.0850856e-07 6.4716223e-06 3.720858e-05 2.3021983e-05
3.1100677e-05 9.54231e-07 -1.4288828e-05 1.1466101e-05 -0.00012912082 0.00014121545 -0.00022236902 -0.00027637175
-0.00010875282 -0.000116321135 -4.2170726e-05 -8.583993e-05 -0.00010948647 -1.7800225e-05 -0.00015259217 -0.00016332224
-9.9025114e-05 6.71642e-05 -0.00025382522 -0.00028977633 7.582902e-05 1.0262308e-09 -0.00036566108 -0.00022806003
1.4449749e-07 6.216456e-05 -0.00045037945 -0.00031243978 -1.0923278e-06 -1.5709022e-08 -0.00013223087 -0.00023090265
-3.334914e-05 1.8704144e-05 -0.0003297477 -0.00029254644 -0.00017003801 -1.2336808e-05 0.00012885325 -0.00019291946
8.343042e-05 -0.000110059285 8.194407e-05 0.00010578515 6.5439126e-05 -4.8295846e-05 5.7581994e-05 4.7055593e-05
8.227543e-05 6.420177e-05 -8.5176005e-05 -3.3031863e-06 6.199841e-05 2.460311e-05 1.2856432e-05 3.707314e-05
-6.989347e-05 1.5617571e-08 0.00012137645 5.100304e-05 -2.9111723e-06 4.1985872e-06 0.00011202467 6.162865e-05
-2.0533624e-05 4.098885e-08 5.7440255e-05 5.042435e-05 9.568789e-06 7.2421735e-06 9.0047644e-05 6.957947e-05
6.697312e-05 5.385885e-06 9.26396e-06 4.6983565e-05 -7.699077e-05 0.00018944444 -0.00017582867 -0.00016020355

exp_avg_sq f4 [128, 36]
00000000: cb1f 4734 26ca 8534 7989 0436 5f37 1436
00000010: 92bd f433 f523 d334 3101 0936 a732 1436
00000020: 368c ba34 2719 2b34 c85a 0136 8cf3 1736
00000030: cb3b 8833 7984 6234 b70f 1136 5aec 1a36
00000040: ead6 b134 9584 7833 ae29 0736 c5c0 1f36
00000050: 46c0 2b32 002a 7232 11b8 2436 0906 2836
00000060: 2a05 8534 c255 b832 a21a 1136 61bd 1f36
00000070: 8acc ea31 b255 7a32 3fbd 2336 d20a 2836
00000080: e35f ec34 f897 0a32 7af2 0136 4201 1f36
00000090: c3e7 4e2f aa39 2a31 c4aa bc31 5d3f c931
000000a0: 8b56 872f 3aeb 1231 565f c931 3ee2 d331
000000b0: 38ea 8730 295b 382f b6ff dc31 1f2d fc31
000000c0: bd78 b52e 9a40 3d30 1d64 f931 122d fd31
000000d0: 1385 9f30 2474 f32e 981f c031 0457 ef31
000000e0: 69c2 952d fc2c 802e ab8d 0732 9f79 0832
000000f0: e1d9 e130 7232 5e2f 7604 7a31 8407 d731
00000100: ff4c 152e 8291 592e 4eeb 0632 f2bc 0832
00000110: d509 bb30 d46a 082f bbe3 8531 516c d331
00000120: 58a6 5e32 c444 9332 547b 6d33 1d89 9433
00000130: c797 2c32 12e7 5832 337a 8a33 3bf0 a433
00000140: baad dd32 246d a431 e2ba 5f33 18f8 a433
00000150: ad97 d431 5b5a 1e32 e3fe 9333 28df a933
00000160: 1098 c332 06c7 fe30 2937 7733 a9ca ac33
00000170: c3a1 8a30 e8b4 f22f 5f5a b933 a4c6 c033
00000180: e34d a332 b989 6230 6b13 8b33 3b45 af33
00000190: 5e52 cb2e 3497 732f c495 bb33 a990 c133
000001a0: 52a8 bf32 82f7 ef2f ba3a 7e33 7a6b b033
000001b0: f858 0335 af73 d434 606b 6a36 5534 8e36
000001c0: 9967 9534 62bc 1135 c9f6 7c36 ed95 9136
000001d0: 957d 9835 fed0 1334 d69b 4e36 a327 9336
000001e0: 0fca 1434 4322 1d35 d7ef 8036 11be 8f36
000001f0: da37 a335 d2ce 8933 237e 4236 6638 9836
00000200: bbeb 5e33 2bd4 0534 fd3a 9336 7144 9f36
00000210: 2edf 0835 f887 8432 d5d3 8736 5f46 9c36
00000220: fb25 b731 d057 c433 7d5a 9636 7abe a036
00000230: cc6d 3335 3ec4 4d32 76ff 7836 6705 9d36
00000240: 838c 1733 5d8e 7d32 55c3 3533 626b 8733
00000250: 3638 b832 e912 c832 9a0c 4933 17d2 8933
00000260: 1d25 4333 9221 d931 8121 1d33 ef09 8933
00000270: e938 8932 b19e 6332 3971 7c33 4c65 9d33
00000280: e4ec 4d33 233a 5631 067f 1933 760e 9433
00000290: 50ef 8e31 f0f0 8830 9863 b533 c9e1 c033
000002a0: a619 3d33 02fc 9e30 103b 4233 2c0f 9b33
000002b0: 9c9b 6b2f f44a be2f daf9 c033 e5e3 c533
000002c0: cafc 1b33 f79f ee2f 2c51 5a33 de33 a933
000002d0: fc24 8d34 9153 8e34 ea66 2136 9f5f 3836
000002e0: ac0d 1634 db9e 1e35 3546 1436 82cb 2c36
000002f0: 3b51 e134 a17d f833 9f68 1a36 dbda 3c36
00000300: 318d 9633 18e1 1535 92f6 1936 d08c 2c36
00000310: 11bd d434 1a79 3f33 531f 2236 c007 4336
00000320: 01b7 ba32 df0e 2c33 a7b7 4136 fb3b 4c36
00000330: ee63 c134 ea2f 9332 2603 2536 5ad6 4336
00000340: c1e7 cf31 7833 d832 2829 4336 01fc 4c36
00000350: c588 1735 c556 fa31 33cf 1236 68bd 4236
00000360: 4eb3 ce33 776f 4e33 c56b f134 b353 0d35
00000370: 61c1 a233 d7b9 7233 aafb f534 5a3c 1035
00000380: 8d21 0134 4362 4033 042a e034 a63b 0b35
00000390: 2050 6233 0888 8233 82ee f734 f98a 0e35
000003a0: 4884 0734 857b ab32 1da2 ea34 8adc 1335
000003b0: 05f4 9e32 86ed 0631 eed3 1b35 819d 2335
000003c0: 9c24 0534 b67e 2f32 f9b7 f034 cbda 1435
000003d0: 9f40 2731 a0b8 9530 f11f 2035 f243 2535
000003e0: f7cc 2634 33fb 2431 3706 dd34 37b6 1735
000003f0: 3a61 5e34 4d6c 8b34 73c1 0736 e4b0 1736
1.8544885e-07 2.4920263e-07 1.9749552e-06 2.2085949e-06 1.1396618e-07 3.9327975e-07 2.0415284e-06 2.2083202e-06
3.4747217e-07 1.5934766e-07 1.927534e-06 2.2642516e-06 6.34387e-08 2.1096083e-07 2.161583e-06 2.3085363e-06
3.312519e-07 5.7862582e-08 2.0140828e-06 2.3805053e-06 9.997228e-09 1.4095804e-08 2.4545045e-06 2.5037464e-06
2.4776938e-07 2.1459417e-08 2.1622186e-06 2.380308e-06 6.8335497e-09 1.45714e-08 2.4399048e-06 2.504025e-06
4.4028192e-07 8.067211e-09 1.9363638e-06 2.3693578e-06 1.8817929e-10 2.4771034e-09 5.490934e-09 5.8570735e-09
2.461785e-10 2.1379507e-09 5.8607084e-09 6.166629e-09 9.889112e-10 1.6767089e-10 6.4319137e-09 7.339295e-09
8.2523745e-11 6.8849604e-10 7.2582353e-09 7.368393e-09 1.1606595e-09 1.1070991e-10 5.5915272e-09 6.965708e-09
1.7025674e-11 5.828757e-11 7.890246e-09 7.943895e-09 1.643283e-09 2.0208704e-10 3.6382324e-09 6.258178e-09
3.3947064e-11 4.9469324e-11 7.853329e-09 7.959203e-09 1.3608835e-09 1.2407081e-10 3.8966994e-09 6.1532224e-09
1.2959923e-08 1.7144323e-08 5.529303e-08 6.916728e-08 1.0046228e-08 1.2625394e-08 6.448354e-08 7.680543e-08
2.5806788e-08 4.785436e-09 5.2091202e-08 7.681973e-08 6.1872556e-09 9.217355e-09 6.8915845e-08 7.9102676e-08
2.2770138e-08 1.8537498e-09 5.7559337e-08 8.046238e-08 1.0086797e-09 4.4148085e-10 8.631172e-08 8.976829e-08
1.9011116e-08 8.2414037e-10 6.476224e-08 8.1616655e-08 9.2460026e-11 2.215444e-10 8.735108e-08 9.0135764e-08
2.231187e-08 4.3649712e-10 5.9192395e-08 8.2151885e-08 4.893077e-07 3.9572248e-07 3.4931218e-06 4.238022e-06
2.782879e-07 5.429084e-07 3.7694574e-06 4.3387904e-06 1.1361432e-06 1.3766473e-07 3.07871e-06 4.3855557e-06
1.3857083e-07 5.8536915e-07 3.8426183e-06 4.2838587e-06 1.2160701e-06 6.41718e-08 2.8981674e-06 4.5365186e-06
5.19028e-08 1.2463776e-07 4.3878085e-06 4.746537e-06 5.098872e-07 1.5428654e-08 4.047974e-06 4.6573546e-06
5.330319e-09 9.142934e-08 4.4808826e-06 4.790546e-06 6.684247e-07 1.1977191e-08 3.7103578e-06 4.6795935e-06
3.5285222e-08 1.4758908e-08 4.232e-08 6.30596e-08 2.1445981e-08 2.3291664e-08 4.681042e-08 6.417775e-08
4.543573e-08 6.3193477e-09 3.6584883e-08 6.3813665e-08 1.5974779e-08 1.3249221e-08 5.8776298e-08 7.329308e-08
4.7945733e-08 3.1174145e-09 3.5738616e-08 6.8944175e-08 4.1599506e-09 9.963781e-10 8.446585e-08 8.981767e-08
4.402832e-08 1.1567638e-09 4.5222862e-08 7.22051e-08 2.1428409e-10 3.4614056e-10 8.9861445e-08 9.214981e-08
3.631866e-08 4.340561e-10 5.0830906e-08 7.87911e-08 2.6290206e-07 2.6510364e-07 2.4050773e-06 2.7473795e-06
1.3974812e-07 5.909075e-07 2.2094584e-06 2.5748454e-06 4.196862e-07 1.1571252e-07 2.3008686e-06 2.8141574e-06
7.010602e-08 5.583438e-07 2.29423e-06 2.571196e-06 3.962564e-07 4.4580794e-08 2.4158114e-06 2.9061775e-06
2.173647e-08 4.0060396e-08 2.886614e-06 3.0433282e-06 3.602176e-07 1.7134841e-08 2.4588749e-06 2.9182033e-06
6.0508403e-09 2.5169115e-08 2.908122e-06 3.0545054e-06 5.645091e-07 7.285822e-09 2.1876301e-06 2.9018502e-06
9.625238e-08 4.806449e-08 4.496816e-07 5.264839e-07 7.578888e-08 5.6514036e-08 4.5817916e-07 5.3732003e-07
1.2026267e-07 4.4792852e-08 4.1753822e-07 5.1868335e-07 5.26926e-08 6.078341e-08 4.6180872e-07 5.3101354e-07
1.2620978e-07 1.996319e-08 4.370385e-07 5.5082694e-07 1.8504588e-08 1.9634583e-09 5.80504e-07 6.095143e-07
1.2399909e-07 1.0215151e-08 4.483734e-07 5.545268e-07 2.4338431e-09 1.089365e-09 5.9651126e-07 6.1566163e-07
1.553452e-07 2.4007931e-09 4.116898e-07 5.651704e-07 2.0710732e-07 2.5969567e-07 2.022917e-06 2.2603717e-06

exp_avg f4 [128]
00000000: 6c4d dfb9 0575 aab7 d6c4 9fb6 068f 4639
00000010: d9fe 2e37 6f9d 56b9 9196 5838 4913 6fb8
00000020: 0219 1bb9 8364 7fb9 15db 72b7 3c0f 33b8
00000030: 4bdb 9538 17ed 5b39 e875 a337 aa60 b5b8
00000040: 9913 8ab9 2a0c f8b9 6668 0738 dd08 50b9
00000050: a0d0 27b8 0e3c aeb7 14d1 8339 8065 b5b7
00000060: d4cc a8b7 04ef 38b9 055e 04ba f8a2 e6b9
00000070: 2f2d 9b38 cde2 ca37 8a5b 0aba 8f60 bcb7
00000080: 4930 dc38 90f9 3bb9 3291 a637 94b7 be39
00000090: 9ad3 8139 952f bab9 0f26 8939 8f31 7e38
000000a0: 4f5d 8939 bdeb f8b8 1d3c 04b9 0d99 8237
000000b0: d655 9639 3966 3c38 a3cb 8cb8 ef0d 3e39
000000c0: 3730 b738 f4c0 e5b8 9119 3e39 bc8d 63b9
000000d0: c2f0 6239 316d 07ba bb79 c7b6 0ba9 0bb9
000000e0: 65cf 8538 19b8 5cb9 63bf 6838 07f3 a2b9
000000f0: aaca a139 324d 13ba 2e96 8139 6a28 3139
00000100: a8f5 e5b8 dfe7 b838 3b9f 6339 341a 60b7
00000110: df32 65b9 7bb3 26b7 8704 28b6 3029 2339
00000120: e51a be36 30d0 37b7 8c1e ca38 05fc f839
00000130: f0ee dab9 d8b1 2a39 210c 17b9 85e8 6139
00000140: 51c8 043a 62a2 a738 0937 f3b8 f4ac 17b9
00000150: ebfe 8739 5385 51b9 bb35 a339 567f 7a38
00000160: dbea 7fb8 7af3 45b9 8dcf 21b7 59ea 4f39
00000170: 5318 cdb9 965d 39b9 29d4 28b8 ab7d 31b9
00000180: 59ec 5838 9c16 5c39 4219 8039 248c 80b9
00000190: 56cf 59b6 e799 a938 98a5 9bb9 3ef8 0739
000001a0: 56bf 6db9 7a36 4438 ce0e bf37 ba69 deb9
000001b0: 8aa7 ba38 89e8 a336 965c 0fb9 5e00 cf39
000001c0: 1dbe 59b9 069e acb8 625b 7c39 f14e b7b9
000001d0: d1a6 8539 07dd 08ba 662d 3238 99a4 67b9
000001e0: 142d c8b8 bdcc 6039 72fa 4db7 a1ff dc38
000001f0: 2b23 c338 1088 77b7 e1f1 a4b9 9087 5939
-0.00042591558 -2.032007e-05 -4.761484e-06 0.00018936032 1.04305445e-05 -0.00020467279 5.163864e-05 -5.7e-05
-0.00014791268 -0.00024356139 -1.4475333e-05 -4.2691114e-05 7.14572e-05 0.0002097379 1.9486019e-05 -8.648758e-05
-0.00026336013 -0.0004731131 3.2283737e-05 -0.00019839728 -4.00102e-05 -2.0770382e-05 0.00025142042 -2.1624146e-05
-2.0122541e-05 -0.00017636648 -0.00050494104 -0.0004399044 7.399392e-05 2.4185889e-05 -0.00052779226 -2.245631e-05
0.00010499411 -0.00017926679 1.9856354e-05 0.000363764 0.00024762453 -0.00035512136 0.00026159032 6.0604474e-05
0.00026200197 -0.00011869471 -0.00012610895 1.5568477e-05 0.00028674182 4.4917895e-05 -6.7136505e-05 0.00018125003
8.735101e-05 -0.00010955511 0.00018129336 -0.00021701207 0.00021642729 -0.0005166112 -5.9448334e-06 -0.00013319046
6.3805644e-05 -0.00021049417 5.5491353e-05 -0.00031080117 0.0003085931 -0.0005619108 0.0002471669 0.00016895091
-0.00010965328 8.816993e-05 0.00021707725 -1.3357541e-05 -0.00021858093 -9.93616e-06 -2.5036586e-06 0.00015560235
5.665572e-06 -1.0956122e-05 9.6378004e-05 0.00047490015 -0.00041758223 0.00016278715 -0.00014405 0.00021544292
0.000506525 7.993427e-05 -0.00011597394 -0.00014464912 0.00025939135 -0.0001998146 0.00031129815 5.9723236e-05
-6.1015464e-05 -0.00018878086 -9.644672e-06 0.0001982836 -0.0003911877 -0.00017677838 -4.025191e-05 -0.0001692685
5.171853e-05 0.00020989258 0.0002443288 -0.00024518475 -3.2456205e-06 8.0872145e-05 -0.0002968728 0.0001296708
-0.0002267336 4.6780777e-05 2.2775868e-05 -0.00042421912 8.900378e-05 4.884849e-06 -0.00013672034 0.0003948239
-0.00020765555 -8.231033e-05 0.00024066636 -0.00034963296 0.00025492025 -0.0005220924 4.2480788e-05 -0.00022091194
-9.5451396e-05 0.00021438576 -1.22772635e-05 0.00010538032 9.304875e-05 -1.4754027e-05 -0.0003146073 0.00020745234

exp_avg_sq f4 [128]
00000000: 5bba 2936 f664 0b32 a982 c333 d011 a636
00000010: cd84 c933 150e 5236 8798 2735 d21a 2b36
00000020: 18a2 2a35 3f9d 5235 9c74 0c31 d99a 1435
00000030: f787 8534 5584 a035 a69a 4636 9a2b 9d34
00000040: 5839 8c35 d9dc 1837 d35d 0c34 593c 4435
00000050: 34d8 c235 ecf0 1933 ec14 f735 c21a c433
00000060: 6de6 3936 f87e 1436 63b0 3236 43ff a436
00000070: a4c3 1334 e0af cc35 95bb ac36 dc2d 2531
00000080: c6ae 3c34 a42b f435 e9b3 e032 0651 c036
00000090: 5b14 8d36 3a2f d136 3f92 d835 3cd0 6335
000000a0: df46 ca36 3586 8a34 b1bc 1a36 76a7 9a32
000000b0: 8377 e136 e178 c334 4999 fd35 eeaa d635
000000c0: 4ed4 0e36 d9fb 4735 0071 3235 4e99 0537
000000d0: 1f0d 7336 3f88 3236 9590 4932 a86d c833
000000e0: 52ea 2e35 e697 7435 793f cf34 d68f 3336
000000f0: 2972 ff35 fb9a 8f36 d0a7 ee36 08fd 7c35
00000100: 015d 2034 2c09 3c36 cb09 a035 1913 8e32
00000110: a858 b435 1327 d431 3b84 c231 cd03 4535
00000120: 2868 c331 2fbe 6431 d2a7 4735 7498 b336
00000130: 2455 1c36 d327 1436 2ce5 f934 1985 7b36
00000140: dc86 fe36 09f1 3a36 b464 a135 b642 8834
00000150: 17bd a436 06c4 f635 cd1f b136 8ca7 d834
00000160: ce44 cd34 f817 6535 d556 8330 09b3 0436
00000170: bbc9 9936 6f48 9b35 5940 7935 6de6 0c36
00000180: 81f8 0234 0d47 4136 25c6 1f36 d6f6 b335
00000190: 260c 6d36 2b03 4635 3356 6c35 242b 0436
000001a0: db04 0236 2ec2 e734 3302 8433 7d99 8236
000001b0: 38f7 1733 dea8 0735 4c8b c536 2105 8436
000001c0: 5071 a036 7a1b e635 429e 6b36 d534 7836
000001d0: a932 7736 f0ba 8736 cac7 a035 3b3c a035
000001e0: 3c34 c733 bf56 aa35 66e3 2531 e596 4d35
000001f0: 9a8f 9d34 7b1d 1135 52b0 e035 2c13 af35
2.5291436e-06 8.113821e-09 9.104162e-08 4.949259e-06 9.383948e-08 3.1300635e-06 6.2434304e-07 2.5496597e-06
6.356581e-07 7.845992e-07 2.0438966e-09 5.535963e-07 2.4872108e-07 1.1959443e-06 2.9594316e-06 2.9275253e-07
1.0447502e-06 9.111326e-06 1.3072649e-07 7.310351e-07 1.451705e-06 3.5842206e-08 1.8409023e-06 9.1318284e-08
2.7701274e-06 2.2127624e-06 2.6626738e-06 4.9172972e-06 1.3761615e-07 1.5250371e-06 5.147837e-06 2.4036728e-09
1.7572447e-07 1.8192118e-06 2.6158846e-08 5.7314783e-06 4.204497e-06 6.2341833e-06 1.6135817e-06 8.486711e-07
6.0283196e-06 2.5802152e-07 2.305762e-06 1.8004112e-08 6.7194355e-06 3.640953e-07 1.8894581e-06 1.599399e-06
2.1283226e-06 7.4499764e-07 6.6474604e-07 7.963112e-06 3.621746e-06 2.6603373e-06 1.1732614e-08 9.333172e-08
6.516103e-07 9.1118125e-07 3.8602937e-07 2.6756802e-06 1.9032206e-06 4.279774e-06 7.1124887e-06 9.4245524e-07
1.4934996e-07 2.8019522e-06 1.1923779e-06 1.653966e-08 1.3436847e-06 6.1744543e-09 5.661176e-09 7.339375e-07
5.687088e-09 3.3286474e-09 7.437749e-07 5.3523636e-06 2.329537e-06 2.20769e-06 4.654661e-07 3.7479388e-06
7.5854896e-06 2.785646e-06 1.2024743e-06 2.5380513e-07 4.909594e-06 1.8385479e-06 5.278713e-06 4.0355042e-07
3.8234288e-07 8.5344027e-07 9.556184e-10 1.9773745e-06 4.58324e-06 1.1569481e-06 9.2853367e-07 2.099575e-06
1.2197599e-07 2.8800598e-06 2.3808182e-06 1.3408378e-06 3.5322823e-06 7.376536e-07 8.804229e-07 1.9694644e-06
1.9374336e-06 4.3168387e-07 6.147129e-08 3.8921703e-06 3.538227e-08 5.0537153e-07 5.887274e-06 3.9345036e-06
4.781563e-06 1.7144332e-06 3.5109847e-06 3.6985632e-06 3.6835356e-06 4.045076e-06 1.1979075e-06 1.1938458e-06
9.276161e-08 1.2691233e-06 2.4139921e-09 7.658803e-07 2.9348013e-07 5.405961e-07 1.6740617e-06 1.3044096e-06
