results/carNearWallBonusAgent/CarFindGoal/CarFindGoal-9999988.onnx (onnx, 88006 bytes, 7 tensors)

network_body._body_endoder.seq_layers.0.weight f4 [128, 36]
0.17275599 -0.15382688 -0.22415009 0.059034612 0.19941191 0.121726684 -0.12369403 -0.05940732
-0.25887454 -0.40831962 0.11879566 0.03803407 -0.11262462 0.07073971 0.221115 0.12729715
-0.4876409 -0.14046149 0.10695289 0.28850764 -0.21921182 -0.0012377076 -0.25168958 -0.06496455
-0.2998435 -0.036124934 0.5492542 -0.27349597 0.0849839 0.039066657 0.0319937 0.07731957
-0.41092902 -0.25366673 -0.2013514 -0.13425517 0.05275368 0.06010571 0.09626107 0.3060404
-0.20808065 -0.11036098 0.37184116 0.34241557 0.014293243 -0.06782494 -0.09532205 0.0406167
0.10074275 -0.03639544 0.22869979 0.016510176 0.010896181 0.15352787 -0.15685827 -0.2796264
-0.3108841 -0.11718974 -0.21397758 0.12828195 0.3030225 0.0184435 -0.3344089 -0.11550716
-0.09927099 0.14491536 -0.54757476 -0.32075042 -0.44906753 0.13970819 0.33725107 0.29395148
0.091429286 -0.39998806 0.095697545 0.22776276 0.06773634 -0.5896751 0.081789784 0.36260387
-0.012910151 -0.21018334 0.27322775 -0.060576808 0.07472516 -0.24723464 0.01691486 0.024148548
0.13674557 0.033580936 -0.12333446 0.06725714 0.09277535 -0.16792002 0.057233322 -0.2778584
-0.103177875 -0.082191885 0.06597467 0.09479089 0.07611573 0.12216011 0.019315481 0.11716971
0.1635363 -0.033605203 -0.36749703 -0.3587713 0.4702123 0.25567243 0.12608193 -0.1896217
0.15655354 0.10272684 0.50737107 -0.007468464 0.078527525 -0.1550157 -0.0681666 0.16672455
-0.13048871 0.09075326 -0.037998777 0.1512206 -0.05899277 -0.27153775 -0.016449606 -0.12867257
-0.13921799 0.23618542 0.071807615 -0.056041747 -0.07663338 -0.20155396 -0.23786859 0.020293213
-0.22225904 0.20443898 0.04940032 0.20748928 0.085044175 -0.48877558 0.13964915 0.008017483
0.058485262 0.2809696 0.04707395 -0.12452715 0.0751922 -0.097185634 0.24840985 -0.13146204
-0.11934363 0.102372594 0.078601815 -0.06929614 0.07292878 -0.26818687 -0.042013224 0.13567142
0.18340074 0.33957684 -0.012825915 0.30293176 0.14129858 0.025180573 0.13188493 -0.00865066
0.037133068 -0.03898183 0.1592047 0.04540526 0.029075336 -0.09909024 0.2924299 -0.16034257
-0.15711406 0.010860381 -0.064550035 0.043261815 0.195921 -0.09562441 0.28872612 -0.29851198
0.4210402 -0.04475228 0.1266335 -0.13433918 -0.12466868 -0.09769495 0.075357124 -0.102765724
0.096614346 -0.4038994 -0.04598684 -0.10928445 -0.07579114 0.54010177 0.020472554 0.10070549
-0.062768504 -0.07137192 0.1512088 -0.026553959 -0.041649017 0.0625193 0.37372327 -0.28458956
0.022508305 -0.076426946 -0.009126451 0.115038544 0.18418482 -0.06433034 -0.16363351 -0.12361084
-0.10051119 -0.11676879 -0.34509552 -0.0038333256 0.127957 0.15231916 -0.1817897 0.16861911
0.26052782 -0.07566637 0.15609708 -0.24969365 -0.0068769706 -0.07748086 -0.16851975 -0.24905983
-0.08658561 -0.0145899 0.1920916 -0.08929877 -0.07048838 0.012915681 -0.0362551 0.08240128
-0.10450606 0.17678598 -0.0074665677 -0.3455913 0.04533335 0.1332816 0.13623162 0.23527883
-0.16662791 0.084044494 0.059956267 -0.23264271 -0.14649391 -0.38146892 -0.23539864 0.28842148
00000000: f2e6 303e cb84 1dbe 9a87 65be 47ce 713d
00000010: a332 4c3e d74b f93d 4c53 fdbd 1755 73bd
00000020: 348b 84be 450f d1be 244b f33d 9dc9 1b3d
00000030: bda7 e6bd fbdf 903d f86b 623e 2f5a 023e
00000040: 11ac f9be 23d5 0fbe 1e0a db3d 46b7 933e
00000050: 1079 60be 933a a2ba 75dd 80be 220c 85bd
00000060: 1685 99be bdf7 13bd ec9b 0c3f aa07 8cbe
00000070: 0a0c ae3d 5c04 203d d30b 033d b959 9e3d
00000080: 4a65 d2be 9be0 81be 102f 4ebe 307a 09be
00000090: 3e14 583d 6831 763d 8624 c53d 54b1 9c3e
000000a0: 1813 55be f004 e2bd f761 be3e 1851 af3e
000000b0: 352e 6a3c cde7 8abd 3538 c3bd b25d 263d
000000c0: 3752 ce3d 6313 15bd 4730 6a3e 5940 873c
000000d0: e585 323c 6936 1d3e 749f 20be 312b 8fbe
000000e0: 332c 9fbe 2d01 f0bd f01c 5bbe 585c 033e
000000f0: c425 9b3e d316 973c a537 abbe 058f ecbd
00000100: 974e cbbd b164 143e dc2d 0cbf 6639 a4be
00000110: 2eec e5be aa0f 0f3e 2cac ac3e cf80 963e
00000120: 473f bb3d 3ccb ccbe 13fd c33d a43a 693e
00000130: 5ab9 8a3d f3f4 16bf 6781 a73d 37a7 b93e
00000140: 1985 53bc 4d3a 57be 82e4 8b3e 631f 78bd
00000150: 8109 993d 142b 7dbe 0891 8a3c 2dd3 c53c
00000160: 0807 0c3e 2a8c 093d c796 fcbd 1dbe 893d
00000170: 0101 be3d 3af3 2bbe 7d6d 6a3d 7543 8ebe
00000180: ec4e d3bd 3854 a8bd ba1d 873d ba21 c23d
00000190: 90e2 9b3d 142f fa3d 803b 9e3c acf6 ef3d
000001a0: 0f76 273e 9ca5 09bd 9228 bcbe dfb0 b7be
000001b0: abbf f03e 7fe7 823e 9f1b 013e 312c 42be
000001c0: 924f 203e 7362 d23d 12e3 013f 04ba f4bb
000001d0: 0ad3 a03d 70bc 1ebe ee9a 8bbd d7b9 2a3e
000001e0: d59e 05be d8dc b93d 9ba4 1bbd 93d9 1a3e
000001f0: 67a2 71bd ff06 8bbe 53c1 86bc bec2 03be
00000200: 298f 0ebe 97da 713e df0f 933d 088c 65bd
00000210: f6f1 9cbd 2964 4ebe d393 73be f43d a63c
00000220: e097 63be 7458 513e fd57 4a3d 1278 543e
00000230: a42b ae3d cb40 fabe 3000 0f3e c35b 033c
00000240: 3e8e 6f3d 3fdb 8f3e 9dd0 403d 1708 ffbd
00000250: 5efe 993d 4309 c7bd 275f 7e3e fc9d 06be
00000260: 6f6a f4bd b9a8 d13d fdf9 a03d 22eb 8dbd
00000270: af5b 953d ca4f 89be 0f16 2cbd 73ed 0a3e
00000280: 67cd 3b3e 04dd ad3e c923 52bc df19 9b3e
00000290: 93b0 103e 7d47 ce3c d80c 073e 7fbb 0dbc
000002a0: d818 183d 69ab 1fbd 8f06 233e defa 393d
000002b0: 662f ee3c d3ef cabd 5fb9 953e d830 24be
000002c0: 82e2 20be bdef 313c cf32 84bd 4d33 313d
000002d0: 849f 483e bbd6 c3bd e9d3 933e 90d6 98be
000002e0: 9592 d73e 2b4e 37bd 36ac 013e 3690 09be
000002f0: 4b52 ffbd 4a14 c8bd d654 9a3d d676 d2bd
00000300: bedd c53d e7cb cebe b25c 3cbd 87d0 dfbd
00000310: 6338 9bbd 1c44 0a3f 0fb6 a73c ae3e ce3d
00000320: c68c 80bd 712b 92bd 7bd6 1a3e b087 d9bc
00000330: 2998 2abd 1e0a 803d a858 bf3e b9b5 91be
00000340: 5663 b83c bb85 9cbd 1c87 15bc 5499 eb3d
00000350: f29a 3c3e a0bf 83bd 8b8f 27be ae27 fdbd
00000360: d0d8 cdbd 7a24 efbd 5cb0 b0be 8838 7bbb
00000370: 2907 033e 8ef9 1b3e 1427 3abe 7daa 2c3e
00000380: e763 853e f8f6 9abd ead7 1f3e b1af 7fbe
00000390: 3658 e1bb 49ae 9ebd 7190 2cbe 8a09 7fbe
000003a0: cc53 b1bd 7a0a 6fbc a9b3 443e 46e2 b6bd
000003b0: 365c 90bd 4b9c 533c 3a80 14bd 01c2 a83d
000003c0: 4607 d6bd 6207 353e 1caa f4bb 58f1 b0be
000003d0: 76af 393d f97a 083e 4d80 0b3e efec 703e
000003e0: 82a0 2abe 851f ac3d b494 753d e439 6ebe
000003f0: 8002 16be e54f c3be 570c 71be fbab 933e

network_body._body_endoder.seq_layers.0.bias f4 [128]
-0.07226132 -0.0151213575 -0.036760338 0.09025736 0.00061675406 -0.0053663896 -0.06240684 0.00021660535
-0.028268024 -0.013561199 0.01819823 0.043325912 0.00903692 -0.008112967 0.026428683 0.09562314
0.1056968 0.012237256 0.044301607 0.030748991 0.021276727 -0.028891107 0.018121876 0.033848047
-0.00022144635 -0.0049297167 0.010897439 0.08142542 0.005124814 0.017282825 0.013430727 0.006314869
0.033626925 -0.0149515765 0.084300816 0.048635833 0.06600112 -0.047074467 -0.015518814 -0.005337973
0.035057243 0.008086532 -0.0036375402 0.028837677 0.0024260283 -0.015067008 -0.0054226336 -0.022442501
-0.010090404 -0.007763548 0.033919312 0.024115594 0.024951834 0.02763113 0.039152797 0.017412834
0.03605184 0.026078617 -0.029199533 -0.012784445 0.048387308 0.12386085 0.017489567 0.007920515
0.054351076 -0.0345572 0.061547175 0.054695148 0.04270893 0.07232375 0.08155525 0.065601625
-0.003998296 0.017766016 0.037667945 0.0637644 0.0016406057 0.01548427 0.00172291 -0.034779187
0.0013434292 0.07553588 0.026121 -0.06449636 0.026503166 0.10539512 0.029707575 0.071918614
0.00042370192 0.024696972 0.017660368 0.017808586 -0.03280652 -0.01743871 0.06449232 0.022421662
0.040460583 0.009272585 0.0049247877 -0.016133897 0.017481757 -0.019436486 -0.010877564 0.038396377
0.019073298 0.0069715194 0.035085782 0.058356665 -1.3240566e-05 0.038384147 0.019904917 0.042054184
0.010006096 -0.009467485 0.03740309 0.0023760234 0.035412345 0.046910647 -0.03292835 0.0074129165
0.023191713 0.0010611638 0.052343722 -0.03932235 -0.040331367 -0.028738469 -0.028771166 0.0811448
00000000: befd 93bd 92bf 77bc 0292 16bd dad8 b83d
00000010: aaad 213a 8ad8 afbb 519e 7fbd 8e20 6339
00000020: 5892 e7bc cb2f 5ebc 7414 953c 8376 313d
00000030: 970f 143c 40ec 04bc f780 d83c 11d6 c33d
00000040: 9077 d83d c67e 483c 9a75 353d 4fe5 fb3c
00000050: 884c ae3c 0bad ecbc 5474 943c 40a4 0a3d
00000060: 0d34 68b9 7689 a1bb 2c8b 323c 5fc2 a63d
00000070: 0eee a73b b694 8d3c 8d0c 5c3c f6ec ce3b
00000080: 63bc 093d 75f7 74bc e8a5 ac3d 5e36 473d
00000090: 982b 873d 28d1 40bd a042 7ebc 2aea aebb
000000a0: 2f98 0f3d 607d 043c cc63 6ebb fe3c ec3c
000000b0: 00fe 1e3b 9ddb 76bc 59b0 b1bb 56d9 b7bc
000000c0: 3952 25bc 5c65 febb faee 0a3d 118e c53c
000000d0: ca67 cc3c ae5a e23c af5e 203d 5ca5 8e3c
000000e0: 18ab 133d d3a2 d53c dc33 efbc d975 51bc
000000f0: c531 463d c2aa fd3d 4846 8f3c 0cc5 013c
00000100: 3c9f 5e3d da8b 0dbd e418 7c3d 0508 603d
00000110: 8fef 2e3d 791e 943d 7006 a73d 255a 863d
00000120: 2304 83bb 098a 913c b449 1a3d e996 823d
00000130: 9809 d73a bcb1 7d3c 44d3 e13a 9f74 0ebd
00000140: 0116 b03a 8eb2 9a3d b5fb d53c ab16 84bd
00000150: 2b1d d93c 66d9 d73d 4d5d f33c 114a 933d
00000160: 4f24 de39 4e51 ca3c 7aac 903c 50e3 913c
00000170: 2160 06bd a0db 8ebc 8d14 843d a2ad b73c
00000180: ffb9 253d 0aec 173c 1d60 a13b 3c2b 84bc
00000190: e735 8f3c 4439 9fbc cf37 32bc 8545 1d3d
000001a0: 9b3f 9c3c 5871 e43b 1cb6 0f3d 6607 6f3d
000001b0: cc23 5eb7 b238 1d3d a30f a33c 0241 2c3d
000001c0: 9cf0 233c 831d 1bbc fc33 193d 0fb7 1b3b
000001d0: 890c 113d 6125 403d e1df 06bd 0de8 f23b
000001e0: 8cfc bd3c c016 8b3a 5f66 563d 7910 21bd
000001f0: 8132 25bd f06c ebbc 82b1 ebbc 3f2f a63d

network_body._body_endoder.seq_layers.2.weight f4 [128, 128]
-0.014851916 -0.013973524 -0.043513793 -0.047459774 -0.08030742 -0.065556884 -0.04843728 0.23828901
-0.034900185 -0.06526713 -0.016072804 -0.04480244 -0.028658677 0.021240927 -0.0058683855 -0.07860446
-0.2314628 0.0004612659 -0.06554622 -0.1155581 0.034573685 0.0860871 0.02594574 0.34073928
-0.00024142933 -0.083061464 0.078886695 -0.089786656 -0.046175584 -0.094287015 0.19147483 0.109911576
0.05377486 -0.08216847 -0.02285595 0.1048376 -0.093540855 -0.055262912 -0.01565733 0.1087205
0.012225605 -0.108181104 0.05562158 -0.092492856 0.04248028 0.015901618 -0.052514516 0.00016100255
0.064709164 0.08208241 0.090094246 -0.049390566 -0.039489485 -0.1532321 0.07080096 0.18995203
-0.04747587 0.054793406 0.1687617 0.08179376 -0.16081357 0.014051954 0.037002087 0.016085979
0.0266302 0.12399724 -0.025407651 -0.0021269007 -0.08596183 -0.11830037 -0.056404956 -0.11931846
-0.12757021 0.08503454 -0.11066427 -0.057773005 -0.08634354 0.04074169 0.08623726 -0.030510265
0.09980034 0.054359198 0.17758346 0.090313815 0.120378174 -0.0646989 -0.049993206 0.0883825
0.11691152 -0.025795233 -0.06376993 0.07461271 -0.14807472 -0.17862944 -0.01814951 -0.015592881
0.07777413 0.09264004 0.22417814 -0.041809257 0.046321906 -0.14754252 0.14437856 -0.044735774
0.028928975 0.07718307 0.041554645 0.0055399165 0.15363418 0.17412563 0.028034568 0.009314802
-0.0418564 0.15755834 0.10770503 0.10005557 0.10080956 0.10196321 -0.031804197 0.1894517
0.022102913 0.08468315 0.16054983 -0.017825894 0.1374939 -0.10078114 0.1924538 0.011036434
-0.07022283 0.08104735 -0.04845985 0.19858685 0.036264416 -0.15118638 0.020258622 -0.10028524
0.07025638 -0.081866205 -0.05582478 -0.06932089 0.083818994 0.02926853 -0.16045816 0.2573125
-0.1493236 -0.020274658 -0.017718932 -0.018337272 0.021060258 -0.013858483 -0.17506287 0.019155666
0.02518609 -0.01852974 -0.13928057 0.10668511 -0.062316254 0.12275366 -0.14108674 -0.17570078
-0.008921454 -0.041258115 0.15316142 -0.08106919 0.16325508 -0.08931734 -0.08907739 -0.023485754
-0.07521658 -0.010441714 -0.028945928 0.15576978 -0.05713368 0.08122371 -0.07224962 -0.021845277
-0.16203596 -0.0076512955 0.20716651 -0.010122217 0.0051073227 0.08590557 0.036375668 -0.15983535
0.021211497 0.1465959 0.010967735 0.10599127 0.1548092 0.060480613 0.046936665 -0.0046881023
-0.12357625 0.008290583 0.16170345 -0.05125472 -0.0015297355 0.057902344 -0.03246372 -0.088895544
-0.19100031 0.20404685 -0.032964125 0.09656244 -0.036989734 0.28752112 0.15396406 0.16534765
0.08478495 -0.16174747 0.13129076 0.01842021 0.19509822 -0.074651465 -0.07270987 0.10521255
0.02919345 0.09834533 0.03161559 -0.080121726 0.027213247 -0.046446554 0.12032247 -0.07072866
0.05078128 0.096042424 0.17911959 0.07219518 0.112260975 -0.117356524 0.0055156876 0.19990672
-0.043148458 0.033448506 -0.028673576 0.028682362 0.17123976 0.0015786398 0.09698587 -0.1647374
-0.051516294 -0.012312755 -0.063117445 0.070304595 0.10698777 -0.069421 -0.03645304 0.051539704
-0.006211738 0.09627265 -0.10540556 -0.042789087 0.108314216 0.14090216 -0.02464589 0.098204926
00000000: 7355 73bc 35f1 64bc 853b 32bd 2e65 42bd
00000010: 3778 a4bd b042 86bd 2b66 46bd 0902 743e
00000020: 7ff3 0ebd c6aa 85bd 1dab 83bc c382 37bd
00000030: 9ac5 eabc 7401 ae3c 964b c0bb 60fb a0bd
00000040: 9604 6dbe 10d6 f139 193d 86bd baa9 ecbd
00000050: 239d 0d3d 6f4e b03d 298c d43c 6175 ae3e
00000060: 3128 7db9 211c aabd 598f a13d 11e2 b7bd
00000070: 9c22 3dbd 8d19 c1bd fa11 443e 5219 e13d
00000080: 0743 5c3d f147 a8bd 673c bbbc 18b5 d63d
00000090: 5992 bfbd 5d5b 62bd cd43 80bc daa8 de3d
000000a0: e74d 483c 0e8e ddbd 74d3 633d e56c bdbd
000000b0: cdff 2d3d 1c44 823c 7619 57bd cbd2 2839
000000c0: 3d86 843d d31a a83d 5583 b83d c34d 4abd
000000d0: babf 21bd e0e8 1cbe 1800 913d c982 423e
000000e0: 0f76 42bd 0d6f 603d decf 2c3e 7d83 a73d
000000f0: 50ac 24be 2b3a 663c 808f 173d bec6 833c
00000100: 9427 da3c 44f2 fd3d b523 d0bc 7963 0bbb
00000110: c20c b0bd 7747 f2bd e208 67bd 3d5d f4bd
00000120: c4a1 02be 9726 ae3d f3a3 e2bd 63a3 6cbd
00000130: e2d4 b0bd c2e0 263d 299d b03d aaf0 f9bc
00000140: 1f64 cc3d c0a7 5e3d 70d8 353e 73f6 b83d
00000150: d588 f63d db80 84bd adc5 4cbd e201 b53d
00000160: 4f6f ef3d 8650 d3bc cf99 82bd 8cce 983d
00000170: e6a0 17be a3ea 36be 48ae 94bc 4879 7fbc
00000180: 0b48 9f3d 10ba bd3d f48e 653e 2f40 2bbd
00000190: 0abc 3d3d 6315 17be f9d7 133e dc3c 37bd
000001a0: 75fc ec3c 2812 9e3d 3435 2a3d 3088 b53b
000001b0: 4752 1d3e fd4d 323e c0a8 e53c 1c9d 183c
000001c0: 9e71 2bbd f956 213e 7494 dc3d efe9 cc3d
000001d0: 3e75 ce3d 16d2 d03d 1e45 02bd a0ff 413e
000001e0: 2b11 b53c 5c6e ad3d 2d67 243e 9c07 92bc
000001f0: 33cb 0c3e 5866 cebd 9c12 453e 29d2 343c
00000200: fdd0 8fbd 27fc a53d d67d 46bd 5a5a 4b3e
00000210: ff89 143d 9ad0 1abe 69f5 a53c 5962 cdbd
00000220: 94e2 8f3d 78a9 a7bd 86a8 64bd 1cf8 8dbd
00000230: 4ba9 ab3d 8ec4 ef3c 254f 24be 77be 833e
00000240: 49e8 18be 0a17 a6bc 4b27 91bc 0c38 96bc
00000250: 9086 ac3c b10e 63bc ae43 33be 58ec 9c3c
00000260: 0f53 ce3c aecb 97bc 919f 0ebe b97d da3d
00000270: 543f 7fbd 4566 fb3d 0b79 10be e8ea 33be
00000280: 4a2b 12bc 45fe 28bd 59d6 1c3e 9a07 a6bd
00000290: 572c 273e 02ec b6bd 356e b6bd 3265 c0bc
000002a0: 260b 9abd b913 2bbc 0320 edbc 1d82 1f3e
000002b0: 0105 6abd 9e58 a63d 9cf7 93bd def4 b2bc
000002c0: c1ec 25be b8b7 fabb 7523 543e a8d7 25bc
000002d0: 545b a73b 42ef af3d a7fe 143d e1ab 23be
000002e0: bcc3 ad3c 3c1d 163e 04b2 333c f311 d93d
000002f0: 4e86 1e3e 85ba 773d a940 403d a79e 99bb
00000300: 8c15 fdbd 3ad5 073c 9795 253e 78f0 51bd
00000310: 6881 c8ba 022b 6d3d adf8 04bd de0e b6bd
00000320: 9695 43be a8f1 503e 6405 07bd 87c2 c53d
00000330: 8c82 17bd f835 933e c1a8 1d3e e550 293e
00000340: bba3 ad3d 21a1 25be 1671 063e fbe5 963c
00000350: d4c7 473e dee2 98bd eae8 94bd ad79 d73d
00000360: 1a27 ef3c 4769 c93d 597f 013d dc16 a4bd
00000370: 51ee de3c be3e 3ebd a16b f63d 30da 90bd
00000380: 0800 503d e4b1 c43d 206b 373e 11db 933d
00000390: 15e9 e53d 9e58 f0bd f1bc b43b 59b4 4c3e
000003a0: 70bc 30bd 4d01 093d d9e4 eabc 46f7 ea3c
000003b0: 7a59 2f3e 5dea ce3a 87a0 c63d ecb0 28be
000003c0: c002 53bd 70bb 49bc b843 81bd dbfb 8f3d
000003d0: 671c db3d 992c 8ebd c84f 15bd 4c1b 533d
000003e0: d68b cbbb 982a c53d dfde d7bd 9c43 2fbd
000003f0: d8d3 dd3d a848 103e 2de6 c9bc aa1f c93d

network_body._body_endoder.seq_layers.2.bias f4 [128]
-0.023166228 0.046768077 0.0046509816 0.06108304 0.0321447 0.053393506 0.022478778 -0.027377764
0.077030055 0.02790302 0.00094969623 0.040371526 0.03672636 0.00069634145 0.031821933 0.015160373
0.06415378 0.049598992 0.046982307 0.046764024 0.07719712 -0.021000464 0.038838807 0.0340961
-0.001620984 0.015700638 -0.0041569746 0.061915334 0.047397338 0.0023634785 0.01637117 0.02474138
0.038791694 0.018795088 0.003322392 0.027266532 -0.0012853737 -0.013120398 -0.006778175 0.010798501
-0.0038269209 0.010718554 0.014648098 0.006614274 0.061419856 0.075190604 0.015210092 0.025830623
0.050931837 -0.030756887 0.04008557 0.04463768 0.03442067 0.054999255 -0.0010994456 0.00032766938
0.0713209 0.014571284 0.037594024 -0.011498203 0.033142105 -0.0010189468 0.009216578 -0.008291886
0.008219414 0.0013785476 0.034853376 -0.024154726 0.00515868 -0.020567412 0.004689511 0.0075195027
0.08031354 -0.010416146 0.066156454 -0.009657548 -0.01867969 0.011889535 0.08751248 0.039970424
-0.010114887 0.0040314225 0.012219393 0.026803352 0.048479933 -0.014183417 0.015646858 -0.02950292
0.007892727 0.09900306 0.026462076 -0.0055349804 0.020248253 0.020161094 0.019338133 0.07026362
-0.010555781 0.03277851 -0.006479457 0.06447083 -0.014293073 0.03764009 0.02251093 0.06219631
0.030696334 0.017385576 0.052253395 0.033353098 0.010127148 0.030899813 0.017576516 -0.0151672
-0.013980843 0.009411494 0.0560909 -0.011187587 0.06573224 -0.0034323055 0.04703282 0.06282256
0.048166458 0.029561568 0.037086528 0.089917965 0.012283548 0.05400076 0.014432601 0.093238935
00000000: 1ac7 bdbc e28f 3f3d 4367 983b 3632 7a3d
00000010: 29aa 033d 26b3 5a3d 6a25 b83c 5547 e0bc
00000020: efc1 9d3d e094 e43c 09f5 783a 9d5c 253d
00000030: 616e 163d af8a 363a b757 023d 3763 783c
00000040: 0f63 833d 5028 4b3d 8570 403d a28b 3f3d
00000050: 8619 9e3d 2a09 acbc 7115 1f3d 5aa8 0b3d
00000060: 3377 d4ba a09e 803c 3b37 88bb ef9a 7d3d
00000070: b623 423d 97e4 1a3b d51c 863c 6fae ca3c
00000080: 0ae4 1e3d 28f8 993c 7dbc 593b 105e df3c
00000090: fc79 a8ba f0f6 56bc 741b debb 32ec 303c
000000a0: 14cd 7abb e09c 2f3c 93fe 6f3c 8dbc d83b
000000b0: 6393 7b3d 88fd 993d c033 793c be9a d33c
000000c0: e79d 503d def5 fbbc c430 243d 00d6 363d
000000d0: b0fc 0c3d e646 613d 461b 90ba 0acb ab39
000000e0: b110 923d 65bc 6e3c 31fc 193d f562 3cbc
000000f0: 04c0 073d 2e8e 85ba 2101 173c b1da 07bc
00000100: b9aa 063c 62b0 b43a 6ac2 0e3d 22e0 c5bc
00000110: 250a a93b fd7c a8bc 78aa 993b 2966 f63b
00000120: 6d7b a43d 7ca8 2abc 097d 873d b13a 1ebc
00000130: 2606 99bc 53cc 423c be39 b33d 07b8 233d
00000140: e9b8 25bc 061a 843b d933 483c b492 db3c
00000150: e592 463d 9061 68bc d72d 803c 1cb0 f1bc
00000160: 7f50 013c 1ec2 ca3d ffc6 d83c c85e b5bb
00000170: aadf a53c e128 a53c 016b 9e3c 5fe6 8f3d
00000180: 28f2 2cbc c242 063d a051 d4bb 4809 843d
00000190: 7e2d 6abc 7f2c 1a3d d868 b83c 8fc1 7e3d
000001a0: e176 fb3c 326c 8e3c a807 563d 429d 083d
000001b0: 56ec 253c 9b21 fd3c a0fc 8f3c d97f 78bc
000001c0: e80f 65bc ab32 1a3c 92bf 653d 244c 37bc
000001d0: a09e 863d 88f0 60bb 7ca5 403d 1da9 803d
000001e0: 314a 453d 1a2b f23c 0be8 173d e926 b83d
000001f0: ef40 493c e72f 5d3d b776 6c3c 0ef4 be3d

action_model._continuous_distribution.log_sigma f4 [1, 2]
0.17356218 -0.15354992
00000000: 49ba 313e 313c 1dbe

action_model._continuous_distribution.mu.weight f4 [2, 128]
-0.05285556 0.039594527 -0.11048668 0.050744254 0.03540009 0.10579293 -0.11808437 -0.080145836
0.101063125 0.0077651194 0.039689813 -0.04159201 0.005700917 -0.08767932 0.009817946 -0.022235326
0.114157446 0.0444095 0.045864884 0.076862924 0.104125425 -0.08127517 0.02521329 -0.023175007
-0.048203528 -0.14889018 -0.11917526 0.10446634 0.0050763856 -0.0354155 -0.05859555 0.0871129
0.010028351 0.054595727 -0.019710867 0.017463341 -0.092964016 -0.0034942832 0.0131297875 -0.061270535
-0.08068572 -0.08307646 -0.10126718 0.04054746 0.07417407 0.07918797 -0.029179757 -0.13934247
0.108618334 -0.12239115 0.09244165 0.07447952 0.10296445 0.047790833 -0.004792695 -0.009639093
0.11569238 0.055252425 0.06356198 0.015220078 -0.028183557 -0.08847472 -0.05207249 -0.14624085
0.049580526 -0.02612695 0.07299938 -0.09906834 -0.06189638 -0.043423478 -0.12243894 -0.13744363
0.115571186 -0.0027238156 0.07489898 -0.014626793 -0.012858362 0.008820373 0.09603212 0.028553216
-0.14202373 -0.0073237475 0.03673047 0.020437775 0.05570545 -0.09474022 -0.0054491097 -0.04266405
0.008208114 0.12228053 0.07686006 -0.12240863 0.070753485 0.0515526 0.06214681 0.107722625
-0.09589521 0.010762756 -0.14111891 0.074602805 0.04115345 0.039418492 -0.013434022 0.05604756
-0.038719643 -0.046216633 0.068098105 0.03647299 0.043153495 -0.016881641 -0.04833458 -0.10567673
-0.08153747 0.040539157 0.090305485 -0.11015426 0.10982598 -0.03160391 0.079407886 0.08200404
0.06287758 0.0015152284 0.021689538 0.124446206 -0.12247364 0.075288914 -0.044038538 0.1078069
-0.03300132 0.056409772 -0.072328754 0.03180672 0.09467563 -0.07289884 -0.042397264 0.034957454
0.012099175 0.10016567 0.07532026 0.09849493 0.10432988 0.04609096 0.07298123 0.0681772
-0.0022492008 0.0675875 0.10132269 0.004189089 -0.014432328 -0.0044392534 -0.11356404 0.05782676
-0.029908687 -0.0017329516 -0.0068733506 -0.08535473 0.06845598 0.07907432 0.08241493 -0.12636937
0.09943605 0.058928397 0.08735875 0.007368268 0.021512602 0.093187585 0.06996656 0.06723539
0.076763384 0.08464222 -0.05231741 -0.058064476 0.022432521 0.035779502 0.08536812 -0.05915207
-0.07950572 -0.012202078 -0.11290167 0.022960685 -0.06996964 0.065016456 0.07442338 0.11207122
0.020946424 -0.09495234 -0.004188575 0.10368838 -0.18109044 -0.04344802 0.12106028 0.015051325
0.101714544 0.08113196 -0.1568829 0.070846766 -0.11648229 -0.090647966 0.043320872 0.026472129
-0.05297179 0.06842698 0.050734486 0.052014057 -0.121403664 0.050511423 -0.086365916 0.07163792
0.03743466 0.12812401 0.057214398 0.051475905 0.038637646 -0.01623613 -0.14950833 -0.03758302
0.08351448 -0.05304496 -0.13533427 0.058694325 -0.14919887 -0.0718304 -0.06617602 -0.081906274
0.030624617 0.10284797 -0.00481111 0.07074869 0.08842116 0.034147497 0.13062865 0.06799344
0.166836 0.099998854 0.097585164 0.07774253 0.11324646 0.10711806 0.07608338 0.025330918
0.027313806 -0.16468254 -0.061392825 0.07035014 -0.042235177 0.080678 -0.07737989 0.07121167
0.03281087 0.0376202 0.11037281 -0.08108257 0.031284623 0.04287753 0.09959611 -0.007902232
00000000: 127f 58bd df2d 223d d746 e2bd 35d9 4f3d
00000010: afff 103d f7a9 d83d 38d6 f1bd 8023 a4bd
00000020: 2ffa ce3d 8b72 fe3b c991 223d 625c 2abd
00000030: c2ce ba3b 3791 b3bd 73db 203c dc26 b6bc
00000040: 61cb e93d bce6 353d d1dc 3b3d 4f6a 9d3d
00000050: b63f d53d 9973 a6bd 1a8c ce3c 83d9 bdbc
00000060: 1071 45bd ab76 18be 2912 f4bd 73f2 d53d
00000070: cf57 a63b d80f 11bd e301 70bd 4068 b23d
00000080: f44d 243c c59f 5f3d af78 a1bc 480f 8f3c
00000090: eb63 bebd 5800 65bb 521e 573c d0f6 7abd
000000a0: 8e3e a5bd fe23 aabd 2b65 cfbd 1815 263d
000000b0: 93e8 973d 4d2d a23d 630a efbc cbaf 0ebe
000000c0: 4a73 de3d 36a8 fabd 0c52 bd3d b888 983d
000000d0: 07df d23d 52c0 433d 0a0c 9dbb 49ed 1dbc
000000e0: 20f0 ec3d 5e50 623d c92c 823d a25d 793c
000000f0: 34e1 e6bc 3c32 b5bd f749 55bd 29c0 15be
00000100: f314 4b3d 2f08 d6bc b380 953d 58e4 cabd
00000110: 0f87 7dbd d1dc 31bd 44c1 fabd 06be 0cbe
00000120: 96b0 ec3d 0b82 32bb a364 993d 37a5 6fbc
00000130: e1ab 52bc 5383 103c 7dac c43d 6fe8 e93c
00000140: ab6e 11be 0cfc efbb b072 163d 1f6d a73c
00000150: 662b 643d 2907 c2bd 728e b2bb 80c0 2ebd
00000160: 537b 063c 376e fa3d cf68 9d3d 60b1 fabd
00000170: 34e7 903d d228 533d a78d 7e3d ae9d dc3d
00000180: b564 c4bd 4556 303c 7a81 10be 5bc9 983d
00000190: 8590 283d 4975 213d 5f1a 5cbc 2092 653d
000001a0: 7d98 1ebd a74d 3dbd 0577 8b3d b464 153d
000001b0: b8c1 303d 5e4b 8abc 7bfa 45bd 0b6d d8bd
000001c0: 1efd a6bd 630c 263d 15f2 b83d 8f98 e1bd
000001d0: 72ec e03d 1a73 01bd 9aa0 a23d bcf1 a73d
000001e0: f6c5 803d a19a c63a 42ae b13c a7dd fe3d
000001f0: 76d3 fabd 1331 9a3d c161 34bd ddc9 dc3d
00000200: 642c 07bd ef0d 673d 1921 94bd c347 023d
00000210: 4ce5 c13d fd4b 95bd c1a8 2dbd 8c2f 0f3d
00000220: 9e3b 463c a923 cd3d 8241 9a3d b6b7 c93d
00000230: e7aa d53d e0c9 3c3d 2f77 953d 7da0 8b3d
00000240: 5467 13bb 516b 8a3d 4582 cf3d a044 893b
00000250: 9275 6cbc 2877 91bb 4394 e8bd c1db 6c3d
00000260: 1003 f5bc 3524 e3ba d839 e1bb 76ce aebd
00000270: a632 8c3d b8f1 a13d 29c9 a83d f966 01be
00000280: 21a5 cb3d e75e 713d 25e9 b23d 8371 f13b
00000290: 323b b03c 22d9 be3d a14a 8f3d b5b2 893d
000002a0: 1f36 9d3d e658 ad3d c84a 56bd 04d5 6dbd
000002b0: 68c4 b73c 878d 123d 7bd5 ae3d 7149 72bd
000002c0: e5d3 a2bd 39eb 47bc fe38 e7bd 0c18 bc3c
000002d0: 3e4c 8fbd 5927 853d 496b 983d 9985 e53d
000002e0: d697 ab3c 5f76 c2bd 5040 89bb 935a d43d
000002f0: c66f 39be 8df6 31bd 74ee f73d d599 763c
00000300: b74f d03d 8328 a63d e9a5 20be 1c18 913d
00000310: 448e eebd a4a5 b9bd 3a71 313d 14dc d83c
00000320: f3f8 58bd 7223 8c3d f7ce 4f3d b10c 553d
00000330: 7ca2 f8bd 11e5 4e3d 9de0 b0bd e7b6 923d
00000340: 1655 193d f132 033e a559 6a3d 66d8 523d
00000350: 8242 1e3d a201 85bc b618 19be a7f0 19bd
00000360: a409 ab3d ac45 59bd 1195 0abe 7669 703d
00000370: 97c7 18be d11b 93bd 4b87 87bd 7abe a7bd
00000380: 7ae0 fa3c f5a1 d23d 84a6 9dbb b0e4 903d
00000390: 2716 b53d 3fde 0b3d 84c3 053e 2540 8b3d
000003a0: 0ed7 2a3e 33cc cc3d bbda c73d 7a37 9f3d
000003b0: c3ed e73d b760 db3d 9ad1 9b3d c982 cf3c
000003c0: 34c1 df3c 8aa2 28be 0b77 7bbd bc13 903d
000003d0: cbfe 2cbd 823a a53d 5979 9ebd 6dd7 913d
000003e0: b164 063d a417 1a3d 240b e23d 9e0e a6bd
000003f0: 4e24 003d 59a0 2f3d 0cf9 cb3d 5d78 01bc

action_model._continuous_distribution.mu.bias f4 [2]
0.06127577 -8.7616834e-05
00000000: 4dfc 7a3d eebe b7b8
