results/randomPositonAgent/CarFindGoal/CarFindGoal-1999992.pt (torch, 530875 bytes, 36 tensors)

network_body._body_endoder.seq_layers.0.weight f4 [128, 36]
00000000: 475c 9cbd 3205 b53d 73c4 15be 475a 013e
00000010: fd07 863d bb26 acbc 24e0 00be 9065 12be
00000020: ebdd 8dbb 6bdb 213e d91c fb3c 9aa8 81be
00000030: 46ea 65be 5bda 02be c084 9d3d 62b6 09be
00000040: 12bf b43d ca28 9dbe a839 28bd 5aa0 cf3d
00000050: a0ce acbd 36f0 643c daf6 b73d 6f1f 31ba
00000060: 39e9 be3c 74e8 8bbd c707 db3c e7eb bcbe
00000070: a730 3e3d 2d17 28be 8ceb d0bd cb21 ce3d
00000080: e369 353c 653c d03c 38b1 dcbd 52a1 533e
00000090: 3a53 d33d e35a 57bd 70b2 5fbd 3ffc c1bc
000000a0: 064a 6e3d f67d 86bd 92e2 3f3d cf23 843d
000000b0: 81d1 183d 9f18 783e ef5a b1bd a4c0 58be
000000c0: 3745 013e 7d98 183e 9114 6cbe 3e60 97bc
000000d0: 7610 333e 2889 82bd d9d0 1dbe 60b7 283e
000000e0: 1692 88be 16cc 013e f40e 3ebe 70f4 5bbc
000000f0: 11e9 063e ada9 d1bd 1290 76be 5a6e 383e
00000100: 97cd 2bbe f032 503e ffeb 3dbe 827c f0bd
00000110: 5bcd 993e 98c8 bfbc 23cf f1bd 2792 283d
00000120: cb5f 5ebe c325 56be 4ac3 7d3e 98fc 7f3d
00000130: 44dc 383d 3b7b 39be 49f9 98bd 9116 e2be
00000140: a69e 7fbe 7e88 0ebe b4ed bc3d faa6 d5bd
00000150: 11c0 673c 9e50 f1bb 0e11 d93d 49bf 90bd
00000160: 0a3b 2fbd 2fee 65bd 1659 af3e 6bfb 553e
00000170: 1ff7 6cbe 280a f0bd 3c2a 0c3e f87a 483d
00000180: f7de 853e 357f 64bd db73 3b3d 4123 11be
00000190: af09 90bd 4283 a1bd f616 123d b071 323d
000001a0: 61c6 753d 13a3 e2bd 2a40 81bd 903a 4e3d
000001b0: 7f68 e1bc 8df7 31be 606b 19be 69ed 1ebe
000001c0: 41fb 1f3e 6653 5e3d bd45 033e 43f0 85be
000001d0: 195d 59be bfa5 e33b 28da 0bbe fb72 3a3e
000001e0: e19a f53d e282 e33d 1d5f 3ebe ef7d babd
000001f0: f642 94be 7c55 4c3d 76f7 c73e 6fee 893d
00000200: 3d86 2f3e 9c18 56be 9b88 f5bd d7be b73d
00000210: 1f67 4dbe 6f85 f4bd 5d4c c4bd 634a bdbd
00000220: 4bd3 563e 91a5 133c 1bc0 7b3a c280 5fbd
00000230: 7784 67bd 896b 47be 5353 e0bd 2e0a 27bc
00000240: 7a5a e93c e0c0 b9be 57b2 7f3c 8ade 163c
00000250: 6fb8 303e 41b8 2abe 9983 c8be 3a88 d23d
00000260: 674a 18bd e5d7 aabd c3d9 42be c19b 733e
00000270: 9dde 233d d3ac e9bc 9b54 1f3d 83e0 64bc
00000280: 6211 2abc 34a6 34bd 5524 d9bd f624 6e3d
00000290: 968b 9c3d 7336 91bd f02f 95bc 0ac2 d1be
000002a0: 7761 39bb 61ad c8bd d475 a43d 14d5 20be
000002b0: 7547 3dbc 5a0f 35be c523 a1bd efa0 623c
000002c0: deb1 efbc 404e 043e 1c30 893d 35a6 223d
000002d0: e4e9 54be 6b42 28be 96c0 07be 9f64 68be
000002e0: 5ffd a6be 9fee 623e 5f33 fbbd 5451 903d
000002f0: ad51 efbd 84c9 6e3d 8589 a6bd 7f70 9dbd
00000300: 99e2 b1bd dcc6 30bd ab56 0dbe 73c7 943d
00000310: 7dde e2bd 504c 153d 5852 e0bc a513 193e
00000320: 71fb 8e3e c833 d23d 83d7 363e 9820 853e
00000330: 8596 ae3d 87e3 c5bc 8161 af3e 0734 bd3e
00000340: 97a5 fcbd 2e0f f9bd f38e 3d3d 6ec0 8b3d
00000350: 3e27 4d3e 33a9 ba3a 3bcf b43e 7ea3 96bb
00000360: d4b3 9c3c ffa9 7f3e af34 4bbe cb34 e33e
00000370: 4110 173e d237 e73d 1f62 4fbd de42 723e
00000380: c9c1 19bd 3d7b 0dbe 5c23 80be 42d3 4d3d
00000390: c1e3 bbbc 34ea 9339 1fdf 7c3c eb15 dd3d
000003a0: 36f6 fbbd 9f9f be3c eab3 b43e a523 293e
000003b0: cca0 e2be 9105 5ebd 6cc6 633e a98f 0a3e
000003c0: 9461 a1be a60f 2fbe c519 2bbe 466a 423d
000003d0: 0b72 62bd ad3b 0b3e 4a58 873d 87dc 63bb
000003e0: e87f e13d 68f9 053d 376d 4fbe eaaf d33d
000003f0: b556 9abd 9861 b53d 4552 63be efd3 5abc
-0.07634788 0.088388816 -0.1462572 0.12632094 0.065444924 -0.021014562 -0.12585503 -0.14296556
-0.004329433 0.15806358 0.030653404 -0.25323945 -0.2245265 -0.12778609 0.07691336 -0.1344848
0.08825506 -0.30695182 -0.04107061 0.101380065 -0.08437848 0.013973286 0.0898263 -0.0006756698
0.023304569 -0.06831446 0.026737107 -0.3689873 0.046433117 -0.16415091 -0.10201177 0.10065039
0.011072609 0.025419423 -0.10775989 0.20667008 0.103186086 -0.05257691 -0.05461353 -0.02367985
0.058176063 -0.06566994 0.046846934 0.064521424 0.037309173 0.24228142 -0.08659922 -0.21167237
0.1262406 0.1490192 -0.2305472 -0.018478509 0.17486748 -0.06373817 -0.154117 0.16476202
-0.26673955 0.12675509 -0.18560392 -0.013424978 0.13174845 -0.10237441 -0.24078396 0.18010846
-0.16777645 0.20331931 -0.18547057 -0.11742498 0.30039486 -0.02341108 -0.11807086 0.041155007
-0.2171623 -0.20912842 0.24781528 0.06249675 0.045131937 -0.18113415 -0.07469422 -0.44157842
-0.24962863 -0.13919255 0.09225026 -0.10432239 0.014144913 -0.0073643466 0.10598956 -0.07067735
-0.042780913 -0.056135353 0.34247655 0.2089669 -0.23141144 -0.11720687 0.13687986 0.048945397
0.2614667 -0.055785377 0.045764785 -0.14173605 -0.07033097 -0.078863636 0.03566643 0.043565452
0.060003642 -0.1106626 -0.063110664 0.05034882 -0.027515648 -0.1737959 -0.14982367 -0.15520252
0.1562319 0.054278754 0.12819572 -0.26159868 -0.2122692 0.0069472487 -0.13657439 0.18207924
0.119924314 0.11108948 -0.1859097 -0.09106051 -0.28957337 0.04988621 0.39055985 0.06734931
0.17141052 -0.20907825 -0.11988946 0.08971947 -0.20058869 -0.11939513 -0.09584878 -0.09242704
0.2097904 0.009011642 0.0009603516 -0.054566152 -0.056522813 -0.19474615 -0.10953393 -0.010195298
0.028485525 -0.36279964 0.015606484 0.009208331 0.17257856 -0.1667185 -0.391629 0.102798894
-0.03718033 -0.0834196 -0.19028382 0.23789884 0.040007222 -0.028524792 0.038899045 -0.013969543
-0.010380121 -0.044103816 -0.10602633 0.058140717 0.076438114 -0.070904635 -0.018211335 -0.40968353
-0.0028286853 -0.097986944 0.080302864 -0.15706283 -0.011552681 -0.17681637 -0.078681506 0.013832315
-0.029259618 0.12920475 0.06698629 0.03970929 -0.20792347 -0.16431586 -0.1325706 -0.22694634
-0.32615182 0.22161339 -0.12265658 0.07046762 -0.116855 0.05829765 -0.081316985 -0.076874726
-0.08685798 -0.043158397 -0.13802592 0.072646044 -0.110775925 0.03644973 -0.027383015 0.149489
0.2792621 0.10263783 0.17855649 0.2600143 0.08524803 -0.024156345 0.34254077 0.36953756
-0.12336271 -0.121610984 0.046278905 0.068238124 0.20034501 0.0014241099 0.35314354 -0.0045971265
0.019128717 0.24967192 -0.19844316 0.44376215 0.14752294 0.11289944 -0.050630685 0.2365832
-0.037538324 -0.13816543 -0.25026977 0.0502503 -0.02293575 0.0002821252 0.015434056 0.10795196
-0.123028204 0.023269473 0.35293514 0.16517504 -0.44263303 -0.054204527 0.2224366 0.13531365
-0.3151976 -0.17095813 -0.16709049 0.04746463 -0.05528454 0.13596983 0.06608637 -0.0034768896
0.11010724 0.032708555 -0.20256506 0.10336287 -0.07536069 0.08856505 -0.22199352 -0.013356193

network_body._body_endoder.seq_layers.0.bias f4 [128]
00000000: 679d c6ba c55e 08bc e890 c1bc 9fed 68b9
00000010: 8892 82bc 8ea8 8abc 88c9 24bb 8351 8bbc
00000020: 0c65 823c 62c3 4fbc d61f 0d3c 04d9 e4bc
00000030: a944 4b3c 17fa 1cbd ce69 ac3b 3a0d 22bd
00000040: de50 40bc 505e 233c 2407 27b9 de14 e7bb
00000050: 0e21 6d3c fb11 083c e8fd b53c e4b3 9f3c
00000060: cea0 c23c e08f 023d b63b 893c 4993 0bbc
00000070: d653 23bc edef 97bb d496 f33c 2e33 343c
00000080: 34ec 06bc 13eb c03c 6896 583c 7f2d 8c3c
00000090: 206d 0e3c 48e4 ec3c 2a80 96bb 2d2b 573b
000000a0: 7cb9 413c d74e c93b 5058 1d3c 77f3 a13c
000000b0: 3c5a 22bd 6956 623c 465d 09bc 0236 69bc
000000c0: 3c52 25bc 909c 8cbb b8a4 ed3b 4af7 5f39
000000d0: c87c a93c 84a0 31ba 987c fd3c 8387 263a
000000e0: d63e 303a 0527 9c3b 6076 093c af10 09bc
000000f0: 258c 51bb ca11 6d3c 5373 1f3c 0aa3 ba3c
00000100: cd54 e23c e327 fcbc 837b 9aba e5b7 4b3c
00000110: 895a d23b f9da 233d fa1c 3f3b 8d2e 6ebc
00000120: 0cbe 283c d75a 29bb b7c0 2dbc 1ea9 39bc
00000130: a0cd b13b cc44 87bc c9b6 743c 31e4 8abc
00000140: d131 cf3b df0a 9c3c 589e e2bb f74d 1f3c
00000150: 3211 2b3d b434 1fbc f061 b93c 2bf9 70bc
00000160: 4ac8 cabc 3f71 9b3b 31e5 533c 176f db3b
00000170: ff9a 9a3c c19e 76bc 6d45 043c ee0f 66bc
00000180: 0aff 6cbc 00fe 6dbc 6bf4 b03c ce91 2dbc
00000190: 9deb 8c3c 3121 9c3a ea13 0c3d 9d50 a7bb
000001a0: 858b bcba 1136 85bb 1f66 8dbc 665c b4bb
000001b0: 8e0b db3a d01e 8c3c 96c3 bc3c ca2a 78bb
000001c0: bb88 abbc 45eb 4b3c 6bd2 c83c 86d8 dcbc
000001d0: 6f74 49bb 88a8 933b 40ab 92bc a9a2 083d
000001e0: 0c34 213c 2dc8 903c c8d3 bc3a 6a0a a0bc
000001f0: 5673 cabc 8cdc 5c3c ef62 51bc 0d4f ba3c
-0.0015153111 -0.008323376 -0.023628667 -0.00022213765 -0.015939012 -0.016926076 -0.0025144536 -0.017006641
0.015917324 -0.01268086 0.008613547 -0.027935512 0.012406507 -0.03832444 0.0052616363 -0.039563395
-0.01173803 0.009971216 -0.00015929021 -0.007052048 0.014473213 0.008305068 0.022215798 0.019494958
0.023758318 0.03187549 0.016752105 -0.008519002 -0.0099687185 -0.0046367557 0.029735006 0.01099853
-0.008235026 0.023549592 0.013219453 0.017111538 0.00869301 0.028917447 -0.004592915 0.0032832131
0.011824008 0.0061434316 0.009603575 0.019769413 -0.039636835 0.013814547 -0.0083840545 -0.014234068
-0.010090407 -0.0042911246 0.007252302 0.0002135906 0.020689383 -0.0006775933 0.0309432 0.000635259
0.00067232305 0.0047653937 0.008390039 -0.008365794 -0.0031974402 0.014469573 0.009732085 0.022782821
0.027628327 -0.030780738 -0.0011786077 0.012433981 0.006419484 0.04000375 0.0029161558 -0.014537466
0.010299217 -0.0025841498 -0.010605029 -0.011331825 0.0054261237 -0.016512297 0.0149361575 -0.016954513
0.0063230773 0.019048152 -0.0069158487 0.009723178 0.041764446 -0.009717155 0.022629708 -0.014707844
-0.024753708 0.0047437246 0.012933061 0.0066965926 0.018872736 -0.015052498 0.008073193 -0.014041884
-0.014465103 -0.01452589 0.021600923 -0.010593845 0.017202193 0.0011911747 0.03419868 -0.0051060454
-0.0014384842 -0.004065283 -0.01726061 -0.005504179 0.0016711818 0.017104536 0.023042481 -0.00378673
-0.020939222 0.012446229 0.024514398 -0.026958715 -0.0030739566 0.0045061745 -0.017903924 0.03335825
0.009839069 0.017673576 0.0014406377 -0.019536216 -0.0247132 0.013480317 -0.012779935 0.022742772

network_body._body_endoder.seq_layers.2.weight f4 [128, 128]
00000000: 4236 5fbd ec9c 84bc 8aef c93d 3680 af3d
00000010: 1c37 093d 9d98 5b3d 0b28 f43d e2a8 a5bb
00000020: cde9 0c3e 5ad0 b23c 42c0 b03d 5ebe 3bbd
00000030: 0012 1a3e ef50 45be 1e89 23be cc67 c7bd
00000040: c9fc a43d 32bb 98bd daa2 74bc 238a 793c
00000050: 47a3 f03c 67d3 a93d e7be 2cbd 48b3 ae3d
00000060: 44e7 c9bc 936a acbd 93ef 363e 23ff f8bb
00000070: 1b07 21be df0e e53c 9b09 8a3c 9316 363e
00000080: 338a c63d a802 89bd 6eb8 23be 5ed9 4bbd
00000090: 1bdd 623d 55f4 aabd a9fb 893d 1562 d8bc
000000a0: 767d 18be f74c cb3d 74df f03c a7aa 54bc
000000b0: 67a4 08be b8c6 bd3c af8b 6bbc 8fbd 4ebd
000000c0: a1bf f93d 2043 523e 1294 bcbd 3ab8 dfbd
000000d0: a9af 313d 8a2d 863d 5d66 fd3d f029 a43c
000000e0: f1a9 ff3d df9e fe3c f247 a23c e7e7 063d
000000f0: e398 3b3d 3552 bc3c cd6e 0abe 838f 613c
00000100: ce12 d7bd c931 0cbd 7312 ea3d 3500 24bc
00000110: f853 31bc 3a21 043e bacd 123d 8606 cf3b
00000120: 2809 a5bd e8ca 2ebd e007 26bc d39c 22be
00000130: 410e 5f3d 2f24 28be 022b a33d 0c78 5abd
00000140: 3af7 e5bc 4f79 d63d 3cab 2dbd fb49 37bd
00000150: aa66 bdbd 8ee5 863e 3517 a0bc e680 0d3e
00000160: af55 523d 0dd3 49bd 5dbf bf3c 1cc7 32be
00000170: 2e77 e53c 185f d33d 3adc 2f3d a9d4 92bd
00000180: f8de b43d a35f d43c 9b83 3abe 4ef6 023e
00000190: 1a0d 413a c467 a4bb babe 7f3d 6bd0 59bc
000001a0: 1be3 6b3b 33f9 cc3d 194c a63d 9a6a 00be
000001b0: c051 df3c fd8c c0bd fd05 5d3b 1d24 a63b
000001c0: d23a 18be 3144 fdbc c01b cc3d f907 f6bd
000001d0: 7fac 183c 4393 6f3d 9613 6c3d 3ad8 90bb
000001e0: 90f0 393d 2bec 153c 9543 203d 1616 42be
000001f0: 4f1c 1fbd ea21 343d b05c 56bd c1d8 4e3b
00000200: e445 c8bc 5494 113d cd10 1fbd fbfe 943d
00000210: af87 c5bd 4754 a7bd 5547 80bc 5b7b 993d
00000220: d6fa d53c 3768 b23d 4db1 dbbb ca02 ce3d
00000230: 7da6 a9bd eba1 043e 6621 39bd 959a fe3c
00000240: 4c00 33be 8dfb 953d 4aef 633d 843e a23d
00000250: 4cbd a0bd d1f8 e7bd 657a 893d 1d5c f1bc
00000260: 0b9b f53c 9d14 413b 3cb7 ac3d 3ac7 81bc
00000270: b65b f93c 2c3b d13d f464 7e3e 1153 c8bd
00000280: c91c 88bd b066 2dbd d1c8 c9bd c1d7 493d
00000290: 13af 523e 4842 03be 2685 6d3d db62 0d3e
000002a0: ca58 383e 9f6b c8bd e615 563e 2481 edbd
000002b0: 8be0 9fbc d625 ecbd 2c9f 2fbe e6be 283e
000002c0: 8bd4 f9bc f29c 833c 4ac9 4dbe 141d a0bd
000002d0: 29eb cdbd cffb 723d ed99 16be 3b76 2a3e
000002e0: 5b4f c33d 7a41 903e 8eb7 93bd 191b 7d3e
000002f0: 6cc9 ed3c cbf3 bcbb b7d2 e53c 24fa 02be
00000300: ed6b 43bc 0027 263d 475e 293e 8ca3 debc
00000310: bba0 47bd 01a4 04be bd50 e23d 6b02 ea3d
00000320: e84d a0bd c713 633c c67b f23c f639 853d
00000330: 622e 073c 860a 973c 876e 8ebc 49fe a03c
00000340: 9a1e be3d aa72 113e 0aa6 b63d fc48 7d3d
00000350: 61b0 d53d c950 183e c457 87bd 165f d03b
00000360: c4a3 b7bc ecee f0bd c0b4 9f3d 2c43 e53c
00000370: 6d6d 123e d911 9d3c c216 713e c856 48bd
00000380: f3c5 f3bd 21df e13d ee37 613d b623 803c
00000390: aa00 cc3c 851e d1bd 7f2d a0bd 0593 c73d
000003a0: 416e c43d fdee 8fbd a266 ba3d 9608 57bd
000003b0: 2b07 343d ba44 4abd ab0b 18be 05c0 563d
000003c0: b35e b1bc c918 033e bdf8 ebbd f16a 363c
000003d0: d773 263e 02f7 debd a7c4 37bd e90d 50be
000003e0: d1ba 4a3d ffa4 c33c b0de 06be ef30 7f3d
000003f0: 7e43 223e 2878 90bd dc4a f0bc 4d91 803b
-0.054495104 -0.016188107 0.098601416 0.08569376 0.033499822 0.05361234 0.119217 -0.005055533
0.13761063 0.021827865 0.0863042 -0.045835845 0.15045929 -0.19269155 -0.15970275 -0.097365946
0.080560274 -0.0745758 -0.014931405 0.015230688 0.029374732 0.08292275 -0.042174246 0.08530289
-0.024646409 -0.08418765 0.17864828 -0.007598774 -0.15725367 0.027961193 0.016850283 0.17782049
0.09694328 -0.0668996 -0.15988323 -0.049767844 0.055386644 -0.08347384 0.067374535 -0.026413957
-0.1489161 0.09926789 0.029403426 -0.01298014 -0.13343965 0.023166046 -0.014376565 -0.050473746
0.121947534 0.20533419 -0.0920793 -0.1092381 0.043380413 0.06551655 0.1237304 0.020039529
0.124835856 0.031081615 0.019809697 0.032936003 0.0458001 0.022988418 -0.1351883 0.013767126
-0.105016336 -0.034227166 0.114293 -0.010009815 -0.010823242 0.129033 0.035840727 0.0063179163
-0.08058387 -0.042673975 -0.0101337135 -0.15880136 0.054456953 -0.16420053 0.079671875 -0.053337142
-0.028071988 0.104723565 -0.04239963 -0.044748288 -0.09248097 0.2634701 -0.019542316 0.13818702
0.051351245 -0.04927354 0.023406679 -0.17458767 0.02801093 0.10320872 0.042934634 -0.07169468
0.088315904 0.02592451 -0.18214266 0.1278927 0.0007364318 -0.0050172526 0.06243775 -0.01329432
0.003599352 0.100084685 0.08119983 -0.12540665 0.027260661 -0.094018914 0.0033725493 0.005070223
-0.14866188 -0.030916305 0.099662304 -0.120132394 0.00931847 0.05849005 0.057635866 -0.0044203075
0.045395434 0.009150545 0.03912695 -0.18953738 -0.038845357 0.043977655 -0.052334487 0.00315623
-0.024447389 0.035541847 -0.03883438 0.07275196 -0.0964502 -0.081703715 -0.015659014 0.07494231
0.026120584 0.08711284 -0.0067044855 0.10059126 -0.08283708 0.12952392 -0.045197867 0.03107957
-0.17480582 0.0732337 0.055648126 0.0792208 -0.078486055 -0.11326755 0.06712798 -0.029462868
0.029981157 0.002946175 0.08433387 -0.015842069 0.030439239 0.10216364 0.24843198 -0.09781469
-0.06646115 -0.04233426 -0.09852756 0.049278025 0.20574598 -0.12818253 0.05798831 0.13807242
0.1800262 -0.09786152 0.20906791 -0.11596897 -0.01951625 -0.11530654 -0.17150563 0.16479072
-0.030496856 0.016066048 -0.20096317 -0.07818046 -0.10054619 0.059322175 -0.14707156 0.16646664
0.0953662 0.28174955 -0.07212745 0.24717368 0.02902671 -0.005766367 0.028054578 -0.12790734
-0.011927587 0.040564537 0.1653987 -0.027177595 -0.04873727 -0.12953188 0.11050556 0.114262424
-0.078273594 0.013859696 0.029600035 0.06505196 0.008250805 0.018437635 -0.017386688 0.019652503
0.092831805 0.14203897 0.08918388 0.06183718 0.10434032 0.14874567 -0.06608537 0.0063589914
-0.022416957 -0.11764321 0.07798147 0.027986132 0.14299555 0.01917355 0.23543838 -0.048910886
-0.1190299 0.110288866 0.05498498 0.015642028 0.02490266 -0.10210899 -0.07821178 0.097448386
0.09591342 -0.07028005 0.09101607 -0.052498423 0.04395215 -0.04938195 -0.14848201 0.052429218
-0.021651601 0.12802424 -0.115220524 0.011133895 0.16255127 -0.10886957 -0.044865277 -0.20317806
0.04949457 0.023882387 -0.13170886 0.062302526 0.15846059 -0.07054168 -0.02933257 0.003923571

network_body._body_endoder.seq_layers.2.bias f4 [128]
00000000: 0f48 c93a 04a0 f3bb 4c13 723c a19c 2fbc
00000010: e7a7 03bb b918 b4bc 0542 a2bb 6b0d 28bb
00000020: 1bb6 dcbb 6014 19bb 7e9a a6b9 211c 273b
00000030: bab4 09bc fcc7 a23c 36be 083c 6b56 f33a
00000040: b072 c93b 9bd4 c8bb 04c4 bf3c e701 eb3b
00000050: 863a db3a 8109 49bc 1bc4 1f3c 1078 613c
00000060: fe55 3f3b f2ac b9bb e537 32bb 544a 1e3c
00000070: 6607 1fbc 53e8 153c b45f aabb 1f51 68ba
00000080: d44c b33b ff4d 2bbc f9f0 503b d97c aebc
00000090: 734b 84bb 17a0 c2bb 7917 96bb c5de 47bb
000000a0: 2050 00bc 37ed 9c3c 9a5a a6bc 1913 bfbb
000000b0: 4d75 a4bb aac9 40bb 5f66 7a3c 795c 71bb
000000c0: d732 babb 01f6 10bb 8545 38bc 6464 a238
000000d0: e763 50bc 94c8 a23c a0f2 8dbb 4cad 273c
000000e0: 50dd dbbc 42fe 9ebb 4ff3 083c 174c 27bc
000000f0: 3a3a c0ba 21b8 b9bb 3ed8 2f3b 1d84 28bc
00000100: f6d5 74bc 2c92 803b 7dd8 e63b c2bf 19bc
00000110: e425 9b3a b157 323b 8856 1bbc ca8c c33b
00000120: 15bf 063d 4cf4 6ebc 1ac2 883c 5600 8d3c
00000130: f4d8 f6bb 3294 103b e7ae e2bb 6248 e0bb
00000140: a540 063c 694a ab3a bca5 723c 9d57 3e3c
00000150: 3134 22bc 3891 98bb 91cc 22bb 8a02 5b3c
00000160: 734b 003c 05b1 2bbc 320f 21bc 5ed0 f1bb
00000170: fc0c 2cbc a4e0 df3c 324b 443c eaba 4abb
00000180: 5dcb f8bb 1fe0 01bc 1038 633a 0f04 4fbb
00000190: 3af8 ecbc 2e7e 7f3c 07f2 2abc 0a6b 603b
000001a0: c2d1 9f3b 4bdd 813c 7c4d a0bb b55b ac3c
000001b0: e9ae 7f3c 8be4 16bb 53cf ef3b 49c5 7fbb
000001c0: f7f0 eebb 2978 3a3d 85c0 363c a45d 413c
000001d0: 4fc3 873c d056 943c 095e 783b 223f 083b
000001e0: e278 d43b d9d1 09bb baf9 36bc ea08 26bb
000001f0: 8179 ec3b 7216 e9bb f22a 2cbc 306f 823c
0.0015356558 -0.007434847 0.014775109 -0.010718496 -0.0020089091 -0.021984445 -0.004951718 -0.0025642763
-0.006735576 -0.0023358092 -0.00031777093 0.0025498944 -0.008404905 0.01987075 0.008346131 0.0018565183
0.006147705 -0.00612886 0.023408897 0.0071718576 0.0016725815 -0.012270332 0.009751345 0.013761535
0.0029195542 -0.0056663686 -0.002719396 0.009661276 -0.009706354 0.009149629 -0.005199397 -0.00088621856
0.005471805 -0.010455607 0.0031881912 -0.021299766 -0.0040373146 -0.0059394944 -0.004580435 -0.0030497771
-0.007831603 0.019156082 -0.020306874 -0.005831134 -0.005018866 -0.0029417076 0.015283196 -0.00368288
-0.00568233 -0.0022119286 -0.0112470435 7.743461e-05 -0.012719131 0.019871034 -0.0043319017 0.010234188
-0.026838928 -0.0048520872 0.008358791 -0.010211012 -0.001466579 -0.005667702 0.0026831771 -0.0102854045
-0.01494359 0.003923675 0.0070448504 -0.0093840975 0.0011836854 0.0027212913 -0.00948108 0.005967711
0.032897074 -0.014584612 0.016694117 0.017212074 -0.007533187 0.0022060988 -0.0069178226 -0.006844566
0.008194123 0.0013068441 0.014810022 0.011617568 -0.009900139 -0.0046559833 -0.002484117 0.013367305
0.0078304885 -0.010479216 -0.009830283 -0.0073795756 -0.010501143 0.027328797 0.011980819 -0.0030934163
-0.007592602 -0.00792697 0.0008667717 -0.0031588112 -0.028926957 0.015594048 -0.01043368 0.0034243488
0.0048773 0.015852591 -0.0048920494 0.021039823 0.015605667 -0.0023024406 0.007318416 -0.0039027503
-0.007291909 0.04552475 0.011154299 0.011802111 0.016572623 0.018107802 0.0037897846 0.0020789583
0.006484137 -0.002102962 -0.011167938 -0.0025334903 0.007216633 -0.0071132714 -0.010508286 0.015922159

action_model._continuous_distribution.log_sigma f4 [1, 2]
00000000: 1ac2 873d c850 ed3d
0.06628819 0.115876734

action_model._continuous_distribution.mu.weight f4 [2, 128]
00000000: e17b 87bb 9db7 473d 893e f8bc 70f0 d93c
00000010: 19ec 373c a07c 043c 8c8d fa3c 07c6 693d
00000020: 88dd 0bbc ed46 35bc 9cde a039 42c8 123c
00000030: 472b e23c b2ee 5bbc 9dc2 fdbc 769f c2bc
00000040: f81e 4f3c 11d7 1d3b f13a 67bb 1461 ca3a
00000050: b694 c53c c181 b33c b4a8 203c 461a 71bd
00000060: 148f e9bc 6790 9f3c 0c60 153d ccfa 88bc
00000070: 21f2 a73c f985 12bd 39a8 6c3b eb7b 4dbb
00000080: da47 823c c53c 153d 0895 3fbc ebd0 a63c
00000090: fd33 b13c 297e 123d 4014 a93c d72f 983d
000000a0: 186a cc3c 0e3b 44bd e9c8 e43c 8bb0 d23c
000000b0: d7ae a0ba bcc5 2abc 615b 12bc 575f cc3c
000000c0: c3cb 943c 6570 2e3c 569f 083d c213 d1bb
000000d0: 5d00 a23b a98a d6bc bb35 2a3b f5cb 653c
000000e0: 7575 733c 49c9 fd3c 52a2 6cbc 8cfd ac3c
000000f0: e711 c9ba 12bc a43c cd7b cb3c 358b da3c
00000100: 4e31 a13c d582 e3bc c92a 823c 885f 4c3d
00000110: c859 d2bb 92b0 58bc 8452 a2bb 67f7 33ba
00000120: f070 b5bc b39c d43b 5e70 25bd 492d b0bc
00000130: 1887 333c 6652 223c fd25 a73a 6147 fa3c
00000140: c0fa edbc 011e 063d 2ae4 28bd e35f 62bd
00000150: 0dba 743d 6666 9a38 6cfe a3b8 ce05 fdbc
00000160: 7fbd f03b 65d6 2d3c 5531 113d 7ace 6e3d
00000170: 349d f33c e558 2dbd 21ac 473b e6ac 8c3b
00000180: 34e7 783c 4869 153d a44d 09bd 0a57 04bc
00000190: 9b58 6e3c a0b3 24bc 98f2 ba3c ee1e e0bc
000001a0: d4f6 22bd e923 81bc cf0f e63b 563c 01bd
000001b0: bb78 d8bc d133 cfbc 6606 bf3c b412 1c3d
000001c0: 0dd0 c0bb c250 73bc 3642 70bd 4941 3bbc
000001d0: 7180 09bd a639 6bbd 956e 453c 33f1 e0bc
000001e0: 9e4e 333b cd8a 9cbc 153e c5bb d61d b9bb
000001f0: 5940 bf3c aed0 8f3c 920e 9d3c dc7c d3bb
00000200: 0d3d 76bc 36ab 003d 2c0d 07bd 0208 843b
00000210: 0f6a 31bc dfe2 06bd 11cd b8bb c56e 8c3c
00000220: 450c db3b 96b4 44bc 7ad9 58bc e312 5dbc
00000230: 8620 9b3c 75fa 3e3c a4ab 02bc 3211 e23c
00000240: 63e0 833c 2508 d6bb 7c2e 183d c130 34bd
00000250: 14ed 2d3d 3ee8 ac3b cd1b 11bd 65d5 b0bc
00000260: 6a1e 993b 6f47 873c 43fa 2ebd 9b95 77bc
00000270: ca04 a93b 008a 00bd 57bf 5cba fb26 a23b
00000280: c8da 263d ed78 013d e747 b6bc a03b 983b
00000290: ee71 11bd d520 b53c 716b 343d 759b 07bc
000002a0: dd7a 0d3d 6429 b33a e1e5 a13c a61f 8d3c
000002b0: 371b 5c3c 7e8d 48bc 2602 35bd aad4 2cba
000002c0: 6880 0b3d 414c 6aba 91c5 f3bb a500 0cbd
000002d0: c2ba c73c 223a febc d76d f5bb 4139 c2bc
000002e0: 010b a7bb a40e b33c 7eda c8bc 9a0c 28bc
000002f0: f940 19bd f172 fdba e89d a13c 6c74 2abb
00000300: be34 2b3d 6157 a03c b88f cfbc 284a ba3c
00000310: 9d04 3c3c ea39 ea3c 9f74 113d 40cc 163d
00000320: 53dd b73c 847e 1bbc 2c0c 01bd 5f8f f7bc
00000330: 54a6 dc3c baf5 033a 1d3c 023d 81db 01bc
00000340: c898 143b 9029 6a3d 963c d03c 74c9 af3c
00000350: ee39 20ba b9d5 143c 13a2 783c c938 a5bc
00000360: 3411 22bd 0ed9 873b c29e 1c3c 5a62 543c
00000370: 27af 4a3c daea b03b 1cf0 f5bc 0097 59bc
00000380: 827c 373c 136f b13c 3a27 95bc 472b 6d3b
00000390: 7124 50bc 852f debc 1a23 1cbc b8aa 5b3c
000003a0: 6df5 0dbb f469 5dbd 52d2 f8bc ce77 14bd
000003b0: c512 0abd 806e eebb 238f 40bd 7587 733c
000003c0: d0e7 1dbc 8f31 673c 565a 1bbd 3270 4dbc
000003d0: 6c8c f63b 7c8d 0dbd f0ca 333c 8e81 5abc
000003e0: 0797 edbc 6d34 f53c aa01 e8bb 5413 bdbc
000003f0: 5762 ff3c 7689 73bb 94a4 593c 308b 1bbd
-0.0041346406 0.04875909 -0.030303257 0.026603907 0.011225724 0.008086354 0.030585073 0.05707362
-0.008536704 -0.011064273 0.00030683435 0.008958878 0.027608527 -0.013423609 -0.030976588 -0.023757678
0.012641661 0.0024084488 -0.0035282935 0.0015440308 0.024118762 0.021912457 0.009805847 -0.058862947
-0.028510608 0.019478036 0.03646855 -0.016721152 0.020501198 -0.035772298 0.003611101 -0.0031354378
0.015903402 0.036434907 -0.011693247 0.020363292 0.021631235 0.035764847 0.020639539 0.07431
0.024952933 -0.04790788 0.027927833 0.025718948 -0.0012259138 -0.01042312 -0.008932919 0.024947805
0.018163567 0.010646914 0.03335508 -0.006380529 0.004943891 -0.026189165 0.0025971967 0.014025678
0.014859547 0.03097977 -0.014442997 0.021116994 -0.0015340418 0.02010921 0.024839306 0.026677707
0.01967683 -0.027772347 0.015889542 0.049895793 -0.006419394 -0.013225691 -0.0049536843 -0.0006865174
-0.02214858 0.0064884066 -0.040390365 -0.021505969 0.010957502 0.009907341 0.001275241 0.030551614
-0.029050231 0.032743458 -0.04123322 -0.055267226 0.059747744 7.3623654e-05 -7.8198354e-05 -0.030886557
0.0073468084 0.010610198 0.035447437 0.05830238 0.029738046 -0.042321105 0.0030467587 0.004293072
0.015191842 0.036477357 -0.03352131 -0.008077392 0.014547492 -0.010052592 0.022820756 -0.027358498
-0.039786175 -0.015764194 0.0070209275 -0.03155168 -0.026424756 -0.025293263 0.02331848 0.038103774
-0.0058841766 -0.014850797 -0.058656894 -0.011429139 -0.033569757 -0.057428025 0.012050291 -0.027458763
0.0027360092 -0.019109154 -0.0060193636 -0.0056493087 0.023346113 0.01755556 0.019171987 -0.0064540934
-0.015029204 0.03141328 -0.032971546 0.004029275 -0.010828509 -0.032931205 -0.00563968 0.017142663
0.0066848123 -0.012005946 -0.013235444 -0.0134932725 0.018936407 0.011656393 -0.007975493 0.02759609
0.016098207 -0.0065317326 0.037153706 -0.043991808 0.042462423 0.005276709 -0.035426904 -0.02158613
0.004672815 0.016513554 -0.042719137 -0.015111352 0.0051580416 -0.031381607 -0.0008420846 0.0049484945
0.04073599 0.031609464 -0.022251083 0.0046457797 -0.035509042 0.022110382 0.044047777 -0.00827681
0.034541 0.0013668952 0.019762935 0.017227005 0.013434223 -0.012240766 -0.044191502 -0.0006592969
0.034058005 -0.00089377543 -0.0074393232 -0.034180302 0.024381045 -0.03103358 -0.0074899006 -0.023708941
-0.0050977473 0.021857567 -0.024518248 -0.010256911 -0.03741548 -0.0019336623 0.019728616 -0.0026009334
0.041798346 0.019572916 -0.025337085 0.022740439 0.011475709 0.028592069 0.03551161 0.03681588
0.022444403 -0.009490613 -0.03150575 -0.030219732 0.02693478 0.00050338695 0.03179561 -0.007925869
0.0022674073 0.057168543 0.025419515 0.021458365 -0.0006112148 0.009084159 0.01517536 -0.020168679
-0.039567187 0.004145748 0.009559335 0.012962902 0.012370861 0.0053990902 -0.03002172 -0.01328063
0.011199119 0.02165941 -0.018207181 0.0036189125 -0.012704001 -0.027122268 -0.009529853 0.013407402
-0.0021661178 -0.054056123 -0.030373726 -0.036247067 -0.033709306 -0.007276356 -0.047011506 0.014863838
-0.009637788 0.014110937 -0.037927948 -0.0125389565 0.007524064 -0.03455876 0.010973677 -0.013336552
-0.02900268 0.029932225 -0.0070802765 -0.023080505 0.031174822 -0.003716079 0.013283867 -0.037974536

action_model._continuous_distribution.mu.bias f4 [2]
00000000: eab8 54bc 239e 14bc
-0.01298354 -0.009070906

exp_avg f4 [128, 36]
00000000: 9fe5 b534 2178 4b36 3631 02b7 b4ec c2b6
00000010: d75f 7b34 d43d 19b5 f0c2 94b6 7007 a3b6
00000020: b4da a336 46ca b734 44b4 24b7 8dd2 a2b6
00000030: 26d9 0635 63e1 8735 184d d0b6 3f0e b1b6
00000040: 2acf e036 f65b a231 d984 40b7 0b6b adb6
00000050: 5edf b834 90d4 5db7 6aef 0c37 f4ac 5336
00000060: 2d35 f4b6 81d4 3cb3 6425 3236 ebe8 c436
00000070: 2ad1 7bb7 5cd6 d8b3 8325 3137 fa22 01b5
00000080: 90e9 d3b6 4e88 c535 c8e0 3134 782b d836
00000090: 07e0 8436 e9ca 32b7 152e 6b36 6fe1 1536
000000a0: b354 0437 95b2 dcb5 bee0 18b7 f5cc 19b6
000000b0: 1627 06b7 6c96 7c37 cecc 28b7 9bc3 8ab7
000000c0: 5ef3 be37 256f f735 ae74 eab7 5ef6 ecb6
000000d0: 0a50 bbb6 fba2 bfb4 82e4 6836 a3fd 07b5
000000e0: b04d c937 a5dc 6cb7 8153 89b7 7245 93b5
000000f0: e1af edb7 ec1a e434 3583 ce37 fae1 1737
00000100: fc35 55b7 b7ce ab35 367e e436 cf21 f7b6
00000110: 7e70 8eb7 b5b5 9ab6 f288 9b37 a269 4937
00000120: 5974 c834 acdf 4034 a406 7137 7d69 7937
00000130: 4bbb ad36 6555 a6b4 bfad 2337 9595 7137
00000140: de58 f036 1fdc 2436 ce31 a836 5bba 5237
00000150: 2b5b 2537 81a1 3036 6154 1436 b199 4837
00000160: 1a58 f436 89dd adb3 4629 f736 80c3 7037
00000170: 4a2e 3b37 dc5f 23b7 9423 6637 ba04 9137
00000180: 4734 2836 cdce 8333 441b 4a37 f97e 9537
00000190: 5bcc afb5 0d9b c7b4 d7f4 8a37 1491 7637
000001a0: a52c 6436 6184 a836 c269 cb36 ad99 7a37
000001b0: 4943 87b7 6a79 26b5 97a5 d836 3897 55b7
000001c0: 5732 21b5 6dd6 19b6 964b 49b7 9873 6cb7
000001d0: e218 2237 5bdd 7fb7 3328 eab6 39ef 89b5
000001e0: 8995 4937 107c c136 3da5 07b8 4d6c 67b7
000001f0: c012 7737 e345 8734 867c ffb7 c142 7fb7
00000200: b6b7 d336 7147 0db8 6fd1 6537 8c10 5435
00000210: 6f05 07b8 de0e a8b4 2f29 9337 79c5 bb37
00000220: 0077 36b8 919b 8734 0702 ed37 c250 a9b6
00000230: 2b50 fcb7 5add 5438 d544 1cb8 b7ff f936
00000240: dfd0 df35 1980 0cb5 13ad a1b6 b5a3 42b6
00000250: 4de1 89b6 154c 4435 2c19 2835 3018 3fb6
00000260: 802e ceb6 8594 3a35 1ab7 1636 2f29 6bb6
00000270: 6a37 f5b6 66a4 e2b5 2519 cf36 0104 f7b5
00000280: 0be7 1fb7 dc71 55b4 300e ed36 bc73 23b6
00000290: c230 ecb6 4c7c 0237 6307 83b6 b260 bbb6
000002a0: de4e ea36 3588 a2b3 6649 20b7 fd94 2bb7
000002b0: e1d0 1036 eed4 8b33 cbb7 acb6 28e8 99b6
000002c0: 9193 c936 5a4c 00b7 8297 52b5 9302 06b7
000002d0: 50eb 3237 420a e234 7311 b738 bbaa cd38
000002e0: 7ef6 4738 e9ae 89b6 1a98 5838 e56c be38
000002f0: b9d3 4f38 13d6 ca37 2b94 ba37 4ac3 9f38
00000300: 16b5 9838 fe55 b937 41e7 aa35 1677 9838
00000310: 42a1 7e38 f523 d8b3 df5d 1138 f1e6 c638
00000320: 85c5 c138 5639 6cb8 f003 8338 899f da38
00000330: e08b 19b7 6006 cfb4 5c25 dc38 43cc 0639
00000340: d6b4 03b7 8fc2 12b5 e5df dd38 bcc9 c538
00000350: 24f2 4237 c7d1 e737 2538 6638 baa7 f338
00000360: 9b48 0a37 0fdd 5b37 1aba 3438 6e69 7238
00000370: 0c3a c537 d928 b9b6 8fe5 3238 572c 7638
00000380: d3b3 8238 d213 3737 5355 41b7 62b3 6038
00000390: f454 3338 3bd6 6f37 84d0 aa36 e70f 4238
000003a0: 0f04 6938 ae7d e433 65f3 9536 f51a 7438
000003b0: 1d00 6f38 d4ac c5b8 c6a6 db38 8db6 d238
000003c0: 3058 1bb7 1078 afb5 798e 9538 d192 f838
000003d0: c0c9 a0b8 719f c7b5 a000 1639 a2bc a038
000003e0: b4f4 e636 3a72 0638 f02d a637 a6ab da38
000003f0: a06c 6b35 407e ceb5 bd9f 9137 9228 9637
3.3880949e-07 3.0319281e-06 -7.760062e-06 -5.8092064e-06 2.3411063e-07 -5.7086913e-07 -4.4334374e-06 -4.8586444e-06
4.883239e-06 3.423358e-07 -9.817133e-06 -4.8524876e-06 5.023488e-07 1.012388e-06 -6.207858e-06 -5.2766695e-06
6.6998373e-06 4.7252753e-09 -1.1475023e-05 -5.168263e-06 3.4435192e-07 -1.3222118e-05 8.400393e-06 3.1542122e-06
-7.277957e-06 -4.3965432e-08 2.654583e-06 5.8683704e-06 -1.5009466e-05 -1.00972755e-07 1.0558756e-05 -4.810714e-07
-6.3154803e-06 1.4717314e-06 1.6566185e-07 6.442362e-06 3.9599868e-06 -1.06568705e-05 3.5044552e-06 2.233395e-06
7.887534e-06 -1.6443252e-06 -9.112233e-06 -2.2918077e-06 -7.996123e-06 1.5055393e-05 -1.0061265e-05 -1.6541968e-05
2.2763092e-05 1.8435281e-06 -2.7949307e-05 -7.062029e-06 -5.582352e-06 -3.5695106e-07 3.4703703e-06 -5.066051e-07
2.3997243e-05 -1.4118069e-05 -1.6370557e-05 -1.0972565e-06 -2.8334502e-05 4.2487898e-07 2.4618212e-05 9.052916e-06
-1.2708359e-05 1.2800655e-06 6.8096224e-06 -7.3651095e-06 -1.6980102e-05 -4.610711e-06 1.854121e-05 1.2005128e-05
3.7337557e-07 1.7962765e-07 1.43662655e-05 1.4866117e-05 5.1776055e-06 -3.0982042e-07 9.7560105e-06 1.4399547e-05
7.162903e-06 2.4566032e-06 5.012588e-06 1.2560365e-05 9.855993e-06 2.6320051e-06 2.2102834e-06 1.1956713e-05
7.282023e-06 -8.096237e-08 7.3659785e-06 1.4350633e-05 1.1156846e-05 -9.737876e-06 1.3717352e-05 1.7287548e-05
2.506438e-06 6.13778e-08 1.20464865e-05 1.782131e-05 -1.3097991e-06 -3.7179453e-07 1.6564894e-05 1.4696521e-05
3.4000634e-06 5.022201e-06 6.0621833e-06 1.4936942e-05 -1.6124586e-05 -6.20165e-07 6.456579e-06 -1.2730998e-05
-6.005043e-07 -2.2923589e-06 -1.1998132e-05 -1.409361e-05 9.661746e-06 -1.5250723e-05 -6.9784232e-06 -1.0276918e-06
1.201535e-05 5.766291e-06 -3.23404e-05 -1.3793889e-05 1.4726713e-05 2.519656e-07 -3.0456355e-05 -1.5214727e-05
6.309677e-06 -3.3683555e-05 1.3698226e-05 7.9000233e-07 -3.219157e-05 -3.1303256e-07 1.7542943e-05 2.2384093e-05
-4.350301e-05 2.52589e-07 2.8253546e-05 -5.045994e-06 -3.0078072e-05 5.075089e-05 -3.7257403e-05 7.4505474e-06
1.6675584e-06 -5.234047e-07 -4.8183224e-06 -2.9003543e-06 -4.1091466e-06 7.3126404e-07 6.2621507e-07 -2.8475297e-06
-6.1446917e-06 6.9506524e-07 2.245832e-06 -3.50417e-06 -7.30802e-06 -1.6886158e-06 6.172008e-06 -1.8404099e-06
-9.530932e-06 -1.9878593e-07 7.064802e-06 -2.435626e-06 -7.0390242e-06 7.777544e-06 -3.904964e-06 -5.584291e-06
6.982925e-06 -7.568489e-08 -9.553833e-06 -1.0227083e-05 2.1579256e-06 6.5114236e-08 -5.1473958e-06 -4.586782e-06
6.007446e-06 -7.6471715e-06 -7.845157e-07 -7.987622e-06 1.0664415e-05 4.2103244e-07 8.72937e-05 9.806963e-05
4.767486e-05 -4.1032804e-06 5.164007e-05 9.080189e-05 4.9549828e-05 2.4179963e-05 2.2241924e-05 7.618086e-05
7.281655e-05 2.2093762e-05 1.2733291e-06 7.270106e-05 6.0708502e-05 -1.0064824e-07 3.465812e-05 9.484392e-05
9.239748e-05 -5.6320183e-05 6.2473e-05 0.00010424766 -9.152078e-06 -3.8561393e-07 0.00010497376 0.00012855329
-7.850313e-06 -5.467236e-07 0.00010579805 9.431268e-05 1.1619679e-05 2.7635031e-05 5.4888562e-05 0.000116183845
8.242346e-06 1.3104886e-05 4.3088665e-05 5.7795485e-05 2.351126e-05 -5.518185e-06 4.26523e-05 5.8692265e-05
6.232378e-05 1.0912265e-05 -1.15235625e-05 5.3572825e-05 4.2756044e-05 1.42953895e-05 5.090669e-06 4.6268015e-05
5.555531e-05 1.0639938e-07 4.468881e-06 5.819924e-05 5.6982146e-05 -9.425884e-05 0.00010473798 0.00010047583
-9.259253e-06 -1.3073459e-06 7.131411e-05 0.00011852908 -7.6669734e-05 -1.4873059e-06 0.00014305348 7.66453e-05
6.8830213e-06 3.205447e-05 1.9810133e-05 0.00010427022 8.770239e-07 -1.538494e-06 1.7359731e-05 1.7900285e-05

exp_avg_sq f4 [128, 36]
00000000: c3d9 cd31 be87 ea2f bb2d 4231 9d7f cd31
00000010: 422b ca31 69d4 1e30 6423 5631 034f d431
00000020: 89f4 ee31 e35b 8a2f e50b 2831 d4c9 cc31
00000030: d9f3 8e31 15d8 a92f 52c4 ae31 f3f5 ed31
00000040: bf31 0f32 63c5 582e 1971 9930 b602 b131
00000050: 9e3a 6431 9b09 9e2f cd24 cf31 2b68 0232
00000060: a2b3 0c32 06ee bf2f da6b 8430 c529 8e31
00000070: 793a a431 aaa6 962e eb8d a231 b7ea fd31
00000080: 05c2 0332 ac27 832f e3da dc30 455b 9231
00000090: e7ff b832 f13d 5530 4ba0 1832 fa79 ac32
000000a0: 8563 a232 c292 5e30 9baa 4a32 8f80 b132
000000b0: cf55 d432 1f74 8030 c432 eb31 71a2 ac32
000000c0: d587 9e32 1ef5 1c31 15ed 4c32 1f36 b332
000000d0: 350a e832 2a3d 2630 4f8b 8e31 247e 9c32
000000e0: 1739 8132 f339 1b31 7ea2 8632 28b9 c232
000000f0: b17c ed32 75e9 2d30 90fb 6e31 b0a4 8d32
00000100: cd77 8b32 3bb7 7230 dbe7 7c32 7b9a cb32
00000110: 2112 e332 7dc8 0130 b816 bb31 5ed8 8a32
00000120: 03dc 6c31 4463 c42e 699f 2f31 9f98 9631
00000130: ce1d 8f31 8123 8b2f d9f5 0031 6c9a 8e31
00000140: b5b6 7731 dcd6 a62e 8e6c 2a31 83f3 9531
00000150: ae83 6531 4839 062f 2be5 3731 2971 9b31
00000160: 5f37 9531 13e1 922e e43c fd30 d79e 8431
00000170: f6a4 2231 b395 072f fa82 7931 3bff a831
00000180: 6508 a531 17a7 2a2f 0a17 ab30 df42 5f31
00000190: a71d 4f31 e796 c02e f9bc 5731 4712 a131
000001a0: da63 9831 4a4c 282f 8b6d d830 814c 5b31
000001b0: 054b ee32 8ffa 8430 939e 3232 a4b4 cd32
000001c0: 213f f932 41d8 0d30 d379 0232 6d73 a732
000001d0: 9009 8332 5df7 1e31 881d a532 cd42 0433
000001e0: 0c6b 0633 be1c 9830 b740 b531 00b2 8f32
000001f0: 7b12 ca31 260e dd30 dcc4 fa32 ca4b 1133
00000200: fffe 1533 ba94 3a30 b761 bb30 73f5 8132
00000210: bbde 3132 43e9 1d31 2720 d932 33fb 0633
00000220: 0877 1633 9caa 2230 23be 8e30 c5cf 7532
00000230: 0837 4132 ddcc e630 a386 d432 c12b 0433
00000240: 48f3 1932 e48b 982e 818f eb30 3188 c731
00000250: b1bf 3032 2ff1 092f 16a9 0f30 2453 a931
00000260: 8818 0f32 de08 3d2f 1fdd 2531 84a8 ed31
00000270: 0a2c 2332 4bde 232f f1c4 a130 b17b a831
00000280: 6c6f f531 bda6 842f 78ae 7b31 3dd3 fa31
00000290: 625e 1332 d739 652f e920 0e31 4e72 bd31
000002a0: 41d6 ce31 3321 1930 91a6 9831 ddf3 fe31
000002b0: 1d9f 1032 b7d8 242f 42fd 2c31 e7f5 c631
000002c0: 6ca6 a131 cea8 fa2f 55a4 cb31 fd87 0a32
000002d0: 5e04 cc33 f27a c331 4f59 9c33 5765 0734
000002e0: 274b d733 06a3 3032 5469 9733 81ab 0034
000002f0: 86c5 e433 018e 9131 3841 9533 d090 0d34
00000300: a373 d233 2b18 fd31 6329 9233 e2f0 0234
00000310: 63ad 0434 332f 9631 ee4c 6733 809f 0334
00000320: b0da cc33 8ee5 9231 4761 a733 4ea7 0a34
00000330: 4f83 ff33 056e a131 b2dc 6033 4156 ee33
00000340: 9a81 e633 11bc 2c31 77d2 8e33 c943 0534
00000350: d9c5 f433 495d 9e31 72ad 7433 5c34 df33
00000360: eabe 8434 f140 4532 bc37 d133 2156 7b34
00000370: 76d9 8434 95cf 5732 56b0 ef33 a45d 8234
00000380: c2e9 9234 9f08 be31 8228 bc33 d5b8 7e34
00000390: 2bc0 5f34 177b 4f32 abaa 1834 8032 8c34
000003a0: c387 9934 4b86 dd31 b189 af33 0e66 6534
000003b0: 78d8 1b34 ed99 6432 8197 5f34 2f68 9b34
000003c0: 6a29 9834 c5c8 8132 8163 9333 4af9 4434
000003d0: 8e70 3534 9ea2 1c32 f6e3 4934 d8e7 9834
000003e0: 3340 9634 9b00 4d32 ee17 9b33 902c 3e34
000003f0: 52b9 8732 a65c 6830 b37e ca31 c5c4 8432
5.991042e-09 4.2660803e-10 2.825671e-09 5.980793e-09 5.8838916e-09 5.778192e-10 3.1161216e-09 6.1789946e-09
6.954512e-09 2.5167343e-10 2.4453979e-09 5.9601266e-09 4.160466e-09 3.0894456e-10 5.0863855e-09 6.925569e-09
8.3350065e-09 4.928803e-11 1.1164359e-09 5.151686e-09 3.3211687e-09 2.8746858e-10 6.0286767e-09 7.590681e-09
8.189916e-09 3.4911823e-10 9.634917e-10 4.1374926e-09 4.7796758e-09 6.850816e-11 4.7309547e-09 7.389953e-09
7.6693185e-09 2.385695e-10 1.6069318e-09 4.2595354e-09 2.153679e-08 7.757697e-10 8.884011e-09 2.0078904e-08
1.8904538e-08 8.0971685e-10 1.1796739e-08 2.0663974e-08 2.471907e-08 9.346229e-10 6.8451715e-09 2.0097305e-08
1.845539e-08 2.284032e-09 1.1928269e-08 2.0862954e-08 2.7012996e-08 6.047737e-10 4.1485815e-09 1.8218152e-08
1.5043538e-08 2.258841e-09 1.5673546e-08 2.2668772e-08 2.7647134e-08 6.3268796e-10 3.4776555e-09 1.6489452e-08
1.6236209e-08 8.8299473e-10 1.4721048e-08 2.370256e-08 2.6434522e-08 4.721484e-10 5.444999e-09 1.6163707e-08
3.4467582e-09 8.930681e-11 2.5556466e-09 4.3829256e-09 4.165236e-09 2.530918e-10 1.87662e-09 4.1502997e-09
3.6047088e-09 7.586973e-11 2.4799962e-09 4.364155e-09 3.3398737e-09 1.220758e-10 2.6760272e-09 4.5239585e-09
4.3427657e-09 6.6792925e-11 1.8425479e-09 3.8597636e-09 2.3667872e-09 1.2331362e-10 3.630872e-09 4.91846e-09
4.8030864e-09 1.5520772e-10 1.2448436e-09 3.2488783e-09 3.013932e-09 8.757955e-11 3.1394036e-09 4.6877946e-09
4.435134e-09 1.5306614e-10 1.5747202e-09 3.1912182e-09 2.7740962e-08 9.675477e-10 1.0397019e-08 2.3947287e-08
2.9016123e-08 5.1602816e-10 7.5946955e-09 1.9493848e-08 1.5254756e-08 2.3132636e-09 1.9221957e-08 3.07944e-08
3.1296665e-08 1.1067625e-09 5.2751505e-09 1.6728336e-08 5.8810747e-09 1.6083888e-09 2.9193352e-08 3.3829373e-08
3.4923684e-08 6.787776e-10 1.3633813e-09 1.5129194e-08 1.0353399e-08 2.29791e-09 2.5276746e-08 3.142777e-08
3.5032855e-08 5.9177707e-10 1.03859e-09 1.4308118e-08 1.1246591e-08 1.6792928e-09 2.4741274e-08 3.077344e-08
8.961088e-09 6.937009e-11 1.7139287e-09 5.8071454e-09 1.0288134e-08 1.2545763e-10 5.226338e-10 4.9279993e-09
8.329273e-09 1.71926e-10 2.4136353e-09 6.916766e-09 9.497862e-09 1.4903738e-10 1.1770266e-09 4.9035056e-09
7.1431057e-09 2.4129135e-10 3.6624481e-09 7.2999726e-09 8.577986e-09 2.0847978e-10 2.0682427e-09 5.513619e-09
6.019747e-09 5.5708255e-10 4.4427186e-09 7.420097e-09 8.418081e-09 1.4992706e-10 2.5173255e-09 5.7905143e-09
4.7046367e-09 4.5594678e-10 5.92676e-09 8.063577e-09 9.500285e-08 5.689224e-09 7.280561e-08 1.2609722e-07
1.0025388e-07 1.0281616e-08 7.0506445e-08 1.1983322e-07 1.0653007e-07 4.2361994e-09 6.9502164e-08 1.3184331e-07
9.799921e-08 7.3660167e-09 6.806183e-08 1.2194826e-07 1.2356536e-07 4.3709405e-09 5.3853846e-08 1.2258351e-07
9.539269e-08 4.2752566e-09 7.794238e-08 1.2913117e-07 1.1898248e-07 4.6982245e-09 5.2354785e-08 1.1098428e-07
1.0733784e-07 2.5136198e-09 6.6506736e-08 1.241125e-07 1.1398124e-07 4.6090105e-09 5.6968425e-08 1.0393771e-07
2.4725824e-07 1.1481675e-08 9.742459e-08 2.340753e-07 2.474514e-07 1.2561846e-08 1.116138e-07 2.428252e-07
2.73647e-07 5.530708e-09 8.7618005e-08 2.3722835e-07 2.0838404e-07 1.2076973e-08 1.4218192e-07 2.6113776e-07
2.859725e-07 6.447214e-09 8.1741184e-08 2.1364414e-07 1.4514251e-07 1.3306345e-08 2.082361e-07 2.8946803e-07
2.834234e-07 1.5108876e-08 6.8633206e-08 1.8344613e-07 1.6897886e-07 9.11737e-09 1.8802515e-07 2.8480895e-07
2.7986388e-07 1.1932708e-08 7.222103e-08 1.771134e-07 1.5800342e-08 8.453277e-10 5.893378e-09 1.5456303e-08

exp_avg f4 [128]
00000000: 0681 9db6 942a 44b6 88d7 7537 f5b0 79b7
00000010: 39b1 36b6 4089 c838 105b 7f38 0725 8637
00000020: 4d57 a337 a90f d837 d415 a037 41db 9337
00000030: 1fcb 3238 87d3 a436 95ed 0ab9 ceac 8337
00000040: 554a dd36 8816 cbb7 8a9e 39b8 ec91 8bb5
00000050: 0087 1fb7 ed54 3db5 621e 84b7 6589 ceb7
00000060: dfec 1eb6 0c2b 4bb8 d869 55b7 df89 2cb7
00000070: f0b2 3b38 c510 1634 1d9f 2837 253d b3b7
00000080: a8a0 e1b7 eb1a 10b8 55b2 c4b6 0512 e5b6
00000090: e0d8 4838 ed92 2db8 f7da 8c35 c01e 78b5
000000a0: 0676 2936 2114 8638 5da5 8138 dde3 98b5
000000b0: a953 1536 20d7 a6b8 7c70 8836 9ac1 0d38
000000c0: c04c 2738 52a5 99b5 0f91 1fb5 2e2e a337
000000d0: fa9b 2eb7 bdfb 3c38 c474 60b8 1058 0cb8
000000e0: 0e7c a338 e6ab ed37 7a1a 2433 2d0e f236
000000f0: edf1 9c36 75a1 53b7 0d2d a0b7 1ae7 4eb7
00000100: 075e dc37 0206 6837 fd26 adb7 22b5 72b7
00000110: 6915 3837 7e24 bcb7 5729 b037 76e2 b6b5
00000120: 780c 1337 4bd2 b1b5 3ff1 f7b6 b8d1 5db7
00000130: 7bcd 2c38 4a97 8137 71eb feb7 1a87 adb7
00000140: 06ca 0438 e90a 5b38 3c6d c9b7 ab33 d2b8
00000150: 6512 1c38 496c 4cb6 a061 59b8 2a72 b9b6
00000160: 951a d437 e13f 78b8 1c99 78b8 61ca 7ab7
00000170: c602 8c38 aedf 4bb7 a9b9 b638 6c52 f936
00000180: c52d 27b6 9f68 88b6 6792 9db7 b6e2 2637
00000190: 61f4 37b7 3559 da35 5a86 30b8 b8b5 60b8
000001a0: 4ce1 49b7 6bb4 d0b7 fb7b d3b7 2743 db37
000001b0: 58ed 82b7 03c5 7b36 aa09 8a36 fa7d 0c38
000001c0: 4064 0038 ad46 13b7 c580 34b8 cff6 8637
000001d0: 0cda 8837 724d 3237 d52e d4b6 fa59 96b8
000001e0: 84f9 a8b8 95aa 44b8 f92d 66b8 4dec ca37
000001f0: c724 9235 4bef a1b7 9c20 d537 b4f2 0ab8
-4.693985e-06 -2.923106e-06 1.465332e-05 -1.4882758e-05 -2.722327e-06 9.562308e-05 6.0881546e-05 1.5991287e-05
1.9471767e-05 2.5756499e-05 1.908365e-05 1.7625864e-05 4.262768e-05 4.912206e-06 -0.00013249212 1.5696885e-05
6.5949666e-06 -2.4209978e-05 -4.4255088e-05 -1.0398776e-06 -9.508571e-06 -7.053157e-07 -1.5749774e-05 -2.4621093e-05
-2.3681712e-06 -4.8439062e-05 -1.2720433e-05 -1.02840995e-05 4.4750923e-05 1.397594e-07 1.0050627e-05 -2.1366935e-05
-2.6896902e-05 -3.4357345e-05 -5.8620158e-06 -6.8268296e-06 4.7885696e-05 -4.138325e-05 1.049454e-06 -9.2431947e-07
2.525166e-06 6.393367e-05 6.182001e-05 -1.13912e-06 2.2251427e-06 -7.955567e-05 4.0662107e-06 3.3797325e-05
3.988738e-05 -1.1447503e-06 -5.9443204e-07 1.9452618e-05 -1.0407524e-05 4.5057142e-05 -5.351451e-05 -3.3460616e-05
7.795553e-05 2.8332648e-05 3.8208306e-08 7.2138123e-06 4.677326e-06 -1.2614172e-05 -1.9094465e-05 -1.2332364e-05
2.6269829e-05 1.3829676e-05 -2.0641362e-05 -1.4466497e-05 1.097224e-05 -2.242834e-05 2.1000085e-05 -1.3625965e-06
8.764786e-06 -1.3248731e-06 -7.3892584e-06 -1.3221455e-05 4.1199364e-05 1.5448448e-05 -3.0388795e-05 -2.0686119e-05
3.16594e-05 5.222383e-05 -2.4011933e-05 -0.00010023204 3.721043e-05 -3.04614e-06 -5.1827752e-05 -5.52672e-06
2.5284748e-05 -5.91873e-05 -5.9270402e-05 -1.4948281e-05 6.676237e-05 -1.2151822e-05 8.713018e-05 7.4303734e-06
-2.491158e-06 -4.0652953e-06 -1.8784032e-05 9.947156e-06 -1.0964549e-05 1.6268228e-06 -4.2086795e-05 -5.3575e-05
-1.203299e-05 -2.4879546e-05 -2.5210893e-05 2.6138105e-05 -1.560773e-05 3.751659e-06 4.1138455e-06 3.3495926e-05
3.0610943e-05 -8.778338e-06 -4.303527e-05 1.6088974e-05 1.6314e-05 1.0627658e-05 -6.3235443e-06 -7.169317e-05
-8.05734e-05 -4.688891e-05 -5.487909e-05 2.4190313e-05 1.0888551e-06 -1.9304125e-05 2.5406764e-05 -3.31278e-05

exp_avg_sq f4 [128]
00000000: 11ae 2232 5eed 0733 cc6c d831 c6e0 1c33
00000010: b57b 3932 6241 3f34 c051 c334 6035 c432
00000020: 6262 3434 8033 4533 3773 b834 28ed 9132
00000030: 583d 4d34 82d9 1231 b865 9134 5957 9c32
00000040: 8d26 0532 be24 e433 37a6 0834 7d91 6432
00000050: f49a 9f34 e878 1d34 4099 ba33 7746 3433
00000060: a6c9 1e31 62f2 0734 fab1 4834 8e32 8633
00000070: e7b5 cc33 44fc 9033 55d5 8231 ba83 ff34
00000080: e0c9 a232 ed65 7533 cf1a 8833 bbe0 8232
00000090: 96fc cd33 5c06 cb34 8652 3a33 f2c6 5b33
000000a0: 0740 db32 2aa0 3d35 dab4 5a34 599c 7233
000000b0: 8fb6 ce31 4cdc 0235 a3ae 6831 5f7b 4b32
000000c0: 7687 db33 238d a732 6d92 1e31 1286 bf33
000000d0: 1748 1033 42b6 2a33 26e9 3e35 c24d 8c33
000000e0: eb7a 8c34 36f2 c333 9300 8434 99fe 0933
000000f0: 204d 9c31 df04 ca32 8567 4533 27a3 6334
00000100: fcca 0033 d1aa 8a33 f773 d833 217f 4932
00000110: aa45 1833 7ff4 ec34 0a5d 0134 b621 fd32
00000120: 8c00 c833 87f6 9c32 a385 2f33 5846 8631
00000130: b866 b533 795b 8733 a39b 7333 48ed 1033
00000140: 03d9 c833 d71c 9733 abcf d033 aa3f 9a33
00000150: fb24 c433 8c3c 3333 8201 6c33 5296 4b32
00000160: 07cf 9c32 4f11 eb32 e92a ed34 13b7 0b33
00000170: 610d 0833 bf51 1a34 bde9 7833 8705 6333
00000180: af95 2333 be6b 8b32 28d7 3334 47a3 9c34
00000190: 96e3 9431 a588 3f32 26ce 8e33 23ab c533
000001a0: 68f1 5f32 ebf8 f233 9d53 5333 e937 9c32
000001b0: f822 5732 5eb0 6432 5ff8 4733 e840 b734
000001c0: f20d 1d34 850a 8432 5401 4e33 8e76 1e33
000001d0: 5cb4 8b33 73b0 b832 69f3 7633 5202 9634
000001e0: 0839 a533 0a06 ae33 492d 2834 50f0 af33
000001f0: 86af 6b33 50c3 8a32 229d 8933 a2f6 bd32
9.469219e-09 3.164802e-08 6.298796e-09 3.652601e-08 1.0796545e-08 1.7812047e-07 3.638106e-07 2.2841675e-08
1.6799598e-07 4.5914476e-08 3.43565e-07 1.6988068e-08 1.911443e-07 2.1369435e-09 2.7082365e-07 1.8200511e-08
7.750384e-09 1.0623761e-07 1.2726456e-07 1.3304427e-08 2.97288e-07 1.466575e-07 8.689176e-08 4.1973603e-08
2.310665e-09 1.2661033e-07 1.8691199e-07 6.249057e-08 9.532578e-08 6.7514094e-08 3.807751e-09 4.7593295e-07
1.8951084e-08 5.713621e-08 6.33787e-08 1.5236187e-08 9.5920015e-08 3.7816324e-07 4.3381554e-08 5.117085e-08
2.5524072e-08 7.0641056e-07 2.0368626e-07 5.6487213e-08 6.0161436e-09 4.874935e-07 3.3859713e-09 1.18442065e-08
1.02226224e-07 1.950554e-08 2.307526e-09 8.918518e-08 3.3593178e-08 3.9746972e-08 7.111979e-07 6.533402e-08
2.6166467e-07 9.124453e-08 2.4587334e-07 3.2129353e-08 4.5489656e-09 2.351811e-08 4.5961787e-08 2.1200377e-07
2.9986936e-08 6.457197e-08 1.0079378e-07 1.1728646e-08 3.5453617e-08 4.413632e-07 1.2047909e-07 2.9468406e-08
9.313325e-08 1.8272898e-08 4.0866905e-08 3.9079104e-09 8.447154e-08 6.303066e-08 5.6719397e-08 3.374342e-08
9.3527e-08 7.0367314e-08 9.7235294e-08 7.182764e-08 9.133688e-08 4.1731752e-08 5.4949403e-08 1.1850334e-08
1.8254935e-08 2.7365472e-08 4.417591e-07 3.2529964e-08 3.1677136e-08 1.4372107e-07 5.7954583e-08 5.2857583e-08
3.808753e-08 1.6230725e-08 1.6748947e-07 2.9176064e-07 4.3332404e-09 1.1148733e-08 6.6498885e-08 9.204657e-08
1.3035198e-08 1.1314281e-07 4.920331e-08 1.8186215e-08 1.2522598e-08 1.3311448e-08 4.655919e-08 3.4133632e-07
1.4626838e-07 1.5371606e-08 4.796432e-08 3.6895067e-08 6.505499e-08 2.1500659e-08 5.749772e-08 2.7941365e-07
7.693785e-08 8.103605e-08 1.5662694e-07 8.192785e-08 5.487484e-08 1.6154132e-08 6.408142e-08 2.2114651e-08
