results/car2/CarFindGoal/CarFindGoal-545519.pt (torch, 30531 bytes, 24 tensors)

network_body._body_endoder.seq_layers.0.weight f4 [20, 36]
0.041524846 0.03129824 0.07429703 0.2528472 -0.07644214 0.21852584 -0.026494335 -0.114359505
-0.19163832 -0.17029531 0.3986578 0.053114608 0.036653448 0.18478948 -0.14915028 -0.025982598
0.18734983 -0.1875647 0.400586 0.37917283 0.18591698 -0.04146087 -0.16673781 0.08819504
0.023439605 0.10637887 0.21713465 0.10475177 0.07153713 -0.014766507 -0.40377024 0.5562618
-0.1290369 -0.028021552 0.21955556 -0.17718026 0.08994287 0.043640148 0.3161855 -0.20620045
0.064548045 -0.16735032 0.34032047 -0.1540493 -0.086931065 0.23590355 0.29667848 0.051714875
0.27680898 0.52897686 -0.08403205 0.007974647 0.26103103 -0.26263776 -0.023413038 0.029095743
0.23785357 -0.10641704 0.10813463 0.086183354 0.0063441684 0.27002636 0.30544946 -0.13021022
0.26523373 0.16848648 0.011039932 -0.21403341 0.20289895 0.01745667 0.11134307 0.16345896
0.21088 -0.09844535 0.2149569 0.10930022 0.25840327 -0.19838038 0.34792364 -0.058874093
0.28831828 0.1650232 0.06675162 0.033831418 0.14198412 -0.04692517 -0.017248388 -0.19249254
0.27676457 -0.18521798 -0.21892715 -0.064581476 0.3663084 0.05383526 0.2175371 -0.30973005
0.23032296 0.28509125 -0.17696722 -0.1863917 0.106426865 0.025190352 0.046426512 -0.14177835
-0.027722366 -0.13278571 0.14219478 -0.03608378 0.10240985 -0.48874566 -0.047609054 0.10856608
-0.045186937 -0.093787596 -0.082359456 -0.044279903 0.056722116 -0.13047849 -0.061290972 -0.0485097
-0.044747073 -0.21473444 0.18938784 0.4620923 0.08138939 0.40756094 0.12231249 0.17492096
-0.40280008 0.0752403 0.07886642 0.043176997 0.085637234 -0.08338213 -0.17186853 -0.17863578
-0.043830127 -0.29913917 0.18680625 0.22141023 0.07391158 -0.020853158 -0.08899872 -0.42556536
0.14532559 0.22591518 0.02726274 0.012334348 0.20800224 0.045016024 0.09975448 -0.11966554
0.33692104 -0.1621935 0.111319855 0.024636727 0.21032603 -0.33469406 -0.19728093 0.18474887
0.19344445 -0.29591694 -0.22123785 -0.019419137 -0.12398395 -0.095600024 0.03546572 0.09935239
0.17292216 0.58846796 -0.44646823 0.0039387657 -0.15521842 0.2964143 -0.06478524 0.10879214
0.18488961 0.17928764 0.06232792 -0.056817148 -0.3575602 0.29050058 -0.21367285 -0.26820308
-0.040254306 0.114192314 0.04364758 0.03580982 0.29186216 -0.16806175 0.055000477 0.026639065
-0.20382243 -0.3490876 0.012973982 0.095300436 -0.059301436 0.21691209 0.2623618 0.31007648
-0.5660855 -0.03569603 0.20009792 0.018010933 -0.1294084 -0.14878498 -0.17595531 -0.2760616
0.119294845 0.023194343 -0.14146186 0.23431629 0.21861681 -0.038591888 -0.019687403 0.0073937164
0.095311 -0.15426971 -0.14170276 0.23581721 0.081595995 0.19357398 -0.13764301 -0.0119593665
-0.0403456 0.19408046 -0.2894497 0.07783248 0.12091131 -0.301723 -0.028593764 0.27344093
-0.22734484 0.16781813 -0.16428187 0.14543131 0.01839164 0.120329164 0.46625033 -0.3198091
0.1467302 0.32858166 -0.04495619 -0.13435948 -0.16828269 -0.11822062 0.43433124 0.34691846
0.17489767 0.175306 -0.17730533 -0.30097222 0.013879372 0.09340943 -0.1220473 0.1317811
00000000: f515 2a3d 9532 003d 0b29 983d 3075 813e
00000010: b28d 9cbd 3dc5 5f3e a60a d9bc 5135 eabd
00000020: d63c 44be e561 2ebe e01c cc3e b48e 593d
00000030: ed21 163d 7439 3d3e daba 18be 75d9 d4bc
00000040: a2d8 3f3e f610 40be 9c19 cd3e f122 c23e
00000050: 0561 3e3e e0d2 29bd 51bd 2abe 9a9f b43d
00000060: 6a04 c03c 2add d93d 8c58 5e3e 1988 d63d
00000070: 0f82 923d 38ef 71bc f9ba cebe 2c67 0e3f
00000080: 4022 04be 748d e5bc 2cd3 603e be6e 35be
00000090: f833 b83d 03c0 323d 11e3 a13e 3626 53be
000000a0: c431 843d e25d 2bbe 7c3e ae3e 1abf 1dbe
000000b0: ea08 b2bd b390 713e 3ee6 973e fad2 533d
000000c0: e8b9 8d3e 076b 073f ff18 acbd 18a8 023c
000000d0: dca5 853e 7578 86be b3cc bfbc 325a ee3c
000000e0: e38f 733e 2df1 d9bd b075 dd3d e680 b03d
000000f0: bee2 cf3b e540 8a3e df63 9c3e d455 05be
00000100: b7cc 873e b887 2c3e d5e0 343c 932b 5bbe
00000110: bec4 4f3e 4a01 8f3c d607 e43d c961 273e
00000120: edf0 573e b79d c9bd a91d 5c3e cbd8 df3d
00000130: 6f4d 843e 3a24 4bbe 0c23 b23e f625 71bd
00000140: 749e 933e d7fb 283e 13b5 883d d092 0a3d
00000150: 4964 113e 9b34 40bd 7e4c 8dbc c41c 45be
00000160: 16b4 8d3e c8a9 3dbe 702e 60be 4b43 84bd
00000170: c68c bb3e 5d82 5c3d 0cc2 5e3e f094 9ebe
00000180: c8d9 6b3e 7bf7 913e e536 35be 77dd 3ebe
00000190: 54f6 d93d ff5b ce3c ba29 3e3d 582e 11be
000001a0: 041a e3bc faf8 07be 829b 113e 96cc 13bd
000001b0: 41bc d13d df3c fabe b601 43bd e557 de3d
000001c0: f015 39bd b613 c0bd 13ac a8bd d85e 35bd
000001d0: 7355 683d 279c 05be 3e0c 7bbd 1bb2 46bd
000001e0: b548 37bd 58e3 5bbe e3ee 413e 5d97 ec3e
000001f0: 7baf a63d d4ab d03e f97e fa3d 7b1e 333e
00000200: d03b cebe 9617 9a3d b884 a13d 5dda 303d
00000210: 9362 af3d 40c4 aabd 4efe 2fbe 4cec 36be
00000220: 3887 33bd c528 99be 234a 3f3e 5db9 623e
00000230: f45e 973d 3ed4 aabc f644 b6bd b4e3 d9be
00000240: 3bd0 143e 4f56 673e 1c56 df3c 0116 4a3c
00000250: 8afe 543e b962 383d 144c cc3d 3513 f5bd
00000260: ea80 ac3e 0e16 26be aafb e33d f6d2 c93c
00000270: b55f 573e 055d abbe 0304 4abe cf2e 3d3e
00000280: 4d16 463e 6d82 97be 2d8c 62be e214 9fbc
00000290: 4ceb fdbd f2c9 c3bd 8144 113d 4479 cb3d
000002a0: 8212 313e d6a5 163f 7c97 e4be c310 813b
000002b0: 94f1 1ebe 9dc3 973e 20ae 84bd 6ace de3d
000002c0: b453 3d3e 2e97 373e 904b 7f3d 19b9 68bd
000002d0: 2112 b7be 7ebc 943e 0ecd 5abe ea51 89be
000002e0: b3e1 24bd a9dd e93d cec7 323d 51ad 123d
000002f0: f56e 953e 6118 2cbe 2e48 613d 2b3a da3c
00000300: d4b6 50be 9cbb b2be d390 543c e02c c33d
00000310: 10e6 72bd 341e 5e3e 4954 863e 58c2 9e3e
00000320: fbea 10bf 0036 12bd 78e6 4c3e aa8b 933c
00000330: a383 04be 175b 18be a12d 34be f257 8dbe
00000340: db50 f43d 1002 be3c 61db 10be 9cf0 6f3e
00000350: 16dd 5f3e 8712 1ebd 7a47 a1bc fd46 f23b
00000360: 6a32 c33d e1f8 1dbe 871a 11be 117a 713e
00000370: cd1b a73d 4238 463e 4af2 0cbe 38f1 43bc
00000380: 6e41 25bd 07bd 463e c032 94be a366 9f3d
00000390: 59a0 f73d 707b 9abe 783d eabc 7300 8c3e
000003a0: 16cd 68be 84d8 2b3e 8239 28be f2eb 143e
000003b0: 11aa 963c 236f f63d 5db8 ee3e 05be a3be
000003c0: 7140 163e db3b a83e fb23 38bd 8895 09be
000003d0: 4c52 2cbe a71d f2bd aa60 de3e 4c9f b13e
000003e0: 6018 333e 6b83 333e 878f 35be 0819 9abe
000003f0: 4e66 633c 714d bf3d eff3 f9bd a0f1 063e

network_body._body_endoder.seq_layers.0.bias f4 [20]
0.076890275 0.091585524 0.09736063 0.0029730804 0.11226554 0.008746771 0.055889904 0.04296178
0.069077335 0.040351126 0.11926327 0.034124956 0.008917623 0.0505386 0.08853695 0.030073686
-0.011245605 -0.16890423 0.103240006 0.07732964
00000000: a678 9d3d 3191 bb3d 0365 c73d 03d8 423b
00000010: 7aeb e53d 9e4e 0f3c d0ec 643d b1f8 2f3d
00000020: 6b78 8d3d 3947 253d 4d40 f43d 9cc6 0b3d
00000030: 391b 123c 9001 4f3d dc52 b53d 175d f63c
00000040: 7c3f 38bc 3bf5 2cbe 7f6f d33d 015f 9e3d

action_model._continuous_distribution.log_sigma f4 [1, 2]
0.3373857 0.027340913
00000000: d2bd ac3e 0dfa df3c

action_model._continuous_distribution.mu.weight f4 [2, 20]
-0.13331535 -0.14768526 -0.16499026 0.1542975 -0.19971956 0.0660041 0.05179011 0.15566547
0.12665474 0.08695472 -0.24573828 0.019384006 0.022078909 -0.068691485 -0.03489365 0.04229459
0.17616259 0.07834018 -0.18382563 -0.29366782 0.1703212 0.111479715 -0.06923199 -0.08840261
-0.06433617 -0.046790842 -0.17508589 0.17668685 -0.16203684 -0.057062026 -0.0758408 -0.15222885
-0.105734065 0.15156147 0.04099737 0.17615138 -0.0037560195 -0.03564037 -0.042650435 -0.025221271
00000000: d283 08be ce3a 17be 35f3 28be 2a00 1e3e
00000010: 4983 4cbe 282d 873d de21 543d c566 1f3e
00000020: c8b1 013e 5115 b23d d1a2 7bbe 35cb 9e3c
00000030: d4de b43c 1fae 8cbd a5ec 0ebd 183d 2d3d
00000040: f763 343e d170 a03d c93c 3cbe a15b 96be
00000050: ae68 2e3e 7a4f e43d 80c9 8dbd 6d0c b5bd
00000060: afc2 83bd c1a7 3fbd b749 33be 66ed 343e
00000070: fcec 25be dfb9 69bd 6c52 9bbd e1e1 1bbe
00000080: 1a8b d8bd ee32 1b3e dcec 273d 0761 343e
00000090: 8d27 76bb a3fb 11bd 39b2 2ebd d79c cebc

action_model._continuous_distribution.mu.bias f4 [2]
-0.03071297 0.0065882304
00000000: c499 fbbc 15e2 d73b

exp_avg f4 [20, 36]
-1.8816084e-37 -1.41733235e-05 0.0073569254 0.0073445155 5.5093624e-10 -6e-45 0.0073427507 0.0073427516
-6e-45 -1.5932715e-09 0.0073427535 0.0073427516 -5.6608345e-09 -2.884889e-27 0.007342757 0.0073427516
1.16e-43 -5.3652497e-05 0.0073964046 0.007369143 8.796757e-10 0.00035437185 0.0069883815 0.0071189096
-6e-45 1.1296332e-07 0.00734264 0.007342704 -6e-45 -6.661923e-35 0.0073427516 0.0073427516
-6e-45 0.005204188 0.002138564 0.0050625266 -1.214435e-37 -9.3479275e-06 0.0054414007 0.005433216
3.864038e-10 -6e-45 0.005432052 0.005432053 -6e-45 -5.151426e-10 0.0054320535 0.005432053
-3.4462475e-09 -2.1127627e-27 0.0054320563 0.005432053 9.5e-44 8.6111584e-05 0.0053459415 0.0053864904
1.292909e-09 0.00019695953 0.0052350927 0.005306235 6e-45 8.580888e-08 0.0054319673 0.0054320153
-6e-45 -4.3099793e-35 0.005432053 0.005432053 -6e-45 0.0038263863 0.0016056676 0.0037544856
8.140895e-39 1.5082946e-08 0.00072581664 0.0007258301 -1.0872225e-11 -6e-45 0.0007258318 0.0007258318
-6e-45 1.5496608e-09 0.00072583015 0.0007258311 1.7958133e-09 7.9832294e-29 0.0007258299 0.0007258318
1.5e-44 0.00024089504 0.00048493667 0.00060119183 1.4214109e-09 -4.5834517e-05 0.0007716647 0.0007521837
6e-45 1.42151055e-08 0.00072581746 0.00072582264 6e-45 7.042169e-36 0.0007258318 0.0007258318
-6e-45 0.00043761233 0.00028821925 0.000531781 7.283523e-38 3.5617595e-06 -0.004157212 -0.004154094
-1.7903273e-10 6e-45 -0.0041536507 -0.004153651 6e-45 9.957973e-11 -0.004153651 -0.004153651
1.4856804e-09 5.8357796e-28 -0.0041536526 -0.004153651 -6.6e-44 -0.00011992112 -0.004033729 -0.004090851
-4.0822223e-10 -0.00012112498 -0.004032525 -0.0040756743 -6e-45 -5.445879e-08 -0.0041535962 -0.004153626
6e-45 3.3616315e-36 -0.004153651 -0.004153651 6e-45 -0.003054552 -0.0010990982 -0.0028106903
1.423435e-39 -6.1721727e-07 0.0012497634 0.0012492232 3.2052045e-11 -6e-45 0.0012491463 0.0012491463
-6e-45 1.108616e-09 0.0012491451 0.0012491457 1.0468151e-09 9.223215e-30 0.0012491453 0.0012491464
1.7e-44 0.00020239952 0.0010467467 0.0011443787 1.1162399e-09 -2.552982e-05 0.0012746749 0.0012633707
6e-45 2.717982e-08 0.0012491192 0.0012491306 6e-45 -3.4755875e-36 0.0012491463 0.0012491463
-6e-45 0.0009220756 0.00032707068 0.0008414386 1.6567608e-38 3.5253067e-06 -0.001462218 -0.0014591322
-8.743537e-11 6e-45 -0.0014586926 -0.0014586926 6e-45 1.2118936e-10 -0.0014586927 -0.0014586926
9.243186e-10 4.4188185e-28 -0.0014586934 -0.0014586926 -2.7e-44 -2.3006163e-05 -0.0014356866 -0.0014465573
-8.7950064e-11 -4.408215e-05 -0.0014146104 -0.0014304976 6e-45 -2.6633783e-08 -0.0014586658 -0.001458681
6e-45 1.0445481e-35 -0.0014586926 -0.0014586926 6e-45 -0.0010418326 -0.00041686025 -0.0010014058
1.596098e-37 6.1671453e-06 -0.0038956983 -0.003890298 -3.310034e-10 -6e-45 -0.0038895302 -0.0038895307
-6e-45 1.8948911e-09 -0.0038895325 -0.0038895316 4.1135215e-09 1.0409557e-27 -0.0038895349 -0.0038895307
-5.6e-44 0.00019427558 -0.004083806 -0.003989094 2.0023018e-10 -0.00018151043 -0.0037080203 -0.0037761284
6e-45 -6.4077774e-08 -0.0038894669 -0.003889505 6e-45 2.2281642e-35 -0.0038895307 -0.0038895307
6e-45 -0.0030303102 -0.0008592206 -0.0025623494 -4.5170957e-38 -6.748886e-06 0.00071505556 0.0007091449
00000000: 3e0e 8082 f6c9 6db7 5d12 f13b 43aa f03b
00000010: b170 1730 0400 0080 759b f03b 779b f03b
00000020: 0400 0080 42fa dab0 7b9b f03b 779b f03b
00000030: 3a81 c2b1 8090 6493 839b f03b 779b f03b
00000040: 5300 0000 ee08 61b8 8a5d f23b da78 f13b
00000050: adcd 7130 fcca b939 cbfe e43b be45 e93b
00000060: 0400 0080 3e96 f233 879a f03b 119b f03b
00000070: 0400 0080 b31a b186 779b f03b 779b f03b
00000080: 0400 0080 e587 aa3b 2627 0c3b 8de3 a53b
00000090: e24c 2582 0bd5 1cb7 c74d b23b 1f09 b23b
000000a0: 806d d42f 0400 0080 5bff b13b 5dff b13b
000000b0: 0400 0080 f099 0db0 5eff b13b 5dff b13b
000000c0: 07d3 6cb1 eb63 2793 64ff b13b 5dff b13b
000000d0: 4400 0000 ce96 b438 022d af3b 2881 b03b
000000e0: 31b2 b130 ec86 4e39 248b ab3b eddf ad3b
000000f0: 0400 0000 ee45 b833 a5fe b13b 0cff b13b
00000100: 0400 0080 6628 6586 5dff b13b 5dff b13b
00000110: 0400 0080 1cc4 7a3b 4475 d23a d10d 763b
00000120: 81a5 5800 c08f 8132 bb44 3e3a a245 3e3a
00000130: 2644 3fad 0400 0080 bf45 3e3a bf45 3e3a
00000140: 0400 0080 d8fb d430 a345 3e3a b345 3e3a
00000150: 90d0 f630 1f66 ca10 9f45 3e3a bf45 3e3a
00000160: 0b00 0000 c598 7c39 193f fe39 4d99 1d3a
00000170: 735b c330 703e 40b8 8b49 4a3a 322e 453a
00000180: 0400 0000 b236 7432 c944 3e3a 2245 3e3a
00000190: 0400 0000 37c5 1505 bf45 3e3a bf45 3e3a
000001a0: 0400 0080 556f e539 221c 9739 3867 0b3a
000001b0: bf46 c601 9006 6f36 3939 88bb 111f 88bb
000001c0: 3cd9 44af 0400 0000 591b 88bb 5a1b 88bb
000001d0: 0400 0000 68fa da2e 5a1b 88bb 5a1b 88bb
000001e0: bb30 cc30 78f1 3812 5d1b 88bb 5a1b 88bb
000001f0: 2f00 0080 297e fbb8 5f2d 84bb 8c0c 86bb
00000200: 2c6c e0af 7a04 feb8 4523 84bb 3c8d 85bb
00000210: 0400 0080 13e6 69b3 e41a 88bb 241b 88bb
00000220: 0400 0000 edfc 8e04 5a1b 88bb 5a1b 88bb
00000230: 0400 0000 e12e 48bb 9e0f 90ba 8f33 38bb
00000240: f57f 0f00 d9ae 25b5 1acf a33a fabc a33a
00000250: 65f7 0c2e 0400 0080 65ba a33a 65ba a33a
00000260: 0400 0080 f55d 9830 5bba a33a 60ba a33a
00000270: 88df 8f30 ac11 3b0f 5cba a33a 66ba a33a
00000280: 0c00 0000 353b 5439 fe32 893a fafe 953a
00000290: 336a 9930 df28 d6b7 fe12 a73a b097 a53a
000002a0: 0400 0000 0e79 e932 7cb9 a33a deb9 a33a
000002b0: 0400 0000 ccd5 9384 65ba a33a 65ba a33a
000002c0: 0400 0080 72b7 713a af7a ab39 fd93 5c3a
000002d0: c067 b400 4f94 6c36 e5a7 bfba 5a40 bfba
000002e0: bd45 c0ae 0400 0000 9a31 bfba 9a31 bfba
000002f0: 0400 0000 c63f 052f 9b31 bfba 9a31 bfba
00000300: 2413 7e30 b709 0c12 a131 bfba 9a31 bfba
00000310: 1300 0080 5cfd c0b7 a62d bcba 699a bdba
00000320: 7c67 c1ae d9e4 38b8 736a b9ba 897f bbba
00000330: 0400 0000 4fc8 e4b2 b430 bfba 3631 bfba
00000340: 0400 0000 9c26 5e05 9a31 bfba 9a31 bfba
00000350: 0400 0000 1a8e 88ba 098e dab9 9a41 83ba
00000360: e63f 5902 60ef ce36 f94e 7fbb 5ff4 7ebb
00000370: 96f8 b5af 0400 0080 7de7 7ebb 7fe7 7ebb
00000380: 0400 0080 4737 0231 87e7 7ebb 83e7 7ebb
00000390: eb56 8d31 2ef2 a412 91e7 7ebb 7fe7 7ebb
000003a0: 2800 0080 74b6 4b39 73d1 85bb f2b6 82bb
000003b0: c927 5c2f d653 3eb9 4202 73bb ec78 77bb
000003c0: 0400 0000 219b 89b3 6de6 7ebb 11e7 7ebb
000003d0: 0400 0000 66f0 ec05 7fe7 7ebb 7fe7 7ebb
000003e0: 0400 0000 2b98 46bb 523d 61ba 17ed 27bb
000003f0: 20ef 7581 7d74 e2b6 9172 3b3a e9e5 393a

exp_avg_sq f4 [20, 36]
1.8229838e-06 4.779873e-05 0.0002700751 0.000305336 1.1286378e-05 5.2068767e-06 0.00029840288 0.0003099201
5.755825e-07 7.0466835e-05 0.0002463609 0.0002742063 7.9442645e-05 1.423849e-05 0.00022269382 0.0003061419
3.4320433e-07 8.426971e-06 0.0003066202 0.00030951196 5.712334e-05 1.0621441e-05 0.000245902 0.00030614948
2.5870052e-06 2.8381366e-05 0.00028625646 0.00029918595 6.546338e-06 1.022451e-05 0.00029876252 0.00030726384
9.621612e-06 3.664451e-05 0.0002708226 0.0002989527 1.0390656e-06 2.0074274e-05 0.00014823754 0.00016149695
5.377108e-06 2.1418061e-06 0.00015895878 0.0001644876 6.114349e-07 3.8532584e-05 0.00012995412 0.00014406434
4.1731168e-05 8.412735e-06 0.000118012504 0.00016137311 4.3169248e-07 6.058624e-06 0.00016022599 0.00016198233
2.7746788e-05 5.1032744e-06 0.00013288567 0.00016236349 1.0782426e-06 1.516397e-05 0.00015125652 0.00015784723
3.766831e-06 5.575129e-06 0.00015744465 0.00016195948 5.1518996e-06 2.4552526e-05 0.00013742333 0.00015895747
5.734545e-07 1.7071401e-06 2.9928382e-05 3.1860145e-05 1.7524766e-06 2.3681403e-07 3.0637046e-05 3.193517e-05
5.534003e-07 7.0938954e-06 2.4233654e-05 2.7856266e-05 6.541286e-06 2.0381156e-06 2.4151033e-05 3.0946303e-05
4.5823995e-07 2.4439614e-06 2.9103592e-05 3.0259283e-05 4.865644e-06 1.4530655e-06 2.6516298e-05 3.115114e-05
5.8213726e-07 5.226602e-06 2.674583e-05 2.917072e-05 2.6255047e-06 1.3889553e-06 2.811381e-05 3.0024927e-05
1.134337e-06 3.4018933e-06 2.806877e-05 3.0716223e-05 7.25611e-07 3.2938517e-06 5.085268e-05 5.3184016e-05
1.7532017e-06 7.3425326e-07 5.1371953e-05 5.3496555e-05 5.7815134e-07 1.1580434e-05 4.311679e-05 4.7553192e-05
7.408509e-06 1.226684e-06 4.6038454e-05 5.365152e-05 3.933177e-07 2.800887e-06 5.111047e-05 5.2011288e-05
2.910562e-06 1.5547403e-06 4.949337e-05 5.3125983e-05 9.782667e-07 6.5586055e-06 4.7350684e-05 5.006107e-05
1.2778502e-06 6.051172e-07 5.228237e-05 5.358838e-05 2.753764e-06 1.1472552e-05 3.9842413e-05 4.9877704e-05
1.067917e-06 5.970937e-06 3.4802557e-05 3.9687442e-05 2.29793e-06 1.5018215e-06 3.8447455e-05 4.0347673e-05
1.0390188e-06 2.6254215e-06 3.8247254e-05 4.0082738e-05 7.850163e-06 1.3098174e-06 3.3394695e-05 4.0972922e-05
8.225947e-07 2.067273e-06 3.9034167e-05 4.0152583e-05 5.292704e-06 1.0810293e-06 3.6402354e-05 4.1164083e-05
1.0638954e-06 9.274007e-06 3.2185584e-05 3.679866e-05 1.6441078e-06 2.3033501e-06 3.784215e-05 3.993995e-05
2.409717e-06 9.678031e-06 3.0342451e-05 3.815194e-05 3.6658233e-07 4.994467e-06 1.4005881e-05 1.6936907e-05
3.2980734e-07 1.0009811e-06 1.7723125e-05 1.823086e-05 4.5998584e-07 2.6868795e-06 1.6203618e-05 1.7452985e-05
1.2246397e-06 5.944749e-07 1.7412929e-05 1.8934652e-05 2.6404146e-07 7.148733e-07 1.8270468e-05 1.858283e-05
6.1095756e-07 3.3693215e-07 1.825446e-05 1.9024004e-05 4.3305582e-07 1.8019635e-06 1.7096721e-05 1.8012151e-05
9.061467e-07 7.294491e-07 1.7414683e-05 1.8430219e-05 1.3455401e-06 1.7219263e-06 1.6184345e-05 1.8004721e-05
2.1643716e-06 1.3449879e-05 0.00011508088 0.00012684322 8.974857e-06 2.6192326e-06 0.000118183656 0.00012687976
1.1881758e-06 4.743565e-05 8.174783e-05 0.00010174058 3.6342608e-05 3.0063686e-06 9.0575144e-05 0.00012770976
8.010353e-07 7.5134576e-06 0.00012151307 0.00012424683 1.7312395e-05 3.2981327e-06 0.000109271605 0.00012791766
2.376497e-06 1.804138e-05 0.00011133897 0.00011865181 1.3375678e-06 9.4392124e-07 0.00012918835 0.00013047578
6.3216785e-06 1.3591446e-05 0.000112095026 0.00012027124 1.2311531e-06 4.790085e-05 0.00021632604 0.0002603028
00000000: 3fad f435 7f7b 4838 de98 8d39 8115 a039
00000010: a05a 3d37 bbb6 ae36 f572 9c39 c67c a239
00000020: ba81 1a35 98c7 9338 002a 8139 59c3 8f39
00000030: 729a a638 d9e1 6e37 eb82 6939 ac81 a039
00000040: a541 b834 9161 0d37 dec1 a039 fe45 a239
00000050: b897 6f38 be32 3237 68ec 8039 b082 a039
00000060: 699c 2d36 8514 ee37 b114 9639 0fdc 9c39
00000070: 9ea8 db36 f089 2b37 3aa3 9c39 4118 a139
00000080: 826c 2137 beb2 1938 32fd 8d39 c1bc 9c39
00000090: 0676 8b35 2d65 a837 3670 1b39 8257 2939
000000a0: 026d b436 f3bb 0f36 2cae 2639 4e7a 2c39
000000b0: 7d21 2435 0c9e 2138 4b44 0839 fa0f 1739
000000c0: 8008 2f38 6c24 0d37 7b7d f738 4436 2939
000000d0: 5dc3 e734 2f4b cb36 5602 2839 cdd9 2939
000000e0: c6c1 e837 cb3c ab36 3a57 0b39 1e40 2a39
000000f0: 22b8 9035 c168 7e37 9d9a 1e39 cb83 2539
00000100: aac9 7c36 fe11 bb36 ba17 2539 abd3 2939
00000110: 7bde ac36 26f6 cd37 4b19 1039 d2ad 2639
00000120: 7eef 1935 e320 e535 b60e fb37 92a1 0538
00000130: a336 eb35 f246 7e34 4780 0038 21f2 0538
00000140: 618d 1435 1908 ee36 6049 cb37 e0ac e937
00000150: 387d db36 8fc6 0836 f397 ca37 57cc 0138
00000160: 0504 f634 f002 2436 7d23 f437 51d5 fd37
00000170: 9043 a336 f306 c335 516f de37 48a8 0238
00000180: 2b44 1c35 2b60 af36 3c5c e037 a5b3 f437
00000190: d431 3036 246c ba35 f2d5 eb37 0ade fb37
000001a0: 863f 9835 154c 6436 3975 eb37 4bd5 0038
000001b0: 9cc7 4235 f10b 5d36 a64a 5538 e711 5f38
000001c0: 8d4f eb35 8019 4535 3778 5738 7d61 6038
000001d0: 4232 1b35 9649 4237 4dd8 3438 da73 4738
000001e0: 9c96 f836 8ba4 a435 6a19 4138 e207 6138
000001f0: 2c29 d334 dff6 3b36 735f 5638 b226 5a38
00000200: 1353 4336 78ac d035 1a97 4f38 97d3 5e38
00000210: fd4c 8335 fe11 dc36 699a 4638 aaf8 5138
00000220: 9982 ab35 566f 2235 c449 5b38 16c4 6038
00000230: 4ecd 3836 3c7a 4037 771c 2738 c733 5138
00000240: 5955 8f35 f559 c836 f6f8 1138 1176 2638
00000250: 2336 1a36 3292 c935 a442 2138 fc3a 2938
00000260: 6a74 8b35 6630 3036 ad6b 2038 831e 2838
00000270: 31b4 0337 fccc af35 4811 0c38 57da 2b38
00000280: 47d0 5c35 7bbb 0a36 9eb8 2338 8269 2838
00000290: fb97 b136 e217 9135 bbae 1838 99a7 2c38
000002a0: 2bcb 8e35 8f97 1b37 02ff 0638 4358 1a38
000002b0: 1dab dc35 4193 1a36 b3b8 1e38 3285 2738
000002c0: 9fb6 2136 d45e 2237 eb87 fe37 5505 2038
000002d0: b1ce c434 2596 a736 cdfa 6a37 bb13 8e37
000002e0: 6010 b134 7359 8635 1fac 9437 79ee 9837
000002f0: f9f3 f634 3d50 3436 01ed 8737 0068 9237
00000300: 4d5e a435 0194 1f35 fb11 9237 dbd5 9e37
00000310: 95c1 8d34 b8e5 3f35 8843 9937 53e2 9b37
00000320: af00 2435 9ae3 b434 2821 9937 bd95 9f37
00000330: bd7e e834 ffda f135 ee6a 8f37 cd18 9737
00000340: ed3d 7335 5ccf 4335 bf15 9237 989a 9a37
00000350: 6898 b435 f01c e735 9ec3 8737 d808 9737
00000360: 9f3f 1136 caa6 6137 9457 f138 3801 0539
00000370: b892 1637 13c6 2f36 5ed9 f738 070b 0539
00000380: 6979 9f35 a4f5 4638 0870 ab38 8f5d d538
00000390: 946e 1838 05c1 4936 29f3 bd38 d4e9 0539
000003a0: ba06 5735 1c1c fc36 d5d4 fe38 4148 0239
000003b0: 163a 9137 7d55 5d36 bf28 e538 a321 0639
000003c0: e87b 1f36 9257 9737 a87e e938 b5d4 f838
000003d0: 7b86 b335 c661 7d35 bc76 0739 53d0 0839
000003e0: ce1e d436 d106 6437 8f14 eb38 213a fc38
000003f0: 193e a535 25e9 4838 94d5 6239 4079 8839

exp_avg f4 [20]
0.0073427516 0.0054320535 0.0007258318 -0.0041536507 0.0012491462 -0.0014586927 -0.0038895302 0.0007083075
-0.006047534 -0.0027167413 0.0016926425 -0.0028968372 -0.002662535 0.0044459905 -7.02028e-05 0.0034694092
-0.002597424 0.0002048884 0.0021250944 0.0006849963
00000000: 779b f03b 5eff b13b bf45 3e3a 591b 88bb
00000010: 64ba a33a 9b31 bfba 7de7 7ebb b6ad 393a
00000020: 642a c6bb 5b0b 32bb a8db dd3a ddd8 3dbb
00000030: ed7d 2ebb acaf 913b d739 93b8 075f 633b
00000040: 8b39 2abb 50d7 5639 2b45 0b3b 5391 333a

exp_avg_sq f4 [20]
0.00031764442 0.00016784546 3.2485168e-05 5.4594228e-05 4.222188e-05 1.9308627e-05 0.00013179779 0.00027215033
0.00024703125 5.1788473e-05 0.00012167889 0.000108216314 8.790241e-05 0.00017134547 1.9818503e-07 0.000291451
5.0265564e-05 2.1292503e-07 9.1131034e-05 2.6691272e-05
00000000: 8389 a639 acff 2f39 af40 0838 1bfc 6438
00000010: 6617 3138 f6f8 a137 3333 0a39 66af 8e39
00000020: f983 8139 7337 5938 db2d ff38 31f2 e238
00000030: 3f58 b838 33ab 3339 b0cc 5434 e4cd 9839
00000040: 3dd4 5238 63a0 6434 9a1d bf38 12e7 df37

exp_avg f4 [1, 2]
-0.024970667 0.007812021
00000000: 498f ccbc fbfb ff3b

exp_avg_sq f4 [1, 2]
0.02554853 0.016830374
00000000: 274b d13c dadf 893c

exp_avg f4 [2, 20]
-0.028965415 -0.015799567 0.0027018518 -0.008853387 0.0014487611 -0.0019332838 -0.009295425 -0.02282276
-0.018317953 -0.012211344 0.00053607626 -0.008984662 -0.016527316 -0.013579993 0.006000387 -0.05014428
-0.0045183264 0.0026031616 -0.005023088 0.0055926084 0.03417502 0.017389672 -0.0029796632 0.0081582535
-0.0015291806 0.0020713964 0.00834069 0.0243195 0.016209466 0.012716943 -0.00018464345 0.0076891375
0.017216088 0.015814917 -0.0062125647 0.054053783 0.003262021 -0.002899944 0.0049493774 -0.005637228
00000000: e148 edbc 186e 81bc 8d11 313b cc0d 11bc
00000010: 5be4 bd3a 3d66 fdba d74b 18bc ccf6 babc
00000020: 880f 96bc 1712 48bc 7887 0c3a 6734 13bc
00000030: 4b64 87bc 9e7e 5ebc e59e c43b 1764 4dbd
00000040: 780e 94bb ce99 2a3b b798 a4bb 3342 b73b
00000050: 1bfb 0b3d c974 8e3c 7446 43bb 32aa 053c
00000060: c96e c8ba 44c0 073b 64a7 083c b039 c73c
00000070: b7c9 843c ba5a 503c d99c 41b9 29f5 fb3b
00000080: c108 8d3c 498e 813c c592 cbbb 8067 5d3d
00000090: a2c7 553b fd0c 3ebb 632e a23b 7fb8 b8bb

exp_avg_sq f4 [2, 20]
0.0072930646 0.0028195204 0.00010421283 0.00024164665 0.00019894859 0.00032402057 0.00053067843 0.0034148963
0.0040264726 0.0025509298 0.0005733141 0.0006305739 0.0024858098 0.0023178193 0.00027739434 0.019106584
0.00022920268 6.152946e-05 0.0015129431 0.00023990951 0.014902318 0.006073638 0.00022283773 0.00051354896
0.00050274614 0.00077866524 0.0013525387 0.0057353307 0.008959958 0.0055454196 0.0015515126 0.0014876788
0.004941554 0.005237537 0.00057885953 0.03836408 0.00046898695 0.0001296874 0.0043786517 0.00046780345
00000000: a9fa ee3b b4c7 383b d68c da38 8762 7d39
00000010: db9c 5039 4ee1 a939 3a1d 0b3a 74cc 5f3b
00000020: 80f0 833b 802d 273b 754a 163a 194d 253a
00000030: f8e8 223b 8ee6 173b 3d6f 9139 6985 9c3c
00000040: 2056 7039 6109 8138 f24d c63a 3890 7b39
00000050: da28 743c 5e05 c73b 8ca9 6939 b09f 063a
00000060: b9ca 033a 571f 4c3a ab47 b13a 71ef bb3b
00000070: cacc 123c 5ab6 b53b 205c cb3a 38fe c23a
00000080: c2ec a13b a59f ab3b 9bbe 173a a723 1d3d
00000090: 5de2 f539 b2fc 0739 cb7a 8f3b 8443 f539

exp_avg f4 [2]
-0.022030624 0.022877611
00000000: 9179 b4bc d469 bb3c

exp_avg_sq f4 [2]
0.0040009697 0.008346536
00000000: 911a 833b e9bf 083c

exp_avg f4 [20, 36]
4.55012e-39 1.7487862e-06 5.124995e-05 5.278015e-05 2.6831195e-11 -6e-45 5.299871e-05 5.2998734e-05
-6e-45 4.1160503e-10 5.2998323e-05 5.299858e-05 1.1029581e-10 8.012709e-29 5.2998625e-05 5.299874e-05
-6e-45 1.1751726e-05 4.1247e-05 4.709868e-05 -1.7488137e-10 -1.2178929e-05 6.517784e-05 6.069893e-05
6e-45 -4.5670925e-09 5.30033e-05 5.300076e-05 -6e-45 -3.035529e-35 5.2998734e-05 5.2998734e-05
-6e-45 0.00014750044 -9.4501695e-05 -1.5163609e-05 -1.294497e-39 -1.0188035e-07 -7.344511e-07 -8.2359674e-07
-1.8393186e-12 6e-45 -8.363297e-07 -8.363313e-07 6e-45 -2.5235676e-11 -8.36306e-07 -8.3632114e-07
-2.6377448e-12 -4.9165486e-30 -8.3632847e-07 -8.363313e-07 6e-45 -8.111267e-07 -2.5204757e-08 -4.2909707e-07
1.4391988e-11 7.878287e-07 -1.6241746e-06 -1.3344836e-06 -6e-45 3.0581968e-10 -8.3663696e-07 -8.364669e-07
6e-45 2.2478513e-36 -8.363313e-07 -8.363313e-07 6e-45 -6.0760067e-06 5.2396763e-06 1.9649196e-06
1.0936487e-38 1.0754623e-06 1.3894109e-05 1.4835144e-05 1.9840084e-11 -6e-45 1.4969551e-05 1.4969572e-05
-6e-45 1.6969898e-10 1.4969401e-05 1.4969506e-05 3.0212916e-11 4.6558733e-29 1.496954e-05 1.4969573e-05
-6e-45 7.4452423e-06 7.5243333e-06 1.1231581e-05 -1.125247e-10 -5.530247e-06 2.0499932e-05 1.8466153e-05
6e-45 -1.8161014e-09 1.4971388e-05 1.49703765e-05 -6e-45 -1.6823989e-35 1.4969572e-05 1.4969572e-05
-6e-45 5.8967813e-05 -4.399823e-05 -1.2307546e-05 -1.8714855e-38 -2.06062e-06 -0.00010296996 -0.00010477303
-4.325606e-11 6e-45 -0.00010503054 -0.000105030595 6e-45 -3.6536543e-10 -0.00010503022 -0.00010503044
-2.9319214e-11 -1.103078e-28 -0.00010503056 -0.000105030595 6e-45 -1.5230449e-05 -8.980016e-05 -9.73841e-05
2.6971456e-10 1.2299593e-05 -0.000117330455 -0.00011280712 -6e-45 5.4765685e-09 -0.00010503606 -0.00010503302
6e-45 3.0735323e-35 -0.000105030595 -0.000105030595 6e-45 -0.00020530979 0.000100279176 -1.014259e-05
-7.31273e-40 -2.5233502e-08 -2.0790164e-06 -2.1010958e-06 -8.2672725e-13 6e-45 -2.1042492e-06 -2.1042497e-06
6e-45 -1.0139019e-11 -2.1042397e-06 -2.1042458e-06 -3.995167e-12 -1.779364e-30 -2.1042458e-06 -2.1042497e-06
6e-45 -1.7645827e-07 -1.9277918e-06 -2.015654e-06 2.8607071e-12 1.3812884e-07 -2.2423815e-06 -2.1915873e-06
-6e-45 7.8005706e-11 -2.104328e-06 -2.1042842e-06 6e-45 5.807149e-37 -2.1042497e-06 -2.1042497e-06
6e-45 -3.1050843e-06 1.0008338e-06 -6.777181e-07 3.77437e-39 6.008293e-07 2.0026697e-05 2.055243e-05
8.4483765e-12 -6e-45 2.0627516e-05 2.0627524e-05 -6e-45 1.090882e-10 2.0627418e-05 2.0627485e-05
2.3695398e-11 2.4519148e-29 2.0627502e-05 2.0627527e-05 -6e-45 3.7015684e-06 1.6925958e-05 1.8769138e-05
-5.8900905e-11 -3.9521296e-06 2.4579711e-05 2.3126313e-05 6e-45 -1.4492941e-09 2.0628975e-05 2.0628167e-05
-6e-45 -9.6019665e-36 2.0627524e-05 2.0627524e-05 -6e-45 5.050539e-05 -2.9877867e-05 -2.7269318e-06
-3.527976e-39 -3.8375967e-07 -1.0506159e-05 -1.084195e-05 -6.0827363e-12 6e-45 -1.0889912e-05 -1.0889917e-05
6e-45 -8.7667214e-11 -1.088983e-05 -1.0889884e-05 -1.8893009e-11 -1.7492165e-29 -1.08898985e-05 -1.0889919e-05
6e-45 -2.7620983e-06 -8.127819e-06 -9.50318e-06 4.1261303e-11 2.6333512e-06 -1.3523309e-05 -1.2554879e-05
6e-45 9.940302e-10 -1.0890912e-05 -1.0890358e-05 6e-45 7.1139004e-36 -1.0889917e-05 -1.0889917e-05
6e-45 -3.070561e-05 1.981569e-05 3.297687e-06 -2.1987294e-38 -2.8308416e-06 -2.9346715e-05 -3.1823703e-05
00000000: e28b 3100 d6b7 ea35 37f5 5638 4160 5d38
00000010: 7b02 ec2d 0400 0080 ee4a 5e38 f54a 5e38
00000020: 0400 0080 4248 e22f 844a 5e38 cb4a 5e38
00000030: 058b f22e 7425 cb10 d74a 5e38 f74a 5e38
00000040: 0400 0080 4729 4537 a100 2d38 d38b 4538
00000050: bb48 40af 1a54 4cb7 16b0 8838 fb96 7e38
00000060: 0400 0000 92ec 9cb1 dc4f 5e38 224d 5e38
00000070: 0400 0080 7b65 2186 f54a 5e38 f54a 5e38
00000080: 0400 0080 59aa 1a39 362f c6b8 3467 7eb7
00000090: 8818 0e80 51c9 dab3 1827 45b5 2315 5db5
000000a0: 386e 01ac 0400 0000 2480 60b5 4080 60b5
000000b0: 0400 0000 b1f9 ddad 837e 60b5 8d7f 60b5
000000c0: 639d 39ac 5c70 c78e 0e80 60b5 4080 60b5
000000d0: 0400 0000 34bc 59b5 d981 d8b2 a75e e6b4
000000e0: c02f 7d2d 2d7b 5335 37fe d9b5 821c b3b5
000000f0: 0400 0080 4b20 a82f 4195 60b5 9189 60b5
00000100: 0400 0000 de39 3f04 4080 60b5 4080 60b5
00000110: 0400 0000 80e0 cbb6 7ad0 af36 10dd 0336
00000120: 7a16 7700 9a58 9035 be1a 6937 75e4 7837
00000130: e683 ae2d 0400 0080 bb25 7b37 d225 7b37
00000140: 0400 0080 0496 3a2f 1625 7b37 8a25 7b37
00000150: b8e0 042e b114 6c10 af25 7b37 d425 7b37
00000160: 0400 0080 25d2 f936 8879 fc36 466f 3c37
00000170: c671 f7ae 7690 b9b6 45f7 ab37 c3e7 9a37
00000180: 0400 0000 639a f9b0 9f2d 7b37 4729 7b37
00000190: 0400 0080 41e7 b285 d225 7b37 d225 7b37
000001a0: 0400 0080 3554 7738 bd8a 38b8 827c 4eb7
000001b0: 67c9 cb80 2f49 0ab6 94f1 d7b8 98b9 dbb8
000001c0: fe3d 3eae 0400 0000 d843 dcb8 df43 dcb8
000001d0: 0400 0000 9ddc c8af ac43 dcb8 ca43 dcb8
000001e0: 80f2 00ae edd4 0b91 da43 dcb8 df43 dcb8
000001f0: 0400 0000 4886 7fb7 1853 bcb8 b13a ccb8
00000200: f346 942f 5a5a 4e37 4f0f f6b8 dd92 ecb8
00000210: 0400 0080 682c bc31 ce46 dcb8 2c45 dcb8
00000220: 0400 0000 c16a 2306 df43 dcb8 df43 dcb8
00000230: 0400 0000 6d48 57b9 f94c d238 182a 2ab7
00000240: 7ef6 0780 0fc1 d8b2 3b85 0bb6 8d00 0db6
00000250: fab3 68ab 0400 0000 ba36 0db6 bc36 0db6
00000260: 0400 0000 155e 32ad 9036 0db6 ab36 0db6
00000270: 4491 8cac f25b 108e ab36 0db6 bc36 0db6
00000280: 0400 0000 7b78 3db4 365f 01b6 ac44 07b6
00000290: eb4d 492c 9150 1434 d27b 16b6 2f13 13b6
000002a0: 0400 0080 4f89 ab2e 1438 0db6 5437 0db6
000002b0: 0400 0000 679b 4503 bc36 0db6 bc36 0db6
000002c0: 0400 0000 f160 50b6 6354 8635 6fec 35b5
000002d0: 6819 2900 ad48 2135 01ff a737 0268 ac37
000002e0: 1ba0 142d 0400 0080 4109 ad37 4509 ad37
000002f0: 0400 0080 32e3 ef2e 0b09 ad37 3009 ad37
00000300: 4b6d d02d 59a7 f80f 3909 ad37 4709 ad37
00000310: 0400 0080 7668 7836 38fc 8d37 6b72 9d37
00000320: 4386 81ae 899c 84b6 8730 ce37 61ff c137
00000330: 0400 0000 8130 c7b0 630c ad37 a70a ad37
00000340: 0400 0080 1436 4c85 4509 ad37 4509 ad37
00000350: 0400 0080 c0d5 5338 3ba2 fab7 5500 37b6
00000360: 906a 2680 8707 ceb4 9c43 30b7 d2e5 35b7
00000370: 6b04 d6ac 0400 0000 d1b3 36b7 d6b3 36b7
00000380: 0400 0000 41c8 c0ae 77b3 36b7 b2b3 36b7
00000390: 462f a6ad 4264 b18f c2b3 36b7 d9b3 36b7
000003a0: 0400 0000 7d5c 39b6 b75c 08b7 d96f 1fb7
000003b0: 1978 352e a1b8 3036 2be2 62b7 cba2 52b7
000003c0: 0400 0000 549e 8830 1cb8 36b7 bbb5 36b7
000003d0: 0400 0000 c24b 1705 d6b3 36b7 d6b3 36b7
000003e0: 0400 0000 e6c9 00b8 df39 a637 d54d 5d36
000003f0: a16b ef80 7df9 3db6 972d f6b7 717a 05b8

exp_avg_sq f4 [20, 36]
5.9308656e-09 5.6794906e-06 4.3723725e-05 4.3532178e-05 1.8715937e-08 8.759802e-07 4.680852e-05 4.6821755e-05
4.3458366e-09 7.1928034e-06 4.2254913e-05 4.2330645e-05 5.7391503e-08 9.76248e-06 4.109304e-05 4.5713394e-05
2.5159709e-08 1.5235202e-05 3.533612e-05 3.6490186e-05 3.1130742e-08 2.9646662e-06 4.48292e-05 4.5800658e-05
1.7098523e-06 1.631751e-07 4.5685243e-05 4.5899076e-05 1.43629595e-05 2.154168e-06 3.5403224e-05 3.875028e-05
1.7483888e-05 2.0173145e-07 3.345581e-05 3.4621626e-05 1.7061591e-10 3.1129552e-08 1.3243734e-07 1.3212619e-07
7.9153106e-10 3.7260532e-09 1.5230047e-07 1.5281798e-07 1.1909357e-10 3.408583e-08 1.2972617e-07 1.2998274e-07
9.656416e-10 4.543656e-08 1.207779e-07 1.3310982e-07 1.9196765e-10 5.558536e-08 1.1004914e-07 1.1362934e-07
2.4181188e-10 2.7405617e-08 1.3122902e-07 1.3386845e-07 7.775188e-09 1.3486683e-09 1.470629e-07 1.4814846e-07
3.5856495e-08 2.5536707e-08 1.0899282e-07 1.1631295e-07 4.6136698e-08 3.962117e-10 1.1954748e-07 1.2187269e-07
2.6608415e-08 3.3027982e-06 1.1753276e-05 1.177848e-05 7.726516e-08 4.0405772e-07 1.390923e-05 1.395724e-05
2.0538334e-08 3.5179232e-06 1.1576381e-05 1.1609612e-05 7.569451e-08 3.1300253e-06 1.2055902e-05 1.24971e-05
3.0801857e-08 5.9144677e-06 9.437786e-06 9.844249e-06 1.4087331e-08 2.1667229e-06 1.2427973e-05 1.2568307e-05
2.1305455e-07 9.766056e-08 1.4028191e-05 1.4074098e-05 3.910208e-06 2.1104565e-06 9.81649e-06 1.06515035e-05
1.8988213e-06 5.2685525e-08 1.3217815e-05 1.3188455e-05 8.3430244e-08 2.0478756e-06 9.6188014e-05 9.566911e-05
1.6933812e-07 1.0694166e-06 9.581625e-05 9.591053e-05 7.8470755e-08 3.221621e-06 9.468183e-05 9.478757e-05
1.9528547e-07 3.315571e-05 7.1019764e-05 8.953252e-05 1.4247189e-07 2.0360034e-05 7.937555e-05 8.201676e-05
6.780514e-08 1.0134909e-05 8.7454406e-05 8.999731e-05 5.2393048e-06 4.2682402e-07 9.1102826e-05 9.170515e-05
2.5365878e-05 7.705005e-06 7.140602e-05 7.782036e-05 5.4149546e-05 4.8132506e-07 4.9882063e-05 5.4851345e-05
4.7689883e-11 8.660382e-09 2.2459616e-08 2.2357726e-08 7.382967e-11 1.904902e-09 2.8437267e-08 2.8519795e-08
2.665938e-11 9.268825e-09 2.1703597e-08 2.179191e-08 9.2155714e-11 1.2281789e-08 1.9399073e-08 2.6429879e-08
1.3887176e-10 9.689505e-09 2.111928e-08 2.1588072e-08 4.1427743e-11 4.1791477e-09 2.6578983e-08 2.6948701e-08
3.5180314e-09 2.4821475e-10 2.6575774e-08 2.6990582e-08 3.6139058e-09 3.6834544e-09 2.4280912e-08 2.4995453e-08
1.4493552e-08 2.0777935e-10 1.6928537e-08 1.8388798e-08 1.7238478e-09 6.256252e-07 5.0324124e-06 5.012032e-06
3.7267798e-09 8.6575874e-08 5.3891495e-06 5.3911517e-06 9.11486e-10 7.7060315e-07 4.888003e-06 4.8954666e-06
6.955832e-09 1.1596221e-06 4.664029e-06 5.1797306e-06 2.70998e-09 1.6751239e-06 4.103665e-06 4.2345614e-06
3.342981e-09 4.1210296e-07 5.0858794e-06 5.190035e-06 2.4405185e-07 1.878732e-08 5.2021974e-06 5.2317478e-06
1.5500163e-06 3.225921e-07 4.0387504e-06 4.417049e-06 2.1591793e-06 2.421445e-08 3.6726256e-06 3.822677e-06
6.5984547e-09 2.1951278e-07 1.9311105e-06 1.927329e-06 5.8935767e-09 3.728989e-08 2.0357375e-06 2.0438029e-06
6.509565e-09 2.9767332e-07 1.8588513e-06 1.8659002e-06 5.4215823e-09 5.044835e-07 1.7300456e-06 1.9357446e-06
6.804907e-09 6.5795064e-07 1.5428793e-06 1.6012295e-06 2.2944266e-09 2.086967e-07 1.8922925e-06 1.9392664e-06
1.0850288e-08 8.097834e-09 2.0504517e-06 2.0597083e-06 6.292969e-07 1.7265165e-07 1.4894918e-06 1.6265031e-06
7.0494934e-07 8.656563e-09 1.5297808e-06 1.5796141e-06 9.853663e-08 2.5981517e-05 5.4439388e-05 5.4348362e-05
00000000: 72c8 cb31 7492 be36 fe63 3738 5296 3638
00000010: c8c4 a032 e724 6b35 4454 4438 7a62 4438
00000020: 6252 9531 b659 f136 de3a 3138 2f8c 3138
00000030: a07e 7633 88c9 2337 515b 2c38 62bc 3f38
00000040: c91e d832 b29a 7f37 df35 1438 0a0d 1938
00000050: 9db4 0533 94f4 4636 fd06 3c38 151a 4038
00000060: 147e e535 3b35 2f34 289e 3f38 c283 4038
00000070: 71f8 7037 5390 1036 ec7d 1438 cc87 2238
00000080: 5daa 9237 859b 5834 e752 0c38 b036 1138
00000090: 1c98 3b2f 4eb3 0533 1934 0e34 92de 0d34
000000a0: 0c93 5930 b606 8031 0988 2334 4916 2434
000000b0: dcf1 022f c465 1233 dc4a 0b34 6291 0b34
000000c0: 7eb7 8430 0726 4333 2daf 0134 f3ec 0e34
000000d0: 1712 532f c0bc 6e33 2854 ec33 6404 f433
000000e0: ffef 842f 9769 eb32 f5e7 0c34 7bbd 0f34
000000f0: a393 0532 0c5c b930 58e8 1d34 bd12 1f34
00000100: a200 1a33 d05b db32 700f ea33 b8c7 f933
00000110: d627 4633 d7d1 d92f f65c 0034 1cdc 0234
00000120: 8690 e432 a4a5 5d36 f02f 4537 309c 4537
00000130: f9ec a533 45ed d834 b05b 6937 e429 6a37
00000140: 466c b032 7615 6c36 2e38 4237 e7c6 4237
00000150: 7f8d a233 6d0d 5236 b443 4a37 a3aa 5137
00000160: 004b 0433 e474 c636 fb56 1e37 ba28 2537
00000170: bd04 7232 0468 1136 bd81 5037 78dc 5237
00000180: fdc3 6434 76b9 d133 9f5a 6b37 ca1f 6c37
00000190: 6e34 8336 5ea1 0d36 81b1 2437 dcb3 3237
000001a0: 01db fe35 5948 6233 15c2 5d37 fc43 5d37
000001b0: 432a b333 3c6e 0936 8cb8 c938 f6a1 c838
000001c0: 4fd3 3534 e088 8f35 f5f0 c838 9323 c938
000001d0: c183 a833 0733 5836 ec8f c638 b0c8 c638
000001e0: a9af 5134 ac10 0b38 72f0 9438 68c3 bb38
000001f0: 60fa 1834 d7ca aa37 6d76 a638 6a00 ac38
00000200: 459c 9133 1a09 2a37 ba67 b738 f0bc bc38
00000210: 49cd af36 3f26 e534 750e bf38 d451 c038
00000220: cfc8 d437 bf44 0137 d1bf 9538 7d33 a338
00000230: a21e 6338 6834 0135 7538 5138 2f10 6638
00000240: 09be 512e c3c8 1432 38ed c032 290d c032
00000250: 695a a22e 64e7 0231 3646 f432 b1fb f432
00000260: 967f ea2d b93c 1f32 b76e ba32 eb30 bb32
00000270: 0ea7 ca2e e1ff 5232 03a3 a632 eb07 e332
00000280: edb0 182f e576 2632 ca69 b532 ac70 b932
00000290: 7e33 362e 2c98 8f31 cd4f e432 d27c e732
000002a0: ddc1 7131 1f75 882f bf48 e432 ebd8 e732
000002b0: 8158 7831 0420 7d31 4a92 d032 95b5 d632
000002c0: 51ff 7832 b074 642f 3f6a 9132 65f5 9d32
000002d0: 81ec ec30 a3f0 2735 18dc a836 072d a836
000002e0: 1a0d 8031 97eb b933 71d4 b436 a4e5 b436
000002f0: 208c 7a30 72db 4e35 a003 a436 bd43 a436
00000300: 2500 ef31 50a4 9b35 b47f 9c36 8ccd ad36
00000310: 793a 3a31 d2d4 e035 37b2 8936 9b16 8e36
00000320: 58ba 6531 003f dd34 5fa7 aa36 1026 ae36
00000330: 3b06 8334 c161 a132 898e ae36 5f8c af36
00000340: 280a d035 b830 ad34 9a84 8736 2936 9436
00000350: 6be6 1036 2300 d032 3a77 7636 8c44 8036
00000360: 9fb8 e231 37b3 6b34 3a98 0136 4357 0136
00000370: 7380 ca31 ab28 2033 b49d 0836 4428 0936
00000380: bdaa df31 e9cf 9f34 a57d f935 d86f fa35
00000390: be48 ba31 d86b 0735 ea33 e835 d7e7 0136
000003a0: 98d0 e931 069e 3035 ee14 cf35 d4e9 d635
000003b0: fbab 1d31 1d16 6034 adfa fd35 5824 0236
000003c0: 1268 3a32 a71e 0b32 7e9a 0936 8539 0a36
000003d0: f4ec 2835 2062 3934 8cea c735 394e da35
000003e0: c03b 3d35 f7b7 1432 de52 cd35 2103 d435
000003f0: 169b d333 e2f2 d937 d955 6438 1cf4 6338

exp_avg f4 [20]
5.2998734e-05 -8.36331e-07 1.4969571e-05 -0.00010503062 -2.1042501e-06 2.0627524e-05 -1.0889918e-05 -3.217755e-05
-4.4694854e-05 7.265131e-06 2.2769162e-05 -1.592419e-05 -2.9418093e-06 -1.1313699e-05 1.9177555e-06 -8.891378e-06
-6.8255074e-05 3.0453615e-05 -8.217893e-05 -5.4686516e-06
00000000: f54a 5e38 3b80 60b5 d125 7b37 e243 dcb8
00000010: be36 0db6 4509 ad37 d7b3 36b7 62f6 06b8
00000020: bc76 3bb8 00c7 f336 6700 bf37 f094 85b7
00000030: e66b 45b6 f8cf 3db7 cab2 0036 2d2c 15b7
00000040: 2a24 8fb8 a476 ff37 7a57 acb8 5c7f b7b6

exp_avg_sq f4 [20]
4.7571495e-05 1.5680584e-07 1.4388208e-05 9.6704214e-05 3.05961e-08 5.4611614e-06 2.0875816e-06 7.530424e-05
7.509205e-05 2.9499377e-06 0.00010282916 5.6040863e-05 3.8773422e-07 6.8555814e-06 1.8820167e-06 1.5038732e-05
3.5824785e-05 7.145962e-05 6.404831e-05 5.3406948e-05
00000000: 8187 4738 765e 2834 e264 7137 aecd ca38
00000010: c568 0333 053f b736 6118 0c36 a8ec 9d38
00000020: bd7a 9d38 8bf7 4536 fca5 d738 6b0d 6b38
00000030: c929 d034 ff08 e636 9a99 fc35 dd4e 7c37
00000040: 9242 1638 97dc 9538 ad51 8638 4601 6038

exp_avg f4 [1, 20]
-0.00043773395 3.0687468e-06 2.1455537e-05 -0.0002289614 1.3125632e-05 -0.0004446032 3.5707202e-05 4.9041548e-05
2.2673625e-05 2.058056e-05 6.590891e-05 6.666737e-05 1.0996481e-05 2.694803e-05 -1.0355615e-06 5.432845e-05
-0.00012835527 5.5602162e-05 -0.00015352853 0.00017252546
00000000: a87f e5b9 abf0 4d36 6afb b337 5c15 70b9
00000010: 2936 5c37 a219 e9b9 51c4 1538 f6b1 4d38
00000020: 3d33 be37 6ba4 ac37 9438 8a38 c6cf 8b38
00000030: 877d 3837 740e e237 9ffd 8ab5 bbde 6338
00000040: 1b97 06b9 5e36 6938 80fc 20b9 f3e7 3439

exp_avg_sq f4 [1, 20]
0.0019249247 9.489943e-06 9.51126e-05 0.00046977258 1.4462869e-06 0.0007651307 2.9449482e-05 3.2035805e-05
0.00015783733 2.2381646e-05 0.0002747559 2.610961e-05 7.2801517e-06 9.0072615e-05 2.4468396e-05 5.8769012e-05
6.105226e-05 0.00066470215 8.5914246e-05 0.00019059911
00000000: c14d fc3a ff36 1f37 3077 c738 cf4b f639
00000010: 0a1e c235 0d93 483a 480a f737 2f5e 0638
00000020: 2381 2539 38c0 bb37 1d0d 9039 f605 db37
00000030: 0748 f436 5ee5 bc38 7b41 cd37 bf7e 7638
00000040: 2f09 8038 683f 2e3a dc2c b438 8fdb 4739

network_body._body_endoder.seq_layers.0.weight f4 [20, 36]
-0.5809695 -0.024552189 0.23664646 -0.034327645 -0.2969776 0.51621985 0.20592293 0.31089494
-0.4515638 0.40204316 0.21569005 0.108614236 -0.30807316 -0.096318714 0.016330702 0.14410451
-0.18366545 -0.048364833 0.48426187 0.10859344 -0.05991253 0.101303145 0.12585898 0.30440336
0.009542335 -0.2258928 0.104470566 -0.05342574 0.37261844 -0.2448465 0.019048411 0.35396427
0.0061697764 -0.33188167 -0.3081526 -0.63254476 0.06928788 -0.2442049 -0.24305363 -0.21813944
-0.3077625 -0.13833605 -0.18079562 -0.33325785 -0.2216828 -0.22272483 -0.03360518 -0.02212196
-0.057224896 -0.27443826 -0.2249053 -0.45150375 0.26726156 0.108131215 0.029898152 -0.32332298
0.18066098 -0.0837265 -0.019762903 -0.4956861 -0.017117811 -0.40302753 -0.5352225 -0.3842033
-0.55220544 0.19533226 -0.10451242 -0.0041076406 0.074536264 -0.27919337 0.38247705 -0.34154898
0.3218538 0.07999605 -0.3060396 0.035710175 0.3413486 0.06931463 -0.06415696 0.017553471
0.5229649 -0.005440841 0.21178074 0.11817369 0.008070735 0.10450207 -0.0696844 -0.12674117
0.64843816 0.22078921 -0.10288302 0.035390902 0.06302718 0.08141995 0.25036898 -0.033707056
0.25021136 -0.29797828 0.0051877187 0.07509633 -0.4554918 -0.13777074 -0.0043061133 -0.16193119
-0.25337145 0.23726632 0.4820354 0.036445357 -0.22985697 0.14445779 0.047802325 0.28571615
0.11489936 0.10359426 -0.21135402 0.26700068 0.21113937 -0.06427549 0.0062277936 0.54877234
0.052691143 0.2636395 0.03104435 -0.26404223 0.162773 0.10122067 -0.14321092 0.27557188
0.26872504 0.20320709 0.33509642 0.011215061 0.296787 -0.25618327 -0.33326808 0.014378207
0.23811631 -0.07297368 0.17797644 -0.07052932 0.3152436 -0.25552574 -0.6647218 -0.07735143
-0.058572955 0.16565846 -0.07020508 -0.52522635 0.10303039 -0.1946794 -0.22908074 -0.70320433
-0.5420267 0.1524674 0.07417962 -0.43865788 0.26322886 0.16135503 -0.513002 -0.47745308
-0.1916695 0.17263165 0.096907206 -0.38064 -0.037204422 -0.12534168 0.008452097 -0.20628841
0.4001118 -0.23825847 -0.4568342 -0.6568645 -0.09765786 -0.10324809 -0.17587954 -0.021715825
-0.025616886 0.15879169 -0.38965023 -0.6825958 -0.024041312 0.14477606 -0.10279858 0.0073546143
-0.19867657 0.07080153 0.03426686 0.23973927 -0.24357152 0.1911361 0.31816632 0.13459755
-0.052216012 -0.040883824 0.16667055 -0.077250935 -0.40228796 -0.114311896 0.15840535 0.011384248
-0.22198167 0.050883237 -0.015063573 0.07592794 0.123465985 -0.05366572 -0.0350829 0.17509152
0.43905783 -0.04754631 0.105480574 0.061200455 0.3598307 0.27066714 -0.28342387 0.072997995
0.19133966 -0.15977943 -0.14183395 -0.57389 -0.030579155 -0.34555277 0.21864805 -0.3913073
0.4938809 0.001790695 0.040082075 -0.016482841 -0.21659707 -0.083083205 -0.033648822 -0.42558634
0.3698227 -0.23058489 -0.18042362 -0.35550267 -0.039078217 -0.046530392 -0.10303361 0.13945675
0.6005672 -0.66247654 -0.4045571 -0.41915908 -0.4413272 0.16085921 0.09525222 -0.19595484
0.29460397 0.33312196 0.47922117 -0.27978864 0.23883246 -0.10633971 -0.18721926 -0.37729138
00000000: 6bba 14bf ac21 c9bc 7353 723e 259b 0cbd
00000010: 730d 98be fc26 043f 76dd 523e 9f2d 9f3e
00000020: 5f33 e7be 9ad8 cd3e dadd 5c3e 2471 de3d
00000030: c4bb 9dbe bf42 c5bd f7c7 853c 2290 133e
00000040: cc12 3cbe 341a 46bd 2cf1 f73e 3d66 de3d
00000050: d766 75bd 0678 cf3d 2de1 003e c2da 9b3e
00000060: 7457 1c3c 7150 67be aaf4 d53d f3d4 5abd
00000070: d8c7 be3e 0ab9 7abe 6a0b 9c3c ce3a b53e
00000080: d62b ca3b 65ec a9be 2dc6 9dbe 74ee 21bf
00000090: cee6 8d3d d910 7abe 0de3 78be f25f 5fbe
000000a0: 0c93 9dbe f7a7 0dbe 7d22 39be c6a0 aabe
000000b0: d100 63be fa11 64be 96a5 09bd 1d39 b5bc
000000c0: a764 6abd 2c83 8cbe 934d 66be 802b e7be
000000d0: 82d6 883e e673 dd3d f8ec f43c 978a a5be
000000e0: 31ff 383e cd78 abbd d0e5 a1bc 92ca fdbe
000000f0: a73a 8cbc a059 cebe 5704 09bf 4cb6 c4be
00000100: 565d 0dbf 2e05 483e 9c0a d6bd 6399 86bb
00000110: 78a6 983d 6ff2 8ebe 08d4 c33e 82df aebe
00000120: 05ca a43e f8d4 a33d 39b1 9cbe d544 123d
00000130: 3ec5 ae3e d4f4 8d3d b964 83bd 4ccc 8f3c
00000140: 07e1 053f 1549 b2bb 0ddd 583e 0c05 f23d
00000150: 1e3b 043c 2e05 d63d b2b6 8ebd 70c8 01be
00000160: 0b00 263f 9116 623e 55b4 d2bd 0df6 103d
00000170: 6514 813d 81bf a63d 5d30 803e 6910 0abd
00000180: b41b 803e 9c90 98be bdfd a93b 1bcc 993d
00000190: 3936 e9be c613 0dbe 4c1a 8dbb 4ad1 25be
000001a0: e7b9 81be f1f5 723e 58cd f63e ba47 153d
000001b0: a05f 6bbe beec 133e 5fcc 433d 6349 923e
000001c0: 5b50 eb3d 3a29 d43d 306d 58be 50b4 883e
000001d0: eb34 583e dea2 83bd 8512 cc3b 587c 0c3f
000001e0: abd2 573d c2fb 863e b850 fe3c 8b30 87be
000001f0: f7ad 263e c84c cf3d e2a5 12be c217 8d3e
00000200: 5496 893e 8515 503e c291 ab3e 60bf 373c
00000210: 77f4 973e 742a 83be 1da2 aabe 9292 6b3c
00000220: c3d4 733e 3a73 95bd 753f 363e ad71 90bd
00000230: 9c67 a13e 45d4 82be 352b 2abf 6d6a 9ebd
00000240: 32ea 6fbd 5fa2 293e aec7 8fbd 3c75 06bf
00000250: 9901 d33d 095a 47be 2494 6abe 3305 34bf
00000260: 43c2 0abf 6a20 1c3e 7ceb 973d c497 e0be
00000270: efc5 863e 413a 253e 1954 03bf bb74 f4be
00000280: 0245 44be 5ac6 303e 4977 c63d 3fe3 c2be
00000290: aa63 18bd 9259 00be aa7a 0a3c 453d 53be
000002a0: 74db cc3e 07fa 73be 2ce6 e9be 4628 28bf
000002b0: d800 c8bd bc73 d3bd c419 34be 63e5 b1bc
000002c0: 81da d1bc 4a9a 223e 3c80 c7be 99be 2ebf
000002d0: 49f2 c4bc 2d40 143e 1088 d2bd fafe f03b
000002e0: df71 4bbe 6400 913d 685b 0c3d 367e 753e
000002f0: d06a 79be 2fb9 433e b2e6 a23e f1d3 093e
00000300: 75e0 55bd cc75 27bd afab 2a3e bd35 9ebd
00000310: b0f8 cdbe 5b1c eabd 0335 223e ff84 3a3c
00000320: 2a4f 63be f16a 503d 34cd 76bc 1c80 9b3d
00000330: bcdb fc3d 96d0 5bbd 16b3 0fbd 314b 333e
00000340: 30cc e03e ebbf 42bd 3306 d83d 54ad 7a3d
00000350: bb3b b83e e294 8a3e ef1c 91be f97f 953d
00000360: 8bee 433e 389d 23be eb3c 11be 74ea 12bf
00000370: 2381 fabc 4bec b0be 46e5 5f3e 6e59 c8be
00000380: f5dd fc3e c1b5 ea3a 1a2d 243d 0607 87bc
00000390: 9fcb 5dbe 8727 aabd 59d3 09bd 74e6 d9be
000003a0: 6759 bd3e 721e 6cbe f8c0 38be 7204 b6be
000003b0: 7b10 20bd a796 3ebd 4903 d3bd c0cd 0e3e
000003c0: c6be 193f 1098 29bf 1c22 cfbe 059c d6be
000003d0: a4f5 e1be 47b8 243e 9913 c33d 63a8 48be
000003e0: 55d6 963e f68e aa3e 7a5c f53e 7540 8fbe
000003f0: 7f90 743e a2c8 d9bd 68b6 3fbe 562c c1be

network_body._body_endoder.seq_layers.0.bias f4 [20]
0.06944246 0.02234853 0.054164644 0.08761839 -0.0728454 0.07046437 -0.0053915484 0.12565586
-0.06437453 -0.02890249 0.15695573 0.04585271 0.10614879 0.078995645 0.019818587 0.043972503
0.0845898 0.20974173 0.09200218 0.019810915
00000000: d937 8e3d 4414 b73c bfdb 5d3d 4571 b33d
00000010: f82f 95bd a04f 903d 96ab b0bb eeab 003e
00000020: cbd6 83bd eac4 ecbc 01b9 203e 0dd0 3b3d
00000030: 8964 d93d 78c8 a13d 975a a23c 831c 343d
00000040: 6b3d ad3d 89c6 563e a46b bc3d 804a a23c

value_heads.value_heads.extrinsic.weight f4 [1, 20]
-0.24555479 -0.20821427 -0.18030697 0.44034418 -0.20675087 -0.086606905 -0.5668712 0.60291386
0.4133243 0.52163607 -0.44504654 0.7253493 -0.3554543 0.12618618 0.44382164 0.44342834
0.36451012 -0.33870107 0.438697 0.36169502
00000000: b772 7bbe 1f36 55be 64a2 38be cb74 e13e
00000010: 80b6 53be f65e b1bd 791e 11bf 9058 1a3f
00000020: 3e9f d33e f189 053f 24dd e3be 7eb0 393f
00000030: 1bfe b5be f336 013e 973c e33e 0a09 e33e
00000040: 12a1 ba3e 3a6a adbe e59c e03e 1730 b93e
