results/moreRewardForLowStepsGoalReachedMaxStepPenaltyis0/CarFindGoal/checkpoint.pt (torch, 530875 bytes, 36 tensors)

network_body._body_endoder.seq_layers.0.weight f4 [128, 36]
0.18344888 0.20181379 -0.13613968 0.0021020148 -0.11135905 0.048628256 0.23287238 0.12586142
0.016945856 0.1484951 0.21091996 0.31648865 -0.17822647 -0.13472274 0.04626991 -0.2780558
-0.24966972 -0.14475891 0.116354994 0.10143246 0.34806857 0.09323342 -0.033654694 0.18583515
0.15668987 0.016491735 0.027587451 -0.06727617 0.033361275 0.10014873 -0.25917032 -0.22638823
0.116900325 -0.29770797 0.066231385 -0.0606283 0.07305618 0.18171589 0.014179145 0.17655481
0.013268998 0.36398956 0.029937746 -0.06365496 0.026186338 0.13186862 0.07407986 0.34341305
-0.25410357 0.3497982 -0.08751981 0.05040193 -0.27874315 -0.14883475 -0.16860886 0.18887942
0.035205442 0.076440066 -0.002871797 0.14747524 -0.16095236 -0.15056716 -0.09025228 0.021194821
-0.14095266 0.047768615 0.025594698 -0.10656698 0.13226277 0.08964919 0.05458288 -0.10337974
-0.20359096 0.2941971 0.041512303 -0.2248461 -0.28842953 -0.07411188 0.2606213 0.021305896
0.029877761 0.028611599 0.01080246 -0.17066132 -0.23333429 -0.091161266 0.18853769 0.0053778077
0.08892019 0.10841478 -0.057744235 0.15978353 -0.11807136 0.19108714 0.10043489 -0.23538569
-0.010976601 0.017198728 0.10615186 -0.28659576 0.033102885 -0.30840972 -0.018319674 -0.019440131
0.071244515 0.35872877 -0.44970396 0.16204263 0.15427864 -0.0067333817 0.44171256 -0.21243623
-0.34802392 -0.21410987 0.26522368 -0.02259831 0.3025456 0.08383562 0.011498666 -0.17063764
0.15250365 -0.16590235 0.19995284 0.061886325 0.08997376 -0.0016468789 0.042984825 -0.037850987
0.25444606 0.2816496 -0.19856673 -0.03054347 -0.19083916 -0.020255692 0.18681005 0.3032636
-0.21873757 -0.12301332 -0.16649273 0.086903125 -0.009506378 0.14562106 0.04490754 0.04668929
0.012210524 0.24656363 -0.09939724 -0.10579714 0.05897407 0.05495721 0.1489629 -0.025808733
-0.20324177 -0.30794847 0.12192419 0.11085081 -0.07645088 0.17798577 -0.024701638 -0.25576094
0.115121394 0.06693226 0.111429825 0.1117288 -0.2458429 0.018393144 0.059648555 0.08792049
-0.07417862 -0.12007158 0.20470636 -0.08827545 0.20054999 0.19711511 0.31635115 0.26738197
-0.036984544 0.27919677 0.21227886 0.019693147 0.11268231 0.0038144449 -0.07891959 -0.39447367
-0.019653495 0.2780747 0.11011699 -0.02962473 -0.16748366 -0.051695056 0.27801898 0.19462253
-0.18859844 -0.26229486 -0.20028833 0.23988602 -0.38302138 0.2915051 -0.08361281 -0.079414114
-0.2419141 -0.08690859 0.09932782 -0.13197309 -0.29481354 0.040192045 0.20583938 0.19337174
0.03540077 -0.08771215 -0.010727802 0.25212875 0.32889307 0.07321685 0.22873983 -0.015875861
-0.1423586 0.23924273 0.09829815 0.20560104 -0.11867956 -0.08167736 -0.14283451 -0.06569103
-0.16910538 -0.01570455 0.08263522 -0.045564786 -0.1925159 0.1613363 0.039713763 0.25982314
0.103491224 0.062739074 0.05478865 0.2963181 -0.16710608 0.13442554 0.27952275 0.15590389
-0.12941715 0.007858387 0.07572243 0.08527958 0.033495028 0.16202721 0.043999135 -0.16949566
-0.078960985 -0.003626436 -0.18680114 -0.16407877 0.12721573 -0.09334056 -0.22430159 0.18196948
00000000: 06da 3b3e 46a8 4e3e 3368 0bbe f5c1 093b
00000010: 3710 e4bd 6c2e 473d 1976 6e3e d1e1 003e
00000020: 09d2 8a3c 190f 183e 67fb 573e cd0a a23e
00000030: 0081 36be c2f4 09be 8485 3d3d 545d 8ebe
00000040: 6ba9 7fbe ae3b 14be 874b ee3d d2bb cf3d
00000050: 0b36 b23e 2af1 be3d 81d9 09bd 924b 3e3e
00000060: 4f73 203e ad19 873c 14ff e13c 17c8 89bd
00000070: d5a5 083d c71a cd3d f9b1 84be 51d2 67be
00000080: 7069 ef3d 2e6d 98be 52a4 873d 6155 78bd
00000090: 7a9e 953d bb13 3a3e a54f 683c c9ca 343e
000000a0: 3666 593c d75c ba3e 0140 f53c 885d 82bd
000000b0: bb84 d63c 9108 073e 2eb7 973d d6d3 af3e
000000c0: dd19 82be c018 b33e 963d b3bd 4172 4e3d
000000d0: 6cb7 8ebe 2368 18be cda7 2cbe 9b69 413e
000000e0: 9533 103d 9c8c 9c3d c234 3cbb c003 173e
000000f0: b2d0 24be 472e 1abe 30d6 b8bd c3a0 ad3c
00000100: e555 10be 06a9 433d f9ab d13c ca3f dabd
00000110: e46f 073e ff99 b73d 4c92 5f3d c2b8 d3bd
00000120: 267a 50be 01a1 963e ce08 2a3d 0e3e 66be
00000130: 09ad 93be f8c7 97bd 2870 853e b489 ae3c
00000140: 35c2 f43c df62 ea3c cdfc 303c d7c1 2ebe
00000150: 2fef 6ebe c2b2 babd 0610 413e 5238 b03b
00000160: ca1b b63d 9108 de3d 3885 6cbd 4b9e 233e
00000170: 66cf f1bd 59ac 433e cfb0 cd3d f208 71be
00000180: 34d7 33bc 59e4 8c3c 2566 d93d aebc 92be
00000190: e496 073d e1e7 9dbe 2413 96bc e940 9fbc
000001a0: a5e8 913d 4cab b73e 993f e6be 81ee 253e
000001b0: 38fb 1d3e b3a3 dcbb 2628 e23e e288 59be
000001c0: 3130 b2be 9e3f 5bbe 66cb 873e 1720 b9bc
000001d0: 42e7 9a3e 02b2 ab3d e764 3c3c a2bb 2ebe
000001e0: eb29 1c3e 4ee2 29be 70c0 4c3e 847c 7d3d
000001f0: 2a44 b83d 16dc d7ba db10 303d a309 1bbd
00000200: c146 823e 6034 903e 1455 4bbe 4d36 fabc
00000210: 576b 43be 44ef a5bc 224b 3f3e 5e45 9b3e
00000220: befc 5fbe 68ee fbbd 127d 2abe 44fa b13d
00000230: a4c0 1bbc b01d 153e f8f0 373d 453d 3f3d
00000240: a60e 483c 2d7b 7c3e c890 cbbd 2cac d8bd
00000250: cb8e 713d d01a 613d bb89 183e d66c d3bc
00000260: 9c1e 50be 6cab 9dbe 64b3 f93d c005 e33d
00000270: 4792 9cbd e741 363e 175b cabc 19f3 82be
00000280: c4c4 eb3d c813 893d 5235 e43d 12d2 e43d
00000290: 3ebe 7bbe 38ad 963c 0b52 743d a80f b43d
000002a0: f6ea 97bd 17e8 f5bd 8b9e 513e c2c9 b4bd
000002b0: fa5c 4d3e 8bd8 493e c7f8 a13e 4ae6 883e
000002c0: 1b7d 17bd e1f2 8e3e a15f 593e 8653 a13c
000002d0: fcc5 e63d c4fb 793b 98a0 a1bd 74f8 c9be
000002e0: 5e00 a1bc cf5f 8e3e 0485 e13d 90af f2bc
000002f0: d680 2bbe 32be 53bd 8158 8e3e 214b 473e
00000300: f31f 41be 834b 86be 6218 4dbe aea4 753e
00000310: 611b c4be 2840 953e 313d abbd dea3 a2bd
00000320: 54b8 77be 21fd b1bd 626c cb3d f423 07be
00000330: cdf1 96be 6aa0 243d 8fc7 523e 3e03 463e
00000340: 6600 113d 6da2 b3bd aac3 2fbc 0517 813e
00000350: ac64 a83e b7f2 953d c63a 6a3e 180e 82bc
00000360: 74c6 11be 0cfc 743e 8a50 c93d 1489 523e
00000370: 450e f3bd 7646 a7bd 3643 12be 0589 86bd
00000380: f629 2dbe d4a6 80bc a73c a93d 24a2 3abd
00000390: e322 45be 5835 253e e6aa 223d 8a07 853e
000003a0: 35f3 d33d 587d 803d 106a 603d 02b7 973e
000003b0: db1d 2bbe d9a6 093e 9b1d 8f3e 45a5 1f3e
000003c0: ee85 04be 77c0 003c 5d14 9b3d 0fa7 ae3d
000003d0: 1532 093d 76ea 253e 7038 343d 4590 2dbe
000003e0: 4cb6 a1bd 80a9 6dbb cc48 3fbe 4404 28be
000003f0: d744 023e 5629 bfbd 51af 65be 3556 3a3e

network_body._body_endoder.seq_layers.0.bias f4 [128]
0.001497305 0.0023968103 0.0034812475 -0.026898801 -0.010479424 0.027153982 -0.00058363494 -0.0190957
0.021001631 0.030869726 0.024776334 -0.006679432 0.016880121 -0.003197554 0.012258302 0.00168747
0.036756866 0.010050836 0.029545743 -0.0027256734 0.022473875 0.004528236 -0.003648823 0.007445254
0.0103196865 0.023699004 -0.03209961 0.0057281917 -0.02505908 0.02279704 0.009114752 0.0055560754
0.00716098 0.014500761 0.007580061 0.0034893842 0.002367431 0.007408252 0.05102341 0.020094061
0.0103209205 -0.002269047 -0.024511239 -0.042986043 0.01514361 0.009505833 0.04329934 -0.0027038148
0.0071615754 0.018770497 -0.0042221444 -0.0055443114 -0.015298845 0.024414051 0.018210389 0.008933823
0.013839621 -0.023402212 -0.0068682833 0.051648334 -0.002682803 0.0012478268 0.004805498 0.014627706
-0.005162936 -0.0120798275 0.014789262 0.03759694 0.018280327 0.02567807 0.024534784 0.014780834
-0.0051706224 -0.003566342 0.016162487 0.058588054 0.015150641 -0.011933291 0.020588081 -0.0005305471
-0.0059685656 0.019546421 0.035425775 0.020924674 0.018414818 0.021968592 0.015191235 0.025863968
0.022391029 0.02440621 -0.009013028 -0.0021254877 0.00889079 0.017792147 0.041683845 0.011461873
-0.016688677 -0.001970624 0.0017990392 0.013807955 0.009994355 -0.00577666 0.03637508 0.012245912
0.0025918838 -0.006578312 0.0034049307 0.009384455 -0.0075512757 0.011060373 -0.00046599348 0.013751267
-0.0023169168 -0.015070459 0.016618583 -0.010265587 0.0112702325 -0.0007206632 -0.0065229465 0.0036964938
-0.014468443 0.055079535 0.021647722 -0.032591023 0.0055197813 0.02121203 -0.0047154287 0.032080423
00000000: 3841 c43a ce13 1d3b a425 643b e05a dcbc
00000010: e4b1 2bbc 0772 de3c 14ff 18ba 966e 9cbc
00000020: 9d0b ac3c 82e2 fc3c bdf7 ca3c 23df dabb
00000030: 2e48 8a3c 0e8e 51bb 0cd7 483c 192e dd3a
00000040: 5e8e 163d 43ac 243c ea09 f23c 36a1 32bb
00000050: 221b b83c 9961 943b 1721 6fbb 51f7 f33b
00000060: e713 293c 6a24 c23c e17a 03bd 8eb3 bb3b
00000070: b348 cdbc dcc0 ba3c 0a56 153c bd0f b63b
00000080: a7a6 ea3b 9a94 6d3c 2962 f83b 27ae 643b
00000090: e726 1b3b ecc0 f23b ecfd 503d 4d9c a43c
000000a0: 1419 293c 4bb4 14bb cbcb c8bc 2212 30bd
000000b0: e71c 783c 5abe 1b3c a65a 313d 7c32 31bb
000000c0: a6ab ea3b 96c4 993c ea59 8abb 0ead b5bb
000000d0: 02a8 7abc faff c73c f42d 953c 2b5f 123c
000000e0: 94bf 623c ffb5 bfbc 560f e1bb 348d 533d
000000f0: f7d1 2fbb 1f8e a33a 7077 9d3b 0ca9 6f3c
00000100: d92d a9bb 78ea 45bc a94e 723c 40ff 193d
00000110: a0c0 953c d15a d23c 2cfd c83c 502b 723c
00000120: 536e a9bb 4ab9 69bb 3167 843c 07fa 6f3d
00000130: 653a 783c da83 43bc 56a8 a83c 6a14 0bba
00000140: f593 c3bb d11f a03c 9e1a 113d 396a ab3c
00000150: acda 963c 7af7 b33c a8e4 783c ace0 d33c
00000160: 646d b73c 88ef c73c 61ab 13bc c44b 0bbb
00000170: adaa 113c d6c0 913c aebc 2a3d 94ca 3b3c
00000180: b1b6 88bc 9625 01bb bdcd eb3a c33a 623c
00000190: 5dbf 233c 234a bdbb 09fe 143d 14a3 483c
000001a0: 98dc 293b e18e d7bb 4225 5f3b 42c1 193c
000001b0: b170 f7bb 9136 353c 9650 f4b9 ff4c 613c
000001c0: 6ad7 17bb 16ea 76bc b223 883c fe30 28bc
000001d0: c8a6 383c e4ea 3cba 71be d5bb e040 723b
000001e0: 0c0d 6dbc 149b 613d 9056 b13c 2a7e 05bd
000001f0: 48df b43b dac4 ad3c e283 9abb c366 033d

network_body._body_endoder.seq_layers.2.weight f4 [128, 128]
-0.07973853 -0.021353561 0.01689565 -0.064885244 -0.0046347557 -0.055503428 -0.016014481 -0.0818283
0.014833186 -0.058127616 0.22511153 -0.10643971 -0.05213643 -0.032062948 0.23485741 -0.104899265
-0.03452299 -0.012300538 0.024731489 -0.23306614 -0.17027622 0.03863999 -0.0723742 0.12766139
0.0016548124 0.12659328 -0.0077231564 -0.12086393 -0.111173905 -0.006325898 -0.28208628 -0.039062068
0.04373015 0.063976705 0.04703311 -0.015825251 -0.05960498 -0.031518325 -0.10305718 0.16132914
0.035938203 -0.09346225 -0.11770986 -0.038944364 -0.023726666 0.0120627945 0.18193644 -0.13160224
-0.093822576 -0.015170169 0.06923665 -0.03336272 0.19120762 -0.077444196 -0.14201692 -0.13585705
-0.09731578 0.0730639 0.046828296 -0.07589488 0.0022673327 0.025947096 0.024771715 -0.16521807
-0.02965282 0.04737945 0.010791161 -0.013674217 -0.12076001 0.16297516 -0.03445256 -0.13694029
-0.016583323 0.014242616 -0.12755117 0.09549509 0.22184393 -0.06735728 -0.06724613 -0.061337925
-0.14122859 0.004045507 0.085499816 0.101581015 -0.089266516 0.049091764 -0.14116625 -0.073379494
0.00033708406 0.002983422 0.1343899 -0.047002293 -0.015896795 -0.03398774 -0.022929655 0.09100898
-0.11901952 -0.040216498 -0.12690546 -0.18386078 -0.14667211 0.30580905 0.103500076 0.20065938
-0.010621958 0.014658534 -0.026195062 -0.14088307 0.0003078151 0.0047874385 0.120127276 -0.16131237
0.18181089 0.03489672 -0.12257395 -0.13534966 0.07108073 -0.16466074 -0.024757687 -0.032447588
-0.03872289 -0.10728562 0.031554084 0.17277484 -0.15065052 -0.15762442 0.10255779 0.13745564
-0.05328671 0.040805537 -0.022740517 0.12147481 0.031637207 0.004546687 -0.049701583 0.024544276
0.044155724 -0.10102644 0.064998604 -0.020271098 0.007772344 0.014872647 -0.11510831 -0.006544828
-0.06827894 -0.19637226 -0.011202408 -0.052450962 -0.07076482 0.05604842 -0.099961 0.0066438997
0.007809464 -0.07527639 0.020066138 0.01044727 0.10558474 0.050726626 0.08366305 -0.07884433
0.06506769 0.039819397 0.04347992 0.11009787 -0.15992336 -0.01855861 0.08449208 -0.024977176
0.057063773 0.15660904 0.027316904 -0.09518692 -0.055251747 -0.087816805 0.101973414 -0.10200652
-0.03827531 -0.07456114 0.028064955 0.039971992 -0.085504636 0.08086085 0.031950828 0.017739775
-0.03889674 -0.10350134 -0.033221792 -0.11191544 0.025578111 -0.006762728 -0.11013678 -0.017813943
0.017749824 -0.0637075 -0.10350453 0.048129123 -0.093727015 -0.12746415 0.077441335 0.03340622
-0.04837622 0.10497949 0.14446469 0.02229927 0.06835496 -0.05638819 0.3173838 -0.11541875
-0.06459929 -0.022682207 0.0066964924 -0.12153898 -0.12691393 -0.0012489964 0.002579833 0.039612506
-0.16481507 -0.012978419 -0.042583153 -0.029842122 -0.008630175 0.06274139 -0.08989866 0.053080615
0.009974862 0.09950516 0.0565244 0.012707454 -0.13454515 0.06981983 0.068657815 -0.04195006
0.028531214 0.00812412 -0.00049259415 0.14405788 -0.052796993 -0.02078649 -0.04950527 -0.00956469
-0.083712384 0.019892909 0.11989082 -0.10839841 0.08954584 -0.0039777188 0.120947205 0.14020918
0.13875891 7.02783e-06 -0.006813931 -0.029760117 0.088051125 0.0022663483 0.15657829 0.16124514
00000000: f44d a3bd aaed aebc bf68 8a3c 8ee2 84bd
00000010: 26df 97bb 9057 63bd cd30 83bc 9995 a7bd
00000020: e406 733c 3917 6ebd a383 663e 10fd d9bd
00000030: 028d 55bd 7054 03bd 767e 703e 6dd5 d6bd
00000040: fb67 0dbd 3288 49bc b199 ca3c e4a8 6ebe
00000050: e45c 2ebe f744 1e3d ed38 94bd abb9 023e
00000060: 4ae6 d83a aba1 013e 8812 fdbb 8287 f7bd
00000070: 25af e3bd 7b49 cfbb 9d6d 90be 8cff 1fbd
00000080: 631e 333d 3806 833d caa5 403d f5a3 81bc
00000090: 5a24 74bd 5c19 01bd a50f d3bd 7733 253e
000000a0: f033 133d 2369 bfbd de11 f1bd 2084 1fbd
000000b0: 6d5e c2bc 07a3 453c 8c4d 3a3e bdc2 06be
000000c0: 0d26 c0bd 4d8c 78bc f2cb 8d3d 59a7 08bd
000000d0: eecb 433e 109b 9ebd e26c 11be 1c1e 0bbe
000000e0: 7f4d c7bd 87a2 953d 07cf 3f3d c66e 9bbd
000000f0: 8897 143b 018f d43c 0dee ca3c ed2e 29be
00000100: 79ea f2bc f410 423d 69cd 303c d309 60bc
00000110: 0651 f7bd f6e2 263e 211e 0dbd 133a 0cbe
00000120: c0d9 87bc dc59 693c c69c 02be ee92 c33d
00000130: 0e2b 633e 9df2 89bd 57b8 89bd 7a3d 7bbd
00000140: 3a9e 10be 2c90 843b 871a af3d b509 d03d
00000150: 5dd1 b6bd 7214 493d e38d 10be fd47 96bd
00000160: a8ba b039 8485 433b 829d 093e 7a85 40bd
00000170: ff39 82bc ba36 0bbd f9d6 bbbc eb62 ba3d
00000180: 82c0 f3bd 0eba 24bd 81f3 01be 0046 3cbe
00000190: 3731 16be 0193 9c3e d9f7 d33d a779 4d3e
000001a0: b907 2ebc 592a 703c 0797 d6bc a743 10be
000001b0: 3e62 a139 f2df 9c3b 4a05 f63d 122f 25be
000001c0: a22c 3a3e ddef 0e3d 0d08 fbbd 1a99 0abe
000001d0: c692 913d d39c 28be a2d0 cabc c3e7 04bd
000001e0: e59b 1ebd 90b8 dbbd db3e 013d e3eb 303e
000001f0: 2144 1abe 4c68 21be d209 d23d 2cc1 0c3e
00000200: 2a43 5abd b523 273d 524a babc c9c7 f83d
00000210: 0496 013d 60fc 943b e393 4bbd 1411 c93c
00000220: a2dc 343d f3e6 cebd fd1d 853d 930f a6bc
00000230: 26af fe3b 67ac 733c e8bd ebbd ff75 d6bb
00000240: d4d5 8bbd cf15 49be 4e8a 37bc d2d6 56bd
00000250: 25ed 90bd 0793 653d 5ab8 ccbd 12b5 d93b
00000260: 88e6 ff3b 822a 9abd be61 a43c 072b 2b3c
00000270: d03c d83d b9c6 4f3d 8857 ab3d 2379 a1bd
00000280: 3642 853d aa19 233d 0018 323d fe7a e13d
00000290: f3c2 23be 3a08 98bc 2f0a ad3d ef9c ccbc
000002a0: b4bb 693d 1f5e 203e b3c7 df3c 5cf1 c2bd
000002b0: a84f 62bd 4cd9 b3bd 70d7 d03d cbe8 d0bd
000002c0: 92c6 1cbd 83b3 98bd 7ae8 e53c acb9 233d
000002d0: 0e1d afbd 609a a53d dfde 023d 0153 913c
000002e0: 3052 1fbd 83f8 d3bd 9313 08bd ec33 e5bd
000002f0: 3089 d13c e099 ddbb 648f e1bd 8cee 91bc
00000300: 1468 913c 1479 82bd 2ffa d3bd 0b23 453d
00000310: f3f3 bfbd f685 02be 9099 9e3d f6d4 083d
00000320: 2526 46bd 7dff d63d 8dee 133e f5ac b63c
00000330: affd 8b3d 4df7 66bd 2180 a23e aa60 ecbd
00000340: a24c 84bd 09d0 b9bc 406e db3b 6ee9 f8bd
00000350: baf5 01be 5db5 a3ba 6a12 293b b940 223d
00000360: 48c5 28be 6fa3 54bc ac6b 2ebd 7777 f4bc
00000370: 9465 0dbc 8f7e 803d ca1c b8bd 0f6b 593d
00000380: 9b6d 233c 5cc9 cb3d 2186 673d ed32 503c
00000390: 34c6 09be b3fd 8e3d 789c 8c3d d3d3 2bbd
000003a0: 4bba e93c 071b 053c 6f21 01ba e983 133e
000003b0: a941 58bd 6e48 aabc 0ac6 4abd 38b5 1cbc
000003c0: 6671 abbd 74f6 a23c 5189 f53d fcff ddbd
000003d0: cf63 b73d 8657 82bb 2bb3 f73d ff92 0f3e
000003e0: d116 0e3e 9ad0 eb36 6547 dfbb 7dcb f3bc
000003f0: 2654 b43d 0487 143b 0f56 203e 721d 253e

network_body._body_endoder.seq_layers.2.bias f4 [128]
-0.024258602 -0.0014036483 0.002451506 -0.009926001 -0.0016522652 -0.0071050217 3.5739176e-05 0.002011368
-0.0061746454 0.02484574 0.0004598996 0.007761346 0.01494731 -0.0015533183 -0.002573912 -0.004894355
0.013444489 0.0050580828 0.005471686 0.0020773497 -0.009795498 -0.0024507316 -0.006734823 0.02240372
-0.001423758 0.004379595 -0.0005371031 -0.016496995 -0.007983082 0.018047325 0.02958772 -0.006191299
0.0036073779 -0.0021061637 0.006979663 0.035666406 0.022741357 0.015876615 -0.0044627334 0.0029217834
0.0134059945 0.015890958 -0.0052447584 -0.0030031241 0.005382499 -0.0020055696 0.005364622 -0.004099292
0.00582535 -0.0012693377 -0.005539296 0.00027247434 -0.010623594 0.004999706 -0.004770794 0.0045534587
-0.0019601043 -0.012362782 0.019586235 -0.008390005 -0.0049650823 -0.019603707 0.00841585 0.004850351
0.011439745 0.008350278 0.0040819417 0.013701038 0.008913103 -0.008237314 0.023712886 0.008745508
0.0072262897 0.009896626 0.012572224 0.016942324 0.011454031 0.009544219 0.0067519955 0.02721304
0.029840833 0.0010391533 -0.010136186 0.0077750003 0.002256561 0.016181713 0.017729208 0.004640623
0.008771636 0.0052356324 0.00040404368 0.0035990828 0.013258986 -0.0025935117 0.023535991 0.013173009
0.012914655 -0.012539184 0.03174183 0.016999852 0.00669618 0.004428768 -0.00505035 0.009984211
-0.0034493296 0.026332106 -0.0031135688 0.013313608 -0.00023212728 0.022828171 0.0142855905 0.017892053
0.00014445889 0.02821122 0.0056831567 0.0022748618 0.013685853 0.0037154355 0.008704784 0.012321044
-0.007520578 0.018266585 0.015273365 0.014379548 0.0068587437 0.026387056 0.010711313 -0.0028310057
00000000: fab9 c6bc 9ffa b7ba 72a9 203b aaa0 22bc
00000010: d290 d8ba 3ed1 e8bb a6e6 1538 28d1 033b
00000020: ae54 cabb 4b89 cb3c ae1e f139 e452 fe3b
00000030: 90e5 743c b798 cbba 14af 28bb d360 a0bb
00000040: 4646 5c3c 46be a53b d44b b33b 2524 083b
00000050: 4c7d 20bc 749c 20bb caaf dcbb 0288 b73c
00000060: 649d baba b582 8f3b 61cc 0cba b524 87bc
00000070: 79cb 02bc fcd7 933c f261 f23c 61e0 cabb
00000080: c269 6c3b 9007 0abb a8b5 e43b f016 123d
00000090: 154c ba3c ad0f 823c 1f3c 92bb 647b 3f3b
000000a0: d1a4 5b3c c12d 823c 39dc abbb 10d0 44bb
000000b0: ad5f b03b e06f 03bb b6c9 af3b 5b53 86bb
000000c0: 94e2 be3b e85f a6ba fc82 b5bb e3da 8e39
000000d0: 950e 2ebc 93d4 a33b 5254 9cbb 2e35 953b
000000e0: 1875 00bb 448d 4abc 5073 a03c 3b76 09bc
000000f0: 21b2 a2bb f497 a0bc a2e2 093c b1ef 9e3b
00000100: c56d 3b3c 9bcf 083c cfc1 853b 527a 603c
00000110: 4308 123c cdf5 06bc 8741 c23c 5249 0f3c
00000120: 83ca ec3b 7525 223c bbfb 4d3c a1ca 8a3c
00000130: b0a9 3b3c 5b5f 1c3c d83f dd3b e2ed de3c
00000140: c374 f43c 3334 883a 3f12 26bc 6ec5 fe3b
00000150: d0e2 133b 838f 843c d83c 913c 5e10 983b
00000160: e8b6 0f3c ab8f ab3b d3d5 d339 97de 6b3b
00000170: 383c 593c e8f7 29bb 8dce c03c 9bd3 573c
00000180: fd97 533c 2671 4dbc b903 023d 4643 8b3c
00000190: a16b db3b 331f 913b 687d a5bb d194 233c
000001a0: 260e 62bb 6eb6 d73c 040d 4cbb 5221 5a3c
000001b0: 3167 73b9 2502 bb3c 1c0e 6a3c 5b92 923c
000001c0: e379 1739 371b e73c c639 ba3b d915 153b
000001d0: a13a 603c aa7e 733b 839e 0e3c 34de 493c
000001e0: 2e6f f6bb cea3 953c 233d 7a3c 3298 6b3c
000001f0: 50bf e03b ab29 d83c 817e 2f3c 6588 39bb

action_model._continuous_distribution.log_sigma f4 [1, 2]
-0.0145928515 0.016018273
00000000: db16 6fbc c138 833c

action_model._continuous_distribution.mu.weight f4 [2, 128]
0.027329907 -0.007280514 0.06254552 0.024304934 0.025616817 0.04224469 0.008688655 0.011439445
0.015681032 -0.12475635 0.08953098 0.03871063 -0.04011689 0.055818453 0.05503236 0.02475782
0.08072657 -0.01833295 0.037447885 0.031194437 0.044299882 -0.021263879 0.015333126 -0.060514838
0.055790566 0.032438282 -0.0030870652 0.020823164 0.043266017 -0.08990183 -0.061645474 0.049863357
0.08072494 0.017528145 0.021532044 -0.13157001 -0.06629639 -0.05547606 0.064248204 -0.05531429
-0.040375397 -0.08030514 0.0500159 0.02348338 0.038017977 0.0919545 -0.02460937 -0.00086426514
-0.023179453 0.06938581 -0.0065237596 0.106309794 0.030499911 0.03973445 0.043796122 0.055995215
-0.022886682 0.0033872195 -0.076837756 0.007915457 -0.005948501 0.013600326 -0.047004826 0.07009506
-0.0033614016 -0.011794054 0.022606475 -0.02769375 0.07693905 0.031793635 -0.100964226 0.072138935
0.006567892 -0.01984266 -0.021431759 -0.08455145 0.044491284 0.005335919 0.0478246 -0.016860433
-0.05730898 0.0015491667 0.03751801 -0.020384682 0.01812288 -0.046262316 -0.015097826 -0.031543244
-0.010048288 0.0056728725 -0.0142888855 0.046851847 -0.0047583343 0.048754703 0.0790878 0.037935242
-0.0074406476 0.04913304 -0.06795475 -0.040428218 -0.01226206 0.058805645 0.036480952 0.051253818
0.035886344 -0.06395079 -0.0371077 0.010904421 0.01362284 -0.06351008 -0.045905657 -0.072992004
0.092162006 -0.08682781 0.015239293 0.0002798742 -0.05900383 0.0006370305 0.006191547 -0.045733508
0.0068948483 -0.041774742 -0.045288146 -0.09562175 -0.0020519965 -0.058171783 0.06398584 0.073648244
-0.021460937 -0.0002877477 -0.029380519 -0.02619457 -0.037515864 -0.013883937 -0.015502334 0.027087951
0.0035205933 0.011427989 -0.0297918 0.0023145715 0.040640626 0.005647449 0.019368352 0.004930363
-0.04627089 -0.030622575 -0.033490647 0.03909402 -0.01579158 0.010722926 -0.03533929 -0.014386097
-0.034455795 0.04284109 -0.053629592 -0.023332682 0.0068696607 0.04477179 0.033221256 -0.016089205
0.013260866 0.0132788485 0.04862815 0.042244922 -0.014013718 0.042151473 -0.0069424924 -0.04906702
0.026333472 0.015028018 -0.0023532982 0.01833112 -0.02419584 -0.017217236 -0.030519249 0.016211072
-0.009284494 -0.062446885 -0.003930483 -0.018515026 0.0041368436 -0.027427586 0.0011939518 0.022105131
0.012366851 -0.0029688487 -0.044022392 -0.029914614 0.0022048075 -0.026706306 0.015249665 0.006480469
0.03730881 0.032483157 0.03864651 0.03789893 0.023961468 0.015533102 0.004340131 0.059010837
0.037264656 0.049211297 0.043562792 -0.034129396 -0.0054944004 0.061593898 -0.0078096148 -0.0044931225
0.0482455 -0.065184124 -0.035636604 0.012049673 -0.016603595 0.037167948 0.057957333 0.014323569
0.04002285 0.015212823 -0.066388294 0.03558723 0.071297206 -0.04722447 -0.023077577 -0.0009809303
-0.03478869 -0.030901711 0.035040326 0.05907819 0.051681582 -0.02454251 0.017876878 -0.00023719706
-0.040449522 0.039165862 -0.008685965 0.034183986 0.02978707 0.030089498 -0.013284634 0.016478026
0.0027794482 0.029349402 0.035144586 0.01938135 0.038223904 0.02740084 0.010928209 0.022713726
0.02006438 0.046164367 0.05362583 -0.0107701365 -0.047256626 -0.01833763 -0.050252087 -0.021980437
00000000: f8e2 df3c 6191 eebb de17 803d 241b c73c
00000010: 5cda d13c c508 2d3d dc5a 0e3c 836c 3b3c
00000020: 8275 803c 4280 ffbd 055c b73d 0a8f 1e3d
00000030: 9c51 24bd e4a1 643d 9d69 613d e9d0 ca3c
00000040: f953 a53d fc2e 96bc f462 193d 7a8b ff3c
00000050: cb73 353d 9631 aebc cb37 7b3c 68de 77bd
00000060: a684 643d 01de 043d 5c50 4abb 5795 aa3c
00000070: b537 313d 731e b8bd f77f 7cbd 853d 4c3d
00000080: 1e53 a53d 2f97 8f3c f863 b03c 4aba 06be
00000090: 67c6 87bd dd3a 63bd 9094 833d 3d91 62bd
000000a0: ac60 25bd 0577 a4bd 79dd 4c3d 3860 c03c
000000b0: bdb8 1b3d a452 bc3d 9799 c9bc da8f 62ba
000000c0: d6e2 bdbc 261a 8e3d 43c5 d5bb f3b8 d93d
000000d0: f3da f93c 97c0 223d 9063 333d 3d5b 653d
000000e0: da7c bbbc 1dfc 5d3b 1d5d 9dbd d5af 013c
000000f0: a5eb c2bb e7d3 5e3c 2288 40bd 008e 8f3d
00000100: f64a 5cbb d93b 41bc 3731 b93c 01de e2bc
00000110: 3892 9d3d 0b3a 023d 55c6 cebd 94bd 933d
00000120: 7937 d73b 138d a2bc a891 afbc 5029 adbd
00000130: 7e3c 363d efd8 ae3b bae3 433d e41e 8abc
00000140: d2bc 6abd 690d cb3a 7cac 193d c7fd a6bc
00000150: 6f76 943c 8e7d 3dbd df5c 77bc 7d33 01bd
00000160: 93a1 24bc 81e3 b93b ee1b 6abc b9e7 3f3d
00000170: cdeb 9bbb 03b3 473d c9f8 a13d fc61 1b3d
00000180: add0 f3bb ba3f 493d dc2b 8bbd 0f98 25bd
00000190: cfe6 48bc 30de 703d 0d6d 153d 86ef 513d
000001a0: 8ffd 123d a2f8 82bd 3efe 17bd 75a8 323c
000001b0: 5532 5f3c 9311 82bd 9207 3cbd d57c 95bd
000001c0: 6fbf bc3d c7d2 b1bd 3aae 793c 14bc 9239
000001d0: 00ae 71bd 65fe 263a 76e2 ca3b 0f53 3bbd
000001e0: 2eee e13b fe1b 2bbd 1080 39bd 56d5 c3bd
000001f0: ca7a 06bb 8945 6ebd 020b 833d e4d4 963d
00000200: d9ce afbc d8dc 96b9 6aaf f0bc ff95 d6bc
00000210: 3caa 19bd 7479 63bc 80fd 7dbc 8de7 dd3c
00000220: c1b9 663b 763c 3b3c ef0d f4bc 11b0 173b
00000230: c976 263d 3c0e b93b 61aa 9e3c e28e a13b
00000240: 8b86 3dbd 32dc fabc 7d2d 09bd 0d21 203d
00000250: 585d 81bc 36af 2f3c eebf 10bd aab3 6bbc
00000260: 8521 0dbd 247a 2f3d b4aa 5bbd 2e24 bfbc
00000270: e41a e13b a062 373d 0313 083d 82cd 83bc
00000280: 1a44 593c 878f 593c 502e 473d 0309 2d3d
00000290: cb99 65bc 06a7 2c3d d97d e3bb 80fa 48bd
000002a0: 4bb9 d73c 1338 763c cb39 1abb 252b 963c
000002b0: 5b36 c6bc 290b 8dbc 8103 fabc 15cd 843c
000002c0: fe1d 18bc 4ec8 7fbd 48cb 80bb d3ac 97bc
000002d0: 5c8e 873b d1af e0bc 607e 9c3a d215 b53c
000002e0: 559e 4a3c 0491 42bb d350 34bd 7e0f f5bc
000002f0: 887e 103b 2fc7 dabc bbd9 793c 1d5a d43b
00000300: 1fd1 183d 0f0d 053d ce4b 1e3d e93b 1b3d
00000310: d74a c43c 8d7e 7e3c a837 8e3b 59b5 713d
00000320: d3a2 183d c991 493d e66e 323d 44cb 0bbd
00000330: 5f0a b4bb e249 7c3d cce7 ffbb 0b3b 93bb
00000340: 139d 453d 417f 85bd b0f7 11bd fe6b 453c
00000350: 4304 88bc 6b3d 183d ab64 6d3d 67ad 6a3c
00000360: 00ef 233d 343f 793c 96f6 87bd eac3 113d
00000370: 4504 923d 726e 41bd 300d bdbc 8f92 80ba
00000380: 967e 0ebd 9625 fdbc 7286 0f3d f9fb 713d
00000390: 11b0 533d 600d c9bc 8872 923c 1ab8 78b9
000003a0: 66ae 25bd 626c 203d 944f 0ebc 8204 0c3d
000003b0: 0304 f43c 407e f63c cba7 59bc edfc 863c
000003c0: 6727 363b 286e f03c c5f3 0f3d a3c5 9e3c
000003d0: ab90 1c3d ba77 e03c 3b0c 333c 2312 ba3c
000003e0: 0e5e a43c d916 3d3d c2a6 5b3d 3a75 30bc
000003f0: 2a90 41bd cc38 96bc 22d5 4dbd 5110 b4bc

action_model._continuous_distribution.mu.bias f4 [2]
-0.009352845 0.010285183
00000000: ad3c 19bc 2f83 283c

exp_avg f4 [128, 36]
-0.00018690822 -1.45127415e-05 0.00024689594 6.850945e-05 6.0068476e-05 -0.00019025526 0.00012394546 0.0001335871
-0.00012871668 4.1168998e-05 0.00033975742 5.8458503e-05 -5.5393743e-05 -3.84154e-05 0.00014412547 -7.785867e-06
0.00024191974 -4.8869202e-05 -0.00020010963 2.209219e-05 -3.5348334e-05 1.1159036e-05 -2.5511521e-05 2.776625e-05
-0.00030106297 4.0177187e-05 1.1104286e-05 -5.7849607e-05 -6.563002e-05 1.9105752e-05 4.6331625e-23 -2.7700273e-06
-0.0003397388 2.1299615e-05 1.0260788e-10 8.620232e-06 -0.00013689656 -8.718006e-06 0.00029118778 9.267393e-05
0.0001373602 -0.00015891949 0.00017682517 0.00016080924 -0.00013387982 -8.30443e-06 0.00031447588 9.306424e-05
-2.8705843e-05 -6.221041e-05 0.00016528778 4.9820537e-05 0.0002338867 -2.4455006e-05 -0.00021602049 3.077034e-05
8.950229e-05 1.1806556e-05 -3.5908055e-05 5.2918764e-05 -0.00020150245 2.900516e-05 -3.8144266e-05 -2.6790938e-05
-6.0069364e-05 4.7620288e-05 3.9964817e-23 5.61396e-06 -0.00026245537 -3.536444e-06 1.3476936e-10 2.9129485e-05
-1.6042695e-05 7.911429e-07 3.623394e-05 3.317086e-08 5.2216126e-07 -4.6165906e-06 3.780013e-05 6.1302367e-06
-2.0907239e-05 -1.6278069e-05 3.0240246e-05 2.1983667e-06 1.7468083e-05 -9.324639e-06 -1.0860555e-05 6.775782e-06
4.760721e-05 1.3604579e-05 -5.0154897e-05 -8.9774485e-06 1.62407e-05 -6.1183227e-06 1.1231575e-06 3.4223276e-06
2.1136566e-05 -8.077079e-07 -1.15925295e-05 -4.0518103e-06 -3.249196e-05 7.1597406e-06 -1.893037e-23 -9.3537255e-06
4.4654593e-05 -4.3340395e-05 -6.017501e-14 1.178287e-05 -1.1481533e-06 2.668766e-07 -3.4274268e-05 -2.7008378e-05
-3.5127567e-05 4.916065e-06 -1.4925076e-05 -3.05117e-05 1.441725e-05 7.6036317e-06 -4.5353638e-05 -2.8883358e-05
8.2527e-06 1.574577e-07 -4.4770662e-05 -2.5874142e-05 -2.1202108e-05 -2.8508964e-06 1.4082354e-05 -1.9353414e-05
-3.693463e-05 -1.2003701e-06 1.8417311e-06 -2.7424447e-05 2.6409039e-06 -2.4380595e-06 1.2096832e-05 -1.2813874e-05
-1.909061e-05 -8.55984e-06 -3.480606e-24 -1.7167777e-05 2.5167274e-05 -1.9287481e-05 -4.248669e-11 -8.280582e-06
-6.597436e-05 -2.9824403e-06 0.00019062309 4.5015477e-05 8.653285e-05 -6.4751686e-05 0.00015925945 9.003684e-05
-9.099735e-05 -3.0613155e-05 0.00011057786 4.3358385e-05 2.2697254e-06 -4.4854736e-05 0.00010553969 5.5669178e-05
0.00012559009 5.133085e-06 -0.00015365625 2.0555228e-06 0.00013522121 -4.1736753e-06 -1.488666e-05 4.186688e-05
-7.621432e-05 1.1270889e-05 -5.2216375e-05 -1.5071975e-05 -3.5111265e-05 2.8789302e-05 1.2527379e-24 -1.6020131e-06
-5.1299816e-05 -7.886546e-05 7.60692e-11 3.614988e-05 -0.00010310375 -4.1704047e-06 0.00014055066 1.4811677e-05
3.350574e-06 -5.5964494e-05 0.000109808825 4.118564e-05 -0.000104623614 -7.87556e-06 0.00010358195 8.175203e-06
-7.598125e-06 -1.8968956e-05 4.0955205e-05 -2.0658133e-08 9.160828e-05 -1.741091e-05 -0.00011708919 -1.4326538e-05
4.90602e-05 -4.532662e-06 -1.4707466e-05 2.9399685e-06 -0.00011515169 1.2357336e-05 -2.4654435e-05 -3.2208383e-05
-2.1878868e-05 9.69781e-06 9.211226e-25 -1.1925057e-05 -0.00011700999 -6.829685e-06 5.7557032e-11 -9.639436e-06
-8.809539e-05 -3.9484485e-06 0.0002682682 0.00011962443 7.202301e-05 -7.6246244e-05 0.00020502463 0.00015627833
-9.057074e-05 -3.3493387e-05 0.00023884402 0.00012389406 -1.2931366e-05 -4.742036e-05 0.0001609966 0.00010702043
0.00017708295 2.6534078e-06 -0.00013906631 7.280809e-05 0.00018154504 -7.681686e-06 -3.0219137e-05 9.988015e-05
-4.757024e-05 1.3349016e-05 -4.5008954e-05 3.9259405e-05 -1.3484654e-05 5.11848e-05 3.9739748e-24 3.4095556e-05
-1.6376172e-05 -9.8426695e-05 9.153004e-11 0.0001138892 -5.5965233e-05 1.9327808e-06 0.00012712998 2.9581892e-05
00000000: cbfc 43b9 c07b 73b7 d071 8139 bbac 8f38
00000010: 09f2 7b38 427f 47b9 5bf7 0139 8413 0c39
00000020: 1ff8 06b9 e0ac 2c38 7821 b239 5731 7538
00000030: 9456 68b8 3920 21b8 6320 1739 0ba0 02b7
00000040: d6ab 7d39 e8f8 4cb8 85d4 51b9 9e52 b937
00000050: fc42 14b8 b237 3b37 9301 d6b7 91eb e837
00000060: fdd7 9db9 ed83 2838 8c4c 3a37 8ba3 72b8
00000070: d9a2 89b8 4a45 a037 c60b 601a b5e4 39b6
00000080: f81e b2b9 93ac b237 1aa3 e12e 9d9f 1037
00000090: e48b 0fb9 8d43 12b7 90aa 9839 f059 c238
000000a0: 5908 1039 a0a3 26b9 256a 3939 e79e 2839
000000b0: 1762 0cb9 4153 0bb7 3de0 a439 7c2b c338
000000c0: 54cd f0b7 f676 82b8 1a51 2d39 65f6 5038
000000d0: 7c3f 7539 ba24 cdb7 8f83 62b9 670f 0138
000000e0: 2db3 bb38 c614 4637 fb9b 16b8 17f5 5d38
000000f0: 674a 53b9 1b50 f337 18fd 1fb8 1abd e0b7
00000100: fdf2 7bb8 e5bb 4738 0c42 411a 8d5f bc36
00000110: 2a9a 89b9 a553 6db6 342e 142f 185b f437
00000120: 6d93 86b7 ed5e 5435 e6f9 1738 bf77 0e33
00000130: a62a 0c35 36e8 9ab6 958b 1e38 55b2 cd36
00000140: f461 afb7 e38c 88b7 6fac fd37 a787 1336
00000150: 6c88 9237 0571 1cb7 bb35 36b7 865b e336
00000160: daad 4738 393f 6437 695d 52b8 d99d 16b7
00000170: a33c 8837 fe4b cdb6 66bf 9635 24ab 6536
00000180: 6e4e b137 44d1 58b5 897d 42b7 c9f4 87b6
00000190: fa47 08b8 b43d f036 5315 b799 f2ed 1cb7
000001a0: 814b 3b38 65c8 35b8 8880 87a9 0baf 4537
000001b0: 3f1a 9ab5 3e47 8f34 b7c1 0fb8 0d90 e2b7
000001c0: f055 13b8 adf4 a436 b766 7ab7 60f3 ffb7
000001d0: 9ee1 7137 b322 ff36 193a 3eb8 8a4a f2b7
000001e0: 1475 0a37 a511 2934 22c8 3bb8 4c0c d9b7
000001f0: 2edb b1b7 0752 3fb6 4043 6c37 2459 a2b7
00000200: 42ea 1ab8 671c a1b5 6631 f735 8d0d e6b7
00000210: 623a 3136 8b9d 23b6 7ff3 4a37 2bfb 56b7
00000220: c624 a0b7 3c9c 0fb7 41a6 8698 8503 90b7
00000230: 4f1e d337 8dcb a1b7 c3db 3aae d4ec 0ab7
00000240: b75b 8ab8 ef25 48b6 ffe1 4739 00cf 3c38
00000250: f878 b538 4ccb 87b8 e2fe 2639 29d2 bc38
00000260: d5d5 beb8 a066 00b8 09e6 e738 b6db 3538
00000270: 9651 1836 6822 3cb8 3155 dd38 537e 6938
00000280: d5b0 0339 dd3c ac36 c91e 21b9 9df1 0936
00000290: 2bca 0d39 990b 8cb6 b8c1 79b7 389a 2f38
000002a0: 40d5 9fb8 1a18 3d37 e802 5bb8 a4dd 7cb7
000002b0: 6f44 13b8 8e80 f137 10da c117 c004 d7b5
000002c0: c22a 57b8 9264 a5b8 2747 a72e a39f 1738
000002d0: 6739 d8b8 81ef 8bb6 c860 1339 ab7f 7837
000002e0: 6cda 6036 6bbb 6ab8 2a49 e638 bfbe 2c38
000002f0: 6069 dbb8 4621 04b7 233a d938 3b28 0937
00000300: 66f3 feb6 861f 9fb7 51c7 2b38 b773 b1b2
00000310: d21d c038 a50d 92b7 c88d f5b8 035c 70b7
00000320: fdc5 4d38 4517 98b6 16c0 76b7 464c 4536
00000330: 987d f1b8 5b52 4f37 ffd0 ceb7 7d17 07b8
00000340: 8388 b7b7 c7b3 2237 6d89 8e17 bb11 48b7
00000350: 4363 f5b8 8c2a e5b6 7523 7d2e 10b9 21b7
00000360: dabf b8b8 ea7c 84b6 59a6 8c39 e0de fa38
00000370: 0f0b 9738 64e6 9fb8 e1fb 5639 a5de 2339
00000380: ccf0 bdb8 407b 0cb8 3472 7a39 8fe9 0139
00000390: cbf3 58b7 39e5 46b8 32d1 2839 2870 e038
000003a0: 58af 3939 3311 3236 54d2 11b9 8cb0 9838
000003b0: 205d 3e39 97e0 00b7 1a7f fdb7 bf76 d138
000003c0: 2886 47b8 96f5 5f37 ffc7 3cb8 77aa 2438
000003d0: 263c 62b7 43af 5638 57bc 9918 d301 0f38
000003e0: 905f 89b7 6e6a ceb8 d546 c92e ccd7 ee38
000003f0: 36bc 6ab8 ecb4 0136 324e 0539 a126 f837

exp_avg_sq f4 [128, 36]
7.5512213e-07 3.942533e-08 5.5010184e-07 1.4177773e-06 6.052246e-07 8.6370775e-08 7.081124e-07 1.4630954e-06
3.6690304e-07 6.217327e-08 9.453396e-07 1.5243369e-06 6.899733e-08 6.428435e-08 1.3685953e-06 1.5851714e-06
3.2707854e-07 8.3371894e-08 1.0172157e-06 1.5749864e-06 1.4705987e-06 4.2546333e-08 6.011325e-08 1.2722473e-06
1.5527265e-06 2.5083162e-08 1.5529556e-08 1.2489493e-06 1.5679192e-06 4.9934993e-08 1.1746233e-09 9.71446e-07
1.4294953e-06 8.83684e-08 5.5988054e-09 1.0161164e-06 6.621482e-07 3.0133496e-08 3.8940908e-07 1.1227789e-06
5.692015e-07 6.922758e-08 4.838307e-07 1.1555229e-06 3.0751636e-07 3.7969407e-08 7.108805e-07 1.2204135e-06
3.8600977e-08 9.027468e-08 1.0586665e-06 1.2441333e-06 2.3304263e-07 4.873278e-08 8.0611443e-07 1.2594439e-06
1.1727134e-06 3.7787096e-08 3.6429338e-08 1.0158168e-06 1.2221916e-06 1.6340756e-08 8.889825e-09 9.849107e-07
1.2420098e-06 3.9139447e-08 1.250722e-09 7.737911e-07 1.1110917e-06 8.570673e-08 1.8260278e-09 7.9960995e-07
1.2905915e-09 9.2249336e-10 6.8951156e-09 9.358341e-09 9.897556e-10 2.9711353e-10 8.147438e-09 9.9810755e-09
8.5159635e-10 6.962286e-10 8.185701e-09 9.729283e-09 3.649045e-10 4.0298467e-10 9.124505e-09 1.026646e-08
4.0717363e-09 1.042422e-09 4.099684e-09 9.399278e-09 7.0858586e-09 5.103763e-10 1.8243865e-09 8.397716e-09
9.548012e-09 5.7974153e-10 1.3468535e-10 7.841685e-09 9.274895e-09 2.1640285e-10 9.719787e-11 6.1737384e-09
8.718469e-09 1.218974e-09 3.17656e-12 6.153845e-09 1.700117e-08 9.431588e-10 2.9170472e-08 4.6204487e-08
1.37827e-08 2.413674e-09 3.1938413e-08 4.654981e-08 1.1745773e-08 1.3732363e-09 3.439214e-08 4.725673e-08
2.2105093e-09 1.2200887e-09 4.5413817e-08 5.025311e-08 1.730445e-08 1.8986601e-09 2.672405e-08 4.7245965e-08
3.929744e-08 2.1441677e-09 8.742442e-09 4.0908073e-08 4.608176e-08 1.9028268e-09 1.1316169e-09 3.7348688e-08
4.7207546e-08 2.9372407e-09 6.3406197e-10 2.9336146e-08 4.4224375e-08 4.6789927e-09 2.759931e-10 2.793241e-08
1.9881357e-07 1.6249125e-08 1.14131865e-07 3.4962773e-07 1.8555795e-07 1.2664564e-08 1.5290597e-07 3.6836107e-07
8.5949054e-08 6.3517227e-09 2.3269722e-07 3.888591e-07 2.1308091e-08 2.677568e-08 3.24092e-07 3.933792e-07
9.653639e-08 1.4001839e-08 2.2436079e-07 3.9348902e-07 3.4329432e-07 1.3058985e-08 2.4086859e-08 3.23771e-07
3.906093e-07 5.2412235e-09 5.5579665e-09 3.112906e-07 3.9452158e-07 6.812849e-09 1.1143696e-09 2.499232e-07
3.3196724e-07 4.026823e-08 7.4584794e-10 2.4563425e-07 2.635965e-08 2.7487523e-09 2.3866189e-08 5.7823886e-08
2.0855351e-08 4.915477e-09 3.024121e-08 5.8697e-08 6.802041e-09 1.1790986e-09 4.9220475e-08 6.339018e-08
4.66921e-09 1.7943664e-09 5.323508e-08 6.42258e-08 1.1386294e-08 4.2576214e-09 3.404346e-08 6.0917195e-08
5.238123e-08 2.4429996e-09 3.548796e-09 4.9831822e-08 6.071689e-08 9.196502e-10 1.3067789e-09 5.0652112e-08
6.183159e-08 9.370218e-10 6.2590044e-11 3.8703877e-08 5.7815143e-08 2.6879177e-09 1.6163251e-10 4.2879577e-08
2.9488578e-07 2.500286e-08 3.0691652e-07 6.8334975e-07 2.8761332e-07 3.2871995e-08 3.4881802e-07 7.1052466e-07
1.3235594e-07 2.6411536e-08 4.745069e-07 7.3094685e-07 2.6058357e-08 2.9467824e-08 6.6700767e-07 7.681203e-07
2.0321787e-07 2.9790915e-08 4.2555297e-07 7.530335e-07 6.4203675e-07 2.7763022e-08 6.456452e-08 6.2305185e-07
7.398436e-07 1.13753655e-08 6.2013066e-09 5.911287e-07 7.274254e-07 3.2624577e-08 1.4444935e-09 4.5621067e-07
6.596398e-07 6.1837596e-08 1.4440358e-09 4.6325934e-07 7.3108524e-08 4.3133115e-09 5.2731565e-08 1.351369e-07
00000000: 99b3 4a35 9c54 2933 b6aa 1335 754a be35
00000010: b876 2235 d67a b933 1d15 3e35 935f c435
00000020: c5fa c434 1e84 8533 3ec3 7d35 d197 cc35
00000030: af2b 9433 b20c 8a33 94b0 b735 13c2 d435
00000040: 5599 af34 2f0a b333 4487 8835 1f64 d335
00000050: 6361 c535 30bc 3633 9c17 8133 16c2 aa35
00000060: 4767 d035 7576 d732 db65 8532 92a1 a735
00000070: 4b71 d235 1b78 5633 6270 a130 a162 8235
00000080: 16dd bf35 0bc5 bd33 9d5f c031 7e61 8835
00000090: 7abe 3135 216c 0133 fa0f d134 64b2 9635
000000a0: 3bcb 1835 44aa 9433 98e0 0135 7717 9b35
000000b0: ba18 a534 ce13 2333 56d3 3e35 17cd a335
000000c0: 39ca 2533 08dd c133 8117 8e35 18fc a635
000000d0: 453a 7a34 424e 5133 c363 5835 2a0a a935
000000e0: 2066 9d35 5a4b 2233 7b76 1c33 3357 8835
000000f0: 2f0a a435 b45d 8c32 ddb9 1832 4631 8435
00000100: 22b3 a635 471a 2833 dee5 ab30 85b6 4f35
00000110: d220 9535 c60d b833 a4f7 fa30 c7a4 5635
00000120: a760 b130 b392 7d30 14ea ec31 6bc6 2032
00000130: ee07 8830 0357 a32f d0f8 0b32 3c79 2b32
00000140: c415 6a30 bb60 3f30 18a1 0c32 d725 2732
00000150: be9b c82f 0d8b dd2f ffc1 1c32 5e60 3032
00000160: 5fe7 8b31 f744 8f30 34dd 8c31 767a 2132
00000170: df77 f331 8a4a 0c30 e5bd fa30 8c45 1032
00000180: 9a08 2432 af5b 1f30 8e16 142f 18b8 0632
00000190: 6b57 1f32 fdef 6d2f 89bd d52e c720 d431
000001a0: 3bc8 1532 d688 a730 d187 5f2c cb71 d331
000001b0: f809 9232 73a0 8130 8c92 fa32 5f72 4633
000001c0: f5c8 6c32 cddd 2531 a82c 0933 0fee 4733
000001d0: 75ca 4932 75bc bc30 8fb6 1333 53f7 4a33
000001e0: b1e7 1731 0eb0 a730 050d 4333 e1d5 5733
000001f0: e3a4 9432 9579 0231 cf8e e532 7deb 4a33
00000200: fec7 2833 9958 1331 ab31 1632 e7b2 2f33
00000210: 6eeb 4533 e2c2 0231 3b87 9b30 5169 2033
00000220: 3fc1 4a33 7cd8 4931 254a 2e30 defe fb32
00000230: 37f1 3d33 dbc4 a031 93ba 972f 05f0 ef32
00000240: 7579 5534 3494 8b32 a818 f533 78b4 bb34
00000250: c83d 4734 5793 5932 792e 2434 29c3 c534
00000260: fe92 b833 583e da31 53db 7934 63c4 d034
00000270: fd08 b732 5800 e632 defe ad34 a031 d334
00000280: 714f cf33 bd8c 7032 d3e7 7034 b840 d334
00000290: 034e b834 065a 6032 90e7 ce32 bfd2 ad34
000002a0: efb4 d134 4a16 b431 64f8 be31 741f a734
000002b0: a2ce d334 7416 ea31 6528 9930 2f2d 8634
000002c0: 3b39 b234 63f3 2c33 6204 4d30 b7df 8334
000002d0: 7c6d e232 90e4 3c31 4e02 cd32 095a 7833
000002e0: 6725 b332 fee4 a831 90e2 0133 091a 7c33
000002f0: 63b7 e931 d80d a230 7c66 5333 1f21 8833
00000300: ce6e a031 a89d f630 97a4 6433 82ec 8933
00000310: 739d 4332 6f4a 9231 2e37 1233 95d1 8233
00000320: c5f9 6033 b4e1 2731 14df 7331 ab06 5633
00000330: 7763 8233 a1ca 7c30 329a b330 968c 5933
00000340: 47c8 8433 86c8 8030 10a3 892e 5d3b 2633
00000350: 6c50 7833 59b6 3831 82b7 312f 982a 3833
00000360: cb50 9e34 dfc5 d632 49c6 a434 706f 3735
00000370: 4669 9a34 242f 0d33 2f45 bb34 e2ba 3e35
00000380: b91d 0e34 95df e232 bbbf fe34 4936 4435
00000390: efd6 df32 6e20 fd32 6b0c 3335 d330 4e35
000003a0: 1a34 5a34 eae6 ff32 8e77 e434 1124 4a35
000003b0: 6e58 2c35 887b ee32 b8a6 8a33 cc3f 2735
000003c0: aa99 4635 636d 4332 4513 d531 0eae 1e35
000003d0: 4b44 4335 1a1f 0c33 9987 c630 1eed f434
000003e0: 1a12 3135 94cb 8433 7e77 c630 e1b5 f834
000003f0: d6ff 9c33 4a34 9431 f87a 6233 261a 1134

exp_avg f4 [128]
1.2517035e-05 4.443136e-05 -4.9602177e-06 -2.46685e-05 2.2086964e-05 -8.002605e-06 9.1091904e-05 2.7427292e-05
4.6364217e-05 -8.47107e-05 0.00012913621 3.875321e-05 -2.2741651e-05 -7.322608e-06 -2.3659599e-05 -3.6698493e-05
-9.966855e-07 -3.711263e-05 1.0344821e-05 6.330963e-05 7.828557e-05 5.4117285e-05 1.573077e-05 -7.849969e-05
-4.724559e-05 8.07967e-05 3.564202e-05 -9.941897e-05 4.8523475e-06 0.00015428873 -3.2263128e-05 2.6299565e-05
0.0002190202 -8.8689805e-05 4.5925342e-05 3.2540145e-05 3.5540037e-05 -8.284786e-05 0.00013080555 -3.5071964e-05
-4.40164e-05 2.063829e-05 -1.4911597e-05 1.2471933e-05 0.00010908227 8.305294e-05 0.00024881287 3.8256854e-05
9.667804e-05 -2.4129757e-05 1.5872504e-06 -1.1317743e-05 6.8066156e-06 6.151595e-05 1.7675582e-05 3.397388e-05
-3.4993514e-05 -1.1853939e-05 6.828229e-05 7.436862e-05 0.00015299382 2.8137733e-06 1.928921e-06 -9.8735356e-05
6.3586945e-06 -1.2106274e-06 -7.852464e-05 -5.2729596e-05 0.00012383086 1.87519e-05 0.00010054602 -7.1613365e-05
6.197632e-05 -7.8962636e-05 6.062133e-05 7.806536e-05 -2.3950077e-05 2.4928544e-05 1.3473484e-05 -1.4352427e-05
7.989883e-05 2.8638537e-05 -4.110502e-05 -2.5191639e-05 0.00024597722 -1.8801454e-06 4.694715e-05 7.247596e-05
3.8139602e-05 4.056715e-05 -1.0314831e-05 -6.895585e-05 -3.6362875e-05 9.142005e-06 7.8054094e-05 6.775129e-05
-2.6146241e-05 2.251597e-05 6.1679134e-06 1.3513246e-05 2.9059449e-05 -9.713335e-05 -1.0282464e-06 0.00012153232
-6.77404e-07 1.313336e-05 4.3983666e-05 9.5926e-06 0.00010880247 4.9180173e-05 2.949379e-05 -8.627911e-05
5.6632825e-06 7.726619e-06 9.065996e-05 -6.365935e-05 1.6386471e-06 4.8714496e-06 1.3942482e-05 -1.4454996e-05
1.1575856e-05 -4.986129e-05 -2.4670486e-05 3.0212352e-05 1.3828431e-05 -3.6773323e-05 -6.0462586e-05 -4.876824e-05
00000000: 4200 5237 cf5b 3a38 f26f a6b6 33ef ceb7
00000010: 6547 b937 ed42 06b7 9808 bf38 a913 e637
00000020: 3377 4238 b6a6 b1b8 bd68 0739 f18a 2238
00000030: 53c5 beb7 b9b4 f5b6 9a78 c6b7 b5ec 19b8
00000040: dac5 85b5 62a9 1bb8 ab8e 2d37 19c5 8438
00000050: 3f2d a438 fefb 6238 92f5 8337 33a0 a4b8
00000060: 9129 46b8 6671 a938 547e 1538 277f d0b8
00000070: 59d1 a236 91c8 2139 4552 07b8 e39d dc37
00000080: caa8 6539 fafe b9b8 f69f 4038 b77b 0838
00000090: d310 1538 9bbe adb8 d928 0939 3c1a 13b8
000000a0: 409e 38b8 6420 ad37 d22c 7ab7 8b3e 5137
000000b0: 19c3 e438 b52c ae38 1973 8239 fc75 2038
000000c0: a1bf ca38 426a cab7 8209 d535 56e1 3db7
000000d0: 6264 e436 2002 8138 0646 9437 2d7f 0e38
000000e0: 00c6 12b8 48e0 46b7 c632 8f38 59f6 9b38
000000f0: f76c 2039 42d4 3c36 9c72 0136 2410 cfb8
00000100: c55c d536 d77c a2b5 98ad a4b8 f929 5db8
00000110: 98d8 0139 664d 9d37 3cdc d238 222f 96b8
00000120: 49f9 8138 be98 a5b8 a843 7e38 05b7 a338
00000130: 66e8 c8b7 a41d d137 2c0c 6237 34cb 70b7
00000140: 5c8f a738 ca3c f037 2e68 2cb8 a252 d3b7
00000150: 81f6 8039 4e59 fcb5 1ee9 4438 3cfe 9738
00000160: 16f8 1f38 a526 2a38 dd0d 2db7 649c 90b8
00000170: 5784 18b8 9d60 1937 f9b0 a338 b215 8e38
00000180: a054 dbb7 ade0 bc37 f9f5 ce36 f3b6 6237
00000190: b1c4 f337 12b4 cbb8 4702 8ab5 2bdf fe38
000001a0: d9d6 35b5 5a57 5c37 1a7b 3838 e7ef 2037
000001b0: e22c e438 cf46 4e38 6f69 f737 bff0 b4b8
000001c0: 3a07 be36 93a1 0137 b220 be38 da80 85b8
000001d0: 7cef db35 6f75 a336 81ea 6937 bc83 72b7
000001e0: ec35 4237 2722 51b8 77f3 ceb7 8870 fd37
000001f0: a900 6837 0e3d 1ab8 3599 7db8 808c 4cb8

exp_avg_sq f4 [128]
1.6795694e-06 1.3424853e-06 1.07971205e-08 5.2075944e-08 4.2519093e-07 6.794129e-08 8.0789874e-07 1.5969864e-07
1.5588556e-07 8.857784e-08 7.216384e-07 2.086366e-07 1.2548107e-06 6.50456e-10 1.9318387e-08 3.6243793e-07
2.8560878e-08 2.2714862e-06 3.283993e-07 1.2833682e-07 2.9862156e-07 1.4561627e-07 3.7833818e-08 1.7454555e-06
6.459066e-07 2.935338e-06 3.3338235e-08 7.646159e-07 2.4842405e-08 2.9745606e-06 2.3794063e-07 4.6964087e-07
4.1505205e-06 1.0082031e-06 5.818411e-08 7.530112e-08 3.1668222e-08 5.247594e-07 1.4119641e-06 2.3924242e-08
2.4183837e-06 2.4799562e-07 1.0312609e-07 9.945934e-08 1.7604041e-06 7.7468724e-07 7.334325e-07 2.8801963e-07
8.356251e-07 4.215854e-07 2.0868065e-09 1.3706132e-07 1.1627877e-08 6.301375e-07 3.9064665e-07 2.959389e-07
5.549754e-08 4.0580353e-08 1.2407522e-06 1.1998267e-06 1.4220385e-06 1.545025e-08 1.0439942e-06 1.3078621e-06
1.157202e-07 7.791646e-08 1.9344456e-07 7.3616064e-08 4.7432889e-07 4.7737603e-07 1.7144222e-07 5.246071e-07
7.694647e-08 6.101427e-07 2.1186286e-06 2.3226075e-07 1.1552598e-06 2.2109523e-07 1.2549624e-07 3.4024847e-08
3.8406046e-07 2.2824574e-07 6.704195e-07 4.3656658e-07 2.7300648e-06 1.1148918e-06 5.7395914e-07 2.436263e-06
1.0372546e-08 2.4389442e-07 9.252642e-09 2.2136356e-07 1.0883526e-06 4.6878185e-07 1.9421545e-06 4.237207e-07
1.1199812e-07 2.220578e-07 5.513778e-07 1.1448896e-06 1.0510338e-06 2.696235e-07 5.0417377e-09 8.508403e-07
5.0611493e-07 3.355001e-07 6.1673845e-08 9.772914e-07 6.052874e-07 1.3447913e-06 2.0579633e-07 2.6695625e-07
5.4780758e-09 4.7193407e-08 4.7275418e-07 7.0033724e-07 1.6116256e-07 6.1940926e-07 3.335808e-07 1.7443308e-07
8.288368e-08 3.0559296e-08 4.9916654e-08 3.1983014e-08 2.2606453e-07 3.325035e-07 3.8135883e-07 1.1044723e-06
00000000: 916d e135 722f b435 3d7e 3932 1baa 5f33
00000010: cc45 e434 1fe7 9133 61de 5835 a179 2b34
00000020: 7f61 2734 2f38 be33 9db6 4135 9805 6034
00000030: f86a a835 c6cb 3230 95f1 a532 1795 c234
00000040: 0956 f532 d66f 1836 db4e b034 f5cc 0934
00000050: 3c52 a034 b25a 1c34 b97e 2233 6545 ea35
00000060: 5d62 2d35 b9fc 4436 c72f 0f33 0140 4d35
00000070: 0765 d532 909e 4736 9f7c 7f34 f322 fc34
00000080: b344 8b36 9851 8735 1be6 7933 3ab5 a133
00000090: 9403 0833 31dd 0c35 b882 bd35 f781 cd32
000000a0: 844b 2236 4224 8534 2b76 dd33 5a96 d533
000000b0: 0647 ec35 1af4 4f35 19e1 4435 1ea1 9a34
000000c0: b84f 6035 4256 e234 7d67 0f31 212b 1334
000000d0: f2c3 4732 b826 2935 11ba d134 88e1 9e34
000000e0: 315c 6e33 924a 2e33 ec87 a635 bb09 a135
000000f0: dfdc be35 76b7 8432 5e1f 8c35 cd89 af35
00000100: da81 f833 0753 a733 a3b5 4f34 dc16 9e33
00000110: 44a7 fe34 0825 0035 ae15 3834 bad2 0c35
00000120: c53d a533 b0c8 2335 c32d 0e36 5963 7934
00000130: 6d0e 9b35 3266 6d34 25c0 0634 b722 1233
00000140: de30 ce34 b613 7534 e1f6 3335 4161 ea34
00000150: 2836 3736 64a3 9535 2c12 1a35 ae7e 2336
00000160: f132 3232 98f0 8234 8df5 1e32 f4af 6d34
00000170: 8313 9235 e3ac fb34 f655 0236 bb7b e334
00000180: 9e83 f033 c96e 6e34 6502 1435 1baa 9935
00000190: 3f11 8d35 c6c0 9034 983b ad31 4d65 6435
000001a0: f4db 0735 c81e b434 8e71 8433 7a2b 8335
000001b0: 097b 2235 ad7e b435 ddf8 5c34 3052 8f34
000001c0: aa39 bc31 b3b1 4a33 d7ce fd34 cffe 3b35
000001d0: 070c 2d34 7b45 2635 ff16 b334 cd4b 3b34
000001e0: c9fd b133 4d40 0333 f163 5633 b25d 0933
000001f0: 25bc 7234 ef82 b234 8fbd cc34 613d 9435
