results/VectorTests/car2/CarFindGoal.onnx (onnx, 4756 bytes, 5 tensors)

network_body._body_endoder.seq_layers.0.weight f4 [20, 36]
000000 f5 15 2a 3d 95 32 00 3d 0b 29 98 3d 30 75 81 3e
       0.041524846 0.03129824 0.07429703 0.2528472
000010 b2 8d 9c bd 3d c5 5f 3e a6 0a d9 bc 51 35 ea bd
       -0.07644214 0.21852584 -0.026494335 -0.114359505
000020 d6 3c 44 be e5 61 2e be e0 1c cc 3e b4 8e 59 3d
       -0.19163832 -0.17029531 0.3986578 0.053114608
000030 ed 21 16 3d 74 39 3d 3e da ba 18 be 75 d9 d4 bc
       0.036653448 0.18478948 -0.14915028 -0.025982598
000040 a2 d8 3f 3e f6 10 40 be 9c 19 cd 3e f1 22 c2 3e
       0.18734983 -0.1875647 0.400586 0.37917283
000050 05 61 3e 3e e0 d2 29 bd 51 bd 2a be 9a 9f b4 3d
       0.18591698 -0.04146087 -0.16673781 0.08819504
000060 6a 04 c0 3c 2a dd d9 3d 8c 58 5e 3e 19 88 d6 3d
       0.023439605 0.10637887 0.21713465 0.10475177
000070 0f 82 92 3d 38 ef 71 bc f9 ba ce be 2c 67 0e 3f
       0.07153713 -0.014766507 -0.40377024 0.5562618
000080 40 22 04 be 74 8d e5 bc 2c d3 60 3e be 6e 35 be
       -0.1290369 -0.028021552 0.21955556 -0.17718026
000090 f8 33 b8 3d 03 c0 32 3d 11 e3 a1 3e 36 26 53 be
       0.08994287 0.043640148 0.3161855 -0.20620045
0000a0 c4 31 84 3d e2 5d 2b be 7c 3e ae 3e 1a bf 1d be
       0.064548045 -0.16735032 0.34032047 -0.1540493
0000b0 ea 08 b2 bd b3 90 71 3e 3e e6 97 3e fa d2 53 3d
       -0.086931065 0.23590355 0.29667848 0.051714875
0000c0 e8 b9 8d 3e 07 6b 07 3f ff 18 ac bd 18 a8 02 3c
       0.27680898 0.52897686 -0.08403205 0.007974647
0000d0 dc a5 85 3e 75 78 86 be b3 cc bf bc 32 5a ee 3c
       0.26103103 -0.26263776 -0.023413038 0.029095743
0000e0 e3 8f 73 3e 2d f1 d9 bd b0 75 dd 3d e6 80 b0 3d
       0.23785357 -0.10641704 0.10813463 0.086183354
0000f0 be e2 cf 3b e5 40 8a 3e df 63 9c 3e d4 55 05 be
       0.0063441684 0.27002636 0.30544946 -0.13021022
000100 b7 cc 87 3e b8 87 2c 3e d5 e0 34 3c 93 2b 5b be
       0.26523373 0.16848648 0.011039932 -0.21403341
000110 be c4 4f 3e 4a 01 8f 3c d6 07 e4 3d c9 61 27 3e
       0.20289895 0.01745667 0.11134307 0.16345896
000120 ed f0 57 3e b7 9d c9 bd a9 1d 5c 3e cb d8 df 3d
       0.21088 -0.09844535 0.2149569 0.10930022
000130 6f 4d 84 3e 3a 24 4b be 0c 23 b2 3e f6 25 71 bd
       0.25840327 -0.19838038 0.34792364 -0.058874093
000140 74 9e 93 3e d7 fb 28 3e 13 b5 88 3d d0 92 0a 3d
       0.28831828 0.1650232 0.06675162 0.033831418
000150 49 64 11 3e 9b 34 40 bd 7e 4c 8d bc c4 1c 45 be
       0.14198412 -0.04692517 -0.017248388 -0.19249254
000160 16 b4 8d 3e c8 a9 3d be 70 2e 60 be 4b 43 84 bd
       0.27676457 -0.18521798 -0.21892715 -0.064581476
000170 c6 8c bb 3e 5d 82 5c 3d 0c c2 5e 3e f0 94 9e be
       0.3663084 0.05383526 0.2175371 -0.30973005
000180 c8 d9 6b 3e 7b f7 91 3e e5 36 35 be 77 dd 3e be
       0.23032296 0.28509125 -0.17696722 -0.1863917
000190 54 f6 d9 3d ff 5b ce 3c ba 29 3e 3d 58 2e 11 be
       0.106426865 0.025190352 0.046426512 -0.14177835
0001a0 04 1a e3 bc fa f8 07 be 82 9b 11 3e 96 cc 13 bd
       -0.027722366 -0.13278571 0.14219478 -0.03608378
0001b0 41 bc d1 3d df 3c fa be b6 01 43 bd e5 57 de 3d
       0.10240985 -0.48874566 -0.047609054 0.10856608
0001c0 f0 15 39 bd b6 13 c0 bd 13 ac a8 bd d8 5e 35 bd
       -0.045186937 -0.093787596 -0.082359456 -0.044279903
0001d0 73 55 68 3d 27 9c 05 be 3e 0c 7b bd 1b b2 46 bd
       0.056722116 -0.13047849 -0.061290972 -0.0485097
0001e0 b5 48 37 bd 58 e3 5b be e3 ee 41 3e 5d 97 ec 3e
       -0.044747073 -0.21473444 0.18938784 0.4620923
0001f0 7b af a6 3d d4 ab d0 3e f9 7e fa 3d 7b 1e 33 3e
       0.08138939 0.40756094 0.12231249 0.17492096
000200 d0 3b ce be 96 17 9a 3d b8 84 a1 3d 5d da 30 3d
       -0.40280008 0.0752403 0.07886642 0.043176997
000210 93 62 af 3d 40 c4 aa bd 4e fe 2f be 4c ec 36 be
       0.085637234 -0.08338213 -0.17186853 -0.17863578
000220 38 87 33 bd c5 28 99 be 23 4a 3f 3e 5d b9 62 3e
       -0.043830127 -0.29913917 0.18680625 0.22141023
000230 f4 5e 97 3d 3e d4 aa bc f6 44 b6 bd b4 e3 d9 be
       0.07391158 -0.020853158 -0.08899872 -0.42556536
000240 3b d0 14 3e 4f 56 67 3e 1c 56 df 3c 01 16 4a 3c
       0.14532559 0.22591518 0.02726274 0.012334348
000250 8a fe 54 3e b9 62 38 3d 14 4c cc 3d 35 13 f5 bd
       0.20800224 0.045016024 0.09975448 -0.11966554
000260 ea 80 ac 3e 0e 16 26 be aa fb e3 3d f6 d2 c9 3c
       0.33692104 -0.1621935 0.111319855 0.024636727
000270 b5 5f 57 3e 05 5d ab be 03 04 4a be cf 2e 3d 3e
       0.21032603 -0.33469406 -0.19728093 0.18474887
000280 4d 16 46 3e 6d 82 97 be 2d 8c 62 be e2 14 9f bc
       0.19344445 -0.29591694 -0.22123785 -0.019419137
000290 4c eb fd bd f2 c9 c3 bd 81 44 11 3d 44 79 cb 3d
       -0.12398395 -0.095600024 0.03546572 0.09935239
0002a0 82 12 31 3e d6 a5 16 3f 7c 97 e4 be c3 10 81 3b
       0.17292216 0.58846796 -0.44646823 0.0039387657
0002b0 94 f1 1e be 9d c3 97 3e 20 ae 84 bd 6a ce de 3d
       -0.15521842 0.2964143 -0.06478524 0.10879214
0002c0 b4 53 3d 3e 2e 97 37 3e 90 4b 7f 3d 19 b9 68 bd
       0.18488961 0.17928764 0.06232792 -0.056817148
0002d0 21 12 b7 be 7e bc 94 3e 0e cd 5a be ea 51 89 be
       -0.3575602 0.29050058 -0.21367285 -0.26820308
0002e0 b3 e1 24 bd a9 dd e9 3d ce c7 32 3d 51 ad 12 3d
       -0.040254306 0.114192314 0.04364758 0.03580982
0002f0 f5 6e 95 3e 61 18 2c be 2e 48 61 3d 2b 3a da 3c
       0.29186216 -0.16806175 0.055000477 0.026639065
000300 d4 b6 50 be 9c bb b2 be d3 90 54 3c e0 2c c3 3d
       -0.20382243 -0.3490876 0.012973982 0.095300436
000310 10 e6 72 bd 34 1e 5e 3e 49 54 86 3e 58 c2 9e 3e
       -0.059301436 0.21691209 0.2623618 0.31007648
000320 fb ea 10 bf 00 36 12 bd 78 e6 4c 3e aa 8b 93 3c
       -0.5660855 -0.03569603 0.20009792 0.018010933
000330 a3 83 04 be 17 5b 18 be a1 2d 34 be f2 57 8d be
       -0.1294084 -0.14878498 -0.17595531 -0.2760616
000340 db 50 f4 3d 10 02 be 3c 61 db 10 be 9c f0 6f 3e
       0.119294845 0.023194343 -0.14146186 0.23431629
000350 16 dd 5f 3e 87 12 1e bd 7a 47 a1 bc fd 46 f2 3b
       0.21861681 -0.038591888 -0.019687403 0.0073937164
000360 6a 32 c3 3d e1 f8 1d be 87 1a 11 be 11 7a 71 3e
       0.095311 -0.15426971 -0.14170276 0.23581721
000370 cd 1b a7 3d 42 38 46 3e 4a f2 0c be 38 f1 43 bc
       0.081595995 0.19357398 -0.13764301 -0.0119593665
000380 6e 41 25 bd 07 bd 46 3e c0 32 94 be a3 66 9f 3d
       -0.0403456 0.19408046 -0.2894497 0.07783248
000390 59 a0 f7 3d 70 7b 9a be 78 3d ea bc 73 00 8c 3e
       0.12091131 -0.301723 -0.028593764 0.27344093
0003a0 16 cd 68 be 84 d8 2b 3e 82 39 28 be f2 eb 14 3e
       -0.22734484 0.16781813 -0.16428187 0.14543131
0003b0 11 aa 96 3c 23 6f f6 3d 5d b8 ee 3e 05 be a3 be
       0.01839164 0.120329164 0.46625033 -0.3198091
0003c0 71 40 16 3e db 3b a8 3e fb 23 38 bd 88 95 09 be
       0.1467302 0.32858166 -0.04495619 -0.13435948
0003d0 4c 52 2c be a7 1d f2 bd aa 60 de 3e 4c 9f b1 3e
       -0.16828269 -0.11822062 0.43433124 0.34691846
0003e0 60 18 33 3e 6b 83 33 3e 87 8f 35 be 08 19 9a be
       0.17489767 0.175306 -0.17730533 -0.30097222
0003f0 4e 66 63 3c 71 4d bf 3d ef f3 f9 bd a0 f1 06 3e
       0.013879372 0.09340943 -0.1220473 0.1317811

network_body._body_endoder.seq_layers.0.bias f4 [20]
000000 a6 78 9d 3d 31 91 bb 3d 03 65 c7 3d 03 d8 42 3b
       0.076890275 0.091585524 0.09736063 0.0029730804
000010 7a eb e5 3d 9e 4e 0f 3c d0 ec 64 3d b1 f8 2f 3d
       0.11226554 0.008746771 0.055889904 0.04296178
000020 6b 78 8d 3d 39 47 25 3d 4d 40 f4 3d 9c c6 0b 3d
       0.069077335 0.040351126 0.11926327 0.034124956
000030 39 1b 12 3c 90 01 4f 3d dc 52 b5 3d 17 5d f6 3c
       0.008917623 0.0505386 0.08853695 0.030073686
000040 7c 3f 38 bc 3b f5 2c be 7f 6f d3 3d 01 5f 9e 3d
       -0.011245605 -0.16890423 0.103240006 0.07732964

action_model._continuous_distribution.log_sigma f4 [1, 2]
000000 d2 bd ac 3e 0d fa df 3c
       0.3373857 0.027340913

action_model._continuous_distribution.mu.weight f4 [2, 20]
000000 d2 83 08 be ce 3a 17 be 35 f3 28 be 2a 00 1e 3e
       -0.13331535 -0.14768526 -0.16499026 0.1542975
000010 49 83 4c be 28 2d 87 3d de 21 54 3d c5 66 1f 3e
       -0.19971956 0.0660041 0.05179011 0.15566547
000020 c8 b1 01 3e 51 15 b2 3d d1 a2 7b be 35 cb 9e 3c
       0.12665474 0.08695472 -0.24573828 0.019384006
000030 d4 de b4 3c 1f ae 8c bd a5 ec 0e bd 18 3d 2d 3d
       0.022078909 -0.068691485 -0.03489365 0.04229459
000040 f7 63 34 3e d1 70 a0 3d c9 3c 3c be a1 5b 96 be
       0.17616259 0.07834018 -0.18382563 -0.29366782
000050 ae 68 2e 3e 7a 4f e4 3d 80 c9 8d bd 6d 0c b5 bd
       0.1703212 0.111479715 -0.06923199 -0.08840261
000060 af c2 83 bd c1 a7 3f bd b7 49 33 be 66 ed 34 3e
       -0.06433617 -0.046790842 -0.17508589 0.17668685
000070 fc ec 25 be df b9 69 bd 6c 52 9b bd e1 e1 1b be
       -0.16203684 -0.057062026 -0.0758408 -0.15222885
000080 1a 8b d8 bd ee 32 1b 3e dc ec 27 3d 07 61 34 3e
       -0.105734065 0.15156147 0.04099737 0.17615138
000090 8d 27 76 bb a3 fb 11 bd 39 b2 2e bd d7 9c ce bc
       -0.0037560195 -0.03564037 -0.042650435 -0.025221271

action_model._continuous_distribution.mu.bias f4 [2]
000000 c4 99 fb bc 15 e2 d7 3b
       -0.03071297 0.0065882304
