results/VectorTests/car1/My Behavior/My Behavior-499982.pt (torch, 530875 bytes, 36 tensors)

network_body._body_endoder.seq_layers.0.weight f4 [128, 36]
0.33040807 0.103169836 0.11709154 0.13432144 -0.014205618 0.21998882 -0.12382593 0.07547218
-0.16701886 0.03750989 0.037180156 0.13589887 0.089652956 0.09007481 -0.14282173 0.0072864173
-0.1557245 0.13872644 -0.12106253 -0.088756725 0.07306476 -0.020165902 0.05918536 0.007988534
0.13574965 0.045240123 -0.053746223 0.34204286 0.030542191 -0.120962985 0.20532277 0.13744886
0.11361866 -0.021220956 -0.1198198 0.055562403 0.043247752 0.1677968 -0.10297231 0.00859655
0.093202196 0.017039707 0.0641386 0.10065791 -0.036202464 -0.12652202 0.21236867 -0.18554583
-0.19534633 -0.062338796 0.2943773 0.14764881 0.0966324 0.021050341 -0.0292371 -0.107475296
-0.0055378913 -0.041979548 -0.07416313 0.07714161 -0.010902625 -0.1535999 -0.1214684 0.025162645
0.28665066 -0.004364406 -0.064439 0.10899311 0.24426028 0.1404362 -0.07035741 0.08781445
-0.0009034827 -0.07944584 0.31688103 0.081332125 -0.0451583 0.055345923 -0.17268826 0.21721347
-0.24113278 -0.20800094 0.22356519 0.041790213 -0.079771526 -0.26146838 0.044047974 -0.025729973
-0.123939864 -0.19237131 -0.10357598 0.074823625 0.18303171 0.041321237 -0.09761773 0.09311307
-0.38527074 -0.07134951 -0.35225707 0.12698093 0.21197909 0.011916988 -0.16863647 0.12977867
-0.10550831 0.056039345 0.04831732 -0.1013539 -0.100006156 0.0275501 0.2921519 0.46208584
0.05653599 -0.25874802 -0.08927109 -0.13967457 -0.1524734 0.1302653 -0.13459867 0.1000924
0.1860346 0.104366735 0.16414101 0.170168 -0.25762913 -0.32984203 -0.029994506 -0.2915585
-0.07097238 0.21178597 0.059989944 -0.039302073 -0.023919765 0.10655331 0.11407008 0.14541629
-0.15144895 0.15745988 0.20371164 -0.019358635 0.18780467 0.022746684 -0.18244801 -0.09691227
-0.40080267 -0.06841341 0.110954724 -0.12491742 -0.04807635 -0.09021849 0.03521839 -0.068584725
0.16675265 0.22046489 -0.049479228 0.12945351 0.22201246 -0.04171763 0.3163376 0.14858039
0.1385277 0.019738138 0.4067296 0.020427935 0.0025053786 0.24375844 -0.30869237 0.06801684
0.29807106 0.4116167 0.25434387 -0.039339315 0.010575773 -0.09118205 -0.109477356 0.053658254
-0.21812014 -0.06495734 -0.26094276 0.09299673 0.3245268 0.14819914 -0.26490307 0.067211196
0.034611963 -0.2036494 0.009758748 -0.16779868 0.066895954 0.32147923 0.00889112 0.07933624
0.07174099 -0.020050606 -0.06589621 0.16579512 0.18969636 -0.16037728 -0.1153398 0.029502843
0.014525811 0.079480395 -0.1574481 0.031791 0.24862142 -0.14096509 -0.012015467 -0.07831847
-0.36052835 -0.24030696 -0.010796998 0.048397865 -0.16058345 0.033985015 -0.09569251 0.22719796
-0.2233361 0.057793517 -0.056537908 -0.02075121 0.16710523 0.30646533 0.20729224 0.24628554
0.19077045 0.0003180283 -0.031130413 -0.16928516 0.11874441 -0.0719309 -0.0685338 -0.07932289
0.5826184 0.22104082 -0.17958894 0.10162897 0.07734492 0.11423742 0.11275719 -0.14053407
-0.2870145 -0.035867784 -0.23843013 0.09572832 0.05709739 -0.23344791 0.0609145 0.03808292
0.37298232 -0.2537591 -0.24594982 0.0053567705 -0.2159387 -0.05514575 0.14320803 -0.12469312
00000000: 3f2b a93e b54a d33d b0cd ef3d 8f8b 093e
00000010: aebe 68bc c044 613e 7398 fdbd 2991 9a3d
00000020: fe06 2bbe f8a3 193d 384a 183d 1329 0b3e
00000030: f89b b73d 2479 b83d dc3f 12be e6c2 ee3b
00000040: 3e76 1fbe 4e0e 0e3e a2ef f7bd 16c6 b5bd
00000050: faa2 953d f632 a5bc 596c 723d 57e2 023c
00000060: f501 0b3e b54d 393d 0025 5cbd 3e20 af3e
00000070: 9e33 fa3c 71bb f7bd 2240 523e 65bf 0c3e
00000080: e6b0 e83d 92d7 adbc 1564 f5bd 6795 633d
00000090: 8e24 313d edd2 2b3e 25e3 d2bd 8bd8 0c3c
000000a0: cbe0 be3d db96 8b3c 195b 833d bc25 ce3d
000000b0: 0949 14bd fd8e 01be 2c77 593e baff 3dbe
000000c0: de08 48be f756 7fbd 9fb8 963e 4031 173e
000000d0: 35e7 c53d c471 ac3c a582 efbc 021c dcbd
000000e0: 3377 b5bb bff2 2bbd d7e2 97bd 6cfc 9d3d
000000f0: eca0 32bc 4b49 1dbe 6dc4 f8bd e421 ce3c
00000100: e0c3 923e 4b03 8fbb 98f8 83bd c837 df3d
00000110: 5e1f 7a3e 82ce 0f3e 8c17 90bd 10d8 b33d
00000120: b3d7 6cba 80b4 a2bd 3b3e a23e 7591 a63d
00000130: e9f7 38bd 68b2 623d 31d5 30be 356d 5e3e
00000140: 83eb 76be 33fe 54be 46ee 643e 372c 2b3d
00000150: 415f a3bd 2fdf 85be a66b 343d aac7 d2bc
00000160: 2fd4 fdbd fcfc 44be a51f d4bd 213d 993d
00000170: aa6c 3b3e 7540 293d ceeb c7bd 11b2 be3d
00000180: 3542 c5be b11f 92bd 0a5b b4be 4a07 023e
00000190: 0c11 593e 783f 433c 0aaf 2cbe b3e4 043e
000001a0: be14 d8bd 8389 653d 62e8 453d a292 cfbd
000001b0: 07d0 ccbd bfb0 e13c ef94 953e 8496 ec3e
000001c0: 4892 673d 9f7a 84be c3d3 b6bd da06 0fbe
000001d0: fd21 1cbe 4464 053e 3cd4 09be 3ffd cc3d
000001e0: db7f 3e3e 3abe d53d 9514 283e 8540 2e3e
000001f0: f7e7 83be 0ee1 a8be 0ab7 f5bc 2847 95be
00000200: f859 91bd 6cde 583e 04b8 753d 36fb 20bd
00000210: 62f3 c3bc 9f38 da3d 939d e93d 02e8 143e
00000220: 6f15 1bbe 2a3d 213e c999 503e 0096 9ebc
00000230: de4f 403e 4157 ba3c a7d3 3abe f179 c6bd
00000240: 0236 cdbe 541c 8cbd 3b3c e33d b4d4 ffbd
00000250: b5eb 44bd 79c4 b8bd 2941 103d 2676 8cbd
00000260: 35c1 2a3e 8cc1 613e bbaa 4abd 768f 043e
00000270: 3c57 633e 1be0 2abd 00f7 a13e 7525 183e
00000280: 35da 0d3e e0b1 a13c dd3e d03e 7c58 a73c
00000290: 4731 243b d09b 793e ed0c 9ebe 6a4c 8b3d
000002a0: c59c 983e 6dbf d23e 5c39 823e 4322 21bd
000002b0: 0246 2d3c a8bd babd aa35 e0bd c2c8 5b3d
000002c0: e35a 5fbe 5b08 85bd 4a9a 85be 1275 be3d
000002d0: 6028 a63e 84c1 173e 60a1 87be 06a6 893d
000002e0: 46c5 0d3d 7889 50be 28e3 1f3c 6bd3 2bbe
000002f0: bf00 893d ed98 a43e 0fac 113c 0a7b a23d
00000300: f1ec 923d 2b41 a4bc 98f4 86bd 32c6 293e
00000310: c33f 423e f139 24be 4637 ecbd f2af f13c
00000320: abfd 6d3c 9ec6 a23d 133a 21be 4837 023d
00000330: 9d96 7e3e 2759 10be 85dc 44bc 6f65 a0bd
00000340: 2c97 b8be 0713 76be e4e5 30bc d73c 463d
00000350: fd6f 24be df33 0b3d 6ffa c3bd 95a6 683e
00000360: 38b2 64be e5b8 6c3d 4b94 67bd 71fe a9bc
00000370: a21d 2b3e 06e9 9c3e 6b44 543e 4732 7c3e
00000380: 5459 433e 09bd a639 3505 ffbc 1759 2dbe
00000390: 4530 f33d 8250 93bd 735b 8cbd 0a74 a2bd
000003a0: 7b26 153f 8658 623e 2ae6 37be d922 d03d
000003b0: 0367 9e3d 4ff5 e93d 3eed e63d 2ae8 0fbe
000003c0: 91f3 92be 19ea 12bd 0727 74be 360d c43d
000003d0: f4de 693d f80c 6fbe 7c81 793d d6fc 1b3d
000003e0: 8af7 be3e b6ec 81be 45da 7bbe d987 af3b
000003f0: 091f 5dbe 83e0 61bd 20a5 123e 1b5f ffbd

network_body._body_endoder.seq_layers.0.bias f4 [128]
0.012604779 0.0032923692 -0.0024729124 0.0054605603 -0.012368189 0.025888007 0.019757934 -0.0069345813
0.022116326 -0.0061886474 -0.00649559 -0.0013298122 0.013287732 0.00034588276 0.016624678 0.019950563
-0.0031995066 0.001924639 -0.0017716849 0.010887206 0.013059879 -0.008206877 0.006888521 0.01751076
-0.006257806 0.0005583652 0.008846095 0.018924048 0.027270965 -0.010690624 0.0027112302 0.0026016047
-0.0022491778 -0.00799514 0.0067637907 0.0014828476 0.011247178 0.008288316 0.0033229121 0.017681422
0.032603484 0.008604791 0.009717218 0.012789938 -0.0013693819 -0.006540384 0.0010162288 -0.0031264038
0.002102858 0.020458944 -0.007129716 0.027994215 0.009610288 -0.0014324123 0.015092877 -0.0028766354
0.018738845 -0.0014977208 0.0096947085 0.0029724308 0.013752282 -0.008097853 0.0072534923 0.04568784
-0.011172458 0.017961025 0.006577973 0.009402772 -0.007836012 0.023161666 -0.0006340415 0.003764155
0.024284998 -0.010379855 0.017860256 0.024712982 -0.0056219087 -0.010944818 0.005696471 0.013000478
0.012188774 0.020401753 0.024572829 -0.0071328348 0.0057031014 0.0028860546 -0.009030625 0.009422387
-0.0122506395 0.008627117 -0.018441124 -0.01123771 0.007181945 0.011917677 0.0039096903 -0.003728023
-0.0038568245 -0.0063988767 0.01158836 -0.005812907 0.014129339 0.006742836 -2.2695793e-05 0.017952483
0.0045591095 0.009556721 0.010185414 -0.002831694 0.034023307 -0.0053965724 0.0025544846 -0.0016089806
0.000988476 0.0026954217 0.010799615 -0.005824049 0.003529031 0.014980027 -0.010260752 0.003535895
0.010204576 -0.004375061 -0.005294662 -0.0049087275 0.0048466935 -0.010937374 0.009342405 0.009205723
00000000: 4684 4e3c cac4 573b 9610 22bb 80ee b23b
00000010: f2a3 4abc 1613 d43c 64db a13c 7c3b e3bb
00000020: 4c2d b53c 23ca cabb f5d8 d4bb 184d aeba
00000030: cab4 593c 9957 b539 7a30 883c 5d6f a33c
00000040: d0ae 51bb 2b44 fc3a e137 e8ba 4060 323c
00000050: 1af9 553c 2376 06bc 1ab9 e13b ba72 8f3c
00000060: 480e cdbb 415f 123a 36ef 103c 9b06 9b3c
00000070: 5c67 df3c ba27 2fbc e5ae 313b af7f 2a3b
00000080: f166 13bb 0cfe 02bc caa2 dd3b 1c5c c23a
00000090: 1546 383c b8cb 073c 37c5 593b a1d8 903c
000000a0: 3b8b 053d 1cfb 0c3c f734 1f3c e38c 513c
000000b0: d57c b3ba b850 d6bb fb32 853a 5ae4 4cbb
000000c0: 1ad0 093b 8499 a73c 65a0 e9bb 2054 e53c
000000d0: 7874 1d3c c8bf bbba 1d48 773c ef85 3cbb
000000e0: 3582 993c 2c4f c4ba 8ed6 1e3c 1dcd 423b
000000f0: 4051 613c dbac 04bc b4ae ed3b 2c23 3b3d
00000100: af0c 37bc 0023 933c 098c d73b 160e 1a3c
00000110: 9e62 00bc 89bd bd3c ce35 26ba 0bb0 763b
00000120: 55f1 c63c 4410 2abc ac4f 923c e172 ca3c
00000130: fd37 b8bb e551 33bc 76a9 ba3b f5ff 543c
00000140: 6cb3 473c 9421 a73c f54c c93c 8eba e9bb
00000150: 15e1 ba3b f623 3d3b 30f5 13bc 5b60 1a3c
00000160: e8b6 48bc c058 0d3c d711 97bc 5f1e 38bc
00000170: 8556 eb3b 5c42 433c dc1c 803b d951 74bb
00000180: c7c2 7cbb abad d1bb 1bdd 3d3c 337a bebb
00000190: be7e 673c 02f3 dc3b d862 beb7 1611 933c
000001a0: 9564 953b cb93 1c3c b9e0 263c f193 39bb
000001b0: 065c 0b3d bbd5 b0bb 2469 273b 6ee4 d2ba
000001c0: c08f 813a aca5 303b def0 303c aad7 bebb
000001d0: 5147 673b ca6e 753c b71c 28bc 79ba 673b
000001e0: 1831 273c ac5c 8fbb d87e adbb 64d9 a0bb
000001f0: 03d1 9e3b ac32 33bc e310 193c 9ad3 163c

network_body._body_endoder.seq_layers.2.weight f4 [128, 128]
0.05490358 -0.028220546 -0.011877526 -0.001015184 -0.12334235 -0.1036485 -0.07534647 0.2662446
-0.11826847 0.05034636 0.000655688 -0.0047350004 -0.041867226 0.08961638 -0.08845488 -0.097716965
0.033878084 0.23796786 -0.040850155 -0.1450549 -0.079413354 -0.015629413 0.08765257 0.035734825
-0.009628856 0.10568869 0.108682685 -0.063768804 0.010768781 -0.011072746 -0.010943123 -0.025407149
-0.11454684 -0.047104523 0.06529899 0.036139797 -0.024540689 -0.18205923 -0.101869 0.08588427
0.13261676 -0.12281042 0.0052245664 0.0046700323 0.025598362 -0.05056379 -0.24924447 0.07617143
0.047136497 -0.058972362 0.01580294 0.027793666 0.12841652 -0.1805456 -0.03352737 -0.039320838
0.110166304 0.044004887 0.07794348 0.06729645 -0.041359384 -0.060399473 -0.11274163 0.03422089
-0.023171749 -0.01865998 0.036911227 0.055372424 -0.13191028 0.18933085 -0.06202613 -0.039496742
0.10993261 -0.07502557 -0.021870224 -0.012321748 0.0051629245 -0.04940293 -0.023547636 -0.021871405
-0.089702286 0.024979413 -0.09861424 0.08677936 -0.123816304 0.0036487149 -0.13048995 -0.042014014
-0.04133886 -0.07314948 -0.023940485 -0.1644944 -0.107229955 0.036253016 -0.07401789 -0.014634376
0.08830923 -0.11054116 -0.13776267 0.09926932 -0.044141896 0.07981327 -0.08799392 0.091669865
0.018436272 0.13069054 -0.0835888 0.023406876 0.020701502 -0.012111577 0.10555684 0.017337369
-0.008992671 -0.09353105 0.07012277 -0.083817184 0.09307122 0.06806566 0.03905793 -0.076022476
-0.021076122 0.06869024 -0.05949383 0.16664174 -0.074802764 -0.058041736 -0.1154924 -0.056038458
0.035610672 0.038416635 0.14555073 0.10641948 -0.1344397 -0.10551852 0.10256799 0.06536207
-0.08521913 0.023542516 -0.056866806 -0.15923488 0.05417418 0.055207126 -0.121943176 0.06407257
-0.012209707 -0.096845046 0.0083728125 0.010841926 -0.09048374 0.002782937 0.07089694 0.03745273
-0.068655364 0.030027762 0.13492374 -0.047263823 -0.00473453 -0.11996208 0.05253328 -0.03205468
-0.0002166988 0.14281075 0.07343723 0.009734213 -0.01601891 0.016884424 -0.1639365 0.06391512
0.18234126 -0.044548344 0.06617983 0.029380837 -0.094226584 -0.13689873 -0.040166512 -0.020020356
0.056327973 -0.10414873 -0.07513109 0.068640426 0.01526855 0.01523786 -0.022173481 -0.0017369803
-0.037793316 -0.06663138 0.072890714 0.04685835 -0.17552578 -0.022088384 -0.1029594 0.06946134
-0.09104062 -0.17086796 -0.15730171 -0.07631459 -0.07670675 -0.08539451 -0.041224327 -0.039389696
0.10274722 0.11978481 0.23376167 0.017404374 0.035133194 0.08788207 -0.04428608 -0.039373733
-0.050855372 -0.120770715 0.011602757 0.13947688 -0.14366679 0.025392797 -0.17062049 -0.01449117
-0.10843048 -0.055260457 -0.062082574 0.23807004 0.057672996 0.004253032 0.000643876 0.029133072
-0.0043130815 -0.029702555 0.0849184 -0.011762769 -0.09651097 0.11284501 -0.15680602 0.025714813
0.07919114 0.008302729 0.13666697 -0.028054573 0.001415844 0.17566718 0.013882163 -0.12808159
-0.07355529 -0.021179492 -0.09423029 0.11918993 0.099005364 0.05452126 0.1694507 0.06646008
-0.06423586 0.05555057 0.11028972 -0.03511949 -0.035613406 0.10692294 0.0139688235 -0.18639459
00000000: 94e2 603d c62e e7bc f499 42bc ec0f 85ba
00000010: ea9a fcbd aa45 d4bd 404f 9abd 3651 883e
00000020: bd36 f2bd fc37 4e3d 7ae2 2b3a 1028 9bbb
00000030: f87c 2bbd cb88 b73d d527 b5bd d51f c8bd
00000040: bfc3 0a3d d9ad 733e 7e52 27bd 4689 14be
00000050: 78a3 a2bd 4109 80bc 3183 b33d ae5e 123d
00000060: 59c2 1dbc 5073 d83d 0795 de3d 3899 82bd
00000070: 8b6f 303c 766a 35bc c94a 33bc a722 d0bc
00000080: 8997 eabd acf0 40bd 7abb 853d 5307 143d
00000090: 8e09 c9bc bc6d 3abe b2a0 d0bd 18e4 af3d
000000a0: b0cc 073e 0884 fbbd d732 ab3b 1207 993b
000000b0: a8b3 d13c fa1b 4fbd f139 7fbe c4ff 9b3d
000000c0: 3312 413d 018d 71bd 2b75 813c 8baf e33c
000000d0: 9f7f 033e f2e0 38be ff53 09bd e30e 21bd
000000e0: df9e e13d 783e 343d d5a0 9f3d b9d2 893d
000000f0: 7568 29bd 7065 77bd 15e5 e6bd 342b 0c3d
00000100: aed2 bdbc d0dc 98bc 3a30 173d 32ce 623d
00000110: 7d13 07be f2df 413e 1c0f 7ebd 56c7 21bd
00000120: 5924 e13d 02a7 99bd 2f29 b3bc 28e1 49bc
00000130: c02d a93b ba5a 4abd f9e6 c0bc a92b b3bc
00000140: d5b5 b7bd a0a1 cc3c 43f6 c9bd 61b9 b13d
00000150: 6793 fdbd 471f 6f3b 289f 05be e316 2cbd
00000160: f052 29bd 65cf 95bd d61e c4bc 3871 28be
00000170: 619b dbbd 0b7e 143d b196 97bd 06c5 6fbc
00000180: 78db b43d 6763 e2bd a811 0dbe b74d cb3d
00000190: 22ce 34bd 2475 a33d 2836 b4bd 69bd bb3d
000001a0: aa07 973c bed3 053e 9b30 abbd c7bf bf3c
000001b0: 3296 a93c a36f 46bc 2f2e d83d 1907 8e3c
000001c0: ff55 13bc 358d bfbd 879c 8f3d 58a8 abbd
000001d0: 209c be3d 0266 8b3d 35fb 1f3d acb1 9bbd
000001e0: d5a7 acbc 78ad 8c3d cdaf 73bd 22a4 2a3e
000001f0: 3132 99bd 2cbd 6dbd 4887 ecbd 9588 65bd
00000200: 7fdc 113d c35a 1d3d 400b 153e 75f2 d93d
00000210: 90aa 09be 181a d8bd 2b0f d23d 8ddc 853d
00000220: 5e87 aebd 3cdc c03c 2bed 68bd 780e 23be
00000230: bfe5 5d3d de20 623d 58bd f9bd 7b38 833d
00000240: 390b 48bc b256 c6bd 1f2e 093c 55a2 313c
00000250: 8a4f b9bd ef61 363b 6a32 913d 0968 193d
00000260: 2f9b 8cbd c8fc f53c 7329 0a3e b697 41bd
00000270: 1e24 9bbb aeae f5bd 232d 573d c54b 03bd
00000280: a439 63b9 fb3c 123e 4266 963d 407c 1f3c
00000290: 173a 83bc 3451 8a3c f8de 27be eee5 823d
000002a0: abb7 3a3e 5378 36bd 4a89 873d 15b0 f03c
000002b0: def9 c0bd 2e2f 0cbe a485 24bd bb01 a4bc
000002c0: 29b8 663d ee4b d5bd 54de 99bd 5a93 8c3d
000002d0: f128 7a3c 38a8 793c 29a5 b5bc 63ab e3ba
000002e0: 2acd 1abd 0876 88bd ba47 953d 8bee 3f3d
000002f0: 08bd 33be b3f2 b4bc 61dc d2bd bf41 8e3d
00000300: 8173 babd 03f8 2ebe b313 21be d34a 9cbd
00000310: 6e18 9dbd 51e3 aebd d7da 28bd 1757 21bd
00000320: 226d d23d bd51 f53d 385f 6f3e 9e93 8e3c
00000330: d3e7 0f3d 84fb b33d 5265 35bd 5a46 21bd
00000340: b94d 50bd a356 f7bd 7d19 3e3c 07d3 0e3e
00000350: 631d 13be 8e04 d03c 23b7 2ebe 5f6c 6dbc
00000360: cd10 debd ca58 62bd 4c4a 7ebd a2c8 733e
00000370: 853a 6c3d 055d 8b3b c9c9 283a 7ba8 ee3c
00000380: c054 8dbb c652 f3bc b3e9 ad3d a1b8 40bc
00000390: 8ba7 c5bd 491b e73d c291 20be dfa7 d23c
000003a0: f72e a23d 2b08 083c 6df2 0b3e b4d2 e5bc
000003b0: d793 b93a 19e2 333e 0372 633c d227 03be
000003c0: 28a4 96bd 9d80 adbc cffb c0bd da19 f43d
000003d0: 53c3 ca3d af51 5f3d 7c84 2d3e 391c 883d
000003e0: 178e 83bd ff88 633d 94df e13d 74d9 0fbd
000003f0: 5ddf 11bd 6afa da3d 7edd 643c 39de 3ebe

network_body._body_endoder.seq_layers.2.bias f4 [128]
-0.004478442 -0.0009501052 0.006350583 0.013367688 0.015434671 0.014111155 -0.010525285 -0.0006637923
0.012841803 0.011182195 -0.0048064035 0.003201786 -0.004649717 -0.010878893 0.013399988 0.004764112
0.012234987 0.0045320042 0.010822652 0.009002866 -0.002739944 -0.005440735 0.009601955 -0.002080034
-0.006234841 -0.007138377 0.0056172353 0.011941982 0.008038418 -0.01419483 -0.011402111 -0.014567738
0.0073767686 -0.000808277 0.012970197 0.01741188 -0.0077124196 0.016117398 0.0018848261 0.0044401605
-8.13126e-05 -0.00998676 -0.0056908443 0.00858938 -0.0018543429 0.0060017095 0.009950337 0.002798406
0.009361099 0.009528952 0.012331148 0.00802877 0.009072362 0.0058885943 7.529109e-05 0.0017538862
0.0055283667 0.0001396285 -0.004587624 0.00069020456 -0.002193584 -0.00652466 0.0056530647 -0.00046968934
-0.008498744 -0.0012242779 -0.003884033 0.011529218 0.0071122004 0.007902704 0.010790225 -0.009647131
-0.0009577368 0.011576831 0.013753251 0.020883065 -0.013761072 -0.0049390504 0.016100464 -0.011050454
-0.001782487 -0.011633253 -0.007724897 0.016881274 0.009097894 -0.0015063954 0.006255267 -0.013952585
0.007067721 0.009914959 0.019557409 0.0065430957 -0.0109648 0.013150489 0.00014607728 0.01186772
-0.00023784603 0.0009622148 0.011017253 -0.004922494 -0.0002811162 0.013941334 0.011596591 -0.009908747
0.013913735 0.0055099954 0.0050209886 -0.010021505 -0.002725081 0.015204261 0.0020695596 0.006678284
0.010423997 0.0028752862 0.01194099 0.006943713 -0.0026154523 0.01782528 -0.0045913947 -0.008913783
0.011728512 -0.00094887876 0.0035410037 -0.010767354 0.008655679 0.004312441 0.0007428553 0.010156612
00000000: e5bf 92bb 7b10 79ba 8d18 d03b 2604 5b3c
00000010: b4e1 7c3c 7932 673c 3f72 2cbc 5902 2eba
00000020: 6d66 523c 8635 373c 097f 9dbb 0ed5 513b
00000030: a75c 98bb 623d 32bc a08b 5b3c 451c 9c3b
00000040: 4175 483c 3581 943b 7e51 313c c280 133c
00000050: a290 33bb 3148 b2bb 8551 1d3c 2e51 08bb
00000060: a34d ccbb 0ce9 e9bb c910 b83b 4ea8 433c
00000070: 92b3 033c 6f91 68bc ebcf 3abc 86ad 6ebc
00000080: d2b8 f13b 8de2 53ba f380 543c 5ca3 8e3c
00000090: 77b8 fcbb a208 843c 450c f73a c47e 913b
000000a0: 5f86 aab8 829f 23bc 437a babb 79ba 0c3c
000000b0: 6c0d f3ba fda9 c43b bd06 233c 7665 373b
000000c0: 4c5f 193c 521f 1c3c 9508 4a3c 1a8b 033c
000000d0: 3fa4 143c 1cf5 c03b 99e5 9d38 a8e2 e53a
000000e0: 4d27 b53b 3d69 1239 c853 96bb d8ee 343a
000000f0: 3cc2 0fbb d1cc d5bb 583d b93b a340 f6b9
00000100: 513e 0bbc f377 a0ba 438b 7ebb 0ce5 3c3c
00000110: 760d e93b 587a 013c 7cc9 303c 000f 1ebc
00000120: a110 7bba c0ac 3d3c 5155 613c f612 ab3c
00000130: 1f76 61bc c2d7 a1bb 1fe5 833c f70c 35bc
00000140: 57a2 e9ba 6699 3ebc 2221 fdbb 994a 8a3c
00000150: 550f 153c 3e72 c5ba fcf8 cc3b 6299 64bc
00000160: 5798 e73b 5a72 223c dc36 a03c 7767 d63b
00000170: b4a5 33bc 2675 573c 522c 1939 d370 423c
00000180: 4f66 79b9 243d 7c3a b581 343c df4c a1bb
00000190: c762 93b9 316a 643c a1ff 3d3c 4c58 22bc
000001a0: 6ff6 633c 318d b43b 1b87 a43b 3d31 24bc
000001b0: 4697 32bb 4b1b 793c 73a1 073b 82d5 da3b
000001c0: 6ac9 2a3c 4c6f 3c3b 24a4 433c 1688 e33b
000001d0: 0268 2bbb 5206 923c 6973 96bb 1e0b 12bc
000001e0: f228 403c 2dbe 78ba 2f10 683b 8e69 30bc
000001f0: 8dd0 0d3c 614f 8d3b 2dbc 423a eb67 263c

action_model._continuous_distribution.log_sigma f4 [1, 2]
0.0065053506 0.022250248
00000000: d62a d53b 2746 b63c

action_model._continuous_distribution.mu.weight f4 [2, 128]
0.019503163 0.022546098 -0.023525517 0.007686575 -0.041787196 0.015814114 -0.0005886891 -0.017683867
0.00660779 0.006382382 -0.01965191 -0.03827462 0.00081665086 -0.017455205 -0.0008399283 -0.045341007
0.033376414 -0.031699523 -0.03706966 -0.052738365 0.035662595 0.016474659 0.023543863 -0.027666595
0.005064033 0.02037934 -0.033137202 -0.034360003 0.015272201 0.011409562 -0.019484969 -0.004968242
-0.02940945 -0.045614325 0.03333822 -0.04070149 -0.017570922 0.0066678016 0.008295519 0.02903295
-0.0056300843 -0.018338874 0.024796708 -0.0028542317 -0.017130611 -0.026614249 0.02282509 -0.06586252
0.013512239 0.03348946 0.014529353 -0.053488225 -0.05315518 -0.014428576 0.04541245 -0.025502458
-0.020588204 -0.03834826 0.0049701077 0.0036413143 -0.024140477 -0.014761514 0.004652136 -0.022658728
0.0009934934 -0.016601397 0.015972657 -0.012697966 0.032628767 0.03670191 -0.036771234 0.018926214
-0.042872056 0.0110255275 -0.021153986 -0.060774967 -0.0015535342 -0.03675131 0.022405664 -0.031441424
-0.022743749 -0.013437601 -0.018231155 0.017862435 0.0015216878 0.018486507 0.03306682 -0.019472085
-0.01880534 -0.0012129587 0.0070157237 -0.0342683 -0.01882201 -0.015859274 -0.017303627 0.010601603
-0.024577148 0.04633922 -0.04313248 -0.0082183415 0.02947218 0.009556441 0.0054342956 0.015163895
0.027274657 0.042906366 -0.057562824 0.0046804165 0.023415951 -0.017672228 0.04563933 0.021248931
0.0015076891 0.030717315 -0.0040569752 0.047041174 -0.054560587 0.030399617 -0.009512432 0.008962351
-0.029047245 0.031629514 -0.009700725 0.0032421881 -0.058474917 -0.036717243 -0.019736454 0.0004468932
-0.003529232 0.0093179345 0.012704096 0.020654816 0.028875582 0.037383657 -0.013233022 -0.03715178
0.03468753 0.018330975 -0.0015703532 -0.0063166097 -0.008970337 -0.024021141 0.03414225 -0.012730244
0.015454288 0.0014221978 0.0039531603 0.022545552 -0.010241954 -0.013585359 0.025567723 -0.014988962
-0.036026973 -0.010589205 0.0017045346 0.018857524 -0.00020473487 -0.037204303 -0.02319455 -0.022877699
-0.0045103636 -0.02070173 0.04389328 0.055212438 -0.040629234 0.029420974 -0.0010954018 0.008172756
-0.011695983 -0.033647187 -0.013726804 0.01273117 -0.0072625764 -0.011198324 0.016258957 -0.04079012
0.033469457 0.011409725 0.0280001 -0.0028839468 -0.031190958 0.024447456 -0.004427089 0.003045553
-0.00092370453 -0.061848547 -0.028895382 0.011928084 -0.0001478645 -0.004166605 0.011059091 0.0069260173
-0.0141740255 -0.011589456 -0.047876753 0.055191673 0.019094449 0.0034112593 0.039837822 -0.044353556
0.0011339353 0.0154817095 -0.010503597 -0.0011991797 -0.0009711357 -0.006394072 0.062779725 -0.023255466
-0.02193127 -0.036422335 -0.024742823 0.030170117 0.016127981 0.0036679418 0.005317652 -0.043075368
0.040462844 0.01731895 0.0068136556 -0.019943168 -0.024628451 -0.01758232 0.010892987 0.010970855
0.009592819 -0.0022656962 -0.008203488 -0.028593542 0.0059799817 0.043386016 0.021641666 -0.036586173
0.008687324 0.009895367 0.009022328 -0.0047454075 0.0025034861 0.017473308 0.0038218792 0.008819887
0.003763474 -0.009565548 0.007838026 0.0055085025 -0.027204279 0.04269728 -0.0044961777 0.0044308426
0.010315244 -0.0026317164 -0.01356874 -0.03635539 0.0003769956 -0.025479557 -0.015844503 0.03373983
00000000: 19c5 9f3c 98b2 b83c 96b8 c0bc aadf fb3b
00000010: 0d29 2bbd 9a8c 813c 4252 1aba c2dd 90bc
00000020: 2986 d83b 4d23 d13b 0bfd a0bc d9c5 1cbd
00000030: 8314 563a 38fe 8ebc a22e 5cba 7eb7 39bd
00000040: b5b5 083d 5cd7 01bd 5bd6 17bd 2f04 58bd
00000050: f112 123d ddf5 863c 0fdf c03c 0ea5 e2bc
00000060: 30f0 a53b 93f2 a63c e0ba 07bd 13bd 0cbd
00000070: 4138 7a3c 2cef 3a3c f19e 9fbc a2cc a2bb
00000080: 16ec f0bc 16d6 3abd a88d 083d 9bb6 26bd
00000090: e5f0 8fbc 937d da3b eee9 073c 82d6 ed3c
000000a0: 927c b8bb 683b 96bc 7722 cb3c 100e 3bbb
000000b0: 7f55 8cbc 2006 dabc affb ba3c eee2 86bd
000000c0: 7062 5d3c 3e2c 093d 860c 6e3c 7816 5bbd
000000d0: 3fb9 59bd d665 6cbc 6802 3a3d 88ea d0bc
000000e0: 98a8 a8bc 1113 1dbd 49dc a23b 1ea3 6e3b
000000f0: 40c2 c5bc 47da 71bc f270 983b cc9e b9bc
00000100: 1b38 823a a7ff 87bc 17d9 823c 210b 50bc
00000110: bea5 053d be54 163d 6f9d 16bd 260b 9b3c
00000120: 9c9a 2fbd 6aa4 343c 204b adbc 2cef 78bd
00000130: f59f cbba 8b88 16bd 158c b73c b9c8 00bd
00000140: 1951 babc 6229 5cbc 8159 95bc 3e54 923c
00000150: 5f73 c73a 0471 973c 1371 073d ec83 9fbc
00000160: a80d 9abc 24fc 9eba 28e4 e53b eb5c 0cbd
00000170: 9e30 9abc 4feb 81bc 56c0 8dbc 59b2 2d3c
00000180: 0456 c9bc 32ce 3d3d afab 30bd 39a6 06bc
00000190: a46f f13c 9e92 1c3c 2d12 b23b fc71 783c
000001a0: 1a6f df3c 96be 2f3d ffc6 6bbd 2e5e 993b
000001b0: cfd2 bf3c 59c5 90bc 4ef0 3a3d 3d12 ae3c
000001c0: a79d c53a e1a2 fb3c 60f0 84bb 3fae 403d
000001d0: ec7a 5fbd 9e08 f93c 08da 1bbc d3d6 123c
000001e0: 7df4 edbc f38d 013d caef 1ebc e47a 543b
000001f0: 6583 6fbd d264 16bd 58ae a1bc fd4c ea39
00000200: b04a 67bb 40aa 183c d724 503c 4a34 a93c
00000210: 7c8c ec3c 9b1f 193d 51cf 58bc 772c 18bd
00000220: 8314 0e3d d72a 963c 4fd4 cdba 90fb cebb
00000230: 52f8 12bc fcc7 c4bc bed8 0b3d 8392 50bc
00000240: fb33 7d3c 0a69 ba3a 8389 813b 73b1 b83c
00000250: decd 27bc 2095 5ebc 6773 d13c 4394 75bc
00000260: 0591 13bd 587e 2dbc b16a df3a 187b 9a3c
00000270: 19ae 56b9 8a63 18bd 7f02 bebc 036a bbbc
00000280: accb 93bb ad96 a9bc 71c9 333d 7026 623d
00000290: d76a 26bd 4104 f13c 9693 8fba 06e7 053c
000002a0: 82a0 3fbc a2d1 09bd 64e6 60bc 6696 503c
000002b0: e8fa edbb 2d79 37bc 8131 853c 8a13 27bd
000002c0: 4517 093d dbef 3a3c 7760 e53c 9900 3dbb
000002d0: 2e84 ffbc 0846 c83c 1d11 91bb e797 473b
000002e0: c324 72ba e754 7dbd 02b6 ecbc 036e 433c
000002f0: 130c 1bb9 0488 88bb 3131 353c a5f3 e23b
00000300: 2c3a 68bc b4e1 3dbc 6a1a 44bd aa10 623d
00000310: f66b 9c3c 6f8f 5f3b fc2c 233d 13ac 35bd
00000320: 8ea0 943a ffa6 7d3c 4717 2cbc cb2d 9dba
00000330: d093 7eba 5d85 d1bb a892 803d 3f82 bebc
00000340: 35a9 b3bc 962f 15bd 76b1 cabc 5227 f73c
00000350: d41e 843c da61 703b b33f ae3b cc6f 30bd
00000360: 5ebc 253d 78e0 8d3c 1645 df3b db5f a3bc
00000370: 9bc1 c9bc cc08 90bc 8078 323c 1abf 333c
00000380: 332b 1d3c 137c 14bb ec67 06bc 013d eabc
00000390: b9f3 c33b 89b5 313d dd49 b13c 62db 15bd
000003a0: 4755 0e3c 2d20 223c 63d2 133c 5d7f 9bbb
000003b0: 8711 243b 2f24 8f3c 7e78 7a3b 4a81 103c
000003c0: 9ea4 763b d1b8 1cbc 106b 003c ab80 b43b
000003d0: 82db debc 58e3 2e3d ac54 93bb 9a30 913b
000003e0: 4501 293c e078 2cbb 6c4f 5ebc 64e9 14bd
000003f0: 7ea7 c539 81ba d0bc 55cc 81bc c732 0a3d

action_model._continuous_distribution.mu.bias f4 [2]
0.0009906038 0.011359239
00000000: 26d7 813a 1a1c 3a3c

exp_avg f4 [128, 36]
-6.759192e-05 -0.000120578945 4.6020214e-05 -4.0987838e-05 -6.794273e-05 1.0641368e-08 -7.4187556e-05 -0.00011776828
-8.0447375e-05 -2.5324227e-05 -3.6904188e-05 -7.7584395e-05 -2.6383934e-05 -6.843886e-07 -0.000119259275 -0.00012917323
-2.6200052e-05 -6.9397436e-05 -5.589383e-05 -7.80925e-05 -3.5212044e-05 -2.1273382e-07 -0.00011452762 -0.00014331087
-7.5133325e-06 4.7129822e-07 -0.00014798052 -0.00014419256 7.9017044e-22 2.7692309e-08 -0.00014642479 -0.00014281775
-1.6308476e-13 2.5220338e-06 -0.0001508164 -0.00014253415 1.5976371e-05 2.6555637e-05 -9.361306e-06 1.0058639e-05
1.5523656e-05 -1.3725793e-09 1.7633747e-05 2.842207e-05 1.7162089e-05 7.780389e-06 8.478965e-06 1.9757883e-05
6.368571e-06 1.02921405e-07 2.7354748e-05 3.0851243e-05 2.9327807e-06 1.6335507e-05 1.6039408e-05 1.8473313e-05
6.9024095e-06 5.1460283e-08 2.7850607e-05 3.3322296e-05 -5.250732e-07 3.0190773e-08 3.6580972e-05 3.380022e-05
-6.955438e-23 -3.7530192e-09 3.440083e-05 3.3320568e-05 -3.2139523e-13 -5.708368e-07 3.5145902e-05 3.323346e-05
-1.9676487e-05 -5.6805166e-06 1.6256214e-05 3.4449906e-06 -2.0915848e-05 1.2398688e-09 1.1821866e-05 -2.6257899e-06
-2.1876916e-05 1.7829053e-06 1.0631714e-05 -3.2669673e-06 -1.0642323e-05 -3.069045e-07 2.7251106e-08 -5.242669e-06
-1.1587173e-06 -6.1717346e-06 -4.3092664e-06 -5.995629e-06 -1.1995457e-05 -1.2451821e-07 -7.088725e-07 -9.196529e-06
3.882616e-07 8.175042e-07 -1.3372989e-05 -1.0372258e-05 1.8634562e-22 4.0065326e-10 -1.2148451e-05 -9.531762e-06
-2.0845573e-13 1.6636354e-06 -1.19855085e-05 -9.999709e-06 -6.766433e-05 -0.00016220054 4.1769283e-05 -7.1423994e-05
-5.9486236e-05 1.1191673e-08 -0.00012848352 -0.00016305261 -7.762884e-05 -4.3301825e-05 -6.8351816e-05 -0.00011235383
-3.729603e-05 -1.476022e-07 -0.00015284697 -0.00017132932 -2.716402e-06 -5.7548175e-05 -0.0001358588 -0.00013251936
-5.313045e-05 -6.157076e-08 -0.00014114149 -0.00018516261 2.1678263e-06 -1.3545247e-06 -0.00020031963 -0.00018840258
-1.7460028e-22 3.9957328e-08 -0.00019332772 -0.00018871803 1.4401888e-12 -8.326323e-07 -0.00019277193 -0.00018622517
1.5172025e-05 1.6366681e-05 -8.687725e-06 8.958434e-06 1.3329931e-05 -2.2921085e-09 9.472461e-06 1.7350261e-05
1.7398555e-05 -1.6263749e-07 5.7561647e-06 1.5201339e-05 7.667745e-06 4.2929255e-08 1.5776654e-05 1.9463387e-05
2.826506e-06 8.764765e-06 1.2559771e-05 1.42007575e-05 9.85418e-06 1.575822e-08 1.4303864e-05 2.2726674e-05
4.6647844e-07 2.3997373e-07 2.4187842e-05 2.2892795e-05 -1.3961229e-23 -8.944514e-09 2.3637725e-05 2.2930344e-05
5.2196894e-14 1.0727612e-07 2.3913275e-05 2.2516482e-05 4.335315e-05 5.7047444e-05 -5.2120854e-06 4.2666063e-05
3.966988e-05 -4.2321366e-10 5.5431123e-05 8.033034e-05 4.6580306e-05 3.541976e-05 1.4126839e-05 5.5953326e-05
3.8094844e-05 -4.8919457e-08 5.7014386e-05 8.374721e-05 -2.2075828e-05 2.4654617e-05 9.51621e-05 7.62473e-05
4.404222e-05 -3.417575e-08 5.5221033e-05 9.284265e-05 -1.0602548e-05 -2.9288512e-07 0.0001079123 9.665059e-05
4.0919366e-22 -3.6485686e-09 9.972942e-05 9.562321e-05 -1.8941548e-12 1.8939734e-06 9.226439e-05 9.364368e-05
5.787533e-05 0.0001629035 -2.9733868e-05 7.030457e-05 5.1269468e-05 -8.555894e-09 0.00013965474 0.00017277946
6.525317e-05 7.042938e-05 5.651544e-05 0.00010597058 3.0501895e-05 8.37883e-08 0.0001618265 0.00018077045
-1.0695656e-05 7.295693e-05 0.00013815073 0.00012331553 4.0000148e-05 3.5261895e-08 0.00015800721 0.00019102936
-8.720182e-06 5.204266e-07 0.00021105686 0.00019251429 3.2260327e-22 -1.8060875e-08 0.000197424 0.00019172816
-3.8660594e-12 5.670074e-07 0.0001950245 0.00018946447 1.1267259e-05 -1.5916301e-05 -1.8830791e-05 -1.1408858e-05
00000000: 23c0 8db8 54df fcb8 d405 4138 5bea 2bb8
00000010: 7a7c 8eb8 3bd1 3632 2495 9bb8 5dfa f6b8
00000020: dbb5 a8b8 5d6f d4b7 92c9 1ab8 ceb4 a2b8
00000030: 1153 ddb7 d4b6 37b5 d61a fab8 ad72 07b9
00000040: 2fc8 dbb7 7789 91b8 8b6f 6ab8 97c5 a3b8
00000050: a5b0 13b8 d46b 64b4 8c2e f0b8 b845 16b9
00000060: 091b fcb6 bc06 fd34 382b 1bb9 6532 17b9
00000070: 7ad0 6e1c 08e0 ed32 9b89 19b9 59c1 15b9
00000080: fb9d 37aa 3640 2936 7824 1eb9 3875 15b9
00000090: ff04 8637 ccc3 de37 810e 1db7 87c1 2837
000000a0: cc38 8237 57a5 bcb0 2fec 9337 ee6b ee37
000000b0: 4ef7 8f37 8488 0237 e140 0e37 bbbd a537
000000c0: 9cb1 d536 a405 dd33 e077 e537 4566 0138
000000d0: cad0 4436 3c08 8937 5e8c 8637 23f7 9a37
000000e0: 3f9b e736 2e05 5d33 b9a0 e937 8bc3 0b38
000000f0: c1f2 0cb5 1bab 0133 856e 1938 b6c4 0d38
00000100: 132c a89a e8f3 80b1 9c49 1038 b0c1 0b38
00000110: efed b4aa 9b3b 19b5 a069 1338 2864 0b38
00000120: ef0e a5b7 449b beb6 f45d 8837 7d30 6736
00000130: 7174 afb7 0168 aa30 8756 4637 ba36 30b6
00000140: 5284 b7b7 294c ef35 dd5e 3237 123e 5bb6
00000150: 6e8c 32b7 a2c4 a4b4 d115 ea32 2fea afb6
00000160: 3985 9bb5 cc16 cfb6 5198 90b6 102e c9b6
00000170: 1840 49b7 4eb3 05b4 5949 3eb5 cb4a 1ab7
00000180: 4572 d034 7672 5b35 8d5c 60b7 8204 2eb7
00000190: 2d47 611b ef42 dc2f 33d1 4bb7 9bea 1fb7
000001a0: 46b3 6aaa 144a df35 5e15 49b7 6cc4 27b7
000001b0: 03e7 8db8 6014 2ab9 6d31 2f38 77c9 95b8
000001c0: dc80 79b8 8045 4032 88b9 06b9 1af9 2ab9
000001d0: abcc a2b8 fb9e 35b8 1a58 8fb8 819f ebb8
000001e0: 4f6e 1cb8 957c 1eb4 8c45 20b9 dda6 33b9
000001f0: 6e4b 36b6 e25f 71b8 5275 0eb9 e5f4 0ab9
00000200: 63d8 5eb8 e238 84b3 61ff 13b9 3628 42b9
00000210: f97a 1136 1dcd b5b5 e40c 52b9 ef8d 45b9
00000220: 2b14 539b 8c9d 2b33 04b8 4ab9 9ce2 45b9
00000230: 45b0 ca2b 0e82 5fb5 d222 4ab9 7045 43b9
00000240: 5a8b 7e37 2e4b 8937 7fc1 11b7 2e4c 1637
00000250: 9ea3 5f37 3383 1db1 e9eb 1e37 678b 9137
00000260: 1df3 9137 74a1 2eb4 1425 c136 4109 7f37
00000270: b7a4 0037 3761 3833 1b58 8437 4e45 a337
00000280: 01af 3d36 610c 1337 ceb7 5237 ca3f 6e37
00000290: 6153 2537 b15c 8732 a1fa 6f37 29a5 be37
000002a0: 4f70 fa34 bdd5 8034 ffe6 ca37 e709 c037
000002b0: 5406 8799 63aa 19b2 a149 c637 8a5a c037
000002c0: ec12 6b29 ac5f e633 5e99 c837 c7e1 bc37
000002d0: 17d6 3538 3a46 6f38 79e3 aeb6 56f4 3238
000002e0: 3663 2638 07aa e8af b77e 6838 0677 a838
000002f0: 395f 4338 ad8f 1438 5002 6d37 6daf 6a38
00000300: 07c8 1f38 831b 52b3 bb22 6f38 71a1 af38
00000310: 7b2f b9b7 63d1 ce37 c391 c738 f5e6 9f38
00000320: f9b9 3838 a2c8 12b3 229d 6738 85b4 c238
00000330: 99e1 31b7 d33d 9db4 fa4e e238 e4b0 ca38
00000340: a757 f71b 4cba 7ab1 d325 d138 5289 c838
00000350: 0f4a 05ac 6e34 fe35 117e c138 9162 c438
00000360: 2abf 7238 13d1 2a39 ff6c f9b7 7b70 9338
00000370: 2c0a 5738 38fd 12b2 4970 1239 222c 3539
00000380: 87d8 8838 7cb3 9338 fe0a 6d38 863c de38
00000390: 52de ff37 1bef b333 f8af 2939 338d 3d39
000003a0: 7e71 33b7 7400 9938 8edc 1039 434e 0139
000003b0: d5c5 2738 dd72 1733 bdae 2539 0e4f 4839
000003c0: e64c 12b7 72b3 0b35 254f 5d39 a9dd 4939
000003d0: 7000 c31b 4924 9bb2 9a03 4f39 a30a 4939
000003e0: 5e06 88ac 7434 1835 7e7f 4c39 fbaa 4639
000003f0: 8208 3d37 ff83 85b7 d1f6 9db7 ac68 3fb7

exp_avg_sq f4 [128, 36]
5.891468e-08 9.101428e-08 1.07660576e-07 1.5400634e-07 8.2930164e-08 3.267971e-08 1.348237e-07 1.8420761e-07
4.5384418e-08 6.5820586e-08 1.3847229e-07 1.7088486e-07 8.662091e-08 1.7132757e-08 1.4450625e-07 2.0909353e-07
2.2874364e-08 4.0398607e-08 1.8233992e-07 2.0190434e-07 3.209244e-08 6.243304e-09 2.1899199e-07 2.442169e-07
7.4463236e-09 5.7666747e-09 2.3514852e-07 2.4336666e-07 3.510152e-09 1.728227e-09 2.4842544e-07 2.497567e-07
2.6158293e-09 1.5835673e-09 2.4660258e-07 2.509905e-07 1.6955666e-09 4.109431e-09 3.1657168e-09 4.809318e-09
2.253833e-09 1.2107657e-09 5.687197e-09 6.6748895e-09 1.609163e-09 2.0576298e-09 5.325468e-09 5.9452407e-09
2.1656774e-09 2.1471203e-10 6.517401e-09 7.809242e-09 1.3380416e-09 1.1833576e-09 6.164982e-09 6.8567747e-09
1.3485265e-09 3.130362e-10 7.633729e-09 8.5010186e-09 8.2568113e-10 2.4304705e-10 7.550276e-09 8.228688e-09
3.4567993e-10 2.9890707e-10 8.508291e-09 8.74219e-09 3.8961806e-10 5.1317475e-11 8.329026e-09 8.891923e-09
3.3605239e-09 5.453031e-09 1.6978904e-08 2.0861917e-08 5.3451745e-09 3.8566963e-09 1.4802736e-08 2.0750718e-08
1.9665745e-09 1.7305607e-09 2.1437371e-08 2.3163159e-08 5.744975e-09 9.73167e-10 1.8459614e-08 2.3219803e-08
9.1933755e-10 1.0430126e-09 2.2601593e-08 2.4248694e-08 2.7636855e-09 3.6885991e-10 2.2486233e-08 2.4900269e-08
3.2719552e-10 3.4896913e-10 2.4615439e-08 2.5183034e-08 3.5632947e-10 2.3669805e-10 2.4990937e-08 2.535736e-08
9.476975e-11 1.2053729e-10 2.5359867e-08 2.5551588e-08 2.160453e-08 4.2183775e-08 9.324922e-08 1.14107806e-07
4.298248e-08 1.2322186e-08 9.9082534e-08 1.2420166e-07 1.7113905e-08 5.1332602e-08 8.576631e-08 1.036533e-07
4.5381817e-08 5.846752e-09 1.0031362e-07 1.3460304e-07 7.977843e-09 2.9656501e-08 1.1828135e-07 1.2245422e-07
1.1938514e-08 4.325779e-09 1.3973279e-07 1.4914781e-07 2.3137794e-09 9.2000345e-09 1.443065e-07 1.4710794e-07
7.9085305e-10 2.3447932e-09 1.5160997e-07 1.5152439e-07 1.1480243e-09 9.718908e-10 1.5133274e-07 1.5424001e-07
1.3367211e-09 1.5528917e-09 2.8691234e-09 3.5369307e-09 2.1545397e-09 3.5660652e-10 2.6741047e-09 3.792142e-09
1.2514181e-09 2.2045872e-09 2.2607238e-09 3.022863e-09 2.1883804e-09 1.5132226e-10 2.6817923e-09 4.186241e-09
7.4755735e-10 1.3966582e-09 3.5078271e-09 3.846336e-09 9.561931e-10 9.150044e-11 4.2538666e-09 4.815186e-09
4.24574e-10 7.7123236e-10 4.5803445e-09 4.904204e-09 3.0115768e-10 4.9272263e-11 4.914932e-09 5.000624e-09
2.2288835e-10 3.9392354e-11 5.3156586e-09 5.560824e-09 1.1024192e-08 4.4258353e-09 3.2941436e-09 7.503536e-09
1.4212135e-08 9.250981e-10 2.1820064e-09 7.546157e-09 1.1156234e-08 6.6441452e-09 2.3446678e-09 6.2405503e-09
1.4480506e-08 7.301887e-10 2.0987603e-09 8.934861e-09 9.348061e-09 3.9502965e-09 7.135172e-09 1.06946345e-08
9.783775e-09 8.9192126e-10 8.59657e-09 1.4470961e-08 4.9525006e-09 2.0421247e-09 1.3068216e-08 1.5713214e-08
1.758087e-09 4.42752e-10 1.6886357e-08 1.686318e-08 1.7210658e-09 2.3035397e-10 1.8943627e-08 2.017334e-08
3.8722053e-08 4.1357303e-08 3.554385e-08 5.3826945e-08 5.3804882e-08 1.2565601e-08 4.622025e-08 6.745312e-08
3.764907e-08 3.8135752e-08 3.7970782e-08 5.381899e-08 5.580067e-08 1.0361246e-08 4.567307e-08 7.751004e-08
3.546152e-08 2.415572e-08 5.5321816e-08 7.243488e-08 2.1334301e-08 6.325958e-09 9.175723e-08 1.0409459e-07
1.1952187e-08 7.191742e-09 9.57073e-08 1.0280486e-07 3.9990296e-09 1.1436382e-09 1.10478204e-07 1.10722716e-07
6.0207195e-09 7.4063355e-10 1.08792804e-07 1.1516308e-07 1.7555779e-09 1.9360861e-08 2.9485426e-08 3.6583486e-08
00000000: 6009 7d33 a173 c333 0733 e733 f15c 2534
00000010: 5717 b233 b95b 0c33 0ec4 1034 9aca 4534
00000020: b2ec 4233 4059 8d33 f9ae 1434 797c 3734
00000030: 5904 ba33 552b 9332 9329 1b34 3183 6034
00000040: 427d c432 bd82 2d33 37c9 4334 0bcb 5834
00000050: 03d6 0933 af84 d631 0f24 6b34 ea1c 8334
00000060: 8eda ff31 3524 c631 227d 7c34 0fa8 8234
00000070: 3f37 7131 9586 ed30 555f 8534 4d16 8634
00000080: 28c2 3331 d2a4 d930 cd64 8434 dfbf 8634
00000090: 7209 e930 f032 8d31 e18b 5931 353f a531
000000a0: d9e1 1a31 0868 a630 1d69 c331 f358 e531
000000b0: 6429 dd30 3566 0d31 50fb b631 e446 cc31
000000c0: 00d3 1431 1014 6c2f aaef df31 6929 0632
000000d0: 27e6 b730 b2a3 a230 c1d3 d331 d498 eb31
000000e0: 0f57 b930 ee17 ac2f 7f25 0332 e00b 1232
000000f0: 25f6 6230 d59d 852f 77b6 0132 275e 0d32
00000100: 200a be2f 6e53 a42f dc2b 1232 8f30 1632
00000110: de31 d62f 57b2 612e 7217 0f32 17c3 1832
00000120: f6ee 6631 5e5d bb31 01d9 9132 d733 b332
00000130: a7a8 b731 dc83 8431 1f4f 7e32 503f b232
00000140: 5824 0731 b1d8 ed30 4725 b832 53f8 c632
00000150: 5665 c531 45c0 8530 1f91 9e32 e374 c732
00000160: a1b4 7c30 be59 8f30 6e25 c232 714b d032
00000170: 45eb 3d31 6bc8 ca2f c027 c132 45e4 d532
00000180: ade0 b32f 0ad9 bf2f ec71 d332 1452 d832
00000190: eae4 c32f 4a20 822f a7ab d632 6dd1 d932
000001a0: a066 d02e 3b88 042f f0d6 d932 897c db32
000001b0: dd94 b932 8d2d 3533 4d40 c833 6e0b f533
000001c0: bd9b 3833 8cb1 5332 33c7 d433 4b5c 0534
000001d0: e001 9332 cb78 5c33 872e b833 0198 de33
000001e0: d6e9 4233 93e4 c831 ff6b d733 6787 1034
000001f0: ed0e 0932 56bf fe32 dc01 fe33 f67b 0334
00000200: 241a 4d32 f4a1 9431 7509 1634 7025 2034
00000210: 7000 1f31 2e0e 1e32 abf2 1a34 b9f4 1d34
00000220: 5663 5930 0a22 2131 3bca 2234 b5b2 2234
00000230: 84c8 9d30 5e93 8530 077e 2234 2c9d 2534
00000240: b1b7 b730 856d d530 272a 4531 580e 7331
00000250: 100f 1431 e80b c42f 59c3 3731 094c 8231
00000260: 5cfe ab30 827f 1731 135b 1b31 c5ba 4f31
00000270: 6562 1631 6e61 262f 974a 3831 91d6 8f31
00000280: ac7c 4d30 8bf4 bf30 590e 7131 bb28 8431
00000290: 0e6b 8330 2b36 c92e 6829 9231 d372 a531
000002a0: 7a69 e92f a7fe 5330 2361 9d31 d681 a831
000002b0: 2d90 a52f a3b3 582e 33e0 a831 f4d1 ab31
000002c0: 7e11 752f d93f 2d2e 07a5 b631 8611 bf31
000002d0: e964 3d32 0f12 9831 305f 6231 e6e8 0032
000002e0: a129 7432 fe49 7e30 43f2 1531 59a4 0132
000002f0: a3a9 3f32 854a e431 d51f 2131 766c d631
00000300: f0c5 7832 76b6 4830 c839 1031 ef7f 1932
00000310: 3599 2032 2dbb 8731 a329 f531 80bb 3732
00000320: 7f15 2832 612b 7530 1db0 1332 f69b 7832
00000330: a82a aa31 7055 0c31 9f82 6032 b9f9 8632
00000340: 30a1 f130 ce67 f32f 7e0d 9132 86da 9032
00000350: 9f8a ec30 e146 7d2f 7ab9 a232 a549 ad32
00000360: 594f 2633 d6a0 3133 e0a8 1833 5a2f 6733
00000370: 1817 6733 19e0 5732 b483 4633 bfda 9033
00000380: 97b3 2133 b4ca 2333 5115 2333 9b26 6733
00000390: 7ca9 6f33 3e01 3232 122a 4433 9873 a633
000003a0: 5b4e 1833 fd7e cf32 fb9a 6d33 7f8d 9b33
000003b0: a042 b732 b75b d931 120c c533 9b8a df33
000003c0: 4656 4d32 3b1b f731 a587 cd33 92c5 dc33
000003d0: d667 8931 312e 9d30 0940 ed33 75c6 ed33
000003e0: cfde ce31 7495 4b30 7aa1 e933 934f f733
000003f0: e848 f130 fc4e a632 2347 fd32 f81f 1d33

exp_avg f4 [128]
-0.00014213524 3.316935e-05 -9.0960175e-06 -0.00018810503 2.2851009e-05 9.5204996e-05 0.00019105556 -2.3491983e-05
8.894222e-05 -2.0788404e-05 9.314981e-06 0.00015114513 -0.00011724799 -4.616795e-05 0.00025648478 0.00018238935
5.639745e-07 -9.5144505e-06 -3.0394615e-06 -0.0003424125 0.00017315873 -0.00014620487 -0.0002852081 -0.00033804416
-3.9613722e-05 -0.0004201007 -7.744409e-06 6.574446e-05 1.0760972e-05 -5.3213123e-05 -0.00012388393 4.6384128e-05
7.962204e-05 5.148142e-05 3.1595926e-05 0.00012800348 -1.0575756e-05 0.00011294624 0.00025306328 4.3045075e-05
4.535186e-05 -8.150407e-06 2.3442424e-05 -2.3621467e-05 0.00017469483 3.4386667e-05 9.328355e-05 8.454223e-06
-0.00015250007 -0.00018181729 0.0001491531 4.445432e-05 -0.000118934535 -1.8969952e-06 -0.00023287638 2.1814362e-06
-0.00013571898 -0.00013340116 -7.588161e-05 6.7137107e-06 6.279747e-05 -0.0001073755 0.00020088723 -9.741092e-05
2.4216819e-05 2.3261495e-05 -0.00012947206 0.00041437667 -3.1053547e-05 0.0001839475 -5.092619e-05 -6.067431e-05
5.3275377e-05 -2.2596327e-05 -0.00019661285 9.1525064e-05 7.8763485e-05 3.7862294e-06 -0.00030020738 0.00016852633
-0.00024771705 -5.9422204e-05 4.910718e-05 -2.2782733e-05 -8.593493e-05 0.00021352177 2.0722971e-05 0.00013245593
-2.9933556e-06 -7.115991e-06 5.4119584e-05 3.6086512e-05 5.0351304e-05 -0.00013546504 -0.00022110237 5.414131e-05
-0.00028129647 5.8829573e-05 7.2284194e-05 0.00013251088 7.10807e-05 -0.0003225094 -6.945577e-05 3.0093615e-05
-5.6416384e-06 -0.00015472347 -9.6641495e-05 4.5003293e-05 0.000100489044 3.2248605e-05 -0.000117292 -0.00023623965
0.00013890296 0.00017006198 -0.00013442108 -0.00010247537 -0.00016408281 0.0003263208 -6.7548553e-06 -5.43076e-05
-0.00026799343 2.1111853e-05 -2.2821561e-05 -6.432678e-05 -8.973182e-06 -2.9315503e-05 0.00016792909 -0.00014743954
00000000: 230a 15b9 521f 0b38 199b 18b7 0f3e 45b9
00000010: 2bb0 bf37 cba8 c738 1656 4839 a610 c5b7
00000020: 7e86 ba38 c262 aeb7 8a47 1c37 b67c 1e39
00000030: 09e3 f5b8 75a4 41b8 ce78 8639 c53f 3f39
00000040: 0864 1735 41a0 1fb7 8df9 4bb6 d485 b3b9
00000050: f191 3539 924e 19b9 fc87 95b9 853b b1b9
00000060: e926 26b8 f640 dcb9 fced 01b7 4ae0 8938
00000070: 068a 3437 2831 5fb8 d7e6 01b9 948c 4238
00000080: c2fa a638 c1ed 5738 de85 0438 ac38 0639
00000090: 876e 31b7 8ddd ec38 94ad 8439 4c8b 3438
000000a0: 3038 3e38 bbbd 08b7 39a6 c437 b726 c6b7
000000b0: 492e 3739 673a 1038 39a1 c338 9cd6 0d37
000000c0: 6de8 1fb9 35a6 3eb9 fb65 1c39 7674 3a38
000000d0: 7e6c f9b8 429c feb5 4730 74b9 ca64 1236
000000e0: c94f 0eb9 9ae1 0bb9 a122 9fb8 5646 e136
000000f0: 23b2 8338 c82e e1b8 41a5 5239 1749 ccb8
00000100: 3925 cb37 ae21 c337 e4c2 07b9 b240 d939
00000110: 7e3f 02b8 08e2 4039 9599 55b8 8b7c 7eb8
00000120: 0074 5f38 3e8d bdb7 dc29 4eb9 25f1 bf38
00000130: d32d a538 ed16 7e36 2765 9db9 71b6 3039
00000140: 05e0 81b9 1b3c 79b8 6ff8 4d38 8c1d bfb7
00000150: f737 b4b8 d0e4 5f39 3ed6 ad37 dee3 0a39
00000160: 75e1 48b6 e6c5 eeb6 76fe 6238 995b 1738
00000170: 4d30 5338 9f0b 0eb9 b7d7 67b9 ca15 6338
00000180: f97a 93b9 c6bf 7638 4897 9738 9ef2 0a39
00000190: 2911 9538 7b16 a9b9 c8a8 91b8 8c71 fc37
000001a0: 4e4d bdb6 443d 22b9 02ac cab8 ebc1 3c38
000001b0: a5bd d238 ad42 0738 aafa f5b8 19b7 77b9
000001c0: 7ba6 1139 aa52 3239 62f3 0cb9 0ce8 d6b8
000001d0: a50d 2cb9 0916 ab39 c4a7 e2b6 57c8 63b8
000001e0: 7881 8cb9 5c19 b137 ee70 bfb7 2de7 86b8
000001f0: 868b 16b7 90ea f5b7 1f16 3039 009a 1ab9

exp_avg_sq f4 [128]
2.5309384e-07 9.191671e-09 2.5691218e-08 1.5646614e-07 5.6754903e-09 2.0570491e-08 1.16472116e-07 5.1441447e-08
5.9659484e-08 1.4381591e-08 1.876668e-09 7.413183e-08 1.3578607e-07 3.2603726e-08 1.7457734e-07 4.8191247e-08
1.9434332e-10 4.1140105e-08 1.4054823e-08 2.3582952e-07 3.797814e-08 4.7969596e-08 5.514752e-07 4.8405406e-07
1.1587699e-08 4.5548694e-07 1.0336997e-07 9.550839e-08 7.0939427e-10 7.569462e-09 4.8521862e-08 1.5533624e-08
6.514884e-08 2.0376806e-08 1.4616872e-09 3.3658598e-08 1.1683839e-08 5.502711e-08 1.6191206e-07 6.9521007e-09
4.5580123e-08 5.7195926e-08 3.3797953e-09 9.9233695e-08 1.5869348e-07 5.0589826e-09 2.8839292e-08 7.499966e-09
6.9233245e-08 1.5222251e-07 6.919404e-08 1.9375687e-08 2.0687492e-07 1.191875e-08 6.328729e-08 7.5191237e-10
4.957233e-07 3.6207922e-08 1.2978263e-07 1.918611e-09 1.5772292e-08 3.2288323e-08 1.3379163e-07 2.6265848e-08
9.324347e-09 7.168281e-09 6.716504e-08 3.056833e-07 1.6640234e-08 9.438669e-08 2.046985e-08 1.6271166e-08
1.1345683e-07 1.0820947e-08 2.8322006e-07 2.7307252e-08 2.2799103e-08 3.3003025e-09 1.4254813e-07 8.557954e-08
2.810155e-07 2.6927674e-08 1.3289049e-08 2.8338687e-09 2.1185349e-08 1.3176306e-07 7.2954403e-09 7.369627e-08
1.5095654e-09 7.0272755e-08 2.178874e-08 1.0759767e-08 1.7214381e-07 2.5960171e-08 7.328352e-08 2.1127812e-08
1.4798951e-07 1.25426025e-08 3.335487e-08 5.289378e-08 5.147792e-08 2.1907415e-07 7.2410575e-09 2.0865723e-07
7.390041e-10 7.290602e-08 3.8010054e-08 1.02906625e-08 3.9837197e-08 5.7045133e-09 6.985128e-08 8.064947e-08
3.1392585e-08 3.7013177e-08 6.2329406e-08 4.731658e-08 1.5867982e-07 1.873096e-07 2.4590747e-09 7.2776025e-09
2.3562589e-07 1.0339068e-08 2.7834561e-08 5.803154e-08 6.04715e-09 9.121e-09 7.157341e-08 8.232185e-08
00000000: f4e0 8734 66e9 1d32 96af dc32 1601 2834
00000010: 2402 c331 fdb2 b032 391f fa33 78f0 5c33
00000020: 261e 8033 e812 7732 b1f6 0031 6832 9f33
00000030: 97cc 1134 2d08 0c33 7473 3b34 d6fa 4e33
00000040: c8ae 552f 06b2 3033 c475 7132 5338 7d34
00000050: 681d 2333 2107 4e33 1609 1435 f1ef 0135
00000060: 3d13 4732 a689 f434 3efc dd33 4b1a cd33
00000070: 2fff 4230 d90a 0232 5a66 5033 cd6e 8532
00000080: f4e7 8b33 1209 af32 8ce4 c830 0590 1033
00000090: 11ba 4832 f356 6c33 0cda 2d34 53df ee31
000000a0: e0c3 4333 96a7 7533 fd41 6831 4d1a d533
000000b0: 5565 2a34 48d3 ad31 46ba f732 33d9 0032
000000c0: 61ad 9433 9b72 2334 d397 9433 966f a632
000000d0: 5821 5e34 38c3 4c32 8ee8 8733 21af 4e30
000000e0: d911 0535 0883 1b33 615a 0b34 90d8 0331
000000f0: a37b 8732 63ad 0a33 5da8 0f34 369f e132
00000100: e930 2032 de4c f631 5f3c 9033 cb1c a434
00000110: 43f0 8e32 a2b1 ca33 add5 af32 acc4 8b32
00000120: 8da5 f333 07e7 3932 780d 9834 4891 ea32
00000130: c2d7 c332 89cb 6231 550f 1934 dac7 b733
00000140: 7ade 9634 954e e732 db4d 6432 f2bd 4231
00000150: 13fb b532 c17a 0d34 5fab fa31 f442 9e33
00000160: 1c79 cf30 dbe8 9633 f229 bb32 f5d9 3832
00000170: 88d6 3834 05ff de32 0b60 9d33 8d7c b532
00000180: 0ce7 1e34 f37a 5732 1142 0f33 532d 6333
00000190: 9218 5d33 a53a 6b34 04cd f831 430b 6034
000001a0: ca22 4b30 8290 9c33 7f40 2333 d0ca 3032
000001b0: 7619 2b33 6e01 c431 2601 9633 8431 ad33
000001c0: 83d4 0633 6bf8 1e33 f4d9 8533 2139 4b33
000001d0: 9461 2a34 451f 4934 80fc 2831 780e fa31
000001e0: 5a00 7d34 b49f 3132 d918 ef32 5a3e 7933
000001f0: 4bc7 cf31 95b2 1c32 e6b3 9933 eac8 b033
