results/bonusRewardAgent/CarFindGoal/CarFindGoal-1499947.pt (torch, 530875 bytes, 36 tensors)

network_body._body_endoder.seq_layers.0.weight f4 [128, 36]
-0.25991243 -0.09849941 0.062422257 0.14453313 -0.0036810692 -0.06768536 0.0031291232 -0.02965653
-0.05904459 0.11048555 0.18617 0.33811352 0.20016241 -0.25508434 0.100369334 -0.04480047
0.058082536 0.11454303 -0.084823065 0.016034052 0.15279765 0.16901222 -0.019505847 0.2116787
0.024822885 -0.25408456 -0.16649842 -0.01093423 -0.02118042 0.027728263 0.09624541 -0.039416272
-0.13200167 -0.0576582 0.2281254 0.13188525 0.030524254 0.068670675 0.029425398 -0.14790186
-0.10998967 0.14775158 -0.046737432 0.14858824 0.23029472 0.090117544 -0.14458601 -0.16454035
-0.02086519 -0.07912815 0.0936808 -0.14839862 -0.0444898 0.11504071 -0.23583521 -0.08061867
0.21607696 -0.020130012 0.14848328 0.018197235 0.031832244 0.24899168 0.1296219 0.38364443
-0.12262137 -0.06860956 -0.16143848 0.118485734 -0.16549619 -0.11909292 0.08534961 0.078877956
0.15587558 -0.1798502 0.24137844 0.14952268 -0.09920375 -0.040327907 -0.1478355 0.11184706
-0.0018101037 -0.27397686 0.12645364 0.05513999 -0.10554954 -0.058307454 -0.09320194 0.10209289
0.0046409494 -0.07149308 -0.11968412 -0.02795331 0.23029837 -0.18939905 -0.008878741 0.027805109
-0.1230893 0.15998296 0.005294108 0.12681544 -0.14051183 -0.29758838 0.1982732 0.124467105
-0.059441853 0.23517857 -0.14774846 -0.057819888 0.043637633 0.41994125 -0.007963713 -0.14148273
0.16053674 -0.061558276 -0.10898087 0.13462678 -0.13766284 -0.41996247 -0.1313588 -0.17883597
0.20035067 0.03278029 0.0378737 -0.027427476 -0.12893303 0.36033553 -0.07769746 -0.025270313
-0.111801386 0.0049078357 -0.24789475 0.14637962 0.24491699 -0.123338014 -0.12607095 -0.255361
-0.20648138 0.087298974 -0.05708311 -0.113680065 -0.099950604 -0.2579283 0.10512663 0.13719745
0.07966442 -0.051126778 -0.1513528 -0.058644507 0.047566302 -0.2279788 -0.07295087 -0.12618414
0.13345158 -0.05559577 -0.076275304 -0.09437452 0.04397134 0.022162877 -0.043306474 0.022164933
-0.051438026 -0.26455215 -0.24405187 0.07388588 0.22112359 0.1083577 0.20869079 0.042586096
-0.03137559 -0.18328953 0.21886595 -0.1700268 -0.3439234 0.3273226 0.04906298 -0.13548176
0.21001598 0.115212575 0.08331727 -0.06647909 -0.019134318 0.09870062 -0.4304124 -0.07050517
-0.24447244 -0.069672346 0.42254263 -0.07986068 -0.35240516 -0.020747244 -0.34772938 0.38046503
0.1568542 -0.35413012 -0.075294815 0.11455325 -0.0031213197 0.13802294 -0.04220684 -0.027933244
-0.107800685 0.13708986 -0.22293 0.19963469 0.18883215 -0.015156215 0.16393301 -0.13001858
0.0983965 -0.15629965 0.0057081487 0.027158367 0.19524 0.03457867 -0.07870985 -0.17678794
0.09738867 -0.15520857 -0.09748602 -0.05348322 -0.15796094 -0.009446576 -0.024617495 0.038323384
0.44296536 0.05591629 -0.03599697 0.023013351 0.1639106 0.0154931415 0.0879641 0.07593433
0.03555528 -0.16043739 -0.29769534 0.15322815 -0.06062296 0.041459505 -0.11372855 -0.00882676
0.23675309 0.3642141 -0.10993538 -0.30625585 -0.17216124 0.21884897 -0.054560974 0.026131155
-0.20496364 -0.010139118 -0.01146848 -0.09020122 0.14614166 -0.026029732 0.013519177 -0.053150013
00000000: 3e13 85be 0fba c9bd 7bae 7f3d 7e00 143e
00000010: 183e 71bb 9f9e 8abd fa11 4d3b 40f2 f2bc
00000020: bdd8 71bd 3f46 e23d 59a3 3e3e 371d ad3e
00000030: 60f7 4c3e 6a9a 82be 708e cd3d b380 37bd
00000040: f4e7 6d3d 8995 ea3d b7b7 adbd d859 833c
00000050: fd76 1c3e 8a11 2d3e baca 9fbc 4dc2 583e
00000060: 5d59 cb3c 5f17 82be 907e 2abe 7c25 33bc
00000070: 8f82 adbc 6226 e33c 501c c53d f572 21bd
00000080: 722b 07be 012b 6cbd b499 693e ed0c 073e
00000090: 000e fa3c 36a3 8c3d 880d f13c 9673 17be
000000a0: 4442 e1bd 314c 173e c06f 3fbd 8427 183e
000000b0: 61d2 6b3e 8c8f b83d 5b0e 14be 447d 28be
000000c0: 7aed aabc f10d a2bd b8db bf3d cff5 17be
000000d0: f03a 36bd 779a eb3d c97e 71be 671b a5bd
000000e0: 4743 5d3e b2e7 a4bc 000c 183e 5e12 953c
000000f0: 8762 023d adf7 7e3e 9abb 043e 0b6d c43e
00000100: ea20 fbbd 2b83 8cbd 2150 25be a6a8 f23d
00000110: d577 29be fde6 f3bd c7cb ae3d c48a a13d
00000120: d99d 1f3e a72a 38be e92b 773e 791c 193e
00000130: 562b cbbd e02e 25bd 3062 17be 1210 e53d
00000140: 0041 edba b246 8cbe 107d 013e 78da 613d
00000150: 5b2a d8bd ccd3 6ebd a9e0 bebd 1416 d13d
00000160: 1b13 983b f76a 92bd f31c f5bd 57fe e4bc
00000170: 56d3 6b3e d3f1 41be 2478 11bc 8ac7 e33c
00000180: 3e16 fcbd 93d2 233e 327a ad3b e8db 013e
00000190: 55e2 0fbe 815d 98be 2108 4b3e 9ce8 fe3d
000001a0: 4d79 73bd a7d2 703e 5f4b 17be 8cd4 6cbd
000001b0: 60bd 323d 8a02 d73e 3c7a 02bc d9e0 10be
000001c0: be63 243e 8824 7cbd 5d31 dfbd 9adb 093e
000001d0: 7df7 0cbe 5205 d7be ec82 06be c720 37be
000001e0: ba28 4d3e a044 063d 7421 1b3d 96af e0bc
000001f0: 0507 04be e67d b83e d91f 9fbd b003 cfbc
00000200: 20f8 e4bd e9d1 a03b 1fd8 7dbe 8ae4 153e
00000210: 85cb 7a3e a498 fcbd be18 01be adbe 82be
00000220: db6f 53be cec9 b23d fbcf 69bd 18d1 e8bd
00000230: e7b2 ccbd 2e0f 84be a14c d73d 7d7d 0c3e
00000240: 1927 a33d 506a 51bd 3afc 1abe 3935 70bd
00000250: e2d4 423d 4673 69be 4467 95bd 6a36 01be
00000260: 88a7 083e 64b8 63bd 3a36 9cbd 6e47 c1bd
00000270: 4b1b 343d ec8e b53c 2162 31bd 3c93 b53c
00000280: aeb0 52bd 6173 87be bce8 79be 7b51 973d
00000290: 396e 623e a4ea dd3d 0ab3 553e c26e 2e3d
000002a0: b183 00bd 40b0 3bbe 651e 603e 811b 2ebe
000002b0: ba16 b0be d496 a73e 43f6 483d bbbb 0abe
000002c0: 6e0e 573e 92f4 eb3d 3fa2 aa3d 3026 88bd
000002d0: 93bf 9cbc 8d23 ca3d 045f dcbe 0465 90bd
000002e0: fc56 7abe 60b0 8ebd 8257 d83e ff8d a3bd
000002f0: 736e b4be 20f6 a9bc 9609 b2be 50cc c23e
00000300: 639e 203e 8b50 b5be 2b34 9abd e59a ea3d
00000310: 0e8f 4cbb e355 0d3e 14e1 2cbd 42d4 e4bc
00000320: 9bc6 dcbd 4961 0c3e c347 64be 096d 4c3e
00000330: 375d 413e c651 78bc 0ede 273e 9723 05be
00000340: 1b84 c93d 040d 20be 6c0b bb3b 397b de3c
00000350: ffec 473e 5da2 0d3d a132 a1bd e607 35be
00000360: b673 c73d ffee 1ebe c0a6 c7bd 3911 5bbd
00000370: 83c0 21be d0c5 1abc a1aa c9bc fbf8 1c3d
00000380: 5bcc e23e 7b08 653d 8f71 13bd 7f86 bc3c
00000390: 2ed8 273e f2d6 7d3c 8626 b43d 7583 9b3d
000003a0: 6aa2 113d b349 24be 866b 98be d7e7 1c3e
000003b0: c84f 78bd 71d1 293d 84ea e8bd 1d9e 10bc
000003c0: 676f 723e 457a ba3e cd25 e1bd 91cd 9cbe
000003d0: 094b 30be f219 603e 547b 5fbd 0111 d63c
000003e0: fde1 51be 8b1e 26bc 4be6 3bbc 6bbb b8bd
000003f0: 29a6 153e 4e3c d5bc 8a7f 5d3c d4b3 59bd

network_body._body_endoder.seq_layers.0.bias f4 [128]
-0.0014580875 -0.016125621 -0.017130693 0.0038157515 0.011588097 -0.012965403 -0.003356968 0.007773886
-0.0049923444 0.0065212543 0.015858585 -0.011551349 0.007976723 0.009019753 -0.00071864657 -0.016011124
0.005096254 -0.020571763 0.0014015008 0.01471467 0.005386171 -0.011100752 0.0039069536 0.0073653967
-0.004846255 -0.008915647 -0.0159486 -0.0011542186 -0.017273543 -0.03926713 -0.00076079095 0.029041203
-0.018440586 -0.0427945 0.007024442 0.007907519 0.0040294635 0.026846569 0.005130107 0.0006576849
0.009766131 0.008965451 -0.011808538 -0.005964556 0.005854872 -0.0032587084 -0.034594435 0.0031386702
0.001297066 0.011047204 0.0060558785 0.029580375 0.017647823 0.0015923053 -0.016097778 -0.009831768
-0.0062581394 0.0015102883 0.008812264 -0.021983964 0.0072328076 -0.0006419909 0.023388356 -0.010931729
0.01047269 0.010095488 -0.003332948 -0.009234021 -0.01983269 0.000873329 -0.0059560672 -0.0016035928
0.0023781096 -0.0061019748 -0.0025851657 0.001212284 -0.019355284 0.023586232 -0.01756721 0.0075776745
0.015030185 0.014687279 0.005627576 0.0016964958 -0.006498819 0.000487262 0.02000421 -0.009405395
0.0010580538 -0.009474539 -0.012174078 0.010485938 -0.04743503 0.004240426 -0.0144784115 0.004806141
-0.005884122 0.0031430328 -0.021675158 0.00013990996 -0.005428638 0.001432412 -0.020033646 0.027891645
0.001764482 -0.026645038 -0.0072632637 0.013867064 -0.008860953 -0.000579657 -0.010100381 0.0022972994
0.019003652 -0.016920352 -0.009101392 0.02033247 -0.0059043877 0.026471242 -0.008579209 0.013639801
0.006256062 -0.00017972871 0.01237625 -0.029701408 -0.025292091 -0.002985436 -0.018574512 -0.0037029618
00000000: 4c1d bfba e119 84bc ab55 8cbc b011 7a3b
00000010: 00dc 3d3c d76c 54bc 9400 5cbb 15bc fe3b
00000020: d296 a3bb 3fb0 d53b dde9 813c df41 3dbc
00000030: cdb0 023c 96c7 133c 8e63 3cba c329 83bc
00000040: 7afe a63b 1d86 a8bc 90b2 b73a cd15 713c
00000050: 7a7e b03b eedf 35bc e705 803b 6d59 f13b
00000060: 55cd 9ebb ef12 12bc a3a6 82bc 2649 97ba
00000070: 3f81 8dbc 92d6 20bd d16f 47ba d1e7 ed3c
00000080: b610 97bc 4949 2fbd 4a2d e63b 8a8e 013c
00000090: 9709 843b 56ed db3c 751a a83b 7d68 2c3a
000000a0: 1f02 203c d4e3 123c 9978 41bc 5272 c3bb
000000b0: 3ada bf3b 0e90 55bb e5b2 0dbd 26b2 4d3b
000000c0: 5002 aa3a 55ff 343c 6470 c63b 8b52 f23c
000000d0: 2b92 903c e6b4 d03a 7ddf 83bc 6d15 21bc
000000e0: 1411 cdbb def4 c53a 5061 103c b717 b4bc
000000f0: 3001 ed3b 484b 28ba f098 bf3c ff1a 33bc
00000100: a595 2b3c 8c67 253c 976d 5abb 4b4a 17bc
00000110: 2a78 a2bc 1ef0 643a 1d2b c3bb a52f d2ba
00000120: 0fda 1b3b 13f3 c7bb e26b 29bb 80e5 9e3a
00000130: f98e 9ebc ea37 c13c 1ce9 8fbc 244e f83b
00000140: 2a41 763c eaa2 703c 8767 b83b f45c de3a
00000150: 0cf4 d4bb 3377 ff39 dedf a33c 1619 1abc
00000160: 65ae 8a3a 193b 1bbc c975 47bc 36cd 2b3c
00000170: 3c4b 42bd 45f3 8a3b dc36 6dbc d57c 9d3b
00000180: 98cf c0bb 57fb 4d3b 1a90 b1bc cbb4 1239
00000190: b7e2 b1bb c5bf bb3a 9a1d a4bc 057d e43c
000001a0: 3146 e73a b246 dabc ac00 eebb af32 633c
000001b0: 882d 11bc 1ff4 17ba 127c 25bc 4a8e 163b
000001c0: 8cad 9b3c 8d9c 8abc 011e 15bc 4890 a63c
000001d0: 9879 c1bb 38da d83c d08f 0cbc 7979 5f3c
000001e0: a7ff cc3b 8f75 3cb9 c1c5 4a3c 5e50 f3bc
000001f0: 5c31 cfbc 4ea7 43bb 9329 98bc 64ad 72bb

network_body._body_endoder.seq_layers.2.weight f4 [128, 128]
0.075056165 0.020542054 0.1290866 0.099570945 -0.030619353 -0.06093844 0.057178747 0.0009951825
-0.08853203 0.0028729371 -0.13391654 0.060290333 0.08357304 0.3399576 -0.14011212 -0.079367004
-0.044835497 -0.0568718 0.2049774 -0.15633349 0.110939324 -0.036872193 0.11864689 0.20724563
0.0074983686 0.12058594 -0.09070492 0.052337755 0.26349062 0.026654186 -0.027033497 -0.14653783
-0.022935422 -0.07924511 0.013300945 -0.22139789 -0.14827824 -0.046835452 -0.06980769 -0.15890928
0.11847692 -0.046117406 0.04156833 -0.032369263 -0.06928988 0.13032162 -0.10991352 -0.115883514
0.10220597 0.07676924 -0.1807674 -0.13485804 0.21691674 -0.01174813 -0.032413565 0.0006973533
-0.14290005 0.020089732 -0.0557684 -0.15122741 0.05842414 0.11399548 0.09655598 -0.17583223
0.09799844 0.12546717 0.018978829 0.13589993 -0.14960138 0.01395613 0.022798749 -0.005340506
0.023182545 -0.083389625 0.06397846 -0.0555803 0.16145748 0.061133128 0.068471566 -0.007673267
0.102038 -0.023421472 0.04619416 -0.20786694 0.030302536 0.0357007 0.0654489 0.017067635
-0.03264117 0.015406923 0.11538073 -0.005197437 -0.06473748 0.12112779 -0.038983177 -0.066048846
-0.10728881 -0.12595844 0.015957635 -0.015451631 0.103152454 0.13393481 0.012268095 -0.0030333188
0.12173129 0.045657564 0.10676999 -0.21681184 -0.009888084 -0.17590275 -0.1401431 0.020733813
0.15916589 -0.03562395 0.095596425 0.091663495 -0.040021937 0.1301483 0.043296646 0.1344213
0.1687169 -0.15563829 -0.14999373 0.030167049 0.0368422 -0.16832177 0.050613046 -0.03361715
0.061255626 -0.05167187 -0.08856895 0.016721673 -0.043888096 0.040122055 -0.015864743 -0.20527542
0.03049809 0.03231988 -0.18613505 -0.14563498 0.060610097 0.011530214 -0.008582496 0.011601419
-0.09649301 -0.07638755 0.03679001 0.026670957 -0.07211293 -0.04835551 -0.0066340547 -0.03560166
-0.01376378 -0.22678025 0.0114316745 -0.034318954 -0.019262986 0.08042671 0.007036361 -0.0792988
0.101978056 0.057963718 -0.05436327 0.11403378 -0.10921229 0.11785459 0.06931691 0.06541484
0.15048808 -0.1695216 0.06773742 -0.06588975 0.095492795 -0.027094388 -0.027030328 0.05868926
0.03554879 0.0013935426 0.18816493 -0.0018280015 -0.06509915 -0.034783646 -0.012417132 -0.047146574
-0.02089209 0.07408007 0.11575305 0.02358714 0.08333412 0.07663097 -0.13138191 -0.025362104
0.13869213 -0.041832514 0.12118736 0.13455689 0.13706617 -0.14634688 -0.15672813 -0.08098816
-0.01081627 0.11137521 0.08503737 -0.032179665 0.21448305 -0.06895096 0.16039401 0.0147373555
-0.13617769 0.020391364 0.08233626 -0.090410866 -0.096022725 -0.107828245 0.020988472 0.045554154
-0.040508356 0.014377877 0.107711904 0.0757397 -0.056592572 -0.08601762 -0.12129569 0.16194919
-0.10077237 -0.005436204 0.027875178 -0.062117353 0.023313276 -0.015337508 -0.1636689 0.07044587
-0.029266153 0.028027965 0.08734172 -0.13115314 0.012089917 -0.09434018 0.045366183 -0.034715068
-0.052493382 0.005713158 -0.16769081 0.006794549 -0.03949518 -0.10695447 0.20720987 -0.049197897
0.00625454 0.050647 0.024611084 -0.08641727 0.068272255 0.21603954 -0.1612382 0.0347352
00000000: 0cb7 993d cf47 a83c 472f 043e daeb cb3d
00000010: 70d5 fabc 969a 79bd 4334 6a3d c970 823a
00000020: 4850 b5bd e347 3c3b 6b21 09be fff2 763d
00000030: 5828 ab3d ec0e ae3e 8d79 0fbe 2b8b a2bd
00000040: 6da5 37bd 68f2 68bd 98e5 513e e315 20be
00000050: 2834 e33d 4c07 17bd 24fd f23d 3338 543e
00000060: e0b4 f53b c3f5 f63d 80c3 b9bd 1d60 563d
00000070: 3ee8 863e e159 da3c 5a75 ddbc 030e 16be
00000080: 11e3 bbbc 434b a2bd 35ec 593c 21b6 62be
00000090: 40d6 17be 88d6 3fbd 56f7 8ebd 1db9 22be
000000a0: 07a4 f23d 9be5 3cbd 8e43 2a3d a295 04bd
000000b0: dae7 8dbd 0873 053e 571a e1bd 5654 edbd
000000c0: 5d51 d13d 3139 9d3d 171b 39be 3a18 0abe
000000d0: 6c1f 5e3e 3b7b 40bc 16c4 04bd 96ce 363a
000000e0: 6454 12be 3993 a43c 686d 64bd 5cdb 1abe
000000f0: 274e 6f3d 7676 e93d 24bf c53d 5d0d 34be
00000100: 68b3 c83d 777a 003e 7d79 9b3c 5a29 0b3e
00000110: 1b31 19be 40a8 643c 71c4 ba3c 69ff aebb
00000120: 52e9 bd3c 2ec8 aabd 2407 833d 2ba8 63bd
00000130: 1c55 253e bb66 7a3d d23a 8c3d 0770 fbbb
00000140: 4df9 d03d 63de bfbc 1636 3d3d 12db 54be
00000150: 063d f83c e63a 123d 130a 863d 6dd1 8b3c
00000160: bfb2 05bd 526d 7c3c bb4c ec3d 434f aabb
00000170: 1595 84bd d911 f83d d3ac 1fbd 9e44 87bd
00000180: 3cba dbbd 40fb 00be 96b9 823c d628 7dbc
00000190: 9841 d33d 3526 093e 1f00 493c a5ca 46bb
000001a0: 414e f93d 6d03 3b3d 39aa da3d ec03 5ebe
000001b0: a101 22bc da1f 34be ac81 0fbe f5d9 a93c
000001c0: 62fc 223e 6bea 11bd 0fc8 c33d 12ba bb3d
000001d0: 0bee 23bd 9945 053e d357 313d bda5 093e
000001e0: 1fc4 2c3e a55f 1fbe f597 19be e320 f73c
000001f0: d9e7 163d 8b5c 2cbe a04f 4f3d 23b2 09bd
00000200: 2ee7 7a3d e2a5 53bd a363 b5bd e4fb 883c
00000210: 01c4 33bd 0657 243d c7f6 81bc b833 52be
00000220: 21d7 f93c da61 043d 309a 3ebe 5621 15be
00000230: 4b42 783d 39e9 3c3c 999d 0cbc e113 3e3c
00000240: 219e c5bd 1371 9cbd 1fb1 163d 0d7d da3c
00000250: f2af 93bd 6d10 46bd 7c62 d9bb 0cd3 11bd
00000260: 7a81 61bc 1539 68be eb4b 3b3c 0892 0cbd
00000270: 69cd 9dbc c2b6 a43d 4691 e63b 6967 a2bd
00000280: dfd9 d03d 5d6b 6d3d 05ac 5ebd 8b8a e93d
00000290: b1aa dfbd bf5d f13d 06f6 8d3d 37f8 853d
000002a0: 8c19 1a3e 1297 2dbe ebb9 8a3d 35f1 86bd
000002b0: ba91 c33d 0df5 ddbc b56e ddbc 2664 703d
000002c0: 9c9b 113d 88a7 b63a 4fae 403e 8d99 efba
000002d0: b452 85bd 4c79 0ebd 3a71 4bbc c41c 41bd
000002e0: e325 abbc 4bb7 973d ef0f ed3d d139 c13c
000002f0: 14ab aa3d b3f0 9c3d fb88 06be 30c4 cfbc
00000300: 4f05 0e3e 9258 2bbd 1431 f83d 48c9 093e
00000310: 135b 0c3e f5db 15be 577d 20be 1fdd a5bd
00000320: b936 31bc b018 e43d 1328 ae3d d3ce 03bd
00000330: 72a1 5b3e 2936 8dbd 543e 243e f374 713c
00000340: 2a72 0bbe ca0b a73c ea9f a83d 5529 b9bd
00000350: 90a7 c4bd 0ed5 dcbd 04f0 ab3c fe96 3a3d
00000360: 17ec 25bd 3091 6b3c 0f98 dc3d 6a1d 9b3d
00000370: 9dcd 67bd 022a b0bd e069 f8bd 02d6 253e
00000380: bf61 cebd 2f22 b2bb 7c5a e43c c46e 7ebd
00000390: 7cfb be3c 2c4a 7bbc d298 27be ed45 903d
000003a0: 92bf efbc e79a e53c 37e0 b23d 024d 06be
000003b0: ca14 463c 6d35 c1bd e4d1 393d 6331 0ebd
000003c0: 4d03 57bd 7135 bb3b 24b7 2bbe cfa4 de3b
000003d0: b3c5 21bd f20a dbbd d32e 543e bc83 49bd
000003e0: e2f2 cc3b 3b73 4f3d 2f9d c93c 8afb b0bd
000003f0: 53d2 8b3d 7839 5d3e a01b 25be 7f46 0e3d

network_body._body_endoder.seq_layers.2.bias f4 [128]
0.008202846 -0.0058914544 -0.005124548 0.0016040672 0.01369412 -0.00074918545 0.006425976 -0.014046764
-0.010296036 0.0013001743 -0.00598827 -0.0035111026 -0.006519855 0.003816158 -0.0037084727 0.010827498
-0.0062089725 -0.005448289 0.0034489278 -0.0033226323 0.003476054 -0.009867498 -0.0046473653 -0.012763576
0.007349624 0.008455639 -0.0073474897 0.000506049 0.008118228 0.0038441345 -0.0019921719 0.00552187
0.00033169438 0.011636571 -0.0038958557 -0.00893087 -0.004772849 0.002062564 -0.01701831 0.007181603
0.0073018605 0.0007677428 -0.000552745 -0.013736381 -0.012848926 -0.0077678584 -0.012057926 0.0062941187
0.008300536 0.0047129667 -0.004000037 0.0028173209 0.0035616048 0.013214299 0.0020401154 0.0044443575
-0.004788938 0.0057060397 -0.007364299 0.018200668 0.009803931 -0.0020411236 0.0014351635 0.0037517294
-0.00042029697 -0.00030245402 -0.004666704 0.0075916057 -0.0016525252 -0.0066043497 -0.009390781 0.0033740178
-0.010290004 0.0024008602 -0.012262182 0.0049583376 0.011575407 0.0065492196 0.0014775144 -0.0020919011
-0.0022545634 -0.002409166 0.003856827 0.00013021429 0.029737093 0.0070918277 0.0012534774 -0.0011354396
0.0034088427 0.007003577 -0.01080173 -0.0048544416 0.0019139451 0.004790624 -0.0074112457 -0.00311444
-0.004312086 -0.0010024493 0.013965891 -0.009636397 0.0020619286 -0.016175052 0.0060291393 -0.00012489107
-0.0068334583 -0.007281878 0.0069790664 0.00020398045 3.8396705e-05 0.0024229037 -0.0068189213 0.004486014
-0.003991846 -0.0002871638 0.003560691 -0.010285244 -0.01696827 0.00075470563 0.0091496585 -0.009900341
0.0051053697 0.0027436882 0.0032274902 -0.010409631 -0.0019003658 -0.0018220468 -0.011091435 0.002103571
00000000: 3b65 063c 1a0d c1bb d3eb a7bb 903f d23a
00000010: 4d5d 603c fc64 44ba fe90 d23b 6624 66bc
00000020: b4b0 28bc 9c6a aa3a 4039 c4bb 871a 66bb
00000030: 82a4 d5bb 8218 7a3b d909 73bb d165 313c
00000040: a374 cbbb 9087 b2bb 6807 623b 85c0 59bb
00000050: 82ce 633b 49ab 21bc ed48 98bb 511e 51bc
00000060: 1dd5 f03b 8589 0a3c 36c3 f0bb 60a8 043a
00000070: 5102 053c e0ed 7b3b 198f 02bb cef0 b43b
00000080: 44e7 ad39 51a7 3e3c 9d51 7fbb c952 12bc
00000090: 8f65 9cbb 152c 073b fc69 8bbc a753 eb3b
000000a0: 7244 ef3b 5942 493a 17e6 10ba 8f0e 61bc
000000b0: 4d84 52bc 8589 febb 9b8e 45bc e53e ce3b
000000c0: f9fe 073c 3b6f 9a3b be12 83bb cda2 383b
000000d0: d069 693b ca80 583c 75b3 053b f9a1 913b
000000e0: 86ec 9cbb bbf9 ba3b 3850 f1bb 9119 953c
000000f0: aba0 203c 5fc4 05bb 191c bc3a 93df 753b
00000100: 4e5b dcb9 b192 9eb9 27eb 98bb 01c3 f83b
00000110: 8b99 d8ba 4d69 d8bb cadb 19bc a01e 5d3b
00000120: 6897 28bc c057 1d3b 52e7 48bc 8d79 a23b
00000130: c7a6 3d3c d69a d63b 28a9 c13a 4718 09bb
00000140: 4cc1 13bb 19e3 1dbb d2c2 7c3b 228a 0839
00000150: 349b f33c 9062 e83b b94b a43a 08d3 94ba
00000160: e466 5f3b 437e e53b bdf9 30bc 0212 9fbb
00000170: 57dd fa3a abfa 9c3b 09da f2bb a21b 4cbb
00000180: 664c 8dbb 9e64 83ba 31d1 643c fae1 1dbc
00000190: 6c21 073b 8b81 84bc 1690 c53b 31f5 02b9
000001a0: 34eb dfbb d29c eebb a7b0 e43b 96e3 5539
000001b0: 260c 2138 94c9 1e3b 4271 dfbb 6aff 923b
000001c0: 08ce 82bb 798e 96b9 7b5a 693b 7183 28bc
000001d0: 0b01 8bbc 70d7 453a 73e8 153c 0a35 22bc
000001e0: f24a a73b 73cf 333b 4d84 533b 288d 2abc
000001f0: b215 f9ba bfd1 eeba dab8 35bc 11dc 093b

action_model._continuous_distribution.log_sigma f4 [1, 2]
0.06251434 0.1035302
00000000: 8507 803d a407 d43d

action_model._continuous_distribution.mu.weight f4 [2, 128]
0.012703783 0.0013951147 -0.025003243 0.0367306 0.037909377 -0.021157524 -0.063906565 -0.0010721532
-0.026515866 -0.03143529 -0.03969492 -0.0201943 -0.015844928 0.017480738 0.019638458 0.021614455
-0.0066670408 0.0047615096 -0.025946245 -0.00065179163 -0.014479488 -0.014190602 -0.0110283885 0.009489028
-0.0191091 0.01627839 -0.011334357 -0.020340534 0.011729983 0.032142855 -0.0043020262 0.0058269743
0.01614518 -0.00658862 -0.0011187878 0.01225422 -0.029905483 -0.031072313 -0.0021992743 0.03185856
0.050486933 -0.010624764 0.030232148 -0.013512738 -0.020396573 -0.015127561 -0.01222261 0.058598876
0.055050515 0.018907854 0.021494925 0.00061386795 -0.03582392 0.02975898 -0.049001485 0.02380162
-0.014245274 -0.01440292 0.0016180716 -0.0012493731 0.039670855 0.00587095 0.032310814 0.015209618
0.012368444 0.014748273 -0.0134456465 -0.0073966514 -0.029008394 -0.0011890099 -0.019114869 0.02351502
-0.001371169 0.0039039813 -0.0034596622 0.0012676865 0.018556215 -0.008483325 0.042193957 -0.013811158
0.017913612 0.010627169 0.030861905 0.017865738 -0.004907207 0.03626314 0.0074762567 0.0010874448
0.027646346 0.023177858 -0.022183629 -0.023255307 0.048324548 -0.03303244 -0.016573427 0.02309647
-0.027742453 -0.028179102 0.03769594 -0.029722292 -0.0027545064 0.0062205237 0.035702817 -0.012754114
0.029038494 0.015287802 0.05644447 0.0056353533 -0.04191403 -0.022725774 0.008548295 0.022667326
0.0143873375 -0.0121087935 0.020426607 0.013457924 -0.002679869 0.0102272555 -0.0041501587 -0.015374138
0.02666193 -0.0011912736 0.016874416 -0.02205902 0.0042064483 -0.016369125 -0.0030144297 0.0066370876
-0.017524157 0.009316448 -0.001954777 -0.0041048313 0.013510037 0.035556413 -0.034533948 0.00434774
-0.005625931 -0.027328203 0.010014025 -0.053639367 -0.00043388124 0.030350924 -0.00668983 0.013675902
-0.02617135 -0.023717996 -0.010126928 0.018320316 -0.009191803 -0.012771937 -0.011812641 -0.018777445
-0.024825113 0.034020055 -0.032921024 -0.041812953 0.035975933 0.022376755 0.016562622 0.028048994
0.0012581539 -0.014231203 -0.03238217 -0.045806438 -0.05318287 -0.0062946123 -0.0017556032 0.0074321856
-0.0010953983 -0.039079275 0.006133089 -0.005835545 -0.004564844 -0.015823545 -0.013195292 0.02345999
0.03206877 0.01367311 0.011314185 -0.01172173 0.0380946 0.008308822 -0.00388572 0.026104635
0.017093267 -0.039436776 0.008328505 9.5685486e-05 0.04517562 -0.03506569 0.012796522 0.016517548
-0.017921902 0.00020204234 -0.012637847 -0.0066689923 0.006857784 -0.021649018 0.0077022887 -0.017592793
-0.00063649885 0.047879606 0.0010673706 0.00543314 -0.009849612 -0.01473286 0.0039753877 -0.029060682
0.015648386 0.014538375 0.014300912 0.020201437 -0.012432423 0.031092905 0.02288167 -0.0019149565
0.014832697 0.017316157 -0.008189027 0.008522802 0.006271619 -0.02100906 -0.027914451 0.00879016
-0.029533796 0.020986792 -0.012177231 -0.0015152122 0.032536376 0.000512746 -0.008079988 -0.010242973
-0.0026324692 0.015918424 0.02613003 0.016931009 0.024048902 -0.0018793687 -0.0014506021 0.034176063
-0.019545602 -0.0016732891 -0.006026903 -0.031945728 0.00046228443 -0.04232356 0.012978267 -0.016865142
0.022579936 0.031145403 0.0040402357 -0.007683576 -0.015487919 0.017252404 0.0015179667 0.003601714
00000000: 8723 503c 48dc b63a 9ad3 ccbc d372 163d
00000010: dd46 1b3d 8b52 adbc 72e1 82bd 7e87 8cba
00000020: cd37 d9bc 4ac2 00bd 2497 22bd 846e a5bc
00000030: 39cd 81bc c433 8f3c d5e0 a03c cc10 b13c
00000040: 3177 dabb 7006 9c3b 388d d4bc ffdc 2aba
00000050: 603b 6dbc b37f 68bc 6ab0 34bc de77 1b3c
00000060: b08a 9cbc 425a 853c bdb3 39bc 31a1 a6bc
00000070: 1d2f 403c 3aa8 033d 03f8 8cbb 34f0 be3b
00000080: e642 843c 5ae5 d7bb 4aa4 92ba edc5 483c
00000090: 58fc f4bc 5d8b febc b321 10bb 1f7e 023d
000000a0: 63cb 4e3d 7d13 2ebc 69a9 f73c 8864 5dbc
000000b0: b716 a7bc 97d9 77bc 5841 48bc 6005 703d
000000c0: a67c 613d a5e4 9a3c 2016 b03c fbeb 203a
000000d0: 1abc 12bd 1bc9 f33c c8b5 48bd 9dfb c23c
000000e0: 0265 69bc 3afa 6bbc 7915 d43a 01c2 a3ba
000000f0: e87d 223d 1961 c03b 5858 043d c331 793c
00000100: 04a5 4a3c bea2 713c 214b 5cbc 9c5f f2bb
00000110: 03a3 edbc 8dd8 9bba c996 9cbc 92a2 c03c
00000120: ccb8 b3ba f0d9 7f3b 80bb 62bb 8028 a63a
00000130: 3403 983c a5fd 0abc 92d3 2c3d 3248 62bc
00000140: 91bf 923c 941d 2e3c 1bd2 fc3c 2b5b 923c
00000150: a3cc a0bb a988 143d 63fb f43b 9888 8e3a
00000160: 977a e23c 7edf bd3c 71ba b5bc ea81 bebc
00000170: f6ef 453d 064d 07bd ffc4 87bc cf34 bd3c
00000180: 2444 e3bc dcd7 e6bc 0f67 1a3d 2a7c f3bc
00000190: f384 34bb 89d5 cb3b 1e3d 123d a2f6 50bc
000001a0: 23e2 ed3c b079 7a3c 5132 673d c5a8 b83b
000001b0: 0cae 2bbd 672b babc 260e 0c3c d4b0 b93c
000001c0: deb8 6b3c f663 46bc b355 a73c a07e 5c3c
000001d0: bea0 2fbb 3890 273c 0efe 87bb cfe3 7bbc
000001e0: 1f6a da3c 8224 9cba 373c 8a3c 1eb5 b4bc
000001f0: 3fd6 893b 8b18 86bc bd8d 45bb ed7b d93b
00000200: d28e 8fbc 04a4 183c b71b 00bb d281 86bb
00000210: 3459 5d3c 9aa3 113d 7873 0dbd 7d77 8e3b
00000220: bb59 b8bb 65df dfbc dd11 243c f4b4 5bbd
00000230: 8e7a e3b9 80a2 f83c 5d36 dbbb e410 603c
00000240: 4d65 d6bc 3e4c c2bc 6aeb 25bc 7d14 963c
00000250: 3799 16bc 6341 51bc cf89 41bc 28d3 99bc
00000260: 095e cbbc 9d58 0b3d 32d8 06bd 0f44 2bbd
00000270: 805b 133d 754f b73c 56ae 873c 01c7 e53c
00000280: a4e8 a43a fe29 69bc 2ba3 04bd 889f 3bbd
00000290: 48d6 59bd 0943 cebb 451c e6ba b189 f33b
000002a0: 7893 8fba 9711 20bd 14f8 c83b 1938 bfbb
000002b0: b094 95bb 61a0 81bc 1131 58bc 2a2f c03c
000002c0: 8b5a 033d 2e05 603c 225f 393c 800c 40bc
000002d0: 1509 1c3d ba21 083c 90a7 7ebb 63d9 d53c
000002e0: 2e07 8c3c 7588 21bd 4874 083c c1aa c838
000002f0: 120a 393d 0aa1 0fbd 81a8 513c cf4f 873c
00000300: f4d0 92bc 54db 5339 f90e 4fbc 9087 dabb
00000310: 43b7 e03b 4859 b1bc 7b63 fc3b c31e 90bc
00000320: b7da 26ba 681d 443d 04e7 8b3a 7b08 b23b
00000330: 4460 21bc 1862 71bc f843 823b ab10 eebc
00000340: 0b31 803c 5d32 6e3c 5f4e 6a3c 7c7d a53c
00000350: 5db1 4bbc 8cb6 fe3c 5772 bb3c 47ff faba
00000360: d704 733c 9dda 8d3c 452b 06bc 39a3 0b3c
00000370: 2782 cd3b 311b acbc d9ac e4bc 9a04 103c
00000380: dcf0 f1bc 7eec ab3c 0283 47bc 169a c6ba
00000390: dd44 053d cd69 063a ed61 04bc 25d2 27bc
000003a0: 8185 2cbb 5b67 823c a50e d63c e6b2 8a3c
000003b0: 3402 c53c 2655 f6ba 2122 beba 33fc 0b3d
000003c0: 191e a0bc 4452 dbba 547d c5bb 86d9 02bd
000003d0: c45e f239 785b 2dbd cca2 543c c428 8abc
000003e0: 8ff9 b83c a524 ff3c f463 843b 82c6 fbbb
000003f0: 0ac1 7dbc ea54 8d3c 83f6 c63a bc0a 6c3b

action_model._continuous_distribution.mu.bias f4 [2]
0.0026540365 0.008533769
00000000: 58ef 2d3b 39d1 0b3c

exp_avg f4 [128, 36]
-2.6310743e-05 -2.206753e-05 4.1915174e-10 -2.65994e-05 -3.988954e-05 2.8321945e-06 -1.1330788e-05 -4.3295946e-05
-5.4655182e-05 1.0239119e-07 6.1732007e-06 -4.4056065e-05 1.6603262e-05 6.74908e-06 -7.1436385e-05 -5.1978248e-05
-1.3455345e-05 1.1741286e-05 -4.640432e-05 -5.4053588e-05 -3.35063e-05 -1.4669601e-05 1.6200694e-33 -3.185022e-05
-5.976863e-05 1.1596999e-05 -7.1404192e-37 -4.8868435e-05 -5.5177905e-05 7.0027913e-06 3.553186e-33 -4.3292363e-05
-6.0884573e-05 1.2712942e-05 -7.116021e-38 -4.252741e-05 1.2614291e-05 8.591102e-06 -1.8249807e-10 1.0356452e-05
1.6264008e-05 4.384919e-06 5.5366917e-07 1.3765758e-05 2.3597098e-05 -1.148582e-07 -2.276327e-06 1.7122988e-05
5.7873203e-06 1.2130876e-07 1.5279611e-05 2.0369132e-05 7.441612e-06 4.706972e-06 9.047923e-06 1.9164083e-05
1.998162e-05 1.2184986e-06 -5.910115e-35 1.7753013e-05 2.218553e-05 -9.820492e-07 4.7479404e-37 1.8689327e-05
2.2042297e-05 -8.3536787e-07 -2.3214454e-33 1.7563321e-05 1.9951178e-05 1.252264e-06 3.62406e-38 1.66338e-05
7.484983e-06 1.2048435e-05 -2.6203076e-10 6.276664e-06 9.674875e-06 8.559586e-06 1.2966887e-06 8.928544e-06
2.3590943e-05 2.3206004e-08 -4.080148e-06 1.5087681e-05 9.881525e-06 6.1053714e-07 9.018833e-06 1.801801e-05
9.161054e-06 3.5111057e-06 6.8359145e-06 1.7922603e-05 1.837659e-05 1.1359386e-06 4.4195865e-34 1.6793098e-05
2.1602053e-05 -2.089e-06 -9.889495e-38 1.781047e-05 1.951696e-05 -9.961809e-10 1.1322263e-33 1.5814767e-05
1.7593133e-05 1.9198862e-06 -1.1986407e-38 1.5156531e-05 1.0009891e-05 5.0762346e-06 -4.1766642e-11 8.309584e-06
8.757603e-06 5.2629193e-06 1.0657122e-06 8.694466e-06 1.7429022e-05 -8.226181e-08 -2.2603617e-06 1.2719079e-05
2.151624e-06 -1.0177496e-06 1.39139265e-05 1.4975736e-05 6.554756e-06 -7.531923e-07 9.252003e-06 1.5433601e-05
1.222533e-05 2.8389686e-06 -2.805708e-34 1.1420327e-05 1.7082062e-05 -2.0179743e-06 2.3968352e-37 1.4051565e-05
1.7013166e-05 -1.9479983e-06 -1.3545292e-33 1.3376501e-05 1.679456e-05 -1.7304759e-06 1.3401521e-38 1.26955065e-05
1.829012e-05 2.051953e-05 -1.5415076e-10 1.6725593e-05 2.9449337e-05 6.485319e-06 2.8747027e-06 2.6338967e-05
4.3381122e-05 -1.1740218e-07 -4.453166e-06 3.228103e-05 5.838665e-06 -2.930491e-06 3.5821773e-05 3.9413506e-05
1.8268416e-05 1.5452777e-07 2.0319367e-05 3.8772367e-05 3.48648e-05 3.9055217e-06 -6.320476e-34 3.1594944e-05
4.438063e-05 -5.6072836e-06 3.0314178e-37 3.6632788e-05 4.4947188e-05 -6.167848e-06 -2.8257957e-33 3.496199e-05
3.9729468e-05 -9.561777e-07 1.656447e-38 3.1285774e-05 3.6748268e-06 -3.5453404e-06 7.707689e-11 -3.1807506e-06
-6.6202047e-06 1.7639737e-05 -1.0911761e-05 -1.5637863e-05 6.359287e-06 3.548893e-07 -6.5851323e-06 -5.7508305e-06
3.3520562e-05 3.371792e-06 -3.6534202e-05 -2.6502025e-06 9.7175225e-06 1.2880586e-05 -2.227855e-05 -6.174872e-06
1.0255543e-05 -9.974522e-06 6.8213496e-34 7.860292e-06 -7.5481184e-06 7.843294e-06 -1.5804084e-37 -5.396525e-06
-2.350671e-06 2.645855e-06 1.9850375e-33 -1.5370362e-06 -7.845339e-06 8.140511e-06 -1.199235e-38 -1.6423571e-06
4.614326e-05 7.722994e-05 -5.6252186e-10 4.7051257e-05 8.9968875e-05 2.2704296e-05 1.0698087e-05 8.301526e-05
0.00013073356 -1.948975e-07 -7.163018e-06 0.00010382816 2.37237e-05 -1.9490467e-06 0.00010141238 0.00011929167
5.7639343e-05 2.1183148e-06 6.345683e-05 0.00012271595 0.00010827015 1.50099995e-05 -1.4297125e-33 9.8568315e-05
0.00014344713 -2.0155936e-05 5.0324973e-37 0.00011776352 0.00013411109 -1.0801778e-05 -8.950924e-33 0.00010619623
0.00012322319 6.787519e-08 7.1816866e-38 9.8095785e-05 -8.8234145e-07 -1.3679701e-05 -2.7677713e-10 5.5313835e-06
00000000: e4b5 dcb7 a91d b9b7 5d6e e62f c721 dfb7
00000010: 114f 27b8 bb10 3e36 5d19 3eb7 ab98 35b8
00000020: 8e3d 65b8 27e2 db33 6423 cf36 d7c8 38b8
00000030: 3c47 8b37 2876 e236 1ed0 95b8 3803 5ab8
00000040: 44be 61b7 70fc 4437 42a2 42b8 99b7 62b8
00000050: 1e89 0cb8 751d 76b7 1197 0609 ea96 05b8
00000060: 14b0 7ab8 bb90 4237 d3f9 7283 15f8 4cb8
00000070: d36e 67b8 85f9 ea36 f497 9309 d294 35b8
00000080: 505e 7fb8 ac49 5537 6eb7 c181 755f 32b8
00000090: f8a1 5337 8122 1037 a4a8 48af 9fc0 2d37
000000a0: b16e 8837 2b22 9336 db9f 1435 7bf3 6637
000000b0: 62f2 c537 f7a7 f6b3 00c3 18b6 56a3 8f37
000000c0: b430 c236 1941 0234 b72c 8037 61de aa37
000000d0: f6b2 f936 95f0 9d36 89cc 1737 8ec2 a037
000000e0: 349e a737 4b8b a335 291e 9d86 4eec 9437
000000f0: 101b ba37 f4ce 83b5 6590 2103 06c7 9c37
00000100: 79e7 b837 0b3e 60b5 afdb 4089 f254 9337
00000110: d45c a737 7713 a835 0650 4501 d088 8b37
00000120: 8427 fb36 a223 4a37 8d0d 90af 229c d236
00000130: 4651 2237 249b 0f37 e209 ae35 cecb 1537
00000140: 2ae5 c537 8b56 c732 34e8 88b6 1921 7d37
00000150: d4c8 2537 cbe3 2335 984f 1737 6225 9737
00000160: 6db2 1937 56a0 6b36 0f60 e536 7f58 9637
00000170: 6d27 9a37 8e76 9835 afdd 1208 e7de 8c37
00000180: 0e36 b537 bf30 0cb6 dc9b 0682 b167 9537
00000190: 5ab8 a337 00ea 88b0 951f bc08 f4a9 8437
000001a0: f794 9337 65d7 0036 3a85 8280 ce48 7e37
000001b0: 28f0 2737 8654 aa36 0fb1 37ae 6469 0b37
000001c0: 9eed 1237 2298 b036 9809 8f35 72de 1137
000001d0: 8a34 9237 e9a7 b0b3 b8b0 17b6 0764 5537
000001e0: 9e64 1036 9c99 88b5 dc6f 6937 4c40 7b37
000001f0: edf0 db36 fb2e 4ab5 0d39 1b37 6877 8137
00000200: 641b 4d37 1c85 3e36 a678 ba87 ee99 3f37
00000210: 734b 8f37 896c 07b6 c21e a302 03bf 6b37
00000220: 7fb7 8e37 5bba 02b6 4d0f e188 a26b 6037
00000230: 0be2 8c37 b342 e8b5 fded 9100 c9fe 5437
00000240: bc6d 9937 5b21 ac37 957d 29af f04d 8c37
00000250: f809 f737 779c d936 04eb 4036 80f2 dc37
00000260: 20f4 3538 881e fcb3 686c 95b6 7e65 0738
00000270: c0e9 c336 74a9 44b6 563f 1638 ee4f 2538
00000280: 203f 9937 45ec 2534 8273 aa37 839f 2238
00000290: cb3b 1238 2d0c 8336 aa08 5288 d084 0438
000002a0: 5725 3a38 3326 bcb6 bf4e ce02 28a6 1938
000002b0: ad85 3c38 69f5 ceb6 07c2 6a89 27a4 1238
000002c0: 31a3 2638 0456 80b5 015f b400 d838 0338
000002d0: 0b9d 7636 7cec 6db6 6e7e a92e e174 55b6
000002e0: 2023 deb6 0cf9 9337 a811 37b7 0e2e 83b7
000002f0: dc61 d536 9d87 be34 dbf5 dcb6 42f7 c0b6
00000300: 6e98 0c38 f246 6236 4d3c 19b8 22da 31b6
00000310: 7108 2337 b219 5837 d2e2 bab7 bf31 cfb6
00000320: 390f 2c37 3f58 27b7 a0ad 6208 b2df 0337
00000330: d845 fdb6 b196 0337 321d 5782 cc13 b5b6
00000340: 38c0 1db6 718f 3136 14e9 2409 294c ceb5
00000350: 799f 03b7 3b93 0837 cb95 8280 f66e dcb5
00000360: f389 4138 82f6 a138 f59f 1ab0 e758 4538
00000370: acad bc38 1b75 be37 ef7b 3337 7a18 ae38
00000380: 8615 0939 0445 51b4 db59 f0b6 52be d938
00000390: 4202 c737 5ecc 02b6 5bad d438 3a2c fa38
000003a0: c6c1 7138 5f28 0e36 2014 8538 50ad 0039
000003b0: 180f e338 75d3 7b37 3f8d ed88 76b6 ce38
000003c0: 4c6a 1639 8b14 a9b7 3c3f 2b03 cff7 f638
000003d0: 2ca0 0c39 4939 35b7 46e7 398a abb5 de38
000003e0: 7935 0139 c8c2 9133 0d81 c301 c6b8 cd38
000003f0: 0bda 6cb5 de81 65b7 eb28 98af 399a b936

exp_avg_sq f4 [128, 36]
1.5416757e-07 8.458874e-09 2.3250588e-09 9.112538e-08 1.4787915e-07 9.053768e-09 8.265408e-09 1.1207569e-07
1.3985759e-07 6.7667343e-09 1.5572478e-08 1.01309695e-07 6.167914e-08 4.691941e-09 9.9235656e-08 1.4845463e-07
9.149899e-08 8.8075485e-09 6.9704946e-08 1.305862e-07 1.5943843e-07 3.7032333e-09 7.94508e-10 1.1268213e-07
1.5542928e-07 2.780135e-09 5.7840777e-09 1.2396879e-07 1.5896451e-07 5.8378946e-09 3.909212e-12 1.0130612e-07
1.6213147e-07 2.794727e-09 1.5706436e-09 1.09118915e-07 2.5774744e-08 1.6464576e-09 1.3973316e-09 1.630797e-08
2.3361276e-08 2.2777005e-09 3.568791e-09 1.9499714e-08 2.432471e-08 1.472583e-09 2.885697e-09 1.7462432e-08
1.1276855e-08 1.5865061e-09 1.716617e-08 2.5384923e-08 1.5095049e-08 1.8622154e-09 1.2401186e-08 2.2073227e-08
2.8546546e-08 5.109849e-10 3.7089016e-11 1.9655543e-08 2.699045e-08 9.340576e-10 1.1504437e-09 2.1149857e-08
2.7812648e-08 1.0702134e-09 2.2668267e-12 1.7537866e-08 2.7929948e-08 5.9643107e-10 3.837519e-10 1.8809052e-08
6.594573e-09 9.542275e-11 1.1673089e-10 3.788483e-09 6.269268e-09 2.6821145e-10 2.827017e-10 4.6394892e-09
6.1053376e-09 1.401467e-10 4.0698578e-10 4.0907184e-09 2.833972e-09 3.3974654e-10 3.7674224e-09 6.043413e-09
3.8464583e-09 3.1738256e-10 2.7546145e-09 5.2633538e-09 6.72604e-09 5.94542e-11 6.2954906e-12 4.6183986e-09
6.3657604e-09 1.9550705e-10 2.1891887e-10 5.0919784e-09 6.6102497e-09 1.4526993e-10 1.7702602e-13 4.2075707e-09
6.6060935e-09 1.8200934e-10 4.8859212e-11 4.4927226e-09 5.1895404e-09 7.361612e-10 1.8004771e-11 2.9429845e-09
5.614564e-09 1.8808938e-10 1.1736642e-10 3.8723535e-09 5.0381077e-09 4.81602e-10 3.5054812e-10 3.3949918e-09
2.4190183e-09 1.9400995e-10 3.4156464e-09 5.099944e-09 2.542684e-09 1.0067794e-09 2.6091393e-09 4.012994e-09
5.648971e-09 1.9352456e-10 6.3896293e-12 3.896489e-09 5.784926e-09 1.02908536e-10 9.566245e-11 4.20103e-09
5.5025158e-09 4.724953e-10 2.9415186e-13 3.4698797e-09 5.85447e-09 3.4373726e-11 4.8624625e-11 3.9549417e-09
1.3801963e-08 4.527926e-10 2.6112903e-12 8.120058e-09 1.3064111e-08 5.583596e-10 5.983042e-10 9.888108e-09
1.3208846e-08 4.09431e-10 3.880106e-10 9.143567e-09 4.8514233e-09 6.4548733e-10 9.094261e-09 1.3054234e-08
7.1605326e-09 6.371938e-10 6.7248913e-09 1.1961504e-08 1.3868254e-08 2.1280608e-10 8.975735e-13 9.843471e-09
1.3232322e-08 3.613673e-10 6.5143285e-10 1.0813469e-08 1.2899516e-08 1.5423341e-09 6.5728705e-13 8.328304e-09
1.3983822e-08 2.4662572e-10 4.3460357e-11 9.319771e-09 2.7414181e-08 1.8497949e-09 2.5276162e-10 1.7523414e-08
2.3174568e-08 1.7771071e-09 4.383896e-09 2.128704e-08 2.4432591e-08 2.0867417e-09 2.4070386e-09 1.972561e-08
9.309815e-09 5.364013e-10 1.871454e-08 2.7471659e-08 1.0690857e-08 2.5723046e-09 1.6055607e-08 2.4487518e-08
2.85916e-08 7.374701e-10 9.834492e-12 2.0814404e-08 2.8148696e-08 8.836266e-10 4.961743e-10 2.2132042e-08
2.9332963e-08 5.520913e-10 5.2557074e-13 1.8685826e-08 2.9243841e-08 5.207645e-10 3.9415485e-11 1.9026887e-08
1.1957087e-07 3.4878707e-09 3.0216177e-11 7.3137265e-08 1.0849349e-07 7.938402e-09 8.08793e-09 8.669669e-08
1.1575007e-07 2.5027302e-09 1.9789275e-09 8.275065e-08 3.662584e-08 5.9535754e-09 8.360899e-08 1.1588322e-07
5.6168716e-08 6.0549836e-09 6.250619e-08 1.07582e-07 1.17578956e-07 3.8306083e-09 7.416884e-12 8.531299e-08
1.1613707e-07 6.036285e-09 1.1506207e-09 9.171709e-08 1.1841903e-07 7.019348e-09 6.293873e-12 7.555693e-08
1.1980545e-07 3.3781669e-09 5.138166e-10 7.943973e-08 1.3216007e-07 5.1796523e-09 1.0742298e-09 8.223191e-08
00000000: 4289 2534 8552 1132 dec6 1f31 b5b0 c333
00000010: b6c8 1e34 e58a 1b32 a6ff 0d32 43ae f033
00000020: c32b 1634 d380 e831 3ec4 8532 988f d933
00000030: 7774 8433 c036 a131 611b d533 e666 1f34
00000040: 1a7e c433 0250 1732 b3b0 9533 4337 0c34
00000050: 1a32 2b34 f87b 7e31 8864 5a30 a8fb f133
00000060: 13e4 2634 a70c 3f31 49bd c631 481c 0534
00000070: d5af 2a34 aa96 c831 0d8b 892c a18d d933
00000080: 5c16 2e34 5b0d 4031 1cde d730 c254 ea33
00000090: 4367 dd32 9449 e230 3c0c c030 9b15 8c32
000000a0: fdab c832 bb85 1c31 d63e 7531 5380 a732
000000b0: 9af2 d032 e963 ca30 b84d 4631 4b00 9632
000000c0: 22bc 4132 390c da30 cf74 9332 090e da32
000000d0: 5daa 8132 e1f0 ff30 fe0c 5532 8a9b bd32
000000e0: 8536 f532 5e75 0c30 851e 232e ffd6 a832
000000f0: a1d8 e732 3b60 8030 a41d 9e30 07ad b532
00000100: a9e8 ee32 c916 9330 8583 1f2c 2da6 9632
00000110: 9bea ef32 1bf2 2330 47f8 d22f 8b91 a132
00000120: 7a96 e231 3cd6 d12e d358 002f d92b 8231
00000130: 1169 d731 6873 932f ba6a 9b2f 6169 9f31
00000140: 1ec7 d131 ca17 1a2f 28be df2f 578e 8c31
00000150: c3bf 4231 13c7 ba2f 9972 8131 6ca6 cf31
00000160: ce29 8431 a07b ae2f b14b 3d31 f3d8 b431
00000170: e01a e731 bdbd 822e bd80 dd2c ddaf 9e31
00000180: d2b9 da31 58f6 562f 2fb4 702f 84f5 ae31
00000190: 5f20 e331 dab9 1f2f 4750 472a 2f92 9031
000001a0: d0fb e231 131f 482f 95e2 562e 685e 9a31
000001b0: ae4f b231 bd5a 4a30 245f 9e2d 883d 4a31
000001c0: 3aea c031 74ce 4e2f b60b 012f 950d 8531
000001d0: aa1b ad31 ba61 0430 43b7 c02f 544d 6931
000001e0: d23b 2631 f250 552f b0b8 6a31 953b af31
000001f0: 5fbb 2e31 e75e 8a30 774c 3331 abe2 8931
00000200: e018 c231 52c8 542f aad0 e02c e1e1 8531
00000210: bfc4 c631 5b4c e22e 2c5d d22e a758 9031
00000220: a410 bd31 e7e0 0130 c097 a52a c572 6e31
00000230: 7628 c931 602d 172e 76da 552e 09e4 8731
00000240: ad1d 6d32 e5ec f82f d3c0 372c 6580 0b32
00000250: 9170 6032 107b 1930 ea75 2430 5ce0 2932
00000260: 1eed 6232 4a16 e12f a34f d52f d515 1d32
00000270: 92b1 a631 226e 3130 fc3c 1c32 2145 6032
00000280: b608 f631 8726 2f30 c510 e731 407f 4d32
00000290: 3a41 6e32 96fb 692f fda4 7c2b 0b1c 2932
000002a0: 5e54 6332 eda9 c62f 8310 3330 24c6 3932
000002b0: ac9c 5d32 0ffa d330 8602 392b 4514 0f32
000002c0: 803d 7032 7c95 872f 0324 3f2e c91c 2032
000002d0: 6c7c eb32 df3b fe30 09f5 8a2f 6586 9632
000002e0: 6a11 c732 663e f430 28a1 9631 b2da b632
000002f0: d6df d132 5966 0f31 1269 2531 1371 a932
00000300: 00f1 1f32 e371 1330 b5c1 a032 d1fa eb32
00000310: e3aa 3732 76c4 3031 a7ea 8932 9f58 d232
00000320: 9899 f532 d8b6 4a30 9d02 2d2d 5ccb b232
00000330: a3cb f132 b2e3 7230 2a63 0830 e01c be32
00000340: def7 fb32 f9c1 1730 5def 132b 9182 a032
00000350: e333 fb32 8b25 0f30 e459 2d2e 9170 a332
00000360: 6463 0034 45af 6f31 64e4 042e a30f 9d33
00000370: edfc e833 7661 0832 18f3 0a32 022e ba33
00000380: 4692 f833 7ffc 2b31 a9fd 0731 a7b4 b133
00000390: 894e 1d33 3490 cc31 878c b333 79db f833
000003a0: 283e 7133 330c d031 243b 8633 d407 e733
000003b0: b77f fc33 639e 8331 ad7a 022d 5035 b733
000003c0: 0867 f933 b967 cf31 de23 9e30 01f6 c433
000003d0: 8d4d fe33 d72e f131 2b72 dd2c dd41 a233
000003e0: dfa3 0034 5725 6831 a13c 0d30 7498 aa33
000003f0: e2e7 0d34 b4f8 b131 1aa4 9330 7897 b033

exp_avg f4 [128]
-4.8170838e-05 2.1203388e-05 1.9512823e-05 1.5064027e-05 3.877312e-05 2.9560815e-07 0.00012329046 -1.4686067e-05
-8.668067e-05 1.2052106e-05 -0.0001038152 0.00010620382 -3.3510136e-05 -7.715457e-05 -2.0485035e-05 -1.789357e-05
1.14701825e-05 7.936593e-05 -1.9131538e-05 -2.725808e-05 8.091673e-05 -4.0041352e-05 -8.915393e-06 -1.5955222e-05
3.8999377e-05 0.00011056053 -6.4939236e-06 5.5064254e-05 -2.7864624e-05 3.3917604e-05 -1.9781464e-05 -0.00010901646
-0.00010292351 -2.033216e-06 3.790788e-06 -8.838031e-05 -5.112837e-06 4.3051564e-06 -3.926422e-05 3.4797554e-06
7.01501e-05 5.4805492e-05 5.9999347e-05 -6.84256e-05 1.1040261e-05 6.843308e-05 2.3208581e-06 6.2814875e-06
3.8844496e-06 -2.0735537e-05 3.047129e-06 -3.4064913e-05 1.9576207e-06 -7.2368e-05 -4.85507e-05 0.00013598848
-0.000116406954 -7.168024e-05 1.7832212e-05 -2.1014837e-05 -9.1025126e-05 0.000112384725 -5.593594e-06 -9.02026e-06
6.2570825e-06 -0.000106124695 -8.475315e-06 -1.1141349e-05 -0.00010423334 4.1902586e-05 -9.402453e-06 1.7948727e-05
8.034564e-06 8.030476e-05 -8.415263e-05 0.00011427112 1.3117415e-06 1.261859e-05 -1.9333287e-05 5.4211552e-05
0.00016018003 -1.6046719e-05 -8.3227475e-05 -2.0010342e-05 -8.765171e-06 -3.9182567e-05 -4.5168388e-05 2.7934391e-05
8.346758e-06 -1.1808658e-05 -0.00016728225 4.0370993e-05 1.7587115e-06 1.3189222e-05 2.703836e-05 2.20665e-05
-1.836539e-05 -9.2010705e-06 -4.052595e-05 -5.2081696e-06 7.435518e-06 -3.591047e-05 2.7014135e-06 2.2617765e-05
3.5907422e-05 2.687255e-05 3.39513e-05 -3.5411882e-05 5.6302037e-05 -9.392513e-05 -1.3882145e-05 -0.00012079163
-1.0390062e-05 5.534333e-05 8.916885e-06 1.2016225e-05 -0.00027003483 -6.6438974e-06 -3.9361028e-05 -4.4544653e-05
-1.5381625e-07 2.7939677e-05 3.509809e-05 -2.4073996e-05 5.4952056e-05 2.0560292e-05 4.483472e-05 -4.6232573e-05
00000000: 0b0b 4ab8 eedd b137 78af a337 81bb 7c37
00000010: 52a0 2238 13b4 9e34 8847 0139 2d64 76b7
00000020: 55c8 b5b8 6733 4a37 5cb7 d9b8 beb9 de38
00000030: 3c8d 0cb8 0bce a1b8 47d7 abb7 261a 96b7
00000040: 0f70 4037 4271 a638 aa7c a0b7 48a8 e4b7
00000050: d7b1 a938 13f2 27b8 5293 15b7 94d7 85b7
00000060: 4393 2338 bcdc e738 61e6 d9b6 cbf4 6638
00000070: d3be e9b7 c042 0e38 5ff0 a5b7 c49f e4b8
00000080: a4d8 d7b8 6372 08b6 3e65 7e36 d158 b9b8
00000090: ef8e abb6 0375 9036 a3af 24b8 be85 6936
000000a0: 8c1d 9338 f3de 6538 cfa7 7b38 b77f 8fb8
000000b0: 8f39 3937 bb83 8f38 0ac0 1b36 91c5 d236
000000c0: 2b57 8236 3af1 adb7 477d 4c36 ece0 0eb8
000000d0: ab5f 0336 46c4 97b8 eba2 4bb8 2198 0e39
000000e0: 821f f4b8 0953 96b8 6296 9537 0549 b0b7
000000f0: bee4 beb8 17b0 eb38 9bb0 bbb6 b955 17b7
00000100: eef3 d136 438f deb8 3331 0eb7 bbeb 3ab7
00000110: d997 dab8 8fc0 2f38 3abf 1db7 9990 9637
00000120: 31cc 0637 4a69 a838 197b b0b8 d7a4 ef38
00000130: 180f b035 6eb4 5337 eb2d a2b7 3661 6338
00000140: 00f6 2739 119c 86b7 698a aeb8 e2db a7b7
00000150: 1f0e 13b7 f657 24b8 3073 3db8 a654 ea37
00000160: 0d09 0c37 cd1d 46b7 7d68 2fb9 0654 2938
00000170: de0c ec35 4747 5d37 70d0 e237 731b b937
00000180: 600f 9ab7 4c5e 1ab7 68fa 29b8 d6c1 aeb6
00000190: 9d7e f936 939e 16b8 ee49 3536 48bb bd37
000001a0: 4d9b 1638 5d6c e137 ee66 0e38 3887 14b8
000001b0: da25 6c38 acf9 c4b8 5ce7 68b7 8351 fdb8
000001c0: fa50 2eb7 7320 6838 bb99 1537 4b99 4937
000001d0: 7693 8db9 a5ee deb6 9517 25b8 75d5 3ab8
000001e0: b028 25b4 0060 ea37 4a36 1338 83f2 c9b7
000001f0: 527c 6638 e478 ac37 ea0c 3c38 d9e9 41b8

exp_avg_sq f4 [128]
1.6523857e-07 2.9064333e-08 6.801581e-09 5.925874e-09 1.4229113e-08 2.9504251e-08 1.2307119e-07 1.3892864e-07
8.377737e-08 1.1288617e-08 3.9884088e-07 1.06910576e-07 4.7288045e-09 3.1456128e-07 8.652156e-08 2.0714555e-08
2.8102958e-08 1.04369384e-07 8.5566e-09 9.19969e-08 5.6114803e-08 6.4980405e-08 1.7184446e-08 3.8009573e-09
1.3070489e-08 9.9857665e-08 2.2383785e-08 2.4617645e-08 9.528358e-09 1.8388578e-08 4.950724e-09 2.545505e-07
9.766819e-08 2.4787467e-10 7.28309e-08 5.017896e-08 5.3038693e-09 1.0011797e-09 8.344063e-08 4.9519894e-08
1.3924769e-08 6.404031e-08 3.6481985e-08 1.7897234e-07 1.6275577e-07 4.032655e-08 1.7067608e-10 1.9993392e-08
1.7027879e-09 2.4516368e-08 6.049167e-10 7.895797e-08 2.4273941e-08 1.3142727e-07 4.4456065e-08 1.5488159e-07
1.3974807e-07 7.990628e-08 3.9495998e-09 8.981133e-09 5.0387772e-08 1.273817e-07 8.238409e-09 3.0159345e-08
2.3672406e-08 2.2867253e-07 3.803099e-09 7.226569e-08 1.00236775e-07 5.2864113e-08 4.4587182e-08 7.1999695e-09
2.5869318e-10 1.4309181e-07 1.202396e-07 3.1083653e-07 1.7393546e-10 1.9274407e-09 3.0378686e-08 2.9021031e-08
1.3749859e-07 2.0085917e-08 7.8846476e-08 6.0947145e-09 2.271845e-09 4.043525e-08 7.4579496e-08 3.362011e-08
1.1109864e-09 2.1302776e-07 2.880731e-07 1.2216968e-07 2.6915445e-10 1.1193163e-08 5.5807703e-08 2.7177258e-08
1.6405094e-08 7.302391e-08 1.0709086e-08 3.666166e-08 6.3222756e-09 1.0974757e-08 3.7747672e-10 1.5726642e-09
1.607412e-07 4.9896123e-09 1.6126654e-08 2.9328553e-09 1.8658294e-07 2.4965806e-07 6.1675884e-08 9.256309e-08
1.1843677e-09 6.338596e-08 1.0357168e-08 1.3402122e-09 5.7931175e-07 4.4381363e-08 3.479648e-08 1.2650263e-07
1.8749764e-09 4.1564394e-07 1.7430043e-08 6.85845e-09 2.1959599e-08 7.318473e-09 2.2003395e-08 8.965611e-09
00000000: 6f6c 3134 25a9 f932 57b3 e931 8a9c cb31
00000010: 4d74 7432 8970 fd32 8d25 0434 6a2c 1534
00000020: 19e9 b333 ddef 4132 4620 d634 b696 e533
00000030: 017b a231 f9e0 a834 bbcd b933 caef b132
00000040: 0f67 f132 ad21 e033 5300 1332 d58f c533
00000050: e102 7133 5b8b 8b33 ff9c 9332 9399 8231
00000060: 9e8c 6032 5571 d633 7746 c032 c676 d332
00000070: 29b2 2332 e9f4 9d32 071b aa31 28a9 8834
00000080: a8bd d133 4245 882f 3667 9c33 5a84 5733
00000090: 543d b631 e199 8930 f92f b333 b3af 5433
000000a0: c839 6f32 8886 8933 5eb0 1c33 8b2b 4034
000000b0: f7c1 2e34 8333 2d33 0ca9 3b2f efbd ab32
000000c0: 8607 ea30 1098 d232 3a47 2630 9a8f a933
000000d0: f682 d032 741e 0d34 f6ef 3e33 874d 2634
000000e0: a80d 1634 f198 ab33 0cb5 8731 714b 1a32
000000f0: f169 5833 6ac6 0834 e888 0d32 8d88 0133
00000100: 2c58 cb32 0789 7534 6aac 8231 7c30 9b33
00000110: c041 d733 b50c 6333 2080 3f33 9a63 f731
00000120: d437 8e2f c7a4 1934 361b 0134 0ce1 a634
00000130: 7b3e 3f2f e573 0431 b879 0233 ec49 f932
00000140: 53a3 1334 6689 ac32 4f52 a933 ad69 d131
00000150: b81e 1c31 07ab 2d33 8328 a033 b465 1033
00000160: 5cb1 9830 a0bc 6434 77a8 9a34 bf2d 0334
00000170: 1ff8 932f 0d4c 4032 38b1 6f33 6c73 e932
00000180: 2feb 8c32 52d1 9c33 0ffb 3732 ec75 1d33
00000190: 533b d931 7e8b 3c32 2085 cf2f 3425 d830
000001a0: 3498 2c34 1871 ab31 e386 8a32 568b 4931
000001b0: 8757 4834 be08 8634 ad72 8433 19c7 c633
000001c0: 3cc7 a230 cd1e 8833 4eef 3132 8632 b830
000001d0: 0082 1b35 d39d 3e33 2273 1533 c7d4 0734
000001e0: efd8 0031 ab25 df34 12b9 9532 90a7 eb31
000001f0: aba1 bc32 f875 fb31 fa01 bd32 2d07 1a32
