results/bonusRewardAgent/CarFindGoal/CarFindGoal-1499947.onnx (onnx, 88006 bytes, 7 tensors)

network_body._body_endoder.seq_layers.0.weight f4 [128, 36]
0	0xbe85133e	-0.25991243
1	0xbdc9ba0f	-0.09849941
2	0x3d7fae7b	0.062422257
3	0x3e14007e	0.14453313
4	0xbb713e18	-0.0036810692
5	0xbd8a9e9f	-0.06768536
6	0x3b4d11fa	0.0031291232
7	0xbcf2f240	-0.02965653
8	0xbd71d8bd	-0.05904459
9	0x3de2463f	0.11048555
10	0x3e3ea359	0.18617
11	0x3ead1d37	0.33811352
12	0x3e4cf760	0.20016241
13	0xbe829a6a	-0.25508434
14	0x3dcd8e70	0.100369334
15	0xbd3780b3	-0.04480047
16	0x3d6de7f4	0.058082536
17	0x3dea9589	0.11454303
18	0xbdadb7b7	-0.084823065
19	0x3c8359d8	0.016034052
20	0x3e1c76fd	0.15279765
21	0x3e2d118a	0.16901222
22	0xbc9fcaba	-0.019505847
23	0x3e58c24d	0.2116787
24	0x3ccb595d	0.024822885
25	0xbe82175f	-0.25408456
26	0xbe2a7e90	-0.16649842
27	0xbc33257c	-0.01093423
28	0xbcad828f	-0.02118042
29	0x3ce32662	0.027728263
30	0x3dc51c50	0.09624541
31	0xbd2172f5	-0.039416272
32	0xbe072b72	-0.13200167
33	0xbd6c2b01	-0.0576582
34	0x3e6999b4	0.2281254
35	0x3e070ced	0.13188525
36	0x3cfa0e00	0.030524254
37	0x3d8ca336	0.068670675
38	0x3cf10d88	0.029425398
39	0xbe177396	-0.14790186
40	0xbde14244	-0.10998967
41	0x3e174c31	0.14775158
42	0xbd3f6fc0	-0.046737432
43	0x3e182784	0.14858824
44	0x3e6bd261	0.23029472
45	0x3db88f8c	0.090117544
46	0xbe140e5b	-0.14458601
47	0xbe287d44	-0.16454035
48	0xbcaaed7a	-0.02086519
49	0xbda20df1	-0.07912815
50	0x3dbfdbb8	0.0936808
51	0xbe17f5cf	-0.14839862
52	0xbd363af0	-0.0444898
53	0x3deb9a77	0.11504071
54	0xbe717ec9	-0.23583521
55	0xbda51b67	-0.08061867
56	0x3e5d4347	0.21607696
57	0xbca4e7b2	-0.020130012
58	0x3e180c00	0.14848328
59	0x3c95125e	0.018197235
60	0x3d026287	0.031832244
61	0x3e7ef7ad	0.24899168
62	0x3e04bb9a	0.1296219
63	0x3ec46d0b	0.38364443
64	0xbdfb20ea	-0.12262137
65	0xbd8c832b	-0.06860956
66	0xbe255021	-0.16143848
67	0x3df2a8a6	0.118485734
68	0xbe2977d5	-0.16549619
69	0xbdf3e6fd	-0.11909292
70	0x3daecbc7	0.08534961
71	0x3da18ac4	0.078877956
72	0x3e1f9dd9	0.15587558
73	0xbe382aa7	-0.1798502
74	0x3e772be9	0.24137844
75	0x3e191c79	0.14952268
76	0xbdcb2b56	-0.09920375
77	0xbd252ee0	-0.040327907
78	0xbe176230	-0.1478355
79	0x3de51012	0.11184706
80	0xbaed4100	-0.0018101037
81	0xbe8c46b2	-0.27397686
82	0x3e017d10	0.12645364
83	0x3d61da78	0.05513999
84	0xbdd82a5b	-0.10554954
85	0xbd6ed3cc	-0.058307454
86	0xbdbee0a9	-0.09320194
87	0x3dd11614	0.10209289
88	0x3b98131b	0.0046409494
89	0xbd926af7	-0.07149308
90	0xbdf51cf3	-0.11968412
91	0xbce4fe57	-0.02795331
92	0x3e6bd356	0.23029837
93	0xbe41f1d3	-0.18939905
94	0xbc117824	-0.008878741
95	0x3ce3c78a	0.027805109
96	0xbdfc163e	-0.1230893
97	0x3e23d293	0.15998296
98	0x3bad7a32	0.005294108
99	0x3e01dbe8	0.12681544
100	0xbe0fe255	-0.14051183
101	0xbe985d81	-0.29758838
102	0x3e4b0821	0.1982732
103	0x3dfee89c	0.124467105
104	0xbd73794d	-0.059441853
105	0x3e70d2a7	0.23517857
106	0xbe174b5f	-0.14774846
107	0xbd6cd48c	-0.057819888
108	0x3d32bd60	0.043637633
109	0x3ed7028a	0.41994125
110	0xbc027a3c	-0.007963713
111	0xbe10e0d9	-0.14148273
112	0x3e2463be	0.16053674
113	0xbd7c2488	-0.061558276
114	0xbddf315d	-0.10898087
115	0x3e09db9a	0.13462678
116	0xbe0cf77d	-0.13766284
117	0xbed70552	-0.41996247
118	0xbe0682ec	-0.1313588
119	0xbe3720c7	-0.17883597
120	0x3e4d28ba	0.20035067
121	0x3d0644a0	0.03278029
122	0x3d1b2174	0.0378737
123	0xbce0af96	-0.027427476
124	0xbe040705	-0.12893303
125	0x3eb87de6	0.36033553
126	0xbd9f1fd9	-0.07769746
127	0xbccf03b0	-0.025270313
128	0xbde4f820	-0.111801386
129	0x3ba0d1e9	0.0049078357
130	0xbe7dd81f	-0.24789475
131	0x3e15e48a	0.14637962
132	0x3e7acb85	0.24491699
133	0xbdfc98a4	-0.123338014
134	0xbe0118be	-0.12607095
135	0xbe82bead	-0.255361
136	0xbe536fdb	-0.20648138
137	0x3db2c9ce	0.087298974
138	0xbd69cffb	-0.05708311
139	0xbde8d118	-0.113680065
140	0xbdccb2e7	-0.099950604
141	0xbe840f2e	-0.2579283
142	0x3dd74ca1	0.10512663
143	0x3e0c7d7d	0.13719745
144	0x3da32719	0.07966442
145	0xbd516a50	-0.051126778
146	0xbe1afc3a	-0.1513528
147	0xbd703539	-0.058644507
148	0x3d42d4e2	0.047566302
149	0xbe697346	-0.2279788
150	0xbd956744	-0.07295087
151	0xbe01366a	-0.12618414
152	0x3e08a788	0.13345158
153	0xbd63b864	-0.05559577
154	0xbd9c363a	-0.076275304
155	0xbdc1476e	-0.09437452
156	0x3d341b4b	0.04397134
157	0x3cb58eec	0.022162877
158	0xbd316221	-0.043306474
159	0x3cb5933c	0.022164933
160	0xbd52b0ae	-0.051438026
161	0xbe877361	-0.26455215
162	0xbe79e8bc	-0.24405187
163	0x3d97517b	0.07388588
164	0x3e626e39	0.22112359
165	0x3dddeaa4	0.1083577
166	0x3e55b30a	0.20869079
167	0x3d2e6ec2	0.042586096
168	0xbd0083b1	-0.03137559
169	0xbe3bb040	-0.18328953
170	0x3e601e65	0.21886595
171	0xbe2e1b81	-0.1700268
172	0xbeb016ba	-0.3439234
173	0x3ea796d4	0.3273226
174	0x3d48f643	0.04906298
175	0xbe0abbbb	-0.13548176
176	0x3e570e6e	0.21001598
177	0x3debf492	0.115212575
178	0x3daaa23f	0.08331727
179	0xbd882630	-0.06647909
180	0xbc9cbf93	-0.019134318
181	0x3dca238d	0.09870062
182	0xbedc5f04	-0.4304124
183	0xbd906504	-0.07050517
184	0xbe7a56fc	-0.24447244
185	0xbd8eb060	-0.069672346
186	0x3ed85782	0.42254263
187	0xbda38dff	-0.07986068
188	0xbeb46e73	-0.35240516
189	0xbca9f620	-0.020747244
190	0xbeb20996	-0.34772938
191	0x3ec2cc50	0.38046503
192	0x3e209e63	0.1568542
193	0xbeb5508b	-0.35413012
194	0xbd9a342b	-0.075294815
195	0x3dea9ae5	0.11455325
196	0xbb4c8f0e	-0.0031213197
197	0x3e0d55e3	0.13802294
198	0xbd2ce114	-0.04220684
199	0xbce4d442	-0.027933244
200	0xbddcc69b	-0.107800685
201	0x3e0c6149	0.13708986
202	0xbe6447c3	-0.22293
203	0x3e4c6d09	0.19963469
204	0x3e415d37	0.18883215
205	0xbc7851c6	-0.015156215
206	0x3e27de0e	0.16393301
207	0xbe052397	-0.13001858
208	0x3dc9841b	0.0983965
209	0xbe200d04	-0.15629965
210	0x3bbb0b6c	0.0057081487
211	0x3cde7b39	0.027158367
212	0x3e47ecff	0.19524
213	0x3d0da25d	0.03457867
214	0xbda132a1	-0.07870985
215	0xbe3507e6	-0.17678794
216	0x3dc773b6	0.09738867
217	0xbe1eeeff	-0.15520857
218	0xbdc7a6c0	-0.09748602
219	0xbd5b1139	-0.05348322
220	0xbe21c083	-0.15796094
221	0xbc1ac5d0	-0.009446576
222	0xbcc9aaa1	-0.024617495
223	0x3d1cf8fb	0.038323384
224	0x3ee2cc5b	0.44296536
225	0x3d65087b	0.05591629
226	0xbd13718f	-0.03599697
227	0x3cbc867f	0.023013351
228	0x3e27d82e	0.1639106
229	0x3c7dd6f2	0.0154931415
230	0x3db42686	0.0879641
231	0x3d9b8375	0.07593433
232	0x3d11a26a	0.03555528
233	0xbe2449b3	-0.16043739
234	0xbe986b86	-0.29769534
235	0x3e1ce7d7	0.15322815
236	0xbd784fc8	-0.06062296
237	0x3d29d171	0.041459505
238	0xbde8ea84	-0.11372855
239	0xbc109e1d	-0.00882676
240	0x3e726f67	0.23675309
241	0x3eba7a45	0.3642141
242	0xbde125cd	-0.10993538
243	0xbe9ccd91	-0.30625585
244	0xbe304b09	-0.17216124
245	0x3e6019f2	0.21884897
246	0xbd5f7b54	-0.054560974
247	0x3cd61101	0.026131155
248	0xbe51e1fd	-0.20496364
249	0xbc261e8b	-0.010139118
250	0xbc3be64b	-0.01146848
251	0xbdb8bb6b	-0.09020122
252	0x3e15a629	0.14614166
253	0xbcd53c4e	-0.026029732
254	0x3c5d7f8a	0.013519177
255	0xbd59b3d4	-0.053150013

network_body._body_endoder.seq_layers.0.bias f4 [128]
0	0xbabf1d4c	-0.0014580875
1	0xbc8419e1	-0.016125621
2	0xbc8c55ab	-0.017130693
3	0x3b7a11b0	0.0038157515
4	0x3c3ddc00	0.011588097
5	0xbc546cd7	-0.012965403
6	0xbb5c0094	-0.003356968
7	0x3bfebc15	0.007773886
8	0xbba396d2	-0.0049923444
9	0x3bd5b03f	0.0065212543
10	0x3c81e9dd	0.015858585
11	0xbc3d41df	-0.011551349
12	0x3c02b0cd	0.007976723
13	0x3c13c796	0.009019753
14	0xba3c638e	-0.00071864657
15	0xbc8329c3	-0.016011124
16	0x3ba6fe7a	0.005096254
17	0xbca8861d	-0.020571763
18	0x3ab7b290	0.0014015008
19	0x3c7115cd	0.01471467
20	0x3bb07e7a	0.005386171
21	0xbc35dfee	-0.011100752
22	0x3b8005e7	0.0039069536
23	0x3bf1596d	0.0073653967
24	0xbb9ecd55	-0.004846255
25	0xbc1212ef	-0.008915647
26	0xbc82a6a3	-0.0159486
27	0xba974926	-0.0011542186
28	0xbc8d813f	-0.017273543
29	0xbd20d692	-0.03926713
30	0xba476fd1	-0.00076079095
31	0x3cede7d1	0.029041203
32	0xbc9710b6	-0.018440586
33	0xbd2f4949	-0.0427945
34	0x3be62d4a	0.007024442
35	0x3c018e8a	0.007907519
36	0x3b840997	0.0040294635
37	0x3cdbed56	0.026846569
38	0x3ba81a75	0.005130107
39	0x3a2c687d	0.0006576849
40	0x3c20021f	0.009766131
41	0x3c12e3d4	0.008965451
42	0xbc417899	-0.011808538
43	0xbbc37252	-0.005964556
44	0x3bbfda3a	0.005854872
45	0xbb55900e	-0.0032587084
46	0xbd0db2e5	-0.034594435
47	0x3b4db226	0.0031386702
48	0x3aaa0250	0.001297066
49	0x3c34ff55	0.011047204
50	0x3bc67064	0.0060558785
51	0x3cf2528b	0.029580375
52	0x3c90922b	0.017647823
53	0x3ad0b4e6	0.0015923053
54	0xbc83df7d	-0.016097778
55	0xbc21156d	-0.009831768
56	0xbbcd1114	-0.0062581394
57	0x3ac5f4de	0.0015102883
58	0x3c106150	0.008812264
59	0xbcb417b7	-0.021983964
60	0x3bed0130	0.0072328076
61	0xba284b48	-0.0006419909
62	0x3cbf98f0	0.023388356
63	0xbc331aff	-0.010931729
64	0x3c2b95a5	0.01047269
65	0x3c25678c	0.010095488
66	0xbb5a6d97	-0.003332948
67	0xbc174a4b	-0.009234021
68	0xbca2782a	-0.01983269
69	0x3a64f01e	0.000873329
70	0xbbc32b1d	-0.0059560672
71	0xbad22fa5	-0.0016035928
72	0x3b1bda0f	0.0023781096
73	0xbbc7f313	-0.0061019748
74	0xbb296be2	-0.0025851657
75	0x3a9ee580	0.001212284
76	0xbc9e8ef9	-0.019355284
77	0x3cc137ea	0.023586232
78	0xbc8fe91c	-0.01756721
79	0x3bf84e24	0.0075776745
80	0x3c76412a	0.015030185
81	0x3c70a2ea	0.014687279
82	0x3bb86787	0.005627576
83	0x3ade5cf4	0.0016964958
84	0xbbd4f40c	-0.006498819
85	0x39ff7733	0.000487262
86	0x3ca3dfde	0.02000421
87	0xbc1a1916	-0.009405395
88	0x3a8aae65	0.0010580538
89	0xbc1b3b19	-0.009474539
90	0xbc4775c9	-0.012174078
91	0x3c2bcd36	0.010485938
92	0xbd424b3c	-0.04743503
93	0x3b8af345	0.004240426
94	0xbc6d36dc	-0.0144784115
95	0x3b9d7cd5	0.004806141
96	0xbbc0cf98	-0.005884122
97	0x3b4dfb57	0.0031430328
98	0xbcb1901a	-0.021675158
99	0x3912b4cb	0.00013990996
100	0xbbb1e2b7	-0.005428638
101	0x3abbbfc5	0.001432412
102	0xbca41d9a	-0.020033646
103	0x3ce47d05	0.027891645
104	0x3ae74631	0.001764482
105	0xbcda46b2	-0.026645038
106	0xbbee00ac	-0.0072632637
107	0x3c6332af	0.013867064
108	0xbc112d88	-0.008860953
109	0xba17f41f	-0.000579657
110	0xbc257c12	-0.010100381
111	0x3b168e4a	0.0022972994
112	0x3c9bad8c	0.019003652
113	0xbc8a9c8d	-0.016920352
114	0xbc151e01	-0.009101392
115	0x3ca69048	0.02033247
116	0xbbc17998	-0.0059043877
117	0x3cd8da38	0.026471242
118	0xbc0c8fd0	-0.008579209
119	0x3c5f7979	0.013639801
120	0x3bccffa7	0.006256062
121	0xb93c758f	-0.00017972871
122	0x3c4ac5c1	0.01237625
123	0xbcf3505e	-0.029701408
124	0xbccf315c	-0.025292091
125	0xbb43a74e	-0.002985436
126	0xbc982993	-0.018574512
127	0xbb72ad64	-0.0037029618

network_body._body_endoder.seq_layers.2.weight f4 [128, 128]
0	0x3d99b70c	0.075056165
1	0x3ca847cf	0.020542054
2	0x3e042f47	0.1290866
3	0x3dcbebda	0.099570945
4	0xbcfad570	-0.030619353
5	0xbd799a96	-0.06093844
6	0x3d6a3443	0.057178747
7	0x3a8270c9	0.0009951825
8	0xbdb55048	-0.08853203
9	0x3b3c47e3	0.0028729371
10	0xbe09216b	-0.13391654
11	0x3d76f2ff	0.060290333
12	0x3dab2858	0.08357304
13	0x3eae0eec	0.3399576
14	0xbe0f798d	-0.14011212
15	0xbda28b2b	-0.079367004
16	0xbd37a56d	-0.044835497
17	0xbd68f268	-0.0568718
18	0x3e51e598	0.2049774
19	0xbe2015e3	-0.15633349
20	0x3de33428	0.110939324
21	0xbd17074c	-0.036872193
22	0x3df2fd24	0.11864689
23	0x3e543833	0.20724563
24	0x3bf5b4e0	0.0074983686
25	0x3df6f5c3	0.12058594
26	0xbdb9c380	-0.09070492
27	0x3d56601d	0.052337755
28	0x3e86e83e	0.26349062
29	0x3cda59e1	0.026654186
30	0xbcdd755a	-0.027033497
31	0xbe160e03	-0.14653783
32	0xbcbbe311	-0.022935422
33	0xbda24b43	-0.07924511
34	0x3c59ec35	0.013300945
35	0xbe62b621	-0.22139789
36	0xbe17d640	-0.14827824
37	0xbd3fd688	-0.046835452
38	0xbd8ef756	-0.06980769
39	0xbe22b91d	-0.15890928
40	0x3df2a407	0.11847692
41	0xbd3ce59b	-0.046117406
42	0x3d2a438e	0.04156833
43	0xbd0495a2	-0.032369263
44	0xbd8de7da	-0.06928988
45	0x3e057308	0.13032162
46	0xbde11a57	-0.10991352
47	0xbded5456	-0.115883514
48	0x3dd1515d	0.10220597
49	0x3d9d3931	0.07676924
50	0xbe391b17	-0.1807674
51	0xbe0a183a	-0.13485804
52	0x3e5e1f6c	0.21691674
53	0xbc407b3b	-0.01174813
54	0xbd04c416	-0.032413565
55	0x3a36ce96	0.0006973533
56	0xbe125464	-0.14290005
57	0x3ca49339	0.020089732
58	0xbd646d68	-0.0557684
59	0xbe1adb5c	-0.15122741
60	0x3d6f4e27	0.05842414
61	0x3de97676	0.11399548
62	0x3dc5bf24	0.09655598
63	0xbe340d5d	-0.17583223
64	0x3dc8b368	0.09799844
65	0x3e007a77	0.12546717
66	0x3c9b797d	0.018978829
67	0x3e0b295a	0.13589993
68	0xbe19311b	-0.14960138
69	0x3c64a840	0.01395613
70	0x3cbac471	0.022798749
71	0xbbaeff69	-0.005340506
72	0x3cbde952	0.023182545
73	0xbdaac82e	-0.083389625
74	0x3d830724	0.06397846
75	0xbd63a82b	-0.0555803
76	0x3e25551c	0.16145748
77	0x3d7a66bb	0.061133128
78	0x3d8c3ad2	0.068471566
79	0xbbfb7007	-0.007673267
80	0x3dd0f94d	0.102038
81	0xbcbfde63	-0.023421472
82	0x3d3d3616	0.04619416
83	0xbe54db12	-0.20786694
84	0x3cf83d06	0.030302536
85	0x3d123ae6	0.0357007
86	0x3d860a13	0.0654489
87	0x3c8bd16d	0.017067635
88	0xbd05b2bf	-0.03264117
89	0x3c7c6d52	0.015406923
90	0x3dec4cbb	0.11538073
91	0xbbaa4f43	-0.005197437
92	0xbd849515	-0.06473748
93	0x3df811d9	0.12112779
94	0xbd1facd3	-0.038983177
95	0xbd87449e	-0.066048846
96	0xbddbba3c	-0.10728881
97	0xbe00fb40	-0.12595844
98	0x3c82b996	0.015957635
99	0xbc7d28d6	-0.015451631
100	0x3dd34198	0.103152454
101	0x3e092635	0.13393481
102	0x3c49001f	0.012268095
103	0xbb46caa5	-0.0030333188
104	0x3df94e41	0.12173129
105	0x3d3b036d	0.045657564
106	0x3ddaaa39	0.10676999
107	0xbe5e03ec	-0.21681184
108	0xbc2201a1	-0.009888084
109	0xbe341fda	-0.17590275
110	0xbe0f81ac	-0.1401431
111	0x3ca9d9f5	0.020733813
112	0x3e22fc62	0.15916589
113	0xbd11ea6b	-0.03562395
114	0x3dc3c80f	0.095596425
115	0x3dbbba12	0.091663495
116	0xbd23ee0b	-0.040021937
117	0x3e054599	0.1301483
118	0x3d3157d3	0.043296646
119	0x3e09a5bd	0.1344213
120	0x3e2cc41f	0.1687169
121	0xbe1f5fa5	-0.15563829
122	0xbe1997f5	-0.14999373
123	0x3cf720e3	0.030167049
124	0x3d16e7d9	0.0368422
125	0xbe2c5c8b	-0.16832177
126	0x3d4f4fa0	0.050613046
127	0xbd09b223	-0.03361715
128	0x3d7ae72e	0.061255626
129	0xbd53a5e2	-0.05167187
130	0xbdb563a3	-0.08856895
131	0x3c88fbe4	0.016721673
132	0xbd33c401	-0.043888096
133	0x3d245706	0.040122055
134	0xbc81f6c7	-0.015864743
135	0xbe5233b8	-0.20527542
136	0x3cf9d721	0.03049809
137	0x3d0461da	0.03231988
138	0xbe3e9a30	-0.18613505
139	0xbe152156	-0.14563498
140	0x3d78424b	0.060610097
141	0x3c3ce939	0.011530214
142	0xbc0c9d99	-0.008582496
143	0x3c3e13e1	0.011601419
144	0xbdc59e21	-0.09649301
145	0xbd9c7113	-0.07638755
146	0x3d16b11f	0.03679001
147	0x3cda7d0d	0.026670957
148	0xbd93aff2	-0.07211293
149	0xbd46106d	-0.04835551
150	0xbbd9627c	-0.0066340547
151	0xbd11d30c	-0.03560166
152	0xbc61817a	-0.01376378
153	0xbe683915	-0.22678025
154	0x3c3b4beb	0.0114316745
155	0xbd0c9208	-0.034318954
156	0xbc9dcd69	-0.019262986
157	0x3da4b6c2	0.08042671
158	0x3be69146	0.007036361
159	0xbda26769	-0.0792988
160	0x3dd0d9df	0.101978056
161	0x3d6d6b5d	0.057963718
162	0xbd5eac05	-0.05436327
163	0x3de98a8b	0.11403378
164	0xbddfaab1	-0.10921229
165	0x3df15dbf	0.11785459
166	0x3d8df606	0.06931691
167	0x3d85f837	0.06541484
168	0x3e1a198c	0.15048808
169	0xbe2d9712	-0.1695216
170	0x3d8ab9eb	0.06773742
171	0xbd86f135	-0.06588975
172	0x3dc391ba	0.095492795
173	0xbcddf50d	-0.027094388
174	0xbcdd6eb5	-0.027030328
175	0x3d706426	0.05868926
176	0x3d119b9c	0.03554879
177	0x3ab6a788	0.0013935426
178	0x3e40ae4f	0.18816493
179	0xbaef998d	-0.0018280015
180	0xbd8552b4	-0.06509915
181	0xbd0e794c	-0.034783646
182	0xbc4b713a	-0.012417132
183	0xbd411cc4	-0.047146574
184	0xbcab25e3	-0.02089209
185	0x3d97b74b	0.07408007
186	0x3ded0fef	0.11575305
187	0x3cc139d1	0.02358714
188	0x3daaab14	0.08333412
189	0x3d9cf0b3	0.07663097
190	0xbe0688fb	-0.13138191
191	0xbccfc430	-0.025362104
192	0x3e0e054f	0.13869213
193	0xbd2b5892	-0.041832514
194	0x3df83114	0.12118736
195	0x3e09c948	0.13455689
196	0x3e0c5b13	0.13706617
197	0xbe15dbf5	-0.14634688
198	0xbe207d57	-0.15672813
199	0xbda5dd1f	-0.08098816
200	0xbc3136b9	-0.01081627
201	0x3de418b0	0.11137521
202	0x3dae2813	0.08503737
203	0xbd03ced3	-0.032179665
204	0x3e5ba172	0.21448305
205	0xbd8d3629	-0.06895096
206	0x3e243e54	0.16039401
207	0x3c7174f3	0.0147373555
208	0xbe0b722a	-0.13617769
209	0x3ca70bca	0.020391364
210	0x3da89fea	0.08233626
211	0xbdb92955	-0.090410866
212	0xbdc4a790	-0.096022725
213	0xbddcd50e	-0.107828245
214	0x3cabf004	0.020988472
215	0x3d3a96fe	0.045554154
216	0xbd25ec17	-0.040508356
217	0x3c6b9130	0.014377877
218	0x3ddc980f	0.107711904
219	0x3d9b1d6a	0.0757397
220	0xbd67cd9d	-0.056592572
221	0xbdb02a02	-0.08601762
222	0xbdf869e0	-0.12129569
223	0x3e25d602	0.16194919
224	0xbdce61bf	-0.10077237
225	0xbbb2222f	-0.005436204
226	0x3ce45a7c	0.027875178
227	0xbd7e6ec4	-0.062117353
228	0x3cbefb7c	0.023313276
229	0xbc7b4a2c	-0.015337508
230	0xbe2798d2	-0.1636689
231	0x3d9045ed	0.07044587
232	0xbcefbf92	-0.029266153
233	0x3ce59ae7	0.028027965
234	0x3db2e037	0.08734172
235	0xbe064d02	-0.13115314
236	0x3c4614ca	0.012089917
237	0xbdc1356d	-0.09434018
238	0x3d39d1e4	0.045366183
239	0xbd0e3163	-0.034715068
240	0xbd57034d	-0.052493382
241	0x3bbb3571	0.005713158
242	0xbe2bb724	-0.16769081
243	0x3bdea4cf	0.006794549
244	0xbd21c5b3	-0.03949518
245	0xbddb0af2	-0.10695447
246	0x3e542ed3	0.20720987
247	0xbd4983bc	-0.049197897
248	0x3bccf2e2	0.00625454
249	0x3d4f733b	0.050647
250	0x3cc99d2f	0.024611084
251	0xbdb0fb8a	-0.08641727
252	0x3d8bd253	0.068272255
253	0x3e5d3978	0.21603954
254	0xbe251ba0	-0.1612382
255	0x3d0e467f	0.0347352

network_body._body_endoder.seq_layers.2.bias f4 [128]
0	0x3c06653b	0.008202846
1	0xbbc10d1a	-0.0058914544
2	0xbba7ebd3	-0.005124548
3	0x3ad23f90	0.0016040672
4	0x3c605d4d	0.01369412
5	0xba4464fc	-0.00074918545
6	0x3bd290fe	0.006425976
7	0xbc662466	-0.014046764
8	0xbc28b0b4	-0.010296036
9	0x3aaa6a9c	0.0013001743
10	0xbbc43940	-0.00598827
11	0xbb661a87	-0.0035111026
12	0xbbd5a482	-0.006519855
13	0x3b7a1882	0.003816158
14	0xbb7309d9	-0.0037084727
15	0x3c3165d1	0.010827498
16	0xbbcb74a3	-0.0062089725
17	0xbbb28790	-0.005448289
18	0x3b620768	0.0034489278
19	0xbb59c085	-0.0033226323
20	0x3b63ce82	0.003476054
21	0xbc21ab49	-0.009867498
22	0xbb9848ed	-0.0046473653
23	0xbc511e51	-0.012763576
24	0x3bf0d51d	0.007349624
25	0x3c0a8985	0.008455639
26	0xbbf0c336	-0.0073474897
27	0x3a04a860	0.000506049
28	0x3c050251	0.008118228
29	0x3b7bede0	0.0038441345
30	0xbb028f19	-0.0019921719
31	0x3bb4f0ce	0.00552187
32	0x39ade744	0.00033169438
33	0x3c3ea751	0.011636571
34	0xbb7f519d	-0.0038958557
35	0xbc1252c9	-0.00893087
36	0xbb9c658f	-0.004772849
37	0x3b072c15	0.002062564
38	0xbc8b69fc	-0.01701831
39	0x3beb53a7	0.007181603
40	0x3bef4472	0.0073018605
41	0x3a494259	0.0007677428
42	0xba10e617	-0.000552745
43	0xbc610e8f	-0.013736381
44	0xbc52844d	-0.012848926
45	0xbbfe8985	-0.0077678584
46	0xbc458e9b	-0.012057926
47	0x3bce3ee5	0.0062941187
48	0x3c07fef9	0.008300536
49	0x3b9a6f3b	0.0047129667
50	0xbb8312be	-0.004000037
51	0x3b38a2cd	0.0028173209
52	0x3b6969d0	0.0035616048
53	0x3c5880ca	0.013214299
54	0x3b05b375	0.0020401154
55	0x3b91a1f9	0.0044443575
56	0xbb9cec86	-0.004788938
57	0x3bbaf9bb	0.0057060397
58	0xbbf15038	-0.007364299
59	0x3c951991	0.018200668
60	0x3c20a0ab	0.009803931
61	0xbb05c45f	-0.0020411236
62	0x3abc1c19	0.0014351635
63	0x3b75df93	0.0037517294
64	0xb9dc5b4e	-0.00042029697
65	0xb99e92b1	-0.00030245402
66	0xbb98eb27	-0.004666704
67	0x3bf8c301	0.0075916057
68	0xbad8998b	-0.0016525252
69	0xbbd8694d	-0.0066043497
70	0xbc19dbca	-0.009390781
71	0x3b5d1ea0	0.0033740178
72	0xbc289768	-0.010290004
73	0x3b1d57c0	0.0024008602
74	0xbc48e752	-0.012262182
75	0x3ba2798d	0.0049583376
76	0x3c3da6c7	0.011575407
77	0x3bd69ad6	0.0065492196
78	0x3ac1a928	0.0014775144
79	0xbb091847	-0.0020919011
80	0xbb13c14c	-0.0022545634
81	0xbb1de319	-0.002409166
82	0x3b7cc2d2	0.003856827
83	0x39088a22	0.00013021429
84	0x3cf39b34	0.029737093
85	0x3be86290	0.0070918277
86	0x3aa44bb9	0.0012534774
87	0xba94d308	-0.0011354396
88	0x3b5f66e4	0.0034088427
89	0x3be57e43	0.007003577
90	0xbc30f9bd	-0.01080173
91	0xbb9f1202	-0.0048544416
92	0x3afadd57	0.0019139451
93	0x3b9cfaab	0.004790624
94	0xbbf2da09	-0.0074112457
95	0xbb4c1ba2	-0.00311444
96	0xbb8d4c66	-0.004312086
97	0xba83649e	-0.0010024493
98	0x3c64d131	0.013965891
99	0xbc1de1fa	-0.009636397
100	0x3b07216c	0.0020619286
101	0xbc84818b	-0.016175052
102	0x3bc59016	0.0060291393
103	0xb902f531	-0.00012489107
104	0xbbdfeb34	-0.0068334583
105	0xbbee9cd2	-0.007281878
106	0x3be4b0a7	0.0069790664
107	0x3955e396	0.00020398045
108	0x38210c26	3.8396705e-05
109	0x3b1ec994	0.0024229037
110	0xbbdf7142	-0.0068189213
111	0x3b92ff6a	0.004486014
112	0xbb82ce08	-0.003991846
113	0xb9968e79	-0.0002871638
114	0x3b695a7b	0.003560691
115	0xbc288371	-0.010285244
116	0xbc8b010b	-0.01696827
117	0x3a45d770	0.00075470563
118	0x3c15e873	0.0091496585
119	0xbc22350a	-0.009900341
120	0x3ba74af2	0.0051053697
121	0x3b33cf73	0.0027436882
122	0x3b53844d	0.0032274902
123	0xbc2a8d28	-0.010409631
124	0xbaf915b2	-0.0019003658
125	0xbaeed1bf	-0.0018220468
126	0xbc35b8da	-0.011091435
127	0x3b09dc11	0.002103571

action_model._continuous_distribution.log_sigma f4 [1, 2]
0	0x3d800785	0.06251434
1	0x3dd407a4	0.1035302

action_model._continuous_distribution.mu.weight f4 [2, 128]
0	0x3c502387	0.012703783
1	0x3ab6dc48	0.0013951147
2	0xbcccd39a	-0.025003243
3	0x3d1672d3	0.0367306
4	0x3d1b46dd	0.037909377
5	0xbcad528b	-0.021157524
6	0xbd82e172	-0.063906565
7	0xba8c877e	-0.0010721532
8	0xbcd937cd	-0.026515866
9	0xbd00c24a	-0.03143529
10	0xbd229724	-0.03969492
11	0xbca56e84	-0.0201943
12	0xbc81cd39	-0.015844928
13	0x3c8f33c4	0.017480738
14	0x3ca0e0d5	0.019638458
15	0x3cb110cc	0.021614455
16	0xbbda7731	-0.0066670408
17	0x3b9c0670	0.0047615096
18	0xbcd48d38	-0.025946245
19	0xba2adcff	-0.00065179163
20	0xbc6d3b60	-0.014479488
21	0xbc687fb3	-0.014190602
22	0xbc34b06a	-0.0110283885
23	0x3c1b77de	0.009489028
24	0xbc9c8ab0	-0.0191091
25	0x3c855a42	0.01627839
26	0xbc39b3bd	-0.011334357
27	0xbca6a131	-0.020340534
28	0x3c402f1d	0.011729983
29	0x3d03a83a	0.032142855
30	0xbb8cf803	-0.0043020262
31	0x3bbef034	0.0058269743
32	0x3c8442e6	0.01614518
33	0xbbd7e55a	-0.00658862
34	0xba92a44a	-0.0011187878
35	0x3c48c5ed	0.01225422
36	0xbcf4fc58	-0.029905483
37	0xbcfe8b5d	-0.031072313
38	0xbb1021b3	-0.0021992743
39	0x3d027e1f	0.03185856
40	0x3d4ecb63	0.050486933
41	0xbc2e137d	-0.010624764
42	0x3cf7a969	0.030232148
43	0xbc5d6488	-0.013512738
44	0xbca716b7	-0.020396573
45	0xbc77d997	-0.015127561
46	0xbc484158	-0.01222261
47	0x3d700560	0.058598876
48	0x3d617ca6	0.055050515
49	0x3c9ae4a5	0.018907854
50	0x3cb01620	0.021494925
51	0x3a20ebfb	0.00061386795
52	0xbd12bc1a	-0.03582392
53	0x3cf3c91b	0.02975898
54	0xbd48b5c8	-0.049001485
55	0x3cc2fb9d	0.02380162
56	0xbc696502	-0.014245274
57	0xbc6bfa3a	-0.01440292
58	0x3ad41579	0.0016180716
59	0xbaa3c201	-0.0012493731
60	0x3d227de8	0.039670855
61	0x3bc06119	0.00587095
62	0x3d045858	0.032310814
63	0x3c7931c3	0.015209618
64	0x3c4aa504	0.012368444
65	0x3c71a2be	0.014748273
66	0xbc5c4b21	-0.0134456465
67	0xbbf25f9c	-0.0073966514
68	0xbceda303	-0.029008394
69	0xba9bd88d	-0.0011890099
70	0xbc9c96c9	-0.019114869
71	0x3cc0a292	0.02351502
72	0xbab3b8cc	-0.001371169
73	0x3b7fd9f0	0.0039039813
74	0xbb62bb80	-0.0034596622
75	0x3aa62880	0.0012676865
76	0x3c980334	0.018556215
77	0xbc0afda5	-0.008483325
78	0x3d2cd392	0.042193957
79	0xbc624832	-0.013811158
80	0x3c92bf91	0.017913612
81	0x3c2e1d94	0.010627169
82	0x3cfcd21b	0.030861905
83	0x3c925b2b	0.017865738
84	0xbba0cca3	-0.004907207
85	0x3d1488a9	0.03626314
86	0x3bf4fb63	0.0074762567
87	0x3a8e8898	0.0010874448
88	0x3ce27a97	0.027646346
89	0x3cbddf7e	0.023177858
90	0xbcb5ba71	-0.022183629
91	0xbcbe81ea	-0.023255307
92	0x3d45eff6	0.048324548
93	0xbd074d06	-0.03303244
94	0xbc87c4ff	-0.016573427
95	0x3cbd34cf	0.02309647
96	0xbce34424	-0.027742453
97	0xbce6d7dc	-0.028179102
98	0x3d1a670f	0.03769594
99	0xbcf37c2a	-0.029722292
100	0xbb3484f3	-0.0027545064
101	0x3bcbd589	0.0062205237
102	0x3d123d1e	0.035702817
103	0xbc50f6a2	-0.012754114
104	0x3cede223	0.029038494
105	0x3c7a79b0	0.015287802
106	0x3d673251	0.05644447
107	0x3bb8a8c5	0.0056353533
108	0xbd2bae0c	-0.04191403
109	0xbcba2b67	-0.022725774
110	0x3c0c0e26	0.008548295
111	0x3cb9b0d4	0.022667326
112	0x3c6bb8de	0.0143873375
113	0xbc4663f6	-0.0121087935
114	0x3ca755b3	0.020426607
115	0x3c5c7ea0	0.013457924
116	0xbb2fa0be	-0.002679869
117	0x3c279038	0.0102272555
118	0xbb87fe0e	-0.0041501587
119	0xbc7be3cf	-0.015374138
120	0x3cda6a1f	0.02666193
121	0xba9c2482	-0.0011912736
122	0x3c8a3c37	0.016874416
123	0xbcb4b51e	-0.02205902
124	0x3b89d63f	0.0042064483
125	0xbc86188b	-0.016369125
126	0xbb458dbd	-0.0030144297
127	0x3bd97bed	0.0066370876
128	0xbc8f8ed2	-0.017524157
129	0x3c18a404	0.009316448
130	0xbb001bb7	-0.001954777
131	0xbb8681d2	-0.0041048313
132	0x3c5d5934	0.013510037
133	0x3d11a39a	0.035556413
134	0xbd0d7378	-0.034533948
135	0x3b8e777d	0.00434774
136	0xbbb859bb	-0.005625931
137	0xbcdfdf65	-0.027328203
138	0x3c2411dd	0.010014025
139	0xbd5bb4f4	-0.053639367
140	0xb9e37a8e	-0.00043388124
141	0x3cf8a280	0.030350924
142	0xbbdb365d	-0.00668983
143	0x3c6010e4	0.013675902
144	0xbcd6654d	-0.02617135
145	0xbcc24c3e	-0.023717996
146	0xbc25eb6a	-0.010126928
147	0x3c96147d	0.018320316
148	0xbc169937	-0.009191803
149	0xbc514163	-0.012771937
150	0xbc4189cf	-0.011812641
151	0xbc99d328	-0.018777445
152	0xbccb5e09	-0.024825113
153	0x3d0b589d	0.034020055
154	0xbd06d832	-0.032921024
155	0xbd2b440f	-0.041812953
156	0x3d135b80	0.035975933
157	0x3cb74f75	0.022376755
158	0x3c87ae56	0.016562622
159	0x3ce5c701	0.028048994
160	0x3aa4e8a4	0.0012581539
161	0xbc6929fe	-0.014231203
162	0xbd04a32b	-0.03238217
163	0xbd3b9f88	-0.045806438
164	0xbd59d648	-0.05318287
165	0xbbce4309	-0.0062946123
166	0xbae61c45	-0.0017556032
167	0x3bf389b1	0.0074321856
168	0xba8f9378	-0.0010953983
169	0xbd201197	-0.039079275
170	0x3bc8f814	0.006133089
171	0xbbbf3819	-0.005835545
172	0xbb9594b0	-0.004564844
173	0xbc81a061	-0.015823545
174	0xbc583111	-0.013195292
175	0x3cc02f2a	0.02345999
176	0x3d035a8b	0.03206877
177	0x3c60052e	0.01367311
178	0x3c395f22	0.011314185
179	0xbc400c80	-0.01172173
180	0x3d1c0915	0.0380946
181	0x3c0821ba	0.008308822
182	0xbb7ea790	-0.00388572
183	0x3cd5d963	0.026104635
184	0x3c8c072e	0.017093267
185	0xbd218875	-0.039436776
186	0x3c087448	0.008328505
187	0x38c8aac1	9.5685486e-05
188	0x3d390a12	0.04517562
189	0xbd0fa10a	-0.03506569
190	0x3c51a881	0.012796522
191	0x3c874fcf	0.016517548
192	0xbc92d0f4	-0.017921902
193	0x3953db54	0.00020204234
194	0xbc4f0ef9	-0.012637847
195	0xbbda8790	-0.0066689923
196	0x3be0b743	0.006857784
197	0xbcb15948	-0.021649018
198	0x3bfc637b	0.0077022887
199	0xbc901ec3	-0.017592793
200	0xba26dab7	-0.00063649885
201	0x3d441d68	0.047879606
202	0x3a8be704	0.0010673706
203	0x3bb2087b	0.00543314
204	0xbc216044	-0.009849612
205	0xbc716218	-0.01473286
206	0x3b8243f8	0.0039753877
207	0xbcee10ab	-0.029060682
208	0x3c80310b	0.015648386
209	0x3c6e325d	0.014538375
210	0x3c6a4e5f	0.014300912
211	0x3ca57d7c	0.020201437
212	0xbc4bb15d	-0.012432423
213	0x3cfeb68c	0.031092905
214	0x3cbb7257	0.02288167
215	0xbafaff47	-0.0019149565
216	0x3c7304d7	0.014832697
217	0x3c8dda9d	0.017316157
218	0xbc062b45	-0.008189027
219	0x3c0ba339	0.008522802
220	0x3bcd8227	0.006271619
221	0xbcac1b31	-0.02100906
222	0xbce4acd9	-0.027914451
223	0x3c10049a	0.00879016
224	0xbcf1f0dc	-0.029533796
225	0x3cabec7e	0.020986792
226	0xbc478302	-0.012177231
227	0xbac69a16	-0.0015152122
228	0x3d0544dd	0.032536376
229	0x3a0669cd	0.000512746
230	0xbc0461ed	-0.008079988
231	0xbc27d225	-0.010242973
232	0xbb2c8581	-0.0026324692
233	0x3c82675b	0.015918424
234	0x3cd60ea5	0.02613003
235	0x3c8ab2e6	0.016931009
236	0x3cc50234	0.024048902
237	0xbaf65526	-0.0018793687
238	0xbabe2221	-0.0014506021
239	0x3d0bfc33	0.034176063
240	0xbca01e19	-0.019545602
241	0xbadb5244	-0.0016732891
242	0xbbc57d54	-0.006026903
243	0xbd02d986	-0.031945728
244	0x39f25ec4	0.00046228443
245	0xbd2d5b78	-0.04232356
246	0x3c54a2cc	0.012978267
247	0xbc8a28c4	-0.016865142
248	0x3cb8f98f	0.022579936
249	0x3cff24a5	0.031145403
250	0x3b8463f4	0.0040402357
251	0xbbfbc682	-0.007683576
252	0xbc7dc10a	-0.015487919
253	0x3c8d54ea	0.017252404
254	0x3ac6f683	0.0015179667
255	0x3b6c0abc	0.003601714

action_model._continuous_distribution.mu.bias f4 [2]
0	0x3b2def58	0.0026540365
1	0x3c0bd139	0.008533769
