results/bonusRewardAgent/CarFindGoal/CarFindGoal-2999961.pt (torch, 530875 bytes, 36 tensors)

network_body._body_endoder.seq_layers.0.weight f4 [128, 36]
-0.26779905 -0.08533987 0.073148705 0.14568825 -0.017143724 -0.05114091 0.025731921 -0.030061845
-0.0642945 0.106382154 0.19565332 0.3409578 0.19367924 -0.22897302 0.09485052 -0.050421573
0.04845184 0.1012797 -0.075466506 0.016930118 0.15520106 0.12716387 0.002229418 0.21380305
0.026274431 -0.2549817 -0.1902105 -0.013193523 -0.025439456 0.03536386 0.09624541 -0.04267287
-0.13520978 -0.04826367 0.2281254 0.12883098 0.026619112 0.0475327 0.035291806 -0.15536126
-0.11009949 0.13072392 -0.056176413 0.14096619 0.22475497 0.088081874 -0.15164503 -0.17617418
-0.023182219 -0.08897043 0.088113055 -0.15581074 -0.043838404 0.12793592 -0.25005415 -0.09192788
0.20329316 0.0127869025 0.15296237 0.0072205947 0.015123517 0.27231374 0.14822525 0.3717144
-0.12688453 -0.092812575 -0.16143848 0.112281166 -0.17368565 -0.1302607 0.08534961 0.07089204
0.15887463 -0.17364523 0.23748453 0.1577154 -0.087738715 -0.087311745 -0.14373183 0.1253533
-0.0054581417 -0.24502021 0.14074612 0.06212498 -0.119296774 -0.061416753 -0.08156626 0.10614291
-0.013391569 -0.03931665 -0.115802296 -0.028883914 0.23633237 -0.1938206 -0.036785297 0.03235201
-0.11884875 0.16314986 0.00029961244 0.13003334 -0.13892895 -0.28180528 0.1982732 0.12723652
-0.05686496 0.2416353 -0.14774846 -0.05267541 0.06711971 0.4017365 -0.0028559286 -0.12626514
0.18671468 -0.104883865 -0.117516436 0.1511039 -0.12355611 -0.4115877 -0.12228264 -0.16888835
0.19965136 0.0046132104 0.06347894 -0.0058281464 -0.11700968 0.3903683 -0.08154974 -0.015205093
-0.099406965 0.03604123 -0.2911846 0.15996608 0.26385272 -0.14726113 -0.12090093 -0.23634243
-0.18607582 0.069067925 -0.05708311 -0.09532571 -0.08237079 -0.26899332 0.10512663 0.1548186
0.0934648 -0.06620821 -0.15464285 -0.049208973 0.07178477 -0.26701522 -0.08507873 -0.11243688
0.1421258 -0.03953849 -0.06650691 -0.08795856 0.05646018 -0.014555235 -0.026409853 0.038758732
-0.03382104 -0.22348812 -0.25296882 0.07913103 0.231865 0.13392615 0.15627344 0.0518016
-0.027374713 -0.17051813 0.24797852 -0.1607235 -0.3281772 0.31320742 0.04906298 -0.12185993
0.2207305 0.11644641 0.08331727 -0.05466654 -0.029119017 0.107518904 -0.41102082 -0.0722729
-0.25634181 -0.051279083 0.42178985 -0.08526636 -0.35795 -0.028531047 -0.3428321 0.3808957
0.14294703 -0.31797302 -0.081990965 0.105990805 -0.013312915 0.13049692 -0.04010451 -0.030649072
-0.10984642 0.11004443 -0.18282929 0.19739269 0.1898521 -0.02376185 0.14148545 -0.13432074
0.09240502 -0.154137 0.0057081487 0.021792347 0.19176903 0.024664907 -0.07870985 -0.18079251
0.10883314 -0.19070102 -0.120845534 -0.050747566 -0.14148557 -0.036745586 -0.042932 0.042401325
0.448747 0.055287823 -0.039565355 0.022061815 0.1704278 -0.010545492 0.09795168 0.08244833
0.051997166 -0.12387107 -0.31398842 0.14978868 -0.06383579 0.08441309 -0.16398387 -0.0114516625
0.23140228 0.38166565 -0.07993614 -0.307557 -0.1644203 0.1961351 -0.054560974 0.031348024
-0.19958934 -0.024077976 -0.01146848 -0.085948914 0.14865279 -0.038160827 0.0048129754 -0.059768114
00000000: f51c 89be abc6 aebd fdce 953d 4d2f 153e
00000010: ff70 8cbc 2179 51bd c0cb d23c 4244 f6bc
00000020: d6ac 83bd e3de d93d 5859 483e 0592 ae3e
00000030: da53 463e e777 6abe fd40 c23d da86 4ebd
00000040: 7075 463d bb6b cf3d 2f8e 9abd 08b1 8a3c
00000050: 07ed 1e3e 3f37 023e 6d1b 123b 30ef 5a3e
00000060: 7a3d d73c f68c 82be 8bc6 42be a529 58bc
00000070: 6866 d0bc b2d9 103d 501c c53d bfc9 2ebd
00000080: 6f74 0abe 20b0 45bd b499 693e 45ec 033e
00000090: 5310 da3c a6b1 423d 248e 103d 0617 1fbe
000000a0: d77b e1bd 7edc 053e 3d19 66bd 7159 103e
000000b0: 2b26 663e 4564 b43d d648 1bbe 0167 34be
000000c0: a3e8 bdbc 2136 b6bd 9e74 b43d da8c 1fbe
000000d0: e68f 33bd a201 033e 1907 80be af44 bcbd
000000e0: 152c 503e 2880 513c 2ba2 1c3e bd9a ec3b
000000f0: a1c8 773c b56c 8b3e 5cc8 173e 5a51 be3e
00000100: 05ee 01be 8514 bebd 2150 25be abf3 e53d
00000110: a7da 31be 1063 05be c7cb ae3d d92f 913d
00000120: 08b0 223e 0ed0 31be 252f 733e 2580 213e
00000130: 5bb0 b3bd 80d0 b2bd 702e 13be 9e5c 003e
00000140: 36da b2bb 94e6 7abe c01f 103e c376 7e3d
00000150: de51 f4bd 2290 7bbd 360c a7bd 7461 d93d
00000160: 5068 5bbc 7f0a 21bd c129 edbd f59d ecbc
00000170: 1d01 723e e878 46be 2eac 16bd 8b83 043d
00000180: f966 f3bd c210 273e 4d15 9d39 7627 053e
00000190: 6443 0ebe c848 90be 2108 4b3e 4a4a 023e
000001a0: 3beb 68bd 3e6f 773e 5f4b 17be 2cc2 57bd
000001b0: 0f76 893d 68b0 cd3e 882a 3bbb a64b 01be
000001c0: 2232 3f3e 5acd d6bd 75ac f0bd fbba 1a3e
000001d0: fc0a fdbd 9fbb d2be 526f fabd 11f1 2cbe
000001e0: 6871 4c3e 6a2a 973b 3f01 823d 09fa bebb
000001f0: c5a2 efbd 5bde c73e 8d03 a7bd c81e 79bc
00000200: e195 cbbd f89f 133d 2616 95be 26ce 233e
00000210: b417 873e 9fcb 16be e89a f7bd c003 72be
00000220: a98a 3ebe 7c73 8d3d fbcf 69bd 203a c3bd
00000230: 04b2 a8bd 7eb9 89be a14c d73d c488 1e3e
00000240: 796a bf3d 2c98 87bd b25a 1ebe 598f 49bd
00000250: e503 933d 38b6 88be c23d aebd 4f45 e6bd
00000260: 6d89 113e 1df3 21bd c634 88bd 9e23 b4bd
00000270: ca42 673d 1579 6ebc 7a59 d8bc 7ac1 1e3d
00000280: ee87 0abd 12da 64be 2185 81be 730f a23d
00000290: 056e 6d3e f023 093e 2506 203e ea2d 543d
000002a0: ef40 e0bc 4e9c 2ebe 15ee 7d3e b494 24be
000002b0: d806 a8be b95c a03e 43f6 483d b391 f9bd
000002c0: 2d07 623e 757b ee3d 3fa2 aa3d 06ea 5fbd
000002d0: 018b eebc df32 dc3d 5271 d2be d003 94bd
000002e0: 3c3f 83be 040a 52bd d7f4 d73e 21a0 aebd
000002f0: 3945 b7be f1b9 e9bc b087 afbe c304 c33e
00000300: b560 123e 5ccd a2be e1ea a7bd b511 d93d
00000310: 6a1e 5abc fca0 053e a044 24bd c313 fbbc
00000320: 29f7 e0bd f95e e13d 9a37 3bbe 4f21 4a3e
00000330: 9768 423e 36a8 c2bc 90e1 103e 608b 09be
00000340: d83e bd3d 17d6 1dbe 6c0b bb3b dd85 b23c
00000350: 1a5f 443e 0f0e ca3c a132 a1bd ac21 39be
00000360: e9e3 de3d 2147 43be dd7d f7bd aedc 4fbd
00000370: 98e1 10be 8a82 16bd 77d9 2fbd 03ad 2d3d
00000380: 2bc2 e53e 7c75 623d 480f 22bd fbba b43c
00000390: a084 2e3e 00c7 2cbc e49a c83d acda a83d
000003a0: fbfa 543d 1eb0 fdbd 17c3 a0be 3462 193e
000003b0: 57bc 82bd c5e0 ac3d 63eb 27be c19f 3bbc
000003c0: b8f4 6c3e ae69 c33e 8fb5 a3bd 1c78 9dbe
000003d0: cc5d 28be a4d7 483e 547b 5fbd c966 003d
000003e0: 2661 4cbe 2d3f c5bc 4be6 3bbc fc05 b0bd
000003f0: 7038 183e 874e 1cbd 2ab6 9d3b 69cf 74bd

network_body._body_endoder.seq_layers.0.bias f4 [128]
-0.004595183 -0.024016835 -0.0132734645 0.020818545 0.023362178 -0.018752256 3.4367597e-05 0.0074793315
-0.021614807 -0.0004018677 0.013820539 -0.005507073 0.010958558 0.011832323 -0.0045380075 -0.019228991
0.019818505 -0.018650422 -0.00642031 0.013471964 0.012986874 -0.026533093 0.006194014 0.0009969419
0.005305815 -0.001482361 -0.016861329 0.017997134 -0.01819864 -0.057122342 0.0036349387 0.036190826
-0.036727995 -0.056808077 0.0033142795 -0.00032904051 0.0139583405 0.040063832 0.005446458 0.0031735222
0.0086724125 0.016911559 -0.011266732 -0.019687334 0.0063149435 0.004795019 -0.046697944 0.008219399
0.022409478 0.018837083 0.0055558793 0.033446148 0.021852653 -0.009290265 -0.02088807 0.0026480174
-0.015883168 -0.0071418714 0.0044664317 -0.03005667 -0.012481055 -0.0031565095 0.02930773 -0.022016872
0.009093763 0.0045675607 0.0008334559 -0.012708467 -0.035394877 0.013462286 -0.0004200456 0.006133916
-0.01115812 -0.010046968 -0.01402893 0.0025669464 0.007756125 0.057877883 -0.028937567 0.0031514277
0.021855704 0.013080748 -0.0032712244 -0.012158287 -0.004700258 -0.0031902085 0.03101913 -0.0030233208
0.013766929 -0.011903492 -0.02690742 0.010375298 -0.056303468 0.008352199 -0.020211218 0.015397286
-0.019418288 0.0055188993 -0.025707547 -0.0058881184 -0.013304604 -0.00053636427 -0.011923005 0.041554265
0.0025521498 -0.014691383 0.013567715 0.01494217 -0.0118936235 -0.0041419254 -0.0073877196 -0.014862028
0.019428447 -0.013735781 -0.005030318 0.015341007 -0.01577372 0.030408615 -0.018653033 0.01656187
0.016354006 -0.0014651302 0.034394976 -0.04429847 -0.024600562 0.008461335 -0.008338319 -0.007434558
00000000: 3093 96bb f4be c4bc f278 59bc a78b aa3c
00000010: 0a62 bf3c 559e 99bc ed25 1038 2e15 f53b
00000020: 8911 b1bc c5b1 d2b9 8b6f 623c ad74 b4bb
00000030: 868b 333c 5cdc 413c 91b3 94bb 1e86 9dbc
00000040: 6b5a a23c c5c8 98bc 7761 d2bb 83b9 5c3c
00000050: e6c6 543c ee5b d9bc 28f7 ca3b d2ab 823a
00000060: 67dc ad3b c84b c2ba c520 8abc ba6e 933c
00000070: 5015 95bc 1ef9 69bd 2738 6e3b d53c 143d
00000080: 1870 16bd 96af 68bd 6234 593b 1283 acb9
00000090: 86b1 643c f919 243d 3378 b23b defa 4f3b
000000a0: bc16 0e3c 1c8a 8a3c 1998 38bc 5547 a1bc
000000b0: 96ed ce3b 891f 9d3b 5846 3fbd a8aa 063c
000000c0: 1594 b73c 3a50 9a3c 180e b63b d4fe 083d
000000d0: 5604 b33c 3236 18bc 751d abbc 5c8a 2d3b
000000e0: 6b1d 82bc 5c06 eabb 255b 923b 6839 f6bc
000000f0: 577d 4cbc 71dd 4ebb c416 f03c ba5c b4bc
00000100: 02fe 143c 7aab 953b 477c 5a3a 2d37 50bc
00000110: 38fa 10bd ec90 5c3c 9139 dcb9 04ff c83b
00000120: 8cd0 36bc 0a9c 24bc 99d9 65bc 373a 283b
00000130: 1827 fe3b 5c11 6d3d 7a0e edbc 2f88 4e3b
00000140: bc0a b33c a250 563c 0a62 56bb 8d33 47bc
00000150: 9f04 9abb d112 51bb d51b fe3c e822 46bb
00000160: af8e 613c dd06 43bc f36c dcbc 27fd 293c
00000170: 779e 66bd a9d7 083c ff91 a5bc e644 7c3c
00000180: 1a13 9fbc e2d7 b43b a298 d2bc 1ef1 c0bb
00000190: 8efb 59bc cc9a 0cba b558 43bc ce34 2a3d
000001a0: f841 273b 20b4 70bc 1f4b 5e3c 01d0 743c
000001b0: 79dd 42bc fdb8 87bb af14 f2bb dd7f 73bc
000001c0: 6828 9f3c 0b0c 61bc 5ed5 a4bb d958 7b3c
000001d0: e337 81bc 7d1b f93c 3fce 98bc c2ac 873c
000001e0: d6f8 853c 9d09 c0ba bfe1 0c3d 5072 35bd
000001f0: 1e87 c9bc 69a1 0a3c 729d 08bc 989d f3bb

network_body._body_endoder.seq_layers.2.weight f4 [128, 128]
0.09144088 0.023001531 0.14562362 0.09307316 -0.039729375 -0.07510402 0.041856844 0.013481999
-0.081237614 -0.015233847 -0.11649206 0.079312265 0.08517898 0.3575983 -0.14914513 -0.055278473
-0.008482341 -0.05546216 0.18773958 -0.16760588 0.08451775 -0.039862644 0.10545603 0.19151504
0.03486228 0.1280004 -0.07638009 0.048575155 0.27651143 0.038309712 -0.03879311 -0.14100087
-0.008195466 -0.09158939 0.0026976818 -0.21669607 -0.14622973 -0.060940832 -0.056159783 -0.13064934
0.09694438 -0.054705 0.028537128 -0.016543835 -0.07464654 0.13472956 -0.12334619 -0.13266297
0.09005328 0.08365826 -0.19867766 -0.11753159 0.21872255 0.0035450994 -0.022287585 0.02466283
-0.128779 0.023488406 -0.07150902 -0.15280986 0.05580396 0.11405389 0.104629554 -0.1581118
0.07543006 0.13769631 0.018498814 0.15479098 -0.14384276 0.018548299 0.026779467 -0.01382801
0.009460673 -0.06984397 0.06649737 -0.04904791 0.15580605 0.062170856 0.05813719 -0.030395016
0.11820193 -0.009540217 0.025776379 -0.21526381 0.040022295 0.027433245 0.07811537 0.050267845
-0.04139355 0.02962168 0.12972578 0.00033072208 -0.0748388 0.13052525 -0.028041372 -0.06312155
-0.09665588 -0.11268245 0.038586244 -0.02075832 0.088364586 0.13759029 0.0035378737 -0.016148714
0.14335139 0.078806885 0.11903673 -0.2296516 -0.012862609 -0.16476116 -0.10615965 0.034474913
0.16287205 -0.018720629 0.09420643 0.07512138 -0.027982334 0.14576124 0.03397962 0.1538332
0.15442279 -0.148497 -0.16181834 0.03318783 0.04548882 -0.16888434 0.06377805 -0.033799823
0.03195077 -0.05009956 -0.10682633 -0.00015579427 -0.04078015 0.026176121 0.022927994 -0.21690522
0.035027936 0.06535945 -0.20859957 -0.16095178 0.04452138 -0.010188219 0.038281508 -0.014464871
-0.13675131 -0.06893657 0.06517296 0.07213778 -0.031277675 -0.035977222 0.009635131 -0.022651369
-0.03699581 -0.23967712 -0.009363903 -0.050859634 -0.046599712 0.0742825 0.018584942 -0.07706081
0.097081214 0.0670019 -0.01630433 0.12624508 -0.10303943 0.14644346 0.04555617 0.051346775
0.1861046 -0.16072874 0.100732744 -0.07885224 0.124206595 -0.040334173 -0.018348394 0.09053969
0.052859206 0.00018274193 0.20733239 -0.050247625 -0.049967285 -0.053986743 -0.049668904 -0.06282319
-0.033678044 0.08476691 0.13479736 0.019810472 0.08938497 0.09144032 -0.15414472 -0.042842153
0.18905462 -0.052707367 0.1097342 0.12018217 0.14950356 -0.14290994 -0.18779168 -0.072227634
0.0017099734 0.1039247 0.089032136 -0.031880137 0.22123075 -0.090327375 0.18339485 0.03214595
-0.14257681 0.034638908 0.111668125 -0.07498274 -0.11002583 -0.07390388 -0.0036343052 -0.0032285238
-0.019493401 -0.0021843107 0.09412267 0.08277465 -0.05193267 -0.09784518 -0.1163985 0.124971464
-0.13110106 -0.03348728 -0.012335592 -0.053571876 0.0024468824 -0.01506774 -0.15136631 0.07507073
-0.05292796 -0.0011393944 0.06838977 -0.13718918 0.031116346 -0.10813754 0.0016016568 -0.04477869
-0.073340595 -0.016583867 -0.18437281 0.027974622 -0.056672573 -0.12367688 0.17290765 -0.10158088
0.0059112688 0.04854786 0.04980587 -0.09121553 0.051669765 0.21287273 -0.18700358 0.040647134
00000000: 5b45 bb3d b56d bc3c 5c1e 153e 249d be3d
00000010: 45bb 22bd 23d0 99bd 1572 2b3d 9ae3 5c3c
00000020: e85f a6bd 6397 79bc 6493 eebd 786e a23d
00000030: 5172 ae3d 2017 b73e 80b9 18be ae6b 62bd
00000040: 84f9 0abc 4a2c 63bd ce3e 403e e0a0 2bbe
00000050: a417 ad3d 0347 23bd 55f9 d73d 851c 443e
00000060: c0cb 0e3d 8912 033e 2a6d 9cbd bef6 463d
00000070: e892 8d3e a5ea 1c3d 86e5 1ebd 8862 10be
00000080: 4746 06bc 3893 bbbd 97cb 303b 93e5 5dbe
00000090: 3fbd 15be 189d 79bd cd07 66bd f1c8 05be
000000a0: c68a c63d 5a12 60bd b2c6 e93c f086 87bc
000000b0: 49e0 98bd 8cf6 093e ed9c fcbd cdd8 07be
000000c0: db6d b83d 0655 ab3d 2872 4bbe 67b4 f0bd
000000d0: cef8 5f3e e654 683b 7494 b6bc b409 ca3c
000000e0: a4de 03be c26a c03c 5273 92bd 307a 1cbe
000000f0: b192 643d 1695 e93d 0548 d63d 0fe8 21be
00000100: 137b 9a3d 4300 0d3e d38a 973c 8781 1e3e
00000110: 844b 13be 9af2 973c 9d60 db3c e18e 62bc
00000120: f000 1b3c 5b0a 8fbd c62f 883d 76e6 48bd
00000130: 9f8b 1f3e dea6 7e3d 4321 6e3d f8fe f8bc
00000140: da13 f23d 924e 1cbc fc28 d33c 1e6e 5cbe
00000150: 6bee 233d afbb e03c f3fa 9f3d a8e5 4d3d
00000160: 488c 29bd 2aa9 f23c d6d6 043e c464 ad39
00000170: 1645 99bd 69a8 053e 05b7 e5bc df45 81bd
00000180: 85f3 c5bd 0ec6 e6bd 9c0c 1e3d 5a0d aabc
00000190: 7ef8 b43d 78e4 0c3e acdb 673b 4f4a 84bc
000001a0: b5ca 123e 8165 a13d 87c9 f33d ca29 6bbe
000001b0: b1bd 52bc 26b7 28be 3b6a d9bd 9135 0d3d
000001c0: eec7 263e 015c 99bc 4def c03d 3dd9 993d
000001d0: 353b e5bc 6f42 153e 372e 0b3d 7386 1d3e
000001e0: 0221 1e3e 990f 18be b5b3 25be f6ef 073d
000001f0: 7c52 3a3d 04f0 2cbe 119e 823d af71 0abd
00000200: d0de 023d 3235 4dbd c3c7 dabd b55c 23b9
00000210: 1609 27bd 4e6f d63c 7dd3 bb3c 671c 5ebe
00000220: 7479 0f3d 2ddb 853d 209b 55be 8bd0 24be
00000230: 0d5c 363d 7dec 26bc 12cd 1c3d 11fe 6cbc
00000240: 8908 0cbe 9e2e 8dbd 6779 853d f9bc 933d
00000250: 051d 00bd da5c 13bd abdc 1d3c 5d8f b9bc
00000260: eb88 17bd eb6d 75be 0e6b 19bc 3152 50bd
00000270: 57df 3ebd 6c21 983d 733f 983c 0fd2 9dbd
00000280: 84d2 c63d 4b38 893d a990 85bc 6446 013e
00000290: 5606 d3bd 46f5 153e 1b99 3a3d ff50 523d
000002a0: 3492 3e3e 1396 24be f84c ce3d 497d a1bd
000002b0: 0760 fe3d 7235 25bd 5f4f 96bc df6c b93d
000002c0: e582 583d 6a9e 3f39 f14e 543e 74d0 4dbd
000002d0: 7faa 4cbd 3421 5dbd 9f71 4bbd 72a9 80bd
000002e0: fdf1 09bd 469a ad3d 5208 0a3e 9249 a23c
000002f0: 780f b73d 1045 bb3d 1dd8 1dbe 417b 2fbd
00000300: 8997 413e aee3 57bd 53bc e03d 1222 f63d
00000310: 7617 193e fc56 12be 764c 40be 15ec 93bd
00000320: 3021 e03a 79d6 d43d 7b56 b63d bf94 02bd
00000330: 508a 623e 8ffd b8bd dccb 3b3e 79ab 033d
00000340: a8ff 11be 87e1 0d3d 42b2 e43d 8d90 99bd
00000350: 3955 e1bd eb5a 97bd 862d 6ebb a495 53bb
00000360: a0b0 9fbc a726 0fbb 63c3 c03d c185 a93d
00000370: 5ab7 54bd 0e63 c8bd 5662 eebd 0af1 ff3d
00000380: 5b3f 06be f529 09bd 391b 4abc 2f6e 5bbd
00000390: e05b 203b afde 76bc c5ff 1abe afbe 993d
000003a0: fdca 58bd bb57 95ba f00f 8c3d 527b 0cbe
000003b0: b5e7 fe3c 3777 ddbd afee d13a dc69 37bd
000003c0: 9833 96bd e4da 87bc 3acc 3cbe 092b e53c
000003d0: 8021 68bd 4e4a fdbd b40e 313e a309 d0bd
000003e0: 51b3 c13b 1fda 463d 3d01 4c3d 35cf babd
000003f0: ada3 533d 4ffb 593e de7d 3fbe 9c7d 263d

network_body._body_endoder.seq_layers.2.bias f4 [128]
0.022376157 -0.016567038 -0.008717935 0.0053318306 0.011583535 -0.016670937 0.010183764 -0.030169964
-0.010971836 0.00977529 -0.013829914 0.004004384 -0.02091793 -0.008323172 0.0008826241 0.011692878
0.00091506285 0.024455624 0.006071802 -0.015793305 0.014134224 0.00011189203 -0.0076768887 -0.0028347105
0.011887234 0.0045507927 -0.0005873536 0.0026256603 -0.0035519872 -0.0024069333 -0.011543485 -0.009510971
-0.006187516 0.013506357 0.005614579 -0.00032564803 -0.0032376314 -0.0050036106 -0.022347575 0.0114425095
0.006171281 0.006260159 -0.001786151 -0.016398806 -0.009777538 -0.0062000947 -0.011623907 0.0039355787
0.0056664348 -0.0017832885 -0.015360337 -0.008931767 -0.008769793 0.021181447 0.00064775965 -0.0026799084
-0.01003459 0.019917363 -0.012881064 0.06322555 0.0019705286 0.007989811 0.003481258 -0.0010250747
0.01776199 -0.008698714 -0.0002606541 -0.0004781856 -0.006577184 -0.00723828 -0.023364285 0.015177141
-0.018547198 -0.010239987 -0.025684288 0.018377777 0.018740147 0.009204619 0.0018480606 0.012441284
-0.0050031557 -0.00895536 -0.0026406788 -0.009280253 0.031302392 0.00035531612 -0.0078109526 -0.019575678
0.0039252145 0.0026838444 -0.004579303 -0.01711924 -0.0016707795 0.008511011 -0.0029588132 -0.0049648504
0.007714624 -0.012699954 0.019544289 -0.015584056 -0.015051457 -0.024860518 0.0136065 -0.0015328599
-0.003701534 -0.012208226 0.0019394287 -0.015435839 -0.012423021 -0.0019514209 0.01720677 -0.004637917
-0.0005588464 -0.0044576563 0.015769409 0.00033964298 -0.029945048 0.018949809 0.0016756753 0.0041783825
-0.00076244515 -0.0115075335 0.0016305706 -0.010470768 -0.0041913176 -0.014553943 -0.025423463 -0.0022899972
00000000: 344e b73c 99b7 87bc abd5 0ebc a3b6 ae3b
00000010: dec8 3d3c 7d91 88bc cdd9 263c 0027 f7bc
00000020: 37c3 33bc 8a28 203c dd96 62bc 3537 833b
00000030: 145c abbc ea5d 08bc e75f 673a 7c93 3f3c
00000040: d4e0 6f3a 2957 c83c f8f5 c63b f660 81bc
00000050: 3b93 673c 94a7 ea38 698e fbbb 8dc6 39bb
00000060: acc2 423c d11e 953b a2f8 19ba 4513 2c3b
00000070: 75c8 68bb a4bd 1dbb e320 3dbc e7d3 1bbc
00000080: a5c0 cabb c449 5d3c 81fa b73b bdbb aab9
00000090: 712e 54bb 54f5 a3bb 4312 b7bc 5d79 3b3c
000000a0: 7538 ca3b 0522 cd3b 481d eaba ca56 86bc
000000b0: f731 20bc 2a2a cbbb 3372 3ebc 07f6 803b
000000c0: 80ad b93b 3cbd e9ba eca9 7bbc 8c56 12bc
000000d0: 2eaf 0fbc b784 ad3c 6ace 293a 67a1 2fbb
000000e0: 1f68 24bc bd29 a33c 190b 53bc 667c 813d
000000f0: fc23 013b b2e7 023c d125 643b cd5b 86ba
00000100: 9881 913c 0d85 0ebc 67a8 88b9 fcb4 fab9
00000110: 6b85 d7bb 182f edbb 7566 bfbc 8ba9 783c
00000120: 4bf0 97bc 9ec5 27bc db67 d2bc fe8c 963c
00000130: f084 993c f8ce 163c a03a f23a 87d6 4b3c
00000140: 83f1 a3bb 81b9 12bc 3d0f 2dbb 340c 18bc
00000150: f036 003d b949 ba39 05f3 ffbb 2c5d a0bc
00000160: 169f 803b 70e3 2f3b fa0d 96bb a63d 8cbc
00000170: 0ffe daba c471 0b3c a6e8 41bb 2fb0 a2bb
00000180: f5ca fc3b 7813 50bc 581b a03c 4554 7fbc
00000190: 639a 76bc 49a8 cbbc cced 5e3c 3eea c8ba
000001a0: 6f95 72bb 0305 48bc 6e34 fe3a 9ae6 7cbc
000001b0: ed89 4bbc d2c6 ffba 36f5 8c3c abf9 97bb
000001c0: 8c7f 12ba 8811 92bb d92e 813c 1c12 b239
000001d0: 514f f5bc a13c 9b3c 55a2 db3a d0ea 883b
000001e0: d4de 47ba 188a 3cbc dfb8 d53a 968d 2bbc
000001f0: 5257 89bb a973 6ebc de44 d0bc c713 16bb

action_model._continuous_distribution.log_sigma f4 [1, 2]
0.12412554 0.13566184
00000000: 8835 fe3d f0ea 0a3e

action_model._continuous_distribution.mu.weight f4 [2, 128]
0.013237832 -0.0050098007 -0.03527635 0.040265568 0.05087237 -0.018881485 -0.06765171 -0.010061199
-0.02258536 -0.032464582 -0.03772984 -0.03136416 -0.01863261 0.024266819 0.021078778 0.029259484
-0.008453051 -0.0019833476 -0.024951799 -0.00509453 -0.0077779987 -0.03741622 0.0004937258 0.01113277
-0.01876432 0.031749293 -0.016037319 -0.0137677975 0.008416853 0.031065742 -0.0027241607 0.00019256883
0.007399664 -0.018391436 -0.010460697 -0.0052245967 -0.03701697 -0.02555203 0.00076798 0.038697556
0.036773056 -0.0070168194 0.03824681 -0.014241331 -0.00991345 -0.012281773 -0.0070131626 0.06484706
0.06489764 0.015555879 0.0124264285 -0.015336109 -0.030371146 0.039622113 -0.059878647 0.029492883
-0.0023317642 -0.021657111 0.010930733 0.011510199 0.045078486 -0.0042209155 0.05359507 0.022196716
0.0014756267 0.006337837 -0.015250583 -0.021516591 -0.05067111 -0.0020276865 -0.014259058 0.018822083
-0.019913513 0.009861318 -0.0010581769 0.013522367 0.009632774 0.0045468397 0.051397108 -0.011747625
0.014659307 0.008749212 0.02537794 0.01956289 -0.0041772793 0.036730226 0.015213532 -0.011941944
0.026593553 0.029514194 -0.011771073 -0.02654219 0.046094246 -0.042401817 -0.03681783 0.02786769
-0.018875062 -0.03739107 0.022478074 -0.027548704 0.00060894544 0.0012630502 0.03875549 -0.0033171359
0.004717785 0.017819041 0.051827956 0.006366247 -0.035869148 -0.024700915 0.0067546624 0.03140616
0.007920969 -0.021844005 -0.000957076 0.016831238 -0.00492285 -0.005401136 -0.00077667105 -0.0010429459
0.04308669 0.01188098 0.0052649276 -0.039297037 -0.013446627 -0.0001736721 -0.0068721543 0.0057919025
-0.014016644 0.04980614 -0.0018722699 0.012469391 0.022504907 0.026268134 -0.03247434 0.021587411
-0.014982823 -0.039886847 0.0049359435 -0.033598654 0.019329373 0.0154764475 0.0066097174 -0.0063980203
-0.009971599 -0.033173542 -0.02115617 0.006416743 -0.018778412 -0.03346447 0.0036890837 -0.03066281
-0.009058351 0.010817573 -0.017534787 -0.019135745 0.025437193 0.004743531 0.02054013 0.027360346
0.013079657 0.0018754718 -0.008233168 -0.052288093 -0.027000042 0.0032105558 -0.0010905142 -0.017012835
0.02391632 -0.020104699 0.0052417764 0.021135561 -0.026915092 -0.014881541 -0.023752412 0.02618394
0.020281257 0.039732035 0.012554445 0.012004614 0.033449594 0.012521394 -0.015418842 0.0061137658
-0.008139319 -0.02699023 0.009970858 -0.046581637 0.028314304 -0.028954437 0.0008215531 0.016829913
-0.011682534 0.0001941745 -0.0059668995 0.010071004 0.021681717 0.011922279 0.00011769557 -0.0030398509
0.0014532086 0.028408108 0.010074779 -0.021327652 -0.007164139 0.011797037 -0.0019403043 -0.014233946
0.010616541 -5.318628e-05 0.009752255 0.027642041 -0.016160727 0.016447257 0.0042738426 0.020508513
0.022909483 0.022993775 -0.030123334 0.036177285 0.013740045 -0.021658957 -0.012791736 0.020951053
-0.038452473 0.023753913 -0.015010864 -0.01270458 0.016093116 0.018108245 -0.00024061499 0.018187344
-0.027561609 0.0064532342 0.02207813 0.039318442 0.014272901 -0.004895338 -0.03930542 0.022676622
-0.0068532024 0.0024683636 -0.0097772265 -0.038514256 0.019694882 -0.048779044 0.038232412 -0.011193936
0.034905426 0.014811856 -0.008202971 -0.008985899 0.0031281707 0.005865504 0.024602015 0.002941894
00000000: 7ee3 583c 4129 a4bb ef7d 10bd 82ed 243d
00000010: 8c5f 503d 58ad 9abc fb8c 8abd bad7 24bc
00000020: ef04 b9bc 95f9 04bd 9b8a 1abd b577 00bd
00000030: 6aa3 98bc 35cb c63c 67ad ac3c 96b1 ef3c
00000040: aa7e 0abc 0dfb 01bb b767 ccbc 04f0 a6bb
00000050: 95de febb c041 19bd 616d 013a 3966 363c
00000060: a2b7 99bc 8c0b 023d b260 83bc 5492 61bc
00000070: d7e6 093c 957d fe3c d587 32bb 4dec 4939
00000080: e178 f23b a3a9 96bc 5863 2bbc 1833 abbb
00000090: 1b9f 17bd 7e52 d1bc 4452 493a 5481 1e3d
000000a0: 589f 163d 59ed e5bb b0a8 1c3d 7954 69bc
000000b0: 066c 22bc 7d39 49bc acce e5bb 89ce 843d
000000c0: 0ee9 843d 16de 7e3c 3898 4b3c 4e44 7bbc
000000d0: e9cc f8bc cc4a 223d 5043 75bd 0f9b f13c
000000e0: 83d0 18bb 416a b1bc d116 333c 4695 3c3c
000000f0: 38a4 383d 9b4f 8abb 8186 5b3d e3d5 b53c
00000100: d169 c13a a1ad cf3b 95dd 79bc 9043 b0bc
00000110: 838c 4fbd efe2 04bb d39e 69bc c530 9a3c
00000120: aa21 a3bc 5e91 213c 86b2 8aba eb8c 5d3c
00000130: c8d2 1d3c a8fd 943b c685 523d 1c79 40bc
00000140: 972d 703c db58 0f3c 66e5 cf3c 5b42 a03c
00000150: 8fe1 88bb 6f72 163d 2e42 793c 25a8 43bc
00000160: b9da d93c c0c7 f13c 75db 40bc 026f d9bc
00000170: 52cd 3c3d 87ad 2dbd 4bce 16bd c84a e43c
00000180: e09f 9abc 6127 19bd f023 b83c d2ad e1bc
00000190: a3a1 1f3a ef8c a53a 14be 1e3d 4e64 59bb
000001a0: a697 9a3b 3df9 913c 8d49 543d f39b d03b
000001b0: 87eb 12bd 9359 cabc 3756 dd3b bfa3 003d
000001c0: f4c6 013c 33f2 b2bc 48e4 7aba aae1 893c
000001d0: dc4f a1bb 03fc b0bb 8399 4bba 75b3 88ba
000001e0: ab7b 303d 71a8 423c 6a85 ac3b eef5 20bd
000001f0: 3e4f 5cbc c01b 36b9 cf2f e1bb 00ca bd3b
00000200: 11a6 65bc 8601 4c3d f466 f5ba 6b4c 4c3c
00000210: 365c b83c 4530 d73c d003 05bd 15d8 b03c
00000220: 847a 75bc 6460 23bd b2bd a13b be9e 09bd
00000230: a258 9e3c ed90 7d3c 5496 d83b 7ca6 d1bb
00000240: eb5f 23bc fbe0 07bd b44f adbc 8b43 d23b
00000250: 2fd5 99bc 0a12 09bd 8ec4 713b 9330 fbbc
00000260: 7a69 14bc 313c 313c 1da5 8fbc 91c2 9cbc
00000270: a961 d03c 9f6f 9b3b c643 a83c ce22 e03c
00000280: 0f4c 563c 64d2 f53a 69e4 06bc 0a2c 56bd
00000290: 312f ddbc 3068 523b 96ef 8eba 805e 8bbc
000002a0: 29ec c33c 9cb2 a4bc 35c3 ab3b 7c24 ad3c
000002b0: 0a7d dcbc b5d1 73bc 6b94 c2bc b47f d63c
000002c0: e124 a63c 0fbe 223d 29b1 4d3c 00af 443c
000002d0: 7102 093d 8826 4d3c 509f 7cbc fc55 c83b
000002e0: c75a 05bc 9d1a ddbc cf5c 233c 63cc 3ebd
000002f0: 66f3 e73c db31 edbc 7f5d 573a e3de 893c
00000300: 1968 3fbc 529b 4b39 fb85 c3bb da00 253c
00000310: db9d b13c aa55 433c 54d3 f638 3c38 47bb
00000320: 9779 be3a 1fb8 e83c b010 253c 54b7 aebc
00000330: 27c1 eabb 5c48 413c cf51 feba 7f35 69bc
00000340: 00f1 2d3c 5514 5fb8 ecc7 1f3c 9071 e23c
00000350: 8063 84bc 66bc 863c 970b 8c3b 7801 a83c
00000360: abac bb3c 715d bc3c 36c5 f6bc a22e 143d
00000370: ed1d 613c 206e b1bc 6e94 51bc 8ba1 ab3c
00000380: 5780 1dbd 9197 c23c 20f0 75bc df26 50bc
00000390: b6d5 833c be57 943c 984d 7cb9 a0fd 943c
000003a0: e2c8 e1bc a775 d33b 32dd b43c 600c 213d
000003b0: e3d8 693c 1269 a0bb b8fe 20bd 53c4 b93c
000003c0: d490 e0bb 45c4 213b a930 20bc 20c1 1dbd
000003d0: 2957 a13c 89cc 47bd 9799 1c3d c566 37bc
000003e0: fef8 0e3d 6dad 723c c165 06bc 9839 13bc
000003f0: ff01 4d3b 6a33 c03b 2a8a c93c cbcc 403b

action_model._continuous_distribution.mu.bias f4 [2]
0.0050054933 -0.006726147
00000000: 1f05 a43b 0367 dcbb

exp_avg f4 [128, 36]
-2.8772232e-05 -5.1399e-06 6e-45 -3.259849e-05 -1.670299e-05 1.2123676e-06 -1.8356728e-05 -4.1834846e-05
-5.2042527e-05 1.9324216e-05 -1.1310462e-06 -4.7532663e-05 -2.1403965e-05 1.2130265e-05 -2.4189447e-05 -3.9884973e-05
2.9681803e-05 7.841389e-06 -7.079365e-05 -3.8434973e-05 -3.4474295e-05 9.858909e-07 -1.869078e-21 -2.6860513e-05
-5.8798174e-05 2.5321007e-05 -1.7253769e-15 -4.3200416e-05 -3.298561e-05 -4.914887e-07 6e-45 -2.7871038e-05
-3.2275617e-05 -1.2015506e-06 -6e-45 -2.6256084e-05 -1.0185665e-06 -1.1512986e-06 -6e-45 6.450188e-07
3.2041532e-06 -1.2746283e-06 -4.111955e-06 2.5941217e-06 -4.2552074e-06 2.2906138e-06 -2.52695e-07 -2.643183e-06
-8.070586e-07 -9.055513e-06 7.7111e-06 4.8998213e-06 1.8040015e-06 9.14535e-06 -1.30854505e-05 -8.575114e-06
-4.6047703e-06 2.4638423e-06 -5.215676e-23 -5.2798823e-06 -7.727832e-06 5.587426e-06 -1.580626e-16 -2.7533108e-06
-4.2952374e-06 2.1547648e-06 -6e-45 -2.466276e-06 -3.6352842e-06 1.4948823e-06 6e-45 -2.6903424e-06
-3.3594924e-06 -1.2471337e-06 -6e-45 -4.1625217e-06 1.101574e-06 -9.1352456e-07 -4.790111e-06 -4.598063e-06
-8.668371e-06 4.509579e-06 -4.898275e-07 -8.003207e-06 -2.4962496e-06 3.5032687e-07 -2.3037285e-06 -3.5330986e-06
1.1510865e-05 2.4799697e-06 -1.8363595e-05 -6.304177e-06 -4.209006e-06 -2.388808e-07 -2.2372835e-22 -4.3961113e-06
-2.0099358e-05 1.5656216e-05 7.5675003e-16 -1.2055715e-05 -5.6914764e-06 1.2482938e-06 6e-45 -4.2363085e-06
-8.099316e-06 3.6561783e-06 -6e-45 -6.3329794e-06 3.874476e-06 3.607196e-07 -6e-45 8.367693e-06
4.483899e-06 -1.6506806e-06 1.362437e-06 1.3578225e-05 7.1803797e-06 -2.5355678e-06 -5.746382e-07 8.247284e-06
6.9275293e-06 -1.5810456e-05 1.3115384e-05 1.5603964e-05 -6.4552155e-06 8.528417e-06 2.1505855e-06 -2.1122466e-06
-2.678821e-07 4.526456e-06 5.3567614e-22 -2.769022e-06 7.0705546e-06 -2.8157401e-06 1.1268612e-15 8.682249e-06
-5.2925105e-07 4.783976e-06 -6e-45 2.0131956e-06 3.6258255e-06 6.289851e-07 6e-45 3.2342648e-06
-3.0154479e-06 -8.998217e-07 -6e-45 6.6302584e-07 -3.3734582e-06 -1.7090747e-06 1.142022e-06 3.4455982e-06
-3.3521358e-06 -2.656434e-07 -3.6288088e-07 -1.0697263e-06 -9.058161e-07 -1.2002477e-05 8.994704e-06 5.367465e-06
-1.5485356e-06 5.9531244e-06 -8.299991e-06 -8.271057e-06 -6.963182e-06 3.06487e-06 7.8307705e-22 -7.980067e-06
-8.677081e-06 4.7789126e-06 2.2713875e-15 -3.9294528e-06 -1.0112612e-05 6.2143217e-06 -6e-45 -5.5622504e-06
-6.367966e-06 2.4697981e-06 6e-45 -4.827344e-06 -1.1913402e-05 -1.3532909e-06 6e-45 -1.3786806e-05
-5.7796365e-06 1.0880138e-06 -8.531972e-06 -1.8364319e-05 -2.0262345e-05 7.387395e-06 -3.583214e-07 -1.8761677e-05
-9.296967e-06 5.8296137e-06 -9.588716e-06 -1.6711563e-05 1.1336311e-05 -2.5579425e-06 -2.17685e-05 -1.0585327e-05
-1.3871175e-05 7.896651e-07 -1.3667797e-21 -9.21146e-06 -1.921324e-05 6.1396086e-06 -2.7889553e-15 -1.5966187e-05
-1.2379819e-05 -6.9375176e-07 6e-45 -1.062358e-05 -1.1596516e-05 -1.4771136e-06 -6e-45 -9.625152e-06
1.3186696e-05 -1.0061228e-06 -6e-45 2.1926679e-05 7.584113e-06 -5.39737e-06 9.902893e-06 3.3578966e-05
1.5225626e-05 -3.1684485e-06 3.5337003e-08 1.9823621e-05 4.9696664e-06 -2.7957069e-05 3.492893e-05 3.204984e-05
-1.7389813e-05 1.525574e-05 1.3952589e-05 6.2088367e-07 5.097588e-06 6.89345e-06 1.9876663e-21 -2.9505118e-06
4.4872436e-06 7.495846e-06 2.7728898e-15 1.0143968e-05 1.2840476e-06 1.0698813e-05 -6e-45 6.307133e-06
-1.8156173e-06 1.3798733e-05 6e-45 -3.0856316e-07 1.2312156e-06 -2.725623e-06 -6e-45 1.1833874e-05
00000000: e65b f1b7 6877 acb6 0400 0000 5dba 08b8
00000010: 661d 8cb7 a2b8 a235 c6fc 99b7 d377 2fb8
00000020: 3d48 5ab8 701a a237 74ce 97b5 cf5d 47b8
00000030: aa8c b3b7 1783 4b37 71ea cab7 2a4a 27b8
00000040: 30fd f837 828e 0337 0d77 94b8 3d35 21b8
00000050: 7e98 10b8 f452 8435 3a39 0d9d 8352 e1b7
00000060: 0f9e 76b8 7368 d437 2ca7 f8a6 1832 35b8
00000070: 075a 0ab8 d9ee 03b5 0400 0000 99cc e9b7
00000080: ae5f 07b8 f744 a1b5 0400 0080 8340 dcb7
00000090: aeb5 88b5 5286 9ab5 0400 0080 5b25 2d35
000000a0: ef06 5736 e513 abb5 6df9 89b6 ac16 2e36
000000b0: f4c7 8eb6 72b8 1936 23aa 87b4 8a61 31b6
000000c0: a5a4 58b5 22ed 17b7 ec5e 0137 2569 a436
000000d0: 0521 f235 fb6e 1937 9589 5bb7 d6dd 0fb7
000000e0: ad82 9ab6 7d58 2536 f136 7c9a d829 b1b6
000000f0: c9a6 01b7 a07b bb36 d83b 36a5 85c5 38b6
00000100: cf1f 90b6 949a 1036 0400 0080 4d82 25b6
00000110: b5f5 73b6 c4a3 c835 0400 0000 bb8b 34b6
00000120: a473 61b6 3063 a7b5 0400 0080 caab 8bb6
00000130: cbd9 9335 ee38 75b5 bdba a0b6 0f49 9ab6
00000140: 5f6e 11b7 fd50 9736 b17c 03b5 8345 06b7
00000150: 3e85 27b6 8f14 bc34 c199 1ab6 2c1a 6db6
00000160: ca1e 4137 8e6d 2636 850b 9ab7 7888 d3b6
00000170: 163b 8db6 873f 80b4 493c 879b 4f82 93b6
00000180: 0b9b a8b7 7855 8337 4c1e 5a26 e742 4ab7
00000190: 69f9 beb6 0c8b a735 0400 0000 9d25 8eb6
000001a0: 4ce2 07b7 aa5c 7536 0400 0080 e17f d4b6
000001b0: 7f01 8236 eda8 c134 0400 0080 f862 0c37
000001c0: 6674 9636 f48c ddb5 fbdc b635 08ce 6337
000001d0: feee f036 b928 2ab6 d640 1ab5 d15d 0a37
000001e0: 0673 e836 b2a0 84b7 250a 5c37 42e5 8237
000001f0: e199 d8b6 4615 0f37 c752 1036 1fc0 0db6
00000200: 6fd1 8fb4 f6e1 9736 efe5 211c 70d3 39b6
00000210: 9a3f ed36 0cf6 3cb6 d765 a226 faa9 1137
00000220: db11 0eb5 0a86 a036 0400 0080 701a 0736
00000230: 3553 7336 87d7 2835 0400 0000 3f0c 5936
00000240: 005d 4ab6 478b 71b5 0400 0080 cafa 3135
00000250: 9263 62b6 5c63 e5b5 9447 9935 ed3a 6736
00000260: 41f5 60b6 c09d 8eb4 f8d1 c2b4 8493 8fb5
00000270: 3527 73b5 3f5e 49b7 f6e7 1637 2c1a b436
00000280: 47d7 cfb5 f3c0 c736 3140 0bb7 ebc3 0ab7
00000290: 47a5 e9b6 11ae 4d36 a7ab 6c1c 20e2 05b7
000002a0: c793 11b7 8c5a a036 b4ab 2327 bed9 83b6
000002b0: 56a9 29b7 9e84 d036 0400 0080 5ea3 bab6
000002c0: 69ac d5b6 cfbe 2536 0400 0000 92fa a1b6
000002d0: acdf 47b7 b9a2 b5b5 0400 0000 e24d 67b7
000002e0: b3ee c1b6 df07 9235 8a24 0fb7 130d 9ab7
000002f0: 0ef9 a9b7 3de1 f736 515f c0b4 6562 9db7
00000300: 2bfa 1bb7 009c c336 39df 20b7 cf2f 8cb7
00000310: 1631 3e37 1ea9 2bb6 7f9b b6b7 a297 31b7
00000320: 3eb8 68b7 5ff9 5335 bb8a ce9c eb8a 1ab7
00000330: 1e2c a1b7 d602 ce36 25f7 48a7 20ef 85b7
00000340: ebb2 4fb7 423a 3ab5 0400 0000 ee3b 32b7
00000350: a88e 42b7 3d41 c6b5 0400 0080 b77b 21b7
00000360: 6e3c 5d37 1e0a 87b5 0400 0080 2fef b737
00000370: 097b fe36 0e1b b5b6 9a24 2637 24d7 0c38
00000380: 9171 7f37 88a1 54b6 72c5 1733 e74a a637
00000390: 1cc1 a636 5985 eab7 a780 1238 416d 0638
000003a0: 57e0 91b7 e8f2 7f37 ea15 6a37 cdaa 2635
000003b0: f30b ab36 494e e736 0f2f 161d 6801 46b6
000003c0: 2191 9636 d484 fb36 cace 4727 0330 2a37
000003d0: 8a57 ac35 0d7f 3337 0400 0080 dca1 d336
000003e0: 23b0 f3b5 1b81 6737 0400 0000 99a8 a5b4
000003f0: 3f40 a535 d9e9 36b6 0400 0080 1a8a 4637

exp_avg_sq f4 [128, 36]
1.3897261e-07 8.275221e-09 7.9202944e-10 8.3911274e-08 1.2987611e-07 9.064787e-09 1.15228485e-08 1.0154802e-07
1.348817e-07 6.6612027e-09 6.071047e-09 9.510506e-08 4.3710685e-08 4.5407464e-09 1.0682495e-07 1.3880879e-07
6.502718e-08 1.0495548e-08 8.110308e-08 1.3171648e-07 1.4323676e-07 3.3779368e-09 2.831201e-10 1.0562273e-07
1.4286734e-07 3.4622083e-09 2.686174e-09 1.1351186e-07 1.4455539e-07 2.6443374e-09 2.623747e-13 9.368387e-08
1.4204718e-07 4.300937e-09 1.0541707e-10 9.310914e-08 1.1124599e-08 7.915319e-10 1.3663136e-10 7.1822566e-09
9.761679e-09 9.386636e-10 1.6048567e-09 8.6083904e-09 1.1342453e-08 4.3551318e-10 3.3217182e-10 8.066844e-09
3.6108043e-09 6.502794e-10 8.264143e-09 1.1076889e-08 5.280573e-09 1.1460893e-09 6.1415673e-09 1.0521488e-08
1.1962119e-08 2.8034458e-10 6.1203703e-12 8.619547e-09 1.1220283e-08 4.7010873e-10 4.1802667e-10 9.328168e-09
1.1800015e-08 2.3102835e-10 1.5214278e-13 7.696166e-09 1.1810346e-08 3.9813333e-10 2.5756376e-11 7.711877e-09
7.610875e-09 1.8670786e-10 3.9057597e-11 4.956807e-09 6.587876e-09 3.7602374e-10 9.0016167e-10 5.9243166e-09
7.2030266e-09 1.8374782e-10 4.5072387e-10 5.5823732e-09 1.7551286e-09 3.514569e-10 5.996894e-09 7.3164075e-09
2.7052858e-09 5.3068383e-10 4.8584634e-09 7.168601e-09 7.7806765e-09 1.0579223e-10 1.1889084e-11 5.7110285e-09
7.132605e-09 5.7549016e-10 1.8589724e-10 5.779823e-09 7.68153e-09 1.3311607e-10 1.1881486e-14 4.9898894e-09
7.334139e-09 4.2571854e-10 3.2792974e-12 4.849466e-09 8.452805e-09 6.2632166e-10 3.1586996e-12 5.2628133e-09
8.6147e-09 3.6946612e-10 4.7510135e-10 6.5726833e-09 8.430161e-09 5.6466304e-10 2.441938e-10 6.266072e-09
2.0851105e-09 3.149424e-10 6.835337e-09 8.547802e-09 1.8737596e-09 1.4310383e-09 6.3788645e-09 8.033699e-09
8.946671e-09 2.9386255e-10 2.7939484e-12 6.6894374e-09 8.803165e-09 2.974721e-10 2.3145973e-11 6.7605166e-09
8.8372545e-09 1.8046273e-10 1.9742627e-14 5.7658434e-09 8.98325e-09 1.0725865e-10 3.2635483e-12 5.8199143e-09
3.0188968e-08 1.0808389e-09 4.638753e-11 1.7686537e-08 2.7726324e-08 1.5264167e-09 1.965916e-09 2.1191822e-08
2.9480027e-08 1.040155e-09 5.4236005e-10 1.9841757e-08 8.832928e-09 1.1215444e-09 2.1210484e-08 2.8872936e-08
1.5493917e-08 1.4285095e-09 1.4982309e-08 2.8499205e-08 3.063136e-08 4.694125e-10 2.6572904e-11 2.2475112e-08
2.9100233e-08 9.912334e-10 8.3282325e-10 2.355051e-08 2.9463326e-08 1.3257364e-09 4.4115255e-14 1.9294806e-08
3.0051005e-08 6.6647593e-10 2.9169256e-12 1.9617378e-08 3.7932153e-08 3.327259e-09 5.4716016e-11 2.1818535e-08
3.270247e-08 4.049744e-09 5.306298e-09 2.6204685e-08 3.6985508e-08 3.6788066e-09 7.502887e-10 2.4465844e-08
1.9207349e-08 1.083553e-09 2.2331118e-08 3.7454267e-08 2.084203e-08 4.0905554e-09 1.9404386e-08 3.5360898e-08
3.9758696e-08 1.2073725e-09 2.5218732e-11 2.9466277e-08 3.8971386e-08 1.5587672e-09 1.1870395e-09 3.1118628e-08
4.05591e-08 2.5798713e-10 3.527481e-14 2.6303432e-08 3.9820645e-08 8.9849866e-10 2.6454522e-12 2.5895387e-08
2.9746056e-07 8.970286e-09 6.03856e-10 1.8053657e-07 2.5341413e-07 2.029517e-08 3.3767268e-08 2.1365591e-07
2.9590018e-07 5.1575615e-09 4.4375037e-09 2.0252112e-07 9.184396e-08 1.0494186e-08 2.0901766e-07 2.8639352e-07
1.5643134e-07 1.667327e-08 1.4539347e-07 2.784159e-07 2.9692563e-07 1.0699357e-08 1.8587425e-10 2.1684562e-07
2.7762061e-07 1.8713752e-08 5.7503406e-09 2.2844928e-07 2.959891e-07 7.750038e-09 4.2242604e-13 1.9330949e-07
2.8964192e-07 1.2156131e-08 3.4485866e-11 1.9009703e-07 2.2374915e-07 7.966315e-09 2.1510861e-10 1.3144432e-07
00000000: 8038 1534 cf2a 0e32 1eb6 5930 b632 b433
00000010: 1374 0b34 5bbb 1b32 06f6 4532 9d12 da33
00000020: 00d4 1034 8fe0 e431 7f99 d031 8f3c cc33
00000030: 68bc 3b33 d404 9c31 a367 e533 780b 1534
00000040: 12a5 8b33 e94f 3432 e42a ae33 f36d 0d34
00000050: 9fcc 1934 4b21 6831 9da5 9b2f b6d2 e233
00000060: 1367 1934 d0eb 6d31 ac97 3831 cec3 f333
00000070: 1537 1b34 adb7 3531 2eb4 932a 412f c933
00000080: a285 1834 71c7 9331 89d0 e72e 4bf3 c733
00000090: 811e 3f32 1b93 5930 4f3a 162f ccc7 f631
000000a0: 51b4 2732 4a02 8130 e091 dc30 1ae4 1332
000000b0: a3dc 4232 086d ef2f 079d b62f 5b96 0a32
000000c0: f121 7831 58bf 3230 16fa 0d32 ac4c 3e32
000000d0: 6970 b531 6f84 9d30 cc05 d331 fec1 3432
000000e0: f581 4d32 fe1e 9a2f 6557 d72c 2b15 1432
000000f0: 54c3 4032 f638 0130 06d0 e52f b741 2032
00000100: 04b9 4a32 b304 7e2f 2c4c 2b2a 1938 0432
00000110: 73e6 4a32 49e0 da2f 348e e22d 327d 0432
00000120: fbc0 0232 9749 4d2f f2c6 2b2e 8950 aa31
00000130: 925b e231 a3b8 ce2f 3f6f 7730 d78e cb31
00000140: 7e7e f731 6a08 4a2f bfc9 f72f 13cf bf31
00000150: 1939 f130 2937 c12f 3d0d ce31 cd63 fb31
00000160: e4e7 3931 8edf 1130 7fef a631 ae4f f631
00000170: c7ab 0532 bba3 e82e ad27 512d bd3a c431
00000180: 0f13 f531 8530 1e30 6c65 4c2f dc97 c631
00000190: baf7 0332 d85c 122f af09 5628 8873 ab31
000001a0: c5ff fb31 8f0a ea2f 92c2 662c 5ba0 a631
000001b0: d437 1132 7829 2c30 1346 5e2c 32d4 b431
000001c0: daff 1332 bc1d cb2f 4998 0230 efd5 e131
000001d0: 3dd4 1032 a136 1b30 393f 862f f44c d731
000001e0: a749 0f31 3424 ad2f 43dc ea31 a1d9 1232
000001f0: 87c3 0031 2fae c430 162d db31 9504 0a32
00000200: e0b3 1932 7a8d a12f 4d9b 442c ead8 e531
00000210: bb3c 1732 7a89 a32f 1998 cb2d 224a e831
00000220: a8d2 1732 be6b 462f 66d3 b128 e51c c631
00000230: c054 1a32 41dd eb2e dca6 652c 82f8 c731
00000240: 1fa9 0133 a38c 9430 b703 4c2e 1bed 9732
00000250: d52a ee32 03ca d130 c318 0731 4f09 b632
00000260: 443b fd32 33f5 8e30 3215 1530 7c70 aa32
00000270: a1bf 1732 d624 9a30 5932 b632 4204 f832
00000280: 7c17 8532 3655 c430 72b2 8032 6ace f432
00000290: 898f 0333 f807 0130 dcbc e92d 4b0f c132
000002a0: 17f8 f932 ed3b 8830 baec 6430 1f4c ca32
000002b0: 8a16 fd32 3435 b630 6dad 4629 babd a532
000002c0: 6e11 0133 1333 3730 a942 4d2c 1283 a832
000002d0: d8ea 2233 c2a5 6431 c2a4 702e 776b bb32
000002e0: bf74 0c33 ed25 8b31 b152 b631 b618 e132
000002f0: ffd9 1e33 40ce 7c31 e03c 4e30 f628 d232
00000300: 68fd a432 22ec 9430 a6d2 bf32 67dd 2033
00000310: 1c08 b332 e88c 8c31 b2ae a632 b8df 1733
00000320: 26c3 2a33 a5f0 a530 89d3 dd2d 071d fd32
00000330: 7e61 2733 3f3c d630 3d25 a330 4ba7 0533
00000340: 3433 2e33 76d4 8d2f 16dd 1e29 dcf1 e132
00000350: 4307 2b33 39fa 7630 3b28 3a2c 8f70 de32
00000360: abb2 9f34 bc1b 1a32 97fc 2530 84d9 4134
00000370: f90c 8834 8d55 ae32 8107 1133 4a69 6534
00000380: 36dc 9e34 6436 b131 b278 9831 9574 5934
00000390: c03b c533 eb49 3432 566e 6034 a0c1 9934
000003a0: 85f7 2734 e938 8f32 741d 1c34 3179 9534
000003b0: 2669 9f34 45d0 3732 f35e 4c2f 12d6 6834
000003c0: e30b 9534 fabf a032 8894 c531 a94b 7534
000003d0: 6fe8 9e34 0725 0532 02ce ed2a 8290 4f34
000003e0: 1580 9b34 3bd7 5032 a2ab 172e 791d 4c34
000003f0: b33f 7034 39dc 0832 b183 6c2f 2423 0d34

exp_avg f4 [128]
-3.3477092e-05 -2.1404676e-06 -4.4431754e-06 4.254728e-06 -3.898285e-06 -1.3073578e-05 1.19828455e-05 -1.5208091e-06
1.7516388e-05 5.6678036e-06 -1.5001958e-05 -1.3098329e-05 -6.036581e-07 -4.458431e-06 8.78313e-06 1.9389975e-06
-2.2957325e-05 2.203343e-06 1.0667272e-05 7.8691155e-06 1.6448697e-06 1.5486676e-05 1.0165979e-05 8.617209e-06
1.282452e-05 5.8617716e-06 6.5514695e-07 -1.7534154e-05 -1.682516e-05 3.780664e-07 -8.452183e-07 -3.4294899e-06
-2.325298e-08 -2.6814845e-07 9.986969e-07 8.61974e-06 2.6246105e-06 -5.7085895e-06 -2.1785454e-06 -1.6304883e-06
3.4994994e-06 7.453138e-06 2.786053e-06 1.0552572e-05 -1.5147869e-05 -1.5739675e-05 -3.5373708e-07 2.6665496e-06
-6.97829e-06 3.556159e-06 8.715999e-06 -1.330592e-05 1.2165443e-05 -1.4143364e-05 -1.09020075e-05 3.7127793e-06
-1.3237636e-05 1.4593088e-05 5.3750578e-06 7.170963e-06 3.0306166e-05 -5.6182745e-07 -8.513651e-06 -5.2229866e-06
5.703454e-05 3.1935386e-07 -1.5427732e-06 -1.6115736e-06 2.731292e-05 4.404497e-06 -2.876994e-05 -1.5995316e-06
-7.816122e-07 -7.742768e-06 2.9421806e-05 -2.2538667e-05 1.6784638e-06 -4.45405e-06 4.5128622e-06 2.1768415e-06
-3.0021188e-06 -5.164034e-06 3.408814e-05 -7.2103245e-07 -1.249783e-05 1.1102053e-05 -7.0999017e-06 -6.2348063e-06
-1.4608892e-07 -2.5410855e-05 9.95214e-06 8.160207e-06 4.857461e-07 1.4201714e-06 -2.4553495e-07 2.6294854e-05
-7.0975516e-06 -1.3122971e-05 -1.3995607e-05 1.1910475e-05 -1.3315821e-06 -5.9606776e-07 9.799137e-06 1.6496541e-06
-1.0108589e-05 -6.4191454e-06 3.8082817e-06 3.8872474e-07 6.7210253e-06 -3.7006754e-05 -9.756607e-06 4.700603e-06
-6.494983e-07 -1.7353961e-05 -5.7430066e-06 -6.653588e-07 -2.318591e-06 -6.7274814e-06 7.239689e-06 -2.111543e-05
-6.7338747e-06 2.6169619e-05 8.06932e-06 1.5603603e-06 1.3639534e-06 -3.6622025e-06 -1.0685018e-06 2.0023315e-06
00000000: c169 0cb8 f4a4 0fb6 9616 95b6 d6c3 8e36
00000010: 03ce 82b6 9756 5bb7 ee09 4937 9a1e ccb5
00000020: 28f0 9237 102e be36 ebb0 7bb7 e5c0 5bb7
00000030: 120b 22b5 a199 95b6 425b 1337 b91f 0236
00000040: 7b94 c0b7 25dd 1336 96f7 3237 9805 0437
00000050: 4bc5 dc35 62e9 8137 8c8e 2a37 a192 1037
00000060: e528 5737 3cb0 c436 5bdd 2f35 4f16 93b7
00000070: c223 8db7 0df9 ca34 f6e2 62b5 3026 66b6
00000080: d8bd c7b2 0bf6 8fb4 f70a 8635 809d 1037
00000090: 7722 3036 698c bfb6 2033 12b6 27d7 dab5
000000a0: f1d8 6a36 f815 fa36 07f8 3a36 f40a 3137
000000b0: 9a23 7eb7 b208 84b7 41e9 bdb4 f9f2 3236
000000c0: 0e27 eab6 59a6 6e36 ee3a 1237 7e3c 5fb7
000000d0: 2e1a 4c37 4949 6db7 c4e7 36b7 1029 7936
000000e0: 3717 5eb7 d6d4 7437 655b b436 1a9e f036
000000f0: ff39 fe37 7dd0 16b5 dad5 0eb7 1d41 afb6
00000100: 5f38 6f38 a973 ab34 4911 cfb5 3f4d d8b5
00000110: 0d1e e537 57ca 9336 fa56 f1b7 7daf d6b5
00000120: fbcf 51b5 efe6 01b7 d9ce f637 6b11 bdb7
00000130: 9447 e135 0074 95b6 316d 9736 da15 1236
00000140: 0278 49b6 b746 adb6 ddf9 0e38 f98c 41b5
00000150: c5ad 51b7 f442 3a37 b13b eeb6 9434 d1b6
00000160: 9edc 1cb4 6529 d5b7 1ef8 2637 d2e7 0837
00000170: 3864 0235 b89c be35 11d2 83b4 c593 dc37
00000180: 8127 eeb6 bb2a 5cb7 adce 6ab7 1ad3 4737
00000190: d0b8 b2b5 7701 20b5 f966 2437 af69 dd35
000001a0: 0f98 29b7 0a64 d7b6 c891 7f36 ecb1 d034
000001b0: 2b85 e136 b337 1bb8 4fb0 23b7 dfb9 9d36
000001c0: 2f59 2eb5 5993 91b7 0db4 c0b6 1c9b 32b5
000001d0: 1799 1bb6 a0bc e1b6 74ec f236 0a21 b1b7
000001e0: 8bf3 e1b6 d486 db37 7761 0737 926d d135
000001f0: 1511 b735 29c4 75b6 7169 8fb5 cb5f 0636

exp_avg_sq f4 [128]
1.4723673e-07 1.2157992e-08 7.857044e-09 9.151891e-09 3.100279e-08 4.0739998e-08 3.0520465e-07 2.3026992e-07
5.367119e-08 1.0501946e-08 6.2008843e-07 2.402167e-07 6.4562866e-09 6.916309e-07 8.1370864e-08 5.026653e-08
7.123672e-08 2.6998015e-07 5.309087e-09 9.978544e-08 6.645677e-08 2.5764702e-08 5.8117204e-09 4.9929096e-09
1.00279706e-07 1.1039929e-07 2.4384889e-08 1.7627878e-08 1.955138e-08 7.875804e-09 6.582116e-09 6.096392e-07
3.702262e-08 1.7853288e-10 1.15271064e-07 3.102769e-08 5.3528626e-09 2.3588253e-08 1.10292454e-07 4.2965112e-08
3.811815e-09 1.3975566e-07 1.2914175e-07 6.88684e-08 3.219448e-07 3.1027284e-08 2.0094394e-10 2.11548e-08
1.8487198e-08 3.465197e-08 4.1219956e-09 2.0310686e-07 6.6192946e-08 1.3845882e-07 4.617156e-08 4.425085e-07
2.1365723e-07 5.1756654e-08 2.0309832e-09 4.177549e-09 4.245224e-08 7.61546e-08 1.1756505e-08 1.01661e-08
1.7388756e-07 1.8305111e-07 1.4090967e-08 4.688177e-08 8.087782e-08 1.7775588e-07 7.7966156e-08 5.4737286e-09
1.3811621e-10 5.5459047e-08 1.13856444e-07 5.986721e-07 1.1708213e-09 3.8217647e-09 6.001931e-08 7.9506925e-09
2.7305808e-07 3.4193306e-08 4.283356e-08 1.4386271e-08 7.3124564e-09 3.0159477e-08 1.3193187e-07 7.572547e-08
2.7634008e-09 3.8002563e-07 1.2744016e-07 1.8832621e-07 3.153502e-10 4.8951495e-08 7.041851e-08 1.2527617e-07
7.1568143e-09 4.6618787e-08 2.9082623e-08 1.9546095e-08 4.685904e-09 4.6976796e-09 9.191602e-10 2.4506739e-09
3.0524652e-07 8.1511466e-08 2.6225226e-08 2.7268554e-09 4.1275183e-07 2.8485914e-07 1.2545495e-07 3.7624307e-08
1.9022155e-09 3.651191e-08 1.5459326e-08 9.353623e-10 8.1009455e-07 6.725679e-08 1.8627349e-08 1.4899759e-07
3.6611187e-09 6.376324e-07 4.534379e-08 4.8403517e-09 5.86477e-08 8.057249e-09 7.594629e-08 6.650888e-08
00000000: 2018 1e34 6adf 5032 a5fb 0632 713a 1d32
00000010: ee27 0533 1afa 2e33 02db a334 1d40 7734
00000020: 1984 6633 0c6c 3432 2774 2635 22f7 8034
00000030: 19d6 dd31 83a8 3935 1bbe ae33 a2e4 5733
00000040: cdfa 9833 caf1 9034 396b b631 a049 d633
00000050: ffb6 8e33 2e51 dd32 6fb0 c731 198e ab31
00000060: 5a59 d733 a714 ed33 f076 d132 1d6c 9732
00000070: f0f1 a732 274e 0732 e828 e231 16a6 2335
00000080: cd02 1f33 8a4c 442f f08a f733 4e43 0533
00000090: 47ec b731 1e9f ca32 ebd9 ec33 a488 3833
000000a0: 14f9 8231 be0f 1634 37aa 0a34 cee4 9333
000000b0: c2d7 ac34 dc42 0533 b1f0 5c2f e6b7 b532
000000c0: c7cd 9e32 3ed4 1433 75a1 8d31 9715 5a34
000000d0: f525 8e33 45ab 1434 2b4e 4633 e891 ed34
000000e0: a769 6534 0b4b 5e33 6f91 0b31 1c8a 8f31
000000f0: bb54 3633 6f8a a333 a8f9 4932 fba6 2e32
00000100: d9b5 3a34 b58c 4434 ba14 7232 0d5b 4933
00000110: 0daf ad33 2add 3e34 596e a733 6d13 bc31
00000120: 42dc 172f de31 6e33 3e81 f433 6fb4 2035
00000130: 9dea a030 9950 8331 f7e3 8033 8497 0832
00000140: d198 9234 f0db 1233 fff7 3733 7d27 7732
00000150: 0c41 fb31 b288 0133 28a9 0d34 849e a233
00000160: 43e6 3d31 5306 cc34 7cd6 0834 b736 4a34
00000170: 985d ad2f bd3e 5233 fc38 9733 a783 0634
00000180: 01e8 f531 e639 4833 5dd1 f932 51e6 a732
00000190: a601 a131 3a69 a131 26a8 7c30 b668 2831
000001a0: c3e0 a334 670b af33 e245 e132 5963 3b31
000001b0: 2e98 dd34 beee 9834 cbb4 0634 5d98 2133
000001c0: 21b8 0231 45d1 1c33 6bcb 8432 238e 8030
000001d0: 4675 5935 d06e 9033 f901 a032 25fc 1f34
000001e0: 1597 7b31 c429 2b35 06c0 4233 2f50 a631
000001f0: d4e3 7b33 286c 0a32 ea17 a333 a5d3 8e33
