results/bonusRewardAgent/CarFindGoal/CarFindGoal-2499943.onnx (onnx, 88006 bytes, 7 tensors)

network_body._body_endoder.seq_layers.0.weight f4 [128, 36]
000000 1f 3d 86 be 2a d3 ba bd fd ce 95 3d 41 45 19 3e
       -0.26218507 -0.091223076 0.073148705 0.14967825
000010 da d2 0b bc da 8d 8e bd 68 d5 e1 3c f7 5a c5 bc
       -0.008534158 -0.0696065 0.02756758 -0.024091227
000020 52 5c 71 bd 4d d6 d3 3d 00 7f 45 3e 2f 32 b0 3e
       -0.058925934 0.10343609 0.19286728 0.34413287
000030 a1 88 41 3e 9a 55 72 be 41 b6 d4 3d 46 41 35 bd
       0.18899776 -0.23665467 0.10386325 -0.044251703
000040 cf 97 3a 3d 87 ac f2 3d 16 7e 96 bd 88 ab 9a 3c
       0.045554932 0.11849313 -0.07348268 0.01888062
000050 37 44 22 3e dd 88 0b 3e a4 24 87 bb 04 a9 5e 3e
       0.15846334 0.13626428 -0.004124241 0.21744162
000060 7c cf 07 3d 81 3e 8c be 8c d8 43 be 6b 52 f7 bb
       0.033156857 -0.27391437 -0.19125575 -0.007547667
000070 fc 18 ae bc 03 53 13 3d 50 1c c5 3d e5 4d 1d bd
       -0.021252148 0.035967838 0.09624541 -0.038404364
000080 2c 82 06 be fc 35 39 bd b4 99 69 3e 75 06 08 3e
       -0.13135594 -0.0452175 0.2281254 0.13283713
000090 2d 9d f1 3c 2f 34 43 3d 24 8e 10 3d 71 10 1d be
       0.029493893 0.047657188 0.035291806 -0.15338303
0000a0 2f f9 de bd 4c 96 12 3e 5a 1e 75 bd 35 06 11 3e
       -0.10887372 0.14315146 -0.0598434 0.14162524
0000b0 64 fa 69 3e 6f ba ae 3d f6 35 1e be b3 83 31 be
       0.22849423 0.08531653 -0.15450272 -0.17335396
0000c0 05 87 aa bc 43 73 ae bd e5 c8 b5 3d f2 b1 1d be
       -0.020816335 -0.08518078 0.08876208 -0.15399912
0000d0 0e 5d 25 bd cd a0 f0 3d a1 35 7b be 7a df b3 bd
       -0.040371947 0.1174942 -0.24532177 -0.08782859
0000e0 54 5a 52 3e ca 9e 89 3c a8 e0 18 3e 4e 25 15 3c
       0.2054227 0.01679935 0.1492945 0.009103132
0000f0 fd 32 90 3c b2 58 8c 3e 5e f1 16 3e 07 98 bf 3e
       0.017602438 0.2741142 0.14740512 0.37420675
000100 57 0e ff bd 14 7f b8 bd 21 50 25 be e4 24 eb 3d
       -0.12453907 -0.09008613 -0.16143848 0.11481646
000110 cb b9 2f be 3b be 01 be c7 cb ae 3d b3 9f 95 3d
       -0.17160718 -0.12670223 0.08534961 0.07305851
000120 33 33 1c 3e 37 38 40 be 25 2f 73 3e dd c3 18 3e
       0.15253906 -0.18771444 0.23748453 0.14918466
000130 0e ad c4 bd ea b8 94 bd 93 09 1d be aa be e9 3d
       -0.0960332 -0.07261832 -0.15335684 0.114133194
000140 3a 4e 0f bc c8 b8 89 be 90 cd 05 3e a0 94 61 3d
       -0.008746678 -0.2689879 0.13066697 0.05507338
000150 7e fd f7 bd 8a ce 7e bd c2 cc b9 bd b3 a2 c8 3d
       -0.12108897 -0.06220869 -0.090722576 0.097966574
000160 f7 ba 60 bc bd 72 82 bd 69 b7 f3 bd 6f 3d 0d bd
       -0.013716451 -0.06369541 -0.11900217 -0.034482416
000170 e7 ea 67 3e 3f c4 3a be f7 1b 22 bd 1b 72 b4 3c
       0.22648202 -0.18238924 -0.03957745 0.022027066
000180 03 8e 03 be c7 ae 26 3e 96 69 9f 39 6f c1 f5 3d
       -0.12847142 0.1627761 0.0003040551 0.11999785
000190 c5 dd 18 be 30 46 8b be 21 08 4b 3e 1b 71 f0 3d
       -0.14928348 -0.27201986 0.1982732 0.11740323
0001a0 4b 0d 86 bd 1f 97 74 3e 5f 4b 17 be 06 25 80 bd
       -0.06545504 0.23885773 -0.14774846 -0.06257062
0001b0 5d ac 63 3d 5b 9d cd 3e 88 2a 3b bb 88 8a 0b be
       0.0555843 0.40159115 -0.0028559286 -0.13627064
0001c0 9a 0a 31 3e 6e 0e 9d bd fd 7b 06 be 4e 47 0d 3e
       0.172892 -0.07668768 -0.13133235 0.13796732
0001d0 2a 67 08 be 50 e7 d4 be f3 25 04 be 1d ed 34 be
       -0.13320604 -0.41582727 -0.12905101 -0.17668577
0001e0 8b a5 4d 3e b2 36 c9 3c 91 25 3c 3d 99 b2 b1 bc
       0.20082681 0.024562214 0.045934264 -0.021691607
0001f0 ad e4 f4 bd 6e 3f b7 3e db 3f 9e bd 5e 3a ac bc
       -0.11957679 0.3579058 -0.07727023 -0.021023925
000200 9c 55 e5 bd 71 87 17 3d 15 c7 8a be 10 e0 16 3e
       -0.11197969 0.0369944 -0.27105013 0.1473391
000210 cc a7 7c 3e d3 03 df bd 0c fa e1 bd 2e d2 80 be
       0.24673384 -0.10889401 -0.11034021 -0.25160354
000220 9b 3c 4c be ae f9 a7 3d fb cf 69 bd d1 92 dc bd
       -0.19944994 0.082019195 -0.05708311 -0.107701905
000230 b1 60 bd bd 40 d5 90 be a1 4c d7 3d aa 89 13 3e
       -0.09246958 -0.28287697 0.10512663 0.14407983
000240 06 21 aa 3d 0a 41 85 bd b2 5a 1e be aa 48 70 bd
       0.0830708 -0.06506546 -0.15464285 -0.058663048
000250 a3 0a 64 3d fc 5d 6c be c0 be bb bd b7 38 01 be
       0.055674206 -0.23082727 -0.09167242 -0.12619291
000260 a6 5d 08 3e 76 b7 32 bd 68 c1 93 bd 94 9b c4 bd
       0.13316974 -0.043631993 -0.07214624 -0.09599987
000270 d9 86 69 3d eb 64 2e 3b 9a 3e 2d bd 0a 75 ce 3c
       0.057013366 0.0026610445 -0.04229603 0.025202293
000280 fb fc 19 bd ce 32 83 be ae f4 81 be 67 74 93 3d
       -0.037594777 -0.25624698 -0.25381988 0.07199936
000290 25 f0 61 3e e5 ba 0f 3e 94 ea 25 3e ee 65 26 3d
       0.22064264 0.14036138 0.16202766 0.04062455
0002a0 85 82 27 bd c6 f7 1b be 55 e6 7f 3e 42 2b 31 be
       -0.040895957 -0.15231237 0.24990208 -0.17301658
0002b0 4f f1 ad be 95 15 a3 3e 43 f6 48 3d d2 52 08 be
       -0.33973166 0.31852403 0.04906298 -0.13312843
0002c0 76 b2 58 3e 10 4a df 3d 3f a2 aa 3d 4d d6 83 bd
       0.21161827 0.10902798 0.08331727 -0.06437359
0002d0 4e 8f bf bc ec b5 ce 3d 52 71 d2 be 97 46 8b bd
       -0.023383763 0.100932926 -0.41102082 -0.06800573
0002e0 fd 4d 7b be b8 56 a0 bd 99 4f da 3e fe ec 9d bd
       -0.24541469 -0.0782904 0.42638853 -0.07711218
0002f0 59 5a b4 be d3 e7 0c bd b6 9b af be 46 da c4 3e
       -0.3522518 -0.034400772 -0.34298486 0.3844778
000300 cc 63 0e 3e 99 ec aa be 20 99 8f bd 03 1c e8 3d
       0.13905257 -0.33383635 -0.07011628 0.11333468
000310 2e 83 94 bc 11 06 1d 3e a1 15 22 bd 6c a5 f3 bc
       -0.018128958 0.15334345 -0.03957141 -0.029741965
000320 cc 80 d8 bd 9d 91 e9 3d 8b c3 4a be fd a9 4e 3e
       -0.10571441 0.11404727 -0.19801156 0.20182033
000330 7f 77 4b 3e 3f 63 40 bd 82 82 0d 3e b2 4c 02 be
       0.19869803 -0.04696965 0.13819316 -0.1272457
000340 5c 3a c6 3d bc 09 1f be 6c 0b bb 3b 56 39 d6 3c
       0.096791 -0.15531057 0.0057081487 0.026150387
000350 43 39 48 3e 23 9f df 3c a1 32 a1 bd c7 11 35 be
       0.19553094 0.027297562 -0.07870985 -0.17682563
000360 8f 22 d9 3d 8c d9 3b be dd 7d f7 bd 74 cf 57 bd
       0.10602295 -0.18344706 -0.120845534 -0.052688077
000370 c0 26 18 be c3 78 13 bc ad 71 42 bd b5 d6 17 3d
       -0.14858532 -0.00900096 -0.04747169 0.037069995
000380 70 92 e4 3e 19 63 83 3d 08 16 2b bd aa a2 aa 3c
       0.44642973 0.06415386 -0.041769058 0.020829517
000390 37 69 33 3e b9 ea c6 3b 23 42 b7 3d d1 15 9f 3d
       0.17520605 0.0060704616 0.089481615 0.07767833
0003a0 01 b4 55 3d c1 af 13 be 4c 5a 9e be da 90 19 3e
       0.05217362 -0.14422514 -0.30928266 0.14996663
0003b0 cf 03 87 bd e5 b3 b0 3d 43 33 22 be d5 e1 5f bc
       -0.06592523 0.08628062 -0.15839867 -0.013664682
0003c0 90 41 67 3e 81 05 cc 3e e7 ec a2 bd d3 bb 9f be
       0.22583604 0.3984795 -0.07955342 -0.31197986
0003d0 2b 4a 2a be 44 41 4b 3e 54 7b 5f bd fc c0 f1 3c
       -0.16629855 0.19849116 -0.054560974 0.029510967
0003e0 23 2f 4e be 93 54 bb bc 4b e6 3b bc 87 c5 b3 bd
       -0.20135169 -0.022867477 -0.01146848 -0.0877791
0003f0 13 7b 15 3e eb 00 1f bd 2a b6 9d 3b 60 58 78 bd
       0.1459773 -0.038819235 0.0048129754 -0.060631156

network_body._body_endoder.seq_layers.0.bias f4 [128]
000000 6e 4b 8c b9 c5 cf ae bc 42 1b b5 bc 2a 53 1a 3c
       -0.0002675908 -0.021339307 -0.022107724 0.009419242
000010 a5 2d 58 3c 33 49 6c bc 6d 28 c6 ba a3 c2 91 3b
       0.013194476 -0.014421749 -0.0015118249 0.0044482513
000020 2e ac 38 bc 78 e5 e1 3b e5 0b 99 3c 6b 43 91 bc
       -0.01127152 0.00689381 0.01868243 -0.017732343
000030 eb c4 49 3c af 43 5d 3c 22 cf da ba eb 24 f8 bc
       0.012315015 0.013504907 -0.001669381 -0.030291041
000040 97 03 e7 3b 94 05 ad bc 99 8f 25 3b 7b 22 86 3c
       0.0070499885 -0.021120824 0.0025262593 0.016373863
000050 63 45 34 3c 16 de 8d bc 68 6e 1f 3c 99 3d 93 3c
       0.011002871 -0.017317813 0.009730913 0.017973708
000060 9f 15 37 bb b9 df 0c bc b2 ef b5 bc 06 d5 8a 3a
       -0.002793647 -0.0085982615 -0.022209022 0.001059205
000070 f3 10 9c bc df 37 58 bd 08 b1 34 3c a1 04 1f 3d
       -0.01905105 -0.052787658 0.011028536 0.038822774
000080 49 57 fb bc 9d 6e 1c bd d0 8f c5 3b 97 b3 ad 3b
       -0.03068127 -0.038191427 0.0060291067 0.00530095
000090 80 50 df 3b aa 72 fe 3c b1 ef 28 3c d7 3c 46 bb
       0.0068150163 0.031060535 0.010311053 -0.0030248666
0000a0 c7 fc 95 3b 20 da 44 3c 1c 80 17 bc d3 32 62 bc
       0.0045772525 0.012014896 -0.009246852 -0.013806063
0000b0 80 9d 58 3b 92 1e e5 bb 72 4d 4b bd 0f cb 44 3c
       0.0033052862 -0.0069921697 -0.049634404 0.012011304
0000c0 99 d4 b4 3c 1c 2c 87 3c 54 e1 76 3c 52 f5 12 3d
       0.02207403 0.016500525 0.015068371 0.035878487
0000d0 23 ad ae 3c c0 69 60 39 28 37 88 bc 9e c1 d1 bb
       0.021322792 0.000214017 -0.016627863 -0.006401255
0000e0 1c 28 3a bc 61 70 cf ba c7 7e b5 3b eb 77 e1 bc
       -0.011362102 -0.0015826338 0.0055387947 -0.027523002
0000f0 4e 9d 94 3b 0e 22 b2 bb 42 5f a3 3c f2 bc c5 bc
       0.0045353537 -0.0054361885 0.019942883 -0.024137948
000100 33 ae 66 3c aa 2e 41 3c 52 69 1e 3b df de 61 bc
       0.014079618 0.011790911 0.0024171663 -0.013786047
000110 3f dc d8 bc f7 80 0d 3c 8b 77 91 bb de 93 40 3a
       -0.026472209 0.008636705 -0.0044392995 0.00073462527
000120 3c f9 0d bc 53 52 6d bc ce 3e 43 bb 08 05 ad 3a
       -0.008665379 -0.01448496 -0.0029792073 0.0013200352
000130 fa 21 2a bb ff 21 37 3d ee 53 b1 bc c9 f6 78 3a
       -0.0025960193 0.044710156 -0.021646466 0.0009497223
000140 64 91 5d 3c eb 0a 2a 3c b6 8b b3 3a 5a 0d d1 ba
       0.013523433 0.01037858 0.0013698253 -0.0015949414
000150 3d a5 06 bc d0 8c ad 3b f7 6f fd 3c 79 97 68 bc
       -0.008218107 0.005296327 0.030937178 -0.01419627
000160 74 9e 4f 3c c4 2e 2d bc 84 8b 88 bc eb 97 00 3c
       0.0126720555 -0.010570232 -0.016668089 0.00784872
000170 bf 54 64 bd 17 1e 8b 3b 71 8c 9c bc f6 9b fc 3b
       -0.055744883 0.0042455303 -0.019109936 0.0077090217
000180 a9 24 18 bc 73 b4 9b 3b a9 a6 c3 bc 3b 4f d6 ba
       -0.009286084 0.004751736 -0.02388318 -0.0016350517
000190 fb 9b ef bb e0 20 0d 3b 24 11 fe bc ec a6 02 3d
       -0.0073122955 0.0021534488 -0.031014033 0.03189747
0001a0 a0 6d 84 3a b5 79 a8 bc bb b5 42 bb da 94 90 3c
       0.0010103472 -0.020565847 -0.002971037 0.017649103
0001b0 bc 93 f8 bb c7 98 82 ba 1a 8a 5e bc 60 50 5e bb
       -0.0075859707 -0.0009963744 -0.013582731 -0.003392242
0001c0 30 95 b7 3c 25 4f c4 bc 17 a2 62 bc 99 48 97 3c
       0.022410005 -0.02396352 -0.013832591 0.018467234
0001d0 41 94 35 bb fe d1 ea 3c ee f6 be bb 6f 23 9f 3c
       -0.0027706774 0.028664585 -0.005827776 0.019426076
0001e0 99 0b b7 3c 53 0d f5 b9 5d a7 d7 3c a4 2f 35 bd
       0.022344397 -0.0004673997 0.026324922 -0.044234887
0001f0 19 de cb bc 41 ef f7 3b af 00 ab bc 6c 8d d8 ba
       -0.024886178 0.007566363 -0.02087435 -0.0016521639

network_body._body_endoder.seq_layers.2.weight f4 [128, 128]
000000 6b 26 a9 3d 7e 09 b3 3c 00 2d 03 3e 6b 3d e4 3d
       0.08259281 0.021855112 0.12810135 0.11144527
000010 f7 d8 a8 bc 42 05 99 bd dc b7 50 3d b1 07 9d 3b
       -0.02061127 -0.07471706 0.050956592 0.0047921767
000020 c0 f1 b2 bd b6 76 06 bc a3 c0 fb bd dc 4c 8f 3d
       -0.087375164 -0.008207014 -0.12292602 0.06997082
000030 4c c9 bf 3d 42 00 ac 3e 35 2e 1f be 41 d9 8b bd
       0.09364566 0.33593947 -0.1554497 -0.06828547
000040 64 f7 1b bd 9d 09 71 bd f2 32 55 3e 22 a6 20 be
       -0.038077727 -0.05884706 0.20820215 -0.15688375
000050 8f d0 cc 3d 77 ff 08 bd 29 d8 f8 3d 8e 2e 56 3e
       0.10000717 -0.033446755 0.12150604 0.20916197
000060 e7 12 b1 3c 61 e5 f1 3d 9d 94 a6 bd aa b7 45 3d
       0.021615459 0.11811329 -0.081338145 0.04827086
000070 41 f0 89 3e c5 93 de 3c bb 5b ed bc 33 9b 1b be
       0.26941112 0.027170071 -0.028974405 -0.15195923
000080 50 9a b2 bc cd 0a 9c bd 45 0e 33 3b 47 96 5d be
       -0.021802098 -0.076192476 0.0027321738 -0.21639358
000090 9e 36 10 be e3 9f 43 bd b7 06 8b bd 4c be 1c be
       -0.14083335 -0.0477599 -0.0678839 -0.15306967
0000a0 0e 9c e6 3d 0b 1d 59 bd 0c 98 07 3d 9c 26 e8 bc
       0.11260234 -0.053006213 0.033103988 -0.028338723
0000b0 36 9d 91 bd 4f 6d 00 3e 1a ce de bd 98 f1 f8 bd
       -0.07110064 0.12541698 -0.108791545 -0.12155455
0000c0 be 9c cc 3d 40 d2 a2 3d 91 bb 3d be f1 c1 0c be
       0.09990834 0.07950258 -0.18528582 -0.13745858
0000d0 4b c4 6c 3e bb 9c 27 bc ef 0f df bc c6 9f 2c 3c
       0.23121755 -0.010230239 -0.027229277 0.01053614
0000e0 b5 23 11 be 17 79 7c 3c b5 8c 73 bd 73 fe 11 be
       -0.14173777 0.015409729 -0.05946036 -0.14257221
0000f0 8b 73 71 3d 6d 67 da 3d b2 96 df 3d 36 64 29 be
       0.05894808 0.10664258 0.10917415 -0.16542134
000100 58 de ae 3d 02 58 01 3e 40 b0 97 3c 8f 71 12 3e
       0.085385025 0.12631229 0.01851666 0.14301132
000110 51 2e 1d be 32 a7 d0 3c 4c 86 73 3c 60 fb 8a bb
       -0.153497 0.02547035 0.014863562 -0.004241392
000120 16 42 c7 3c c7 31 9c bd 3f 42 65 3d a9 36 83 bd
       0.024323504 -0.07626682 0.05597138 -0.0640691
000130 89 9c 25 3e 35 27 8a 3d b8 d8 87 3d 87 bf 80 bc
       0.16172995 0.067457594 0.06633133 -0.015716327
000140 96 91 e2 3d 19 b5 9a bc d3 41 1e 3d 08 8e 5a be
       0.110629246 -0.018885182 0.038636994 -0.21343243
000150 b5 88 1e 3d 46 78 0d 3d 73 ba 8b 3d dc 8a 15 3d
       0.038704593 0.03453853 0.06822672 0.03650938
000160 e7 3f 15 bd 3f 9d 52 3c d7 2e f0 3d c5 bc 91 bb
       -0.036437895 0.012854873 0.11727684 -0.004447552
000170 08 c8 7a bd d9 f1 0e 3e b2 f5 32 bd 8d 56 5c bd
       -0.06122592 0.13959445 -0.043691345 -0.05379348
000180 9c 56 dc bd 94 01 02 be 20 68 f6 3c 15 30 74 bc
       -0.10758707 -0.12695915 0.030078948 -0.014904042
000190 c0 eb c6 3d 51 65 00 3e 41 35 73 3c 6a d9 2a ba
       0.097129345 0.12538649 0.01484424 -0.00065173826
0001a0 ba 33 03 3e 68 ea 81 3d 56 a4 de 3d 01 cb 5c be
       0.12812701 0.063435376 0.10871188 -0.21561815
0001b0 af 9b 92 bc 38 1f 32 be 38 c9 0c be 7d 34 c9 3c
       -0.017896501 -0.17394722 -0.13748634 0.024561161
0001c0 14 22 21 3e e8 a2 03 bd d7 ed d5 3d f6 26 b3 3d
       0.15735656 -0.03213778 0.10445755 0.087476656
0001d0 a5 76 1e bd dd 8d 04 3e 9c 4b 38 3d fb 6c 18 3e
       -0.038687367 0.12944742 0.04499398 0.14885323
0001e0 94 c6 2e 3e 86 10 20 be 62 c3 1a be 46 18 07 3d
       0.17067939 -0.15631303 -0.15113595 0.032982133
0001f0 c1 72 d2 3c f6 c4 2a be 42 ff 65 3d 86 cf 06 bd
       0.025689485 -0.16676697 0.056151636 -0.032912754
000200 6e 01 80 3d 05 f0 36 bd 4f 67 a9 bd a1 b2 4e 3c
       0.06250273 -0.044662494 -0.08271658 0.012615831
000210 30 df 47 bd 2f 5c 4a 3d 14 f1 5c bb fe 0c 50 be
       -0.048796833 0.04940432 -0.003371303 -0.20317456
000220 a3 ae f3 3c 2c bb 0a 3d 85 1c 3f be 8e e5 16 be
       0.02974636 0.033869907 -0.18663223 -0.14736006
000230 7e 2a 7c 3d 17 e0 2b 3c 1b 40 90 bb f8 cc 48 3c
       0.06156396 0.010490439 -0.004402173 0.0122559
000240 7a b1 c2 bd c5 44 92 bd a4 8a 2a 3d e3 aa 02 3d
       -0.09506507 -0.07142023 0.041636124 0.03190125
000250 75 fe 79 bd c7 c3 55 bd 90 78 37 bc 28 33 1b bd
       -0.061033685 -0.05218866 -0.011198178 -0.037890583
000260 7d d9 42 bc f2 d8 60 be a3 34 5a 3c 71 cf fb bc
       -0.011892674 -0.21957758 0.013318214 -0.030738564
000270 5c 45 cf bc 8c dc a7 3d ca 0b 97 3b 97 d5 a1 bd
       -0.025301628 0.08196363 0.0046095597 -0.07902067
000280 1b 34 d2 3d a5 07 5e 3d 11 a7 55 bd 53 c0 e0 3d
       0.102638446 0.05420651 -0.05216128 0.10974183
000290 8d 13 e5 bd 6c a3 f4 3d d2 80 85 3d 54 48 83 3d
       -0.1118537 0.11945233 0.06518711 0.0641028
0002a0 9d d0 1a 3e 09 86 2f be b5 6d 99 3d 01 11 8a bd
       0.15118642 -0.17140974 0.07491628 -0.067415245
0002b0 95 ed be 3d 59 58 aa bc 37 0f fc bc 64 6e 79 3d
       0.09322659 -0.02079408 -0.030768974 0.060896292
0002c0 60 16 0e 3d 73 f1 96 bb 32 b3 42 3e ef ec ed ba
       0.034689307 -0.0046064197 0.1901367 -0.0018152277
0002d0 f1 d2 9b bd c8 bc fb bc f5 8d 5c bc 50 06 3a bd
       -0.07608593 -0.030729666 -0.01346158 -0.045416176
0002e0 9c e8 9b bc 8e 01 98 3d 48 65 ee 3d d5 17 d9 3c
       -0.019031815 0.074221715 0.116404116 0.026500622
0002f0 5c 50 b2 3d bd 62 97 3d e4 0f 0f be c2 56 e4 bc
       0.087067336 0.0739188 -0.13970906 -0.0278734
000300 1a 6d 10 3e 6b 1f 23 bd 33 13 fe 3d f4 8e 02 3e
       0.14104119 -0.039824884 0.12406006 0.12749845
000310 b1 05 0f 3e 8e 56 12 be b2 1f 23 be 04 f4 af bd
       0.13967015 -0.1429083 -0.1593006 -0.08591464
000320 f8 63 66 bc 63 df dd 3d 1a 80 b9 3d 85 3c e8 bc
       -0.01406192 0.10833623 0.090576366 -0.02834917
000330 02 31 5a 3e 93 d3 95 bd ab 21 26 3e 9e 7d dd 3c
       0.21307757 -0.07315745 0.16223781 0.027037438
000340 02 23 09 be f9 67 f6 3b 9e 97 ba 3d e5 6c a6 bd
       -0.1339226 0.0075197187 0.0911095 -0.08126239
000350 ed 85 c0 bd 03 60 ec bd 94 71 6f 3c 7b 30 12 3d
       -0.09400544 -0.1154175 0.0146144815 0.035690766
000360 1d a7 2e bd e1 d4 7e 3c e9 90 db 3d b3 27 a0 3d
       -0.04263984 0.015553684 0.10720999 0.07820072
000370 f3 96 78 bd 63 63 ab bd df 27 f3 bd d3 dc 1f 3e
       -0.06069083 -0.08368566 -0.11872839 0.15611582
000380 23 fc cb bd cd 19 ec bb 0f a4 bb 3c 61 32 9c bd
       -0.09960201 -0.007205224 0.022905378 -0.076267965
000390 9f ba 02 3d 6b a2 a7 bc 26 f9 2b be 61 c6 8d 3d
       0.031916257 -0.02046319 -0.16794261 0.069226034
0003a0 71 f6 11 bd d4 c0 f7 3c eb 6a b4 3d d6 41 07 be
       -0.035635415 0.030243315 0.088094555 -0.13208708
0003b0 da da 95 3c 34 7a bf bd 60 d6 3b 3d 93 d7 f9 bc
       0.018292833 -0.0934948 0.04585874 -0.030498302
0003c0 7b ae 50 bd 89 b3 fc 3b 35 10 2f be 25 8f ea 3b
       -0.050947648 0.007711832 -0.17096026 0.0071581774
0003d0 d2 b2 18 bd 66 fc d3 bd 90 d3 5c 3e b7 9c 5d bd
       -0.03727991 -0.103508756 0.2156508 -0.054104533
0003e0 03 75 8e 3b 0b ae 58 3d 5c 66 d5 3c 37 bf b6 bd
       0.004347445 0.052900355 0.026049785 -0.0892319
0003f0 b9 ce a0 3d 6d 6e 5f 3e 7a 8a 1f be af e1 0d 3d
       0.07851929 0.21819468 -0.15580168 0.034639057

network_body._body_endoder.seq_layers.2.bias f4 [128]
000000 bc c0 f0 3b 3a bd 3d bb 1a 93 91 bb b9 b2 4b 3b
       0.0073471945 -0.00289519 -0.0044425847 0.0031081869
000010 52 42 9e 3c d5 d2 5c 39 68 43 0d 3c 53 10 3c bc
       0.019318733 0.00021059376 0.008622028 -0.011478501
000020 99 4b 61 bc 76 2f 79 3a 6d 9e d1 bb df f9 b4 ba
       -0.013750934 0.00095056684 -0.0063970597 -0.0013807378
000030 87 47 13 bc 9a 80 ab 3b 43 e2 05 bb 32 13 3f 3c
       -0.008989221 0.0052338364 -0.0020429052 0.011662291
000040 3b 11 e2 bb 35 7a d2 bb 18 6a ea 3a 6f f1 42 bb
       -0.0068990267 -0.0064232596 0.0017884402 -0.0029745956
000050 09 9d 08 3b b1 3b b5 bb 67 1e d4 bb 61 d6 90 bc
       0.0020845553 -0.0055307974 -0.006473351 -0.017680349
000060 83 70 19 3c 3c 3c 4b 3c 6f 01 f3 bb 86 46 be ba
       0.009365204 0.012404498 -0.0074159424 -0.0014516867
000070 78 50 1c 3c 3d ae 32 3b 1c 08 26 bb 92 c2 d3 3b
       0.00954067 0.0027264499 -0.0025334423 0.0064624036
000080 08 42 c4 3b 5f 31 91 3c 4c e8 ff bb 47 2c 7a bc
       0.005989317 0.017723737 -0.0078096744 -0.015269346
000090 3e b1 e0 bb b6 5e 8a ba 33 01 95 bc 78 36 ba 3b
       -0.0068570664 -0.001055679 -0.018189048 0.0056827627
0000a0 2a 37 e0 3b 4d 63 6f bb 00 78 8d 3a ea eb 07 bc
       0.0068425136 -0.0036527694 0.0010793209 -0.008295992
0000b0 8d 65 a4 bc 08 4a 2f bc 5f 8f 8a bc f9 c6 2e 3c
       -0.020067954 -0.010698803 -0.016914068 0.010667556
0000c0 38 e9 58 3c a8 a0 19 3c 2b 43 86 bb db 4e af 3a
       0.013239197 0.009376682 -0.0040973625 0.0013374941
0000d0 d1 a1 9b 3b 1d 95 95 3c 9d 58 35 3b 3d 02 b2 3b
       0.0047495146 0.01825958 0.0027671226 0.0054323957
0000e0 34 dd b7 bb 3c d6 f4 3b 78 68 05 bc 9c 56 af 3c
       -0.0056110863 0.007471828 -0.008142583 0.021403603
0000f0 b2 d6 4f 3c ff 22 b9 bb 56 76 9b 3b 12 26 39 3b
       0.012685465 -0.005649924 0.0047443314 0.0028251451
000100 e0 bc ec ba 8e 22 88 3a 37 e6 15 bc b6 33 04 3c
       -0.001806166 0.0010386275 -0.009149126 0.0080689695
000110 da 4a 21 b9 65 ba 15 bc 13 e2 51 bc 57 86 c6 3a
       -0.00015382041 -0.009138678 -0.012810248 0.0015146238
000120 c8 44 37 bc 85 a0 2d 3b 03 a1 33 bc 78 d8 a3 3b
       -0.011185832 0.0026493382 -0.010963681 0.0050001703
000130 ce 56 56 3c 25 6a 82 3a 73 84 5b 3b 97 75 2f 3a
       0.013082219 0.0009949846 0.0033495694 0.00066932425
000140 db 4a 83 ba 6e 69 c8 ba 23 3b c3 3b b8 c4 c0 3a
       -0.0010016816 -0.001529021 0.0059579774 0.0014707064
000150 fd 45 af 3c 00 2e 16 3c 46 10 0b 3b 49 ae 16 b9
       0.021395678 0.009166241 0.0021219417 -0.00014370041
000160 2b 62 ea 3b 50 a2 13 3c 16 c3 58 bc 72 96 9e bb
       0.007152816 0.009010866 -0.013230106 -0.004839712
000170 11 c9 2f 3b ff 7a 79 3b a4 6a 9b bb 64 a6 8e bb
       0.0026822726 0.0038067696 -0.004742937 -0.0043533314
000180 23 7b 46 bb 7a 69 74 38 96 97 63 3c 9a ac 3c bc
       -0.0030285798 5.8272366e-05 0.013891121 -0.011515761
000190 78 22 ff 3a e5 4d c3 bc 5b 5d bd 3b 30 95 48 3b
       0.0019465229 -0.023840854 0.005778951 0.00306065
0001a0 30 c1 25 bc 5b aa d8 bb 2d 65 12 3c d6 13 48 3b
       -0.01011686 -0.006612105 0.008935255 0.0030529401
0001b0 49 0e 26 3a 7f 19 ab b8 b7 60 96 bb 06 7a b5 3b
       0.0006334526 -8.1586644e-05 -0.004589166 0.005538228
0001c0 76 5f 55 bb 94 cb b0 b8 bb 36 a8 3a cf dc 8f bc
       -0.003255812 -8.4302534e-05 0.0012833694 -0.017561344
0001d0 21 c9 b8 bc fd 8b 99 bb d2 47 13 3c 30 f3 0f bc
       -0.022556843 -0.0046858774 0.008989291 -0.008786008
0001e0 03 50 39 3c 44 c3 4e 3b ab 08 95 3b 62 57 d9 bb
       0.01131058 0.0031549493 0.0045481524 -0.0066327313
0001f0 19 e7 7f bb ff 15 6e bb 1a 82 8b bc ab 54 fb 3b
       -0.0039047657 -0.0036329029 -0.01702981 0.0076700053

action_model._continuous_distribution.log_sigma f4 [1, 2]
000000 5e 2b db 3d c0 d3 f8 3d
       0.10701631 0.12149763

action_model._continuous_distribution.mu.weight f4 [2, 128]
000000 ab 9e 8f 3c 05 cb ab bb 9b d5 04 bd ee 81 0e 3d
       0.017531713 -0.0052427077 -0.032430273 0.03479188
000010 43 76 61 3d 5b 82 c6 bc 24 3a 92 bd 21 a3 3a bc
       0.055044424 -0.02423208 -0.07139996 -0.011391432
000020 20 b5 f1 bc cd 29 fb bc fb 34 31 bd 97 4c 0f bd
       -0.029505312 -0.03065958 -0.043263417 -0.03498515
000030 ad aa 9d bc f4 c7 aa 3c 42 1d ce 3c ed 8b 01 3d
       -0.019246424 0.020847298 0.025160436 0.031627584
000040 a5 67 04 bc 1f 0d ff 3b e0 66 ac bc be ae 92 38
       -0.008081351 0.0077835466 -0.021045148 6.994371e-05
000050 37 e3 3f bc cd 27 18 bd 18 4b 1e bb 2d d4 7f 3c
       -0.011711887 -0.037147332 -0.0024153646 0.0156145515
000060 2c 51 b5 bc 4d 1e eb 3c cd 9d b7 bc 1f 37 bd bc
       -0.022133432 0.028700972 -0.022414112 -0.023097573
000070 4b ca 07 3c ff d1 01 3d 60 6f 2e bb 58 e4 e8 3a
       0.0082879765 0.03169441 -0.0026616678 0.0017768247
000080 fb bf 73 3b cc 7e b0 bc 52 69 06 bc 7a c5 4b bb
       0.0037193287 -0.021544836 -0.008203821 -0.0031093047
000090 02 54 29 bd c6 fa 00 bd e7 8a 82 3b 76 e9 17 3d
       -0.04133988 -0.031489156 0.0039838436 0.03708788
0000a0 be dd 38 3d 1f ab 49 bc 9d 01 0f 3d cf d8 83 bc
       0.045133345 -0.012308865 0.034913648 -0.016094593
0000b0 70 9a 1c bc bf b3 ad bc cb bc 9a bc 60 fa 90 3d
       -0.009558305 -0.021203874 -0.018888852 0.07079005
0000c0 05 34 8d 3d c2 21 9b 3c 4c ab 8c 3c 7b 64 d3 bb
       0.068946876 0.018936995 0.017171524 -0.006451187
0000d0 f9 95 17 bd f8 05 1d 3d 6c 48 79 bd cd 1f ff 3c
       -0.03700826 0.03833577 -0.060860083 0.031143093
0000e0 ea a4 a2 bb a1 7f b5 bc fe 87 91 3b ee b9 af 3b
       -0.004963507 -0.022155585 0.0044412604 0.0053627407
0000f0 72 66 40 3d 09 e5 e4 bb 31 da 4c 3d 50 fe 92 3c
       0.0469727 -0.006985311 0.05001277 0.017943531
000100 fa 2e 20 3c 8d 34 56 3c 60 53 37 bc 25 9f 85 bc
       0.009776825 0.0130740525 -0.011189312 -0.016311238
000110 b8 71 30 bd 8f 71 0a bc b1 65 87 bc 37 28 b8 3c
       -0.0430772 -0.008449926 -0.016527982 0.022480113
000120 2a e0 91 bc 91 a7 c3 3b 90 95 3f ba bf 30 2f 3c
       -0.017807085 0.005970903 -0.00073083583 0.010692774
000130 2e c4 b0 3c 03 0f 82 bb e9 39 52 3d d1 d0 83 bc
       0.02157792 -0.0039690747 0.05132476 -0.016090782
000140 8b 76 9e 3c 85 50 61 3c 1b 16 17 3d ac 1e 94 3c
       0.019343635 0.0137521075 0.036886316 0.018081032
000150 84 9d bd bb 92 a7 2e 3d 6d 47 50 3c ee 27 83 bb
       -0.0057865996 0.042640276 0.012712342 -0.0040025627
000160 34 22 03 3d 38 e4 e5 3c 42 4e 89 bc d9 22 f7 bc
       0.03201504 0.028062925 -0.016760949 -0.030167984
000170 46 20 4d 3d 58 8a 01 bd 4f 93 0c bd 89 6c 9e 3c
       0.050079606 -0.031626076 -0.034320172 0.019338863
000180 01 77 fa bc 54 7f 19 bd 59 4e 30 3d 17 67 07 bd
       -0.030574324 -0.037474945 0.04304347 -0.0330573
000190 fb 1f 0a bb 14 01 2a bb 20 b3 17 3d 71 cf 62 bc
       -0.002107619 -0.0025940584 0.03703606 -0.013843403
0001a0 59 34 d1 3c 89 4b a9 3c 32 cd 81 3d 17 b2 a2 3b
       0.025537657 0.0206659 0.06337966 0.0049650776
0001b0 c4 49 2c bd 93 26 c7 bc ef 01 13 3b 61 91 cf 3c
       -0.042062536 -0.024310386 0.0022431572 0.025337877
0001c0 a3 77 64 3c b8 49 cb bc e8 1b 2b 3c b0 36 a7 3b
       0.013944539 -0.024815425 0.010443665 0.005102955
0001d0 c0 a4 8f bb ac 2a 48 3a 32 d9 96 bb 4f 7d af bb
       -0.0043836534 0.0007635753 -0.0046035284 -0.005355514
0001e0 87 a7 20 3d ea 22 c3 3b 08 82 56 3c 51 64 2c bd
       0.039222267 0.00595509 0.013092525 -0.042087857
0001f0 69 bb 53 bc b5 50 5f bb 2b dc 61 bc e8 8a 0d 3c
       -0.0129231 -0.0034075205 -0.013785402 0.008639075
000200 c2 21 30 bc 6d ef 47 3c 11 a0 db bb 3e 57 a6 3b
       -0.010750236 0.01220308 -0.006702431 0.005076318
000210 12 7b 1e 3d c6 ea 02 3d 02 5e 2a bd 72 f2 57 3c
       0.038691588 0.03196218 -0.04159356 0.013180362
000220 28 fb 94 bc d8 7a 0e bd 8b 88 e8 3b 11 f6 67 bd
       -0.018186167 -0.03478512 0.0070963553 -0.05663115
000230 31 7a 11 3b fd 58 10 3d 1b ef a0 b9 90 c1 92 3c
       0.0022198076 0.035241116 -0.00030695726 0.017914563
000240 65 fe a9 bc 93 e6 da bc 0b 40 a2 bc 37 09 8d 3c
       -0.020751188 -0.026721274 -0.019805929 0.017216308
000250 dc ae bf bc 83 d5 99 bc 1f f9 ef bb 5b b7 4b bc
       -0.02339881 -0.018778568 -0.0073233987 -0.012433852
000260 5c b9 e4 bc f5 6c 0f 3d 5b 4c e3 bc 1b 1e 08 bd
       -0.027920417 0.03501602 -0.02774637 -0.033231836
000270 55 75 06 3d 6f 74 c8 3c 38 84 e8 3b a7 dc 01 3d
       0.03282674 0.024469582 0.00709584 0.03170457
000280 d6 38 55 3c 05 03 24 bc 91 3f 0b bd 8f 71 18 bd
       0.013014039 -0.010010486 -0.03399617 -0.037217673
000290 cd bf 3f bd ef bb 08 bc 3d 06 84 3b da 77 09 3c
       -0.046813775 -0.008345588 0.004029064 0.008390391
0002a0 19 f3 41 3c dd 81 15 bd 52 56 c3 3c be f0 b5 bb
       0.011837744 -0.0365008 0.023844872 -0.0055523803
0002b0 7d f4 2b bc d1 0a 9c bc 81 da 8c bc 29 76 30 3d
       -0.010495302 -0.019048126 -0.017194035 0.043081436
0002c0 7d bd 36 3d a6 4c 8c 3c 7f 00 c6 3c 95 18 f2 b9
       0.044614304 0.017126393 0.024170158 -0.00046176152
0002d0 e1 98 01 3d 33 f2 1d 3c 83 6b 63 bc f6 a7 e6 3c
       0.031639937 0.009640264 -0.013880613 0.028156262
0002e0 23 f6 27 3c 73 7c 3f bd e7 61 d1 3b 0c 98 f2 bb
       0.010251555 -0.046749543 0.0063898447 -0.0074033793
0002f0 51 8f 4e 3d 3e c7 0a bd 88 15 c2 3c dc aa 8b 3c
       0.050429646 -0.03388142 0.023691908 0.017049246
000300 52 b4 b6 bc 59 45 55 3c 18 d3 dc bc 28 c6 9a 3a
       -0.02230278 0.013017022 -0.026956126 0.0011808323
000310 d8 85 66 3b b1 af 58 bc ba 65 1b 3c eb 84 86 bc
       0.0035174992 -0.013225482 0.009484703 -0.016420802
000320 5c bf 3d ba 4e 57 14 3d 49 80 8f 3b 22 37 39 3b
       -0.00072382926 0.036216073 0.0043793065 0.0028261621
000330 e8 61 29 ba 92 fd 7c bc bf 77 ac 3c 85 00 02 bd
       -0.00064614275 -0.015441315 0.021053193 -0.031738777
000340 d5 bd 65 3c 82 d0 a1 3c 3f 2a e7 3c a3 e7 d0 3c
       0.01402231 0.019752745 0.028218387 0.025501078
000350 33 ab 25 bc 99 70 1d 3d ab 2e cd 3c fe 98 46 3c
       -0.010111618 0.03843746 0.025046667 0.012121437
000360 ce 23 35 3c 65 c8 d1 3c a3 f4 61 bc 4b 19 0b 3c
       0.0110559 0.02560825 -0.013791236 0.008489917
000370 d5 0b d9 3c af d3 89 bc cc 18 c9 bc 10 7e 43 3c
       0.0264949 -0.016824571 -0.024547957 0.011931911
000380 61 7a 29 bd da c8 ac 3c fc ed fd bb b9 2c 9c 3a
       -0.041376475 0.021091867 -0.007749317 0.0011915184
000390 bd ef e8 3c 0e 96 15 bc 04 ae 61 bb b1 90 cd bb
       0.028434629 -0.009130014 -0.0034435997 -0.006273352
0003a0 2c c3 60 3b 08 f8 91 3c 92 cd 12 3d 79 f0 ae 3c
       0.003429602 0.017818466 0.03584058 0.0213549
0003b0 e8 95 cf 3c 20 3c a9 bb ce 67 e9 3a 62 ef 19 3d
       0.025340036 -0.005164638 0.0017807425 0.03758181
0003c0 92 ce 05 bb 27 e1 c6 bb e6 92 11 bc ef b6 0c bd
       -0.0020417315 -0.0060693207 -0.008885121 -0.034354147
0003d0 a2 45 26 3a 87 b9 2e bd c7 ae b9 3a 9e a0 aa bc
       0.00063427736 -0.0426574 0.0014166468 -0.020828541
0003e0 18 65 41 3d 64 8b f9 3c 5f 8e 2c 3c 51 23 04 bc
       0.04721555 0.030461974 0.010531991 -0.008065061
0003f0 2c 13 f4 bb dd e4 62 3c 10 af ec 3a 85 ae 76 3c
       -0.0074485745 0.013848511 0.0018057544 0.015056257

action_model._continuous_distribution.mu.bias f4 [2]
000000 ad e4 f1 b7 02 cb 6b 3c
       -2.8835924e-05 0.014391663
