results/randomPositionRewardForApproach/CarFindGoal/CarFindGoal-2499999.onnx (onnx, 88006 bytes, 7 tensors)

network_body._body_endoder.seq_layers.0.weight f4 [128, 36]
00000000: 74f4 d43d cac6 88bd 2423 19be 863f 6ebd
00000010: 783a a33d 04e7 23be 928e 213e 0ae9 57bd
00000020: fa65 343e 402a 7abd 66c5 48be ee14 183c
00000030: 1345 8ebd 19e1 0dbe ecf7 2c3e b918 a2bc
00000040: 37db dbbb 8db7 713d d437 f5bc ebf0 483e
00000050: 5305 9f3e 7d74 c8bd 0bef 51be b680 dd3d
00000060: daa6 bdbd cb98 173e 34a9 4fbe b584 d7bd
00000070: 562f f4bd fa63 a8bc 0e29 86bd 6bc2 a53d
00000080: 3ca2 46be 0193 e33c e0ae 803c dd98 3dbe
00000090: def9 5cbe e7df 9fbc 8af7 77bd 3789 7abe
000000a0: d41c 5fbe 8d3b db3d 1e50 d63d 0461 99bd
000000b0: b9da 883d 13d7 94be 6e72 833d 2575 353e
000000c0: a03e 793e 697f 543d fd2c 1b3c fa85 8b3c
000000d0: 075d 58bc fae6 61bd 4cd5 b13e 1075 57bc
000000e0: c640 91bd af10 20be 286f 85bd b8c3 9c3d
000000f0: 4aa7 6f3c 5195 1dbd 1269 7d3d 6492 023d
00000100: 5ad7 e73d a22e 9939 cb21 203e 7d8a c5bd
00000110: 7ca9 1cbe a159 193e 5a6f 8c3e 5965 76be
00000120: e93f 3c3e 9c40 263d 901b 6dbe bff8 9dbd
00000130: e5d9 483e b47c 3e3e 2247 a13e 713a e6bd
00000140: 291c c1bc 1931 84bc 7cbf 1ebe 1e04 56be
00000150: a489 9bbd 5e32 f2bd 78f8 953e 27e6 dabc
00000160: f85a c2be 60a0 6b3e b99f 25be 8e3c 123e
00000170: f02e 563e c0ac b73d 28b4 a33b c045 c93d
00000180: 2ec7 a1bc de30 ba3e fc65 debd c140 35bd
00000190: 19de 7a3c ccff f0bc 0270 c7bd a58a c2bd
000001a0: 7559 da3d 9213 0cbe bc92 0abc 98a2 67bc
000001b0: 5511 16be 67f3 f0bd 9863 f13d c6ea 51bd
000001c0: bf7b fdbd b91e 28bd 901f 14be b353 d13c
000001d0: cbb6 603e a1c0 233c 0e32 263e 7400 a6bd
000001e0: 527c ab3e 3f39 84bd 75f7 a03d 2f8e 98be
000001f0: e4fb 1bbe adc2 c2bd c3d9 d0bd a3e6 8d3e
00000200: 1bfc 47be dc15 b43b 3e77 f3bc d75a f83d
00000210: 07cb 76bd b5f3 aebd bd4c bbbe 5e05 a33c
00000220: d003 ee3d 1780 023e a447 3abd 4267 8fbc
00000230: f0f6 1c3e 74c1 20be 7438 493e a87e 093e
00000240: f7da d4bc 9972 21be 009b 5b3d f794 c2bd
00000250: a130 52bd 5f42 603e 5ce3 233d ed76 9e3c
00000260: 38ee 4f3d df42 1f3e 8dee 0cbe ec76 60bd
00000270: 12af efbc f411 d0ba 4815 0c3e 31c2 8a3e
00000280: 0e91 65bd 70ea 41bc 3ef8 b2bd 383f 92bc
00000290: 2e7b a6bd dc5c 1ebe 6eef 473d c194 313e
000002a0: 2a74 d7be 3a2d 22be 6c9c 773e 992f af3e
000002b0: 9e98 073d acb3 93be 4ccd 3a3e af17 d2be
000002c0: 4ca4 983d 630c b7bd 6c5d 01be e8d4 373e
000002d0: 61c0 b13d 4e0e 0b3e a43f a2bc 6100 b53d
000002e0: d3c9 a5bd d68d 22be 2186 443c fca5 063e
000002f0: e263 e1bd 8c67 0cbe a093 293e 301a 23be
00000300: 0f4f a0bd d37d dabd ef6d 583e 5209 933e
00000310: 9433 9fbe babd 763c 4e91 523e 87ca babd
00000320: 7ccb adbb 2705 3e3e 1671 44be 8ddb 593e
00000330: 990b 3d3d 382d 39be c3af d03c 902f 183e
00000340: d111 813d dbfb 533d 4bb0 823e bdf1 64be
00000350: d256 8fbd 9943 16be 9853 88be 687e 013d
00000360: 64ac a43e c766 693e 12e0 ed3d 9551 92bd
00000370: 0628 073e 4f89 933e 3fba 1e3e 3670 6c3e
00000380: 4a61 cdbe a25f adbe 9be7 893e 75c4 0f3e
00000390: 5a3a a4be 57ac 7c3d 05bf ffbc 6c0c 9dbd
000003a0: 1412 cdbd f3b6 b03e bb60 89bc 7a4f 82bd
000003b0: 7860 29bc 7997 42be 608c 0c3e 8057 893d
000003c0: 9983 babd a27f 91be ecb9 893e 8da3 033b
000003d0: b688 623e a5f6 8e3d f147 943e 5447 393c
000003e0: 60bc 043d 800a 92bd 841f a2bd c86f 6139
000003f0: 3503 dc3d c575 40be 2549 0a3e 9471 a33e
0.10398188 -0.06678541 -0.14954811 -0.05816605 0.079701364 -0.16006094 0.15777043 -0.052712478
0.17617026 -0.06107545 -0.19606552 0.009282334 -0.069467686 -0.13855399 0.1689145 -0.01978718
-0.006709482 0.05901294 -0.029933847 0.19623153 0.3105875 -0.097878434 -0.20501344 0.10815565
-0.0926034 0.1480438 -0.2027939 -0.10523359 -0.11923091 -0.020555485 -0.06550799 0.08093723
-0.19397825 0.027780058 0.015708387 -0.18515344 -0.21579692 -0.019515945 -0.060538806 -0.24466406
-0.21788341 0.10704718 0.104645 -0.074892074 0.06682343 -0.2907034 0.0641831 0.17720468
0.24340296 0.05187932 0.009471175 0.017031658 -0.013205773 -0.055151917 0.34733045 -0.0131504685
-0.07092433 -0.15631364 -0.06515342 0.07654518 0.014627287 -0.038472477 0.06186778 0.03187789
0.11320372 0.00029217178 0.15637891 -0.09645555 -0.15299028 0.14975597 0.27428705 -0.24062099
0.18383755 0.04058896 -0.23155046 -0.0771346 0.1961437 0.18602258 0.31499583 -0.112416156
-0.023572998 -0.016136693 -0.15502733 -0.20900008 -0.07594612 -0.11826013 0.2929113 -0.026721073
-0.3796003 0.23010397 -0.1617421 0.14280912 0.20916343 0.08968496 0.0049958415 0.09827757
-0.019748297 0.36365408 -0.10859296 -0.044251207 0.015311741 -0.029418848 -0.09738161 -0.094991006
0.10661594 -0.1367934 -0.008457836 -0.014137886 -0.14655049 -0.11765175 0.11786574 -0.051249288
-0.12377118 -0.041044924 -0.14465165 0.025552606 0.2194473 0.009994657 0.16230032 -0.08105555
0.33493286 -0.06456231 0.07859699 -0.29795977 -0.15232807 -0.09509788 -0.10197785 0.27715024
-0.19529764 0.00549577 -0.029719945 0.12126701 -0.060252216 -0.08542577 -0.36581984 0.01990002
0.11621821 0.12744175 -0.045478478 -0.017505292 0.15328574 -0.15698797 0.19650441 0.13427222
-0.025983317 -0.15766372 0.053614616 -0.09501069 -0.051315907 0.21900319 0.04001175 0.019343818
0.050764292 0.15552853 -0.13762875 -0.054800913 -0.029258285 -0.0015874491 0.13679993 0.2710128
-0.056046538 -0.011835679 -0.08738755 -0.01785241 -0.081289634 -0.1546511 0.048812322 0.17341901
-0.42080814 -0.15837565 0.24180764 0.34216002 0.03310453 -0.28848016 0.18242377 -0.41033694
0.07453212 -0.089379095 -0.12633294 0.17952311 0.086792715 0.13579676 -0.019805737 0.08837963
-0.080951355 -0.15874419 0.011994869 0.13149256 -0.11005379 -0.13711375 0.1656022 -0.15927958
-0.07827579 -0.1066853 0.21135686 0.28718048 -0.31094038 0.015059883 0.20563242 -0.0912066
-0.0053037982 0.18556653 -0.19183764 0.21275158 0.04615364 -0.18083656 0.025474435 0.14861894
0.06302226 0.05175386 0.25525126 -0.22357841 -0.069989815 -0.14674224 -0.26626277 0.03161469
0.32162774 0.22793113 0.11615004 -0.07144467 0.13198861 0.28815696 0.15500735 0.2308968
-0.40113288 -0.33862025 0.26934513 0.14039786 -0.3207577 0.061687794 -0.031219015 -0.07668385
-0.10013214 0.3451458 -0.016769757 -0.06362815 -0.010337941 -0.19003095 0.13725424 0.067061424
-0.091071315 -0.2841769 0.2689966 0.0020086498 0.22122464 0.069806375 0.28961137 0.01130851
0.03240621 -0.07130909 -0.079161674 0.00021499314 0.10742799 -0.18794926 0.13504465 0.3192259

network_body._body_endoder.seq_layers.0.bias f4 [128]
00000000: c761 e43b 5e10 1a3c d278 10bd c657 a2bc
00000010: 135e 2ebc 49be a23c 8702 26ba 70fd f83a
00000020: b9ab 253c fb2d d43c ef5d 4d3c 8d81 81bc
00000030: 7452 8cba 1ce3 fb3c 3be1 0abc 50a9 0e3a
00000040: 5e95 3c3d 2d25 afbc be4f 6e3c 873c 88bc
00000050: a3e6 9ebc 920c 6a3c db29 c0bc 6a3e 413c
00000060: 3034 403c 4ba8 083c 408d 663c 9b43 91bc
00000070: 9c2d 0bbc a30e 783b c285 8ebc df8a cfbb
00000080: e829 d6bc 66ef b73b 7f31 9b3c c0bf 093d
00000090: 992f dbbb f748 3cba e8ce 09bc d169 cabb
000000a0: fcc9 b1bc f06b b33c c33a 5cbc 64c2 86bb
000000b0: 90f9 1c3c 901f dcbc b1f3 57bc fa52 a1bc
000000c0: ae8e 003d 0256 e23b 7b9f 4cbb 3086 843c
000000d0: 84a8 3fbc 22bf 383c 0290 a8bc 22a5 c63c
000000e0: b245 563c 0017 6e3d 5d44 313d 6c75 64ba
000000f0: 53b4 9cbc 9a2a cc3c 8ec1 ba3c 7891 e43a
00000100: 90b2 263c 5844 e1bc c117 833c c3df 97bc
00000110: 25f8 c93c 5c85 e13c c245 55bb e255 c43a
00000120: 0c4a 813c 8539 983c 1aa3 983b 0dd9 5c3c
00000130: 086d 8a3b 5686 a4bc e64f 2fba a438 c43b
00000140: 69c1 77bc 13eb d8bc a151 49ba 56f1 0cbd
00000150: 342b 1a3d c103 31bc 06ce 1abc 1f40 4bbc
00000160: a722 c13c 07d6 5a3d c57b efbc cbeb 74bc
00000170: c5cb 51bc d26c 393c 1369 5a3b 6575 e4bb
00000180: d1dd 063d 4d34 3fbc 2bfd 70bc 1f4f 733d
00000190: a7c9 86bc c541 8d3c 5c05 9cbc 20e4 b4bb
000001a0: 7e04 133c d4a9 b5bc 9eec 2ebc 4ed9 42bb
000001b0: 280d 18bd e833 cf3c c3cb 683c 6bfe 12bc
000001c0: 11ef deba 1089 563c 5221 62ba 6ad4 fbbc
000001d0: bb93 cf3b 8e57 063b 3152 a63c dbed a5bc
000001e0: b807 68bc 66c7 9c3c e879 18bd 73a4 ad3c
000001f0: 5992 b53c e709 be3c 59fe f4bc e498 063d
0.006969664 0.009403316 -0.035271473 -0.019817244 -0.010642546 0.019866126 -0.0006332774 0.0018996429
0.010111743 0.025900831 0.012534603 -0.015808845 -0.0010705725 0.030747943 -0.008476551 0.00054420996
0.046040885 -0.021380031 0.014545379 -0.016630424 -0.019397086 0.014285224 -0.023457458 0.011794666
0.0117311925 0.008340905 0.014071763 -0.017732432 -0.008494761 0.003785052 -0.017397765 -0.0063336934
-0.02614303 0.0056132553 0.0189445 0.033630133 -0.0066890237 -0.00071825035 -0.008411147 -0.006177165
-0.021702759 0.021902055 -0.013441744 -0.0041125286 0.009580985 -0.026870519 -0.013180659 -0.019692887
0.03138607 0.0069072256 -0.0031222987 0.016177267 -0.011697892 0.011276038 -0.02057648 0.024248663
0.01307814 0.058127403 0.043278087 -0.0008715007 -0.019128954 0.024922658 0.022797372 0.0017438373
0.010174409 -0.02749841 0.016002538 -0.018539315 0.024654457 0.027529411 -0.00325428 0.0014979208
0.015782379 0.018582115 0.004658115 0.013479483 0.0042244233 -0.020083588 -0.0006687626 0.0059881974
-0.015121796 -0.02647928 -0.0007679705 -0.034409843 0.037638858 -0.010804118 -0.009448534 -0.012405424
0.023576094 0.05342677 -0.029233823 -0.014948796 -0.01280493 0.011317449 0.003332679 -0.0069720023
0.032926384 -0.011670184 -0.014708797 0.059401628 -0.016453577 0.017243275 -0.019045524 -0.0055203587
0.008973239 -0.022175707 -0.010676531 -0.0029731574 -0.03712192 0.025293306 0.014208737 -0.008971791
-0.0017008503 0.013094202 -0.0008626181 -0.030740935 0.0063347495 0.0020498964 0.020302864 -0.02025502
-0.014161997 0.01913805 -0.037225634 0.02119658 0.02216451 0.023198081 -0.029906439 0.03286065

network_body._body_endoder.seq_layers.2.weight f4 [128, 128]
00000000: 2d2d 293b 707e f4bd a67c 163d ad95 113c
00000010: 069e e23d a08d 3fbe 33fd 073d a3c6 7c3d
00000020: 43af 5e3e 1918 03be 8637 adbd b87e a13d
00000030: 6cdc a7bb 3a23 46bd aa49 f43b 8b02 d0bd
00000040: ffc2 0b3e c8d7 32bc ee42 d3bc bdfc 9abd
00000050: 550b ab3d e01c f1bd 824d 88bd 11c6 57be
00000060: 7ba7 093d 8a23 a63c 19ff e93d f77f 0c3d
00000070: 3517 a93c 6d0d 9f38 2f66 cb3d 9175 133d
00000080: 28cc 60be 2dc6 e3bd d01e e63d 8da6 21be
00000090: c699 d3bd 47e2 35bd 719f c9bc 89ce 283d
000000a0: 6bd7 a2bc 86b4 a83c 97ee 273e 1268 dabc
000000b0: 5ea5 25bd c1d3 87bd 85f1 99bd 26e1 c6bd
000000c0: c42f a2bd 1129 cb3c a060 6ebd 9d0e 7d3d
000000d0: dc46 eb3d 9a7c 033d 7cc2 8339 4646 253e
000000e0: 894a 2fbd 862b b53e 94ca b4bd 43b0 7abd
000000f0: ae83 2fbe 9cfa a33d c013 1dbc db11 cdbd
00000100: 2bf4 06be 3b97 a1bd 9595 563e 012e 103e
00000110: 26e8 aabc b9c1 2bbe d116 9cbd 9f51 fdbb
00000120: 0cbc 33be 6c30 0f3d 5901 bf3b 77cd 313d
00000130: 64e6 23bc 0647 4bbd 7cb0 823d 19f2 bfbd
00000140: a67b 353d 57df 343d e83e 4bbd c4a2 303c
00000150: 66e7 fabd e2f4 963d 6870 00be d98a 193d
00000160: 050b 90bd 8e79 47bc 95ac 133e f9a4 d53d
00000170: 0a51 e03c a195 3abe b86f f33d b610 4c3d
00000180: dfcd 9bbc a945 f0bd 45ea 423e 4f98 aa3d
00000190: 8b67 d13d e308 363d f563 a8bd 9682 f13d
000001a0: f581 dc3c a661 4a3d c083 d03d c60f cc3c
000001b0: 4e82 8dbc 66f5 863d 2bd7 86bd 774b e83d
000001c0: 2c72 85bb 90a6 17be ee87 84bb d869 533c
000001d0: 2b1a 743d 73b8 573d 0e82 513e 691e 1ebd
000001e0: 1548 293e 1346 eb3c 5db2 883c 42ac c13d
000001f0: bdf3 973c b2d8 093d c7fc 383c 9f93 983d
00000200: 4cad cebd 5e80 a3bd 88c0 9abd e436 343c
00000210: 5e6a 263d 0631 6abe ee4c 54bd 9799 22be
00000220: 1203 f6bd 7a6f 1bbd c73a e5bc d268 313d
00000230: 16c3 88bc d97e 34be 0290 c8bd bd43 a8bb
00000240: 780a 8b3c c5a8 7bbd f769 14bd 1620 63bc
00000250: 0d67 c73d e957 b43d 8668 b13d 5c81 fabd
00000260: 6d0b 01bd 53f2 30be 8100 923b a00b f2bd
00000270: c090 34bd 5294 f9bb 1e97 3f3d b711 28bd
00000280: 56c4 d5bd 05a8 a3bd ec36 db3d cdf2 cf3d
00000290: 7232 39b9 f0fb d33d 4d68 b7bd 6e6e b2bd
000002a0: 83e8 b2bd 54ff 5fbc e04b 3bbc e246 5cbd
000002b0: 5975 243e 721c 37bc 07e9 003e 1a61 6fba
000002c0: b964 9fbd 9fa2 6fbd bcbd 0cbe 3889 17be
000002d0: 5b61 18bd 8e6d 973d 0f6b 54be e651 d4bd
000002e0: d3ab 2d3e e937 87bd 3b9e 983c e8f4 87bd
000002f0: 619a 323e f105 a4bd 6bb9 833b f5fa 033d
00000300: 7a22 b73d f9ae db3b aa53 253d 7983 16bc
00000310: 188e 783c c118 7bbc cc81 edbc 309d b9be
00000320: 0471 853d c1d9 21be fc77 583e cbe6 e53c
00000330: 1637 1b3e 045d f83d 37cb a03d c09b a43d
00000340: a690 e6bd 8877 413e d1de afbd 643c a23c
00000350: e3a0 0fbe 25d9 a63d d517 af3d 89d8 233d
00000360: b46b 23bd ff32 ad3d c7fb 4ebe f5dd 233e
00000370: b66e 9abd 3dfc 85bd dec9 76bd 6b4c 92bd
00000380: 60a8 1cbe e143 453c 9dbc 943c f065 76bd
00000390: 62cc 25be b8cb 4d3e e816 373e 024c 103e
000003a0: 9052 2a3e d69e f6bc 1af9 853a 4238 7d3d
000003b0: c670 8c3c fc4a 7cbd 9ade 79bd 5258 3b3e
000003c0: d431 21bd 12ba 983d 7061 893c 01b3 13bd
000003d0: e76b 163d dacc 553d 5dbe 4c3d a313 ea3c
000003e0: bfd8 433d 22e3 d43d a975 5a3c 1c18 b63d
000003f0: 424c 853d f80f e2bd fa61 253d b725 3d3b
0.002581428 -0.119381785 0.036739968 0.008885783 0.11065297 -0.1870637 0.033200454 0.061712872
0.21746545 -0.12802161 -0.08457856 0.07885498 -0.005122712 -0.04837344 0.0074550705 -0.10156735
0.13648604 -0.010915704 -0.02578875 -0.07567737 0.08351771 -0.117730856 -0.066554084 -0.2107165
0.033606987 0.020280618 0.11425609 0.034301724 0.020640949 7.5842116e-05 0.09931599 0.036000792
-0.2195288 -0.111217834 0.11236346 -0.1578619 -0.10332064 -0.044405248 -0.02461216 0.041212592
-0.01987811 0.020593893 0.16399609 -0.026660953 -0.04044091 -0.06632186 -0.07516769 -0.097109124
-0.07919267 0.024799855 -0.058197618 0.061781514 0.11488125 0.03210125 0.0002513117 0.16140088
-0.04279569 0.35384768 -0.08827701 -0.061203253 -0.17140076 0.08006784 -0.009587228 -0.10013171
-0.1317908 -0.07890173 0.20955499 0.14080049 -0.02086265 -0.16773118 -0.076215394 -0.0077306773
-0.17552203 0.034958288 0.005829018 0.043408837 -0.01000366 -0.04962828 0.06381318 -0.09372348
0.044307373 0.044158306 -0.04962054 0.010780994 -0.12251167 0.073709264 -0.1254288 0.03748593
-0.07033352 -0.012174977 0.14421304 0.10431857 0.027382392 -0.18221141 0.11886543 0.049820624
-0.019019065 -0.117320366 0.19034679 0.08329832 0.102248274 0.04444207 -0.0822219 0.117924854
0.026917437 0.04940953 0.10181379 0.024909865 -0.017274048 0.06589775 -0.06584009 0.11342519
-0.0040724482 -0.14809632 -0.0040445244 0.012903653 0.05959527 0.05266614 0.20459768 -0.03860322
0.16531403 0.028719937 0.016686613 0.09456684 0.01854884 0.033653922 0.011290736 0.074500315
-0.100916475 -0.079834685 -0.07556254 0.010999415 0.040628783 -0.22870263 -0.05183118 -0.15878902
-0.12012304 -0.03794811 -0.027982129 0.043312855 -0.016694587 -0.17626514 -0.09793092 -0.005135028
0.016972765 -0.061440248 -0.03623387 -0.01386263 0.09736452 0.0880583 0.086625144 -0.122317046
-0.031505037 -0.1727994 0.0044556265 -0.118186235 -0.044083357 -0.007616558 0.046774976 -0.04103252
-0.10437839 -0.079910316 0.10703835 0.101537324 -0.00017661767 0.10350788 -0.08955441 -0.08712469
-0.08735754 -0.013671715 -0.011431664 -0.053778537 0.1606039 -0.0111762155 0.12588893 -0.0009131596
-0.07782883 -0.058504697 -0.13744253 -0.14798439 -0.03720222 0.07393943 -0.20743965 -0.103671834
0.16960077 -0.06602461 0.018630138 -0.06638509 0.17441703 -0.08008946 0.0040199063 0.032221753
0.08942123 0.006704208 0.04036299 -0.009186619 0.015170597 -0.015325726 -0.028992556 -0.36252737
0.06515697 -0.15805723 0.2113952 0.028064152 0.15157732 0.12127116 0.0785126 0.080375195
-0.11258058 0.18893254 -0.08587421 0.019804187 -0.14026217 0.08146886 0.085494675 0.040001426
-0.039897636 0.08456992 -0.20213233 0.16002639 -0.07540648 -0.06542251 -0.06025111 -0.07143482
-0.15298605 0.012040109 0.018156344 -0.06015581 -0.16191247 0.20097244 0.17879832 0.14091495
0.16633058 -0.030105036 0.0010221333 0.06182123 0.017143618 -0.06159495 -0.061003305 0.1829541
-0.03935416 0.07457365 0.016770095 -0.036059383 0.036723997 0.052197315 0.049986232 0.028573817
0.047814127 0.10394885 0.013333716 0.08891317 0.06508686 -0.11038202 0.04037664 0.002886159

network_body._body_endoder.seq_layers.2.bias f4 [128]
00000000: a74a d03b 64dc bc3c 7639 a23c d425 e7bb
00000010: 5d73 443c 4688 c93b 63b3 8d3b 20c6 253c
00000020: 724e b93c 43d4 d83c 2387 0a3c 400e 0dbb
00000030: 6a16 cebb fdd5 18bc 496a 173d 8f24 1f3c
00000040: f5bf 883b 47d5 72ba df84 75bc 5f24 0abc
00000050: 9f2d 843c 7b6d d23c afaa 09bd 676e 43bc
00000060: 2929 49bc 2326 02bc 6124 083c c06b 36bb
00000070: 3b35 5f39 4672 4ebb 263e 41ba 90ef b43a
00000080: f56c 183d 8e17 0cbc 99b1 9bbb 4322 c53b
00000090: a547 9a3a 7eb3 df3c 1fd0 503c 789f 7bbc
000000a0: 7bdf b5bb fdb3 4abb e777 a23c a1b3 17bc
000000b0: 4373 7ebc 9a38 a63b 4895 fcbb 75c6 1ebc
000000c0: 1851 8d3b cd27 ba3b a90a 913c f281 0c3c
000000d0: 059d 17bc 5635 693b 7c1b 2a3b 9685 ebbb
000000e0: b8d4 cd39 17c9 7b3b b94b 24bc 9678 f7bb
000000f0: f973 38bc 265f 8738 5611 1dbb b32e a53c
00000100: e8e7 fb39 161b 14bb 191d d83b 7d63 2c3b
00000110: e23c 973a 9534 c83c d229 10bc 25f7 9ebb
00000120: af79 18bc 0381 053d 619d c4bb 7f80 8cbb
00000130: 4107 86bc 5229 413c ac91 a0bc 6262 7ebc
00000140: 6fd0 aa3b f0fb 373b fe96 c8ba 040c 433c
00000150: 9c61 b1bb 1cc8 a83c 6577 2c3c f1fc 06bc
00000160: 6b91 b53a 5d80 18bc 1ac5 2e3c 9671 a3bb
00000170: 906e 1d3c 54c9 99ba 1e76 8cbc 072a 513b
00000180: dbff 76bb 7018 ef3b 9376 b2ba 2743 243b
00000190: b9dd 29bc 9fc9 3cba ab7c 323c 1346 4fbb
000001a0: dfbe 42bc 9616 3cbc b241 c0bb 8c03 43bb
000001b0: bb2e d9ba dc60 d0bc 026d d0bb 18e5 68bb
000001c0: 960a 53bc cebe 3b3c e49e 3cbb 7632 c6bb
000001d0: 2f16 e33c e6f6 673c ca63 7f3a 163c 5cbb
000001e0: 6227 b0ba 1697 8c3c 5666 1e3c b819 66bb
000001f0: 76f2 20bc 9e46 303a 288b babb fdce 1d3c
0.0063565555 0.02305431 0.01980279 -0.00705407 0.011990395 0.0061502783 0.004324363 0.010118037
0.022620413 0.026468402 0.008455071 -0.0021523386 -0.006289293 -0.0093283625 0.036966596 0.009713306
0.0041732737 -0.0009263348 -0.014985292 -0.008431523 0.016135035 0.02568697 -0.033610042 -0.011928177
-0.01227788 -0.007943663 0.008309455 -0.002783522 0.00021286767 -0.0031501218 -0.00073716266 0.0013804305
0.037213285 -0.008550538 -0.004751396 0.006016047 0.0011770619 0.027307268 0.012744932 -0.0153578445
-0.0055503226 -0.0030930035 0.019832565 -0.009259135 -0.01553041 0.0050726654 -0.0077082254 -0.0096908705
0.0043126456 0.005681014 0.017705278 0.008575903 -0.009253745 0.003558477 0.0025956323 -0.0071875555
0.00039259135 0.003841942 -0.010027819 -0.0075522168 -0.011258119 6.4550244e-05 -0.0023966632 0.02016387
0.00048047234 -0.0022599152 0.0065952656 0.0026304417 0.001153853 0.024439136 -0.008799033 -0.0048512393
-0.009306355 0.03259374 -0.0060002063 -0.004287779 -0.01636088 0.011789637 -0.019600712 -0.015526386
0.0052128355 0.002807375 -0.0015303788 0.01190472 -0.0054132473 0.020603232 0.010526513 -0.008239017
0.0013852542 -0.009307948 0.01066711 -0.0049879057 0.00960888 -0.0011732974 -0.017146166 0.003191592
-0.0037689123 0.0072966143 -0.001361566 0.002506444 -0.010367804 -0.0007201675 0.010893981 -0.003162746
-0.0118863275 -0.011479994 -0.0058672065 -0.0029756753 -0.0016569713 -0.025436811 -0.006360651 -0.003553694
-0.012880942 0.011459066 -0.002878123 -0.006048496 0.027720539 0.014157986 0.0009742348 -0.003360515
-0.0013439471 0.017161887 0.0096679535 -0.0035110544 -0.009823432 0.000672439 -0.0056928582 0.009631869

action_model._continuous_distribution.log_sigma f4 [1, 2]
00000000: 5268 613e d838 353e
0.22012451 0.17697465

action_model._continuous_distribution.mu.weight f4 [2, 128]
00000000: c70b 70bd 6ae7 fdbc a6f6 17bb 36bc 9c3c
00000010: 8a67 c6bc 5173 3bbd 7635 3a3d f72c 2ebd
00000020: f006 39bd 806c eb3c 7d1e 23bd e6d5 a0bb
00000030: f4eb e3bc 5ba5 c93c 16cc 853d 06f0 eebc
00000040: d3b0 843c c1e2 69bc f0ed 323d b199 2a3c
00000050: d814 f2bb 423e debd cf10 aa3c 59b8 a53c
00000060: 1935 b33c af54 01bc bbc0 3d3d ef1c 0e3d
00000070: c0b7 933d cfaa 95bc 05f6 68bb 6ad0 223b
00000080: 5d3a 9abc 6c26 ca39 75e1 fbbc 9f05 9b3c
00000090: e0ef a8bb 080c 2cbd 7601 673a cfe0 fc3b
000000a0: badd 73bb f2c3 fabc 7f31 3fbc 3680 5b3b
000000b0: d181 873c 8bc2 1dbd 6bf4 79bb aff7 9a3c
000000c0: 60ec 463c e9d8 5dba b0c7 3ebc 1f5a 8c3a
000000d0: e0b9 b0bb d059 303b 0e2b adbc 27d5 fe3c
000000e0: 5954 30bd f5e3 7abd 6861 c33c 0cde 8c3b
000000f0: 434e 353d b556 213c 701c 1a3d a190 c13b
00000100: 4e4c 24bd b475 a5bc 95ab 49bc c57a e03c
00000110: 1d81 88bb 0289 a2bd c293 c4bc c2f7 acbb
00000120: 01fb b8bc 8a6e b6bd 196e 00bd f168 9f3b
00000130: 6eac 093b 49fe 8d3a 56eb ddbc 6b8c 0c3c
00000140: a02d 423d e6cd 993d 6a08 0c3c 6ee3 30bd
00000150: fe0c ae3a 9e2a b2bc 0366 bbbc 2ca4 373d
00000160: 998c 0cbd d073 9dbc 730d 58bc 80ff ea3c
00000170: eb0f 6bbc 6679 ddbc 3cd2 37bc 925f c03d
00000180: d607 aa3b d0e6 f1bc f18d 7539 076d 35bd
00000190: 8808 8b3d 70c6 8ebc 385c 3abc 9684 943c
000001a0: be29 463d b3b2 63ba e916 983c aefa 283c
000001b0: 1502 673b 8f47 86bb de44 d83c d4eb b3bc
000001c0: 48ea f63c 8f3a b4bc 893f 803d 0d49 bf3a
000001d0: e5e3 c4bd 3dca 7ebc 79d5 a33c 5b5d 843c
000001e0: 8c38 01bd 3ec0 53bc 5417 8b3c db98 8fbc
000001f0: 77a3 c5bb 5f53 6cbc 3e5d b33b 61b0 88bc
00000200: d069 04bd 297b 423b a25e d3bb 01bb f23c
00000210: bed4 89bb 3d4f eb3b addb 42bd 518b d4bc
00000220: ad44 7ebd a6c4 543c 4fd6 913c 1ffd 223d
00000230: 038f 833b 7a36 953c 68cd dc3c a870 09bc
00000240: d723 f1bc af44 99bc 0392 e33c bb33 ef3c
00000250: ba3a 053c c4f5 4cbb bd59 a33c 73df 62bc
00000260: 868d 7c3c 39eb d03c 67b2 133d 4b92 42bc
00000270: 2cb5 2fbc ea05 2dbb 2eff e3bc aba9 113d
00000280: 4042 18bd c4b6 b13c ab00 393c 5bb0 523c
00000290: e492 2c3d 6e60 02bd f536 033c aa07 c1bb
000002a0: 6a74 d03c 2ee4 0f3c 8d8c 4a3b 0304 f63c
000002b0: cb74 a7bc 580c 6abc d00c 03bd 4651 dabb
000002c0: cfea 0c3d 657d 09bc 7118 31bd 7a16 283d
000002d0: b65d f83c 6a03 93bc 96ba 9fbc c5d2 3dbb
000002e0: 7e63 cbbc 0c4e 32bb dbb3 98bb 9fc5 c13b
000002f0: 8053 af3c 1b49 0c3d 1602 333c c97d 3bbb
00000300: 9cb1 d43c 2da2 77bc 235a c73c 4ab4 503c
00000310: 8e04 963b 5bfc b9b9 6e1e 4bbc 7623 27bd
00000320: 5364 34bd d278 43bc 3dc4 4bbc 8a2c fa3c
00000330: a77c ce3c 41ef bebc 0d0c 58bc d1d6 0d3d
00000340: 6a84 8c3b c0ed 94b9 207a e6bc d101 073b
00000350: 0cf5 80bc 0bdc c2bc 3bfe 20bc 878d 543c
00000360: 444f a2bc b17a 273b 537d ccbc be22 3c3c
00000370: 3cb0 3ebc 233b 05bc 4ce4 cabc c16c 1d3b
00000380: 1d74 333d 4556 adbc ab4a cebb 4075 703c
00000390: a960 983c 5086 1e3d c323 3cbd 331c 0fbc
000003a0: 180f 2cbb 786a 32bb 2e2e 61bc 429e efbc
000003b0: a1e0 23bd 25d4 55bc 70a1 afbb 4033 6cbc
000003c0: a420 893b a64c c93c d44d 0dbd 7f9f 2fbc
000003d0: 062e ca3a f2a5 26bd 9dda 173d e2b2 ac3b
000003e0: e423 81bc cd1a c3bb 622d b53c e7fb e83c
000003f0: 9576 e73b ee19 e2bc bdf8 51bc b95d 73bc
-0.05860498 -0.030994136 -0.0023187785 0.019132715 -0.024219293 -0.04576427 0.04546114 -0.04252335
-0.04517263 0.02873826 -0.039823998 -0.004908311 -0.027822472 0.02461498 0.06533067 -0.029167186
0.016197598 -0.014275254 0.043683946 0.010412619 -0.0073877387 -0.108517185 0.020759968 0.020229505
0.021875905 -0.007893725 0.04632638 0.034695562 0.07212782 -0.018269924 -0.003554703 0.0024843463
-0.018826658 0.0003855707 -0.030747155 0.018923579 -0.0051555485 -0.04200366 0.00088121684 0.007717229
-0.0037211017 -0.030611012 -0.011669516 0.0033493168 0.016541393 -0.03851561 -0.003814007 0.018916933
0.012141317 -0.0008462803 -0.011644289 0.001070801 -0.005393252 0.0026909001 -0.021138694 0.031107498
-0.04304919 -0.061252553 0.023850158 0.004298931 0.04426409 0.009847333 0.037624776 0.0059071337
-0.040111832 -0.020197727 -0.012308975 0.027402291 -0.004165782 -0.079362884 -0.023996238 -0.0052785585
-0.022580625 -0.089078024 -0.031354997 0.004864805 0.0021007317 0.0010833229 -0.027089756 0.0085784
0.047406793 0.07509975 0.008546928 -0.043185644 0.0013279018 -0.021748837 -0.022875791 0.0448343
-0.034313772 -0.019220263 -0.0131868 0.028686285 -0.014347057 -0.027035426 -0.011219557 0.093932286
0.0051889224 -0.029529005 0.00023417898 -0.04429343 0.067887366 -0.017428607 -0.011374526 0.018129628
0.048379652 -0.0008685991 0.018565612 0.010313673 0.0035249044 -0.004097886 0.026400026 -0.021963038
0.03014101 -0.02200058 0.06262118 0.0014593914 -0.0961378 -0.015551147 0.019999253 0.016157797
-0.031548068 -0.012924252 0.016978897 -0.017528942 -0.0060314494 -0.014424174 0.005473762 -0.016685667
-0.032327473 0.002967546 -0.00645049 0.029630186 -0.004206269 0.007181077 -0.04757278 -0.025945337
-0.062077213 0.012986338 0.017802386 0.039792176 0.004014851 0.018214453 0.026953414 -0.008388676
-0.029436035 -0.018709509 0.027779585 0.029199472 0.008131677 -0.0031274417 0.019940251 -0.01384722
0.015414601 0.025502788 0.03605881 -0.011875699 -0.010724347 -0.002640123 -0.02783164 0.0355622
-0.037172556 0.021693595 0.011291663 0.012859429 0.042132273 -0.031830244 0.008008708 -0.005890806
0.025446136 0.00878243 0.0030906529 0.03003121 -0.020441433 -0.01428517 -0.03199464 -0.0066625206
0.03440362 -0.008391713 -0.0432362 0.04103706 0.030318122 -0.017945964 -0.01949815 -0.002896474
-0.024827715 -0.0027207164 -0.0046601123 0.005913451 0.02140212 0.034249406 0.01092579 -0.002860891
0.025963597 -0.015114349 0.024334973 0.012738297 0.0045781797 -0.0003547397 -0.012397392 -0.040805303
-0.04404099 -0.011930661 -0.012436924 0.030538816 0.025205923 -0.023307445 -0.013186467 0.034628693
0.004288246 -0.00028405897 -0.028134406 0.0020600448 -0.015741847 -0.023786565 -0.009826238 0.012973196
-0.019813187 0.0025555308 -0.024962103 0.011482893 -0.011638697 -0.008131775 -0.024767064 0.0024021121
0.043811906 -0.0211593 -0.006295522 0.014676392 0.018600779 0.03870231 -0.045932543 -0.008734751
-0.0026254114 -0.0027224105 -0.01374392 -0.029250268 -0.040009145 -0.0130510675 -0.005359821 -0.014416516
0.0041847993 0.024572682 -0.03449805 -0.010719179 0.0015425093 -0.0406856 0.03707372 0.005270348
-0.015764184 -0.0059541226 0.022116367 0.028440429 0.0070636966 -0.027600255 -0.0128156515 -0.014853888

action_model._continuous_distribution.mu.bias f4 [2]
00000000: 89be 53bc f22a 99bb
-0.012923845 -0.004674309
