results/randomPositionRewardForApproach/CarFindGoal/CarFindGoal-4326577.pt (torch, 530875 bytes, 36 tensors)

network_body._body_endoder.seq_layers.0.weight f4 [128, 36]
0	0x3dff9e58	0.124813735
1	0xbdb0d0eb	-0.08633598
2	0xbe35724a	-0.17719379
3	0xbd9733b4	-0.073829085
4	0x3da8d66c	0.08244023
5	0xbe3faab3	-0.1871746
6	0x3e23a4da	0.15980855
7	0xbd862b35	-0.0655121
8	0x3e3f4671	0.18679215
9	0xbdd802ae	-0.10547386
10	0xbe3f4bf1	-0.18681313
11	0x3b30940a	0.0026943707
12	0xbd337951	-0.04381687
13	0xbe43fdd3	-0.19139795
14	0x3e122da3	0.14275222
15	0xbcfcfd8f	-0.030882625
16	0xbbbf53d9	-0.005838853
17	0x3d424ec0	0.047438383
18	0xbcd15f27	-0.025558067
19	0x3e42380e	0.18966696
20	0x3eaa2e40	0.3323841
21	0xbe0d9f61	-0.1383033
22	0xbe7526e1	-0.23940612
23	0x3dd605d0	0.104503274
24	0xbdc00709	-0.09376342
25	0x3e39d1b5	0.18146403
26	0xbe56d894	-0.20981055
27	0xbdf1c494	-0.118050724
28	0xbde0d559	-0.10978193
29	0x3cf1c36a	0.029512126
30	0xbdbcc4c9	-0.09217221
31	0x3d95a047	0.07305961
32	0xbe3d0b85	-0.18461426
33	0xbbff614a	-0.00779358
34	0x3ca9cd82	0.020727877
35	0xbe3dd51b	-0.18538325
36	0xbe6a5e0d	-0.2288744
37	0xbc05b054	-0.008159716
38	0xbd94aa80	-0.07259083
39	0xbe858b6b	-0.2608293
40	0xbe6003ad	-0.21876402
41	0x3ddbf829	0.10740692
42	0x3da14e85	0.078763045
43	0xbdbbbf06	-0.09167294
44	0x3d76f285	0.06028988
45	0xbe899736	-0.26873177
46	0x3d4354eb	0.047688406
47	0x3e256a5a	0.16153851
48	0x3e68fb0e	0.2275202
49	0x3d1b02be	0.037844412
50	0x3c1c6133	0.0095446585
51	0x3ba382fb	0.0049899793
52	0xbc9cabc2	-0.01912487
53	0xbd9ca70c	-0.07649049
54	0x3eac9027	0.3370373
55	0xbcd41f4b	-0.025893828
56	0xbdababb0	-0.08382356
57	0xbe23fee6	-0.16015205
58	0xbd9338c5	-0.07188562
59	0x3d61cdd7	0.055127945
60	0x3cbf1089	0.023323314
61	0xbc91011e	-0.017700728
62	0x3d18205f	0.037140246
63	0x3c6e44c8	0.014542766
64	0x3dbdb655	0.09263293
65	0xbc9e34e4	-0.01931233
66	0x3e2d9173	0.16950016
67	0xbdf5f5f7	-0.12009805
68	0xbe1da726	-0.15395793
69	0x3e1a019b	0.15039675
70	0x3e82e32e	0.2556395
71	0xbe84cf85	-0.25939575
72	0x3e47cf8e	0.1951277
73	0x3cd9f38c	0.02660539
74	0xbe5fb7f9	-0.21847524
75	0xbd7f50ec	-0.062333032
76	0x3e5a76fe	0.21334454
77	0x3e0c89e7	0.1372448
78	0x3ea71452	0.3263269
79	0xbdd652d8	-0.1046502
80	0xbbbac896	-0.0057001812
81	0xbd32ae7a	-0.043623425
82	0xbe13cd11	-0.14433695
83	0xbe4252b5	-0.18976863
84	0xbd8bde21	-0.06829477
85	0xbe16c9f4	-0.14725477
86	0x3e9f0227	0.3105633
87	0xbcc40884	-0.023929842
88	0xbec3a932	-0.38215023
89	0x3e6e0545	0.23244198
90	0xbe10c342	-0.14136985
91	0x3e240cfb	0.16020577
92	0x3e6917f2	0.2276304
93	0x3d36f7c0	0.044669867
94	0x3c4e8a9c	0.012606289
95	0x3dd91e74	0.106015116
96	0xbc85b6ca	-0.016322512
97	0x3ecca2e0	0.39968014
98	0xbddba384	-0.107245475
99	0xbd2001d6	-0.03906425
100	0x3ca76d86	0.020437967
101	0xbc85b397	-0.016320987
102	0xbda01d6d	-0.078181125
103	0xbdaeb879	-0.08531279
104	0x3dde98be	0.10868977
105	0xbe02af72	-0.1276224
106	0x3b91724c	0.004438674
107	0xbc0a2209	-0.008430966
108	0xbe1e49a4	-0.15457779
109	0xbde6ace8	-0.11263448
110	0x3e065b5c	0.13120788
111	0xbd2e538e	-0.042560153
112	0xbe081610	-0.13289666
113	0xbc7e29c8	-0.015512891
114	0xbe01773c	-0.1264314
115	0x3d0747c7	0.033027437
116	0x3e5e64c9	0.21718134
117	0x3cfe0602	0.031008724
118	0x3e289cd7	0.1646608
119	0xbd8dee67	-0.06930237
120	0x3ea9560b	0.33073458
121	0xbcad6f9c	-0.021171384
122	0x3dad17cc	0.084518045
123	0xbe97774b	-0.295832
124	0xbe200507	-0.15626918
125	0xbd86b3a1	-0.0657723
126	0xbdb5aa4c	-0.08870372
127	0x3e94b01e	0.29040617
128	0xbe5212a7	-0.20514928
129	0x3d04ca5a	0.03241954
130	0xbc242523	-0.01001862
131	0x3e0179a5	0.1264406
132	0xbd9d2c20	-0.07674432
133	0xbe133b5b	-0.14378111
134	0xbea34068	-0.31885076
135	0x3d1f0b8b	0.038829368
136	0x3e013c6d	0.12620707
137	0x3e0057d3	0.12533502
138	0xbd365318	-0.044512838
139	0xbbb7451f	-0.0055929567
140	0x3e1bba8d	0.15207882
141	0xbe0a6dc6	-0.13518438
142	0x3e541534	0.20711213
143	0x3e13a82a	0.14419618
144	0xbd399916	-0.04531201
145	0xbe39750d	-0.18111058
146	0x3ced12f6	0.028939705
147	0xbe065302	-0.13117602
148	0xbdb42e0e	-0.08797847
149	0x3e4738b0	0.19455218
150	0x3d0519f3	0.03249545
151	0xbc21ec08	-0.009882934
152	0x3c952121	0.018204274
153	0x3e031b98	0.12803495
154	0xbe11e5c0	-0.14247799
155	0xbdb87c7b	-0.09008118
156	0xbd70ae6d	-0.058760095
157	0xbbf81aa5	-0.0075715357
158	0x3df26947	0.11836486
159	0x3e77e414	0.24208099
160	0xbdafaae0	-0.08577514
161	0xbc9dccea	-0.01926275
162	0xbddfb497	-0.10923117
163	0xbd6400a4	-0.055664673
164	0xbdd3d8d1	-0.10344089
165	0xbe2990ac	-0.16559094
166	0x3c88c2d4	0.016694464
167	0x3e189495	0.1490043
168	0xbee6c335	-0.45070806
169	0xbe02e02b	-0.12780826
170	0x3e5a878d	0.21340771
171	0x3e9cef67	0.306514
172	0x3be6fbc7	0.007049057
173	0xbe92f91d	-0.28705683
174	0x3e1cdc61	0.15318443
175	0xbee014ef	-0.4376597
176	0x3d59d864	0.05318488
177	0xbdd1716e	-0.10226713
178	0xbe1d43a7	-0.15357839
179	0x3e18db4d	0.14927407
180	0x3db95edd	0.09051297
181	0x3e3682da	0.17823353
182	0xbc9b492b	-0.018955788
183	0x3dce83ae	0.1008371
184	0xbd8212d7	-0.0635125
185	0xbe021750	-0.12704206
186	0xbb4988c7	-0.0030751692
187	0x3e11d535	0.14241488
188	0xbdc4f536	-0.09617083
189	0xbdc8cb46	-0.09804396
190	0x3e207e66	0.15673217
191	0xbe1a3192	-0.15057972
192	0xbdb22c30	-0.08699834
193	0xbdbaec09	-0.091270514
194	0x3e65eef5	0.22454436
195	0x3e9a1ca6	0.30099982
196	0xbe94dd0f	-0.29074904
197	0xbba54976	-0.0050441576
198	0x3e50ed72	0.20403078
199	0xbda2bd15	-0.07946221
200	0xbc775db5	-0.015098025
201	0x3e43c40c	0.19117755
202	0xbe2b1425	-0.16706903
203	0x3e60dabe	0.21958444
204	0x3d9a55af	0.07535874
205	0xbe2f22e5	-0.17103155
206	0x3be30517	0.006928097
207	0x3e1d64d0	0.15370488
208	0x3d4f53b8	0.05061695
209	0x3c7b0125	0.015320097
210	0x3e983138	0.2972505
211	0xbe5c988d	-0.21542569
212	0xbd55bb44	-0.052180544
213	0xbe0ddbaf	-0.13853334
214	0xbe8e3175	-0.27772108
215	0x3d00e324	0.03146662
216	0x3ea8bb13	0.32955226
217	0x3e4c1424	0.19929558
218	0x3df328ef	0.11873042
219	0xbda3e8e2	-0.08003403
220	0x3dfbe467	0.12299424
221	0x3eab1c5f	0.33420083
222	0x3e29ff1e	0.16601226
223	0x3e5dc611	0.21657588
224	0xbec6871c	-0.38774955
225	0xbeab13eb	-0.33413634
226	0x3e828a39	0.2549608
227	0x3e02ea4a	0.12784687
228	0xbeaaa653	-0.3333002
229	0x3d922b6b	0.071371876
230	0xbb470c33	-0.0030372262
231	0xbda57c2f	-0.08080327
232	0xbdb175a3	-0.086650155
233	0x3ec9c561	0.394084
234	0xbd3b89a2	-0.045785554
235	0xbdaaa997	-0.08333128
236	0xbc96cad1	-0.018407257
237	0xbe1b9c39	-0.15196313
238	0x3e1b32b8	0.15156066
239	0x3d9e248d	0.07721815
240	0xbd8989b7	-0.0671572
241	0xbe9bf730	-0.30462027
242	0x3e820171	0.25391725
243	0xbc0a20b7	-0.008430651
244	0x3e51b4a3	0.20479064
245	0x3dae39e7	0.08507138
246	0x3ea32cc7	0.318701
247	0x3cebeafa	0.028798569
248	0x3d416eed	0.047224928
249	0xbceb8519	-0.02874999
250	0xbdcb3723	-0.09922626
251	0xbc681e90	-0.014167443
252	0x3dd21cca	0.10259397
253	0xbe386d9c	-0.18010563
254	0x3e0baa97	0.13639294
255	0x3ea468ac	0.32111108

network_body._body_endoder.seq_layers.0.bias f4 [128]
0	0x3c2decf1	0.010615573
1	0xbbb09840	-0.0053892434
2	0xbcbe129c	-0.023202233
3	0xbc43bc36	-0.011946728
4	0xbd4344f2	-0.047673173
5	0x3ce73c0c	0.028226875
6	0x3b089bcd	0.0020844818
7	0xbb0585e7	-0.0020374001
8	0xbcc71939	-0.02430402
9	0x3cc9a116	0.024612945
10	0x3d366b5a	0.044535972
11	0xbc2be59d	-0.010491756
12	0xbb6b9094	-0.003594433
13	0x3ccad88d	0.024761463
14	0xbcb0c3ec	-0.021577798
15	0x3c856690	0.016284257
16	0x3ce76d1b	0.028250268
17	0xbb8eb9bd	-0.004355638
18	0x3cccb84e	0.024990227
19	0x3c680190	0.014160529
20	0xbd126077	-0.035736527
21	0x3c700fa8	0.01465217
22	0xbbc98963	-0.006150411
23	0x3bd1b2e6	0.0063995
24	0xbb98b29a	-0.004659963
25	0x3c297646	0.01034314
26	0x3d4a86b2	0.04944486
27	0xbbbe683a	-0.0058107646
28	0xbb8a98ae	-0.0042296266
29	0xbc59ae7b	-0.013286228
30	0xbd412542	-0.047154672
31	0xbc510561	-0.01275763
32	0xbcc7cf52	-0.02439085
33	0xbcaeb813	-0.021328008
34	0x3d26a6ec	0.040686533
35	0x3d5eb0a1	0.054367665
36	0x3c79ce17	0.01524689
37	0x3c9e1837	0.019298656
38	0xbc01fb9f	-0.007933526
39	0xbcf37949	-0.02972092
40	0xbb8b17a6	-0.0042447625
41	0x3c92876a	0.017886836
42	0x3bfb82ee	0.00767552
43	0x3c6b8fa1	0.0143775055
44	0x3d167aeb	0.036738317
45	0xbd0db540	-0.03459668
46	0xbcb46df9	-0.022025095
47	0x3c529473	0.012852776
48	0x3d6384c7	0.05554655
49	0xbd1b21dc	-0.037874088
50	0x3d1cbfe6	0.038268946
51	0x3cb51e50	0.02210918
52	0xbb6d91c3	-0.003625021
53	0xbc131f70	-0.008979663
54	0xbd4cb869	-0.049980555
55	0x3d281cf4	0.041043237
56	0x3d0fa8d5	0.03507312
57	0x3d3f1de7	0.046659376
58	0x3d521f70	0.051299512
59	0xbc441547	-0.011967964
60	0xbbf6682d	-0.007519743
61	0x3cdff31d	0.027337605
62	0x3d155d20	0.036465764
63	0x3a92795f	0.0011175087
64	0xbb5406c1	-0.0032352658
65	0xbc90e7a4	-0.01768858
66	0xbb646aa3	-0.00348536
67	0xbd51f4e0	-0.05125892
68	0x3d7f04e7	0.062260535
69	0x3cf82bc7	0.030294312
70	0x3c904be4	0.017614312
71	0xbcfb1024	-0.030647345
72	0x3d3eaf56	0.046553932
73	0xba7c4c2a	-0.00096243864
74	0xbc8f21e0	-0.017472208
75	0xbbd2348c	-0.0064149555
76	0xbb47be03	-0.0030478246
77	0xbb8acb38	-0.0042356513
78	0x3b0fae33	0.00219239
79	0x3c107c88	0.008818753
80	0x3a9adbfe	0.001181483
81	0xbc6f9f33	-0.014625358
82	0x3ca608a4	0.020267792
83	0xbcaceee1	-0.02111
84	0x3d84b4ab	0.06479772
85	0x3aa8d5fe	0.0012881157
86	0xbca49acb	-0.020093342
87	0xbcd4607b	-0.025924912
88	0x3ce5d9ae	0.0280579
89	0x3d9b4eed	0.07583413
90	0xbd6bf98d	-0.057611037
91	0xbd02ff58	-0.031981796
92	0x3c859cde	0.016310152
93	0x3cf38eab	0.029731115
94	0xbd093021	-0.033493165
95	0xbb9e9c6b	-0.004840424
96	0x3cfa09d3	0.030522263
97	0x3c1f20ed	0.00971244
98	0x3c3ab7e5	0.011396383
99	0x3dbe8cf9	0.09304232
100	0xba9860c0	-0.0011625513
101	0x3d264945	0.04059722
102	0xb76c74f2	-1.4093925e-05
103	0xbd350a85	-0.044199485
104	0x3c9d1d39	0.019178974
105	0xbc3d106e	-0.011539562
106	0x3ca503ee	0.020143475
107	0xbc8bdc5a	-0.017072845
108	0xbcab8d9e	-0.020941552
109	0x3c82d6de	0.015971597
110	0x3aa9290b	0.0012905909
111	0xbcb88944	-0.02252639
112	0xbc0afb76	-0.0084828045
113	0x3cfc274a	0.030780453
114	0x3c8fc370	0.017549247
115	0xbd21f408	-0.039539367
116	0xbc158a7a	-0.009127254
117	0xbc9901ba	-0.018677581
118	0x3c83256d	0.016009057
119	0xbceaab44	-0.028646119
120	0xbc81342c	-0.015771948
121	0x3c708077	0.014679066
122	0xbd506c2e	-0.05088442
123	0xbc229ae5	-0.009924625
124	0x3cb0ad60	0.021567047
125	0x3d43b747	0.04778221
126	0xbd0617ff	-0.03273773
127	0x3cc4644d	0.023973608

network_body._body_endoder.seq_layers.2.weight f4 [128, 128]
0	0x3c4d70e5	0.012539123
1	0xbdb47554	-0.08811441
2	0x3d42573d	0.04744648
3	0xbbd37ebf	-0.0064543183
4	0x3ddbf742	0.1074052
5	0xbe40715e	-0.18793246
6	0x3d03b397	0.032153692
7	0x3d83dcad	0.06438575
8	0x3e745260	0.23859549
9	0xbe031493	-0.12800817
10	0xbde3601a	-0.11102314
11	0x3d7c59bc	0.061609015
12	0xbc8447d2	-0.016147528
13	0xbcd13018	-0.025535628
14	0x3b9ebcee	0.0048442995
15	0xbdf36f08	-0.11886412
16	0x3df0afa4	0.11752251
17	0xbd054d37	-0.03254434
18	0xbbc2cdc1	-0.005944938
19	0xbdc56eb7	-0.09640258
20	0x3d8d6bdb	0.069053374
21	0xbdd84c51	-0.10561431
22	0xbdc35cde	-0.095391974
23	0xbe51978e	-0.2046797
24	0x3ce72803	0.028217321
25	0x3c1d435a	0.009598577
26	0x3db6e0fc	0.08929631
27	0x3cb36a72	0.021901343
28	0x3cb9871f	0.022647439
29	0x3cb97878	0.022640452
30	0x3db95ee1	0.090513
31	0x3d3440c0	0.044007063
32	0xbe679a35	-0.22617419
33	0xbdddafe9	-0.10824568
34	0x3d9d609b	0.07684442
35	0xbe4b4d43	-0.19853692
36	0xbd9c5a33	-0.07634392
37	0xbd847f15	-0.064695515
38	0xbcfa87fb	-0.030582419
39	0x3d7c38b6	0.06157752
40	0xbd15d0e4	-0.036576167
41	0x3c77864a	0.015107701
42	0x3e0584d3	0.1303895
43	0xbd23fdee	-0.040037088
44	0xbd8f8ad2	-0.070089
45	0xbdaa1ad6	-0.083059
46	0xbd9b4dcc	-0.07583198
47	0xbdf8c537	-0.12146991
48	0xbd620d29	-0.05518833
49	0x3d5a020e	0.053224616
50	0xbda05a0b	-0.07829674
51	0x3db2bc8a	0.08727367
52	0x3dd6b77d	0.10484216
53	0x3cb5d5d2	0.022196684
54	0x39e268a0	0.0004318403
55	0x3e425d0a	0.18980804
56	0xbd2bd96d	-0.0419554
57	0x3eba00cf	0.36328742
58	0xbda14c80	-0.07875919
59	0xbd42337e	-0.047412388
60	0xbe29f6e0	-0.16598082
61	0x3dbc682c	0.09199557
62	0xbd2995dd	-0.041402686
63	0xbdc860dc	-0.097840995
64	0xbe01eb13	-0.1268733
65	0xbdd2e52c	-0.10297617
66	0x3e3b27b5	0.18276866
67	0x3e0989d0	0.13431478
68	0xbc5354b1	-0.01289861
69	0xbe1d88bd	-0.15384193
70	0xbdeee4cc	-0.11664733
71	0x3ca780ea	0.020447213
72	0xbe327597	-0.1742767
73	0x3d1eb9a9	0.038751278
74	0x3ca70513	0.020388162
75	0x3d2e5b4d	0.04256754
76	0xbcd0c444	-0.025484212
77	0xbd913a97	-0.07091253
78	0x3d66cd27	0.056347992
79	0xbdfdb3d0	-0.12387812
80	0x3d02037c	0.031741604
81	0x3d4e3285	0.050341148
82	0xbd85b968	-0.06529504
83	0x3ba557cc	0.0050458666
84	0xbdbcc521	-0.09217287
85	0x3d53de19	0.05172548
86	0xbe0e0db8	-0.13872421
87	0x3d52e2fd	0.051486004
88	0xbd2af351	-0.04173595
89	0xbc31cede	-0.010852544
90	0x3e01e7be	0.12686059
91	0x3dfcceb4	0.12344113
92	0xbb98f28f	-0.004667587
93	0xbe56f11f	-0.20990418
94	0x3dd6c306	0.104864165
95	0x3d76c6a8	0.060248047
96	0x3b8995de	0.0041987738
97	0xbe143f47	-0.14477263
98	0x3e22d2c9	0.1590072
99	0x3dcdfd2b	0.100580536
100	0x3de2f0e8	0.110811055
101	0x3cf52667	0.029925538
102	0xbdde2207	-0.10846334
103	0x3dd0daf4	0.10198012
104	0xbaf65f16	-0.0018796648
105	0x3cdca06b	0.026931962
106	0x3d959239	0.073032804
107	0x3cba198c	0.02271726
108	0xbd164aeb	-0.03669254
109	0x3d52a547	0.051427152
110	0xbd23211b	-0.039826494
111	0x3dba300d	0.09091196
112	0xbc1ef7e3	-0.0097026555
113	0xbe21eb1f	-0.15812348
114	0xbd0503e0	-0.0324744
115	0xbb648a63	-0.0034872524
116	0x3d742eae	0.05961483
117	0x3d36514c	0.044511124
118	0x3e32c0ce	0.17456362
119	0xbd6a93b1	-0.057269756
120	0x3e0586ba	0.13039675
121	0x3d2c65d7	0.04208931
122	0x3ceebc40	0.029142499
123	0x3dcd14a3	0.10013702
124	0x3d33d04a	0.04389981
125	0x3d1c4734	0.038153842
126	0x3d4af0c1	0.049546007
127	0x3dc510bb	0.09622332
128	0xbe2918d4	-0.16513377
129	0xbd804544	-0.06263211
130	0xbe04b73f	-0.12960528
131	0x3b9d900e	0.0048084324
132	0x3db87fd5	0.09008757
133	0xbe6cccc1	-0.23124982
134	0xbc6b7c61	-0.014372916
135	0xbdfba1e8	-0.122867405
136	0xbe07ef50	-0.13274884
137	0xbc5bf8b7	-0.013425997
138	0xbd789526	-0.060689114
139	0x3d1e45a3	0.03864063
140	0xbd1c6a45	-0.038187284
141	0xbe47590f	-0.19467567
142	0xbde06c9a	-0.10958214
143	0xbd156096	-0.036469065
144	0x3c884fd9	0.016639637
145	0xbd368aa5	-0.044565815
146	0x3c5ce32a	0.0134818945
147	0xbb6daad5	-0.0036265154
148	0x3de6568d	0.11246977
149	0x3dc7b7b4	0.097518355
150	0x3db54457	0.088509254
151	0xbe0e47f2	-0.13894632
152	0xbcddf970	-0.02709648
153	0xbe387083	-0.1801167
154	0xbba4c4e9	-0.0050283563
155	0xbe19839f	-0.14991616
156	0xbdce2851	-0.100662835
157	0xbd27b1d4	-0.040941074
158	0x3d9dce7f	0.07705402
159	0xbb91b7ca	-0.004446958
160	0xbdf8b52d	-0.121439315
161	0xbd8ff70d	-0.07029543
162	0x3dc2bc46	0.095085666
163	0x3dd9e2a4	0.106389314
164	0xbc8f8b41	-0.017522456
165	0x3deb07ba	0.11476083
166	0xbd95db44	-0.07317212
167	0xbdafe3fa	-0.08588405
168	0xbd9fd7d3	-0.07804837
169	0x3c040052	0.008056717
170	0xbcba310f	-0.022728471
171	0xbd7dab1b	-0.061930757
172	0x3dd66e69	0.10470278
173	0xbc1b1a9b	-0.009466792
174	0x3e03d49e	0.12874076
175	0x3caee240	0.021348119
176	0xbe024024	-0.1271978
177	0xbd371fd9	-0.044708107
178	0xbe071030	-0.13189769
179	0xbe2db46b	-0.16963355
180	0xbcb45142	-0.022011403
181	0x3deaab2e	0.11458431
182	0xbe5820f3	-0.21106319
183	0xbe01bb8e	-0.12669203
184	0x3de3a25c	0.11114952
185	0xbd11ab48	-0.035563737
186	0xbcebc1b0	-0.02877888
187	0xbd0dc409	-0.03461078
188	0x3e39d929	0.18149246
189	0xbdd43979	-0.103625245
190	0xbcda5ed5	-0.026656548
191	0x3d5aeb31	0.053446952
192	0x3df61c63	0.12017133
193	0xbc8f655d	-0.017504388
194	0x3d6c3e3d	0.057676543
195	0x3d38c5c0	0.045110464
196	0xbcd384c1	-0.025820138
197	0x3c228b40	0.009920895
198	0xbcd6eacf	-0.026235012
199	0xbea72886	-0.32648104
200	0x3c71899b	0.01474228
201	0xbe12732f	-0.14301752
202	0x3e46b2cd	0.19404145
203	0x3da7357c	0.08164498
204	0x3deda176	0.11603062
205	0x3de386bb	0.11109682
206	0x3d84e6d7	0.06489342
207	0x3dc6e02c	0.09710726
208	0xbda754ba	-0.08170457
209	0x3e5a55f8	0.21321857
210	0xbda35558	-0.079752624
211	0x3d5e72e6	0.054308794
212	0xbe3234bd	-0.1740293
213	0x3dd282d1	0.102788575
214	0x3d47ade5	0.048749823
215	0x3d9d8be9	0.07692701
216	0xbd29672b	-0.041358154
217	0x3d7cef86	0.061751865
218	0xbe39b88d	-0.18136807
219	0x3e0d264f	0.13784145
220	0xbdad12d4	-0.08450857
221	0xbd9468c9	-0.07246549
222	0xbcc4599a	-0.023968507
223	0xbc992b7a	-0.018697489
224	0xbe26580e	-0.16244528
225	0x3cc33614	0.023829497
226	0x3d1e38d6	0.03862842
227	0xbdcf3557	-0.10117596
228	0xbe351bdd	-0.1768641
229	0x3e560443	0.20900063
230	0x3e2fb5ac	0.17159146
231	0x3e17e43c	0.14833158
232	0x3e286704	0.16445547
233	0xbca39298	-0.019967362
234	0x3a3b92ff	0.0007155388
235	0x3d8d9af3	0.0691432
236	0x3cd6366b	0.026148995
237	0xbd3b3fa5	-0.045714993
238	0xbd8b745f	-0.068093054
239	0x3e2cdc64	0.16880947
240	0xbd2ec1d2	-0.04266531
241	0x3d53e28c	0.051729724
242	0x3981a5bf	0.00024728288
243	0xbd32789f	-0.043572064
244	0xbc668abb	-0.014071162
245	0x3d9a20ea	0.07525809
246	0x3d44f13c	0.04808162
247	0x3d247d48	0.04015854
248	0x3d02335b	0.031787258
249	0x3db91013	0.09036269
250	0x3cb7634a	0.022386212
251	0x3e0239df	0.12717389
252	0x3c65d638	0.0140281245
253	0xbe05a4f6	-0.13051209
254	0x3d8bfb89	0.06835086
255	0x3c334073	0.010940659

network_body._body_endoder.seq_layers.2.bias f4 [128]
0	0xbc6eece0	-0.014582843
1	0x3cefc569	0.029268937
2	0x3d0459cb	0.032312196
3	0x3cda036b	0.026612958
4	0x3c090262	0.0083623845
5	0x3cd6def0	0.026229352
6	0xbcf42839	-0.029804336
7	0x3b3a5aa2	0.002843537
8	0xbbb4fb48	-0.005523119
9	0x3d3e58ca	0.046471395
10	0x3cc8e615	0.024523774
11	0x3d249451	0.040180508
12	0xbb2fca5e	-0.00268235
13	0x3cbd03e1	0.023073139
14	0x3d6a046f	0.057133134
15	0xbbe82abe	-0.0070851734
16	0xbd0216e7	-0.031760123
17	0xbd14b785	-0.03630783
18	0x3b45884f	0.003014106
19	0x3c80cb45	0.015721926
20	0x3d5b91f4	0.05360599
21	0x3d19250c	0.037388846
22	0xbce96074	-0.028488375
23	0xbd195552	-0.037434883
24	0x3b6b77e7	0.0035929622
25	0x3cc35603	0.023844725
26	0x3d176897	0.03696498
27	0xbd248b34	-0.040171817
28	0xbc8cf7dd	-0.017208034
29	0xbc6adeb5	-0.014335324
30	0xbd076460	-0.03305471
31	0x3d11537f	0.03548002
32	0x3b9ddc8e	0.004817552
33	0x3ca09d95	0.019606391
34	0x3bd151b0	0.0063879117
35	0x3c3ccc87	0.0115233725
36	0x3ce0beae	0.027434673
37	0x3c124bec	0.008929234
38	0x3d17cdc6	0.037061475
39	0xbd4c047a	-0.049808957
40	0x3cb7568b	0.022380134
41	0x3c04c2d9	0.008103096
42	0x3c4635e5	0.01209781
43	0xba4ac75c	-0.00077353953
44	0xbd443dc6	-0.047910474
45	0x3c373dc6	0.0111841615
46	0xbd36fbed	-0.04467385
47	0xbd48b2f8	-0.048998803
48	0x3cfaa030	0.030593961
49	0xbc197838	-0.009367041
50	0xbcc072e5	-0.023492286
51	0x3d188af3	0.037241887
52	0x3af6df6b	0.0018834894
53	0xbd0f245f	-0.034946796
54	0xbba9117b	-0.0051595545
55	0xbcf1bd0a	-0.029509086
56	0xbc963ab0	-0.018338531
57	0x3c93923c	0.018014066
58	0xbd19dc64	-0.037563697
59	0x3b85408e	0.0040665334
60	0x3c48b4a9	0.012250104
61	0x3d2bc745	0.041938085
62	0x3c6d5a51	0.014486865
63	0x3cb5e6af	0.022204725
64	0x3d0ec637	0.034857
65	0xbcf71446	-0.030161034
66	0x3cf1e965	0.029530236
67	0x3cbffe62	0.023436729
68	0xbca1f56f	-0.019770352
69	0x3ce5b9c9	0.02804269
70	0xbbdabea4	-0.006675558
71	0xbd3d1863	-0.046165835
72	0xbd248cd8	-0.04017338
73	0x3d200526	0.03906741
74	0xbcb890b6	-0.022529941
75	0x3cf18205	0.029480943
76	0xbbbd7dc7	-0.005782816
77	0xbce2cfe5	-0.027687022
78	0xbd263fd8	-0.04058823
79	0x3ca9b2ac	0.02071508
80	0x3c24c074	0.01005565
81	0xbc0b69d1	-0.008509115
82	0xbd2170c2	-0.039414175
83	0x3cc4bbfc	0.02401542
84	0xbcf42d5f	-0.02980679
85	0xbb4b7228	-0.0031043384
86	0x3c3c9300	0.011509657
87	0xbbd6deb7	-0.0065573114
88	0xbc99f93b	-0.0187956
89	0x3c5efcd7	0.013610086
90	0xbcc2f42e	-0.023798075
91	0xbc12d6bb	-0.008962329
92	0xbbc103a2	-0.0058903256
93	0xbc278ea2	-0.010226877
94	0xbd50e4ba	-0.05099938
95	0xbbc0770b	-0.005873566
96	0x3cf04c6e	0.02933332
97	0xbae0ffaf	-0.0017166043
98	0xbc3ba3ae	-0.0114525985
99	0x3c007f34	0.007842828
100	0xbb69aa59	-0.0035654514
101	0x3d27de6d	0.040983606
102	0xbd094b8f	-0.033519324
103	0xbd02f99f	-0.03197634
104	0xbc7aaee4	-0.015300486
105	0xbd6febf9	-0.05857465
106	0xbceb55c9	-0.028727429
107	0xbd0a4926	-0.033761166
108	0xbd25d726	-0.040488385
109	0xbcb50365	-0.022096345
110	0xbd0e0340	-0.03467107
111	0xbd3175dd	-0.043325294
112	0x3ba6944f	0.0050835977
113	0x3cd1efb6	0.025626998
114	0xbd0bd34a	-0.034137048
115	0xbd1d4c01	-0.03840256
116	0x3d14221b	0.036165338
117	0xbca3212d	-0.01991328
118	0x3d0ccf32	0.034377284
119	0xbbb9e58e	-0.005673117
120	0xbcb2f643	-0.021845942
121	0xbc2fa949	-0.010721513
122	0x3c864389	0.016389625
123	0x3bf9e32e	0.007625959
124	0x3ba107cd	0.00491426
125	0xbcee8d4f	-0.029120116
126	0xbd4446a4	-0.04791893
127	0xbcd00445	-0.02539266

action_model._continuous_distribution.log_sigma f4 [1, 2]
0	0x3e9c74de	0.30557913
1	0x3e886f72	0.26647526

action_model._continuous_distribution.mu.weight f4 [2, 128]
0	0xbd3e3d61	-0.046445254
1	0x3c886fa6	0.0166548
2	0xbc3611cf	-0.011112644
3	0x3c5b3d55	0.013381322
4	0xbcb22465	-0.02174587
5	0xbcb14bc0	-0.021642566
6	0x3d32cbeb	0.043651503
7	0xbd2fc695	-0.042913992
8	0xbd39658c	-0.04526286
9	0x3b85265d	0.004063411
10	0xbd19f336	-0.03758546
11	0xbc630bd3	-0.0138578
12	0xbcd16714	-0.025561847
13	0x3bec610f	0.0072137187
14	0x3d464c4c	0.048412606
15	0xbcdaa571	-0.026690217
16	0x3cfcd4ae	0.030863132
17	0xbc90f1a2	-0.017693345
18	0x3cd6b40b	0.026208898
19	0xbcd5003c	-0.026001088
20	0x39c5806f	0.0003767046
21	0xbdf646ef	-0.12025248
22	0x39ff8cf5	0.0004874241
23	0x3c65fa96	0.014036795
24	0x3cb48227	0.022034718
25	0xba7639ba	-0.0009392757
26	0x3cfb2b4c	0.030660294
27	0x3ce776e9	0.028254943
28	0x3d627789	0.05528978
29	0xbba985ab	-0.005173405
30	0xbc73fe54	-0.0148921795
31	0x3c871422	0.016489092
32	0xbc84def4	-0.016219594
33	0x3cebeabb	0.028798452
34	0xbcdf6ea9	-0.027274447
35	0xbce164bc	-0.027513854
36	0xbcc211f8	-0.023690209
37	0xbd116daf	-0.035504993
38	0x3c49d929	0.012319841
39	0xbb1e2985	-0.0024133634
40	0xbc867286	-0.01641203
41	0xbca1085e	-0.01965731
42	0xbc0b3851	-0.008497314
43	0x3c01bb48	0.0079181865
44	0x3c23d2c2	0.009998979
45	0xbcb31111	-0.021858724
46	0xbc27958d	-0.010228527
47	0x3ce147cd	0.027500058
48	0x3c6242c0	0.01380986
49	0xbced3c1e	-0.02895933
50	0xbb716c57	-0.0036838257
51	0x3b82e827	0.00399496
52	0x37f7fc5a	2.9562205e-05
53	0x3c38ee3c	0.011287268
54	0xbca88604	-0.020571716
55	0x3cabc553	0.020968115
56	0xbd182bfe	-0.03715133
57	0xbd2ab3fa	-0.041675545
58	0x3c787d28	0.015166558
59	0x3be253fc	0.0069069844
60	0x3cd5de3b	0.026106944
61	0x3c684ce8	0.014178492
62	0x3ba030be	0.004888623
63	0x3c9feb3c	0.019521348
64	0xbd06f2cd	-0.032946397
65	0xbc7a8d49	-0.015292474
66	0xbbb3e65a	-0.0054901065
67	0x3c26a684	0.010171536
68	0x3c44a83f	0.012003004
69	0xbd940d6d	-0.07229123
70	0xbd4e3e9e	-0.050352685
71	0xbc1cb438	-0.009564452
72	0xbca0b363	-0.019616788
73	0xbda763cd	-0.08173332
74	0xbce8b874	-0.028408267
75	0x3aa417c1	0.0012519286
76	0x3c344faa	0.0110053215
77	0xbb9baec5	-0.0047510588
78	0xbcbd8e09	-0.023139017
79	0x3c4b9db7	0.012427739
80	0x3d287b85	0.041133422
81	0x3d3b6f61	0.045760516
82	0x3cba317c	0.022728674
83	0xbd15ec81	-0.0366025
84	0xbbbb7e9d	-0.0057218806
85	0xbcdca47a	-0.026933897
86	0xbc663d41	-0.01405269
87	0x3cc9a929	0.024616795
88	0xbd2a8787	-0.041633155
89	0xbc175b7d	-0.009238121
90	0xbc839938	-0.016064271
91	0x3be91a04	0.007113697
92	0xbc4fadb6	-0.012675693
93	0xbc30d097	-0.010791919
94	0xbc89adf4	-0.01680658
95	0x3da4a1fc	0.080387086
96	0x3bb61917	0.00555719
97	0xbc8bc073	-0.01705954
98	0x3c096f13	0.008388299
99	0xbd0fd4fe	-0.035115235
100	0x3d5e47a1	0.05426753
101	0xbc7f66ec	-0.015588503
102	0x3a5def1a	0.000846611
103	0x3c8384c5	0.01605452
104	0x3cfd2984	0.030903585
105	0x3ca0aed0	0.019614607
106	0x3c4f957b	0.012669916
107	0x3c88c911	0.016697438
108	0x3be16e99	0.0068796393
109	0xbb0f2dd5	-0.0021847386
110	0x3c1168be	0.00887507
111	0xbc5fb5c7	-0.013654179
112	0x3cce5244	0.025185712
113	0xbcf5f744	-0.030025132
114	0x3d5245c6	0.051336072
115	0xbb0cab89	-0.0021464548
116	0xbdb26706	-0.087110564
117	0xbc65f403	-0.014035228
118	0xbb3584e6	-0.0027697622
119	0x3ce49ad5	0.02790586
120	0xbd08e0d6	-0.033417545
121	0xbc1b0064	-0.009460542
122	0xbc4bf728	-0.012449063
123	0xbbd80c59	-0.006593269
124	0x3c790550	0.0151990205
125	0xbc55cfc8	-0.013050027
126	0x3c3eb216	0.011639139
127	0xbcbe5065	-0.023231694
128	0xbc576cbe	-0.013148485
129	0x3c9f5eaf	0.019454328
130	0x3be45ca6	0.0069690524
131	0x3d789a57	0.060694065
132	0xbc1e1700	-0.009649038
133	0x3cf81149	0.03028168
134	0xbce5dd2b	-0.028059563
135	0x3ba3de2e	0.005000851
136	0xbd27f141	-0.041001562
137	0x3d013641	0.03154588
138	0x3c9a37b2	0.018825386
139	0x3d7d8214	0.06189163
140	0xbb4665d4	-0.0030273097
141	0x3d5dc781	0.05414534
142	0x3d842baf	0.064536445
143	0xbd1b1369	-0.037860308
144	0xbd7592ad	-0.059954334
145	0xbd4d41d5	-0.05011161
146	0x3d202b46	0.03910377
147	0xbbc3f320	-0.0059799105
148	0x3d12b9dc	0.03582178
149	0x3ca00060	0.019531429
150	0xbb3ee351	-0.002912719
151	0xbcb82b7d	-0.022481674
152	0x3cff3f52	0.031158123
153	0x3d0b78c9	0.034050737
154	0x3d87bb74	0.06627551
155	0xbd5e91c9	-0.05433825
156	0xbc6c1ba4	-0.014410887
157	0xbc65709b	-0.014003898
158	0xbd193f68	-0.037413985
159	0x3d4fef34	0.05076523
160	0xbd11592e	-0.03548544
161	0x3c89e773	0.016833996
162	0x3c4c6b09	0.012476691
163	0xbc9aa8dc	-0.018879347
164	0x3b7341e7	0.0037118138
165	0xbc629a6d	-0.013830763
166	0x3d0c847b	0.03430603
167	0xbd2b2cea	-0.04179088
168	0x3c858934	0.016300775
169	0x3c655ef3	0.013999688
170	0xbc85a80f	-0.016315488
171	0xbc784e5f	-0.015155404
172	0xbd1fbfd6	-0.03900131
173	0x3cfa634e	0.03056493
174	0xbd3e13f9	-0.046405766
175	0xbd2bb06b	-0.041916292
176	0x3d1835a4	0.03716053
177	0xbce2b094	-0.02767209
178	0xbd0e2850	-0.034706414
179	0x3c8c0466	0.017091941
180	0xba84e434	-0.0010138811
181	0xbd2dde7a	-0.0424485
182	0xbc2ce199	-0.010551834
183	0xbc55b0b4	-0.013042618
184	0xbc750f1c	-0.014957216
185	0x3d0cd21c	0.034380063
186	0xbcb171de	-0.021660741
187	0x3c82b302	0.015954498
188	0x3d77073a	0.060309626
189	0x3d8c6821	0.068557985
190	0x3cff8221	0.03118998
191	0x3ccd89c9	0.025090115
192	0x3d5d0330	0.053958118
193	0xbd08ad10	-0.03336817
194	0x3bafe5eb	0.0053679845
195	0x3d01b9a1	0.03167117
196	0xbcc4ef34	-0.024039842
197	0x3bc06ed2	0.005872586
198	0xbc1196ba	-0.008886034
199	0xbd823220	-0.06357217
200	0xbd178f64	-0.037001982
201	0x3cc84c63	0.024450487
202	0xbcfbd408	-0.030740753
203	0x3d3bd964	0.045861617
204	0xbc6a1609	-0.01428748
205	0xbd8a63b1	-0.06757296
206	0xbd0a167e	-0.033712856
207	0x3d594349	0.053042684
208	0x3d0420bc	0.03225778
209	0x3c813bda	0.01577561
210	0xbd79af47	-0.060958173
211	0x3c8e7798	0.017391011
212	0xbca37558	-0.019953415
213	0xbd4daff9	-0.05021665
214	0x3bc57112	0.006025442
215	0x3cf85f25	0.030318806
216	0xbd8cd252	-0.06876053
217	0x3d0cb9b6	0.034356795
218	0xbd2526ce	-0.04032021
219	0xbaac8b5b	-0.001316409
220	0xbcdc0307	-0.026856912
221	0xbc663394	-0.014050383
222	0xbd4ae24a	-0.049532212
223	0x3ca5e654	0.02025143
224	0x3d52e635	0.051489074
225	0x3bf2978a	0.007403319
226	0x3b608d00	0.003426373
227	0xbb5cf67c	-0.0033716252
228	0x3d467761	0.048453692
229	0x3d36e80c	0.04465489
230	0xbd8c7570	-0.06858337
231	0xbce836c4	-0.028346427
232	0x3d0513a3	0.03248943
233	0xbd65ac16	-0.056072317
234	0xbc522d4d	-0.012828183
235	0xbda6c793	-0.081435345
236	0xbd9ac58c	-0.0755721
237	0x3c7bcb82	0.015368344
238	0xbd15769d	-0.03649007
239	0xbd4bec89	-0.049786124
240	0x3d521ffd	0.051300038
241	0xbc077b5f	-0.00826916
242	0xbd578ae3	-0.052622687
243	0xbd10e981	-0.035378937
244	0x3cd9cb24	0.026586123
245	0xbd055830	-0.032554805
246	0x3d499b3e	0.049220316
247	0x3c36f9fd	0.011168
248	0xbd198c27	-0.037487175
249	0xbd007fc3	-0.031371843
250	0xbcefa168	-0.02925177
251	0x3bc46e59	0.0059946
252	0x3cd70ad5	0.026250282
253	0xbd13bb50	-0.036067307
254	0xbd62e539	-0.055394385
255	0xbd30a5fe	-0.043127052

action_model._continuous_distribution.mu.bias f4 [2]
0	0xbcc1f36b	-0.023675641
1	0x3d2be513	0.04196651

exp_avg f4 [128, 36]
0	0xb83b831d	-4.4706383e-05
1	0x36ab9e93	5.1146576e-06
2	0xb85326b6	-5.0342373e-05
3	0xb8b92730	-8.828787e-05
4	0x388838c1	6.4955566e-05
5	0x35b5777f	1.3520329e-06
6	0xb914109a	-0.00014120564
7	0xb8ac8af8	-8.227484e-05
8	0x371419a7	8.82746e-06
9	0x37c53c27	2.351224e-05
10	0xb8dd3d10	-0.00010549475
11	0xb8b4394b	-8.5937405e-05
12	0xb974b709	-0.00023337839
13	0x392c9d28	0.00016461744
14	0xb6cfd84a	-6.19426e-06
15	0xb8d44beb	-0.000101230886
16	0xb94dc668	-0.00019624236
17	0x369439f4	4.4174903e-06
18	0x38f121ad	0.00011498048
19	0xb87b40e1	-5.9903487e-05
20	0xb8a742db	-7.975633e-05
21	0xb68626a2	-3.9980087e-06
22	0x36963146	4.4760845e-06
23	0xb8b3f6a6	-8.581327e-05
24	0xb7c38fa1	-2.3312694e-05
25	0x3768ec5c	1.3883309e-05
26	0xb88e3081	-6.780122e-05
27	0xb8b14599	-8.452981e-05
28	0xb8b5dddb	-8.6720764e-05
29	0x354eda76	7.705888e-07
30	0x36b8e0cd	5.5097976e-06
31	0xb90f7b90	-0.00013683573
32	0xb9193c8e	-0.00014613775
33	0x3683acf2	3.9242377e-06
34	0x388a0dda	6.582933e-05
35	0xb877d65f	-5.9089038e-05
36	0xb7205b22	-9.557962e-06
37	0x360b1407	2.0724272e-06
38	0xb74726fb	-1.18704e-05
39	0xb76ebbdc	-1.4229645e-05
40	0xb769b50c	-1.39300355e-05
41	0x36816641	3.8564035e-06
42	0xb7148b08	-8.853858e-06
43	0xb745f19a	-1.1798367e-05
44	0x36790e5b	3.7112247e-06
45	0xb3cb3066	-9.461728e-08
46	0xb7c0166f	-2.289863e-05
47	0xb7a4a6bd	-1.9627967e-05
48	0xb7fc7ce6	-3.0098901e-05
49	0x3742a3ad	1.160141e-05
50	0xb4e1653b	-4.198317e-07
51	0xb731c750	-1.0596428e-05
52	0xb7f7a486	-2.9521307e-05
53	0x349a5572	2.8746905e-07
54	0x372f1d75	1.0437671e-05
55	0xb78eb3bd	-1.7011416e-05
56	0xb797adf5	-1.8081608e-05
57	0xb58fa4d3	-1.07023e-06
58	0x3472688c	2.257604e-07
59	0xb7882955	-1.623171e-05
60	0x363229d2	2.654841e-06
61	0x378304c4	1.5618636e-05
62	0xb81b99b3	-3.7098023e-05
63	0xb7b18e41	-2.1166286e-05
64	0xb7a77476	-1.9962183e-05
65	0xb5adfb5a	-1.2962657e-06
66	0x361996ea	2.288662e-06
67	0xb7eb816c	-2.807445e-05
68	0xb6b06b31	-5.2576875e-06
69	0xb47e0034	-2.3655667e-07
70	0xb75e176e	-1.3237686e-05
71	0xb7970a91	-1.8005523e-05
72	0xb7462033	-1.1809217e-05
73	0x366f4b00	3.565743e-06
74	0xb7081624	-8.111387e-06
75	0xb7ac4f19	-2.054083e-05
76	0x37b01374	2.0989894e-05
77	0x360484a5	1.9746742e-06
78	0xb8206b54	-3.824693e-05
79	0xb7b8b9db	-2.2021055e-05
80	0x3594a543	1.1074957e-06
81	0x36f2ad52	7.232339e-06
82	0xb7b9367e	-2.2079093e-05
83	0xb78e6765	-1.6975866e-05
84	0xb8809f4a	-6.1331855e-05
85	0x384dc8d4	4.9062844e-05
86	0xb6356c74	-2.703423e-06
87	0xb7f43bd2	-2.9114923e-05
88	0xb842ec66	-4.6473368e-05
89	0x35338d62	6.6888435e-07
90	0x380157ad	3.083765e-05
91	0xb72459bb	-9.796054e-06
92	0xb783aafa	-1.5696034e-05
93	0xb5e752cd	-1.7234939e-06
94	0x3550e885	7.78244e-07
95	0xb7a93f69	-2.0175898e-05
96	0xb72504af	-9.835857e-06
97	0x35ed9450	1.7701041e-06
98	0xb6ea1eab	-6.9773137e-06
99	0xb7863b99	-1.6001797e-05
100	0xb79f4eb6	-1.899093e-05
101	0x340dde36	1.3212488e-07
102	0x35fbf62d	1.8772604e-06
103	0xb803449a	-3.1296724e-05
104	0xb8336398	-4.276968e-05
105	0x355651bf	7.984017e-07
106	0x37e50e45	2.7305572e-05
107	0xb71ed48f	-9.467024e-06
108	0x37c06162	2.2933531e-05
109	0xb4edccd6	-4.4293728e-07
110	0x371fa0b6	9.514557e-06
111	0x37d5d014	2.5488473e-05
112	0x37c86f30	2.3893634e-05
113	0xb642b083	-2.9010996e-06
114	0x372dffb3	1.0371138e-05
115	0x37b7b88e	2.190124e-05
116	0x370e9ad5	8.499909e-06
117	0xb52818c0	-6.2620893e-07
118	0x37c6225a	2.3619436e-05
119	0x38040867	3.1479078e-05
120	0x3814c0d4	3.5465535e-05
121	0xb6a3fbd2	-4.8870943e-06
122	0x3566dd5c	8.6003797e-07
123	0x37913133	1.7308257e-05
124	0x37e663e1	2.7464646e-05
125	0xb5207a15	-5.97823e-07
126	0x3695dab7	4.466008e-06
127	0x37f957dd	2.9724028e-05
128	0x38051314	3.172744e-05
129	0x33b874ae	8.5893916e-08
130	0xb5063067	-4.9989325e-07
131	0x37a6fc74	1.99063e-05
132	0xb6a9e6b3	-5.0634494e-06
133	0xb6c5d439	-5.8957635e-06
134	0x38318ee6	4.2333173e-05
135	0x3807972a	3.232729e-05
136	0x380c76b5	3.3489156e-05
137	0x3484c8f4	2.473313e-07
138	0xb61ded94	-2.3533112e-06
139	0x37eec2dd	2.8462551e-05
140	0x36714fb3	3.595819e-06
141	0xb44edb8f	-1.926512e-07
142	0x37eae448	2.8001275e-05
143	0x3802305d	3.1039457e-05
144	0xb7baeff3	-2.2284663e-05
145	0x36301746	2.623959e-06
146	0xb7bf3ca5	-2.2797214e-05
147	0xb82a5346	-4.0608713e-05
148	0xb781457b	-1.5410353e-05
149	0x36de08ce	6.6171406e-06
150	0xb80b54f4	-3.32193e-05
151	0xb8152182	-3.5555575e-05
152	0xb7068e1e	-8.020112e-06
153	0x35854cc3	9.931613e-07
154	0xb81303dc	-3.5051125e-05
155	0xb834e51c	-4.312872e-05
156	0xb88a93e5	-6.6079e-05
157	0x37d50e66	2.5398283e-05
158	0xb5c26e45	-1.4486219e-06
159	0xb7fc3798	-3.0066629e-05
160	0xb8887a32	-6.507746e-05
161	0x357115c4	8.981117e-07
162	0x37ba8372	2.2234137e-05
163	0xb81db55b	-3.7600617e-05
164	0xb833c144	-4.285692e-05
165	0xb28e6ab2	-1.6579495e-08
166	0x3532eee0	6.6657776e-07
167	0xb80cf3e7	-3.3605753e-05
168	0x36f9cdb0	7.4447235e-06
169	0x370092a1	7.663534e-06
170	0xb86fb91e	-5.7154444e-05
171	0xb83681e7	-4.3513162e-05
172	0xb8423cdb	-4.630988e-05
173	0xb4c81d34	-3.727415e-07
174	0x368c3afe	4.1791927e-06
175	0xb85546bb	-5.084903e-05
176	0xb7f668ce	-2.9374289e-05
177	0x34c4d966	3.6666023e-07
178	0xb7584481	-1.2890553e-05
179	0xb8250623	-3.934478e-05
180	0x36a92aa6	5.0415574e-06
181	0xb713e2df	-8.814705e-06
182	0x36a63d84	4.954347e-06
183	0x379d646e	1.8762625e-05
184	0xb86a8d2c	-5.5921424e-05
185	0xb6bdab01	-5.6525464e-06
186	0x387a166a	5.962552e-05
187	0x37b9d506	2.2152915e-05
188	0xb7a3cce8	-1.9526531e-05
189	0xb7446ce3	-1.17078625e-05
190	0x37e06175	2.6748263e-05
191	0x367628cb	3.6680601e-06
192	0x38c9bc3a	9.619487e-05
193	0xb8d4fb6c	-0.00010155779
194	0x363e20ee	2.8331374e-06
195	0x382f64aa	4.1817002e-05
196	0x386c910c	5.640187e-05
197	0x35c17bfe	1.4415707e-06
198	0xb877b469	-5.905741e-05
199	0xb705e1e7	-7.980015e-06
200	0x36907f7f	4.306377e-06
201	0xb525add5	-6.172025e-07
202	0xb61671e9	-2.2418046e-06
203	0x376c37f6	1.4079726e-05
204	0x37a65f36	1.9833078e-05
205	0x3792b5d7	1.7489232e-05
206	0xb8214b63	-3.84556e-05
207	0x33d0b08a	9.717867e-08
208	0x37110be4	8.645442e-06
209	0xb63366d1	-2.6732926e-06
210	0xb66a67d5	-3.4929155e-06
211	0x37caae8a	2.4161553e-05
212	0x389e3440	7.5437594e-05
213	0xb6089fbe	-2.0358561e-06
214	0xb89deb9b	-7.530228e-05
215	0xb71c657a	-9.321951e-06
216	0x38bbb4c4	8.950525e-05
217	0xb6ce3cbb	-6.1463484e-06
218	0x380bdfa1	3.3348453e-05
219	0x38d1991c	9.9944154e-05
220	0x3886a2f9	6.419974e-05
221	0xb73462b6	-1.0751819e-05
222	0x3882067a	6.2000894e-05
223	0x38b3f0aa	8.580212e-05
224	0x34866293	2.5031167e-07
225	0xb6823957	-3.880977e-06
226	0x38f8de19	0.000118669304
227	0x38f8f611	0.00011871395
228	0x3940a033	0.00018370226
229	0xb8997f0b	-7.319272e-05
230	0x369f6591	4.750393e-06
231	0x38b01c83	8.397645e-05
232	0x390fe5b0	0.00013723108
233	0xb5c06c3c	-1.4336615e-06
234	0xb7ac2b5f	-2.0524194e-05
235	0x38de76c9	0.000106079104
236	0x38f87a9f	0.000118484015
237	0x353d9cd9	7.063623e-07
238	0xb64f41d7	-3.0883728e-06
239	0x38b30ed0	8.538144e-05
240	0xb695fa77	-4.469704e-06
241	0xb7b758dd	-2.185668e-05
242	0x3914d8ef	0.00014195194
243	0x38fc22a6	0.0001202275
244	0x390253cf	0.00012428987
245	0x356b949e	8.776059e-07
246	0xb70eb5f1	-8.506221e-06
247	0x390555ce	0.00012715833
248	0x38797218	5.9472484e-05
249	0xb5c4b1b4	-1.4654856e-06
250	0x386fbe8b	5.7159497e-05
251	0x38e4fbc4	0.00010918782
252	0x36ff4d12	7.6085644e-06
253	0xb6528cae	-3.1374325e-06
254	0x37f05f84	2.8654707e-05
255	0x381c7550	3.7302554e-05

exp_avg_sq f4 [128, 36]
0	0x344d753e	1.9134765e-07
1	0x316116fc	3.2754874e-09
2	0x318b22af	4.0493755e-09
3	0x3390cfbe	6.7433106e-08
4	0x34471097	1.8539355e-07
5	0x312149b9	2.347049e-09
6	0x326db1ab	1.3835613e-08
7	0x33982f23	7.086626e-08
8	0x344469d6	1.8292425e-07
9	0x31add8ce	5.0596105e-09
10	0x320f0094	8.323827e-09
11	0x33a44d72	7.650932e-08
12	0x3446249e	1.8453508e-07
13	0x319b34a2	4.5170774e-09
14	0x325d2c43	1.2873957e-08
15	0x339a7331	7.192137e-08
16	0x34291207	1.574591e-07
17	0x31a72b76	4.8652806e-09
18	0x33200455	3.7256843e-08
19	0x33e0476f	1.04438065e-07
20	0x3444bc17	1.8322349e-07
21	0x30a9e4cc	1.2361396e-09
22	0x3290bdb2	1.685007e-08
23	0x33ae6f8f	8.122799e-08
24	0x33fa2bcb	1.1649498e-07
25	0x31ed37f1	6.9039676e-09
26	0x33aa2ebe	7.924744e-08
27	0x34059111	1.2439365e-07
28	0x341e7f00	1.4761099e-07
29	0x320df88e	8.263795e-09
30	0x3349209b	4.6828614e-08
31	0x33d4fea1	9.918336e-08
32	0x33e36976	1.05896945e-07
33	0x31ba8a9d	5.429071e-09
34	0x33cbfdbf	9.49908e-08
35	0x3410b111	1.3475461e-07
36	0x321738c3	8.802263e-09
37	0x3040b2f9	7.010353e-10
38	0x319d7228	4.5822794e-09
39	0x3224e7b4	9.59874e-09
40	0x323265eb	1.0384137e-08
41	0x30236248	5.943872e-10
42	0x31630d08	3.3040255e-09
43	0x320eb498	8.30655e-09
44	0x31f8c786	7.240433e-09
45	0x2f524cd3	1.9126682e-10
46	0x31ecc62d	6.891034e-09
47	0x323fbf3e	1.1161147e-08
48	0x32533b79	1.2295339e-08
49	0x2fd64507	3.897542e-10
50	0x30e7d90f	1.6869154e-09
51	0x31f4cabc	7.124383e-09
52	0x31932fc5	4.283694e-09
53	0x2f431754	1.7743434e-10
54	0x3228ede5	9.832978e-09
55	0x3253b030	1.2321877e-08
56	0x324acdf5	1.1804777e-08
57	0x2ed0f124	9.50158e-11
58	0x3121115b	2.343845e-09
59	0x31dd90cc	6.448408e-09
60	0x315a869a	3.1799687e-09
61	0x2fc4dd62	3.5809494e-10
62	0x32391a08	1.0774336e-08
63	0x32535831	1.2301869e-08
64	0x324e1b82	1.1997033e-08
65	0x2fb6e0b0	3.3265257e-10
66	0x31080158	1.9791369e-09
67	0x31c98b84	5.865731e-09
68	0x317e8983	3.704003e-09
69	0x300f3570	5.2099036e-10
70	0x322ba950	9.992007e-09
71	0x324afde5	1.1815676e-08
72	0x32a2e64f	1.8964014e-08
73	0x3014ad91	5.408874e-10
74	0x305a5426	7.942752e-10
75	0x32015bba	7.5296445e-09
76	0x329684ab	1.7522629e-08
77	0x303e9e32	6.9346406e-10
78	0x313b4ec0	2.7256846e-09
79	0x3211c7c2	8.4855305e-09
80	0x3298495b	1.7728487e-08
81	0x307ede99	9.272099e-10
82	0x30c765af	1.4508056e-09
83	0x32058c4a	7.773517e-09
84	0x328a8d24	1.6129498e-08
85	0x301d6899	5.726491e-10
86	0x318d710d	4.1164925e-09
87	0x3227bbfa	9.76342e-09
88	0x3283878d	1.5312049e-08
89	0x3048c764	7.304293e-10
90	0x319af314	4.5096247e-09
91	0x322d1aca	1.00760165e-08
92	0x32844d7f	1.5402064e-08
93	0x2f8fc46d	2.6151117e-10
94	0x31a25901	4.724939e-09
95	0x32363047	1.0604771e-08
96	0x3262c880	1.320052e-08
97	0x3087580d	9.847568e-10
98	0x31e745d0	6.7309216e-09
99	0x323e61f9	1.1081732e-08
100	0x3252c5fa	1.22686235e-08
101	0x308b3833	1.0129554e-09
102	0x31ef1df0	6.959219e-09
103	0x32496672	1.1723033e-08
104	0x3263ae2e	1.3252743e-08
105	0x2fc4f104	3.5823444e-10
106	0x31ff41b9	7.4289486e-09
107	0x324c2700	1.188323e-08
108	0x321d8574	9.1689465e-09
109	0x2f809caa	2.339438e-10
110	0x30afdb32	1.2795225e-09
111	0x319a62b1	4.49321e-09
112	0x321b86dc	9.052851e-09
113	0x2f94696f	2.6995958e-10
114	0x30aee2d7	1.2724638e-09
115	0x319d5b53	4.5796837e-09
116	0x32182380	8.855636e-09
117	0x2f90f8f8	2.637035e-10
118	0x30d67085	1.5602529e-09
119	0x31a465b6	4.7845914e-09
120	0x32245bff	9.566974e-09
121	0x2fbd7380	3.4460967e-10
122	0x308dc5ec	1.0315353e-09
123	0x31a46255	4.7842073e-09
124	0x32135f27	8.578161e-09
125	0x2f593853	1.9756045e-10
126	0x310ebbe7	2.077053e-09
127	0x31c20277	5.6464233e-09
128	0x320b2f5a	8.101631e-09
129	0x2eeae6ef	1.068211e-10
130	0x313c9298	2.744093e-09
131	0x31c0d293	5.611875e-09
132	0x31e2ee25	6.6045396e-09
133	0x2fa5cd4a	3.0159192e-10
134	0x31834aed	3.82112e-09
135	0x31da04ba	6.3451724e-09
136	0x3201580c	7.528808e-09
137	0x2ff547b5	4.461619e-10
138	0x3151ef95	3.054969e-09
139	0x31d15201	6.0920233e-09
140	0x31df3e31	6.4972245e-09
141	0x2f06e4d0	1.226852e-10
142	0x318ee7b9	4.1590877e-09
143	0x31e8139d	6.7543184e-09
144	0x32d58f23	2.4861555e-08
145	0x305a765c	7.9476137e-10
146	0x321a7694	8.990941e-09
147	0x32bcc8c1	2.1977373e-08
148	0x32ce98f0	2.4051104e-08
149	0x30aa48c0	1.2389805e-09
150	0x32159e24	8.7088985e-09
151	0x32b151d6	2.0642727e-08
152	0x32cc53c5	2.378682e-08
153	0x30eaf272	1.7094648e-09
154	0x321ed735	9.245743e-09
155	0x32c46191	2.2861771e-08
156	0x32f11583	2.8065875e-08
157	0x308bf9b2	1.0184549e-09
158	0x31dfd3d1	6.514235e-09
159	0x32a50ce1	1.9214385e-08
160	0x32a83d29	1.9585586e-08
161	0x30a7ea92	1.2217518e-09
162	0x327343f1	1.415991e-08
163	0x32e528d7	2.667768e-08
164	0x32e960e0	2.7168824e-08
165	0x2f578ce5	1.9604192e-10
166	0x32094a66	7.991366e-09
167	0x32988756	1.7756673e-08
168	0x321e42d6	9.212007e-09
169	0x30289038	6.132299e-10
170	0x32d50967	2.480074e-08
171	0x32f80359	2.8872522e-08
172	0x32ebb7fb	2.7441265e-08
173	0x302f08b7	6.3677014e-10
174	0x31f83676	7.2239414e-09
175	0x328f402e	1.6676577e-08
176	0x327fe09e	1.4894026e-08
177	0x30858c79	9.716948e-10
178	0x32a056cf	1.8665927e-08
179	0x32e9300d	2.7146621e-08
180	0x34430a65	1.8164572e-07
181	0x31e7b774	6.743841e-09
182	0x3358a238	5.0438956e-08
183	0x341539ff	1.3897805e-07
184	0x3444407c	1.8277382e-07
185	0x31c0c659	5.610485e-09
186	0x33617d3a	5.2500788e-08
187	0x3416220b	1.3982223e-07
188	0x34253761	1.5386969e-07
189	0x3224e4ca	9.598077e-09
190	0x33a1febe	7.543484e-08
191	0x341a89d4	1.4392509e-07
192	0x3440f030	1.7968773e-07
193	0x31f8ee2a	7.244826e-09
194	0x3357acb4	5.021566e-08
195	0x34180574	1.4158087e-07
196	0x340a2abc	1.2867798e-07
197	0x32221dc7	9.436412e-09
198	0x33d94eb6	1.01191674e-07
199	0x3426635e	1.5496104e-07
200	0x342f0e5a	1.6303366e-07
201	0x316c3c69	3.437686e-09
202	0x33977f07	7.0545916e-08
203	0x341569b5	1.3915162e-07
204	0x33f58698	1.1433184e-07
205	0x31a1fe42	4.7146225e-09
206	0x34019415	1.2067933e-07
207	0x342d7bdc	1.615694e-07
208	0x34239348	1.5234139e-07
209	0x31fe2ca9	7.39745e-09
210	0x33a6e0cc	7.770868e-08
211	0x34121ae3	1.3607091e-07
212	0x340bc4ff	1.301705e-07
213	0x31b148f1	5.1596705e-09
214	0x33dcc9b7	1.028124e-07
215	0x342926ed	1.5753513e-07
216	0x33142d6c	3.4500246e-08
217	0x30624cbe	8.232738e-10
218	0x318efd24	4.1615227e-09
219	0x32a7edf0	1.954956e-08
220	0x33081bbc	3.1690192e-08
221	0x30af8cb7	1.2772919e-09
222	0x31b875d3	5.3685e-09
223	0x329a508c	1.7964588e-08
224	0x32e7ff01	2.7007902e-08
225	0x30b75be2	1.3341117e-09
226	0x32363e86	1.06080105e-08
227	0x32c532ad	2.2956863e-08
228	0x330d1f68	3.2857685e-08
229	0x31304ae1	2.5653935e-09
230	0x31a621cc	4.835078e-09
231	0x3294ce09	1.7323162e-08
232	0x32d96713	2.5308998e-08
233	0x31194d2f	2.2308304e-09
234	0x3242f56a	1.1348087e-08
235	0x32d95ac5	2.5303402e-08
236	0x33069ca7	3.134178e-08
237	0x2fb19d17	3.2307731e-10
238	0x320c6c6c	8.173725e-09
239	0x32a4f251	1.9202306e-08
240	0x3285df45	1.5584769e-08
241	0x301ba177	5.6618127e-10
242	0x32c14355	2.2498776e-08
243	0x32f62b01	2.8657725e-08
244	0x32fec26e	2.9657908e-08
245	0x308cbd2b	1.0240105e-09
246	0x323130b0	1.0313826e-08
247	0x32b548a4	2.1104206e-08
248	0x329bb98c	1.8128752e-08
249	0x30510eeb	7.6054957e-10
250	0x32ac6ecf	2.0073825e-08
251	0x32f2c5e2	2.8262495e-08
252	0x33039853	3.0639352e-08
253	0x2fc5765a	3.5918185e-10
254	0x31a24e38	4.723713e-09
255	0x3294e5a8	1.7333903e-08

exp_avg f4 [128]
0	0xb89f63dc	-7.600311e-05
1	0xb79ed261	-1.8933033e-05
2	0xb77fe671	-1.5252838e-05
3	0x38042801	3.150851e-05
4	0xb831d4f3	-4.2398413e-05
5	0xb5cbfbb7	-1.5197937e-06
6	0x38f2c0df	0.00011575384
7	0x37eb6ef5	2.8065851e-05
8	0xb806d283	-3.2144144e-05
9	0xb865fc1b	-5.4832646e-05
10	0x38225f53	3.8712587e-05
11	0x383b68ab	4.4681754e-05
12	0x388087a9	6.128784e-05
13	0xb8177dce	-3.611837e-05
14	0xb85a4fbe	-5.2049516e-05
15	0xb60dbf04	-2.1121823e-06
16	0x374759a4	1.1882195e-05
17	0x3906c7b9	0.00012853638
18	0x38862452	6.396383e-05
19	0x3953a2d4	0.00020183186
20	0xb77f84d9	-1.5230115e-05
21	0x38403f8e	4.5835557e-05
22	0x3972800a	0.00023126617
23	0x3741c5e0	1.1549768e-05
24	0x38af8767	8.369871e-05
25	0xb7bc9a82	-2.2483295e-05
26	0x391ce83f	0.00014963838
27	0x3800caa5	3.0706306e-05
28	0xb7ee96c6	-2.844202e-05
29	0xb827ff58	-4.005371e-05
30	0xb842813a	-4.6373556e-05
31	0x35571f26	8.013907e-07
32	0x37e2cc6d	2.7036493e-05
33	0xb7f9f019	-2.9794917e-05
34	0x38ecd3c6	0.00011292803
35	0x38b31960	8.5401116e-05
36	0x36e2dc28	6.7609544e-06
37	0x3956c94b	0.00020483618
38	0xb819e181	-3.668806e-05
39	0xb82d8fbc	-4.1380277e-05
40	0x39180c3a	0.00014500404
41	0xb826a1ae	-3.972806e-05
42	0x396aafb8	0.0002238144
43	0x39103171	0.00013751329
44	0x388c809c	6.6996756e-05
45	0x38edc040	0.0001133685
46	0xb83117c2	-4.2222215e-05
47	0x38c5c112	9.429654e-05
48	0xb757293a	-1.2824597e-05
49	0x373d4650	1.1281649e-05
50	0x39556bf3	0.00020353477
51	0xb7fc44f4	-3.007285e-05
52	0x3899af31	7.3282405e-05
53	0x38410e93	4.602836e-05
54	0xb77f0f67	-1.5202771e-05
55	0x36d52a32	6.352807e-06
56	0x380daaef	3.3776214e-05
57	0x391c2432	0.00014890803
58	0x379c17b3	1.8607685e-05
59	0xb69eaa60	-4.728601e-06
60	0x38dd5c76	0.000105553234
61	0xb8025fb0	-3.108353e-05
62	0x378e9e60	1.7001468e-05
63	0x3880ef1e	6.148055e-05
64	0xb820d39e	-3.8344057e-05
65	0xb7774d25	-1.4740309e-05
66	0x378cd0aa	1.6786467e-05
67	0x37b3aeb7	2.141982e-05
68	0x38f08ed9	0.00011470699
69	0xb811d87d	-3.4772314e-05
70	0x3874cfe6	5.8367754e-05
71	0xb8a83fab	-8.022723e-05
72	0x38585e48	5.158622e-05
73	0x37ff0ff8	3.0405805e-05
74	0x3724feba	9.83447e-06
75	0x38555c6e	5.086924e-05
76	0xb624cd12	-2.455727e-06
77	0x38c2d234	9.289794e-05
78	0xb82b8e34	-4.0902014e-05
79	0x3927e8b5	0.00016013051
80	0x38c41e7a	9.351685e-05
81	0x3839b915	4.427981e-05
82	0x398344af	0.0002503744
83	0x38c14d6f	9.21738e-05
84	0xb88b65f5	-6.6470275e-05
85	0x39322db9	0.00016992436
86	0xb6443d8d	-2.9242103e-06
87	0xb80a26fa	-3.2938064e-05
88	0xb78cfa1f	-1.6805772e-05
89	0x37e2dc63	2.7043925e-05
90	0xb76be59c	-1.4060552e-05
91	0xb84d640e	-4.8968992e-05
92	0x39910904	0.00027663272
93	0x38ea50a1	0.00011173008
94	0xb8670daa	-5.5087417e-05
95	0x38d052a2	9.9336045e-05
96	0x3772dc22	1.4475578e-05
97	0x38c46ffa	9.3668656e-05
98	0x396717f9	0.00022038807
99	0x370f88e3	8.555336e-06
100	0x38c12251	9.209349e-05
101	0x39563847	0.00020429595
102	0xb736df51	-1.090004e-05
103	0x37903491	1.7190616e-05
104	0x3952f725	0.00020119229
105	0x39112db9	0.0001384531
106	0x38dde20d	0.000105802064
107	0xb83d6c36	-4.516189e-05
108	0x38b89093	8.800733e-05
109	0x38d267e4	0.000100329315
110	0xb7154418	-8.896946e-06
111	0x384f8fb7	4.948649e-05
112	0xb6346c9a	-2.6885305e-06
113	0x382233b1	3.867195e-05
114	0xb849a8af	-4.8079233e-05
115	0x38383592	4.391891e-05
116	0x3681756e	3.85817e-06
117	0x35f6860a	1.8367439e-06
118	0x38cdc399	9.811595e-05
119	0xb8989a6f	-7.27669e-05
120	0x388b16c7	6.632279e-05
121	0x376234fb	1.3482985e-05
122	0xb747b83f	-1.1904222e-05
123	0xb7c46c75	-2.3415525e-05
124	0xb7802a55	-1.5278501e-05
125	0x38dee635	0.00010628664
126	0xb5db3f4a	-1.6335191e-06
127	0xb85b02c4	-5.2216245e-05

exp_avg_sq f4 [128]
0	0x3455909d	1.9889781e-07
1	0x3274a695	1.4240546e-08
2	0x32ae7536	2.0309567e-08
3	0x323a49fa	1.0843445e-08
4	0x33154eab	3.4763314e-08
5	0x347fa811	2.3809868e-07
6	0x332b5a18	3.989598e-08
7	0x3315628e	3.47814e-08
8	0x330b048b	3.236759e-08
9	0x344b8c86	1.895697e-07
10	0x333556d1	4.2221306e-08
11	0x341586da	1.3925765e-07
12	0x343cae1c	1.7572205e-07
13	0x32875abe	1.5757333e-08
14	0x3394d2d7	6.9301386e-08
15	0x3447cdc0	1.860817e-07
16	0x33ef35cd	1.1139091e-07
17	0x3484388c	2.462806e-07
18	0x33086f38	3.176612e-08
19	0x34c222c2	3.6160606e-07
20	0x315a5dd0	3.1776501e-09
21	0x341aaabc	1.440448e-07
22	0x349e5084	2.9488376e-07
23	0x3210173c	8.387186e-09
24	0x32a5043d	1.9210455e-08
25	0x3464fe89	2.1326754e-07
26	0x34b0a3b3	3.2901661e-07
27	0x33c46a45	9.1462915e-08
28	0x33a098b7	7.478359e-08
29	0x3363b395	5.3015885e-08
30	0x33c0a4cf	8.970675e-08
31	0x32940a88	1.7234257e-08
32	0x32e0ce3f	2.6170822e-08
33	0x31d7973f	6.2745182e-09
34	0x34c311fc	3.6334666e-07
35	0x35babfa6	1.3913857e-06
36	0x32c1a41f	2.254279e-08
37	0x34350cff	1.6861667e-07
38	0x3226dfb5	9.713337e-09
39	0x3236e552	1.0645936e-08
40	0x34475168	1.8562935e-07
41	0x349c18a0	2.907518e-07
42	0x34b6ad56	3.402626e-07
43	0x34d0e660	3.891064e-07
44	0x33b10e56	8.2448125e-08
45	0x32b3d059	2.0933088e-08
46	0x3392975c	6.826187e-08
47	0x341838f8	1.4176828e-07
48	0x32942f97	1.7251109e-08
49	0x3290066b	1.6766725e-08
50	0x34a52d8a	3.076678e-07
51	0x3283d371	1.534656e-08
52	0x3495ee61	2.7926856e-07
53	0x32b93eda	2.1565416e-08
54	0x32748bad	1.4234428e-08
55	0x335d2dc7	5.1497206e-08
56	0x337b8062	5.8557255e-08
57	0x34f98bfd	4.648172e-07
58	0x350ae2e2	5.1739164e-07
59	0x32eba3be	2.7432062e-08
60	0x333737bd	4.26587e-08
61	0x337c78eb	5.8783296e-08
62	0x34372a0b	1.7058498e-07
63	0x32c9bcfe	2.3485423e-08
64	0x33636196	5.294131e-08
65	0x33c49cf8	9.155514e-08
66	0x32ce1b7e	2.3994058e-08
67	0x3347de0b	4.6535245e-08
68	0x33d9796f	1.01269386e-07
69	0x3416d4ba	1.4047228e-07
70	0x351d265f	5.8542895e-07
71	0x3316400b	3.4982843e-08
72	0x3428ecb0	1.5732326e-07
73	0x334d65e9	4.782297e-08
74	0x31e14e54	6.5572667e-09
75	0x33a2a22b	7.573211e-08
76	0x334be588	4.7473378e-08
77	0x331439e2	3.451158e-08
78	0x33730742	5.6584447e-08
79	0x3488c456	2.5474827e-07
80	0x345afcfb	2.0394866e-07
81	0x333cd571	4.3966285e-08
82	0x34e3a485	4.240175e-07
83	0x330db717	3.299564e-08
84	0x33577bb3	5.0171092e-08
85	0x340373bc	1.224243e-07
86	0x33d0176e	9.6900166e-08
87	0x339f8e2a	7.429874e-08
88	0x31c07e90	5.602324e-09
89	0x3399c02a	7.159572e-08
90	0x3353f752	4.9352202e-08
91	0x3334b071	4.206999e-08
92	0x350c3d9e	5.224373e-07
93	0x34dea4b2	4.1470554e-07
94	0x341ec102	1.4785113e-07
95	0x33b2b2e9	8.3213145e-08
96	0x3177abb0	3.6040824e-09
97	0x33e56d62	1.068354e-07
98	0x35215b63	6.011016e-07
99	0x328ec1ab	1.6619046e-08
100	0x334c81e3	4.7615583e-08
101	0x341af686	1.4432052e-07
102	0x33af2294	8.155362e-08
103	0x32915520	1.6918932e-08
104	0x34d8bc73	4.037025e-07
105	0x33fc77f1	1.1756482e-07
106	0x337b76b2	5.8548444e-08
107	0x33cb1a6b	9.4577295e-08
108	0x340c1ba4	1.3048572e-07
109	0x34426f6a	1.810819e-07
110	0x32583564	1.2584994e-08
111	0x332d1e94	4.0307512e-08
112	0x33423e99	4.5226077e-08
113	0x3406b22b	1.254454e-07
114	0x3474be09	2.2793405e-07
115	0x32dd2bf4	2.5747774e-08
116	0x33ee6b1f	1.1102224e-07
117	0x32f1cba5	2.81487e-08
118	0x3418fa5a	1.424718e-07
119	0x34a2c6ef	3.0319595e-07
120	0x329a82d7	1.7987459e-08
121	0x321bcc6c	9.068668e-09
122	0x32042ae9	7.693168e-09
123	0x332dfaff	4.050798e-08
124	0x3461095d	2.0958164e-07
125	0x34217843	1.5038044e-07
126	0x31c4a3df	5.7229808e-09
127	0x32ddb06d	2.5808015e-08
