results/randomPositionRewardForApproach/CarFindGoal/CarFindGoal-3499971.pt (torch, 530875 bytes, 36 tensors)

network_body._body_endoder.seq_layers.0.weight f4 [128, 36]
000000 dc ac f5 3d b6 91 a7 bd da 05 2a be fc 3a 68 bd
       0.11995861 -0.08182089 -0.16603795 -0.056696877
000010 83 b9 ab 3d 30 46 20 be 1e 7d 23 3e 18 1c 3e bd
       0.08384993 -0.15651774 0.15965697 -0.04641351
000020 e1 00 3b 3e 0a 24 99 bd 8e 3b 47 be 8c 3e 4f 3c
       0.18262054 -0.07477577 -0.19456312 0.01264919
000030 3e b0 4a bd f7 39 26 be e9 60 1c 3e 6d 12 78 bc
       -0.049484484 -0.1623305 0.15271343 -0.015141112
000040 b8 54 cc 3a 28 10 fb 3c bd 3e e4 bc fc b7 4d 3e
       0.0015589213 0.030647352 -0.027861947 0.20089716
000050 50 c7 a2 3e 8d dc b0 bd 8c 89 5a be 84 55 e5 3d
       0.31792688 -0.08635817 -0.21341532 0.111979514
000060 dd 7c c4 bd 62 05 17 3e a4 e5 45 be 0d 52 cd bd
       -0.09594128 0.14748147 -0.19325882 -0.100254156
000070 87 4b e3 bd 4f b3 16 bc 69 f3 96 bd a5 b6 ab 3d
       -0.1109839 -0.009198024 -0.073706456 0.08384446
000080 64 e4 3e be 75 37 45 3c c6 38 8f 3c c0 b6 35 be
       -0.18641812 0.012037148 0.017483126 -0.17745495
000090 d9 a7 5d be 73 55 9c bc 1e 3e 98 bd 7b 9f 83 be
       -0.2164606 -0.019083714 -0.07433723 -0.2570761
0000a0 07 5a 5f be 85 67 e5 3d 92 87 ae 3d f1 f9 b5 bd
       -0.21811686 0.112013854 0.08521952 -0.08885563
0000b0 49 c8 84 3d 5f 75 8e be 6b 14 52 3d 6b f6 28 3e
       0.06483514 -0.27823922 0.051289003 0.16500251
0000c0 10 33 69 3e 1b 4e 25 3d d4 49 a4 3c 45 88 0d 3c
       0.22773385 0.04035769 0.020054735 0.008638446
0000d0 7c 46 7e bc 38 28 98 bd 01 de ad 3e ca a3 c8 bc
       -0.0155197345 -0.07429546 0.33958438 -0.024492163
0000e0 c0 b7 a5 bd 49 6c 24 be d0 a1 88 bd 6a 27 7b 3d
       -0.08091688 -0.16056933 -0.06671488 0.061316885
0000f0 f0 0c ca 3c 89 0d fe bb 1b fe 1f 3d 09 45 7b 3c
       0.024664372 -0.0077530784 0.039060693 0.0153362835
000100 73 9d bb 3d f3 b2 3a bc fd fb 3a 3e 95 96 e9 bd
       0.091608904 -0.011395204 0.18260188 -0.11405674
000110 4e 07 1c be 19 fb 26 3e 84 31 83 3e b5 cb 84 be
       -0.15237162 0.16306724 0.25623715 -0.25936666
000120 a5 32 48 3e 54 3b 4a 3d cf 64 64 be 08 de 5b bd
       0.1955057 0.049372986 -0.2230408 -0.053678542
000130 6f 19 5d 3e 2f a1 24 3e 85 bc a2 3e 72 85 be bd
       0.21591733 0.16077112 0.31784454 -0.093027964
000140 00 05 ed bb e0 1c 6a bc ca 7f 19 be 5b 42 3f be
       -0.007233262 -0.014289111 -0.14990154 -0.18677656
000150 4c 67 92 bd bb ad d1 bd 9d 20 9e 3e 9b 74 44 bc
       -0.071486086 -0.102382146 0.30884257 -0.011990692
000160 b6 90 c1 be 3e 89 6b 3e d5 47 0f be 56 e5 29 3e
       -0.37805718 0.23001572 -0.13992245 0.16591391
000170 90 60 5a 3e 66 c7 bd 3d b2 b8 05 3d 8b d4 e8 3d
       0.21325898 0.09266548 0.032646842 0.11368664
000180 ab 91 44 bc 0c 0d be 3e d6 a4 c4 bd b8 7e e5 bc
       -0.011997621 0.3711933 -0.096017525 -0.028014526
000190 1a 6b ae 3c e8 5a 44 bd 26 6b 87 bd 92 03 a1 bd
       0.021291304 -0.047938257 -0.06612234 -0.07862009
0001a0 99 28 df 3d 87 5d 00 be 0c 88 15 3c 65 f8 b8 ba
       0.10896415 -0.12535678 0.009126674 -0.0014112113
0001b0 c3 99 25 be 00 3f f2 bd 22 3d 07 3e 3f b8 58 bd
       -0.16171937 -0.118284225 0.13206914 -0.052910086
0001c0 a4 31 12 be 5a b3 30 bd 28 13 f3 bd f4 b7 ba 3c
       -0.14276749 -0.043139793 -0.11868888 0.022792794
0001d0 6b 7d 5b 3e 0b 06 8d 3b cd f7 2a 3e 95 ce 9d bd
       0.21434562 0.004303699 0.16696091 -0.07705418
0001e0 ca 26 a8 3e 1d b1 51 bd 46 1b a9 3d 3c 1d 9b be
       0.32842094 -0.0511943 0.08257155 -0.30295742
0001f0 05 e0 28 be e6 bd 96 bd 44 8a ba bd b0 f3 8f 3e
       -0.16491707 -0.07360439 -0.09108403 0.28115606
000200 69 c3 49 be 38 e2 05 3c b8 cd e9 bc 69 24 f3 3d
       -0.1970345 0.0081716105 -0.028540477 0.11872179
000210 2e 29 9b bd 1d 64 02 be a7 a6 ac be b7 8a d2 3c
       -0.07576214 -0.12733503 -0.33720896 0.02570091
000220 50 d3 fd 3d 49 e5 1d 3e e6 21 88 bd 89 93 9d bc
       0.1239382 0.15419497 -0.066470906 -0.01923539
000230 6c 4f 1a 3e 8e f8 10 be 97 7c 4b 3e 40 de 0a 3e
       0.1506936 -0.14157316 0.19871746 0.13561344
000240 ce e7 11 bd 91 9a 34 be 94 58 2d 3d 0c 33 e3 bd
       -0.035621457 -0.17637087 0.042320803 -0.11093721
000250 b5 5d 92 bd 14 ae 5f 3e 7d 3f 11 3d 32 9f c7 3b
       -0.071467794 0.2184375 0.035460938 0.0060919756
000260 d6 5f 0d 3d e1 52 15 3e 62 bd 12 be d4 24 95 bd
       0.034515224 0.14582397 -0.14330056 -0.07282415
000270 54 e6 16 bd e6 7a 8f 37 9b 1c ee 3d b6 cf 82 3e
       -0.03684075 1.7104157e-05 0.1162655 0.25549096
000280 7f 6e 89 bd 0f 7d 67 bc ba ac d2 bd e1 82 17 bd
       -0.067105286 -0.014128937 -0.10286851 -0.03699005
000290 c3 66 b4 bd e2 75 1c be cd e6 d2 3c f9 aa 25 3e
       -0.08808663 -0.15279344 0.02574482 0.16178502
0002a0 f8 1d e2 be d5 b4 10 be 90 9b 6d 3e 31 6b a7 3e
       -0.4416349 -0.14131482 0.23203874 0.32698968
0002b0 2a 37 ec 3c 8a 2a 9b be be 04 22 3e 16 77 d7 be
       0.028834898 -0.30305892 0.15822122 -0.42083043
0002c0 7f ad 78 3d b1 90 c8 bd 65 3c 0b be 08 6c 2c 3e
       0.060712334 -0.09793223 -0.13597257 0.16838086
0002d0 e2 1e d4 3d df d1 1d 3e 77 14 e9 bc a8 94 c1 3d
       0.10357453 0.1541209 -0.028452141 0.09452182
0002e0 6f 31 81 bd 87 33 15 be 69 af 06 38 f3 70 0b 3e
       -0.06308257 -0.14570437 3.2111453e-05 0.13617305
0002f0 47 bb c3 bd 4c 6d ed bd 67 29 25 3e 86 ed 1e be
       -0.09557205 -0.11593112 0.16129075 -0.15520296
000300 52 7b bc bd a8 43 d5 bd d7 4a 71 3e d3 42 98 3e
       -0.09203209 -0.10413295 0.23563705 0.29738483
000310 31 7c 98 be e0 2c f4 3b 37 91 53 3e 01 1c b3 bd
       -0.2978225 0.0074516386 0.20660864 -0.08745576
000320 c6 50 59 bc fc 8a 36 3e 8f 6b 2b be 74 59 61 3e
       -0.013263887 0.17826456 -0.16740249 0.2200678
000330 5c fa 9f 3d 8e c1 25 be a0 62 93 3a 3f 1c 15 3e
       0.07811424 -0.16187117 0.0011244603 0.14561556
000340 63 46 32 3d ad fe 22 3d 1e 34 9a 3e 97 d9 5d be
       0.043524157 0.03979366 0.30117887 -0.21665035
000350 f2 6b 5a bd 65 5e 04 be 88 9a 8f be 2f 58 c6 3c
       -0.0533256 -0.12926634 -0.28047585 0.024211971
000360 5b 05 9b 3e 4d e6 59 3e c6 e6 f4 3d ee a8 b3 bd
       0.30277523 0.21279259 0.11958079 -0.08772455
000370 bb 5f e7 3d 35 ba 99 3e 85 f7 1a 3e c1 77 59 3e
       0.11297556 0.30024877 0.15133484 0.21237089
000380 31 d0 cf be f8 5d af be 3b f7 81 3e 11 91 fd 3d
       -0.40588525 -0.3425138 0.25383934 0.12381185
000390 84 5a ac be 98 0f 84 3d ce 31 18 bd 0e e9 bb bd
       -0.33662808 0.06448287 -0.037156872 -0.09175311
0003a0 20 fd d9 bd f1 03 c3 3e f5 7c 32 bd 7d e5 ab bd
       -0.10643983 0.38088945 -0.0435762 -0.08393381
0003b0 7d 79 90 bc ec e5 39 be c3 76 f6 3d 24 a5 6b 3d
       -0.017636055 -0.18154114 0.12034371 0.057530537
0003c0 eb 96 d2 bd 39 48 92 be b4 b0 84 3e 10 16 42 bc
       -0.102826916 -0.28570727 0.25916064 -0.01184608
0003d0 ab 87 58 3e 78 b3 98 3d 88 92 8c 3e 17 ba 6a 3b
       0.21145503 0.07456106 0.27455544 0.0035816485
0003e0 80 8f ac 3c 67 ec 75 bd 31 c3 bc bd af f7 66 bc
       0.02106452 -0.060039904 -0.09216917 -0.014097138
0003f0 c8 7b c4 3d f0 28 43 be 76 e7 04 3e 13 75 9d 3e
       0.09593922 -0.19058585 0.1297892 0.30753383

network_body._body_endoder.seq_layers.0.bias f4 [128]
000000 cf 7e 40 3c 50 2b 82 ba af 43 a5 bc 7b 48 9f bc
       0.0117489835 -0.0009931121 -0.020173876 -0.019443741
000010 52 2a eb bc c4 c2 df 3c 9a 7e 7f bc a8 b7 3a bc
       -0.028706703 0.027314551 -0.015594149 -0.011396326
000020 8c 3f 0c bc 33 03 b0 3c 57 ed f8 3c cc bf 6e bc
       -0.008560073 0.0214859 0.03038661 -0.014572095
000030 ab f8 cb bb 9e 68 d1 3c af 5a f3 bb 64 22 65 3c
       -0.006224712 0.02556258 -0.007426582 0.01398525
000040 ec 0c fc 3c 58 f0 a6 bc 78 86 dd 3b aa f2 02 bc
       0.03076788 -0.020378277 0.0067604147 -0.007992426
000050 17 c5 d3 bc 9a f0 3d 3c 1c a1 bc bc e0 ce 8c 3b
       -0.025850816 0.011593008 -0.023026042 0.0042971224
000060 79 b6 35 bc 19 33 48 3c 47 c2 07 3d 89 48 e6 bb
       -0.011090868 0.012219214 0.03314426 -0.00702769
000070 75 42 27 3b 69 69 b2 bb f1 95 05 bd ef 3d 99 bc
       0.002552179 -0.005444695 -0.0326137 -0.01870629
000080 86 45 ad bc 47 b1 04 bc 7f 51 09 3d 10 aa 3d 3d
       -0.021151315 -0.008098907 0.033524986 0.046304762
000090 1f aa 28 3a 74 cb e6 3a b6 d0 d0 ba eb d4 a5 bc
       0.00064340414 0.0017608241 -0.0015931341 -0.020243129
0000a0 6d 86 cc bc b9 f9 85 3c 37 49 19 bc 73 b9 8a 3b
       -0.024966443 0.016354429 -0.009355835 0.004233533
0000b0 45 fd ac 3c 5d 8f 1e bd df 10 7d bc 8f 65 0e bc
       0.021116862 -0.03871094 -0.015445917 -0.008691206
0000c0 d5 30 53 3d ce 3b 8f bc 6c d3 78 3c 45 67 d7 3c
       0.05156024 -0.017484572 0.015187126 0.02629436
0000d0 5f 17 57 bc e9 12 d9 bb 20 a2 1a bd 7e ae fb 3c
       -0.013128131 -0.0066245687 -0.03775227 0.030722853
0000e0 d1 cf ca 3c 46 9b 48 3d 8b 02 1a 3d b6 4e 59 bc
       0.024757298 0.048976205 0.03760008 -0.013263395
0000f0 6d b9 89 bc 8a 95 09 3d 6e b1 05 3d e7 59 3f 3b
       -0.01681205 0.033589877 0.032639913 0.0029197873
000100 a7 a2 5d bb c9 ac 64 bc 58 ae 76 3a 04 30 1a bd
       -0.0033818872 -0.013957211 0.00094101345 -0.037643448
000110 9d 6f 25 3d cc 2c c7 3c 5f 74 36 3c 98 40 a3 bc
       0.040389646 0.024313353 0.0111361435 -0.019928262
000120 3e 5b 07 3d ed 9b 85 3b b1 81 09 3c ed 7b c2 3b
       0.033046 0.0040774257 0.008392737 0.0059351833
000130 88 35 22 3c f7 02 a8 bc 57 f3 5a 3c 12 15 88 3b
       0.009900458 -0.020509226 0.013363681 0.0041529024
000140 13 2b 81 bc d4 78 b7 bc e5 fb 40 3c d0 91 1c bd
       -0.01576761 -0.022396483 0.011778806 -0.038224995
000150 de 15 32 3d 12 34 92 bc 8f 26 a8 bc 03 d3 91 bc
       0.043477885 -0.017847095 -0.020526199 -0.017800814
000160 cf db ca 3c ec 0a 9c 3d 3c 32 42 bd 40 98 b1 bc
       0.024763016 0.07619271 -0.04741119 -0.021679044
000170 a8 4a a6 ba 0f d1 a6 3c 26 7e 73 bc 7b 49 15 bb
       -0.0012687044 0.020363359 -0.014861619 -0.0022779393
000180 b7 d5 3e 3d 14 c2 ae ba 92 74 24 bc 4f c8 bd 3d
       0.046590533 -0.0013332986 -0.010037558 0.092667215
000190 1b d2 df bb 4b df 62 3c 71 9a 76 bb b4 5c d6 bc
       -0.0068304664 0.0138471825 -0.0037628675 -0.026167251
0001a0 b5 74 2a 3c 87 96 9c bc 51 dc 60 3b 37 35 1d bc
       0.010403802 -0.019114746 0.0034311006 -0.009595207
0001b0 ef 26 0b bd 03 a0 85 3c f2 04 51 3c 06 d5 ad bc
       -0.033972677 0.016311651 0.012757527 -0.021219742
0001c0 49 38 fc bb a9 53 c2 3c b8 24 87 3c 7c a8 13 bd
       -0.0076971394 0.023721533 0.016497001 -0.03604935
0001d0 ef 13 94 bb 92 4f 05 bc f8 2a 2e 3c 3d e4 f7 bc
       -0.004518978 -0.008136647 0.010630362 -0.0302602
0001e0 25 0f 88 bc b8 03 a4 3c cc bf 18 bd b2 f9 26 3b
       -0.016608784 0.020021304 -0.037292287 0.002547842
0001f0 22 52 52 3c b0 5f 2b 3d c2 93 f9 bc ff 99 ca 3c
       0.012836965 0.0418393 -0.030465964 0.024731634

network_body._body_endoder.seq_layers.2.weight f4 [128, 128]
000000 41 02 2b bb 2b 61 c3 bd da d3 e4 3c e5 81 42 3c
       -0.0026093873 -0.09540018 0.02793305 0.01187179
000010 66 3d f8 3d 07 25 56 be f8 45 05 3d 07 bf 59 3d
       0.12121086 -0.20912562 0.03253743 0.053160693
000020 46 76 5f 3e a4 15 09 be 7d 50 ba bd 4b b7 80 3d
       0.21822461 -0.13387161 -0.09097383 0.0628496
000030 50 05 c9 bb f9 8f 11 bd dc 94 80 bc 92 1b f4 bd
       -0.0061346665 -0.035537694 -0.015695982 -0.11919321
000040 cb 0d e2 3d d6 e6 8a bc e8 fa 93 bb 83 32 9e bd
       0.11037787 -0.016955774 -0.0045159943 -0.07724478
000050 c3 4d b5 3d e9 62 cc bd 0f 57 ad bd 1f d1 6a be
       0.088527225 -0.09979803 -0.08463871 -0.22931336
000060 f3 d6 3e 3c 94 7e 1c 3d e8 d2 db 3d 4b c7 01 bb
       0.011647928 0.03820665 0.107335865 -0.0019802626
000070 24 9b 06 3c b7 a9 ee 3b 2a 53 d5 3d 8e 25 36 3d
       0.008215699 0.007283415 0.10416253 0.04446941
000080 5e 4d 77 be 10 f5 df bd 1b 4e e0 3d dc fe 45 be
       -0.24150607 -0.10935414 0.109523974 -0.19335502
000090 64 20 b7 bd b3 61 19 bd 43 15 15 bc 67 3f 5d 3d
       -0.08941725 -0.03744669 -0.0090993075 0.054015543
0000a0 72 5d f0 bc 4b f7 4a 3c 18 e9 0e 3e 65 b4 2c bd
       -0.029341433 0.012388061 0.13956106 -0.042164225
0000b0 1a 51 90 bd 32 33 ab bd d9 3c a3 bd 0f 19 d1 bd
       -0.07046719 -0.08359374 -0.0797059 -0.10209858
0000c0 ef 03 99 bd 47 2a 2c 3d 98 e6 a5 bd a3 cf 9d 3d
       -0.074714534 0.042032506 -0.08100623 0.07705619
0000d0 65 94 c7 3d 5f 55 14 3d 00 dd 76 bc 90 47 38 3e
       0.09745101 0.03621423 -0.015067339 0.17996049
0000e0 1b ce 2c bd 69 f3 b8 3e 57 00 ca bd 69 b1 55 bd
       -0.042188745 0.36123207 -0.09863346 -0.052171145
0000f0 73 8e 1c be 67 d6 88 3d c2 8b 5e bd 12 f9 96 bd
       -0.15288715 0.06681519 -0.054332502 -0.07371725
000100 8c ba fb bd a0 55 e5 bd 13 08 47 3e 53 eb 1a 3e
       -0.1229144 -0.11197972 0.19436674 0.15128832
000110 5d 2f c7 bc 6a 78 24 be f8 80 e2 bd b4 f6 86 3c
       -0.024314577 -0.1606156 -0.11059755 0.01647506
000120 c0 e5 40 be f9 99 17 3d e4 7d 07 39 0d 64 74 3d
       -0.18837643 0.037012074 0.00012921501 0.05966573
000130 32 f1 6d bc 41 ca 81 bd 3f fc 9b 3d 88 03 d7 bd
       -0.0145228375 -0.06337405 0.076164715 -0.104987204
000140 d4 ef 3d 3d 57 71 4c 3d c8 cc 46 bd 0e 5b 1d 3d
       0.046371296 0.049912777 -0.04853514 0.038416915
000150 28 f9 dc bd 21 ed 88 3d b4 c0 23 be cb bf 8c 3d
       -0.1078971 0.06685854 -0.15991479 0.06872519
000160 53 28 57 bd 48 93 10 bd 30 d2 0f 3e ac 0c d0 3d
       -0.05252869 -0.03529671 0.14045024 0.10158667
000170 0e 2a 01 3c 2b 85 53 be 63 47 e2 3d 3a 44 a9 3d
       0.007883562 -0.20656268 0.11048772 0.08264966
000180 6b 1f 2d bc ec 47 f5 bd 10 92 34 3e 52 71 8a 3d
       -0.010566573 -0.11976609 0.17633843 0.067598954
000190 c8 1b 02 3e 58 21 fb 3c 4f 3c b0 bd 9d 64 d0 3d
       0.1270591 0.030655548 -0.08605253 0.101754405
0001a0 63 18 58 3c 93 42 3d 3d b3 c3 b0 3d db 70 31 3c
       0.013189408 0.04620607 0.08631077 0.0108301295
0001b0 9d 4b bb bc 06 2a 69 3d dc 5a 62 bd b9 06 c8 3d
       -0.022863204 0.056924842 -0.05526243 0.09766907
0001c0 c4 60 40 bc 11 20 2a be 71 46 1c bd 77 cf 0e 3c
       -0.011741821 -0.16613795 -0.038153116 0.008716456
0001d0 66 4a 2b 3d 5b 6c 3b 3d 4c 49 3e 3e eb 64 27 bd
       0.041819 0.045757633 0.18582648 -0.040867727
0001e0 25 8d 15 3e 5e d9 06 3d b7 2b b2 3c c2 9b c5 3d
       0.14604624 0.03292214 0.02174936 0.09648849
0001f0 ce cf 59 3c 7e cc 57 3d 9b 04 4a 3d ec 71 be 3d
       0.013294173 0.052685253 0.0493208 0.092990726
000200 3b 43 ec bd 5e 63 6f bd 67 5a c2 bd 45 02 84 3c
       -0.11536261 -0.058444373 -0.09489899 0.016114363
000210 79 37 8b 3d eb 63 70 be f1 6d 10 bd c4 0a 1b be
       0.0679769 -0.23475616 -0.0352611 -0.15140826
000220 4f a4 f9 bd 83 6f 04 bd f6 c0 48 bd 18 97 1e 3d
       -0.121895425 -0.03233291 -0.049012147 0.038718313
000230 f4 8f ed bc c5 3e 38 be aa d0 e9 bd b4 ec 4c bc
       -0.028999306 -0.17992695 -0.11416753 -0.012507606
000240 0c 8e 42 bb 15 d5 54 bd b3 47 ca bb 30 3e 47 bc
       -0.0029686717 -0.051961023 -0.006173098 -0.012160823
000250 6a 76 cd 3d 3e 33 f9 3d 46 69 a5 3d c8 d8 0d be
       0.10032351 0.12167977 0.0807672 -0.13852227
000260 ff f5 22 bd 10 ad 2d be 0a 73 f5 3b 3d cd 07 be
       -0.03978538 -0.1696055 0.0074905204 -0.13261886
000270 0f 0f 92 bd 3d 07 86 bc 01 1f 80 3d 92 6c c2 bc
       -0.071317784 -0.016360873 0.062559135 -0.023733411
000280 4c 57 ef bd fe 05 95 bd 7d fa d0 3d 5c 50 c2 3d
       -0.116865724 -0.072765335 0.10204027 0.094879836
000290 a0 ef 66 3a 42 eb e5 3d b5 2d 97 bd 5c 74 b0 bd
       0.00088095106 0.112265125 -0.07381765 -0.08615944
0002a0 e9 6c ac bd 12 f2 d4 3a e5 b3 cc bc 47 e2 57 bd
       -0.084192105 0.0016246459 -0.024988124 -0.05270603
0002b0 18 3c 0e 3e ee d0 a7 bc 82 a0 ec 3d 8d 09 c7 3b
       0.13890111 -0.020485368 0.11554052 0.0060741366
0002c0 de 86 b7 bd 87 e7 39 bd af a3 10 be 27 d4 1a be
       -0.08961271 -0.045386817 -0.1412494 -0.15119992
0002d0 e7 80 1f bd 67 5e cd 3d d3 55 5b be 2d 87 d4 bd
       -0.03894129 0.100277714 -0.21419458 -0.10377345
0002e0 b1 a4 20 3e 51 e0 70 bd d9 27 1c bb 25 2f 50 bd
       0.15687825 -0.058807675 -0.0023827462 -0.05082621
0002f0 f7 54 44 3e 97 cd b4 bd 7c 82 b6 bc 5e 46 57 3d
       0.19173037 -0.08828276 -0.022279017 0.05255734
000300 36 f3 eb 3d 7f 9d 81 bc 90 9c 26 3d b6 12 56 3c
       0.11520998 -0.01582217 0.040676653 0.0130659845
000310 f4 0e 1e 3c fe ad e3 3a 54 86 22 bd 52 76 a9 be
       0.00964712 0.0017370579 -0.039678887 -0.33098084
000320 7a 0e 62 3d 6b a9 1a be 88 b7 4a 3e a5 78 6e 3d
       0.055189587 -0.1510369 0.19796574 0.058220524
000330 71 00 ff 3d 3f 6c e1 3d 86 26 94 3d 05 42 a7 3d
       0.12451256 0.110069744 0.0723391 0.08166889
000340 1a 65 bf bd 9f d5 46 3e 08 e3 96 bd 30 2b 23 3d
       -0.093454555 0.19417427 -0.073675215 0.03983611
000350 ec 10 02 be 24 ac bb 3d 78 8a 76 3d f4 9e 8e 3d
       -0.12701768 0.091636926 0.060190648 0.06963912
000360 49 7b 06 bd 7e 17 70 3d 31 27 46 be a4 7e 14 3e
       -0.032832418 0.058616154 -0.19350888 0.14501435
000370 d8 ba a8 bd 3b 4a 90 bd 6b 60 85 bd e1 33 34 bd
       -0.082387626 -0.07045408 -0.06512531 -0.043994788
000380 00 0e 21 be 26 78 c4 3c 65 2b 9e 3c 30 ce b2 bd
       -0.15727997 0.023983072 0.019307801 -0.087307334
000390 58 9d 21 be 33 8e 4b 3e 73 71 35 3e 76 93 03 3e
       -0.15782678 0.19878463 0.17719059 0.1284922
0003a0 57 22 25 3e e7 83 cb bc 30 72 c8 ba 64 c0 6b 3d
       0.16126381 -0.02484317 -0.001529282 0.057556525
0003b0 68 01 ce 3c 1b 8c 80 bd 6b ee 7e bd f2 7a 2f 3e
       0.025147155 -0.06276723 -0.06223909 0.17136744
0003c0 c4 d2 29 bd 01 26 6a 3d dd 3e a9 bc 6e ae 20 bd
       -0.041460767 0.05716515 -0.020659858 -0.03922885
0003d0 80 13 42 3c d0 74 47 3d 92 b8 cb 3c 09 42 1c 3d
       0.0118454695 0.048695385 0.024868283 0.038148914
0003e0 03 79 ed 3c 75 27 c3 3d 1d a2 32 3c b2 17 d2 3d
       0.028988367 0.0952901 0.010902909 0.10258426
0003f0 b7 b7 3c 3d 10 5c d4 bd 29 2c 80 3d 27 9e 52 3c
       0.04607364 -0.10369122 0.06258423 0.012855089

network_body._body_endoder.seq_layers.2.bias f4 [128]
000000 ed e6 a2 bb e4 6e d1 3c 9c 98 90 3c d8 b0 fa 3b
       -0.004971376 0.025565572 0.017650895 0.007650476
000010 6e 26 5a 3c f1 7d 41 3c 85 03 41 bc 88 44 48 3b
       0.013314826 0.011809812 -0.011780624 0.0030558426
000020 d8 73 72 3b e0 eb 0f 3d d9 76 57 3c 05 e1 8d 3c
       0.0036995318 0.035137057 0.013150894 0.017319212
000030 c1 35 ca bb df 25 fc 3a 5a 9c 40 3d 8c a9 23 3b
       -0.0061709587 0.0019237361 0.04702411 0.0024972884
000040 5d 3d 0c bc b3 65 b2 bc 4b 26 f1 bb 39 93 ec 3b
       -0.008559552 -0.02177701 -0.007359301 0.0072196987
000050 72 01 11 3d d7 f6 f2 3c 1b f9 bb bc 34 0b d9 bc
       0.03540177 0.029658718 -0.022945931 -0.0264946
000060 b4 3b 05 bc f5 79 10 3c 1d 52 9b 3c e0 d3 a9 bc
       -0.00813191 0.008818139 0.018960053 -0.020730913
000070 8b 5a 3b bc 2f e8 9f bb d1 9f 9e bc a5 af 95 3c
       -0.011435161 -0.0048799734 -0.019363316 0.01827223
000080 1f 25 76 3c 3d eb 29 3c d7 bc 8f bb d9 6f b1 3b
       0.015023499 0.010371027 -0.004386525 0.0054149446
000090 cc f0 8e 3c 3f 63 73 3c be 83 b1 3c 2c 9c 04 bd
       0.017448805 0.014855205 0.021669265 -0.0323755
0000a0 76 80 27 3c 71 06 21 3b 30 b8 cd 3c 90 8c 08 3c
       0.010223499 0.002457049 0.025112242 0.008334294
0000b0 39 dd fb bc 8d ef dd b9 bc 24 ee bc 9c 17 ac bc
       -0.030745136 -0.00042330884 -0.02907025 -0.021007352
0000c0 c3 59 a2 3c 5e cb 53 bb 00 01 65 bb 6e 76 e5 3c
       0.019818192 -0.0032317261 -0.0034943223 0.028010573
0000d0 37 49 f0 3b e2 60 2b bc 8e d0 0f bb 90 0d 9c bc
       0.0073329466 -0.01046011 -0.0021944377 -0.019049436
0000e0 02 04 f0 bb 47 28 0c 3c 3c cb ce bc 49 88 10 bb
       -0.0073246965 0.008554525 -0.025243394 -0.0022053889
0000f0 d7 53 13 bb 51 39 a4 3c d3 a6 1b 3b f9 ca bd 3c
       -0.0022480392 0.020046862 0.0023750558 0.023168074
000100 55 1a 7d 3c 03 72 99 bc 61 0c cc 3c 0f ad 82 3c
       0.015448173 -0.018731123 0.024908246 0.015951661
000110 d7 18 80 3a b9 b2 b2 3c c6 c8 2a bc 2a 00 e4 bc
       0.0009773028 0.021813737 -0.010423845 -0.02783211
000120 18 02 e1 bc cd 4a 03 3d e7 a2 84 bc da 6d 22 3c
       -0.027466819 0.032053757 -0.01619096 0.009913886
000130 ab f0 0b 3c 56 ba 87 bc 10 6b 03 bd 5a eb 97 3a
       0.008541266 -0.016568344 -0.032084525 0.0011590526
000140 3a b3 d1 39 26 e3 de bb 5c e4 75 bc ff 03 65 3c
       0.0003999712 -0.0068019805 -0.015008058 0.0139780035
000150 23 24 97 bc c5 5d ad 3b 6a 85 d5 3b 5b 85 f0 bb
       -0.018449849 0.005290719 0.0065161483 -0.007340116
000160 b1 1b 68 bc d4 b2 f9 ba cc 0c d7 bb 5a 1a 34 bc
       -0.014166758 -0.0019050487 -0.006562805 -0.010992611
000170 e3 e7 e2 3a 3c 5d 7e bb 9c 9c 10 bd 06 87 01 39
       0.0017311539 -0.0038812896 -0.035305604 0.00012352699
000180 30 45 22 3c 99 b2 46 bb f1 f6 2f bc c8 88 d5 3b
       0.009904191 -0.0030318855 -0.010740028 0.0065165497
000190 93 0e 34 bc 46 7f c1 3c b0 b8 5d bc 67 cf 3c bc
       -0.010989803 0.023620259 -0.013532802 -0.011524058
0001a0 16 5e 74 bc 65 61 03 bd e6 55 97 bc 2b de f6 bc
       -0.01491501 -0.032075305 -0.018473577 -0.030135235
0001b0 14 c0 d3 bc 0b e2 0d bd d5 f5 ae bc 45 7e c0 bc
       -0.025848426 -0.0346394 -0.021357456 -0.02349771
0001c0 8d 14 33 bc 9b 07 b0 3c c8 bf ab bc 32 39 b7 bc
       -0.010930193 0.021488002 -0.020965472 -0.02236614
0001d0 1b af dd 3c 69 ad e1 bb 86 28 87 3c 11 3c a0 39
       0.027061036 -0.006887127 0.016498815 0.0003056233
0001e0 96 56 59 bc 86 f5 72 3b 26 58 b9 3c 8d 03 0a 3c
       -0.013265273 0.0037072613 0.02262504 0.008423698
0001f0 91 b0 9e bb 8d 1d 86 bc 73 10 cf bc 5d 53 bc bb
       -0.0048428257 -0.016371513 -0.025276398 -0.0057472424

action_model._continuous_distribution.log_sigma f4 [1, 2]
000000 83 e0 8d 3e d0 a1 7d 3e
       0.2771035 0.24768758

action_model._continuous_distribution.mu.weight f4 [2, 128]
000000 a8 b5 84 bd 03 1d fa ba fd 8d 65 bc a9 66 95 3c
       -0.06479961 -0.0019082132 -0.014010903 0.018237429
000010 ad 4c 32 bd e1 fc ac bc 85 38 4e 3d ea f6 81 bd
       -0.043530155 -0.021116676 0.05034687 -0.06345923
000020 02 55 28 bd f7 2c 7e 3c ba 7b a9 bc d3 ba 35 bc
       -0.041096695 0.01551365 -0.02068888 -0.011091906
000030 19 bc ab bc 7e a2 f9 3b 62 7f 53 3d 50 b8 27 bc
       -0.020963715 0.0076182475 0.051635154 -0.010236815
000040 4f 74 f2 3c 0c 84 cf bc a0 c1 c3 3c dc 3d 14 3c
       0.029596476 -0.02533152 0.023896039 0.009047952
000050 ae 58 cd bb dc 7d ef bd 87 5c b0 3c fe ea 27 3b
       -0.006266675 -0.11693928 0.021528495 0.0025622244
000060 af 28 ca 3b f1 6b 59 bc 44 9b dd 3c b3 e6 d5 3c
       0.0061694006 -0.013270364 0.027051575 0.026110983
000070 f2 18 56 3d 23 5c e6 bc 56 7a aa bc 13 35 86 3c
       0.052269883 -0.028120106 -0.020810287 0.01638273
000080 7c 78 8e ba 86 df 71 3b c3 c4 91 bc 78 2b 01 bb
       -0.0010869647 0.0036906912 -0.017794019 -0.0019709747
000090 a4 9c e1 bb e5 32 4b bd 88 dd 3b 3c 4b 92 99 bb
       -0.006885128 -0.049609084 0.011466391 -0.004686629
0000a0 ca 16 3a bc 2f 0c b8 bc 98 27 29 3c 4b 8c 4c 3b
       -0.011357972 -0.022466747 0.010324381 0.003121155
0000b0 c9 c9 18 3b d7 fd 20 bd a5 84 93 bc 66 b1 db 3c
       0.0023313633 -0.03930458 -0.018007586 0.026817989
0000c0 c5 7a 9e 3c 95 eb 28 3b 9c 37 8e 3b ee 92 94 bb
       0.01934565 0.0025775183 0.0043401252 -0.004534117
0000d0 03 ee 88 bb 43 52 54 3c 81 cf 1b bd 00 f8 8e 3c
       -0.004178764 0.012959066 -0.038039688 0.01745224
0000e0 7d de 67 bd cb 9b 69 bd 9c 4b c8 3b 46 ed 59 3b
       -0.056608666 -0.05703334 0.006112529 0.0033252998
0000f0 23 14 0a 3d d2 c5 8a 3c 51 2f 04 3c 5f 8d b8 3c
       0.03371061 0.016940031 0.008067922 0.022528348
000100 8e 50 05 bd b3 c0 9c bc cd 7b b7 ba 8c 88 e2 3c
       -0.032547526 -0.019134855 -0.0013998688 0.027653001
000110 2f 49 21 3c 4f 02 69 bd df 3f 2f bd 6c 7c 8d bc
       0.0098441085 -0.056886967 -0.04278552 -0.017271243
000120 46 8b 00 bd 2a e5 aa bd 9a 03 e3 bc d1 c8 15 ba
       -0.03138282 -0.08344491 -0.027711678 -0.0005713823
000130 3c d8 91 3c 92 0a 36 bb 94 af 00 bd cf 12 70 3c
       0.017803304 -0.0027777296 -0.031417444 0.014652922
000140 0a 6e 02 3d 3e 9e 49 3d 1b 46 c8 3c 4c ec e6 bc
       0.031843223 0.049223177 0.024447491 -0.028188847
000150 33 28 46 bc e3 80 6a bc 40 b0 fb bc f7 02 1c 3d
       -0.012094545 -0.014312956 -0.030723691 0.038088765
000160 de 5a 1a bd ad 28 c4 bc 1e 15 be bc 52 16 19 3c
       -0.037684314 -0.023945177 -0.023203429 0.0093437005
000170 33 9c 72 bc 26 59 10 bd 0e 40 b6 bc fb df b8 3d
       -0.014807749 -0.03524127 -0.02224734 0.09027096
000180 cf 96 ad bb 05 3c 01 bd 43 10 06 bc 68 bc 25 bd
       -0.005297519 -0.03155138 -0.008182588 -0.04046288
000190 da 1c 58 3d 8d 16 a8 bc e7 4e 74 38 ca 25 a8 3c
       0.05276189 -0.020518566 5.8247617e-05 0.020525832
0001a0 8d 54 4a 3d 35 6f 71 3c d8 23 8f 3b ca b7 10 3c
       0.04939704 0.0147359865 0.0043682866 0.008832881
0001b0 25 bb 5c 3b 10 39 85 bb fb 2f c9 3b 14 04 cb bc
       0.0033680883 -0.0040656403 0.006139753 -0.024782218
0001c0 8a 25 d6 3c bf b2 80 bc 9e d9 44 3d 45 e4 fb bb
       0.026140947 -0.015710233 0.0480591 -0.007687124
0001d0 5e 0f a0 bd aa 0e 16 bc 85 f0 3c 3c 6a 1d f0 3c
       -0.07815431 -0.00915877 0.011531954 0.0293109
0001e0 d0 03 2c bd 85 cd 49 bc 43 ec 68 3c db 29 d7 bb
       -0.041995823 -0.012317066 0.014216485 -0.006566269
0001f0 c6 ee 2b 3c 6d 18 ae bc a0 4c d1 3b ea 69 ec bc
       0.01049394 -0.021251881 0.0063873082 -0.028859098
000200 7f f3 8a bc 5b aa 48 3a f2 75 be 3b 78 c3 0f 3d
       -0.016961811 0.00076547795 0.0058124 0.035098523
000210 77 18 a9 3a 9a 1b 10 3c f8 0f f1 bc e9 f8 4e 3b
       0.0012900968 0.008795643 -0.02942656 0.0031581467
000220 83 a3 37 bd 57 b5 b9 3c 50 33 3e 3b ea 2f 2a 3d
       -0.04483367 0.022669477 0.0029022284 0.0415496
000230 a4 d6 94 b9 e7 7d 05 3d 46 ff 35 3d db a2 d9 bc
       -0.0002838868 0.032590773 0.0444329 -0.026566913
000240 81 45 18 bd 9a 12 cc bc 51 00 ec 3c d0 a9 1f 3b
       -0.03717566 -0.024911214 0.028808745 0.002436269
000250 23 03 62 3c 21 89 f8 3b 9a ec 0c 3b f4 63 d1 bb
       0.013794693 0.0075847064 0.002150333 -0.006390089
000260 8c d1 3a 3c 60 aa b5 3c 80 a1 35 3d 1d 4c db bc
       0.011402499 0.022175968 0.04434347 -0.026769692
000270 17 d7 07 bb f1 13 6e ba 55 58 a7 bc 22 cf d4 3c
       -0.0020727569 -0.0009081951 -0.020427862 0.025977675
000280 8b 2e d1 bc 32 da 46 3c 8c ad 86 39 b6 e4 37 ba
       -0.025534889 0.012136983 0.00025687774 -0.00070149766
000290 67 07 6f 3c e6 d2 57 bc 00 52 2b 3c 21 19 77 bc
       0.014589167 -0.013172841 0.010456562 -0.015081675
0002a0 9f b0 38 3c f2 3d bf 3b b3 dc 24 bc ba ae e7 3b
       0.0112725785 0.005836242 -0.010062384 0.0070703896
0002b0 b1 cc 7f bc 90 7d 04 3c 46 35 c0 bc 87 37 a5 bc
       -0.015612767 0.008086577 -0.023462903 -0.020168079
0002c0 72 9d 58 3c 67 c2 5d bc 3e 67 ed bc 87 7b be 3c
       0.013221132 -0.013535119 -0.028979894 0.023252262
0002d0 75 e9 58 3b 32 25 9e bc 3e c6 5d b9 8c c4 8b bb
       0.0033098136 -0.019304845 -0.00021150053 -0.0042653736
0002e0 7b 4f 09 bc df 4a aa 3c a5 34 8c bb 74 c6 1d 3c
       -0.008380766 0.020787654 -0.0042787367 0.009629834
0002f0 04 7d 15 3d 21 2a 20 3d eb 48 e9 3c ea 40 37 b9
       0.036496177 0.039102677 0.028477153 -0.00017476422
000300 34 14 13 3d 69 63 58 bc 7a 02 28 3c b3 eb 88 3c
       0.03590794 -0.013207295 0.010254497 0.016713953
000310 34 d2 54 bc 79 b2 25 bc b6 f9 82 ba b7 75 2c bd
       -0.012989569 -0.010113352 -0.0009992633 -0.04210445
000320 34 83 d5 bc b0 45 21 3b b3 74 51 bc cf 55 e2 3c
       -0.02606354 0.0024608187 -0.012784171 0.027628807
000330 4f e3 2e bb b4 a5 27 bd 04 0b 41 bc 4d cc c5 3c
       -0.002668578 -0.04092951 -0.0117824115 0.02414527
000340 28 24 94 3c d9 48 32 3c 86 b6 24 bd 71 92 e0 3b
       0.018083647 0.010881626 -0.04021313 0.0068533947
000350 ac 6f b4 bb 61 e4 f7 bc 34 e6 6a 3b 63 35 93 3c
       -0.0055064764 -0.030260267 0.0035842778 0.017969793
000360 84 ac 31 bd 27 5b 93 3c c3 b4 a8 bc c0 4c 33 3c
       -0.043377414 0.0179878 -0.020594006 0.010943592
000370 47 a7 9e bb 90 8b de ba c5 d4 e5 bc ff 7f 04 3c
       -0.0048417184 -0.0016978849 -0.028055558 0.008087157
000380 cb 29 ec 3c d8 e1 b5 bb 2d 00 03 3b 5b 84 5c 3b
       0.028828522 -0.0055506043 0.0019989118 0.0033648226
000390 6d fa e1 3c b7 b2 f6 3c d0 8b 41 bd da 96 22 bc
       0.027585233 0.030114515 -0.047252476 -0.009923661
0003a0 ff b0 3e 3c 1e d4 ee bc cd 6e 88 bb aa ad 67 bd
       0.011638879 -0.02915388 -0.004163599 -0.056562103
0003b0 10 b6 4b bd 14 77 4c 3b 08 29 45 bc 6f b9 c5 bc
       -0.049734175 0.0031198906 -0.012033708 -0.024136273
0003c0 41 2d b1 3c 2c 98 e5 ba 24 c4 e4 bc 6a a6 4b bc
       0.021628024 -0.0017516664 -0.027925558 -0.012429813
0003d0 b7 b2 e0 3b a7 f9 bb bc ee 44 02 3d bb aa 80 bb
       0.006857242 -0.022946192 0.031804018 -0.0039266027
0003e0 ed 03 8b bc 19 fb 30 bc 5d b4 9e 38 57 e5 98 3b
       -0.016969645 -0.010802054 7.5676224e-05 0.0046660113
0003f0 b2 59 aa 3b 5e 0d 9a bc 48 45 f0 bc 90 0f b9 bc
       0.005198681 -0.018805202 -0.02932991 -0.022590429

action_model._continuous_distribution.mu.bias f4 [2]
000000 3c b3 84 bc 95 f6 99 3c
       -0.016198747 0.018794337

exp_avg f4 [128, 36]
000000 27 af 17 38 d7 18 10 b5 df 7c 69 b6 9c b2 bf 37
       3.616433e-05 -5.3680327e-07 -3.479239e-06 2.2852146e-05
000010 4f 4f 63 38 a2 b1 94 32 67 3d bc b7 8d 2d 3d 37
       5.419488e-05 1.7310246e-08 -2.243994e-05 1.12758835e-05
000020 fb 92 1e 38 70 97 59 b4 e0 70 c1 b6 86 1f ee 37
       3.780702e-05 -2.0264793e-07 -5.7649886e-06 2.838649e-05
000030 16 e7 32 38 ed 06 db b5 2d 02 19 b7 71 28 c2 37
       4.2653723e-05 -1.6318787e-06 -9.120017e-06 2.3145434e-05
000040 b0 72 40 37 01 77 5f 34 f6 81 b5 37 81 ff 25 38
       1.1470795e-05 2.0811787e-07 2.16374e-05 3.9577022e-05
000050 5a 59 16 38 33 73 c3 b7 34 ea a4 37 11 9a db 37
       3.5846002e-05 -2.3299455e-05 1.9659383e-05 2.6178577e-05
000060 de 35 de 37 10 45 82 35 13 de bf 36 b7 c4 15 38
       2.6489546e-05 9.705855e-07 5.7180964e-06 3.5707573e-05
000070 16 1d 19 38 50 e8 23 35 0c d4 a4 b6 a6 d8 a0 37
       3.650513e-05 6.106029e-07 -4.9122664e-06 1.9174371e-05
000080 f6 e7 e9 37 4c ae a2 b6 1a d8 15 37 3d a8 15 38
       2.788378e-05 -4.848267e-06 8.931407e-06 3.5681052e-05
000090 01 8f 27 35 69 7e c7 34 ae 2d 23 38 03 d7 27 38
       6.2420446e-07 3.7158614e-07 3.890477e-05 4.0016148e-05
0000a0 37 a2 2b 38 5b 69 eb 32 ef d0 1e 35 51 25 da 37
       4.092065e-05 2.740551e-08 5.9163625e-07 2.6005002e-05
0000b0 90 26 02 b8 98 03 dc 33 c3 bb 95 38 c1 69 45 38
       -3.103033e-05 1.0245202e-07 7.139847e-05 4.706695e-05
0000c0 29 9b 1d 38 16 e7 0d 35 1a 60 51 36 d6 e5 86 37
       3.757622e-05 5.286287e-07 3.1199365e-06 1.608107e-05
0000d0 95 62 fa b6 b1 21 86 b5 51 14 4b 38 27 e7 2f 38
       -7.462057e-06 -9.993583e-07 4.8417893e-05 4.193853e-05
0000e0 ed 77 4c 38 64 40 4b 37 db 73 a5 b7 78 cb 8d 37
       4.874908e-05 1.2114735e-05 -1.9723482e-05 1.6903257e-05
0000f0 48 0e da b7 5f 0a 4a b6 05 10 91 38 e1 20 37 38
       -2.5994275e-05 -3.0106382e-06 6.917123e-05 4.366122e-05
000100 38 f0 3e 38 0f 56 1e b4 f7 d9 91 b6 32 a4 cc 37
       4.552325e-05 -1.4746205e-07 -4.346711e-06 2.4395154e-05
000110 b8 ce fe b7 4a 57 0b 37 db 09 84 38 4b 59 22 38
       -3.037542e-05 8.305369e-06 6.296086e-05 3.870697e-05
000120 fd c3 27 b7 55 08 bd 34 5d 68 82 b6 6f 07 0f b7
       -9.999608e-06 3.5210056e-07 -3.8864514e-06 -8.525195e-06
000130 c7 93 b3 b7 a7 8c 3d 32 86 38 09 37 5f 51 cc b6
       -2.1407277e-05 1.10332286e-08 8.178997e-06 -6.0891466e-06
000140 74 6a 5a b6 3b 50 71 32 de 9d 2a b7 0d cd 26 b7
       -3.2546495e-06 1.4046289e-08 -1.0169546e-05 -9.942113e-06
000150 06 54 61 b7 cf 38 d6 34 f7 4f 85 b4 2c 38 e3 b6
       -1.3430608e-05 3.990194e-07 -2.4831363e-07 -6.7716664e-06
000160 4c 7f 5a b7 50 ab 69 b5 67 76 ae b3 12 52 0e b7
       -1.3023451e-05 -8.7048556e-07 -8.124044e-08 -8.482968e-06
000170 b6 2f 87 b6 fe fc 34 b6 52 6e de b6 11 13 13 b7
       -4.028868e-06 -2.696935e-06 -6.6289585e-06 -8.766322e-06
000180 fa 2c 6c b6 3f 74 38 b5 3b 01 23 b7 c2 8d e6 b6
       -3.519292e-06 -6.87145e-07 -9.715844e-06 -6.871037e-06
000190 77 0d e6 b6 5f e6 3f b4 6e 87 d3 b6 e3 1f 32 b7
       -6.8561017e-06 -1.787207e-07 -6.304056e-06 -1.0617051e-05
0001a0 04 c9 73 b6 73 53 03 34 4b eb 24 b7 9e 6a 19 b7
       -3.6326828e-06 1.2230684e-07 -9.829945e-06 -9.144334e-06
0001b0 98 6f 64 37 92 16 45 34 a0 4e 03 b7 d5 28 e6 35
       1.3615841e-05 1.8355266e-07 -7.826515e-06 1.7148219e-06
0001c0 d8 36 30 b7 49 42 f7 b2 d7 c7 86 37 54 41 54 37
       -1.0503187e-05 -2.8784727e-08 1.6067102e-05 1.2651395e-05
0001d0 6c 55 b5 37 36 27 14 33 19 41 84 b7 90 f4 31 b6
       2.1616659e-05 3.4494597e-08 -1.576594e-05 -2.651741e-06
0001e0 6e f3 f7 36 a0 74 77 b4 f5 6b d2 b5 b8 9e 82 37
       7.3895126e-06 -2.3046096e-07 -1.5677639e-06 1.5571117e-05
0001f0 be 46 9e 37 41 22 1a 35 4a 3d 64 b7 78 2b ab 34
       1.886801e-05 5.7419317e-07 -1.3604129e-05 3.188286e-07
000200 52 21 17 b7 8c fd ea b6 d3 12 b5 37 25 c8 7c 37
       -9.008059e-06 -7.00326e-06 2.1585647e-05 1.506697e-05
000210 d0 3d d8 37 2d 0c 9c 35 6d 60 b1 b7 80 34 81 35
       2.577799e-05 1.1626449e-06 -2.1144946e-05 9.626528e-07
000220 0a 4b 8b b6 dc cb b5 b3 0e a7 24 37 f7 c8 2a 37
       -4.1512585e-06 -8.465551e-08 9.814057e-06 1.017958e-05
000230 f9 4d f4 37 14 79 81 b5 6e c4 bc b7 c4 fe 29 36
       2.9123375e-05 -9.646487e-07 -2.2502816e-05 2.5331256e-06
000240 01 a2 e6 36 38 a4 86 b5 dc b6 fd b7 21 0c e8 b7
       6.873394e-06 -1.0031572e-06 -3.02451e-05 -2.7662203e-05
000250 f5 15 71 37 12 c1 88 30 18 a5 2a b8 6f 63 0a b8
       1.4369832e-05 9.950176e-10 -4.0684914e-05 -3.299437e-05
000260 24 7d cc 37 1b 7c 43 b4 58 f6 4e b8 8f 0d dd b7
       2.4376968e-05 -1.820594e-07 -4.9343653e-05 -2.6351567e-05
000270 d0 aa a5 b7 e9 8a 41 b5 30 a8 b9 b6 22 48 a8 b7
       -1.9749074e-05 -7.2100244e-07 -5.5330092e-06 -2.006075e-05
000280 47 d6 8e 36 b9 ac 00 36 fa 28 00 b8 99 6d c7 b7
       4.256875e-06 1.9174024e-06 -3.055574e-05 -2.3773684e-05
000290 a5 12 fb b7 90 e8 9e b6 93 52 1b 37 bc 5d 9d b7
       -2.9930214e-05 -4.735841e-06 9.257946e-06 -1.8759507e-05
0002a0 15 06 0e 37 f8 a2 06 b5 1d 44 09 b8 fd cb db b7
       8.465276e-06 -5.015604e-07 -3.272678e-05 -2.6201824e-05
0002b0 6c 65 bf b7 0e 21 15 35 cc 26 52 b6 db 20 a5 b7
       -2.2816203e-05 5.5554926e-07 -3.1315021e-06 -1.9684832e-05
0002c0 a4 d6 6c 37 2c 0f 12 b7 24 4f 02 b8 11 d6 ce b7
       1.4116671e-05 -8.705811e-06 -3.106812e-05 -2.4656796e-05
0002d0 40 35 de b8 0d c5 94 36 ec 84 16 39 ad ce 8a 38
       -0.000105957035 4.4336834e-06 0.00014354632 6.618849e-05
0002e0 13 de 4b 37 43 83 b2 33 fa e3 13 38 61 e7 26 38
       1.2151449e-05 8.312647e-08 3.525985e-05 3.9792973e-05
0002f0 c5 80 26 b9 b1 d5 0d 35 4e 61 54 39 45 42 9a 38
       -0.00015878964 5.2837555e-07 0.00020254144 7.355636e-05
000300 f2 a6 21 37 77 55 bb 36 eb 5b 05 38 72 51 bc b7
       9.635218e-06 5.5829837e-06 3.1795276e-05 -2.2449272e-05
000310 76 19 bc b8 2d ad 02 b7 5e a1 11 39 6f 8c 21 38
       -8.969281e-05 -7.788924e-06 0.00013888392 3.851618e-05
000320 b2 be ce 38 11 90 ba 38 77 8f 14 b9 74 69 d7 b7
       9.858365e-05 8.8960056e-05 -0.00014167825 -2.5679103e-05
000330 86 68 26 b9 10 af 16 b7 77 7f 5c 39 cb 2d 40 38
       -0.00015869932 -8.981457e-06 0.0002102832 4.5819015e-05
000340 67 1d 5e 38 a5 35 dc b5 cf 62 c0 b6 ac dd 94 37
       5.2956308e-05 -1.640689e-06 -5.7335487e-06 1.7746199e-05
000350 5f 30 43 b9 3f 45 f8 37 8a c4 53 39 a7 3f 27 38
       -0.00018614669 2.9596149e-05 0.00020195745 3.9875184e-05
000360 c8 28 ef b6 13 c2 0b 35 6a 40 39 b7 f6 fb 95 b7
       -7.1275026e-06 5.206395e-07 -1.1041857e-05 -1.7879513e-05
000370 51 c3 2a b8 a4 df 43 b3 8f df ae 37 dd 61 5d 36
       -4.071306e-05 -4.5605375e-08 2.0846519e-05 3.298853e-06
000380 ad 3a c1 37 38 82 8f 33 f5 b7 2e b8 cb 76 00 b8
       2.3034716e-05 6.682643e-08 -4.1656156e-05 -3.0628213e-05
000390 5f 93 aa b7 1f de 71 34 30 d5 ae 34 bb d4 14 37
       -2.0334204e-05 2.2525681e-07 3.256514e-07 8.871018e-06
0003a0 eb af ee 37 9d 8c 35 36 4d bf 50 b8 02 46 00 b8
       2.845373e-05 2.705295e-06 -4.9769227e-05 -3.0582778e-05
0003b0 ee b4 41 b8 57 86 3d b6 22 13 f3 37 70 57 01 37
       -4.618329e-05 -2.824139e-06 2.8976767e-05 7.709357e-06
0003c0 03 f4 0d 38 a8 1d 36 36 e5 34 68 b8 03 a1 00 b8
       3.3844273e-05 2.7137376e-06 -5.5362372e-05 -3.0667532e-05
0003d0 e1 6b 15 b8 f1 18 20 b5 c3 63 88 37 0d e5 b7 b4
       -3.562484e-05 -5.964094e-07 1.6258919e-05 -3.4253063e-07
0003e0 54 e0 29 38 21 63 7c b6 10 ee 6a b8 c2 06 de b7
       4.050166e-05 -3.7608627e-06 -5.601166e-05 -2.646761e-05
0003f0 8c 7f a3 b7 3e e8 99 34 58 ee b1 b6 d6 59 9a b7
       -1.9490508e-05 2.866745e-07 -5.302758e-06 -1.8400064e-05

exp_avg_sq f4 [128, 36]
000000 49 24 86 32 65 93 d7 2f 10 81 3b 31 f4 c2 4c 32
       1.5616154e-08 3.9213002e-10 2.7285445e-09 1.191869e-08
000010 66 91 6c 32 5c b8 af 2f 6f 91 b1 31 da ca 5b 32
       1.3770068e-08 3.196331e-10 5.167912e-09 1.2793601e-08
000020 c9 74 86 32 06 52 b6 2f b3 5f 56 31 4f c6 50 32
       1.565276e-08 3.3163888e-10 3.1195497e-09 1.2152284e-08
000030 b9 ba 71 32 c1 48 ae 2f b8 86 a5 31 94 0c 5d 32
       1.4070502e-08 3.170211e-10 4.8174478e-09 1.2866753e-08
000040 fb 75 3c 32 d3 1a ff 2f 9e df 0d 32 98 32 6b 32
       1.0969866e-08 4.640329e-10 8.258125e-09 1.3690304e-08
000050 75 fc 7b 32 0b 64 cf 2f 44 11 93 31 82 b8 48 32
       1.4667525e-08 3.7724165e-10 4.280226e-09 1.1683484e-08
000060 b5 ae 34 32 bf 26 62 30 5e 64 0d 32 9c d2 67 32
       1.0517103e-08 8.227338e-10 8.230101e-09 1.3493857e-08
000070 a5 d4 5e 32 28 bd f6 2f 7c ed cc 31 7c 36 4b 32
       1.29704505e-08 4.4881543e-10 5.9641803e-09 1.18285435e-08
000080 eb 3d 49 32 32 c9 20 30 09 fd f6 31 70 a9 57 32
       1.1713818e-08 5.8493577e-10 7.188309e-09 1.2553173e-08
000090 de 64 c4 32 ba fd 23 31 b7 59 9a 32 53 01 11 33
       2.2863272e-08 2.3863849e-09 1.7968757e-08 3.3761648e-08
0000a0 1a 0f 03 33 38 64 d4 30 22 49 5d 32 81 db fd 32
       3.051455e-08 1.5453514e-09 1.28805215e-08 2.9552895e-08
0000b0 ce 92 a1 32 4a ad 0c 30 a2 5d d8 32 fd 3c 24 33
       1.8809626e-08 5.117796e-10 2.5188289e-08 3.8239694e-08
0000c0 b6 ac 1f 33 d9 0b 94 30 4f ca e0 31 9f 91 d2 32
       3.7177152e-08 1.0771785e-09 6.542258e-09 2.4513438e-08
0000d0 75 2f 44 32 e3 7e 1c 30 0e e7 0e 33 1b c2 2d 33
       1.1419492e-08 5.6932786e-10 3.3272094e-08 4.045624e-08
0000e0 2d 49 1b 33 e1 25 9b 2f e1 d9 0f 32 47 fb b7 32
       3.6155303e-08 2.822125e-10 8.373235e-09 2.1418272e-08
0000f0 bc ff 24 32 d2 1b a1 30 2c 46 13 33 66 b9 29 33
       9.604204e-09 1.1722199e-09 3.4289926e-08 3.9516998e-08
000100 2e a3 24 33 c8 ab 72 30 4a 3b c3 31 7d 52 9f 32
       3.8332637e-08 8.8283203e-10 5.6819873e-09 1.8547547e-08
000110 19 f1 48 32 79 eb f9 30 51 48 07 33 70 e8 20 33
       1.1696351e-08 1.818406e-09 3.149791e-08 3.7464304e-08
000120 57 3e 19 32 32 39 bf 2f c7 3f e2 30 44 17 de 31
       8.919947e-09 3.4783337e-10 1.6461791e-09 6.4636954e-09
000130 fa a4 09 32 40 01 99 2f 22 b0 2a 31 29 0a db 31
       8.011961e-09 2.7831426e-10 2.4838376e-09 6.374894e-09
000140 b0 e9 03 32 88 30 10 30 4d 9e 35 31 4a 60 ef 31
       7.678338e-09 5.245586e-10 2.642895e-09 6.9667623e-09
000150 44 57 0d 32 2a f6 76 2f 84 33 20 31 43 10 d9 31
       8.227122e-09 2.2461025e-10 2.3312348e-09 6.31738e-09
000160 18 e5 a8 31 36 e3 26 30 1d 11 b1 31 b6 60 0a 32
       4.9154885e-09 6.0713334e-10 5.1533235e-09 8.054647e-09
000170 74 76 14 32 81 a6 e8 2e f5 30 06 31 b8 d9 c3 31
       8.641667e-09 1.05797156e-10 1.9527395e-09 5.6999987e-09
000180 79 90 9c 31 74 a8 07 30 82 5d bd 31 0c ed 09 32
       4.556622e-09 4.93521e-10 5.5112546e-09 8.028348e-09
000190 4f ff 10 32 24 4d 9d 2f d5 1f e4 30 37 03 b7 31
       8.439954e-09 2.8612945e-10 1.6598231e-09 5.3263665e-09
0001a0 85 a1 bd 31 45 48 5b 2f 18 80 a1 31 a8 2a 05 32
       5.5189866e-09 1.9943609e-10 4.7002793e-09 7.751318e-09
0001b0 95 17 9f 31 1b 10 ea 2f cf 3b 8b 31 40 88 f1 31
       4.63019e-09 4.2575796e-10 4.052232e-09 7.029513e-09
0001c0 89 fa bc 31 26 27 8c 2f 22 9b 6e 31 5b 2a eb 31
       5.5000027e-09 2.5493668e-10 3.472174e-09 6.8442154e-09
0001d0 6c 5e 90 31 f3 52 4c 2f 4c ba 9e 31 3d 41 f6 31
       4.201686e-09 1.8583161e-10 4.6195847e-09 7.166959e-09
0001e0 90 1b da 31 1b 34 8e 2f 0c 8f 1d 31 15 c2 db 31
       6.3477685e-09 2.5866673e-10 2.292782e-09 6.3958034e-09
0001f0 01 74 9e 31 72 ba 59 2f 2b 01 92 31 77 f6 f4 31
       4.6115933e-09 1.9802274e-10 4.249292e-09 7.1293544e-09
000200 b6 bc b9 31 fb ba 32 2f 24 89 80 31 46 b1 cf 31
       5.4056626e-09 1.6255434e-10 3.7408814e-09 6.0446466e-09
000210 4d a2 9b 31 10 a1 8c 2f 16 ca 91 31 dc 67 eb 31
       4.529545e-09 2.5580293e-10 4.24303e-09 6.8512076e-09
000220 2b 35 e7 31 a7 74 8d 2f f8 b4 25 31 09 da b6 31
       6.7290293e-09 2.5730637e-10 2.411353e-09 5.321685e-09
000230 66 ae bd 31 cb b7 f2 2e 60 9b 73 31 a3 cb d9 31
       5.5204508e-09 1.1037534e-10 3.5449474e-09 6.338682e-09
000240 38 39 39 33 f4 66 22 31 03 e0 04 33 6e 71 77 33
       4.312571e-08 2.3632625e-09 3.0937382e-08 5.7612333e-08
000250 2c 94 46 33 92 a4 3e 31 bf 53 ef 32 09 3e 68 33
       4.623523e-08 2.7742186e-09 2.7861345e-08 5.407313e-08
000260 2c b2 3c 33 d9 c2 5f 31 58 dd 01 33 c8 80 7c 33
       4.3934207e-08 3.256153e-09 3.0236464e-08 5.8790448e-08
000270 f5 e5 68 33 db ce e1 30 75 7d b6 32 9a c4 56 33
       5.4225854e-08 1.6429696e-09 2.124464e-08 5.0004566e-08
000280 3e 52 26 33 a6 9f 57 31 f1 2d 18 33 e5 c9 84 33
       3.8724686e-08 3.1377367e-09 3.543204e-08 6.1834534e-08
000290 af e2 64 33 43 f7 2d 30 ff 25 bf 32 38 42 40 33
       5.3291554e-08 6.3288413e-10 2.2252605e-08 4.476371e-08
0002a0 0a f9 c8 32 94 20 71 30 cf 82 5f 33 c0 dc 87 33
       2.3396314e-08 8.7721586e-10 5.2040203e-08 6.3265816e-08
0002b0 6a 1f 74 33 7c 07 dc 30 4f 29 96 32 ed 75 2b 33
       5.6839248e-08 1.6009234e-09 1.7481083e-08 3.9921293e-08
0002c0 4c 29 1f 33 68 c8 08 31 40 de 1e 33 b9 ae 76 33
       3.705763e-08 1.9904522e-09 3.6989377e-08 5.7435248e-08
0002d0 5b eb 94 34 14 d7 a0 32 ad e6 35 34 de ee be 34
       2.7738392e-07 1.8724258e-08 1.6940858e-07 3.5564057e-07
0002e0 30 8d a6 34 40 20 3b 32 ba 4d 26 34 b9 bd b8 34
       3.1022637e-07 1.0892165e-08 1.5488231e-07 3.4410712e-07
0002f0 09 fe 7c 34 db 82 49 32 f8 51 77 34 25 9d c6 34
       2.3561746e-07 1.1729493e-08 2.3033488e-07 3.6994712e-07
000300 4a 56 ae 34 f4 3b 48 32 a8 a0 0f 34 21 02 b0 34
       3.247281e-07 1.1655164e-08 1.3376359e-07 3.2784104e-07
000310 4f 8c 5e 34 b7 b2 9c 32 a1 bf 8b 34 3f 9a c6 34
       2.0726405e-07 1.824206e-08 2.6030196e-07 3.6992603e-07
000320 40 aa a5 34 18 04 0e 32 4e 6e 2b 34 c4 c6 9e 34
       3.0857518e-07 8.266419e-09 1.5965745e-07 2.9574414e-07
000330 23 99 54 34 17 7d 11 32 e5 36 93 34 86 f6 c4 34
       1.979975e-07 8.468553e-09 2.7420825e-07 3.6687214e-07
000340 96 58 b4 34 6a 2f 23 32 00 30 0d 34 33 c2 90 34
       3.3592067e-07 9.498629e-09 1.314911e-07 2.696339e-07
000350 de 2b 81 34 68 b8 47 32 f5 d0 6e 34 b0 9f b7 34
       2.406004e-07 1.1625254e-08 2.2241495e-07 3.4202594e-07
000360 52 54 59 32 a5 14 62 30 e1 36 03 32 e5 b3 85 32
       1.2650235e-08 8.224766e-10 7.637682e-09 1.5565044e-08
000370 cb f7 54 32 fc ce 1e 30 18 b0 08 32 54 12 7d 32
       1.2396366e-08 5.777421e-10 7.956281e-09 1.47307055e-08
000380 65 55 19 32 0b 5e f0 2f 64 46 4e 32 19 83 91 32
       8.925189e-09 4.3722567e-10 1.2006783e-08 1.6939838e-08
000390 d1 a6 5c 32 f4 31 68 30 8e 9f f5 31 1f 87 6e 32
       1.2843615e-08 8.4472096e-10 7.1485777e-09 1.3884146e-08
0003a0 b2 61 41 32 08 78 89 30 b2 54 14 32 6b 74 8b 32
       1.1256292e-08 1.0002177e-09 8.633991e-09 1.623467e-08
0003b0 ad 77 60 32 ab c0 51 2f ba 43 05 32 4a aa 64 32
       1.3065727e-08 1.9076889e-10 7.757018e-09 1.3310066e-08
0003c0 7a a3 25 32 94 31 81 2f 6c 50 3c 32 49 07 87 32
       9.641434e-09 2.350019e-10 1.0961326e-08 1.5719381e-08
0003d0 26 fd 88 32 31 3f 01 30 da 0d 9a 31 c5 05 43 32
       1.5947602e-08 4.7019727e-10 4.4835646e-09 1.1351806e-08
0003e0 88 6a 3c 32 b7 d3 fd 2f e0 52 20 32 34 af 78 32
       1.0967263e-08 4.6170864e-10 9.332069e-09 1.44753365e-08
0003f0 2a 17 a2 32 86 10 30 30 4d 4a 7b 32 08 40 e0 32
       1.8869816e-08 6.405191e-10 1.4627017e-08 2.610615e-08

exp_avg f4 [128]
000000 41 d3 06 38 bd 25 2c 38 8c b5 5f b7 a9 35 bc 36
       3.2144835e-05 4.1043142e-05 -1.33341055e-05 5.6090835e-06
000010 35 cd d5 b7 75 cd 3f 38 23 3d a6 b7 82 73 cd b7
       -2.5487136e-05 4.5729295e-05 -1.9817211e-05 -2.4491692e-05
000020 e4 65 12 b8 c3 21 60 38 9a d2 cf 35 89 58 2b b8
       -3.4904006e-05 5.3437205e-05 1.5483995e-06 -4.085203e-05
000030 77 63 0c 39 e4 07 9d 37 f6 e4 ef b7 46 2b 0f b8
       0.00013388494 1.8719533e-05 -2.8597638e-05 -3.413416e-05
000040 5a 85 95 38 86 06 43 b7 87 b2 51 36 84 4e 1b b8
       7.129712e-05 -1.1624425e-05 3.1247343e-06 -3.7028003e-05
000050 a8 c7 12 b6 2c 3f cb 37 74 92 c4 37 c7 a3 14 37
       -2.187191e-06 2.4228902e-05 2.3433218e-05 8.85962e-06
000060 db b2 40 36 68 72 2b 38 3b 2f ba b7 37 bb bd b6
       2.8714337e-06 4.0876126e-05 -2.2194921e-05 -5.6544336e-06
000070 1c d9 98 37 eb fd 18 37 8c 1b 3e b8 ba 62 1e 37
       1.8220911e-05 9.119026e-06 -4.5325185e-05 9.44052e-06
000080 32 15 6a b8 b9 e5 86 37 7b 57 68 b8 a5 9f 12 b8
       -5.5809687e-05 1.6081018e-05 -5.5394583e-05 -3.4957793e-05
000090 db 94 91 b6 90 b8 ef 37 19 86 7b b7 f4 52 90 38
       -4.338666e-06 2.8576964e-05 -1.4991988e-05 6.881906e-05
0000a0 5c 61 c7 b7 86 9e 6d 38 30 40 3d b8 27 37 3f b8
       -2.3767985e-05 5.665284e-05 -4.512089e-05 -4.5589313e-05
0000b0 bf a2 9a 37 ef f3 dd 36 83 a5 82 b5 6a e1 1a 37
       1.8434015e-05 6.614711e-06 -9.733925e-07 9.231599e-06
0000c0 dc 7a ae b6 e3 17 8e 35 d5 3d 06 b8 63 4c 11 37
       -5.199907e-06 1.0586776e-06 -3.2005675e-05 8.660459e-06
0000d0 77 2c b0 b7 33 3b 4c b6 b1 66 17 b7 57 b0 e9 b7
       -2.100154e-05 -3.0432827e-06 -9.024211e-06 -2.785788e-05
0000e0 64 70 8c b7 a2 48 a1 b8 17 a1 23 39 90 3d a0 b6
       -1.6741637e-05 -7.690607e-05 0.00015604902 -4.7755384e-06
0000f0 3c 2a c9 b5 3e 03 94 b7 1c ff 03 b7 f3 77 39 b7
       -1.4987959e-06 -1.7644485e-05 -7.867606e-06 -1.1054787e-05
000100 79 4e 85 38 30 d3 1c b8 64 73 6e b7 bc 4b da b7
       6.356551e-05 -3.7389982e-05 -1.4212772e-05 -2.6022892e-05
000110 bf 71 c8 37 f4 39 1d 38 08 d0 ac b8 cc 72 06 38
       2.3894825e-05 3.748569e-05 -8.240348e-05 3.2055003e-05
000120 b1 fe b3 36 c5 d9 ef b5 8f d1 07 b8 6b 3b 06 b9
       5.3642657e-06 -1.7870267e-06 -3.2381675e-05 -0.00012801371
000130 76 bd 2f 38 a5 8a 86 37 ae d9 17 36 fb bf 07 38
       4.18997e-05 1.6038606e-05 2.262746e-06 3.2365304e-05
000140 55 05 ef b7 24 27 b2 b6 d5 6e bc b7 99 d7 f3 b5
       -2.8493503e-05 -5.30937e-06 -2.2462957e-05 -1.8167658e-06
000150 4a fa 68 37 a3 6d 00 36 52 5e 5e 38 cc f2 36 b8
       1.3886553e-05 1.9137303e-06 5.3016767e-05 -4.3618304e-05
000160 5f 0e 95 36 d1 e3 ce b7 0f 62 54 b7 7c 42 55 b7
       4.442219e-06 -2.4663199e-05 -1.2659016e-05 -1.2711269e-05
000170 55 7e 23 b8 d7 40 15 b7 d2 36 f5 37 ed c5 5a b6
       -3.8979884e-05 -8.896189e-06 2.9231804e-05 -3.259974e-06
000180 c8 e1 6b b7 7f 6b 82 35 b3 a2 75 b7 0b e3 31 b7
       -1.405966e-05 9.71704e-07 -1.4641019e-05 -1.0602885e-05
000190 02 a5 c2 b7 94 be 8d 37 b8 d1 ee b7 a3 dd 49 37
       -2.320344e-05 1.6897255e-05 -2.8469469e-05 1.2032137e-05
0001a0 b6 34 09 38 59 05 91 b7 c4 47 4e 37 4e 53 8d 38
       3.2712436e-05 -1.7287837e-05 1.2295266e-05 6.738921e-05
0001b0 8a b9 d4 b7 03 9d 67 37 d7 a4 a4 37 b9 b1 14 38
       -2.5358768e-05 1.380523e-05 1.9627083e-05 3.5451467e-05
0001c0 bc 3d ac 37 1c 1d c3 b7 5f a7 42 37 1c 34 ba b7
       2.0532745e-05 -2.3259367e-05 1.160227e-05 -2.2197193e-05
0001d0 6f c2 19 38 a6 3f fd 36 ce 83 82 b7 9c a3 2b 38
       3.6659123e-05 7.547397e-06 -1.5558584e-05 4.092195e-05
0001e0 f9 d3 47 37 a4 94 7f 36 36 25 be 36 21 74 1f b8
       1.1910678e-05 3.8084481e-06 5.666773e-06 -3.8016708e-05
0001f0 2c 8d 35 38 c3 9b 89 b7 86 d5 f4 b7 35 7c 0c 38
       4.328524e-05 -1.6404205e-05 -2.9186496e-05 3.3494278e-05
