results/randomPositionRewardForApproach/CarFindGoal/CarFindGoal-2999975.pt (torch, 530875 bytes, 36 tensors)

network_body._body_endoder.seq_layers.0.weight f4 [128, 36]
00000000: afd3 e53d 865d 99bd 13b6 1bbe b3bb 63bd
00000010: 6e2f ac3d 4266 1cbe 77fa 243e bfc8 4abd
00000020: 1cad 393e f191 99bd 89f3 40be 93b2 713c
00000030: bb5e 63bd 0896 24be 564a 273e ec06 6cbc
00000040: 24db 0aba f018 5b3d fa5f e8bc 7104 4e3e
00000050: 50f7 a43e 2bb1 c7bd 4236 5cbe cba5 e23d
00000060: 50ba b7bd bf0a 183e 4390 49be 6b02 c9bd
00000070: b896 dfbd 94d2 67ba f21e 9cbd 04bc aa3d
00000080: 0725 41be bda9 ee3c 9419 9b3c d373 35be
00000090: 8f85 5ebe a506 efbc 68bd 99bd 2427 84be
000000a0: 13b0 65be 5b0d d13d 4478 bc3d e6ca b5bd
000000b0: 73e4 843d db8b 94be 30b8 463d 04e9 263e
000000c0: 9590 673e 17bf 213d e0e7 823c 9fac 0a3c
000000d0: b776 94bc 038e 8fbd 047b ac3e aa9d dfbc
000000e0: 1c40 b0bd 7696 1fbe 3624 85bd 5d75 883d
000000f0: db4e 8a3c abd6 dcbc 0d9a 2e3d b4f3 7f3c
00000100: 7fda bc3d 4faa 10bb 5e8e 2d3e 953d ddbd
00000110: e8ed 1abe 5b6a 1e3e 7912 823e 16f9 84be
00000120: a50f 4e3e 7fb2 263d 2b43 65be b673 54bd
00000130: 8c07 593e 4690 353e c821 a63e 82fb babd
00000140: ce86 3dba 1315 ffbb 9e26 23be b10d 41be
00000150: d459 92bd 27cd c3bd de1c 9f3e 24b3 21bc
00000160: 4b32 bebe 57b9 6d3e 0db0 13be c1a0 273e
00000170: a651 583e 51f4 b43d ea54 2b3d d7e4 f53d
00000180: 3cdd 07bc 57d2 bf3e ee08 c8bd a371 e9bc
00000190: ef94 a73c ede5 65bd f735 63bd b8a9 93bd
000001a0: 774b ed3d 9bab 14be 76a1 1a3c ba56 523a
000001b0: 2654 11be 17ef c2bd 34d1 f53d ff1c 44bd
000001c0: c847 fbbd 7a29 eebc 3672 06be 60a6 f53c
000001d0: c776 623e fa4e 7a3c e2bb 313e e807 91bd
000001e0: bb8a af3e 76d6 83bd 4bad ad3d 7f00 96be
000001f0: 639b 1ebe f3f1 abbd c3f1 a9bd 3485 933e
00000200: 604d 3ebe f322 4ebb d346 bdbc c869 013e
00000210: 0ed3 75bd 2db5 d5bd 1803 b0be 1e6c ee3c
00000220: 7f40 063e 3c7c 103e 5aa7 54bd a2ff 3bbc
00000230: b0de 213e 20c9 08be 48f1 523e 85bc 103e
00000240: b1ec 33bd 8001 25be 16c1 4c3d 75a6 e1bd
00000250: 9497 8dbd 811b 603e e462 0f3d 1b1e c03b
00000260: a1b9 f23c e009 183e c16a 0abe cd5f 8fbd
00000270: 36aa 18bd 7b47 55ba 2dda f63d e321 833e
00000280: 6293 85bd 1575 20bc 7b0b d4bd b0ad 0cbd
00000290: 99a1 b2bd 0d4f 18be 6533 df3c 5fa1 213e
000002a0: fbe5 dfbe 0816 1fbe 52fb 6e3e 0ab0 a83e
000002b0: 08b4 df3c 7822 97be b2c6 253e 4586 d9be
000002c0: 23ac 6f3d e7de bbbd 3a4a 08be 9544 2d3e
000002d0: 89c0 d03d 290a 053e 7631 ebbc a9f0 bc3d
000002e0: 9f0a 91bd eb7d 23be bce6 643b c0e8 083e
000002f0: 3751 c2bd 6885 01be 74c9 1d3e 26aa 23be
00000300: 7231 c4bd 9ddd cdbd 3325 693e bc6f 953e
00000310: 2254 9dbe ec17 383b d35d 543e af97 bbbd
00000320: c679 9fbc 0a64 3f3e d268 30be b777 603e
00000330: 4fdb 813d 6c65 33be f158 e93b 1dc8 123e
00000340: 9460 323d 4b5f 2a3d 5d9b 933e c80f 5fbe
00000350: 70f7 67bd 449b 15be 54b4 90be 0ee6 b63c
00000360: 2a62 9f3e f034 6e3e 524b e63d 4d13 abbd
00000370: f2d5 fe3d 75d9 953e 4254 183e 2b50 613e
00000380: 2d76 d2be 133d aebe aa13 883e 6f92 053e
00000390: 6b16 a7be ad2b 5a3d cb0c 16bd 870f aebd
000003a0: 7572 d8bd b47f b43e 144c d6bc a108 97bd
000003b0: 969c 3bbc 95ec 40be b3da fc3d c76f 6a3d
000003c0: 470e ccbd eab3 92be 0289 873e fe2f c2bb
000003d0: 661b 5f3e 7cc0 8f3d 81c0 8d3e 55c1 083b
000003e0: 0e8d cc3c 7cc6 81bd 6ef5 b1bd 77f7 02bc
000003f0: dd8e bc3d ba3a 46be 76ad 083e de0c 9e3e
0.11222016 -0.07488541 -0.15206175 -0.055598926 0.08407484 -0.15273383 0.1611117 -0.049507853
0.18132442 -0.07498539 -0.18842901 0.014752048 -0.055510264 -0.16072857 0.1633695 -0.014405947
-0.0005296937 0.05349058 -0.028366078 0.20118882 0.32219934 -0.09750589 -0.21505073 0.11066779
-0.08971083 0.1484785 -0.19683938 -0.09814914 -0.10917419 -0.0008843329 -0.0762309 0.083366424
-0.18861781 0.029133672 0.018933095 -0.17719965 -0.21730636 -0.029177973 -0.075068295 -0.25811112
-0.22430448 0.102076255 0.09202626 -0.088765904 0.06488886 -0.2901295 0.0485155 0.16299826
0.22613747 0.039488878 0.015979707 0.008464008 -0.018123014 -0.070095085 0.33687603 -0.02729686
-0.08605978 -0.1558474 -0.06501047 0.0666301 0.016883304 -0.02695783 0.042627383 0.015622068
0.09221362 -0.0022074168 0.1694884 -0.108027615 -0.15129817 0.15470259 0.2540472 -0.25971287
0.20123155 0.04069757 -0.22388904 -0.051868163 0.21194285 0.17730817 0.32447648 -0.091300026
-0.00072298653 -0.0077844947 -0.159327 -0.18852879 -0.071460396 -0.09560614 0.3107671 -0.009869371
-0.37147745 0.23215233 -0.14422627 0.16369916 0.21124896 0.08835662 0.041829027 0.12006538
-0.0082924925 0.37465164 -0.09767328 -0.028496569 0.02045676 -0.056127477 -0.055471387 -0.07210106
0.115866594 -0.14518587 0.009437909 0.00080237875 -0.14192256 -0.09518259 0.12002793 -0.047879215
-0.122695506 -0.029072512 -0.13129506 0.02998656 0.22115622 0.015277619 0.17356828 -0.07081586
0.3428553 -0.064373896 0.08480319 -0.29297253 -0.15488963 -0.083957575 -0.082980655 0.28812563
-0.18584204 -0.0031453937 -0.02310506 0.12638009 -0.06001573 -0.10434947 -0.3437736 0.029104289
0.13110541 0.14109892 -0.05191741 -0.011474522 0.15807605 -0.13357973 0.20599854 0.14134414
-0.0439269 -0.16113853 0.04998883 -0.11018077 -0.06913677 0.21885492 0.03500642 0.005862964
0.02962953 0.14847517 -0.13517286 -0.070006944 -0.0372717 -0.00081359566 0.120533325 0.2561179
-0.06522252 -0.0097935395 -0.10353752 -0.03434533 -0.087222286 -0.14873905 0.027246187 0.15784214
-0.4373015 -0.15535748 0.23338059 0.32946807 0.027307525 -0.29518485 0.16189077 -0.42485252
0.05851377 -0.091733746 -0.13309565 0.16920693 0.10192973 0.12992157 -0.028710108 0.0922559
-0.07082104 -0.15966003 0.0034927567 0.13370037 -0.09488147 -0.12648547 0.1540888 -0.15982875
-0.095797434 -0.10052035 0.22768097 0.2918681 -0.3072825 0.002809043 0.20738916 -0.09159791
-0.019467246 0.18690506 -0.17227486 0.21920668 0.06340658 -0.17519158 0.0071211983 0.1433415
0.043549135 0.041594785 0.2882947 -0.21783364 -0.05663246 -0.1461001 -0.2826258 0.022326495
0.3112958 0.23262382 0.11244835 -0.08353291 0.124431506 0.2926747 0.14875892 0.22003238
-0.41105786 -0.3403097 0.26577502 0.13044141 -0.3263429 0.05326431 -0.036633294 -0.08499055
-0.10568706 0.3525368 -0.026159324 -0.07374693 -0.011450907 -0.18840249 0.12346401 0.057235505
-0.09963661 -0.2865289 0.26471716 -0.0059261313 0.21787795 0.07019135 0.2768593 0.0020867188
0.024969604 -0.06336686 -0.0868939 -0.0079935705 0.092069365 -0.1935834 0.1334742 0.30869192

network_body._body_endoder.seq_layers.0.bias f4 [128]
00000000: a849 583c 8458 7cbb 7259 91bc 6497 13bc
00000010: 06bf ddbc 1571 ac3c 1f3a 20bc 28b8 41bc
00000020: 2864 28bc d86e 7b3c 4e24 1b3d b0c0 87bc
00000030: 9035 8e3b 054a 153d 16d7 a5bc 6990 0a3c
00000040: 51ee 173d 7b1d b5bc 9fca eb3b 3b85 ffbb
00000050: a1bd 6bbc 326a 223c 1ebf 8ebc 0250 1d3b
00000060: 648d 24bb 6c93 933c 1049 103d c96d 52bc
00000070: e3e7 b3ba fe04 e5bb 087d ecbc 84d9 91bc
00000080: f66a a6bc f1e6 d9bb 5b77 2c3d d8e3 193d
00000090: ec46 2f3a 4214 d43b 00d0 cb3b e9f4 c1bc
000000a0: 5698 bcbc f4a3 3f3c bc22 3eba ebe4 d83a
000000b0: 3c22 f43c 8850 1bbd 4c15 b9bc 2c0c a7bb
000000c0: dba9 2f3d ccac 15bc 37fc 613c e322 f23c
000000d0: 4bb2 82bc bc32 12bb ebb5 1dbd 60bc 183d
000000e0: 7350 ff3c 495d 5a3d 25a9 453d cc01 51bc
000000f0: bb28 fcbb 3c70 d83c 32ef 053d 2dac 113c
00000100: 6391 83bb 429d 95bc e55a 633b 67c9 fcbc
00000110: 6e00 323d 37c2 af3c 8a9f 0b3c c423 80bc
00000120: 5794 093d 0042 3d3c 82ff 47bc 81af 4b3c
00000130: c8f3 413c 0248 59bc ea49 363c 2759 413c
00000140: 3d13 94bc e5d0 b1bc b691 933c f1f6 07bd
00000150: d302 3e3d 3970 25bc 9e1e 83bc 1a1d 48bc
00000160: 4d9f f43c 8128 8b3d d2a9 34bd 7f0e a0bc
00000170: f871 4a3b 0778 8c3c 9756 3fbc 2cb0 323b
00000180: 1e09 173d ccfc b63b bc29 3abc 7d36 af3d
00000190: 35a0 98bb fb28 9a3c 3f1e f3ba a8a4 bbbc
000001a0: 7751 953c 687b 2dbc 511f f83b 91b4 6dbc
000001b0: cb73 0cbd 0cb0 a93c 7e64 dc3b 1e6b 64bc
000001c0: 368e 34bc dd63 d33c 7c13 973b cbc7 d6bc
000001d0: 16cc 35ba a54b d0bb 27ac 943c 689f 04bd
000001e0: e462 10bc 3710 d73c f3ae 24bd f9f3 173c
000001f0: e705 aa3c 8237 3d3d e26c edbc 3a24 943c
0.013201155 -0.0038504908 -0.017742846 -0.009008262 -0.027068626 0.021050015 -0.009779482 -0.011823691
-0.010277785 0.015346251 0.03787642 -0.016571373 0.0043398812 0.036447544 -0.020244163 0.008457282
0.03709251 -0.022108784 0.007195785 -0.0077978647 -0.014388473 0.009913014 -0.017425116 0.0024003987
-0.002510869 0.018014632 0.035225928 -0.012843558 -0.0013725724 -0.0069891205 -0.028868213 -0.017803915
-0.020314675 -0.006649845 0.042106014 0.037570804 0.00066862884 0.0064721415 0.006219864 -0.023676353
-0.023021858 0.011696804 -0.00072531006 0.0016547715 0.02980148 -0.037918597 -0.022593163 -0.0050978865
0.042886596 -0.009135436 0.013793043 0.02955765 -0.015954157 -0.0022308072 -0.03850357 0.037289023
0.03116629 0.05331162 0.048257012 -0.012756776 -0.007695285 0.026420705 0.032698818 0.008891148
-0.004015134 -0.018263463 0.0034691629 -0.030857755 0.04345744 0.021454914 0.008521924 -0.015642054
0.033588734 0.01155138 -0.012206914 0.01243198 0.011837907 -0.013261797 0.011126021 0.011801041
-0.01807558 -0.021706054 0.018013816 -0.033194486 0.046389412 -0.010097557 -0.01600581 -0.01221397
0.029861117 0.06794835 -0.044107266 -0.019538162 0.0030890685 0.017147077 -0.0116783595 0.002726565
0.03687393 0.005584335 -0.011362489 0.08555315 -0.00465777 0.01881837 -0.0018548443 -0.022905663
0.018227322 -0.010588504 0.0075720926 -0.014508382 -0.034290116 0.020713829 0.006725847 -0.013941554
-0.011020234 0.025804454 0.004610477 -0.026218316 -0.0006935013 -0.006356674 0.018148495 -0.032378584
-0.00881264 0.026252849 -0.040205907 0.009274476 0.020754768 0.046195515 -0.028982583 0.01808368

network_body._body_endoder.seq_layers.2.weight f4 [128, 128]
00000000: 08e7 82bb cf8d c3bd c9da ec3c ad07 4e3c
00000010: f354 ed3d 231f 4abe 6f09 193d 64f1 473d
00000020: 3232 5c3e 7bb5 01be daf4 adbd e603 8e3d
00000030: 43e1 a6bb 93cf 21bd 6fbf 06bc c30e dabd
00000040: 44e7 e63d b162 2fbc 3f34 d3bb 0ee6 95bd
00000050: f7e0 bf3d c0dc bcbd eea5 a8bd 9a95 6ebe
00000060: de04 8d3c aa55 eb3c b990 ed3d c39c 613c
00000070: 738b 383c 0d65 cb3a 7e8d cd3d 1766 2a3d
00000080: 1aad 73be c096 dabd 8ba0 e83d 1ed1 31be
00000090: 975c bcbd e73d fcbc a4b7 f2bb 0094 5a3d
000000a0: bf39 d2bc a81d 9d3c d84f 183e c87d 1cbd
000000b0: 97ea 68bd ca0a a6bd b8a1 a2bd 5116 cebd
000000c0: d30a 9fbd d218 083d d1be 8ebd 04c5 8e3d
000000d0: 0a2d d43d 275a 233d adf8 55bc a507 343e
000000e0: 2fa0 06bd 86da b33e 9c93 cfbd 9706 5dbd
000000f0: f879 1bbe 4ac9 9b3d a4ae 21bd 9f11 97bd
00000100: dd5b f2bd 54f4 cebd 2528 483e cd76 1a3e
00000110: e86b 9abc 1614 25be 97db d4bd 6c2f 353c
00000120: 6495 30be 9c4c 023d 195a 713b 317b 783d
00000130: deb8 a8bc 16e4 75bd 9519 8a3d 8a71 c9bd
00000140: 6927 3f3d c3a0 333d 791b 39bd 8d15 063d
00000150: c4e0 d4bd d917 873d 1943 23be 9257 653d
00000160: d3c0 6dbd 6ec0 e0bc 2bee 113e e6a0 bf3d
00000170: d13c 603c 1fcf 4abe 99be e93d 17ff 8f3d
00000180: 35eb 72bc 9720 e7bd d372 3c3e 3fea 963d
00000190: 619a f73d 68e0 083d 4bce a7bd 92a2 d03d
000001a0: da00 a73c 1c22 513d 2c33 c33d 7d61 763c
000001b0: d5d2 bbbc c620 663d ca60 6fbd 7dd5 d43d
000001c0: 5693 04bc 60b0 2bbe c2c5 e4bc be93 353c
000001d0: 7bf5 233d 9a7f 3d3d d734 3c3e c00d 11bd
000001e0: 56dd 1c3e 628c e83c f5a3 a43c f285 c63d
000001f0: 0244 6d3c 0d79 423d 5dde 223d a012 c23d
00000200: eca7 e0bd 0386 73bd 9109 abbd 3dae 963c
00000210: 9727 663d d0b2 6ebe fb2b 17bd 4077 25be
00000220: 75a3 02be b110 eebc db09 f5bc 968d 393d
00000230: 40a4 89bc 8dc8 3dbe 1d7e d8bd 2ae2 033b
00000240: b5a4 333b 10f5 42bd ea58 6bbc 634f dbbb
00000250: 316c c53d 9683 fa3d 4e99 ae3d 3b49 10be
00000260: 267d 0fbd f250 2abe 46ce 893c eecc 02be
00000270: 67a2 69bd e141 a5bc f768 693d 9016 21bd
00000280: d3cd eabd 858b 96bd 237f eb3d 3602 c13d
00000290: 8018 d4bb a728 ec3d 60fb 9cbd 7fef b0bd
000002a0: 268e a4bd 7738 faba 14c8 45bc cd41 46bd
000002b0: 49f5 203e c13a 56bc 7a3c f33d c805 6a3c
000002c0: 2f0b b1bd 9918 80bd 9983 0dbe 414f 1fbe
000002d0: 8976 15bd d354 bb3d 7bbd 5abe 4edf d8bd
000002e0: 294b 323e bfaa 72bd 6e97 353c b3b4 6fbd
000002f0: 5622 433e 99f3 aabd 5834 9ebb f55b 4d3d
00000300: 3212 ec3d d332 0ebb 80b8 3d3d a25e 0f3c
00000310: 8691 793c e9ad ecbb 74b1 f4bc f14a acbe
00000320: 457c 933d 784e 20be 052e 4b3e 6c42 573d
00000330: eb2c 0a3e 4a81 f93d 843a 963d 1858 b53d
00000340: 614b c7bd 39b5 403e 7c9f 87bd d16c e83c
00000350: 29a6 05be 6893 b63d f149 913d 0032 6f3d
00000360: 720c 2abd d900 853d 2abe 44be b88e 143e
00000370: 3779 98bd ebb1 84bd a21d 80bd 1216 63bd
00000380: 844c 27be f91a fd3c 84f2 c63c a734 9fbd
00000390: de1a 20be 7721 523e 5015 3d3e a8df 093e
000003a0: b62d 343e 1294 8abc bfcd 1d3c 715b 803d
000003b0: f1e1 b93c 7655 70bd 1705 8ebd ec89 3c3e
000003c0: 1546 0abd 3f7b 813d 559b 17bc 42e3 f3bc
000003d0: d525 9a3c 3912 383d 9058 103d d786 323d
000003e0: 9fa2 233d a767 bd3d 9ff0 413c 01c7 b93d
000003f0: 1a3a 5e3d 7a3e d3bd 3768 3e3d e810 163c
-0.003994826 -0.09548532 0.028912919 0.012575072 0.115884684 -0.1973844 0.037362512 0.048814192
0.21503523 -0.12666886 -0.08493967 0.06934337 -0.0050927713 -0.0395046 -0.008224352 -0.10647347
0.11274579 -0.010704682 -0.006445437 -0.0731927 0.093690805 -0.09221792 -0.082347736 -0.23299256
0.017214235 0.028727371 0.11599869 0.013770285 0.011263716 0.0015517786 0.10036753 0.041601267
-0.23796502 -0.106732845 0.11358746 -0.17364928 -0.091973476 -0.030791236 -0.0074071456 0.0533638
-0.025662301 0.01917918 0.14874208 -0.03820589 -0.056864347 -0.081075266 -0.07941002 -0.1006285
-0.077657364 0.033226795 -0.06969989 0.069711715 0.10360153 0.039880898 -0.013059777 0.17581041
-0.032867607 0.35127658 -0.10135576 -0.053961363 -0.15183246 0.07606752 -0.03947319 -0.07376408
-0.11833928 -0.10105196 0.19546564 0.15084381 -0.018850282 -0.16120943 -0.10393446 0.01105867
-0.17244488 0.03181134 0.0036827384 0.06066436 -0.020595964 -0.060031973 0.06743161 -0.09836109
0.046668444 0.043854486 -0.045192216 0.032735396 -0.10394433 0.065963455 -0.15943564 0.055991717
-0.05804522 -0.027435508 0.1425101 0.09356861 0.013686375 -0.19805573 0.11413307 0.070310764
-0.014826586 -0.11285513 0.18403177 0.07368898 0.12089992 0.033417135 -0.08193644 0.10187258
0.020386148 0.05105792 0.09531245 0.015037891 -0.022927681 0.0561836 -0.058441915 0.10392282
-0.008091768 -0.167665 -0.02792633 0.011082588 0.04002903 0.04626427 0.18379532 -0.035413504
0.15318808 0.028387252 0.020097712 0.09693517 0.014481546 0.047478724 0.039762843 0.09476209
-0.109695286 -0.059453975 -0.08351434 0.01839363 0.0561901 -0.23310399 -0.036907177 -0.16158772
-0.12757666 -0.029060693 -0.029911926 0.045301042 -0.016801953 -0.18533535 -0.10570929 0.0020123818
0.0027411405 -0.04759699 -0.0143644605 -0.0066928132 0.096397765 0.12232129 0.08525334 -0.14090435
-0.03503146 -0.1663244 0.016821992 -0.12773487 -0.057039645 -0.020173015 0.056984868 -0.039328158
-0.11465039 -0.0735083 0.11498859 0.0942425 -0.006472647 0.11531191 -0.076651335 -0.0863943
-0.08034925 -0.0019090314 -0.012071628 -0.048402596 0.15718569 -0.013075531 0.11876769 0.014283605
-0.08644711 -0.06254692 -0.13819732 -0.15557577 -0.036489997 0.09147038 -0.21361344 -0.10589467
0.17411484 -0.059244867 0.011083467 -0.058521938 0.19056067 -0.08347244 -0.004828017 0.050136525
0.11526908 -0.0021697774 0.04631853 0.00875059 0.015232449 -0.00722288 -0.029869772 -0.33650926
0.07201437 -0.15654933 0.19841774 0.05255358 0.13493697 0.12182863 0.0733538 0.08854693
-0.09731174 0.18819131 -0.06622216 0.0283722 -0.13051666 0.08914834 0.07094181 0.058397293
-0.041515775 0.06494302 -0.19213167 0.14507568 -0.07444995 -0.06479248 -0.06255652 -0.05544097
-0.16337782 0.03089665 0.024285562 -0.077737145 -0.15635249 0.20520578 0.18465161 0.13464224
0.17595562 -0.016916309 0.009631573 0.06267441 0.022690745 -0.058675252 -0.069345646 0.18411988
-0.03375824 0.063223355 -0.009253343 -0.02977145 0.018816868 0.044939253 0.03524071 0.043585625
0.03995001 0.09248286 0.011837154 0.0907116 0.05425463 -0.10314651 0.046486106 0.009159304

network_body._body_endoder.seq_layers.2.bias f4 [128]
00000000: 2f20 0c3a acbd 043d ec3d b03c d688 d53b
00000010: 3bca 873c 4eb0 9c3c a09d 51bc 8ffb e73b
00000020: 5b72 143c ada5 0a3d 43f8 c23c ded9 9e3c
00000030: 6799 10bb 8a7c 233a 10b4 293d cf2a 153c
00000040: 7b05 70bc 336b 41bc 2fca 29bc a9eb 053b
00000050: d237 203d 43fc 113d 5ef9 fcbc 65ff c9bc
00000060: 6f43 e9bb f5b3 493c 53e1 7b3c ffdc a0bc
00000070: d067 59bc 020f 44bb 3162 49bc f7e9 a33c
00000080: e2b5 773c 39dc e13b af31 273b c37e b33b
00000090: 0959 b53c 9685 b43c 6363 cf3c c6b2 ddbc
000000a0: b61e 823c ba90 363c de5a f83c 73b0 9e3a
000000b0: c347 eebc 20ee b73b 4259 b7bc b06f cbbc
000000c0: 9f79 a03c 6294 323b 7c92 1cbb 4256 ed3c
000000d0: 031c 2f3c 3945 44bc b491 13ba 4571 9abc
000000e0: f201 71bb d63d 6b3c 68d3 c6bc e569 b33a
000000f0: aaae c3bb 02f5 9f3c 2dc2 bab9 fdc4 b73c
00000100: 0fd8 b13c bb9f 52bc 75e3 f43c 6505 543c
00000110: 9cdc ed3b bfd2 043d 77ce 87bb 9a9d 8bbc
00000120: ddd5 b0bc 03f7 203d 2293 3dbc 3559 373c
00000130: 732c ac3b 8fec d2bb 5460 e0bc 50e4 343b
00000140: a39a 7dbb 9f9a f4bb 3a10 a8bc 79bd c53c
00000150: d0d5 79bc 309a de3b daff 2c3c 9690 22bc
00000160: 9b36 84bb 330a 8139 39e8 ce3a 33c2 48bc
00000170: f838 533b 5728 57ba 3ef0 debc d067 b0bb
00000180: 6779 353c e474 213b 014e 2ebc ea4e 833c
00000190: 137f 75bc 5003 e23c efe3 0ebc c04a 75bc
000001a0: 8e3d 95bc 8a63 0dbd ae18 8ebc 090f 89bc
000001b0: b669 96bc 1cb0 09bd 826a a3bc 2e27 67bc
000001c0: 956b 77bc 6ccd f53c a127 94bc ff29 7abc
000001d0: dbaf 1a3d e584 3ebb c37e 823c da58 3ebb
000001e0: d46d d4bb 977e 2a3c 6da8 2f3c 2c82 913c
000001f0: b20c ddbb 6c49 21bc 4d96 a3bc 9c35 e43a
0.0005345372 0.032407448 0.021513902 0.0065165563 0.016575923 0.019127037 -0.012793928 0.0070795487
0.009060468 0.033849407 0.023800021 0.019390997 -0.0022064091 0.00062365143 0.041431487 0.009104445
-0.014649744 -0.011805343 -0.010363146 0.0020434654 0.039115734 0.035640966 -0.030880626 -0.024657914
-0.0071186344 0.0123109715 0.015373546 -0.01963663 -0.01326938 -0.0029916172 -0.012291477 0.020009024
0.015119048 0.0068927077 0.0025511791 0.0054777577 0.022137182 0.022036355 0.025315946 -0.027062785
0.015883785 0.011142904 0.030316766 0.0012107029 -0.029086953 0.0056131035 -0.022381429 -0.02483353
0.019589243 0.0027249088 -0.0023891022 0.028971795 0.010687831 -0.011979395 -0.00056293164 -0.01885284
-0.003677484 0.014358005 -0.024270728 0.0013688175 -0.0059717493 0.019526009 -0.00035621357 0.022432799
0.02170947 -0.0128554655 0.029893616 0.012940739 0.0072589647 0.032427546 -0.0041444856 -0.017042924
-0.021586353 0.03929807 -0.011570724 0.011190702 0.005254322 -0.0064368914 -0.027389683 0.0027601905
-0.0038696907 -0.0074647213 -0.02051555 0.0241382 -0.015248731 0.006793283 0.010559047 -0.009922167
-0.00403483 0.00024612396 0.001578576 -0.012253332 0.003223 -0.000820761 -0.027214166 -0.005383469
0.011076308 0.0024636323 -0.010638715 0.01602884 -0.01498391 0.02758947 -0.008721336 -0.014971435
-0.018217828 -0.034518756 -0.017345753 -0.016730802 -0.018360954 -0.033615217 -0.019948248 -0.014108462
-0.015101333 0.03000518 -0.018085303 -0.015268802 0.037765365 -0.002907091 0.015929585 -0.002904466
-0.006482819 0.010406158 0.010721308 0.017762266 -0.006745898 -0.009844165 -0.01996913 0.0017410996

action_model._continuous_distribution.log_sigma f4 [1, 2]
00000000: f962 813e ae88 6b3e
0.25270823 0.23001358

action_model._continuous_distribution.mu.weight f4 [2, 128]
00000000: 3a9f 5dbd 2cb0 a0bc 97df 36bc d134 2d3c
00000010: ee20 f6bc 95d7 f6bc 9b00 3c3d e859 39bd
00000020: cfed 27bd e41a cf3b f942 35bd 4d71 96bc
00000030: f564 babc a706 0b3c 8028 553d fb7b b8bc
00000040: a14c e73c 20f1 22bc 10ee de3c 1608 2d3c
00000050: 3201 43bc 67c1 efbd 8895 ad3c 84fc 133c
00000060: 2d23 cf3b e357 b3bc 26dc f53c 6e64 113d
00000070: 8bab 793d 310f 8dbc dbb3 e3bb 82d2 163c
00000080: 4261 46bb a087 7fb9 dcd0 ffbc c048 533c
00000090: ddc1 a9bc 9563 36bd 5db1 9d3b c11f f93b
000000a0: 75e9 aebc 03af 0fbd 5c81 e9bb d3ae e73b
000000b0: a8ae 283c d51b 17bd a85c 36bb 34bc ff3c
000000c0: fe65 453c 915c e7b9 6115 bf3a bd74 d6bb
000000d0: 1998 2fbc 6eb4 853c ef94 cdbc f33f e53c
000000e0: 906c 2ebd f593 7fbd b040 593c 6420 7abb
000000f0: d81b fc3c bd23 163c 42f5 2a3c 08f2 9b3c
00000100: 82bc 48bd 5b74 e8bb b7b7 adbc d823 853c
00000110: 0d12 c63a 4de1 96bd 3517 07bd 2075 dbbb
00000120: cfd8 c3bc 5298 b9bd b31b 82bc febf 0abc
00000130: d82c ba3b 2341 d63b 066f 75bc 8afc dd3b
00000140: aa5c 123d 1adc 823d 50f5 df3c b7cd 36bd
00000150: 57be 19bb 88aa 2cbc a9c2 bfbc 301f 223d
00000160: 1feb 06bd 3fb3 c3bc 81ae 6ebc dc7d ac3c
00000170: 456a b3bb 5177 c8bc 46e9 26bc b74a bb3d
00000180: a33f f0bb 073f f7bc b5ac e83b b912 51bd
00000190: 63b0 623d d6c1 d2bc 87c8 8f3b 3edf cb3c
000001a0: bdd5 443d baa6 b03c a4a6 9c3c a030 8f3c
000001b0: 3e40 353c 5d9e f7ba 06f7 843c 7ffa 41bc
000001c0: 4dc8 bc3c 6393 f9bc d46b 6f3d 6164 483a
000001d0: aa52 c2bd 34ea 0fbc a50e 073c dbcd 883c
000001e0: fa8b d1bc fbbc 48bb 9ecc 2c3c 85e5 dfbc
000001f0: e34a a93a d8e7 68bc 2568 4d3c 87c0 66bc
00000200: 04b4 f1bc d04d 3a3c a58d a4bb 1aee 343d
00000210: 3cea 81bc 5be2 d13c f260 06bd 96a6 a2bc
00000220: 97e4 3dbd 9505 e73c d715 653c 68d3 443d
00000230: 5536 27bc 9668 043d 2274 443d 7941 92bc
00000240: 8a22 07bd 7015 f5bc 575b 043d 2718 4d3c
00000250: f42d cf3c ad35 a6bb 1ea3 c13b f34a 8dbc
00000260: 65ab 943c 30a5 c83c f99f 3e3d 9bb8 dcbc
00000270: d93a 52bb 4e7d 5dbc 9588 f2bc 8ad2 2c3d
00000280: 88e7 9abc d1e6 523c aebe 3fbb d31b a13a
00000290: 4045 d63c bf9e d0bc 93ba bf3c 7e82 9abc
000002a0: eb99 963c ef3d 183c d743 4d3b 0b6f 313c
000002b0: 8e14 bbbc 9366 10bc 2ae7 02bd 1703 89bc
000002c0: b265 ef3c e831 9fbb f5f3 dcbc 6e00 e13c
000002d0: 039d 823c 8b04 89bc 2ae4 74bc 389f abbb
000002e0: a1f9 c3bc dd91 363c a83d 58bc 6ada 4c3c
000002f0: d309 2b3d 1995 513d 4ba1 bd3c c67d 803c
00000300: b6ef 1c3d e9e3 a3bc b099 983c 75a7 d83c
00000310: 86b8 fcba e715 073c a30c 6cbc 12ad 56bd
00000320: a0cf 0fbd bbc2 1a3a 1b04 a9bc b526 f83c
00000330: 546f 9b3c 1021 25bd 84c7 b8bc 18a2 1b3d
00000340: 1c71 473c eba1 243c 2b54 febc 6ab7 893c
00000350: a784 36bc 239c acbc fb49 11bc 0591 ad3c
00000360: bc4c 32bd 8fc7 88ba 9ba3 01bd 11f9 773b
00000370: 8bf1 32bc 7101 82bc 9a91 0dbd 890a 563c
00000380: bd0a 0e3d 5dcf 48bc 776f 9f3a 7bed b53b
00000390: 558e dd3c f142 273d c3d0 3ebd b617 5dbc
000003a0: b595 6c3c a199 c4bc 93e3 17bc 4ef0 59bd
000003b0: 2771 4cbd f1e2 52bb 7ed3 9dbc 8d00 f0bc
000003c0: 8026 a83c b34b 9b3b 9d52 10bd 0f93 90bc
000003d0: 532f 8e3c 06a7 c5bc 1437 243d 9a91 943c
000003e0: 5484 f1bc 84b3 6bbc 3cba a03b 6969 753c
000003f0: 801c 1a3c 8608 f0bc c168 fbbc ad4d f5bc
-0.05410693 -0.019615255 -0.011161706 0.010571674 -0.030044999 -0.030132094 0.045899015 -0.045251757
-0.040998276 0.0063203443 -0.044253323 -0.018364573 -0.022753218 0.008485473 0.052040577 -0.022520056
0.028234782 -0.009945184 0.027213126 0.01056101 -0.01190214 -0.117068104 0.021189466 0.009032372
0.006321332 -0.021892494 0.030012202 0.035496168 0.06095461 -0.017219158 -0.0069489307 0.009205462
-0.0030270373 -0.0002436922 -0.031227522 0.012895763 -0.020722324 -0.044528563 0.004812403 0.0076026623
-0.021351555 -0.035079014 -0.0071260165 0.007070401 0.010295548 -0.036891777 -0.0027826224 0.031217672
0.012048243 -0.0004412872 0.0014578515 -0.006544678 -0.010717415 0.016321387 -0.025095431 0.027984595
-0.042584002 -0.062396962 0.013260052 -0.003816628 0.030774996 0.009163794 0.010434451 0.019036308
-0.0490079 -0.007093949 -0.021205766 0.016252443 0.0015111581 -0.073671915 -0.032981116 -0.006697312
-0.023907093 -0.09062256 -0.015882349 -0.008468626 0.0056816153 0.0065385266 -0.014980083 0.00677449
0.035732903 0.06389637 0.027338654 -0.04462978 -0.0023459399 -0.010538705 -0.02340825 0.039580524
-0.032939073 -0.023889182 -0.014567972 0.021056108 -0.005475315 -0.024470957 -0.010187453 0.0914511
-0.007331805 -0.030181421 0.0071006664 -0.051043246 0.055343997 -0.025727194 0.0043879184 0.024886724
0.0480554 0.021563876 0.01912243 0.01747924 0.01106268 -0.00188918 0.016231071 -0.011839508
0.02304473 -0.030465787 0.058452442 0.0007644352 -0.09488423 -0.008783866 0.008243238 0.016699722
-0.025579441 -0.003063022 0.010546831 -0.027331123 0.0012915995 -0.014215432 0.012537037 -0.014083988
-0.029504783 0.011371091 -0.005021768 0.044172384 -0.015858762 0.02562063 -0.032807298 -0.019854825
-0.04636058 0.028200904 0.013982258 0.048053175 -0.010205825 0.032326303 0.047962315 -0.017853485
-0.032991923 -0.029917449 0.03231367 0.012517965 0.025290467 -0.0050723166 0.0059093377 -0.017247653
0.018148134 0.02449283 0.04653928 -0.026943495 -0.0032078533 -0.0135186445 -0.029606143 0.042192973
-0.01890923 0.012872414 -0.002925794 0.0012291617 0.026156068 -0.025466321 0.023404395 -0.018861052
0.01838394 0.00929211 0.0031320953 0.010829697 -0.02283695 -0.008813518 -0.031958736 -0.016725106
0.029223297 -0.004858244 -0.026971797 0.027466025 0.01594401 -0.0167258 -0.014946977 -0.005237486
-0.023922743 0.011143175 -0.013198294 0.012503246 0.041757416 0.05116758 0.0231482 0.015684973
0.038314544 -0.020006137 0.018627971 0.026447037 -0.0019281066 0.008244968 -0.01440731 -0.052411146
-0.035110116 0.0005903651 -0.02063184 0.030291894 0.018973984 -0.040314734 -0.022556074 0.03799638
0.0121729635 0.01004837 -0.031045994 0.016811091 -0.011140025 -0.021070546 -0.008867736 0.021187315
-0.04353021 -0.001043545 -0.031650167 0.0037837664 -0.010921846 -0.015869828 -0.034562685 0.013064035
0.03467821 -0.0122564705 0.0012163956 0.0055519915 0.027045408 0.040835325 -0.04658581 -0.013494423
0.01443999 -0.023999037 -0.0092705665 -0.053207688 -0.049912598 -0.0032178725 -0.019265886 -0.029297138
0.02052617 0.0047392487 -0.035235036 -0.017648248 0.01735655 -0.024127495 0.04009159 0.018135834
-0.029482044 -0.014386062 0.0049050134 0.014978745 0.009406209 -0.02930094 -0.030689599 -0.029944265

action_model._continuous_distribution.mu.bias f4 [2]
00000000: 15c7 b5bc f2b8 6e3c
-0.022189656 0.014570462

exp_avg f4 [128, 36]
00000000: bc4c 2e37 8cdd aab5 8e5c 2238 b2a6 4b38
00000010: 5905 1eb8 162b 0cb7 1252 c738 6504 6a38
00000020: 425c fc37 3fb6 9036 ff08 5037 767e 1e38
00000030: 446a a136 1bfe 3c35 e101 3538 1407 3e38
00000040: 9f69 2138 9421 f7b2 cada 2137 c6c9 1d38
00000050: 33c2 bd36 2f04 b635 85df 2538 d21c 4738
00000060: 8d1e 4538 f907 8ab4 3713 fb35 400d 3838
00000070: 0432 9736 da5d abb5 2222 2438 9983 4d38
00000080: 7b46 6a38 4cb2 b1b4 fcfa dfb6 ed71 da37
00000090: 4f1c 3137 2d82 5836 befe 82b8 86be 42b8
000000a0: e5f9 0a38 14f8 5fb7 5a4e 8fb8 0481 37b8
000000b0: ac3b 66b7 7409 2037 256c 2fb8 7c99 4eb8
000000c0: 6421 5ab7 015d eb35 3333 1db8 ca03 26b8
000000d0: d13a bfb6 bfd9 56b5 75ac 22b8 f353 32b8
000000e0: 6842 1bb8 fcf1 deb4 929b 1db7 f3f0 16b8
000000f0: 6123 c8b7 43d2 fcb4 6bae b6b7 b70a 36b8
00000100: 2b5c 16b8 0ff7 4735 5fa5 53b7 a161 12b8
00000110: 2ae7 20b8 c949 5535 708e deb6 6db7 aeb7
00000120: e9fe 8437 36dc e8b5 9480 dc36 9d8e 6737
00000130: 62b1 bc37 05b3 7437 da21 95b7 f523 0837
00000140: 1de9 8937 d806 45b7 35c3 7037 e830 b137
00000150: 2436 f3b6 d2c4 41b5 c97f e437 5733 b137
00000160: e099 d236 3d33 2035 0e6a 3d37 71f4 8937
00000170: e771 6a37 e260 32b2 ea3f c936 8d47 8137
00000180: 2655 9237 ef89 2135 9a7c c534 cca3 5f37
00000190: 99be 8137 7952 b6b4 f450 3537 248a 4a37
000001a0: ed33 8f37 6312 adb4 bc8a 6234 1370 20b6
000001b0: 6463 4c37 a5a3 e7b5 d482 8535 83df 9e36
000001c0: 715c d8b7 532f 2f36 2022 1238 ceff 3037
000001d0: 020f fe37 480a ecb7 e57f eb36 b46a a937
000001e0: de6e 12b6 5ba0 05b6 622b 8637 7e5e 1a37
000001f0: f969 8136 7c85 b535 3775 4636 6b6d 0236
00000200: 3496 4b35 66d0 3535 b2bf 1337 2169 1837
00000210: e13c 1038 9d0d 4335 9caf dab7 7d77 d435
00000220: 8e19 08b7 a1ed 25b5 eb7e c037 5b08 1337
00000230: 5e5a 1237 d8d9 28b5 50bd cf33 6bda adb6
00000240: f44d 53b7 8b31 4836 32d9 be38 8f1f b438
00000250: fcaf 38b8 e8ae cfb5 5744 0639 0720 b138
00000260: 9812 0b37 f110 2838 561f 0438 5b7b 5f38
00000270: c2cf 0438 f664 7a36 f160 4338 f859 8538
00000280: bdaf 6138 88e9 1bb6 41b4 0738 7212 a138
00000290: 90b5 dd37 bb73 9f35 791e 5238 abd9 8f38
000002a0: 689a ef36 bd8d 08b5 332f 9e38 3fb0 af38
000002b0: 1387 9f37 3b4a 89b4 e910 5138 caae 9e38
000002c0: 08a6 a338 65e1 2f35 9f01 ab36 5d2e 9838
000002d0: d9d4 43b8 c2b7 1637 e48b 65b9 b116 70b9
000002e0: 463b 7f39 4588 a3b7 7c71 fdb9 fe14 83b9
000002f0: 1329 5db9 acfc de38 e180 0ab9 b6ad 8ab9
00000300: 644b 40b8 a662 c935 2020 62b9 1cb1 59b9
00000310: e641 03b9 2a0e 17b6 062f efb8 c2b9 44b9
00000320: ac68 d5b8 8186 a2b6 9c5f 0cb9 a2a6 60b9
00000330: 133f 86b9 edb9 61b5 4baa 4337 eeff 5ab9
00000340: 3ae5 68b8 a201 9236 fce8 42b9 ec3c 69b9
00000350: 833d 87b9 7ecd 3636 5b50 7c37 2669 dfb8
00000360: 86d6 08b7 f164 ae35 48e0 f4b6 08e2 6db7
00000370: 9ffa f8b7 6003 28b6 80c8 9d37 e5e7 10b7
00000380: b3af 8237 df76 80b7 94ed 7bb7 1923 d4b6
00000390: 47a8 d136 1c8d 8ab5 a21b 9bb7 5ff3 98b7
000003a0: 9ab8 5a36 aa6d 9235 bfdc a1b7 2147 9ab7
000003b0: 0d80 9eb7 9734 d2b3 5afc 9036 c2e5 ffb6
000003c0: c3a3 7b37 35ab 10b4 5854 f5b7 3da3 89b7
000003d0: e9a1 feb7 1270 e3b3 4f39 7937 1367 16b6
000003e0: e936 02b7 4666 96b4 888a bdb6 fb49 2db6
000003f0: c89b f3b7 46c1 3136 12b6 8537 688f a0b5
1.0389074e-05 -1.2730466e-06 3.8710008e-05 4.855422e-05 -3.7675116e-05 -8.354682e-06 9.504346e-05 5.579404e-05
3.0083702e-05 4.3127507e-06 1.2399861e-05 3.778791e-05 4.810545e-06 7.040523e-07 4.3155513e-05 4.5306122e-05
3.848376e-05 -2.8769854e-08 9.647289e-06 3.7619633e-05 5.6552467e-06 1.3561274e-06 3.9547234e-05 4.747214e-05
4.6996913e-05 -2.5710304e-07 1.870655e-06 4.388136e-05 4.5059733e-06 -1.2767807e-06 3.9132436e-05 4.899837e-05
5.5855588e-05 -3.3098547e-07 -6.6751363e-06 2.6040676e-05 1.0556613e-05 3.226228e-06 -6.2463325e-05 -4.6430643e-05
3.3134496e-05 -1.3349596e-05 -6.8333655e-05 -4.3750755e-05 -1.3722962e-05 9.538944e-06 -4.182397e-05 -4.925717e-05
-1.3001587e-05 1.7535932e-06 -3.74794e-05 -3.9581013e-05 -5.6990907e-06 -8.0038075e-07 -3.8784423e-05 -4.251669e-05
-3.7016725e-05 -4.152679e-07 -9.394151e-06 -3.598719e-05 -2.3858332e-05 -4.7091643e-07 -2.177731e-05 -4.340216e-05
-3.5848625e-05 7.4492795e-07 -1.26150835e-05 -3.4900037e-05 -3.836226e-05 7.9456055e-07 -6.6326975e-06 -2.082783e-05
1.5854328e-05 -1.7349437e-06 6.5714794e-06 1.3801878e-05 2.2493947e-05 1.4585215e-05 -1.7777948e-05 8.114604e-06
1.6440224e-05 -1.17437085e-05 1.4350565e-05 2.1122818e-05 -7.248267e-06 -7.2184514e-07 2.7239223e-05 2.1123951e-05
6.276401e-06 5.9679206e-07 1.1289971e-05 1.64455e-05 1.3974007e-05 -1.0382992e-08 5.9977074e-06 1.5411317e-05
1.7444207e-05 6.0177894e-07 3.678477e-07 1.3329973e-05 1.5466752e-05 -3.3960148e-07 1.0807289e-05 1.2072302e-05
1.7071108e-05 -3.223714e-07 2.1098361e-07 -2.3907094e-06 1.2182489e-05 -1.7258468e-06 9.947348e-07 4.734787e-06
-2.5792253e-05 2.6104578e-06 3.4840894e-05 1.0549977e-05 3.0286148e-05 -2.813818e-05 7.0184346e-06 2.0196057e-05
-2.1820229e-06 -1.9911884e-06 1.5994246e-05 9.201116e-06 3.8568364e-06 1.35244e-06 2.9572527e-06 1.94352e-06
7.584197e-07 6.7731014e-07 8.806515e-06 9.084383e-06 3.4388973e-05 7.266297e-07 -2.60694e-05 1.5830007e-06
-8.112182e-06 -6.1813085e-07 2.2947284e-05 8.763828e-06 8.723318e-06 -6.290188e-07 9.6736244e-08 -5.181229e-06
-1.259473e-05 2.983116e-06 9.100362e-05 8.588947e-05 -4.4032917e-05 -1.5473606e-06 0.00012804694 8.445983e-05
8.289375e-06 4.00701e-05 3.1500436e-05 5.3282227e-05 3.1664742e-05 3.731167e-06 4.6581907e-05 6.358692e-05
5.380785e-05 -2.3232733e-06 3.2354383e-05 7.680514e-05 2.64298e-05 1.1880105e-06 5.009628e-05 6.859315e-05
7.1407303e-06 -5.0870204e-07 7.542819e-05 8.377479e-05 1.9017176e-05 -2.5572248e-07 4.9845232e-05 7.566584e-05
7.8033714e-05 6.552057e-07 5.096386e-06 7.256561e-05 -4.6689853e-05 8.983481e-06 -0.00021891255 -0.00022896637
0.00024340776 -1.949457e-05 -0.00048340473 -0.00025001907 -0.00021091504 0.00010632849 -0.00013208717 -0.00026450836
-4.584658e-05 1.5004377e-06 -0.00021565007 -0.00020760711 -0.00012517683 -2.2508998e-06 -0.00011405167 -0.00018761217
-0.00010176128 -4.8436345e-06 -0.00013387058 -0.0002142438 -0.00025605466 -8.408959e-07 1.1662555e-05 -0.00020885441
-5.5526594e-05 4.351329e-06 -0.00018588075 -0.00022243307 -0.00025795036 2.7239726e-06 1.503908e-05 -0.00010653054
-8.156179e-06 1.2993388e-06 -7.2978764e-06 -1.4178928e-05 -2.9680608e-05 -2.5035915e-06 1.8809224e-05 -8.637061e-06
1.5579024e-05 -1.5314143e-05 -1.5016081e-05 -6.3221783e-06 6.2482754e-06 -1.032287e-06 -1.8490307e-05 -1.823314e-05
3.2591984e-06 1.0909764e-06 -1.9295489e-05 -1.8391353e-05 -1.8894696e-05 -9.788453e-08 4.320912e-06 -7.6263395e-06
1.4998895e-05 -1.347333e-07 -2.9245552e-05 -1.6407686e-05 -3.0354555e-05 -1.0590897e-07 1.48549e-05 -2.241174e-06
-7.761389e-06 -2.801409e-07 -5.648766e-06 -2.5822071e-06 -2.9040399e-05 2.6487555e-06 1.5939619e-05 -1.1962666e-06

exp_avg_sq f4 [128, 36]
00000000: adc1 5532 2128 b02f 145c 1531 8f31 1032
00000010: 1e0b 3932 aeaf c52f 66a8 8631 2ec1 1a32
00000020: 41fb 5b32 1158 dd2f 5cbc 1c31 e161 1232
00000030: fa4f 3232 8463 352f b45d 9331 152e 2632
00000040: 1ad0 3132 07a6 652f 4258 9b31 e7a3 2532
00000050: 5889 4232 a6d7 582f e423 6531 0850 2232
00000060: 34eb 2232 bdd6 d52f 76c4 bf31 0a78 2832
00000070: a210 2532 c894 3030 6ef4 a931 d9f8 2232
00000080: c9b6 2232 acca fd2f 48e0 b131 e21b 2132
00000090: 314b e532 619d 4131 9665 c232 7a00 2e33
000000a0: d635 1833 1cd3 1231 87fc 8032 8a0f 1333
000000b0: 7806 c732 64a5 4330 f63b 0233 967c 4333
000000c0: bab9 2a33 9f8c cc30 ea7b 4d32 643d 0333
000000d0: 187c 8732 6336 0d30 5c18 1d33 2de6 4733
000000e0: e78e 2733 71f0 b82f 09d5 5f32 44ac f332
000000f0: f38c 8232 984c 1730 12d6 2033 74d0 3f33
00000100: fbb4 3933 a7db ac30 7749 1932 0476 cc32
00000110: 561a 8832 3bcc 0731 1fae 1533 61ee 3333
00000120: 1a33 6f32 cf89 ef2f 29f8 0c31 e228 1a32
00000130: 41fa 5932 1e6f e12f 1b71 4e31 10ea 1832
00000140: 6244 5232 7a51 5f30 b4a4 7131 ac3d 2532
00000150: b58d 4b32 a9fb b72f d9ac 7231 1861 1d32
00000160: a949 0c32 3118 7c30 88a5 e031 d423 4032
00000170: a935 5732 7241 0a2f bf86 5b31 cf21 1732
00000180: 2ff0 0432 44e9 2730 8005 f931 044e 4032
00000190: 8639 4f32 6cc8 1530 70b4 4631 aafc 0d32
000001a0: 40e3 1032 1c4c 8d2f 128e e931 ffcd 3c32
000001b0: 8d6d c631 ea54 bf2f 33b7 7b31 0d5b f531
000001c0: ce28 e731 0934 a92f d5a6 4b31 c27a e231
000001d0: a4c8 b431 3778 8b2f b166 9031 f3dc fd31
000001e0: 74c9 ea31 f697 9d2f 43ea 3d31 095e e031
000001f0: 623c c731 9cf1 6f2f a295 8531 4ce7 fb31
00000200: 1a77 c631 79fa fe2e 6f47 8e31 e1df df31
00000210: 78e8 bc31 7a53 202f 941f 9331 66c7 f031
00000220: 5108 f131 775a ca2f a29c 3f31 de35 c731
00000230: f5b5 c231 fe78 c62e 3ce4 8c31 62fa e331
00000240: bbc2 9533 9cc6 5c31 adcc 3c33 2bf0 b433
00000250: 24ac 9733 d7c1 a431 a723 2d33 a65e a933
00000260: e56d 9c33 0213 b631 0422 3133 fdf7 b633
00000270: f2d3 a133 5d13 0731 9c44 1e33 08a5 a233
00000280: 871e 8e33 5f42 8231 8dc5 4033 7392 bf33
00000290: 994a a433 36a6 6330 ba3c 1e33 ffb5 9733
000002a0: fa8d 3633 9449 a430 593e 9533 bc9a c033
000002b0: cc65 ae33 c2ca 3531 367b 0133 3395 8833
000002c0: 56f9 7c33 acf0 4431 7fbc 5a33 240f ae33
000002d0: 7d23 9934 3258 8a32 159b 5d34 df47 cd34
000002e0: 187e ad34 3853 9232 7c44 2b34 a212 be34
000002f0: 01e3 8634 8c42 8932 2377 8a34 429f d334
00000300: 9d0c a734 c5ba 4832 825c 3334 7309 bc34
00000310: dd0b 7e34 c9c3 9232 171b 8634 97e8 cd34
00000320: d59f 9e34 5292 ea31 7adf 4134 bcd5 b034
00000330: 36f2 7734 4310 aa31 42e0 8b34 6020 c734
00000340: 64df b534 cdfa 8532 3a75 1934 e221 9c34
00000350: fb36 8734 e344 2532 f076 7334 ad57 ba34
00000360: 5024 c232 2a1b bf30 bd6b 6b32 db69 e832
00000370: 2599 b932 05c5 8d30 efee 7732 bb76 d932
00000380: eddc 9032 f088 5e30 9471 ac32 dcd5 fb32
00000390: e183 b832 4a82 8b30 bcfc 7932 49bf d332
000003a0: f8c8 b232 e231 9c30 0b05 7c32 2af9 f232
000003b0: 6aab c032 7d6e c82f 9b4d 6d32 3d22 cd32
000003c0: 98fc a132 2ec0 e62f bcd2 9332 d568 e232
000003d0: 4b1d ec32 755e 9030 c623 1032 34b9 ac32
000003e0: 0ee2 ac32 8771 8230 3fdc 8332 6d42 ce32
000003f0: 0562 3633 228a c730 933c 0b33 2a12 7933
1.24422685e-08 3.2042727e-10 2.1734694e-09 8.3931715e-09 1.0770945e-08 3.595892e-10 3.919058e-09 9.007904e-09
1.2804606e-08 4.026224e-10 2.2808058e-09 8.520574e-09 1.0379148e-08 1.6497209e-10 4.288916e-09 9.6729496e-09
1.0350073e-08 2.0886413e-10 4.5211275e-09 9.641531e-09 1.1323515e-08 1.9721699e-10 3.3344287e-09 9.447838e-09
9.48312e-09 3.8897055e-10 5.5811666e-09 9.806181e-09 9.608046e-09 6.423986e-10 4.946336e-09 9.4862225e-09
9.471202e-09 4.616444e-10 5.176876e-09 9.377773e-09 2.6693302e-08 2.8174656e-09 2.2630768e-08 4.0512965e-08
3.543922e-08 2.1365798e-09 1.5015997e-08 3.4240237e-08 2.316959e-08 7.117562e-10 3.0322518e-08 4.5515286e-08
3.9750127e-08 1.488292e-09 1.1960745e-08 3.055665e-08 1.57725e-08 5.137279e-10 3.6576566e-08 4.654264e-08
3.9012686e-08 3.364025e-10 1.3028747e-08 2.836726e-08 1.5198088e-08 5.5042326e-10 3.74476e-08 4.466024e-08
4.323827e-08 1.2577076e-09 8.922476e-09 2.3802393e-08 1.584446e-08 1.9761177e-09 3.4850128e-08 4.189349e-08
1.392325e-08 4.3571766e-10 2.0513744e-09 8.9732755e-09 1.2687964e-08 4.1006215e-10 3.0041238e-09 8.900784e-09
1.2239157e-08 8.124271e-10 3.5163739e-09 9.618287e-09 1.1848376e-08 3.346632e-10 3.5313887e-09 9.160679e-09
8.165821e-09 9.1711444e-10 6.5380767e-09 1.1184017e-08 1.2526848e-08 1.2574278e-10 3.1945289e-09 8.797044e-09
7.738023e-09 6.1085736e-10 7.247479e-09 1.119361e-08 1.2062065e-08 5.44907e-10 2.891536e-09 8.264729e-09
8.433574e-09 2.570183e-10 6.797344e-09 1.0989878e-08 5.775013e-09 3.4803033e-10 3.6629444e-09 7.1407897e-09
6.727624e-09 3.0777894e-10 2.963522e-09 6.5914216e-09 5.2614997e-09 2.536937e-10 4.2026262e-09 7.388388e-09
6.833199e-09 2.8666108e-10 2.7636282e-09 6.5299486e-09 5.798527e-09 2.182276e-10 3.8878207e-09 7.331357e-09
5.7760987e-09 1.15950756e-10 4.140865e-09 6.5156063e-09 5.4979488e-09 1.4581572e-10 4.281853e-09 7.0075883e-09
7.0149686e-09 3.6807865e-10 2.7883194e-09 5.7977863e-09 5.6668292e-09 9.02549e-11 4.1004835e-09 6.6350347e-09
6.9737744e-08 3.212711e-09 4.3958313e-08 8.4255895e-08 7.0627976e-08 4.7950652e-09 4.0312127e-08 7.886892e-08
7.284306e-08 5.299058e-09 4.124196e-08 8.520144e-08 7.535699e-08 1.9656092e-09 3.684964e-08 7.573732e-08
6.617943e-08 3.7910435e-09 4.4883155e-08 8.9207695e-08 7.650414e-08 8.281832e-10 3.6842472e-08 7.06459e-08
4.2504304e-08 1.1953483e-09 6.949694e-08 8.968843e-08 8.121023e-08 2.645422e-09 3.0147213e-08 6.360133e-08
5.8900092e-08 2.865856e-09 5.0928517e-08 8.1052605e-08 2.8524292e-07 1.6105421e-08 2.0638647e-07 3.823652e-07
3.2315506e-07 1.703448e-08 1.595053e-07 3.5403815e-07 2.5124612e-07 1.5979161e-08 2.5791186e-07 3.9417688e-07
3.111535e-07 1.1683999e-08 1.6704328e-07 3.5024604e-07 2.3659909e-07 1.708567e-08 2.4979155e-07 3.8353457e-07
2.9546086e-07 6.826931e-09 1.8055826e-07 3.2938067e-07 2.3091783e-07 4.9495e-09 2.6053937e-07 3.7090194e-07
3.3876415e-07 1.5597289e-08 1.4291882e-07 2.9081917e-07 2.5185713e-07 9.619927e-09 2.2674408e-07 3.4708992e-07
2.2601085e-08 1.39048e-09 1.3703297e-08 2.7056492e-08 2.1606477e-08 1.0315097e-09 1.44316195e-08 2.5316117e-08
1.6864272e-08 8.095773e-10 2.0075085e-08 2.9317498e-08 2.148039e-08 1.0150611e-09 1.4551173e-08 2.465062e-08
2.0813317e-08 1.1364671e-09 1.4669477e-08 2.8285815e-08 2.2429692e-08 3.6458295e-10 1.3812861e-08 2.388071e-08
1.8857733e-08 4.1973308e-10 1.7208883e-08 2.6357535e-08 2.7487337e-08 1.0504225e-09 8.390037e-09 2.0107656e-08
2.0126233e-08 9.491011e-10 1.5350563e-08 2.4011763e-08 4.2464325e-08 1.4518415e-09 3.241855e-08 5.799135e-08

exp_avg f4 [128]
00000000: 5621 4338 4d64 44b8 7874 a737 4eeb 2b37
00000010: 66ae a238 ddfb 7bb9 8f56 76b7 5830 1eb7
00000020: 009b 4bb7 f4a5 29b9 3c75 0db5 70b8 d7b8
00000030: c3a3 3eb6 6b8a b837 18b9 c7b7 98f9 e0b8
00000040: c3f9 8e38 c3e6 e4b8 3c10 76b8 5ffa cfb8
00000050: 241e e1b6 1571 f5b8 9708 04b8 e93d 67b8
00000060: 1cdf de36 6446 3b38 864a 91b8 af77 90b8
00000070: 6137 ad36 8d74 8437 bb9e 4d39 ca16 6c37
00000080: 8627 54b8 82c0 f035 9c77 61b8 0399 85b9
00000090: 4d2d 6c36 4012 99b8 8652 ac37 1167 2c37
000000a0: ab04 7bb8 8e81 12b9 1232 c5b6 6a42 39b9
000000b0: deb2 b8b7 1cd0 74b7 b7dd 37b8 8162 2eb8
000000c0: a513 41b8 c043 ab38 b5ce 10b9 ee7d 6737
000000d0: 98ae 32b9 b5c8 1438 3b0d 9c36 1b8a 7437
000000e0: c61c 8638 876b 3b39 399b fd37 d5eb 8cb8
000000f0: 3715 9c38 a74d b2b8 5da9 89b8 352c d2b6
00000100: 9445 7cb8 b36e f8b8 f6d6 d2b7 5b5f 8838
00000110: 7a74 48b8 a674 1fb9 b009 29b9 ab1f 8238
00000120: a6f2 b237 3b70 4538 6acb 5c34 0fb7 8038
00000130: f2d5 3d37 a61b 39b8 f736 c435 107f 0b38
00000140: 80a4 6ab8 8c12 9eb8 c648 4238 27e5 a037
00000150: 8d7e fe36 40b6 b5b7 2280 0a38 e603 be38
00000160: 9306 a737 9dc0 3ab9 b1ef 6738 dcc2 5738
00000170: b465 bcb8 ae17 85b9 1960 ca38 374c 1237
00000180: 2f86 6236 c20a 6238 d35b 01b9 b125 02b8
00000190: d427 9a37 461a 3cb8 4af5 4bb8 af05 8837
000001a0: 0511 9038 c24b 0237 25a3 3bb8 f861 04b9
000001b0: f646 9db8 7a35 6538 2f36 b5b8 bbf4 d937
000001c0: 44da bfb8 ebff 33b9 6394 6bb8 0d75 8837
000001d0: d7ac 8d38 b0ff e238 9702 ffb7 65bc 82b8
000001e0: e225 20b7 e182 0637 4eb8 82b6 f7dc 0139
000001f0: 22f8 0038 9e7f ecb7 5867 2638 dad9 04b8
4.652267e-05 -4.6823454e-05 1.9962186e-05 1.024718e-05 7.757246e-05 -0.00024031052 -1.4682896e-05 -9.42879e-06
-1.2135832e-05 -0.00016178918 -5.269719e-07 -0.00010286353 -2.8407528e-06 2.1998965e-05 -2.380884e-05 -0.00010727643
6.8176094e-05 -0.0001091487 -5.866609e-05 -9.9171644e-05 -6.7090314e-06 -0.000117035735 -3.1479252e-05 -5.513235e-05
6.642089e-06 4.464983e-05 -6.92802e-05 -6.888748e-05 5.1622487e-06 1.57899e-05 0.00019609455 1.4072002e-05
-5.0581548e-05 1.7937421e-06 -5.3755575e-05 -0.0002548174 3.519311e-06 -7.299008e-05 2.0542426e-05 1.0275996e-05
-5.984741e-05 -0.00013971908 -5.8768865e-06 -0.00017667716 -2.20178e-05 -1.4591988e-05 -4.3837088e-05 -4.157657e-05
-4.603308e-05 8.166535e-05 -0.00013809915 1.3797993e-05 -0.00017040444 3.5472873e-05 4.6507025e-06 1.45756885e-05
6.3949774e-05 0.00017873767 3.0232231e-05 -6.719647e-05 7.442611e-05 -8.502165e-05 -6.5642154e-05 -6.263634e-06
-6.014628e-05 -0.00011846181 -2.513405e-05 6.502747e-05 -4.7792193e-05 -0.00015206877 -0.00016120705 6.204782e-05
2.1332246e-05 4.7072983e-05 2.0563098e-07 6.137613e-05 1.1315091e-05 -4.4133187e-05 1.4619135e-06 3.325852e-05
-5.594315e-05 -7.537482e-05 4.632098e-05 1.9180194e-05 7.5845223e-06 -2.1661748e-05 3.3021097e-05 9.060632e-05
1.9911013e-05 -0.00017810096 5.529792e-05 5.144147e-05 -8.983482e-05 -0.0002538538 9.65001e-05 8.720023e-06
3.375473e-06 5.3892618e-05 -0.00012336606 -3.1029518e-05 1.8376777e-05 -4.4847162e-05 -4.8627415e-05 1.621511e-05
6.869625e-05 7.766243e-06 -4.4736214e-05 -0.00012624997 -7.499561e-05 5.464766e-05 -8.640845e-05 2.5982377e-05
-9.148245e-05 -0.00017166107 -5.6166562e-05 1.626697e-05 6.755598e-05 0.00010824145 -3.0399575e-05 -6.233974e-05
-9.545563e-06 8.017495e-06 -3.895758e-06 0.00012384715 3.074867e-05 -2.8192819e-05 3.967373e-05 -3.1674143e-05

exp_avg_sq f4 [128]
00000000: 5127 8132 626a 6233 b20f 8c32 a5aa 2932
00000010: cdc3 f933 4591 0835 4a5a 1e33 3444 a133
00000020: 76be b832 369e 9c34 f534 9633 db7e d233
00000030: 56d3 4934 d16b ca31 1947 4b33 7db4 7e34
00000040: f479 bc34 f445 0c34 8228 1b33 4524 2334
00000050: 4c23 6732 744a 9a34 f84d 8533 bce7 5932
00000060: 86f2 2b33 4df6 8234 91fc 0f34 8f1d 3c34
00000070: 0a26 0e32 4b14 cd31 a393 8d34 fc85 4e33
00000080: a79a 5f33 1ce9 f332 5dd5 8a34 6dd3 da35
00000090: d0d7 fa30 4bf9 1434 4294 8b32 37be 9832
000000a0: 9ae7 0133 ec82 1235 822c 1f34 ab9e af34
000000b0: 5840 8a33 1892 0c33 03fa 8333 2cf6 cb32
000000c0: ce9d 1432 6a4c 3133 3c17 d933 aed4 fa31
000000d0: f2a7 7f34 584b ab33 8f03 3733 0c7b bd32
000000e0: a30f e433 aa8b 6135 eef0 2834 b437 9c33
000000f0: 601e 2533 711a f733 f5ba 8e33 b09b 4c32
00000100: bf93 5834 6af9 1e34 94c5 b733 d890 4534
00000110: 22d9 d033 6276 6a34 9329 1135 e97e 0d34
00000120: b1ef 6634 4abf c733 c687 8631 a8b3 4734
00000130: 65cf f332 27b1 2533 6854 9032 4d8d f734
00000140: 21af 8c33 2ad2 4133 df4f 6434 eef3 9832
00000150: e0b1 8032 7f16 2a33 b298 ac33 72ab 0d34
00000160: 7d16 c130 4f99 7833 99aa 5e34 52fa 9b32
00000170: 3a8a 1834 6422 1235 e13c 0435 3a8e 6933
00000180: 516d 3930 e81f dc33 2232 ca33 fdfe c331
00000190: 6b63 0833 cbfa 8933 0dac c733 6bf0 ae33
000001a0: ace5 ed34 ea18 ac33 de1c 4533 4d70 3534
000001b0: ab97 5933 2b9c d434 d592 c332 167d ff33
000001c0: aa34 ce33 164d f133 fabb c833 c298 6f33
000001d0: eecf 7233 6a18 bf33 48c5 6d34 016c a334
000001e0: 1298 3e33 16df a532 514f 5132 755c 6c34
000001f0: 5b66 6233 e0e7 4c33 f07e 6c32 1e0a 3433
1.5035456e-08 5.271648e-08 1.6305282e-08 9.875895e-09 1.1630582e-07 5.0875343e-07 3.686936e-08 7.509553e-08
2.150703e-08 2.9172378e-07 6.994552e-08 9.801962e-08 1.8796467e-07 5.891231e-09 4.7329284e-08 2.3721255e-07
3.510646e-07 1.3063965e-07 3.612559e-08 1.5193753e-07 1.3453995e-08 2.8738907e-07 6.2074776e-08 1.2683753e-08
4.0034614e-08 2.4393594e-07 1.3409796e-07 1.7519618e-07 8.274137e-09 5.9685923e-09 2.6370716e-07 4.808497e-08
5.206189e-08 2.8394929e-08 2.5859745e-07 1.6303799e-06 1.8251232e-09 1.3874266e-07 1.624915e-08 1.7781629e-08
3.0245793e-08 5.4579755e-07 1.4824221e-07 3.2711736e-07 6.43783e-08 3.272916e-08 6.14564e-08 2.3744256e-08
8.6506144e-09 4.1280522e-08 1.0109076e-07 7.3001365e-09 2.3809824e-07 7.976513e-08 4.2611244e-08 2.2058451e-08
1.0619922e-07 8.402227e-07 1.5733869e-07 7.2744484e-08 3.8444682e-08 1.15066435e-07 6.6463976e-08 1.1909762e-08
2.0170317e-07 1.4805633e-07 8.557541e-08 1.8399749e-07 9.725251e-08 2.1836016e-07 5.407721e-07 1.3177818e-07
2.1507618e-07 9.301455e-08 3.915349e-09 1.8598678e-07 2.8383235e-08 3.8578175e-08 1.680219e-08 4.6110145e-07
6.551114e-08 4.5127457e-08 2.1263212e-07 1.7806055e-08 1.498205e-08 3.960167e-08 8.037149e-08 1.319402e-07
1.404899e-09 5.7881433e-08 2.0737424e-07 1.8158207e-08 1.420639e-07 5.4439283e-07 4.926242e-07 5.4378894e-08
6.7457956e-10 1.0250352e-07 9.415477e-08 5.7042358e-09 3.1755388e-08 6.4251786e-08 9.2979555e-08 8.146238e-08
4.4311798e-07 8.013906e-08 4.589389e-08 1.6897793e-07 5.066219e-08 3.9601704e-07 2.276776e-08 1.1897116e-07
9.602202e-08 1.1236459e-07 9.3474185e-08 5.5785456e-08 5.6534127e-08 8.8985715e-08 2.2144116e-07 3.04397e-07
4.437613e-08 1.9309976e-08 1.2183436e-08 2.2012848e-07 5.2712817e-08 4.770834e-08 1.376587e-08 4.1918717e-08
