results/carMinusOneOnMaxSteps/CarFindGoal/CarFindGoal-3999955.pt (torch, 530875 bytes, 36 tensors)

network_body._body_endoder.seq_layers.0.weight f4 [128, 36]
0.03976878 -0.07769253 -0.23159714 0.30325204 0.139838 0.07266494 -0.034074593 0.54365826
0.13795657 -0.07936761 -0.027505118 0.020685347 0.01514443 -0.12592643 0.09112157 -0.25977337
-0.03359485 0.035807416 0.033546247 -0.03546774 -0.06975278 0.27855724 -0.1447096 -0.17017129
0.048600208 0.010885291 -0.088684596 -0.14385156 -0.10479362 0.4177111 -0.30454233 0.21148211
-0.26566166 0.3056207 0.024528021 -0.118136406 0.28737485 -0.21898904 -0.08629644 0.084706336
0.06658606 0.10690503 0.20951243 -0.08736233 -0.23209947 -0.10546398 0.31444204 0.2536192
-0.17812929 -0.10663279 0.176203 0.2853458 -0.015044092 0.13915865 0.038306344 0.043888476
0.10516826 0.05113726 0.164619 0.013535158 0.10839499 -0.00896396 0.06093388 -0.033784218
-0.027559362 0.10963193 -0.05960118 0.14603838 -0.052361894 0.15323126 -0.18951906 0.093459204
-0.18039505 0.004627617 -0.039214086 0.121012874 -0.14914075 -0.14391804 -0.09847963 -0.017246641
0.2663706 -0.13917512 -0.117665045 0.0050241617 0.25193217 -0.23133302 0.059698634 0.17817348
0.123490706 -0.09472996 0.25804567 -0.18985209 0.12855768 -0.15849206 -0.12891985 -0.15894996
-0.081134155 -0.097603284 0.17783928 0.25136638 -0.07739325 0.060779165 0.16176407 0.1730414
-0.12650585 -0.29584026 0.073439896 0.07476908 -0.018053666 -0.26765618 -0.10232316 0.11571383
-0.120958515 0.032186117 -0.07227883 0.048050757 0.07232717 -0.14420614 0.11383078 0.2285761
0.115252964 -0.024315538 0.28412673 0.1666628 -0.21656108 -0.13975443 0.02033338 -0.09193089
-0.07520575 0.17399405 0.082784414 -0.1369013 0.3663185 -0.09542013 0.057336036 0.3884671
-0.22787414 -0.0056208065 0.14387281 -0.13358596 0.009473785 0.08856375 0.3193892 0.16813765
-0.18162103 0.051830966 -0.38878492 -0.2972663 -0.1340198 -0.1314846 0.095619835 -0.1840653
0.021069212 0.10806347 0.11725718 -0.03412542 0.15386283 -0.10554641 -0.05979165 0.10860395
0.29663023 0.13974904 0.075227365 0.2106355 0.070987105 0.044489395 0.024807801 0.05906635
0.20359336 -0.29661646 0.056014333 -0.10927557 0.026670698 -0.04423174 -0.058812503 0.2714429
0.22548175 0.3240729 -0.18985836 -0.223302 0.07521572 -0.21087833 -0.028094718 0.28214493
0.026077932 0.24254715 -0.011710063 0.00095665356 0.19531962 -0.09848228 -0.19031507 -0.34255406
0.13863854 0.06381396 -0.31841636 -0.3283443 -0.19183789 0.20774074 -0.010136329 0.18006952
0.06072912 0.26624396 -0.28951803 -0.07165821 0.16400045 -0.17196698 0.117128335 0.15094167
-0.10896265 -0.062326062 -0.18514024 0.1 -0.06406872 0.0901197 0.06347679 0.25666812
0.14762366 -0.35660917 0.040260702 -0.11658581 0.15726218 -0.16681466 0.024708629 -0.12603998
-0.13584517 -0.0017419303 0.120248936 0.09289789 0.15357319 0.29639208 0.1519459 -0.14815898
-0.102566734 -0.057756197 0.14199828 0.41206604 0.01721063 -0.23454084 0.08772957 0.12104394
-0.14530988 0.06000671 -0.06828405 -0.04209005 -0.091758884 -0.07242555 0.035240848 -0.060079187
0.022215093 0.14464806 0.08957332 0.1384627 -0.33065724 -0.13264087 -0.08373368 -0.0039577023
00000000: 97e4 223d 431d 9fbd cd27 6dbe da43 9b3e
00000010: b131 0f3e 5bd1 943d cd91 0bbd 302d 0b3f
00000020: 7d44 0d3e 7c8b a2bd 6a52 e1bc 5174 a93c
00000030: 5820 783c dcf2 00be f29d ba3d 0401 85be
00000040: c19a 09bd ccaa 123d ca67 093d 9f46 11bd
00000050: 8cda 8ebd 0e9f 8e3e c12e 14be 6241 2ebe
00000060: 0311 473d 3858 323c 45a0 b5bd d34d 13be
00000070: 0a9e d6bd 3bde d53e f9ec 9bbe c48e 583e
00000080: ce04 88be 517a 9c3e fdee c83c 80f1 f1bd
00000090: cc22 933e aa3e 60be 30bc b0bd 847a ad3d
000000a0: 465e 883d 06f1 da3d 6d8a 563e 05eb b2bd
000000b0: 7cab 6dbe 80fd d7bd 8cfe a03e 60da 813e
000000c0: 8667 36be 4b62 dabd 8f6e 343e d818 923e
000000d0: 7f7b 76bc 9b7f 0e3e 1de7 1c3d 67c4 333d
000000e0: 7562 d73d 4e75 513d e291 283e 91c2 5d3c
000000f0: 31fe dd3d 93dd 12bc ce95 793d 5261 0abd
00000100: 2cc4 e1bc b586 e03d 5e20 74bd 168b 153e
00000110: 6d79 56bd a8e8 1c3e 4911 42be 8a67 bf3d
00000120: 7bb9 38be 44a3 973b f39e 20bd 99d5 f73d
00000130: 5ab8 18be 405f 13be b0af c9bd d448 8dbc
00000140: ba61 883e ec83 0ebe 5ffa f0bd b9a1 a43b
00000150: 41fd 803e 90e2 6cbe 8e86 743d 1c73 363e
00000160: b2e8 fc3d c801 c2bd 901e 843e 9668 42be
00000170: a0a4 033e be4b 22be 9103 04be c7c3 22be
00000180: aa29 a6bd 3be4 c7bd 801b 363e 18b3 803e
00000190: 5a80 9ebd 93f3 783d 7ba5 253e c431 313e
000001a0: c08a 01be 6078 97be a867 963d 8820 993d
000001b0: 48e5 93bc 3b0a 89be ce8e d1bd 5ffb ec3d
000001c0: 19b9 f7bd 97d5 033d ec06 94bd dfd0 443d
000001d0: 4420 943d c6aa 13be 1d20 e93d da0f 6a3e
000001e0: bf09 ec3d 6131 c7bc 0f79 913e a7a9 2a3e
000001f0: 30c2 5dbe c91b 0fbe 3092 a63c 4346 bcbd
00000200: 7905 9abd 7f2b 323e e08a a93d db2f 0cbe
00000210: 198e bb3e a16b c3bd 31d9 6a3d 29e5 c63e
00000220: d757 69be be2e b8bb 6553 133e c2ca 08be
00000230: ef37 1b3c e960 b53d fb86 a33e 472c 2c3e
00000240: ddfa 39be b54c 543d d10e c7be 4a33 98be
00000250: 7d3c 09be e6a3 06be 55d4 c33d 9d7b 3cbe
00000260: 5799 ac3c 6150 dd3d 8824 f03d 19c7 0bbd
00000270: 388e 1d3e b728 d8bd 17e8 74bd bf6b de3d
00000280: ebdf 973e 5f1a 0f3e ce10 9a3d d5b0 573e
00000290: b061 913d 833a 363d bb39 cb3c 8fef 713d
000002a0: c77a 503e 1dde 97be 496f 653d dfcb dfbd
000002b0: 827c da3c 572c 35bd 61e5 70bd 90fa 8a3e
000002c0: b0e4 663e e2ec a53e 3b6a 42be 48a9 64be
000002d0: b30a 9a3d 7df0 57be e526 e6bc 4d75 903e
000002e0: 63a1 d53c 485e 783e 90db 3fbc efc7 7a3a
000002f0: de01 483e 14b1 c9bd f4e1 42be 3f63 afbe
00000300: 43f7 0d3e e5b0 823d 7807 a3be be1c a8be
00000310: 2771 44be fdb9 543e d812 26bc 2564 383e
00000320: 19bf 783d 2151 883e b53b 94be 8ac1 92bd
00000330: bcef 273e 1d18 30be fbe0 ef3d 7490 1a3e
00000340: cf27 dfbd 9d49 7fbd 6795 3dbe cdcc cc3d
00000350: 7636 83bd ad90 b83d 1f00 823d 016a 833e
00000360: a82a 173e 7a95 b6be 68e8 243d 8bc4 eebd
00000370: 5609 213e 76d1 2abe c069 ca3c a010 01be
00000380: ff1a 0bbe 7b51 e4ba 1345 f63d 4041 be3d
00000390: 4a42 1d3e b4c0 973e b597 1b3e fdb6 17be
000003a0: 820e d2bd c391 6cbd ff67 113e 52fa d23e
000003b0: 4ffd 8c3c 792b 70be 90ab b33d e3e5 f73d
000003c0: 1dcc 14be 99c9 753d 82d8 8bbd 9e66 2cbd
000003d0: 15ec bbbd d953 94bd b558 103d 9815 76bd
000003e0: 6dfc b53c 9f1e 143e 3772 b73d 2bc9 0d3e
000003f0: e84b a9be 02d3 07be 907c abbd 9daf 81bb

network_body._body_endoder.seq_layers.0.bias f4 [128]
0.0052227178 0.012135678 -0.014724188 0.016888335 -0.0048183477 0.025888475 0.030692173 -0.033738777
-0.08752394 0.036611788 -0.019767813 0.023329677 0.0058982596 -0.039843984 0.042002685 0.042604998
-0.0022814737 -0.021297863 -0.021834312 0.001368878 0.015292424 -0.030571096 0.0015285512 -0.00033294086
0.0026114797 0.04633757 0.05338357 -0.0062826057 -0.0034324406 0.054397035 0.020687016 -0.003829538
0.03873619 -0.0074787466 0.008565944 0.041436322 0.00048839155 0.028324723 0.03145068 0.028107146
-0.04312126 -0.010667926 -0.008218534 -0.0075747734 -0.034098435 0.04900183 -0.027065966 0.0015834918
-0.031134665 -0.01493174 -0.0027460933 0.030002758 -0.0044617658 0.0052954345 0.009204548 0.00758835
0.04362511 0.028854147 -0.021193134 0.039009586 -0.016339323 0.007812526 -0.007027399 -0.0023648299
0.0014142342 -0.026781417 -0.0032365194 0.040673472 0.023173343 -0.0073990505 0.03854818 -0.006425656
-0.030209603 -0.0064034928 0.037205037 -0.0015301425 0.016257828 0.01968949 0.040271584 -0.03485349
0.04634104 -0.004002401 -0.03991608 -0.017822579 0.04913327 0.00050083705 -0.0022776634 -0.015307127
-0.006365627 -0.004034847 0.002106419 -0.0011464194 -0.02913103 0.019349772 -0.01385847 0.037315216
0.03817993 -0.006103153 -0.010046206 0.011567711 0.0037737968 -0.017024318 0.022089377 0.018755648
0.0070667095 -0.04058974 0.0052734963 0.026808405 0.036037702 -0.06537178 -0.0032556055 -0.027364722
0.02172993 0.032013535 -0.013821277 -0.019571861 0.027510306 -0.0065882285 0.019754268 0.024952678
0.06925442 -0.0045905234 -0.0013186772 0.05068294 0.007321224 0.044737607 0.023491377 0.019876933
00000000: 5523 ab3b b9d4 463c b83d 71bc 6859 8a3c
00000010: 3be3 9dbb 1114 d43c 276e fb3c ac31 0abd
00000020: c03f b3bd 3ef6 153d 1cf0 a1bc e11d bf3c
00000030: 3046 c13b 7233 23bd 020b 2c3d 9482 2e3d
00000040: c784 15bb db78 aebc dfdd b2bc ec6b b33a
00000050: 138d 7a3c 3c70 fabc ab59 c83a 918e aeb9
00000060: 5c25 2b3b 77cc 3d3d bba8 5a3d 51de cdbb
00000070: ccf2 60bb 6dcf 5e3d d177 a93c fcf8 7abb
00000080: d7a9 1e3d 4610 f5bb 2c58 0c3c 22b9 293d
00000090: 6707 003a 4009 e83c 6ed2 003d f540 e63c
000000a0: eb9f 30bd 86c8 2ebc 08a7 06bc ce35 f8bb
000000b0: cdaa 0bbd 25b6 483d 72b9 ddbc 2b8d cf3a
000000c0: 200e ffbc 42a4 74bc cdf7 33bb 58c8 f53c
000000d0: 0134 92bb 5385 ad3b acce 163c b2a7 f83b
000000e0: 3eb0 323d 885f ec3c 399d adbc 84c8 1f3d
000000f0: 0bda 85bc 1c00 003c 1846 e6bb 43fb 1abb
00000100: d35d b93a b464 dbbc c91b 54bb 3a99 263d
00000110: 06d6 bd3c bc73 f2bb b2e4 1d3d 4f8e d2bb
00000120: 217a f7bc 64d4 d1bb 4f64 183d 108f c8ba
00000130: 232f 853c da4b a13c d1f3 243d 88c2 0ebd
00000140: 1ad0 3d3d 9326 83bb 0b7f 23bd a800 92bc
00000150: f83f 493d 9b4a 033a da44 15bb beca 7abc
00000160: c096 d0bb c036 84bb d90b 0a3b 7443 96ba
00000170: 33a4 eebc 6a83 9e3c a30e 63bc d7d7 183d
00000180: 8f62 1c3d f5fc c7bb d898 24bc 7f86 3d3c
00000190: ce51 773b 9576 8bbc c8f4 b43c 72a5 993c
000001a0: db8f e73b 6d41 26bd 4bcd ac3b 4d9d db3c
000001b0: 459c 133d a4e1 85bd ff5b 55bb fb2b e0bc
000001c0: f702 b23c a020 033d a372 62bc 2b55 a0bc
000001d0: 4b5d e13c 11e2 d7bb b4d3 a13c 8f69 cc3c
000001e0: 43d5 8d3d 1a6c 96bb 77d7 acba ea98 4f3d
000001f0: e1e6 ef3b c83e 373d fd70 c03c f3d4 a23c

network_body._body_endoder.seq_layers.2.weight f4 [128, 128]
-0.24873638 0.010494481 0.1446106 0.06338868 0.04220446 0.013255227 0.0641275 -0.036008023
-0.00018370886 0.018949898 0.017375836 -0.0084188385 -0.023997106 0.050306085 0.19705379 0.038787276
0.16009441 -0.10344152 0.05186293 -0.058747098 -0.048664015 0.045091666 -0.0155674815 -0.14936155
0.022860859 0.1286694 -0.11383484 0.033438776 0.10665573 -0.18125518 -0.035482228 0.021328012
0.004121888 -0.06695785 -0.15939467 0.26223296 -0.02446055 -0.16578323 0.087859124 0.08299467
0.03289538 -0.015961349 -0.08305566 -0.03791955 0.00026275354 -0.22639792 -0.032709546 -0.009224127
-0.054045122 0.070088856 -0.1634586 0.045958497 0.1398266 -0.00019918011 -0.026244352 0.03369579
0.0264627 0.0513068 -0.010917834 0.077106506 0.030429713 0.098415785 0.0035515965 0.053629696
0.035524137 -0.087700255 0.07024313 0.124370515 -0.09814895 0.03382326 -0.14933094 -0.08472155
-0.074834056 -0.123756215 -0.13510434 0.060425542 0.22026739 0.06770891 0.10006063 0.06778466
0.098909244 -0.056508403 0.037496977 0.0116963815 0.08791997 0.015414491 -0.09771552 0.07442032
-0.10084365 0.04189528 -0.24332023 -0.10202306 -0.0068018935 0.0730959 0.013232378 -0.061506327
-0.079679646 0.11828385 -0.10379094 0.064938806 0.1060176 0.08068785 1.1068187e-06 -0.2088932
0.102169044 0.08459863 -0.31580192 0.07622403 -0.12243179 -0.12162435 0.06130902 -0.04719921
0.003883537 0.090979524 0.2563209 0.0562889 0.17558163 -0.013051623 0.04647449 0.07655775
-0.09616778 -0.16187564 0.105223015 -0.0012811442 -0.0647963 -0.005186099 0.03219093 0.03866928
0.0077353017 -0.05526865 0.03708277 -0.07919966 -0.022303358 -0.056564905 -0.1610743 -0.048165172
0.06552708 0.00936419 0.17318144 -0.05683434 -0.024628358 0.043638166 -0.13685842 -0.043757044
-0.13553786 -0.008059346 0.07911814 -0.07698666 0.06837938 -0.08487554 -0.05071146 -0.07905186
0.020294018 0.006639773 0.043065257 0.15780333 0.031399276 0.022411242 -0.14511554 0.038717005
0.05056203 0.056168646 0.07458928 0.0139565 0.075529575 0.046819292 -0.03850505 0.12503216
0.023892645 -0.053043142 0.022463582 -0.13434859 -0.015508119 -0.076864205 -0.010696115 -0.02430049
-0.0011413237 -0.1608863 0.059791297 0.06325624 0.01676829 0.033642784 -0.040004764 0.046739213
0.07071703 -0.072663344 -0.039225154 0.04025072 -0.22435296 -0.031982504 -0.049497314 -0.013386459
-0.010837502 -0.00083464367 0.0959282 -0.048359115 -0.0029634265 0.08623462 0.026311198 0.024761673
0.008648859 0.05575556 -0.11593783 -0.11617879 0.15041006 -0.031112311 -0.15917893 0.01325004
0.062802956 -0.08413253 -0.19850807 0.0724185 -0.024451002 0.000874328 0.12121649 -0.04428773
-0.038167577 -0.100487255 0.07866113 -0.07842205 -0.070408784 -0.06590849 -0.052183595 -0.07051034
0.015769942 0.13336414 0.13601701 -0.048496075 0.10589563 0.14191683 0.14365718 -0.075413235
0.10171041 0.12440198 0.054154307 -0.08331502 0.081470266 -0.058445837 -0.20268524 -0.050830975
-0.10437755 0.10963841 -0.046329398 0.09754621 0.18516707 0.101003975 0.12179295 0.07082495
-0.096063256 -0.06444114 0.011137015 0.14483277 -0.15116258 0.14952749 0.097524665 -0.11056732
00000000: c0b4 7ebe 0bf1 2b3c cd14 143e edd1 813d
00000010: 95de 2c3d 742c 593c 4755 833d 267d 13bd
00000020: f9a1 40b9 d13c 9b3c c557 8e3c 2bef 09bc
00000030: 9495 c4bc c10d 4e3d 78c8 493e 68df 1e3d
00000040: caef 233e 26d9 d3bd 396e 543d cca0 70bd
00000050: eb53 47bd 0ab2 383d c00e 7fbc 3cf2 18be
00000060: b246 bb3c e9c1 033e 3e22 e9bd 19f7 083d
00000070: 526e da3d f59a 39be d055 11bd 15b8 ae3c
00000080: e710 873b 3221 89bd 5b38 23be 6643 863e
00000090: 7e61 c8bc 14c3 29be 7cef b33d 1cf9 a93d
000000a0: 4ebd 063d 60c1 82bc 1619 aabd 8851 1bbd
000000b0: 2fc2 8939 dbd4 67be 72fa 05bd cb20 17bc
000000c0: 6b5e 5dbd bf8a 8f3d b161 27be fa3e 3c3d
000000d0: b42e 0f3e 01db 50b9 65fe d6bc 9904 0a3d
000000e0: 4ec8 d83c 1427 523d b7e0 32bc 04ea 9d3d
000000f0: bc47 f93c 378e c93d e7c1 683b d0aa 5b3d
00000100: c281 113d 319c b3bd a1db 8f3d f8b5 fe3d
00000110: 5102 c9bd 428a 0a3d 36ea 18be 7e82 adbd
00000120: 9942 99bd e673 fdbd cb58 0abe c680 773d
00000130: c68d 613e f8aa 8a3d 96ec cc3d afd2 8a3d
00000140: ee90 ca3d 5b75 67bd 6e96 193d 2ea2 3f3c
00000150: 630f b43d 108d 7c3c 131f c8bd ae69 983d
00000160: 1e87 cebd 639a 2b3d f028 79be 77f1 d0bd
00000170: 6be2 debb 4eb3 953d 9ecc 583c 0fee 7bbd
00000180: 152f a3bd ce3e f23d 5890 d4bd a3fe 843d
00000190: c11f d93d ac3f a53d 008e 9435 19e8 55be
000001a0: 013e d13d 0c42 ad3d cab0 a1be 581b 9c3d
000001b0: 85bd fabd 3016 f9bd 2b1f 7b3d f553 41bd
000001c0: f082 7e3b 7953 ba3d 7e3c 833e 318f 663d
000001d0: accb 333e 79d6 55bc 095c 3e3d 4fca 9c3d
000001e0: 9df3 c4bd bac2 25be 2a7f d73d 11ec a7ba
000001f0: ecb3 84bd 27f0 a9bb a3da 033d ae63 1e3d
00000200: 6a78 fd3b 6161 62bd 1ae4 173d 6e33 a2bd
00000210: 88b5 b6bc 9ab0 67bd a9f0 24be d848 45bd
00000220: 1033 863d 426c 193c 7a56 313e 20cb 68bd
00000230: 69c1 c9bc efbd 323d 9d24 0cbe 963a 33bd
00000240: 70ca 0abe 590b 04bc b108 a23d 2fab 9dbd
00000250: 7d0a 8c3d 3ad3 adbd d2b6 4fbd f1e5 a1bd
00000260: a43f a63c 7492 d93b 3265 303d 3297 213e
00000270: 879c 003d c897 b73c 2b99 14be b995 1e3d
00000280: 221a 4f3d 1811 663d 44c2 983d cea9 643c
00000290: 40af 9a3d 96c5 3f3d 79b7 1dbd 6e08 003e
000002a0: 82ba c33c c443 59bd 8c05 b83c ad92 09be
000002b0: c415 7ebc fb6a 9dbd c23e 2fbc d211 c7bc
000002c0: 7898 95ba 61bf 24be b8e7 743d 7d8c 813d
000002d0: a75d 893c 04cd 093d 09dc 23bd 9e71 3f3d
000002e0: 17d4 903d 85d0 94bd 8eaa 20bd f0dd 243d
000002f0: c8bc 65be 1600 03bd b2bd 4abd e152 5bbc
00000300: c78f 31bc fdcb 5aba 0176 c43d 3514 46bd
00000310: 0c36 42bb c79b b03d 958a d73c fed8 ca3c
00000320: f2b3 0d3c f15f 643d d070 edbd 25ef edbd
00000330: 1805 1a3e 3fdf febc cdff 22be b216 593c
00000340: d69e 803d ad4d acbd b345 4bbe 2750 943d
00000350: 784d c8bc 2933 653a 5a40 f83d 0d67 35bd
00000360: 9b55 1cbd 43cc cdbd 1619 a13d bd9b a0bd
00000370: 7b32 90bd 08fb 86bd 77be 55bd ba67 90bd
00000380: f72f 813c 9c90 083e 0b48 0b3e d2a3 46bd
00000390: cfdf d83d a552 113e de1a 133e 4172 9abd
000003a0: 8c4d d03d 77c6 fe3d e8d0 5d3d 11a1 aabd
000003b0: e2d9 a63d e764 6fbd b88c 4fbe 2434 50bd
000003c0: e6c3 d5bd 1a8a e03d e5c3 3dbd 4fc6 c73d
000003d0: 709c 3d3e 2cdb ce3d 956e f93d ac0c 913d
000003e0: d0bc c4bd b7f9 83bd 0778 363c 0b4f 143e
000003f0: 5dca 1abe bc1d 193e 03bb c73d 1e71 e2bd

network_body._body_endoder.seq_layers.2.bias f4 [128]
-0.001833505 -0.02602498 -0.006628634 -0.0059052072 0.035879515 -0.0036993823 -0.019984558 0.012592828
-0.0028591151 0.03215775 0.03922125 0.0068790815 0.042060744 0.01819465 -0.027585924 0.033398736
-0.017504169 0.0016832968 -0.030285057 0.055026606 0.023020264 0.031276837 -0.0053594275 0.030366508
-0.009142379 0.026330926 0.04535142 -0.010227383 0.0013968669 -0.017893035 -0.025749115 0.04041497
0.0033019034 0.025515946 -0.00771621 0.026935577 -0.0027917358 -0.042036023 -0.011042854 -0.028445788
0.03404488 0.0110306805 0.047456004 0.0071997293 0.004515176 -0.019309398 -0.008882196 0.016537579
-0.0057211067 0.040324237 -0.019017605 -0.02816781 0.077068835 -0.018949265 -0.01868354 -0.0337558
0.012291264 0.070669346 -0.0079398975 0.06466942 0.0016128519 -0.044829845 0.037151907 -0.028499862
0.037972327 0.005287981 0.02041686 0.0335213 0.05355527 -0.0463366 -0.026618138 -0.03632643
-0.002104394 -0.0072143297 0.042658623 0.016799463 0.035793662 0.0393419 0.020168526 -0.031770278
-0.015286124 0.020346845 0.03548921 -0.010632532 0.03200866 0.030489594 0.011946996 -0.012886668
-0.002912143 0.002026426 0.026587836 0.035027463 -0.03389041 0.002517242 -0.03368837 0.034229405
0.016846998 0.010181299 -0.015798863 -0.013200404 0.050595928 0.0027844433 -0.0056831534 0.032650862
-0.0006401513 0.016510746 0.026294177 -0.02602548 -0.024924701 -0.002508237 -0.008053902 -0.022284143
-0.02436562 0.00034365454 -0.023988878 0.0040249643 -0.009826003 0.043476727 0.05091194 0.0046271007
-0.016186163 -0.011208391 0.02336008 0.035330564 0.0057166344 -0.003203287 0.024416262 0.037704322
00000000: 3852 f0ba 5732 d5bc 0335 d9bb 7880 c1bb
00000010: 66f6 123d 5671 72bb a8b6 a3bc 2652 4e3c
00000020: fe5f 3bbb d8b7 033d 76a6 203d eb69 e13b
00000030: e347 2c3d f20c 953c e0fb e1bc 1dcd 083d
00000040: e764 8fbc 11a2 dc3a 5e18 f8bc 9463 613d
00000050: fe94 bc3c 241c 003d 239e afbb 2fc3 f83c
00000060: ebc9 15bc f4b3 d73c 69c2 393d c190 27bc
00000070: 1317 b73a 6a94 92bc cfef d2bc 2b8a 253d
00000080: bf64 583b d106 d13c 43d8 fcbb 00a8 dc3c
00000090: 8ef5 36bb f72d 2cbd 16ed 34bc 2407 e9bc
000000a0: a572 0b3d 07ba 343c 3a61 423d b5eb eb3b
000000b0: 0bf4 933b be2e 9ebc a186 11bc d179 873c
000000c0: 1f78 bbbb 072b 253d cfca 9bbc 2ec0 e6bc
000000d0: 44d6 9d3d 7d3b 9bbc 390e 99bc 8643 0abd
000000e0: 4c61 493c 17bb 903d 5816 02bc 6771 843d
000000f0: 5466 d33a 809f 37bd 992c 183d 8b78 e9bc
00000100: df88 1b3d cd46 ad3b 4241 a73c a14d 093d
00000110: c55c 5b3d 72cb 3dbd 480e dabc 06cb 14bd
00000120: dfe9 09bb 2f66 ecbb cfba 2e3d 079f 893c
00000130: 609c 123d f924 213d 7738 a53c 8d21 02bd
00000140: a772 7abc 6dae a63c 225d 113d 1234 2ebc
00000150: 831b 033d 50c5 f93c 55bd 433c 9a22 53bc
00000160: a7d9 3ebb c9cd 043b bcce d93c f578 0f3d
00000170: acd0 0abd 50f8 243b d1fc 09bd 2234 0c3d
00000180: b702 8a3c 77cf 263c 9e6c 81bc 8246 58bc
00000190: ad3d 4f3d 357b 363b bf39 babb e9bc 053d
000001a0: d4cf 27ba 8b41 873c e366 d73c 6333 d5bc
000001b0: e32e ccbc 3c61 24bb 83f4 03bc 3c8d b6bc
000001c0: 699a c7bc 882c b439 5384 c4bc d9e3 833b
000001d0: 3efd 20bc a714 323d 0a89 503d ef9e 973b
000001e0: d898 84bc 66a3 37bc a35d bf3c c8b6 103d
000001f0: 9b52 bb3b 3dee 51bb 9d04 c83c d96f 1a3d

action_model._continuous_distribution.log_sigma f4 [1, 2]
0.058948122 -0.07523498
00000000: 9673 713d cc14 9abd

action_model._continuous_distribution.mu.weight f4 [2, 128]
-0.04442104 -0.01785139 0.061414752 0.04258288 -0.04952723 0.038293958 0.037068196 -0.004446658
0.07643534 0.023061099 -0.026140053 0.07275681 -0.08860212 -0.040752266 0.01173193 0.019948926
0.01418071 -0.060515333 0.020008065 -0.06239837 0.023166839 -0.0054400945 0.0009256574 0.049621936
0.054467637 0.04746821 -0.04348547 0.05085479 -0.045687187 -0.058639236 0.053475738 0.027664524
-0.0158865 -0.06147062 0.051325306 0.003826203 0.044157647 -0.020594034 0.051690694 0.014682261
0.026970182 -0.045785233 -0.06484025 -0.055460796 0.056445315 0.040968083 -0.012373018 0.034712423
0.023716386 0.030495921 -0.019429492 -0.024933068 -0.05004056 -0.026693348 0.00693785 -0.0015226104
0.018830406 -0.047166377 -0.0018978001 -0.0193616 0.04770375 0.0060272994 0.022114217 -0.000933641
-0.03363841 0.054521903 -0.04564672 0.022670202 -0.038632397 -0.046043914 -0.017513521 0.013993782
0.02959013 0.03614139 -0.05593161 0.024555657 -0.0674291 -0.08472751 0.018682446 -0.01644002
0.00048505038 -0.08803426 -0.07421237 0.045243736 -0.035008345 0.00703904 0.057417374 0.048346795
0.018898783 -0.062719926 -0.06997015 -0.014284726 0.0041982606 0.034083188 0.023343619 0.030797098
0.0739141 0.078044735 0.037192214 0.014387081 0.01905278 0.048085123 0.06386633 0.04598173
-0.010914133 0.010246328 -0.08335222 0.020953715 0.014406442 0.026440173 -0.008857106 0.034160253
-0.056305397 0.062302925 -0.051686537 -0.024363197 0.06735006 0.0073124412 0.026372155 -0.0039407206
0.047785595 0.051437747 -0.05695149 0.021668497 0.0035540585 0.05886768 0.012143686 -0.009751929
0.03672246 -0.060779613 -0.015152931 -0.027912255 0.07036693 -0.0034857164 -0.026224963 0.027422713
-0.05888073 0.042273276 0.06715172 0.004447173 0.07605898 0.05264523 -0.055208825 0.040956393
-0.04199742 0.008053562 -0.020796807 0.095337786 0.020544022 0.022008425 0.0071063256 0.042150892
-0.023788104 0.018127207 0.104032815 -0.022057328 -0.002469248 -0.04101105 -0.035039227 0.07582369
-0.018720016 0.0560569 -0.014008415 0.039907888 -0.013070336 -0.046914753 -0.014629295 -0.01143232
0.04500212 -0.006650405 0.10517907 -0.013712723 -0.0028617685 -0.036350567 -0.019955564 0.023884397
-0.05742858 0.05497377 -0.05414691 -0.030651309 0.0894804 -0.04591429 -0.09917104 -0.05879778
0.007998684 0.104888715 -0.00025069356 0.063555166 0.01206967 -0.08278016 0.042655613 -0.029967202
0.053292524 0.009299615 0.045814577 0.04551529 0.0935116 -0.06441658 -0.009057242 -0.052001204
0.0077937236 0.009191014 0.04166659 -0.0028715173 0.06596078 0.06901063 0.017789997 -0.06639238
0.014024332 0.012354407 0.06893491 -0.009898083 0.055233672 0.043244477 0.0109653715 -0.03697619
-0.014403566 -0.014225612 0.022655131 0.057262823 -0.06755176 -0.005214098 -0.04915277 0.065070204
0.025081253 -0.01971984 -0.023611076 -0.0019518855 0.07923959 0.009348246 -0.004478704 0.03684305
0.010050495 0.02207947 0.048391964 -0.031339176 -0.056960903 -0.011122299 -0.061758615 -0.04254797
-0.033087347 -0.016812926 -0.067055576 -0.013436968 -0.0150266485 0.04778567 0.05870658 -0.0020849411
-0.015693372 -0.022927593 0.04722942 0.049340684 0.005807497 -0.014757656 0.027467577 0.077890225
00000000: d6f2 35bd 143d 92bc 098e 7b3d 636b 2e3d
00000010: 11dd 4abd 20da 1c3d d2d4 173d 45b5 91bb
00000020: 228a 9c3d a1ea bc3c aa23 d6bc 8601 953d
00000030: 0775 b5bd d9eb 26bd 4837 403c ee6b a33c
00000040: 3556 683c edde 77bd f4e7 a33c 6f95 7fbd
00000050: 62c8 bd3c d242 b2bb d1a7 723a 5f40 4b3d
00000060: 7519 5f3d 076e 423d d21d 32bd 1d4d 503d
00000070: 7d22 3bbd b22f 70bd 6009 5b3d b6a0 e23c
00000080: 6824 82bc 9ec8 7bbd 7c3a 523d 09c1 7a3b
00000090: a6de 343d d2b4 a8bc 9fb9 533d de8d 703c
000000a0: 92f0 dc3c 4c89 3bbd f7ca 84bd dc2a 63bd
000000b0: 3433 673d 26ce 273d 33b8 4abc 9d2e 0e3d
000000c0: de48 c23c 95d2 f93c 992a 9fbc 6f40 ccbc
000000d0: 55f7 4cbd 02ac dabc e756 e33b 5492 c7ba
000000e0: 3942 9a3c 8831 41bd 9bbf f8ba 389c 9ebc
000000f0: 0265 433d a780 c53b e028 b53c 96bf 74ba
00000100: 6ec8 09bd 5c52 5f3d 0ef8 3abd dcb6 b93c
00000110: 013d 1ebd 8b98 3cbd 8478 8fbc 2d46 653c
00000120: 0067 f23c ff08 143d 8b18 65bd f228 c93c
00000130: 4518 8abd 9e85 adbd ee0b 993c 39ad 86bc
00000140: 5c4e fe39 4e4b b4bd a8fc 97bd 7f51 393d
00000150: e964 0fbd bfa7 e63b 7b2e 6b3d 4a07 463d
00000160: 9fd1 9a3c 4e73 80bd 834c 8fbd 7c0a 6abc
00000170: 9091 893b d09a 0b3d 1e3b bf3c 324a fc3c
00000180: 4760 973d ebd5 9f3d dd56 183d cbb7 6b3c
00000190: 9314 9c3c e8f4 443d 5acc 823d 5757 3c3d
000001a0: 31d1 32bc 37e0 273c 92b4 aabd 20a7 ab3c
000001b0: ff08 6c3c 1099 d83c 651d 11bc 9feb 0b3d
000001c0: 7da0 66bd 5a31 7f3d 43b5 53bd 5495 c7bc
000001d0: d4ee 893d 349d ef3b 6b0a d83c 2921 81bb
000001e0: d4ba 433d 63b0 523d f745 69bd 2282 b13c
000001f0: 35eb 683b 3d1f 713d 50f6 463c 8ec6 1fbc
00000200: 4a6a 163d 0bf4 78bd 0044 78bc 3ea8 e4bc
00000210: 891c 903d 9e70 64bb bcd5 d6bc 99a5 e03c
00000220: ec2c 71bd be26 2d3d d786 893d 97b9 913b
00000230: cfc4 9b3d 86a2 573d a622 62bd e4c1 273d
00000240: 7d05 2cbd 16f3 033c 115e aabc 7540 c33d
00000250: f04b a83c 034b b43c 2edc e83b 6aa6 2c3d
00000260: 45df c2bc 827f 943c 280f d53d 92b1 b4bc
00000270: 1bd3 21bb 34fb 27bd 4b85 0fbd 7349 9b3d
00000280: b85a 99bc ec9b 653d 8d83 65bc 7476 233d
00000290: f624 56bc af29 40bd b6af 6fbc a04e 3bbc
000002a0: 2554 383d a4eb d9bb 2068 d73d 54ab 60bc
000002b0: 828c 3bbb 55e4 14bd da79 a3bc 36a9 c33c
000002c0: 3b3a 6bbd 2d2c 613d 26c9 5dbd 7418 fbbc
000002d0: 8041 b73d 9f10 3cbd 301a cbbd f1d5 70bd
000002e0: ea0c 033c e5cf d63d 856f 83b9 3629 823d
000002f0: ddbf 453c a588 a9bd a7b7 2e3d c77d f5bc
00000300: 4349 5a3d 6a5d 183c 11a8 3b3d 3e6e 3a3d
00000310: 0283 bf3d d7ec 83bd d464 14bc 37ff 54bd
00000320: 7e62 ff3b e895 163c 96aa 2a3d 1130 3cbb
00000330: 7216 873d 7255 8d3d 54bc 913c baf8 87bd
00000340: 50c6 653c 246a 4a3c bf2d 8d3d 922b 22bc
00000350: b43c 623d 1f21 313d 1aa8 333c 5874 17bd
00000360: effc 6bbc 8b12 69bc 4197 b93c 6c8c 6a3d
00000370: 9458 8abd 06db aabb 6a54 49bd 8743 853d
00000380: 3377 cd3c 808b a1bc 046c c1bc 69d6 ffba
00000390: 5e48 a23d 6329 193c 18c2 92bb bde8 163d
000003a0: d5aa 243c 01e0 b43c a736 463d 825d 00bd
000003b0: d64f 69bd 4e3a 36bc 9af6 7cbd c846 2ebd
000003c0: 9986 07bd 43bb 89bc 6f54 89bd bb26 5cbc
000003d0: 5532 76bc e8ba 433d 5076 703d 82a3 08bb
000003e0: 638f 80bc a6d2 bbbc a373 413d 7519 4a3d
000003f0: d14c be3b 18ca 71bc af03 e13c e984 9f3d

action_model._continuous_distribution.mu.bias f4 [2]
0.008538856 0.049407966
00000000: 8fe6 0b3c 0260 4a3d

exp_avg f4 [128, 36]
5.637739e-05 1.5300542e-05 -2.1498066e-05 2.9462219e-05 1.5289977e-05 4.026174e-05 -2.439072e-07 1.9483403e-05
4.8719336e-05 -1.6960477e-05 1.3331e-05 5.5903838e-05 6.989826e-05 -1.557176e-05 -9.509484e-07 5.4351694e-05
-3.935869e-06 -1.3558645e-05 6.380694e-05 6.345931e-05 5.2990625e-05 -1.9488928e-06 5.378628e-13 2.2519507e-05
-1.5315143e-05 -2.051875e-06 0.00011418801 5.8462294e-05 4.7077567e-05 1.3887032e-10 -4.78476e-13 2.3289134e-05
-4.2265633e-06 1.8344232e-06 9.051299e-05 6.1744366e-05 0.00020036851 4.277842e-06 -0.00017297405 -2.3267188e-05
-3.5222092e-05 0.00014502995 -9.767036e-05 -0.0001284954 0.00029500868 -8.459088e-05 -0.00016322502 6.27464e-05
2.569758e-05 -1.2407803e-05 -2.1342505e-05 -1.8013736e-05 0.00029772613 -4.410711e-06 -0.00023289716 1.7001015e-05
-1.3004835e-05 1.3864998e-05 7.387159e-13 -5.26892e-05 -0.00010272809 1.4289931e-05 0.00013736922 7.264035e-06
-2.0010802e-06 -2.4356528e-09 -2.1682163e-12 -3.0118732e-05 -0.00014952589 2.0282449e-05 0.00014560363 1.2348573e-06
-0.00010378259 -2.582853e-05 2.6190153e-05 -5.6119294e-05 -4.997368e-06 -9.9066805e-05 -9.886868e-07 -1.5281239e-05
-0.0001340003 2.1668357e-05 8.459188e-06 -0.000101110345 -0.00010830022 3.169548e-06 2.4280903e-06 -6.661606e-05
-9.7039425e-05 3.1881814e-06 -4.7965327e-06 -9.711886e-05 -9.50342e-05 -2.3175187e-06 -1.476967e-13 -4.5712866e-05
1.6987191e-06 -3.3601145e-06 -0.00011890929 -9.563117e-05 -9.1427704e-05 2.1812815e-10 1.1706574e-15 -5.573502e-05
-2.7962741e-07 -2.0941793e-06 -0.00010013585 -9.553329e-05 0.00016670648 -6.728443e-05 -0.00010630889 -7.0447204e-06
-8.2364815e-05 0.00010445365 -5.812245e-05 -0.00011602337 0.00021934585 -7.417331e-05 -0.00014699218 3.2139786e-05
-2.5492975e-05 -1.5183519e-05 -1.6502541e-05 -4.097426e-05 0.00026222802 -2.5696313e-06 -0.00022357778 -1.0114019e-06
-4.3043226e-05 5.599628e-06 2.7586405e-13 -5.6641995e-05 -0.00011963791 1.4347936e-05 0.00012516064 -1.2834615e-05
-2.8385644e-05 -1.7983804e-09 -2.0843635e-12 -3.9997016e-05 -0.00011460316 1.467954e-05 9.894347e-05 -1.8328132e-05
-7.1248454e-05 -4.799133e-05 3.153067e-05 -2.8537343e-05 -1.1751974e-05 -8.998174e-05 1.1928785e-05 -3.865347e-06
-0.00013388338 2.8041522e-05 1.4350694e-05 -8.561824e-05 -0.0001055273 1.3303966e-05 4.9150726e-06 -6.4024665e-05
-8.3921404e-05 3.8979724e-06 5.016479e-06 -7.651443e-05 -8.22194e-05 -8.7029935e-07 -3.0320156e-13 -3.6860354e-05
4.903129e-06 3.201288e-06 -0.000114437295 -7.857697e-05 -7.528036e-05 4.2800008e-10 1.59951e-14 -4.2102954e-05
8.603568e-06 -5.6559084e-06 -8.628357e-05 -7.6094424e-05 0.00039528997 5.7486694e-05 -0.0001350813 0.00017266313
-1.3385663e-05 0.00037452977 -4.1752777e-05 1.0048632e-06 0.0005228027 -0.00012888783 -7.017412e-05 0.0003465435
0.00036004628 -4.990262e-05 -7.527792e-06 0.00023993317 0.00037137885 -2.930194e-05 -2.0931904e-05 0.000318888
0.00027582556 1.7798653e-05 3.3893025e-13 0.00011147647 -9.401431e-05 4.95662e-06 0.0005081951 0.00029953104
0.00027596907 -8.951871e-10 -2.8346357e-12 0.00014274733 -6.56442e-05 1.7016911e-05 0.00038823334 0.00029907824
0.00031836124 2.213715e-05 -0.00023167043 2.6899423e-05 -4.741896e-05 0.0002436334 -0.0001004719 -0.00011098659
0.00042506028 -0.00014942422 -0.0001665493 0.00018025635 0.00014026006 -4.7798356e-05 -1.896134e-05 8.217929e-05
0.00033707946 -1.5139923e-05 -0.00018264833 0.00011058341 6.225543e-05 1.2062281e-05 1.1267698e-12 -2.1760072e-05
-0.00017191151 1.430687e-05 0.00036944475 9.59618e-05 6.504869e-05 -2.3997826e-09 -1.5773155e-12 1.1120033e-05
-0.00015809995 1.893514e-05 0.00029077457 9.6209566e-05 -2.1300046e-05 -1.0424519e-05 1.9321235e-05 2.4720516e-06
00000000: c376 6c38 aa59 8037 bf56 b4b7 a225 f737
00000010: fa42 8037 b7de 2838 5af2 82b4 4a70 a337
00000020: fd57 4c38 5946 8eb7 36a8 5f37 4a7a 6a38
00000030: 5896 9238 1aa0 82b7 ad44 7fb5 b0f7 6338
00000040: db10 84b6 f079 63b7 17d0 8538 7515 8538
00000050: 4042 5e38 b9c9 02b6 1965 172b 46e8 bc37
00000060: 0579 80b7 f2b2 09b6 3978 ef38 6935 7538
00000070: 2775 4538 85b0 182f d4ad 06ab 095d c337
00000080: e7d1 8db6 4d36 f635 cbd1 bd38 c17c 8138
00000090: 031a 5239 628a 8f36 5e60 35b9 e82d c3b7
000000a0: 6fbb 13b8 2e13 1839 60d4 ccb8 b9bc 06b9
000000b0: 65ab 9a39 6266 b1b8 6227 2bb9 b896 8338
000000c0: 2291 d737 1c2b 50b7 ae08 b3b7 341c 97b7
000000d0: 2018 9c39 b8ff 93b6 db35 74b9 679d 8e37
000000e0: 572f 5ab7 b79d 6837 17ee 4f2b 99fe 5cb8
000000f0: b96f d7b8 c9be 6f37 c50a 1039 96bd f336
00000100: 4c4a 06b6 7560 27b1 1d93 18ac 7ca7 fcb7
00000110: 0dca 1cb9 3a24 aa37 2dad 1839 60bd a535
00000120: dba5 d9b8 59aa d8b7 edb2 db37 a261 6bb8
00000130: 10af a7b6 16c2 cfb8 05b3 84b5 3630 80b7
00000140: 6e82 0cb9 71c4 b537 f0eb 0d37 340b d4b8
00000150: 3d1f e3b8 6cb4 5436 46f2 2236 3ab4 8bb8
00000160: a581 cbb8 8af4 5536 e7f1 a0b6 4aac cbb8
00000170: 194d c7b8 ab86 1bb6 ad4a 26aa d1bb 3fb8
00000180: 8bff e335 547e 61b6 f05e f9b8 988d c8b8
00000190: e0bc bfb8 9ed5 6f2f a3b5 a826 06c5 69b8
000001a0: b31f 96b4 ba89 0cb6 0600 d2b8 0b59 c8b8
000001b0: eecd 2e39 0e1b 8db8 27f2 deb8 b061 ecb6
000001c0: 46bb acb8 200e db38 81c8 73b8 9351 f3b8
000001d0: 3400 6639 7e8d 9bb8 ea21 1ab9 d5cd 0638
000001e0: bfd9 d5b7 b8bc 7eb7 f06e 8ab7 c7db 2bb8
000001f0: a67b 8939 ee71 2cb6 3470 6ab9 81bf 87b5
00000200: 5089 34b8 70e4 bb36 334c 9b2a e192 6db8
00000210: 1de6 fab8 eab7 7037 8e3d 0339 4054 57b7
00000220: b51d eeb7 e32a f7b0 8eac 12ac 78c2 27b8
00000230: 1a57 f0b8 2548 7637 df7f cf38 5dbf 99b7
00000240: 396b 95b8 4c4a 49b8 cd3f 0438 7a63 efb7
00000250: 582a 45b7 94b4 bcb8 be21 4837 14b3 81b6
00000260: 0c63 0cb9 b63a eb37 c3c3 7037 f18d b3b8
00000270: 8a4e ddb8 1934 5f37 27ec a436 fb44 86b8
00000280: f6fe afb8 54cb 8236 3a53 a836 5f76 a0b8
00000290: 346d acb8 849e 69b5 f3af aaaa 819a 1ab8
000002a0: 8f85 a436 b6d5 5636 0efe efb8 b1c9 a4b8
000002b0: d6df 9db8 a84b eb2f 3112 9028 b497 30b8
000002c0: 0b58 1037 e2c7 bdb6 24f3 b4b8 e294 9fb8
000002d0: ec3e cf39 de1d 7138 9ca4 0db9 e80c 3539
000002e0: fc92 60b7 895c c439 b41f 2fb8 d6de 8635
000002f0: b20c 093a 1026 07b9 722a 93b8 48b0 b539
00000300: 98c4 bc39 884e 51b8 3e97 fcb6 9296 7b39
00000310: a0b5 c239 70cd f5b7 ec96 afb7 6c30 a739
00000320: ae9c 9039 514e 9537 ffcc be2a 79c8 e938
00000330: 8c29 c5b8 0b51 a636 6538 053a 600a 9d39
00000340: f1af 9039 3111 76b0 4278 47ac 72ae 1539
00000350: 76aa 89b8 8abf 8e37 cc8b cb39 9acd 9c39
00000360: b9e9 a639 2bb3 b937 8fec 72b9 12a6 e137
00000370: b8e3 46b8 d877 7f39 71b4 d2b8 79c1 e8b8
00000380: a0da de39 c2ae 1cb9 bda3 2eb9 3203 3d39
00000390: c612 1339 187b 48b8 2b0f 9fb7 ac57 ac38
000003a0: 0aba b039 7901 7eb7 4a85 3fb9 04e9 e738
000003b0: 218f 8238 1a5f 4a37 2994 9e2b 6689 b6b7
000003c0: 2543 34b9 8a07 7037 09b2 c139 193f c938
000003d0: c06a 8838 6ce9 24b1 c8fc ddab 2e90 3a37
000003e0: a2c7 25b9 e7d6 9e37 1a73 9839 1ec4 c938
000003f0: 80ad b2b7 f8e4 2eb7 0914 a237 86e5 2536

exp_avg_sq f4 [128, 36]
9.670654e-08 8.750696e-09 2.5770927e-08 8.630896e-08 9.9427574e-08 1.4449511e-08 1.5348565e-08 6.907913e-08
5.635867e-08 5.7392824e-09 5.8982344e-08 1.07659744e-07 1.1484116e-07 5.5987344e-09 9.6393205e-09 6.381193e-08
2.9953746e-08 4.5831507e-09 8.1112816e-08 1.1315791e-07 1.2493962e-07 3.818442e-09 2.383135e-10 6.317078e-08
2.663023e-08 3.2888068e-09 8.402847e-08 1.1506044e-07 1.2768896e-07 3.0741945e-09 3.5094908e-10 5.3947407e-08
1.9579067e-08 4.0664987e-09 8.812363e-08 1.1587154e-07 5.066817e-07 2.9308478e-07 5.9086983e-07 9.279288e-07
6.864532e-07 2.0563537e-07 5.0331755e-07 8.713338e-07 2.7236928e-07 5.186299e-08 9.766491e-07 1.200543e-06
1.0103886e-06 5.1608826e-08 2.9738405e-07 8.314936e-07 1.6268116e-07 3.456231e-08 1.0866405e-06 1.2427869e-06
1.3138825e-06 1.2436702e-08 4.5166013e-09 7.402062e-07 4.1129437e-07 9.706367e-09 8.0422393e-07 1.206809e-06
1.2949127e-06 1.0727791e-08 2.3928923e-09 6.5961314e-07 5.9316295e-07 1.549449e-08 6.013053e-07 1.1092194e-06
2.9834233e-08 1.16697985e-08 1.6389384e-08 3.435864e-08 3.5750524e-08 1.04446825e-08 1.1751359e-08 3.064964e-08
2.8685122e-08 2.073564e-09 2.5409276e-08 4.6306813e-08 5.151457e-08 1.1569986e-09 5.155262e-09 3.092621e-08
1.690111e-08 9.881027e-10 3.7396358e-08 5.165729e-08 5.7869453e-08 3.8565404e-10 6.0454974e-11 2.8315565e-08
1.3833629e-08 3.3152542e-10 3.8907693e-08 5.313149e-08 5.7482534e-08 3.4097927e-10 9.746968e-11 2.6653675e-08
1.7914006e-08 3.4132286e-10 3.5239314e-08 5.165048e-08 3.838044e-07 2.4967463e-07 3.7900165e-07 6.2794356e-07
5.8633594e-07 1.5547201e-07 2.8248024e-07 5.8692575e-07 2.9772156e-07 2.663186e-08 6.426819e-07 8.60531e-07
7.742898e-07 3.143919e-08 1.7621628e-07 5.603426e-07 1.7384346e-07 1.5194207e-08 7.753856e-07 9.1352905e-07
9.503077e-07 1.0882272e-08 1.2853658e-09 5.064141e-07 3.0624415e-07 4.494142e-09 6.2429297e-07 9.074777e-07
9.3414263e-07 8.515521e-09 1.5299937e-09 4.5260032e-07 3.5658442e-07 6.5451875e-09 5.720806e-07 8.613362e-07
4.012573e-08 2.5607545e-08 3.2450895e-08 5.7503396e-08 4.8081056e-08 2.0873662e-08 2.9981443e-08 5.500934e-08
3.950379e-08 4.360856e-09 5.1370424e-08 7.749704e-08 7.737424e-08 3.0810663e-09 1.7159328e-08 5.702151e-08
3.076297e-08 1.7139207e-09 6.1664664e-08 8.5417966e-08 9.6013764e-08 6.123428e-10 2.149126e-10 5.034374e-08
3.756409e-08 4.1066625e-10 5.07169e-08 8.520053e-08 9.551496e-08 2.7403632e-10 1.549115e-10 4.786702e-08
4.584247e-08 1.7659915e-09 4.0936417e-08 7.969988e-08 6.689479e-07 1.7108192e-07 2.716437e-07 6.561924e-07
7.454286e-07 2.3823179e-07 1.366555e-07 5.042444e-07 5.0495856e-07 5.2601692e-08 4.9052716e-07 8.707878e-07
1.0043331e-06 6.058825e-08 3.938208e-08 5.082756e-07 2.8758805e-07 2.727641e-08 7.3767177e-07 9.825678e-07
1.0657358e-06 2.106589e-08 2.3307709e-10 5.122935e-07 2.0475065e-07 7.8439175e-09 8.190371e-07 1.0225735e-06
1.0731355e-06 1.387787e-08 2.071703e-09 4.518456e-07 2.2651797e-07 1.1904216e-08 7.8253095e-07 1.0097543e-06
9.910771e-07 2.4985277e-07 6.44098e-07 1.2474958e-06 1.3067913e-06 2.389144e-07 3.610454e-07 1.0150914e-06
4.9542183e-07 6.172875e-08 1.1894742e-06 1.6152085e-06 1.5950916e-06 8.9838835e-08 1.6518044e-07 9.373587e-07
2.4569252e-07 2.2231415e-08 1.5082859e-06 1.7472761e-06 1.8303042e-06 2.0508647e-08 2.1090112e-09 9.4551297e-07
2.9754085e-07 2.0863695e-08 1.3848904e-06 1.7315908e-06 1.8108925e-06 2.0348917e-08 2.0328037e-09 7.970785e-07
4.5662657e-07 2.584948e-08 1.2123388e-06 1.6576024e-06 1.881688e-08 5.687791e-09 2.126078e-08 3.3339163e-08
00000000: fcac cf33 f855 1632 de5e dd32 da58 b933
00000010: e384 d533 9f3d 7832 dad7 8332 a758 9433
00000020: 030f 7233 4333 c531 c653 7d33 9232 e733
00000030: 989e f633 fd5e c031 2e9a 2532 fb08 8933
00000040: 7ea6 0033 d279 9d31 3e30 ae33 3801 f333
00000050: 2427 0634 5f33 8331 a503 832f 81a8 8733
00000060: 7fc0 e432 4d01 6231 2473 b433 2517 f733
00000070: e01a 0934 cd41 5331 b1ef c02f cdb3 6733
00000080: d32e a832 4db9 8b31 7a3e bd33 0ed5 f833
00000090: e702 0835 4459 9d34 449c 1e35 c816 7935
000000a0: b444 3835 9fcc 5c34 b81b 0735 9ae5 6935
000000b0: 263a 9234 f6bf 5e33 6815 8335 5822 a135
000000c0: b09c 8735 81a8 5d33 27a8 9f34 ce33 5f35
000000d0: 75ad 2e34 a971 1433 afd8 9135 d5cd a635
000000e0: a958 b035 32a9 5532 7230 9b31 95b2 4635
000000f0: decf dc34 0ec1 2632 d9e1 5735 a4f9 a135
00000100: ddcc ad35 534d 3832 3570 2431 4510 3135
00000110: d939 1f35 be18 8532 6369 2135 7de0 9435
00000120: 1623 0033 517c 4832 a3c8 8c32 b991 1333
00000130: 1e8c 1933 3370 3332 06e3 4932 a3a3 0333
00000140: 4067 f632 867e 0e31 9743 da32 e1e2 4633
00000150: de40 5d33 4504 9f30 2a22 b131 bad3 0433
00000160: ef2d 9132 c6cd 8730 bb9d 2033 cadd 5d33
00000170: 238c 7833 fb03 d42f 20f1 842e 963a f332
00000180: f2a8 6d32 0e42 b62f 761b 2733 b132 6433
00000190: b7e2 7633 9174 bb2f 8d56 d62e 0df4 e432
000001a0: 51e1 9932 eca4 bb2f 095a 1733 4ed6 5d33
000001b0: ad0d ce34 050b 8634 9779 cb34 f48f 2835
000001c0: b364 1d35 d2ef 2634 caa7 9734 3b8d 1d35
000001d0: 8ad6 9f34 14c4 e432 c484 2c35 3dff 6635
000001e0: cad8 4f35 c107 0733 f635 3d34 736a 1635
000001f0: baa9 3a34 6a84 8232 1824 5035 3d39 7535
00000200: a618 7f35 bdf4 3a32 caa8 b030 83f0 0735
00000210: e069 a434 e46a 9a31 1695 2735 6599 7335
00000220: cbc1 7a35 a84b 1232 de47 d230 eafc f234
00000230: 9770 bf34 14e4 e031 1491 1935 9336 6735
00000240: b556 2c33 96f7 db32 2360 0b33 a7f9 7633
00000250: ae81 4e33 ab4d b332 f2c4 0033 6943 6c33
00000260: e0aa 2933 7fd6 9531 61a2 5c33 736c a633
00000270: f028 a633 b1ba 5331 c365 9332 d0e7 7433
00000280: 3e20 0433 398f eb30 826c 8433 066f b733
00000290: 2030 ce33 cb51 2830 854c 6c2f 8739 5833
000002a0: 2756 2133 23c4 e12f d2d3 5933 7df7 b633
000002b0: e81d cd33 2fa7 962f b653 2a2f 5896 4d33
000002c0: 54e4 4433 4db7 f230 11d2 2f33 7927 ab33
000002d0: c091 3335 a4b2 3734 6dd6 9134 3325 3035
000002e0: 7719 4835 a8cc 7f34 94bb 1234 695b 0735
000002f0: 7d8c 0735 2cec 6133 c5ac 0335 15c0 6935
00000300: 9fcc 8635 be1c 8233 0e25 2933 6f70 0835
00000310: cd65 9a34 764d ea32 6b04 4635 c6e0 8335
00000320: 670a 8f35 62f4 b432 af22 802f 8b84 0935
00000330: 6ed9 5b34 eac1 0632 cddb 5b35 5c3f 8935
00000340: a808 9035 856b 6e32 c95d 0e31 3095 f234
00000350: c938 7334 4c83 4c32 1e0f 5235 e586 8735
00000360: 2605 8535 8123 8634 14e6 2c35 a16f a735
00000370: 0265 af35 2544 8034 b4d5 c134 463e 8835
00000380: 21fd 0435 bd8f 8433 06a6 9f35 24ca d835
00000390: ee16 d635 6ced c033 745c 3134 cd9e 7b35
000003a0: b9e7 8334 66f7 be32 4f70 ca35 f383 ea35
000003b0: c6a8 f535 fe2a b032 1eee 1031 28cf 7d35
000003c0: b4bd 9f34 c037 b332 79e0 b935 0269 e835
000003d0: cb0d f335 becb ae32 76b1 0b31 d1f6 5535
000003e0: 4726 f534 9c0b de32 a5b7 a235 c97a de35
000003f0: c2a2 a132 576e c331 f3a0 b632 cc30 0f33

exp_avg f4 [128]
4.9688293e-05 1.5564685e-05 -0.00010040947 -1.9047779e-05 -8.3439794e-05 0.00030759137 9.1802234e-05 -1.1914962e-05
2.6340402e-05 0.00013028042 -3.2318844e-06 6.8421973e-06 -0.00017520727 3.1614378e-05 0.00035980687 0.00035169587
1.882525e-05 -0.0002002595 -6.1468105e-05 -0.00019377316 -0.0004258561 2.0652096e-05 0.00018669241 0.00023774775
4.9159935e-05 0.0002944276 4.9147625e-06 -7.475218e-05 -4.4859913e-05 1.100048e-05 4.119249e-06 -6.260229e-05
0.0001785035 -8.534817e-05 -1.7766473e-05 0.0001339717 -5.036139e-05 -3.094584e-05 7.6006276e-05 2.9063074e-06
2.9718176e-05 -8.0707076e-05 -0.00032631675 -0.00013845558 -3.8594942e-05 -8.385697e-05 3.429859e-05 -3.178154e-05
3.529243e-05 -9.330425e-06 -0.000121514655 4.4910244e-05 -0.00022348948 0.000121544304 7.33924e-05 7.258759e-05
0.0005702123 6.582428e-05 -0.00013091209 3.992481e-05 2.4762705e-05 2.4193905e-05 -0.00019535735 0.00018060583
-0.00011903108 1.7008571e-05 -0.00023299464 7.6183955e-05 0.00016401267 -0.0003295054 0.00023089691 -5.8427424e-05
-3.594512e-05 -0.0004543091 0.00023423505 -7.5226875e-05 0.0001518022 1.0574943e-05 0.00016213028 -0.00026153217
0.00010286432 4.9411843e-05 2.9790892e-05 -0.0001863961 -3.5006842e-06 -0.00011560724 9.758857e-06 -4.5737816e-05
5.9470403e-05 -0.00035822872 -0.00015369992 3.3151413e-05 -0.00010323999 -1.1213041e-05 5.285462e-08 0.00026491177
0.0003696848 -9.855208e-05 -0.00020808983 9.312746e-05 -5.1475076e-06 -0.00016560205 0.0003863729 -0.00019980247
-0.000119724275 1.3898467e-05 -0.00034856735 7.721461e-05 2.8260134e-05 -6.3842184e-05 2.72174e-05 -0.00015361069
8.472754e-05 -0.00029312196 -1.3198313e-05 9.4960276e-05 4.8659203e-05 -3.2374086e-05 3.1295515e-06 0.00022247259
0.00017725512 -0.00023657561 -3.301108e-05 0.00016596097 0.00010374782 4.5558274e-05 0.0001810499 4.578605e-06
00000000: 6668 5038 e890 8237 ec92 d2b8 cbc8 9fb7
00000010: 66fc aeb8 3744 a139 f385 c038 5fe6 47b7
00000020: 95f5 dc37 e29b 0839 5ae3 58b6 0796 e536
00000030: d8b7 37b9 ae99 0438 76a4 bc39 d263 b839
00000040: ebea 9d37 c0fc 51b9 70e8 80b8 962f 4bb9
00000050: 7045 dfb9 0a3e ad37 ddc2 4339 ed4b 7939
00000060: 1431 4e38 675d 9a39 7de9 a436 45c4 9cb8
00000070: f727 3cb8 b48e 3837 1438 8a36 5949 83b8
00000080: ab2c 3b39 f3fc b2b8 3609 95b7 c17a 0c39
00000090: 213b 53b8 d8cb 01b8 8f65 9f38 fb09 4336
000000a0: 4c4b f937 4841 a9b8 7e15 abb9 632e 11b9
000000b0: 01e1 21b8 5edc afb8 d5db 0f38 2b4d 05b8
000000c0: f506 1438 df89 1cb7 afd5 feb8 025e 3c38
000000d0: 8058 6ab9 9ae5 fe38 3fea 9938 2a3a 9838
000000e0: 4d7a 153a 240b 8a38 7245 09b9 f074 2738
000000f0: 81b9 cf37 04f4 ca37 d7d8 4cb9 0261 3d39
00000100: 53a0 f9b8 a1ad 8e37 0650 74b9 f3c4 9f38
00000110: d1fa 2b39 77c1 acb9 eb1c 7239 f80f 75b8
00000120: c7c3 16b8 5630 eeb9 fe9c 7539 1fc3 9db8
00000130: 182d 1f39 096b 3137 8401 2a39 411e 89b9
00000140: dcb8 d738 903f 4f38 74e7 f937 5273 43b9
00000150: 4ced 6ab6 2a72 f2b8 f9b9 2337 9bd6 3fb8
00000160: dc6f 7938 a5d0 bbb9 822a 21b9 0f0c 0b38
00000170: 8c82 d8b8 a51f 3cb7 4502 6333 dbe3 8a39
00000180: 41d2 c139 bfad ceb8 b032 5ab9 6d4d c338
00000190: c1b8 acb6 76a5 2db9 1892 ca39 1182 51b9
000001a0: 7b14 fbb8 762d 6937 ebbf b6b9 47ee a138
000001b0: 2d10 ed37 03e3 85b8 ec50 e437 8e12 21b9
000001c0: c0af b138 2aae 99b9 536e 5db7 6925 c738
000001d0: 6c17 4c38 69c9 07b8 4905 5236 8847 6939
000001e0: 8fdd 3939 4811 78b9 6175 0ab8 cf05 2e39
000001f0: 3093 d938 d315 3f38 36d8 3d39 eba1 9936

exp_avg_sq f4 [128]
1.348222e-07 1.368923e-06 6.025485e-08 1.0000891e-06 9.9737065e-08 1.1273804e-06 1.8845051e-06 4.791667e-08
1.183426e-08 3.3084632e-07 1.9383516e-07 1.5152143e-08 1.0664517e-06 5.3163408e-08 2.7686224e-06 2.6773932e-06
3.7196678e-08 7.940894e-07 3.4009705e-07 1.5493135e-06 6.793159e-06 5.500753e-08 9.401655e-07 1.9954543e-06
1.4782655e-07 2.431726e-06 3.8447148e-08 2.5412248e-07 1.1414764e-07 3.3670554e-07 6.3040824e-07 3.8337884e-08
1.7885612e-06 1.6191986e-07 1.21371375e-08 1.7890982e-06 9.30786e-07 3.2895235e-07 8.638957e-08 2.3704997e-07
1.315979e-07 1.6828993e-07 2.3518485e-06 7.019043e-07 8.30599e-08 1.8325784e-07 9.887214e-08 2.1934245e-07
2.2135353e-08 4.6523393e-08 2.9681476e-06 1.6318388e-07 3.2592582e-06 4.251077e-07 3.04614e-08 2.6421586e-07
6.6597277e-06 8.8059465e-07 2.8430105e-07 3.5350755e-07 3.2497843e-07 3.101913e-08 1.9147785e-06 1.3322076e-06
1.7958466e-07 7.021154e-08 2.3799214e-06 3.503178e-08 1.5632093e-06 3.7697534e-06 5.047482e-07 1.5429688e-08
4.163599e-08 1.851937e-06 2.6574053e-06 4.956979e-07 8.654956e-07 4.943051e-07 5.887461e-07 9.165108e-07
5.055231e-07 1.9650639e-07 5.8484662e-08 8.616795e-07 5.0291597e-08 4.1708634e-07 7.2256057e-07 5.526657e-08
1.7505849e-07 1.9700178e-06 4.8628954e-07 1.4084024e-07 4.0834777e-07 1.9782358e-06 1.1721952e-07 1.765208e-06
2.6360701e-06 1.3853324e-07 1.2942272e-06 1.0476822e-06 2.5844825e-08 1.0024776e-06 2.97971e-06 8.41381e-07
5.95936e-07 7.632798e-09 2.471492e-06 1.9873289e-07 1.3258644e-08 1.2191485e-07 9.731993e-08 2.244022e-07
7.338103e-07 1.4218014e-06 5.602396e-08 1.5760274e-07 1.8886656e-06 1.639918e-07 4.4606928e-08 2.8794493e-06
9.2250673e-07 2.1819144e-06 1.5690684e-08 1.1952095e-06 1.0115116e-06 3.5221007e-07 9.0404654e-07 8.8250243e-07
00000000: a5c3 1034 d6bb b735 7465 8133 cd3a 8635
00000010: 082f d633 7f50 9735 1aef fc35 f0cc 4d33
00000020: a04f 4b32 2c9f b134 0121 5034 ea27 8232
00000030: 0023 8f35 c955 6433 92cc 3936 44ad 3336
00000040: 2ec2 1f33 6829 5535 9596 b634 02f2 cf35
00000050: cbf0 e336 6b41 6c33 ae5f 7c35 a5e9 0536
00000060: 41ba 1e34 bc30 2336 1621 2533 546e 8834
00000070: 5421 f533 75c4 b434 5339 2935 f3a8 2433
00000080: 7f0e f035 31dc 2d34 b283 5032 f220 f035
00000090: 20db 7935 de9a b034 2b85 b933 cd87 7e34
000000a0: 5b4d 0d34 2fb3 3434 73d4 1d36 7f6a 3c35
000000b0: aa5e b233 88c5 4434 8953 d433 6584 6b34
000000c0: 2824 be32 03d1 4733 6330 4736 a537 2f34
000000d0: a1b9 5a36 5b3a e434 aad4 0233 8dd9 8d34
000000e0: a076 df36 0162 6c35 0aa2 9834 b5c9 bd34
000000f0: b278 ae34 e539 0533 a57f 0036 4ece b235
00000100: dbd3 4034 34c7 9633 bdb6 1f36 d975 1633
00000110: 76cf d135 dffb 7c36 087e 0735 3e8a 8432
00000120: 41d3 3233 1290 f835 e055 3236 1a10 0535
00000130: 6854 6835 63b0 0435 530a 1e35 2506 7635
00000140: 48b3 0735 44ff 5234 9130 7b33 2a4e 6735
00000150: 3200 5833 e9eb df34 fcf5 4135 3d5e 6d33
00000160: b6f7 3b34 a634 0436 9089 0235 df39 1734
00000170: e43a db34 d5c1 0436 1dba fb33 16ec ec35
00000180: 57e7 3036 babf 1434 4fb5 ad35 169e 8c35
00000190: 5f01 de32 de8c 8635 07f7 4736 43db 6135
000001a0: 69f8 1f35 6721 0332 e9db 2536 4863 5534
000001b0: 22c8 6332 b3e7 0234 33fe d033 35f3 7034
000001c0: 0ffb 4435 b9d4 be35 ff9e 7033 8339 2934
000001d0: 0e7e fd35 b915 3034 d695 3f33 903c 4136
000001e0: 2ea2 7735 016d 1236 2ec8 8632 166b a035
000001f0: 46c3 8735 6217 bd34 9bad 7235 1be5 6c35
