results/VectorTests/car6/CarFindGoal/CarFindGoal-2999983.pt (torch, 530875 bytes, 36 tensors)

network_body._body_endoder.seq_layers.0.weight f4 [128, 36]
-0.24897845 0.008657397 0.07854315 0.19254737 -0.03846281 -0.018454708 0.19406809 0.2074649
-0.0030822228 0.25155783 0.06769255 -0.070565276 0.05481067 -0.18633796 0.080187984 0.10893473
0.1581507 -0.05879291 -0.02401552 -0.10343091 0.07671276 -0.03279094 0.031194054 0.45507255
-0.15725961 0.24556042 -0.029190237 0.17961484 0.04509552 0.016654171 0.35565898 0.22279371
-0.22837552 0.31880698 -0.08212957 0.0897713 -0.017205434 0.48821056 -0.34411874 -0.07029596
-0.291097 0.23214395 -0.09045772 0.046985827 -0.16696256 -0.42828247 0.043283723 0.028543606
-0.005195045 -0.087721944 -0.22223407 -0.22592282 0.26050103 -0.014834963 0.34751257 -0.031134797
0.22627683 -0.01735193 -0.14044693 -0.08794892 0.3406367 -0.25502557 0.060759388 0.245357
-0.058839995 0.14351134 0.15217961 0.1837035 -0.31540006 0.07013516 -0.10827397 -0.1387712
-0.2896646 -0.118092164 0.065835975 0.06822176 -0.14337681 -0.051075496 0.129631 -0.01798327
0.054389346 0.118469685 0.025485836 0.07461845 -0.08192626 -0.021754531 0.3962742 -0.13527507
-0.12943846 -0.11362797 0.22437176 0.26497588 0.15666628 -0.014689164 -0.2082727 -0.10267778
-0.33829227 0.11613254 -0.3518603 -0.0509542 0.021918569 0.06582433 -0.25193918 0.29741186
0.08000776 -0.10336323 0.14951721 0.18068095 -0.09573905 0.029322442 0.13458933 0.10358945
-0.18125424 0.15984832 0.13163842 0.26331976 -0.15873009 0.28596228 0.039908722 -0.08587088
-0.3509544 -0.22874746 -0.17598464 0.123785295 -0.07967655 -0.02739056 0.03781972 0.11026778
0.06889681 0.28783065 0.20650722 -0.21122943 0.20849454 0.14681175 -0.09345509 0.0075695314
-0.008889976 -0.15603986 -0.16736248 0.2488908 -0.09074671 -0.42737502 0.048522983 0.16534007
-0.08338446 -0.16426826 0.018053384 -0.23813954 0.19449276 -0.12643847 -0.1402082 -0.021469494
0.16174497 0.10459997 -0.19165589 0.09210055 -0.03310524 -0.19536549 -0.041972328 0.23911199
-0.00852818 0.28469107 -0.013640913 0.1517696 0.22907123 -0.40706155 -0.3130921 -0.22187372
0.3170061 -0.3179288 0.19095536 -0.2707298 0.014668823 0.151283 0.049526785 0.12047892
0.06847362 -0.0774429 0.02718937 0.0627401 0.21061514 -0.20699435 -0.086712725 -0.09805681
0.08626186 0.037469313 -0.025216056 0.06813495 -0.053902045 -0.0023333312 0.0792635 0.035632364
0.0784413 -0.049476255 0.026391085 0.047108497 -0.007386963 -0.084425524 -0.18416819 0.0072067757
0.13651957 0.049395375 0.04824833 -0.22629704 -0.14969277 0.026917417 -0.08160296 0.08077715
-0.13483429 -0.28534687 -0.020175267 -0.071020514 -0.024418201 -0.30375022 -0.1848292 0.20512632
0.12609385 -0.26540655 0.049946394 0.038013887 -0.2682581 0.13546236 0.06814289 -0.12752354
-0.09513519 -0.12852614 0.07455518 0.11664935 0.15853651 0.07088165 -0.0979549 0.017476274
0.32708037 -0.20536187 -0.24647726 0.0101987 -0.13144316 0.13210453 -0.4903467 -0.08477994
0.07419724 -0.010689055 -0.055845864 0.006464871 0.18397695 -0.1935486 0.31403577 0.21963602
-0.03928623 -0.017068746 -0.19341092 0.15027393 0.26622018 -0.11042285 0.00415769 -0.035083592
00000000: 35f4 7ebe c1d7 0d3c 3bdb a03d 232b 453e
00000010: 2e8b 1dbd 542e 97bc c9b9 463e ae71 543e
00000020: 1eff 49bb 30cc 803e 64a2 8a3d 8784 90bd
00000030: 2781 603d 61cf 3ebe 9939 a43d 2c19 df3d
00000040: 42f2 213e d6d0 70bd 32bc c4bc 96d3 d3bd
00000050: 941b 9d3d cb4f 06bd ac8a ff3c 45ff e83e
00000060: aa08 21be 3174 7b3e 5d20 efbc f4ec 373e
00000070: 14b6 383d 546e 883c ef18 b63e 0924 643e
00000080: 46db 69be ab3a a33e 8c33 a8bd 04da b73d
00000090: 69f2 8cbc bcf6 f93e 5530 b0be 54f7 8fbd
000000a0: aa0a 95be 25b7 6d3e e641 b9bd 3674 403d
000000b0: 3cf8 2abe d747 dbbe 464a 313d 48d4 e93c
000000c0: 323b aabb 90a7 b3bd 5491 63be 5058 67be
000000d0: 6460 853e 580e 73bc 2bed b13e 670e ffbc
000000e0: 1db5 673e a225 8ebc 52d1 0fbe 901e b4bd
000000f0: ef67 ae3e b692 82be d6de 783d de3e 7b3e
00000100: 3502 71bd a3f4 123e f9d4 1b3e c51c 3c3e
00000110: 1e7c a1be 06a3 8f3d bebe ddbd 0a1a 0ebe
00000120: eb4e 94be 4eda f1bd 03d5 863d dab7 8b3d
00000130: 5fd1 12be 8a34 51bd fdbd 043e a751 93bc
00000140: 5dc7 5e3d 3ca0 f23d acc7 d03c 8fd1 983d
00000150: f4c8 a7bd 8f36 b2bc 74e4 ca3e 8c85 0abe
00000160: 848b 04be c8b5 e8bd b6c1 653e ebaa 873e
00000170: 206d 203e d2aa 70bc 7045 55be ba48 d2bd
00000180: a534 adbe e6d6 ed3d 0927 b4be 5ab5 50bd
00000190: 928e b33c e8ce 863d 2cfe 80be 5e46 983e
000001a0: 1cdb a33d 1ab0 d3bd 0a1b 193e 6d04 393e
000001b0: d612 c4bd 9e35 f03c c9d1 093e b526 d43d
000001c0: b69a 39be 47af 233e 39cc 063e d9d1 863e
000001d0: 248a 22be a669 923e 5477 233d 12dd afbd
000001e0: 4cb0 b3be c63c 6abe 5135 34be 2583 fd3d
000001f0: 762d a3bd 2b62 e0bc dae8 1a3d 13d4 e13d
00000200: c519 8d3d 8a5e 933e a176 533e 874c 58be
00000210: 987f 553e d255 163e 6265 bfbd d509 f83b
00000220: 43a7 11bc eac8 1fbe 1261 2bbe 3bdd 7e3e
00000230: 69d9 b9bd e6d0 dabe 09c0 463d e84e 293e
00000240: 79c5 aabd f035 28be b1e4 933c dada 73be
00000250: 1c29 473e 1679 01be bd92 0fbe cbe0 afbc
00000260: 79a0 253e 8238 d63d 7141 44be 379f bc3d
00000270: 5c99 07bd e40d 48be 2deb 2bbd c6d9 743e
00000280: c8b9 0bbc 07c3 913e 237e 5fbc 7d69 1b3e
00000290: a691 6a3e 5f6a d0be 9c4d a0be dd32 63be
000002a0: a04e a23e 90c7 a2be cd89 433e 199d 8abe
000002b0: 8155 703c eee9 1a3e 99dc 4a3d a7bd f63d
000002c0: e63b 8c3d 629a 9ebd 3ebc de3c e27d 803d
000002d0: 7fab 573e 54f6 53be 7196 b1bd 02d2 c8bd
000002e0: 0faa b03d 6c79 193d e791 cebc 568a 8b3d
000002f0: 64c8 5cbd cdea 18bb e754 a23d 3ef3 113d
00000300: d5a5 a03d 9da7 4abd 1e32 d83c d7f4 403d
00000310: 560e f2bb 4ae7 acbd 9696 3cbe d126 ec3b
00000320: c9cb 0b3e ce52 4a3d 0aa0 453d 69ba 67be
00000330: 1049 19be ea81 dc3c 741f a7bd 7e6e a53d
00000340: 0012 0abe fc18 92be 9a46 a5bc 3473 91bd
00000350: ae08 c8bc 2685 9bbe de43 3dbe a20c 523e
00000360: bf1e 013e 5ee3 87be 9794 4c3d 73b4 1b3d
00000370: 2059 89be a5b6 0a3e 808e 8b3d 8895 02be
00000380: 3dd6 c2bd 5b9c 03be 63b0 983d dbe5 ee3d
00000390: 6557 223e 662a 913d 949c c8bd 672a 8f3c
000003a0: 1477 a73e 624a 52be 8964 7cbe 7318 273c
000003b0: 0999 06be 6946 073e b90e fbbe 1ba1 adbd
000003c0: b9f4 973d 2521 2fbc a2be 64bd 45d7 d33b
000003d0: 7464 3c3e 9b31 46be 4cc9 a03e 44e8 603e
000003e0: 99ea 20bd c1d3 8bbc 830d 46be 69e1 193e
000003f0: 034e 883e 6025 e2bd 3b3d 883b d0b3 0fbd

network_body._body_endoder.seq_layers.0.bias f4 [128]
-0.000487966 0.027954068 0.005660495 -0.009550294 -0.011018596 0.007823478 0.007657311 0.00548348
0.030418487 -0.012590948 0.02791149 -0.00022811824 0.021476412 -0.028540686 -0.013077909 0.023376597
-0.0059014494 -0.019308701 0.0019368064 0.020859199 -0.00693654 0.0023151578 -0.008028582 0.005876933
-0.0049487213 0.015553556 0.0109872315 -0.014292213 0.014057667 -0.0017948969 0.01424063 0.015791962
-0.008119479 0.015101265 0.014347867 0.022773158 0.011764518 0.009692164 0.06960496 0.025471685
0.011121325 -0.020692952 -0.015688814 0.03270473 0.015802275 0.00812605 -0.019019939 -0.013894415
0.007939461 -0.038716953 -0.006706332 0.01536846 0.01620028 0.054671377 0.022009665 0.03410701
0.020864202 0.042431444 0.009368812 -0.0052553047 0.05355469 0.038937822 0.0045822803 0.025804037
-0.033896312 0.040291768 0.020609062 0.003954447 0.0039182557 0.0011068532 0.004974711 -0.0062818634
-0.0050921966 -0.007944141 0.016649388 0.0011886231 -0.0013443768 0.018002626 0.005183754 0.04267925
0.07158627 0.013349852 0.028517656 -0.007847339 -0.004305539 0.03550517 0.037272435 0.028362699
0.035944603 -0.0059384927 -0.0046863947 0.027433736 0.047047965 0.010495184 0.006732868 0.021161461
-0.017780995 -0.018233655 0.040699072 0.042090245 -0.0067940014 -0.015219878 -0.059651773 0.04353734
-0.021045731 0.013387846 -0.0065932604 0.004513792 0.010970308 0.014487891 0.010634667 -0.0077840546
0.026205702 -0.01405538 -0.021374794 -0.0028872215 0.017632509 0.035341807 -0.0016573635 0.021325152
-0.0035967354 0.024039865 -0.0056914906 -0.00902692 0.03484846 -0.014955832 -0.013107997 -0.0075868247
00000000: b0d5 ffb9 eeff e43c ac7b b93b d678 1cbc
00000010: 5787 34bc 0c2e 003c 2eea fa3b c4ae b33b
00000020: 3130 f93c 434a 4ebc a3a6 e43c 0633 6fb9
00000030: 4def af3c 28ce e9bc ba44 56bc 4780 bf3c
00000040: f260 c1bb 482d 9ebc 70dc fd3a e9e0 aa3c
00000050: ea4b e3bb e7b9 173b 508a 03bc 4a93 c03b
00000060: e228 a2bb 58d4 7e3c ca03 343c e329 6abc
00000070: 2152 663c bf42 ebba 8851 693c 255e 813c
00000080: 9007 05bc 4c6b 773c 5113 6b3c c68e ba3c
00000090: f7bf 403c e2cb 1e3c 0c8d 8e3d ffa9 d03c
000000a0: 3836 363c 4484 a9bc d485 80bc 65f5 053d
000000b0: c673 813c 2023 053c b4cf 9bbc 67a5 63bc
000000c0: 8314 023c ab95 1ebd cac0 dbbb fecb 7b3c
000000d0: 73b6 843c 18ef 5f3d 9d4d b43c cbb3 0b3d
000000e0: 67eb aa3c 98cc 2d3d a57f 193c b134 acbb
000000f0: 2a5c 5b3d 447d 1f3d f426 963b fd62 d33c
00000100: dcd6 0abd fb08 253d 56d4 a83c 4e94 813b
00000110: b664 803b d513 913a e702 a33b 17d8 cdbb
00000120: 71dc a6bb 2428 02bc 4c64 883c 93cb 9b3a
00000130: cd35 b0ba 3e7a 933c 7bdc a93b 70d0 2e3d
00000140: d39b 923d 56b9 5a3c dc9d e93c 2092 00bc
00000150: 7b15 8dbb de6d 113d fbaa 183d e458 e83c
00000160: a63a 133d b097 c2bb 5490 99bb b7bc e03c
00000170: 5eb5 403d fef3 2b3c 649f dc3b cd5a ad3c
00000180: 73a9 91bc bf5e 95bc 12b4 263d d266 2c3d
00000190: 37a0 debb cc5c 79bc 6b55 74bd 3654 323d
000001a0: 1968 acbc b258 5b3c 470c d8bb 6fe8 933b
000001b0: cfbc 333c 9f5e 6d3c 073d 2e3c 6211 ffbb
000001c0: 57ad d63c 8948 66bc 311a afbc 8a37 3dbb
000001d0: 0d72 903c 92c2 103d e43b d9ba 16b2 ae3c
000001e0: 35b7 6bbb 40ef c43c af7f babb a6e5 13bc
000001f0: 42bd 0e3d 4e09 75bc edc2 56bc e69a f8bb

network_body._body_endoder.seq_layers.2.weight f4 [128, 128]
0.1047592 0.15494512 0.030948406 -0.11579144 -0.016155785 0.09655714 0.105100065 0.05610931
-0.21440898 -0.00063618354 -0.07035077 0.060066294 -0.0085847415 0.07315282 -0.11010052 0.009805907
0.13890466 0.010861275 0.002207788 -0.056734093 -0.08476931 0.10439683 -0.13216856 -0.053662263
0.15781249 -0.028428836 0.14992835 -0.09564342 0.04447926 -0.038587697 -0.006091316 0.104796335
-0.12554513 -0.041705046 0.077732734 0.04493701 -0.059022024 -0.051226135 0.008460887 -0.045207374
0.08253891 -0.22798389 -0.019307883 0.14283893 0.11706158 0.07552397 -0.053682983 0.04271092
-0.06027274 -0.08243905 -0.1203209 -0.1304185 -0.047998983 0.11184445 -0.08072399 0.03929893
-0.051834565 -0.07665542 0.03704216 0.04409283 -0.09727269 -0.026779396 0.056274492 -0.13382952
0.071288235 0.066100836 0.08710883 -0.13246794 0.07657801 0.066357486 0.004254645 -0.021172235
-0.04490834 -0.19881247 -0.037408598 0.11066501 0.10123844 -0.05392726 0.049999334 0.13781238
-0.074774124 -0.119068146 -0.0057472093 0.0133308545 0.022916844 0.055536095 0.06298451 -0.023469018
-0.04016166 0.16662376 0.17611201 -0.04186078 0.08648588 0.31892934 0.14060614 0.11094403
-0.028432293 0.12013857 -0.023265624 -0.25119168 -0.12078673 -0.095911 -0.08874797 0.037434418
0.0525174 -0.051576663 0.022055963 0.079284325 0.040514342 0.22495331 0.04234342 0.0933475
0.16174072 -0.14228381 -0.11599252 -0.07236208 0.19697325 -0.09451907 0.05267296 -0.010622969
0.1384706 -0.21263759 0.10885086 -0.049730267 0.052612033 -0.070434116 -0.13109662 -0.027229454
0.23403768 -0.0520389 0.04289445 0.008681654 0.0063477308 0.07206828 0.036184825 0.020949913
-0.155784 -0.11626478 -0.032805037 -0.0393087 0.020828616 0.02588308 -0.12928915 -0.21808301
0.062028337 0.068307035 -0.097668365 0.028108923 0.06724378 -0.005846351 -0.18338534 0.023477472
0.08693469 -0.11112177 0.017640295 0.10677385 -0.07608081 -0.067953154 -0.027424894 0.13285731
0.14440906 -0.10744907 -0.0038192011 0.01376131 0.2529677 -0.07305288 -0.00706548 0.00047089212
0.12525111 0.0033397593 0.065678455 -0.09087341 -0.09547035 0.0011209495 -0.045014646 -0.03847576
0.044923365 0.19556929 0.037346847 0.07316321 -0.062446613 -0.07929984 0.0058150594 -0.022726724
0.07679852 0.08609836 0.03211449 0.05557948 -0.12267636 -0.122276634 -0.10473344 -0.052589253
0.063780844 0.013774592 0.055579685 -0.040525954 -0.023219177 -0.03512663 0.060692385 0.14002481
0.08378763 -0.15493286 -0.05060992 -0.14863724 0.04052761 -0.05747513 0.123321645 -0.1147745
-0.045882266 0.069170155 0.10301398 0.1380547 -0.051543325 0.15184085 -0.086464934 -0.28013772
-0.099538215 -0.0138805555 0.040518954 -0.099050425 0.009660491 -0.1153906 0.009630636 -0.08150039
0.027029442 0.048426785 -0.13142456 0.25705463 0.11171721 -0.08716411 -0.035672728 0.066217296
0.012992286 0.04886077 -0.07643599 0.07944933 -0.088872716 -0.07467253 0.1619514 0.029162953
-0.057017405 0.02382067 -0.03044671 0.021029478 0.008633444 0.04210997 -0.04149291 0.080350086
0.27519658 -0.098978385 0.008328636 0.066068955 0.095265225 0.15703022 0.041505385 0.03235745
00000000: fe8b d63d efa9 1e3e 8387 fd3c 1024 edbd
00000010: 2359 84bc c0bf c53d b43e d73d e0d2 653d
00000020: 078e 5bbe 8ec5 26ba 1114 90bd 1308 763d
00000030: 04a7 0cbc 25d1 953d 627c e1bd f4a8 203c
00000040: 063d 0e3e 7df3 313c 89b0 103b 0262 68bd
00000050: 889b adbd 01ce d53d 3257 07be f6cc 5bbd
00000060: 9999 213e 97e3 e8bc d186 193e b3e0 c3bd
00000070: e22f 363d 220e 1ebd aa99 c7bb 769f d63d
00000080: e78e 00be e9d2 2abd 5732 9f3d df0f 383d
00000090: 14c1 71bd 7fd2 51bd 889f 0a3c 5e2b 39bd
000000a0: 290a a93d 9c74 69be 912b 9ebc 5e44 123e
000000b0: fbbd ef3d 50ac 9a3d b0e2 5bbd a5f1 2e3d
000000c0: 8ce0 76bd ced5 a8bd ce6a f6bd 6d8c 05be
000000d0: 959a 44bd b40e e53d 9f52 a5bd eaf7 203d
000000e0: 7b50 54bd 84fd 9cbd 85b9 173d af9a 343d
000000f0: e736 c7bd 7760 dbbc 1580 663d 9b0a 09be
00000100: 91ff 913d e05f 873d 1d66 b23d ada5 07be
00000110: efd4 9c3d 6fe6 873d 8d6a 8b3b 6571 adbc
00000120: cff1 37bd 7f95 4bbe c239 19bd 56a4 e23d
00000130: 1956 cf3d d5e2 5cbd 1acc 4c3d b01e 0d3e
00000140: 2d23 99bd 00da f3bd 1653 bcbb a869 5a3c
00000150: 1bbc bb3c d179 633d 06fe 803d 1942 c0bc
00000160: 8e80 24bd 6b9f 2a3e b556 343e 3676 2bbd
00000170: 821f b13d b54a a33e 0efb 0f3e a036 e33d
00000180: d7ea e8bc 360b f63d 8d97 bebc 329c 80be
00000190: 085f f7bd fd6c c4bd 7fc1 b5bd d554 193d
000001a0: 7c1c 573d 0d42 53bd b5ae b43c d25f a23d
000001b0: 5ef2 253d 295a 663e 4b70 2d3d f92c bf3d
000001c0: 5c9f 253e d9b2 11be 7c8d edbd 9232 94bd
000001d0: 5bb3 493e 3793 c1bd 9abf 573d f60b 2ebc
000001e0: 3dcb 0d3e abbd 59be 33ed de3d f7b1 4bbd
000001f0: b77f 573d c33f 90bd 313e 06be 4e10 dfbc
00000200: 93a7 6f3e be26 55bd 17b2 2f3d 7f3d 0e3c
00000210: a000 d03b 8998 933d 8a36 143d 279f ab3c
00000220: d785 1fbe 3b1c eebd 935e 06bd 2902 21bd
00000230: c6a0 aa3c c108 d43c 6064 04be 2751 5fbe
00000240: 6d11 7e3d 8fe4 8b3d 5a06 c8bd af44 e63c
00000250: 1bb7 893d bf92 bfbb 5ec9 3bbe d453 c03c
00000260: d10a b23d d093 e3bd 6182 903c 40ac da3d
00000270: 41d0 9bbd 062b 8bbd 2caa e0bc bf0b 083e
00000280: f8df 133e 420e dcbd 904b 7abb 1e77 613c
00000290: fb84 813e c09c 95bd 8b85 e7bb 12e2 f639
000002a0: d441 003e dddf 5a3b 6d82 863d d71b babd
000002b0: f585 c3bd d3ec 923a 4761 38bd c298 1dbd
000002c0: 9001 383d 5143 483e 02f9 183d 98d6 953d
000002d0: 05c8 7fbd f467 a2bd 418c be3b 652d babc
000002e0: 8b48 9d3d 5654 b03d 7c8a 033d 4fa7 633d
000002f0: be3d fbbd 2c6c fabd 7c7e d6bd d467 57bd
00000300: 889f 823d d4ae 613c 86a7 633d 8bfe 25bd
00000310: 2536 bebc f1e0 0fbd 9498 783d aa62 0f3e
00000320: d998 ab3d b8a6 1ebe 594c 4fbd 5c34 18be
00000330: 4700 263d 0b6b 6bbd 0f90 fc3d e50e ebbd
00000340: 0bef 3bbd 15a9 8d3d fef8 d23d 365e 0d3e
00000350: 181f 53bd 2b7c 1b3e 8714 b1bd 366e 8fbe
00000360: b1da cbbd 456b 63bc 34f7 253d f3da cabd
00000370: 0947 1e3c e851 ecbd d1c9 1d3c ade9 a6bd
00000380: d96c dd3c 2a5b 463d 2994 06be aa9c 833e
00000390: fecb e43d 1983 b2bd 911d 12bd ef9c 873d
000003a0: 99dd 543c 3b22 483d 798a 9cbd 55b6 a23d
000003b0: e602 b6bd e9ed 98bd 96d6 253e 25e7 ee3c
000003c0: 158b 69bd 9123 c33c 616b f9bc 0346 ac3c
000003d0: 4a73 0d3c 817b 2c3d 78f4 29bd 968e a43d
000003e0: 91e6 8c3e 2eb5 cabd d574 083c 294f 873d
000003f0: 6a1a c33d 88cc 203e 8d01 2a3d 3f89 043d

network_body._body_endoder.seq_layers.2.bias f4 [128]
0.014380638 -0.013016597 -0.0076270537 -0.021583633 0.009892078 0.024065869 0.0026000487 0.018259272
0.015859667 -0.00025667078 0.0017758072 -0.006277551 0.025354804 -0.026173726 -0.0045530903 0.0066998387
0.033819683 -0.0071364637 -0.0044112247 0.026968673 -0.0064297966 -0.019315545 0.017947655 -0.0015195989
0.019834163 0.00949225 -0.021687148 0.016326046 0.02593184 -0.018237155 -0.0017020387 0.0299268
-0.013197877 0.006750875 0.02625119 -0.018139975 -0.011220124 0.026914489 0.00085842796 0.0227231
0.0236521 0.010914736 0.02783485 0.021921894 0.008445854 0.022734499 -0.022009332 -0.05903223
0.024251908 0.0054805307 -0.03668576 0.015835704 0.024430098 0.022916025 -0.008957948 -0.017412713
-0.028131701 0.015650708 0.029022455 0.0012490061 0.026489256 0.030374339 -0.018146856 -0.012271472
0.021576378 0.024902083 -0.006185637 0.0035231623 0.008598391 0.018683717 0.04619165 0.011286369
0.028038241 -0.0032083758 -0.012437664 0.0137417875 -0.016004229 0.0129105225 0.022957988 0.00046472417
0.013197132 0.006212358 -0.02842979 0.011772909 0.009719889 0.0071541467 0.0025667374 0.036661893
0.011933912 0.0077619967 0.0126421135 0.003531338 0.014117159 0.0128356125 0.00493325 0.022938803
0.014826165 0.027454708 0.021622982 -0.0071864747 -0.01174768 -0.010067735 0.0066307196 -0.02741338
0.0079474645 -0.010743521 -0.013889354 -0.012477356 0.01948637 -0.0122976275 0.009826706 0.01223709
0.022522707 -0.013519478 0.019540971 0.020502187 -0.0040272675 0.03179577 -0.011219735 -0.013881163
-0.0031020893 -0.0023176826 -0.006717848 0.015669001 0.0214421 0.02450143 0.015960688 0.0029023434
00000000: c49c 6b3c 9143 55bc 5dec f9bb 29d0 b0bc
00000010: 6212 223c c925 c53c 9465 2a3b 7894 953c
00000020: 22ec 813c c591 86b9 34c2 e83a eab3 cdbb
00000030: e1b4 cf3c 486a d6bc 1732 95bb 528a db3b
00000040: 8286 0a3d ffd8 e9bb 098c 90bb 68ed dc3c
00000050: 0bb1 d2bb a23b 9ebc f606 933c 472d c7ba
00000060: 417b a23c 6285 1b3c 3fa9 b1bc 33be 853c
00000070: 036f d43c 1666 95bc f116 dfba 0c29 f53c
00000080: e93b 58bc 7236 dd3b bc0c d73c 499a 94bc
00000090: 9cd4 37bc c67b dc3c 2008 613a cb25 ba3c
000000a0: 0cc2 c13c b9d3 323c e905 e43c 8b95 b33c
000000b0: 7b60 0a3c b33d ba3c ea4c b4bc c8cb 71bd
000000c0: f0ab c63c 0696 b33b cf43 16bd e1b9 813c
000000d0: a121 c83c 63ba bb3c 5bc4 12bc 1ba5 8ebc
000000e0: 7474 e6bc ea35 803c 80c0 ed3c b1b5 a33a
000000f0: ffff d83c 9bd3 f83c b7a8 94bc 490e 49bc
00000100: f2c0 b03c 74ff cb3c e2b0 cabb dbe4 663b
00000110: 44e0 0c3c 980e 993c 7533 3d3d 76ea 383c
00000120: 74b0 e53c 9d43 52bb 58c7 4bbc 3c25 613c
00000130: 4d1b 83bc a886 533c 6412 bc3c 39a6 f339
00000140: c938 583c 0991 cb3b 97e5 e8bc 29e3 403c
00000150: 2b40 1f3c 556d ea3b b536 283b c82a 163d
00000160: 7486 433c 5958 fe3b de20 4f3c 056e 673b
00000170: a84b 673c 764c 523c 1aa7 a13b 28ea bb3c
00000180: 71e9 723c b2e8 e03c ae22 b13c 857c ebbb
00000190: 5779 40bc 24f3 24bc 8246 d93b 0692 e0bc
000001a0: 1536 023c 9805 30bc 2c90 63bc d36d 4cbc
000001b0: e1a1 9f3c fd7b 49bc 3100 213c 137e 483c
000001c0: 8a81 b83c cd80 5dbc 6314 a03c 34f4 a73c
000001d0: 2bf7 83bb 483c 023d fbd2 37bc d16d 63bc
000001e0: 6c4c 4bbb 43e4 17bb 6521 dcbb 475c 803c
000001f0: 58a7 af3c 39b7 c83c fdbf 823c 3e35 3e3b

action_model._continuous_distribution.log_sigma f4 [1, 2]
0.033160113 -0.032644227
00000000: e6d2 073d f4b5 05bd

action_model._continuous_distribution.mu.weight f4 [2, 128]
0.060010314 -0.009802678 0.05352591 0.016518597 0.0431475 0.08153783 0.044349354 0.04500564
-0.07954651 0.00074393646 -0.053830557 0.0060256096 0.046046283 -0.016828336 0.04845189 0.060159244
-0.002421796 -0.02366125 0.0466848 -0.011117279 -0.0307846 -0.03950475 -0.03177167 0.03872378
-0.012214414 0.06742877 -0.02191566 -0.010594659 -0.019494366 0.010499956 -0.047989327 -0.003172156
0.040525176 0.0700116 0.032862864 -0.047535058 0.0025668147 0.00866653 0.050420463 -0.07362191
0.005583602 0.021301296 0.014212498 -0.039363224 0.020961236 0.010422193 -0.010424546 -0.020842865
0.0094525255 0.06510473 -0.034509763 -0.045868415 0.05466614 -0.047397044 0.056082997 -0.042999282
-0.035782907 -0.021952594 -0.009964642 0.052983116 -0.049377218 -0.014898582 -0.025071623 -0.067022376
0.08497234 -0.04225744 0.021162704 0.027120072 -0.081959575 -0.016253721 -0.05091146 -0.04072084
-0.043942124 0.056484032 -0.039208915 0.0501839 0.04220963 0.027629167 -0.029177256 -0.0077992505
-0.007930234 0.041946605 0.010967758 -0.0025929257 0.04098669 0.05631932 -0.069486484 -0.028146742
0.06791562 0.040100683 0.07913205 0.06690965 0.0038333845 0.070426926 -0.07268663 -0.0023618091
-0.038157314 0.05962171 0.052057542 0.029533535 -0.026738148 0.040056504 0.04978592 -0.055726126
0.07957863 -0.023365833 -0.005401073 0.029376464 -0.10119685 0.028079486 0.05308939 0.009549329
0.027109807 -0.05658476 0.01347707 0.0013877483 0.0045786398 0.09083534 0.031303555 -0.01623462
0.05310614 -0.0628968 0.07511011 0.032373205 -0.008658817 -0.048026655 -0.0027431545 -0.055869162
-0.005349415 -0.060711976 -0.036257505 -0.016665656 0.010409354 -0.021706281 -0.026733587 0.048933048
0.027937042 -0.037616197 0.018688753 -0.005427804 -0.0076615913 -0.052393857 -0.034090497 -0.020254333
0.070611395 -0.03068601 -0.04771912 0.06858671 -0.02383651 -0.06934289 0.023718514 -0.0271076
0.06374167 0.0018650179 -0.03854416 0.04810079 0.07177969 -0.056889493 -0.03461424 0.06824248
-0.011254531 -0.02389973 0.07775931 -0.047302216 0.005066053 0.014542731 -0.021483015 0.06807623
0.038972914 0.015140392 0.04937265 0.0555865 0.0027711939 0.039921347 -0.05024155 -0.024977421
0.05340204 -0.036917854 -0.064468585 0.036172457 0.028923023 0.060654484 -0.04253705 -0.017687343
-0.05741229 0.059690297 0.08132984 -0.0105299745 0.027120888 0.07926447 -0.0075598257 -0.009344629
-0.052586336 0.079841875 -0.072146975 0.0064267605 -0.022779193 0.026060674 0.05569066 0.044920363
0.012569058 -0.05124495 -0.017384559 -0.0019226538 -0.020435918 0.04723119 0.0032645564 0.0037021085
0.036701653 -0.013662388 -0.017048711 0.03405295 -0.0054011936 -0.018557709 -0.022914177 0.07893575
-0.016040271 0.00463159 -0.056768663 -0.010930338 0.032666463 -0.037256718 0.0073068603 0.046476815
0.043550335 0.057415083 0.038541712 -0.039811675 -0.055913977 -0.039959505 -0.066205814 -0.048708417
-0.052201644 -0.0084298765 -0.013562434 -0.04441052 -0.006601907 -0.051349945 0.0050194105 0.033476442
0.064147644 -0.00734654 0.048097137 0.06218698 0.016039379 -0.04163759 -0.04128899 -0.0010230934
-0.03050186 -0.032351423 -0.08207074 0.018072646 0.06756278 0.02249144 0.053341527 0.02444754
00000000: 60cd 753d 699b 20bc fc3d 5b3d 0252 873c
00000010: 6fbb 303d 4efd a63d aba7 353d d557 383d
00000020: 48e9 a2bd bb04 433a 6e7d 5cbd 7a72 c53b
00000030: 079b 3c3d 94db 89bc 7d75 463d 8a69 763d
00000040: ffb6 1ebb 3dd5 c1bc 9038 3f3d 3f25 36bc
00000050: fc2f fcbc bccf 21bd 0323 02bd d49c 1e3d
00000060: f71e 48bc 1818 8a3d 7888 b3bc 3895 2dbc
00000070: a6b2 9fbc 0208 2c3c 7590 44bd f2e3 4fbb
00000080: bafd 253d 3e62 8f3d 369b 063d 1fb4 42bd
00000090: 0138 283b 10fe 0d3c b085 4e3d 15c7 96bd
000000a0: a6f6 b63b 0e80 ae3c 8adb 683c 553b 21bd
000000b0: e6b6 ab3c d9c1 2a3c b7cb 2abc a8be aabc
000000c0: c4de 1a3c a155 853d 1c5a 0dbd 85e0 3bbd
000000d0: 9ae9 5f3d 6723 42bd 49b7 653d 0420 30bd
000000e0: 1991 12bd edd5 b3bc bd42 23bc d304 593d
000000f0: c43f 4abd 2f19 74bc 0163 cdbc 0743 89bd
00000100: fa05 ae3d 2316 2dbd 685d ad3c ea2a de3c
00000110: 6cda a7bd 8626 85bc 8988 50bd e5ca 26bd
00000120: a8fc 33bd cd5b 673d 8799 20bd a28d 4d3d
00000130: 01e4 2c3d 9056 e23c 2405 efbc db90 ffbb
00000140: d0ed 01bc 34d0 2b3d 1cb2 333c 13ee 29bb
00000150: a9e1 273d 16af 663d ee4e 8ebd ff93 e6bc
00000160: 5817 8b3d 9d40 243d fc0f a23d ed07 893d
00000170: 8539 7b3b fe3b 903d badc 94bd 95c8 1abb
00000180: d84a 1cbd e535 743d 4a3a 553d 50f0 f13c
00000190: f609 dbbc 4a12 243d 52ec 4b3d 1441 64bd
000001a0: 1ffa a23d b469 bfbc 7cfb b0bb e9a6 f03c
000001b0: 4b40 cfbd f306 e63c 4374 593d ca74 1c3c
000001c0: 6315 de3c 6cc5 67bd eece 5c3c 1be5 b53a
000001d0: 6a08 963b e107 ba3d 2838 003d 77fe 84bc
000001e0: d385 593d 0ad0 80bd 54d3 993d c499 043d
000001f0: b6dd 0dbc 99b7 44bd 7fc6 33bb 10d7 64bd
00000200: 254a afbb 1fad 78bd c082 14bd 6a86 88bc
00000210: ff8b 2a3c 5fd1 b1bc 6500 dbbc 056e 483d
00000220: 39dc e43c 7113 1abd 2819 993c b8db b1bb
00000230: 160e fbbb f19a 56bd 7aa2 0bbd 6aec a5bc
00000240: b59c 903d 3a61 fbbc 2075 43bd 3077 8c3d
00000250: c944 c3bc a503 8ebd 544d c23c c210 debc
00000260: fe8a 823d 9e73 f43a 7be0 1dbd 5505 453d
00000270: 3b01 933d f504 69bd a9c7 0dbd b7c2 8b3d
00000280: ed64 38bc 5ec9 c3bc 4640 9f3d f8bf 41bd
00000290: 2201 a63b a344 6e3c 26fd afbc 8d6b 8b3d
000002a0: 10a2 1f3d 680f 783c fa3a 4a3d abae 633d
000002b0: eb9c 353b 9184 233d 15ca 4dbd 739d ccbc
000002c0: 19bc 5a3d 2d37 17bd 1b08 84bd 9229 143d
000002d0: faef ec3c d670 783d 543b 2ebd 0ce5 90bc
000002e0: 2629 6bbd d07d 743d 4290 a63d ea85 2cbc
000002f0: a02c de3c 6955 a23d 6ab8 f7bb 371a 19bc
00000300: c564 57bd 2384 a33d cbc1 93bd 9397 d23b
00000310: 6e9b babc 327d d53c e41b 643d 6afe 373d
00000320: 73ee 4d3c 3ae6 51bd 106a 8ebc 8e01 fcba
00000330: 3a69 a7bc 7e75 413d 2bf2 553b 139f 723b
00000340: 7954 163d 35d8 5fbc bda9 8bbc 1b7b 0b3d
00000350: 7ffc b0bb 5606 98bc 83b6 bbbc 11a9 a13d
00000360: e366 83bc 98c4 973b 4286 68bd 2915 33bc
00000370: 45cd 053d 809a 18bd 636e ef3b 795e 3e3d
00000380: d661 323d 142c 6b3d eadd 1d3d 9111 23bd
00000390: 0e06 65bd 94ac 23bd ea96 87bd 7a82 47bd
000003a0: 64d1 55bd 771d 0abc f934 5ebc cee7 35bd
000003b0: cf54 d8bb 5254 52bd de79 a43b 981e 093d
000003c0: d75f 833d 3fbb f0bb 8101 453d c6b7 7e3d
000003d0: 0465 833c 2d8c 2abd a51e 29bd 5119 86ba
000003e0: 09df f9bc ed82 04bd b414 a8bd 160d 943c
000003f0: 5b5e 8a3d f83f b83c a57c 5a3d 3546 c83c

action_model._continuous_distribution.mu.bias f4 [2]
0.013831803 0.021979623
00000000: c99e 623c 9c0e b43c

exp_avg f4 [128, 36]
0.00010333358 -9.717783e-05 -0.00020459776 -0.00019962071 2.410792e-06 -1.1521432e-06 -0.00014665337 -0.00016943116
0.00014744984 9.957329e-06 -0.0003189916 -0.0002237779 -6.47524e-05 -1.1861022e-06 -4.432945e-05 -0.00016797606
0.00013750522 -3.8209128e-05 -0.00036853252 -0.00021892977 -0.00016514743 3.9963825e-06 3.7923077e-05 -0.00013901829
-0.00037423745 -2.0587486e-06 0.00022920281 -0.0001988707 -0.00022984814 4.483052e-06 1.3287416e-05 -0.00014664687
-9.9207165e-05 -2.390993e-05 -4.8099995e-05 -0.00016629338 0.00013543472 -0.00024826336 -0.00021261258 -0.00020994633
-0.00012184907 -2.0812526e-05 -9.001724e-05 -0.00022752462 2.4150371e-05 -5.0964154e-06 -0.00028177735 -0.00025817478
-0.0001201393 5.0366225e-07 -7.6722914e-05 -0.00021915865 -2.7344131e-05 -1.1622521e-05 -0.0003409138 -0.00026926197
-0.00023920053 1.3337865e-08 7.066655e-06 -0.00018348504 -0.0003923171 1.521388e-06 0.00018706621 -0.00026457882
-0.0002639015 5.8086525e-06 1.7424617e-07 -0.00019813112 -6.928136e-05 -2.7958216e-05 -0.00016164975 -0.0002415674
-1.4185783e-05 1.1286533e-05 -1.5361955e-05 -7.1873226e-05 0.00013744998 1.3578054e-05 -0.00017586772 -6.3744934e-05
0.00018341305 -1.0397056e-05 -0.00017341686 -8.809076e-05 2.6101123e-05 -1.2675443e-06 -2.3264622e-05 -7.637044e-05
0.00017698834 -1.5960668e-05 -0.00019808271 -8.9146044e-05 -3.8751234e-05 1.8922389e-06 1.3153704e-05 -6.5773755e-05
-0.00015714961 -2.9262449e-06 0.00016020608 -4.713462e-05 -0.00010264117 -9.622523e-07 4.360687e-06 -6.5170214e-05
-0.00013437535 -2.2432187e-06 0.00013374227 -2.3023042e-05 1.08645645e-05 -2.630609e-05 -6.425316e-05 -7.4114585e-05
4.8474003e-06 -1.9290048e-06 -7.798906e-05 -7.5154974e-05 3.1778967e-05 -5.7280718e-06 -0.000103379854 -9.018043e-05
-4.8529993e-05 4.0621277e-08 -1.3621432e-05 -7.311826e-05 4.378136e-05 -7.411796e-06 -0.000119724056 -9.5261e-05
-5.9412432e-05 1.0402539e-06 1.1310666e-05 -5.8738762e-05 -7.4493364e-05 -1.7865256e-06 -2.330569e-06 -8.743827e-05
-6.843991e-05 2.2712652e-06 3.5268347e-06 -5.976894e-05 -7.9869045e-05 -2.940005e-06 -8.5859347e-07 -7.9608355e-05
3.8749495e-05 -0.0001510944 -1.3008786e-05 -2.231741e-05 -0.00015441363 -5.736495e-06 5.9578768e-05 -6.4885426e-05
-0.00014021492 1.5831765e-05 1.0567287e-05 -6.975441e-05 -8.9829e-05 2.7366647e-07 -1.6130554e-05 -4.7898036e-05
-0.00015435941 1.0267127e-05 2.4227325e-06 -6.409859e-05 -0.000104255574 -1.6967103e-06 -6.589669e-06 -4.575808e-05
-2.1901951e-05 -1.12777045e-07 -8.482952e-05 -9.0026944e-05 -7.879551e-05 2.6756277e-06 -5.854057e-06 -5.4377968e-05
7.507224e-05 -3.9295282e-06 -0.00017930006 -9.7447046e-05 -5.484563e-05 1.8853152e-05 6.112939e-05 2.8506294e-05
-8.441398e-06 3.9408783e-06 1.2380552e-05 1.3494482e-05 -3.6585272e-05 -3.6478139e-06 5.629637e-05 2.4131852e-05
-1.5327154e-05 2.196103e-08 1.6248137e-05 1.6668031e-05 -2.0269616e-05 6.952095e-06 6.920746e-05 2.1656406e-05
2.853741e-06 9.097111e-08 -3.6710285e-06 1.0949827e-05 8.315112e-05 -4.2135346e-07 -6.5533546e-05 1.7887221e-05
9.955762e-06 -1.4537592e-06 2.5386086e-07 1.3641007e-05 1.2633534e-05 5.1133616e-06 1.2785392e-05 1.228014e-05
-0.00011557876 0.00013616838 0.00019069525 0.00015241743 7.558579e-05 1.4245424e-05 5.8979953e-05 0.00014601571
-1.3449423e-05 -1.098158e-05 0.00021583666 0.00017690197 8.8935354e-05 -1.0819198e-06 5.2140716e-05 0.00014368418
4.9578616e-06 1.88322e-05 0.00026343577 0.00018109927 0.00013494297 -2.1768685e-06 -2.1268392e-05 0.00011321631
0.00035025732 2.344168e-06 -0.00017493195 0.00018032026 0.0001648859 -3.8476906e-06 -9.323243e-07 0.00012122651
6.587519e-05 2.2656974e-05 0.00010758753 0.00015772277 -0.00018357008 0.00020953573 0.00026380364 0.0001783291
00000000: cbb4 d838 f3cb cbb8 4b89 56b9 4751 51b9
00000010: 17c9 2136 57a3 9ab5 f7c6 19b9 55a9 31b9
00000020: c49c 1a39 670e 2737 543e a7b9 eca5 6ab9
00000030: aecb 87b8 2932 9fb5 62ee 39b8 bb22 30b9
00000040: 472f 1039 bd42 20b8 9937 c1b9 8390 65b9
00000050: 6d2b 2db9 aa18 8636 980f 1f38 70c5 11b9
00000060: 4d35 c4b9 0829 0ab6 2956 7039 f287 50b9
00000070: 6403 71b9 206d 9636 04ed 5e37 38c5 19b9
00000080: 710d d0b8 2f92 c8b7 fabe 49b8 0a5f 2eb9
00000090: 7b03 0e39 5829 82b9 c1f0 5eb9 0a25 5cb9
000000a0: 3989 ffb8 8f96 aeb7 a3c7 bcb8 ad93 6eb9
000000b0: 8796 ca37 e001 abb6 84bb 93b9 a25b 87b9
000000c0: 4cf3 fbb8 6833 0735 4de6 a0b8 f4cd 65b9
000000d0: 1361 e5b7 59fe 42b7 adbc b2b9 bb2b 8db9
000000e0: e7d1 7ab9 8d24 6532 1b1e ed36 e465 40b9
000000f0: e9af cdb9 7e32 cc35 3427 4439 2bb7 8ab9
00000100: 425c 8ab9 f2e7 c236 6c18 3b34 6bc1 4fb9
00000110: 264b 91b8 d087 eab7 8680 29b9 414d 7db9
00000120: 79ff 6db7 4a5b 3d37 8cdd 80b7 a5ba 96b8
00000130: 7320 1039 4ccd 6337 2269 38b9 cdae 85b8
00000140: 9152 4039 046f 2eb7 3cd7 35b9 5ebd b8b8
00000150: bcf3 da37 7e20 aab5 6528 c3b7 1129 a0b8
00000160: f295 3939 46e3 85b7 6cb4 4fb9 ebf3 bab8
00000170: d288 22b8 d5f8 fd35 baae 5c37 04f0 89b8
00000180: 87c8 24b9 8160 44b6 fefc 2739 6ab2 45b8
00000190: 0f41 d7b8 bd26 81b5 0452 9236 feab 88b8
000001a0: 1ce7 0cb9 348a 16b6 2b3d 0c39 9b21 c1b7
000001b0: f346 3637 e6ab dcb7 a7bf 86b8 f76d 9bb8
000001c0: daa6 a236 0d74 01b6 0f8e a3b8 859c 9db8
000001d0: 684a 0538 c333 c0b6 a3cd d8b8 401f bdb8
000001e0: af8c 4bb8 9177 2e33 9b87 64b7 1157 99b8
000001f0: e1a1 3738 d8b2 f8b6 5d14 fbb8 dcc6 c7b8
00000200: 9d31 79b8 da9e 8b35 f1c2 3d37 445e 76b8
00000210: 5239 9cb8 8dc8 efb5 df66 1cb6 105f b7b8
00000220: 6687 8fb8 0a6c 1836 8fae 6c36 69b0 7ab8
00000230: 5e7f a7b8 e74c 45b6 187a 66b5 69f3 a6b8
00000240: f486 2238 186f 1eb9 4f40 5ab7 4636 bbb7
00000250: 18ea 21b9 1e7c c0b6 37e4 7938 1913 88b8
00000260: a806 13b9 75ce 8437 274a 3137 1d49 92b8
00000270: 9462 bcb8 6fec 9234 1a50 87b7 20e6 48b8
00000280: 8adb 21b9 fa40 2c37 3a96 2236 ab6c 86b8
00000290: c9a3 dab8 86ba e3b5 d31c ddb6 5dec 3fb8
000002a0: 15ba b7b7 d62f f2b3 80e6 b1b8 d9cc bcb8
000002b0: 043f a5b8 ef8e 3336 f76d c4b6 e613 64b8
000002c0: 1a70 9d38 64da 83b6 7e02 3cb9 7c5c ccb8
000002d0: 0c0a 66b8 d626 9e37 9732 8038 cd20 ef37
000002e0: 879f 0db7 e33b 8436 11b6 4f37 5c66 6237
000002f0: 2373 19b8 f7cc 74b6 c41f 6c38 c26e ca37
00000300: d092 80b7 d1a4 bc32 9c4c 8837 53d2 8b37
00000310: ab08 aab7 0b46 e936 7923 9138 c7aa b537
00000320: e682 3f36 e65b c333 ca5b 76b6 26b5 3737
00000330: 6b61 ae38 6136 e2b4 0e6f 89b8 840c 9637
00000340: ac07 2737 c91e c3b5 5f4a 8834 aedb 6437
00000350: 9ef4 5337 7193 ab36 d780 5637 cd06 4e37
00000360: e062 f2b8 6cc8 0e39 5ef5 4739 3ed2 1f39
00000370: d083 9e38 a1ff 6e37 3e61 7738 cb1b 1939
00000380: d5a4 61b7 873d 38b7 3652 6239 c37e 3939
00000390: ce82 ba38 7b36 91b5 abb1 5a38 eea9 1639
000003a0: b55b a636 d7f9 9d37 c01d 8a39 77e5 3d39
000003b0: 7a7f 0d39 5116 12b6 8669 b2b7 8b6e ed38
000003c0: bea2 b739 8050 1d36 f06d 37b9 5a14 3d39
000003d0: 39e5 2c39 691b 81b6 d744 7ab5 fd3a fe38
000003e0: 7926 8a38 7b0f be37 9ea0 e138 6262 2539
000003f0: b87c 40b9 d2b6 5b39 204f 8a39 dafd 3a39

exp_avg_sq f4 [128, 36]
2.80926e-07 7.4811993e-07 6.991788e-07 1.0195685e-06 9.357073e-07 1.8248781e-07 6.2057e-07 1.2146589e-06
5.243625e-07 1.08186335e-07 1.0852167e-06 1.5305206e-06 1.4961339e-06 2.9376038e-08 2.4931632e-07 1.0547926e-06
4.531152e-07 1.6736282e-08 1.1976514e-06 1.6214431e-06 1.7400195e-06 1.6200104e-08 5.125056e-08 9.027651e-07
4.760683e-07 1.0208503e-08 1.1264334e-06 1.6216842e-06 1.7509255e-06 1.0158114e-08 4.5312206e-08 8.7173925e-07
6.9881463e-07 8.397579e-09 8.616277e-07 1.5267238e-06 1.8024846e-07 6.869132e-07 2.3466941e-07 4.6356516e-07
5.1610016e-07 2.6203804e-07 3.1699474e-07 6.5865413e-07 3.6535272e-07 2.5221318e-08 7.205489e-07 1.020654e-06
9.546346e-07 4.738554e-08 1.5233002e-07 6.280085e-07 2.999864e-07 1.0371481e-09 8.248828e-07 1.0879168e-06
1.1546904e-06 5.5854317e-09 4.434263e-09 5.445394e-07 3.8540546e-07 6.002696e-10 7.488859e-07 1.1082147e-06
1.1467631e-06 1.4351293e-09 5.31279e-09 5.311603e-07 3.936833e-07 2.5420814e-09 6.3186377e-07 1.057032e-06
1.4458247e-07 2.7803088e-07 3.1757062e-07 4.502731e-07 3.478527e-07 8.644169e-08 2.9966625e-07 5.132015e-07
1.9975016e-07 2.7733662e-08 5.061739e-07 6.584432e-07 5.945108e-07 2.5118716e-08 1.2152314e-07 4.544257e-07
1.01870754e-07 4.7505293e-09 5.9076797e-07 7.001226e-07 7.3963406e-07 6.5605175e-09 5.1558238e-09 3.8723954e-07
2.0237937e-07 6.593399e-09 4.3570813e-07 6.7187904e-07 7.3866033e-07 2.84041e-09 5.0483364e-09 3.64507e-07
3.239965e-07 4.353728e-09 3.104825e-07 6.1999083e-07 4.2180144e-08 5.0678334e-08 1.2111505e-07 1.5939166e-07
7.2638784e-08 3.6136864e-08 1.03773516e-07 1.5487677e-07 4.2754415e-08 9.609277e-09 1.6386826e-07 1.9932298e-07
1.5719232e-07 9.572745e-09 4.2848594e-08 1.4361427e-07 2.639112e-08 2.2816244e-09 1.7990773e-07 2.064032e-07
2.0857335e-07 3.8679464e-09 3.1252958e-09 1.1930611e-07 7.878712e-08 1.6254922e-09 1.14293904e-07 1.9612575e-07
2.1111974e-07 1.1749158e-09 3.8264627e-09 1.12624356e-07 1.1618157e-07 9.1489566e-10 7.529181e-08 1.7658904e-07
1.2629295e-07 1.4503735e-07 8.248981e-08 1.6248723e-07 2.4786905e-07 3.9702343e-08 6.568144e-08 1.9346636e-07
1.963022e-07 2.2093394e-08 1.273974e-07 2.626267e-07 3.2191605e-07 7.814829e-09 3.63785e-08 1.7676155e-07
1.3111358e-07 5.8764695e-09 1.9168125e-07 3.07284e-07 3.5739413e-07 3.216906e-09 4.4257935e-09 1.5718497e-07
1.0440626e-07 2.8633949e-09 2.3156029e-07 3.2915108e-07 3.536912e-07 1.2780623e-09 5.1406643e-09 1.5091182e-07
9.3835745e-08 3.6128418e-09 2.1749511e-07 3.2179284e-07 4.1700513e-08 3.755459e-08 4.3969617e-08 7.9924234e-08
7.632659e-08 1.9065803e-08 3.2207087e-08 7.8178125e-08 3.9428866e-08 4.6030286e-09 7.925522e-08 1.1418762e-07
1.1740454e-07 4.1910075e-09 9.32129e-09 6.920854e-08 2.8261203e-08 1.0114084e-09 8.647931e-08 1.1818978e-07
1.289317e-07 1.3714447e-09 1.2112923e-09 6.1115855e-08 2.3592849e-08 6.1989464e-10 9.1529145e-08 1.1960252e-07
1.3029283e-07 2.6190042e-10 1.5231474e-09 5.711575e-08 4.071227e-08 2.5349955e-10 6.776086e-08 1.1491917e-07
1.9157262e-07 3.464759e-07 3.8670382e-07 5.7598646e-07 3.704351e-07 1.955661e-07 3.748152e-07 6.2476744e-07
3.4496045e-07 4.4821245e-08 5.3462355e-07 8.210005e-07 8.139015e-07 3.230436e-08 1.4023158e-07 5.804098e-07
3.3222884e-07 5.958123e-09 5.467906e-07 8.42059e-07 9.423706e-07 1.9106357e-08 3.0346964e-08 4.8211416e-07
3.6242136e-07 3.5473322e-09 5.2451213e-07 8.570113e-07 9.597294e-07 2.9296519e-09 3.619861e-08 4.879248e-07
4.2483043e-07 3.9610093e-09 4.2082436e-07 8.150313e-07 3.131535e-07 3.903462e-07 4.6125007e-07 7.50208e-07
00000000: 2dd2 9634 69d2 4835 34af 3b35 1bd8 8835
00000010: 512d 7b35 def1 4334 3f95 2635 5d07 a335
00000020: ebc1 0c35 1154 e833 c3a7 9135 4a6c cd35
00000030: c5ce c835 9756 fc32 c6d9 8534 6692 8d35
00000040: ae43 f334 79c3 8f32 fdbe a035 5ca0 d935
00000050: 9d8a e935 6828 8b32 961e 5c33 8c55 7235
00000060: 5496 ff34 7961 2f32 f52f 9735 a5a8 d935
00000070: 5801 eb35 dc83 2e32 4c9d 4233 7701 6a35
00000080: 2d96 3b35 f144 1032 9b4a 6735 d5e9 cc35
00000090: 528a 4134 5164 3835 70f9 7b34 e9df f834
000000a0: 228a 0a35 3cae 8c34 6d2f aa34 5ece 3035
000000b0: b225 c434 44a6 d832 be6b 4135 68fd 8835
000000c0: ff20 8035 f484 4b33 2890 2334 6a94 2835
000000d0: d10d a134 688b 8e30 846d 5d35 8904 9235
000000e0: dcfa 9a35 fae9 bf31 315c 9831 762c 1235
000000f0: b9e9 ce34 3800 2530 0c07 4935 f8bd 9435
00000100: 7bea 9935 203e c530 cc8b b631 0f95 0e35
00000110: 6c5b d334 c5b0 2e31 599d 2935 58df 8d35
00000120: 873e 1b34 4644 9534 937e aa34 10bd f134
00000130: 83c0 ba34 d2a1 b933 d1e1 a034 f0c2 0935
00000140: e87a 5634 f83a ee32 01e0 0735 dfbf 3035
00000150: 7996 1f35 a4c4 d732 077c 0234 cbf7 f334
00000160: 0ac4 da33 193a a331 4495 1e35 0ff0 3b35
00000170: 448b 4635 ec6a e131 1b27 b131 cce5 cf34
00000180: 9e4d 5934 278c e231 45eb e934 2d5b 3435
00000190: 5a48 4635 0531 4331 a375 ad31 76b1 c334
000001a0: bdf1 ad34 cc97 9531 64b0 a634 726d 2635
000001b0: 8f29 3533 6ba9 5933 da0b 0234 3f25 2b34
000001c0: 98fd 9b33 e734 1b33 18da de33 344c 2634
000001d0: faa0 3733 0c16 2532 c4f3 2f34 7c05 5634
000001e0: b2c8 2834 6175 2432 8708 3833 6434 1a34
000001f0: b0b2 e232 c3ca 1c31 a92c 4134 ae9f 5d34
00000200: 35f4 5f34 d1e6 8431 c9c4 5631 9d1a 0034
00000210: ad31 a933 ec67 df30 bd71 f533 a396 5234
00000220: 27b0 6234 ad7a a130 ec79 8331 e5db f133
00000230: 7e7f f933 0f7c 7b30 1cb0 a133 6d9c 3d34
00000240: 249b 0734 90bb 1b34 4125 b133 2678 2e34
00000250: dd12 8534 3085 2a33 c10c 8d33 a1bb 4f34
00000260: 23c7 5234 e3c7 bd32 bbca 0834 24ff 8c34
00000270: ced3 ac34 fb41 0632 953e 1c33 d8cb 3d34
00000280: 3ac8 0c34 f9e9 c931 f1d0 4d34 cbf8 a434
00000290: e0df bf34 6910 5d31 b111 9831 adc6 2834
000002a0: f335 e033 60c5 4431 cfa2 7834 2eb6 b034
000002b0: f3e2 bd34 d2a7 af30 c3a1 b031 530a 2234
000002c0: bf82 c933 c945 7831 9a88 6934 dfc2 ac34
000002d0: 331a 3333 b54b 2133 1bd9 3c33 d0a2 ab33
000002e0: fde8 a333 25c6 a332 1154 0a33 e1e2 a733
000002f0: 7f58 2933 ab28 9e31 0533 aa33 4f37 f533
00000300: d41f fc33 7e00 9031 7823 2032 cc9f 9433
00000310: 0bc3 f232 c501 8b30 81b6 b933 85cf fd33
00000320: 7a70 0a34 6c7d bc30 8f7a a630 cc3e 8333
00000330: 39a9 ca32 3565 2a30 ae8e c433 176c 0034
00000340: 9fe6 0b34 35fb 8f2f fc56 d130 6e4f 7533
00000350: 9ddb 2e33 e45c 8b2f ed83 9133 7bc9 f633
00000360: 15b3 4d34 4903 ba34 2b9c cf34 7d9d 1a35
00000370: 36e0 c634 cdfc 5134 353a c934 b1b5 2735
00000380: 0133 b934 7b81 4033 0d83 0f35 ba62 5c35
00000390: e37a 5a35 05bf 0a33 9092 1634 75cd 1b35
000003a0: 2f5d b234 34b8 cc31 2ac7 1235 db09 6235
000003b0: 37f7 7c35 531f a432 d756 0233 a26a 0135
000003c0: d092 c234 54c5 7331 33cc 0c35 5e0d 6635
000003d0: 0dd0 8035 fb52 4931 cb78 1b33 f0f9 0235
000003e0: 4014 e434 6819 8831 a9ed e134 86c8 5a35
000003f0: 7d1f a834 c690 d134 baa1 f734 e761 4935

exp_avg f4 [128]
-0.00021687694 -0.00030802458 -6.218517e-05 -8.897956e-05 -9.876117e-05 2.2719893e-05 0.00020435108 0.00025542287
0.0003690372 0.00010562459 0.00010562673 2.7584645e-05 0.00034648803 4.780602e-05 9.333192e-05 -8.97701e-05
-3.2626274e-05 -3.8790484e-05 4.7000653e-05 -0.00021893907 -5.6525812e-05 -2.0028297e-07 -6.5037515e-05 0.00014125314
7.877363e-06 4.084979e-05 -0.00011451168 5.2691747e-05 0.00040919654 -0.00022476332 0.00032665548 -1.0543064e-05
-0.0003734514 4.9808783e-05 0.00032313002 3.584463e-05 -1.9915968e-05 1.1045376e-05 0.0003741029 0.0004536462
-0.00022788288 -1.4456726e-05 -0.00021339202 -0.00038056384 -0.00022374275 -4.7996244e-05 -2.022953e-05 -8.6179934e-05
2.0356937e-07 -1.7844204e-05 -0.00018412589 -0.00015078261 -3.7104906e-05 0.00014713213 -0.00029784197 0.00012405134
-7.522731e-05 0.00023584493 -0.00018035411 -0.00024122119 0.00023616423 -5.295995e-05 1.4566965e-05 -1.4268137e-05
-5.0393396e-06 0.00047663786 -5.745024e-05 0.00029699953 -0.00019000265 0.00012761154 -0.00010801962 3.9926003e-05
-6.4034604e-05 9.6187214e-05 0.00033158768 2.190555e-05 -0.00011880545 0.00025109664 6.146146e-05 0.00018956495
0.00083365827 -5.082606e-05 0.0002993958 -0.000321292 2.4831132e-05 -6.260894e-05 0.00066127814 0.00041907126
0.00047283355 0.00016172264 -0.00025879178 0.00026769625 -0.00042136974 -0.0001300277 -2.5197578e-05 -0.00014390248
-0.00014389753 1.9290965e-05 8.626013e-05 -0.0005008515 -0.00014105799 0.00017777698 5.6780067e-07 3.3136934e-05
8.054947e-05 0.00013768446 1.9456555e-05 -0.0003084608 4.317486e-05 -3.5154848e-05 -6.896593e-05 1.23062755e-05
0.00010892454 -6.849303e-05 -3.949707e-05 -1.5232156e-05 -0.00024665927 -1.4605257e-05 4.5054996e-05 -5.7149333e-05
-0.00024511825 0.00036964842 -6.202773e-05 6.885464e-05 -2.766417e-05 7.954327e-05 4.22056e-06 0.00022420143
00000000: 7669 63b9 5c7e a1b9 6969 82b8 8a9a bab8
00000010: 001e cfb8 9996 be37 1347 5639 47ea 8539
00000020: 567b c139 c582 dd38 eb83 dd38 9365 e737
00000030: d6a8 b539 5383 4838 31bb c338 f542 bcb8
00000040: 32d8 08b8 f7b2 22b8 9122 4538 0293 65b9
00000050: 2116 6db8 5d0d 57b4 c064 88b8 5a1d 1439
00000060: 0429 0437 2156 2b38 fd25 f0b8 5501 5d38
00000070: 6e89 d639 72ae 6bb9 f542 ab39 1de2 30b7
00000080: cccb c3b9 c6e9 5038 c769 a939 e157 1638
00000090: 3711 a7b7 874f 3937 3e23 c439 5dd7 ed39
000000a0: d8f3 6eb9 2a8b 72b7 fcc1 5fb9 6a86 c7b9
000000b0: 7d9c 6ab9 934f 49b8 96b2 a9b7 80bb b4b8
000000c0: b994 5a34 23b0 95b7 eb11 41b9 661b 1eb9
000000d0: 17a1 1bb8 7b47 1a39 ac27 9cb9 c713 0239
000000e0: 5bc3 9db8 244d 7739 701d 3db9 52f0 7cb9
000000f0: daa2 7739 5021 5eb8 a364 7437 2f61 6fb7
00000100: 9917 a9b6 40e5 f939 baf6 70b8 9ab6 9b39
00000110: 733b 47b9 76cf 0539 9888 e2b8 3876 2738
00000120: 514a 86b8 1eb8 c938 f2d8 ad39 cfc1 b737
00000130: 3127 f9b8 9fa5 8339 dfe4 8038 f4c5 4639
00000140: dc89 5a3a 112e 55b8 39f8 9c39 1573 a8b9
00000150: 734c d037 eb4c 83b8 a059 2d3a cbb6 db39
00000160: a5e6 f739 1794 2939 72ae 87b9 9559 8c39
00000170: 4aeb dcb9 0c58 08b9 635f d3b7 87e4 16b9
00000180: 33e3 16b9 08d3 a137 8ee6 b438 934b 03ba
00000190: f7e8 13b9 a569 3a39 f76a 1835 83fc 0a38
000001a0: abec a838 645f 1039 a236 a337 e8b8 a1b9
000001b0: a716 3538 3b73 13b8 cda1 90b8 0d77 4e37
000001c0: 6b6e e438 eaa3 8fb8 a8a9 25b8 9d8d 7fb7
000001d0: 0c52 81b9 1a09 75b7 6ff9 3c38 a1b3 6fb8
000001e0: 3783 80b9 5fcd c139 e214 82b8 0e66 9038
000001f0: 5a10 e8b7 78d0 a638 569e 8d36 9d17 6b39

exp_avg_sq f4 [128]
1.8766162e-06 1.2283101e-06 7.704287e-07 2.2784933e-07 3.7227176e-07 1.3692781e-07 1.0441552e-06 1.3095347e-06
2.6662963e-06 4.3587775e-07 1.6933002e-07 4.84458e-07 2.5182046e-06 2.2266188e-07 5.0344755e-07 3.1506008e-07
2.0678462e-07 1.2420845e-08 3.3075122e-07 1.10655e-06 5.060676e-08 8.783901e-09 7.4321775e-08 9.569084e-07
6.0900817e-07 5.6788866e-07 9.791012e-07 3.041389e-08 1.0558879e-06 2.757389e-06 1.8285285e-06 1.5748024e-07
2.0605898e-06 1.3742326e-07 1.966984e-06 3.1186448e-07 5.7703767e-07 6.541202e-07 1.701013e-06 2.3459686e-06
7.7439756e-07 3.2054793e-08 7.283586e-07 1.5219854e-06 1.8120382e-06 1.0519196e-06 1.11037686e-07 4.40241e-07
1.6341012e-07 3.0281956e-08 8.5803026e-07 4.451603e-07 1.344795e-07 4.025595e-07 1.4823523e-06 1.1568793e-06
5.304355e-07 2.24015e-06 6.870529e-07 1.1947117e-06 5.4836744e-07 9.30231e-08 8.923327e-08 1.3641444e-07
6.9045015e-08 2.698291e-06 1.5013502e-06 1.0774356e-06 1.7209501e-06 1.9019276e-07 3.1143682e-07 1.3809415e-07
5.5044797e-08 6.5395596e-07 3.6596214e-06 8.375038e-07 2.4307542e-07 1.5394259e-06 2.440522e-07 4.44896e-07
1.0063966e-05 4.7016442e-08 2.987066e-06 1.837595e-06 1.8998472e-07 1.9136685e-07 3.6910428e-06 4.243148e-06
3.1635338e-06 8.2169447e-07 1.8052681e-06 1.9757056e-06 3.4535906e-06 1.351082e-06 2.664628e-07 2.7620987e-07
4.379192e-07 4.4548393e-08 4.1398766e-07 1.8592712e-06 7.2682104e-07 5.2781394e-07 4.8844297e-09 3.6585232e-07
9.567393e-07 1.0057346e-06 7.632626e-09 9.619032e-07 3.7463883e-07 1.1979565e-06 4.5199758e-07 6.063812e-07
7.18582e-08 7.889647e-08 3.446413e-07 9.22172e-07 1.088247e-06 2.9343799e-08 9.470244e-08 1.4144743e-07
3.833827e-07 3.3105134e-06 4.1184485e-08 7.461141e-07 6.523183e-08 8.3742464e-07 1.0892828e-07 1.1267207e-06
00000000: 0be0 fb35 6adc a435 75cf 4e35 bfa6 7434
00000010: a4dc c734 6e06 1334 e624 8c35 45c3 af35
00000020: 9fee 3236 9502 ea34 15d1 3534 b30b 0235
00000030: 6dfe 2836 d514 6f34 a724 0735 8725 a934
00000040: 8608 5e34 7463 5532 1a92 b134 c584 9435
00000050: b95a 5933 01e8 1632 d49a 9f33 1f6f 8035
00000060: b97a 2335 0371 1835 a969 8335 6da0 0233
00000070: 08b8 8d35 950b 3936 c36b f535 d717 2934
00000080: aa48 0a36 9e8e 1334 8700 0436 546e a734
00000090: bae5 1a35 cc96 2f35 5d4e e435 6f6f 1d36
000000a0: 32e0 4f35 9eac 0933 6c84 4335 0547 cc35
000000b0: 2935 f335 af2f 8d35 9d73 ee33 435a ec34
000000c0: d575 2f34 5d0f 0233 6453 6635 5efe ee34
000000d0: 7265 1034 5b1f d834 3df5 c635 1246 9b35
000000e0: 4063 0e35 7c55 1636 ea6d 3835 fb59 a035
000000f0: 8633 1335 fdc3 c733 82a0 bf33 5179 1234
00000100: e645 9433 4914 3536 0082 c935 689c 9035
00000110: 65fb e635 ca37 4c34 8d33 a734 0847 1434
00000120: 656a 6c33 838b 2f35 d197 7536 d3d0 6035
00000130: 0880 8234 459e ce35 4706 8334 0ada ee34
00000140: 68d8 2837 20ef 4933 6775 4836 49a3 f635
00000150: 9afe 4b34 857a 4d34 a2b3 7736 5d60 8e36
00000160: 194d 5436 6a92 5c35 8a4c f235 5d96 0436
00000170: 3cc4 6736 d356 b535 5e0e 8f34 ff49 9434
00000180: 281b eb34 7a55 3f33 0842 de34 128c f935
00000190: c31a 4335 19af 0d35 e6d3 a731 5c6a c434
000001a0: 5069 8035 c7fc 8635 a520 0332 be1a 8135
000001b0: f821 c934 79c9 a035 13aa f234 33c6 2235
000001c0: 7750 9a33 cb6d a933 2407 b934 2d8b 7735
000001d0: e20f 9235 b20f fc32 385f cb33 c6e0 1734
000001e0: b8d3 cd34 302a 5e36 d2e2 3033 9248 4835
000001f0: 9415 8c33 62cb 6035 f5eb e933 d439 9735
