results/car5/CarFindGoal/CarFindGoal-2499939.onnx (onnx, 88006 bytes, 7 tensors)

network_body._body_endoder.seq_layers.0.weight f4 [128, 36]
0.01219784 -0.021703366 0.020087512 0.055638116 0.06491438 -0.24146232 -0.052921377 -0.09599151
-0.055565074 -0.19771613 0.09795588 0.12333586 -0.0012289775 -0.072128594 -0.19572876 0.09946065
0.37752363 0.1907468 0.0712237 -0.07457477 0.23903154 -0.0022286882 0.009360062 0.082983166
0.21138407 0.30155224 -0.14355427 -0.19936575 0.13010792 -0.24394226 -0.025184736 0.17151079
-0.03690187 -0.099531546 0.21061501 0.2780378 0.003687375 0.146256 0.01805747 -0.20151602
0.2074127 0.026522996 -0.082428545 -0.15041094 -0.016555656 -0.16512842 -0.16806664 -0.30464792
-0.26170552 -0.0075572506 -0.22319493 -0.02966506 0.4740944 -0.010269427 0.124096565 0.09010977
0.00377855 0.13057609 0.06537733 -0.068640135 0.05588618 0.014036855 -0.12475825 0.21864897
0.030643506 0.08654214 0.3141477 0.0057505467 -0.07617303 -0.13466617 -0.012509956 0.02328252
0.027422015 0.16115838 -0.26703283 -0.040361114 -0.14152114 0.15584917 0.09181306 0.053970497
-0.20511203 0.13237356 -0.01794887 0.110035695 0.2059243 0.08854073 0.16847064 0.31114048
0.3191063 0.13567655 0.09611382 -0.07829174 0.17216766 0.016269436 0.11484657 -0.4053036
0.057753228 0.1415922 0.027709669 0.37419972 -0.011496071 -0.10498529 0.065551706 -0.27486214
0.09841329 0.26976222 -0.3862363 0.20586373 0.13754083 0.052875314 -0.13288075 0.23443991
-0.020274749 0.25853112 -0.08598713 0.2165839 -0.06861398 -0.12581618 0.20060237 0.0057019284
0.010495908 -0.001350074 -0.37055415 -0.12590636 0.22991243 -0.27611378 0.0056221606 0.1339687
0.022456592 -0.08755107 0.18569683 -0.12011445 0.09890045 0.067929246 0.23738575 0.21931295
-0.06776979 0.22872709 0.1415061 0.14537124 0.077570215 -0.18734817 0.049605813 0.22505958
-0.066576615 -0.006941276 -0.22644715 0.014917981 0.13866022 0.19500561 -0.07691644 0.28974926
0.0058395 0.011862904 -0.35492924 0.27438495 0.0553837 -0.33368796 0.27868685 -0.35392034
0.3656858 -0.21868123 0.101163216 0.35986128 -0.066630535 0.3343909 -0.010168423 0.029342938
0.14002569 0.45763752 0.01736674 0.1914089 -0.03602503 0.13361879 -0.030769253 0.3167734
-0.22663367 -0.10352054 -0.1993125 0.23509201 0.090031624 -0.17932092 0.039304536 -0.08175137
-0.104737654 -0.4363372 0.13206838 0.0989534 0.036715776 -0.22462422 0.13951644 -0.20661646
-0.09754778 0.2262242 0.17400232 0.22362211 0.21105759 0.13092388 0.17229506 -0.01161065
0.1715846 0.038223367 -0.04396733 -0.053846087 -0.22139545 -0.11708355 0.01589191 0.35744628
-0.104064845 -0.10107368 0.0053597535 -0.15562911 -0.080585495 -0.19341195 0.121996514 0.04775359
0.21199246 -0.30905887 -0.1534937 0.14558513 0.21491145 -0.0011514073 -0.09896487 0.07627225
-0.02653736 -0.47476694 -0.028165894 0.2834946 -0.08028778 0.2707814 -0.1101895 -0.06062203
0.17344685 0.014528841 -0.030696725 -0.0578595 0.035599433 0.077120975 -0.06589368 0.07336406
-0.035873573 -0.26669583 -0.07549494 0.37138438 0.06314171 0.011680731 -0.11648232 -0.02846581
-0.025616828 -0.012522789 0.14329799 0.20607813 0.23940212 -0.15326095 -0.0020408344 0.112995826
00000000: 73d9 473c 42cb b1bc 918e a43c cbe4 633d
00000010: d5f1 843d e641 77be 16c4 58bd 3297 c4bd
00000020: 3498 63bd 1976 4abe 189d c83d 8397 fc3d
00000030: a415 a1ba 28b8 93bd 1f6d 48be 06b2 cb3d
00000040: c74a c13e 2153 433e bbdd 913d a8ba 98bd
00000050: afc4 743e 2f0f 12bb f25a 193c 14f3 a93d
00000060: 1175 583e 0e65 9a3e e4ff 12be 8926 4cbe
00000070: 033b 053e 00cc 79be 3850 cebc 86a0 2f3e
00000080: 6a26 17bd 32d7 cbbd 76ab 573e f85a 8e3e
00000090: e3a7 713b 22c4 153e 42ed 933c 375a 4ebe
000000a0: ff63 543e c146 d93c 4cd0 a8bd 5305 1abe
000000b0: ba9f 87bc 6d17 29be a919 2cbe d0fa 9bbe
000000c0: 44fe 85be d0a2 f7bb 368d 64be 2404 f3bc
000000d0: 80bc f23e 1941 28bc 5726 fe3d 798b b83d
000000e0: 8da1 773b bdb5 053e 8de4 853d 3393 8cbd
000000f0: e8e8 643d d6fa 653c 4181 ffbd 84e5 5f3e
00000100: 1708 fb3c 013d b13d f8d7 a03e 156f bc3b
00000110: 9b00 9cbd eee5 09be 8ff6 4cbc fcba be3c
00000120: 22a4 e03c b406 253e 87b8 88be b251 25bd
00000130: ebea 10be ed96 1f3e 7c08 bc3d 2b10 5d3d
00000140: e308 52be ef8c 073e 8209 93bc 655a e13d
00000150: d2dd 523e d854 b53d 9183 2c3e ce4d 9f3e
00000160: e761 a33e cbee 0a3e 53d7 c43d 6b57 a0bd
00000170: b84c 303e 7b47 853c ae34 eb3d f483 cfbe
00000180: a68e 6c3d 8cfd 103e 63ff e23c 1b97 bf3e
00000190: 045a 3cbc 8702 d7bd f93f 863d bbba 8cbe
000001a0: e88c c93d 461e 8a3e c4c0 c5be f1cd 523e
000001b0: 81d7 0c3e c993 583d e411 08be 0411 703e
000001c0: 3b17 a6bc 315e 843e 051a b0bd 2bc8 5d3e
000001d0: 7d85 8cbd f5d5 00be b56a 4d3e 3ed7 ba3b
000001e0: 07f7 2b3c f7f4 b0ba 46b9 bdbe 99ed 00be
000001f0: 2a6e 6b3e c95e 8dbe 1a3a b83b 172f 093e
00000200: e3f6 b73c fa4d b3bd 4f27 3e3e 91fe f5bd
00000210: 528c ca3d 7d1e 8b3d 4015 733e 9393 603e
00000220: e3ca 8abd 6f37 6a3e fae6 103e 33dc 143e
00000230: 22dd 9e3d 33d8 3fbe 772f 4b3d 0576 663e
00000240: 5259 88bd a573 e3bb c3e1 67be 8c6a 743c
00000250: f2fc 0d3e 8daf 473e 5e86 9dbd 045a 943e
00000260: 4759 bf3b a05c 423c 49b9 b5be 2f7c 8c3e
00000270: 05da 623d 26d9 aabe 0bb0 8e3e 0c35 b5be
00000280: 2b3b bb3e f9ed 5fbe a92e cf3d bd3f b83e
00000290: 9775 88bd 4935 ab3e 7599 26bc 9a60 f03c
000002a0: e562 0f3e 774f ea3e b244 8e3c b200 443e
000002b0: fb8e 13bd 5dd3 083e cd0f fcbc 2030 a23e
000002c0: a812 68be 9402 d4bd 9318 4cbe f6bb 703e
000002d0: 8062 b83d e79f 37be cbfd 203d 436d a7bd
000002e0: b280 d6bd 9767 dfbe ef3c 073e 15a8 ca3d
000002f0: 4863 163d e403 66be 66dd 0e3e 4493 53be
00000300: 21c7 c7bd 51a7 673e aa2d 323e 32fd 643e
00000310: 7b1f 583e e910 063e 1e6e 303e 993a 3ebc
00000320: e0b3 2f3e 1b90 1c3d 1617 34bd b78d 5cbd
00000330: 7db5 62be 80c9 efbd c02f 823c 3303 b73e
00000340: f31f d5bd b8ff cebd dfa0 af3b 3d5d 1fbe
00000350: 020a a5bd c80d 46be 4fd9 f93d 4599 433d
00000360: 8d14 593e f73c 9ebe 742d 1dbe 4514 153e
00000370: bf11 5c3e d1ea 96ba 18ae cabd a034 9c3d
00000380: e164 d9bc a714 f3be 29bc e6bc 3426 913e
00000390: eb6d a4bd dca3 8a3e 08ab e1bd ce4e 78bd
000003a0: 0d9c 313e 600a 6e3c b377 fbbc 15fe 6cbd
000003b0: b6d0 113d 9af1 9d3d 44f3 86bd e53f 963d
000003c0: 2bf0 12bd 5b8c 88be 179d 9abd 1826 be3e
000003d0: 7150 813d 8960 3f3c 488e eebd 2131 e9bc
000003e0: 62da d1bc 622c 4dbc b5bc 123e 2506 533e
000003f0: d425 753e 70f0 1cbe 85bf 05bb 5b6a e73d

network_body._body_endoder.seq_layers.0.bias f4 [128]
0.013499843 0.014685859 0.0007484188 -0.006851142 0.0019388384 -0.017371053 0.0038403329 -0.009925709
-0.0013396507 0.012018283 0.045882147 0.008520691 0.003261804 0.014574118 0.00040675653 0.014007631
0.008989367 -0.0157453 0.0003832342 0.0020251805 0.022937134 -0.0011961344 -0.011942445 0.0048998985
0.0017899376 0.045323275 -0.019865783 0.017759914 -0.0061980723 -0.0048375833 0.025309253 0.017314745
-0.0064877267 0.014448691 -0.000982185 0.0041240784 0.016189007 0.0037366494 -0.0041138018 0.010942937
0.0074840523 0.033118356 0.025585918 0.033594377 -0.0016971923 0.024868721 0.0038459916 0.02890424
0.0118948035 0.033013634 0.0432519 0.009258705 -0.00054092414 -0.0035521823 0.035622127 0.0031576287
0.033333376 -0.010494839 0.039941758 -0.0010618895 -0.0044738823 -0.024075978 0.031849794 0.020246122
0.023569958 0.0025793102 0.015645303 0.022908075 0.049253225 -0.0036639664 -0.0103596635 0.008703731
0.026567565 0.042860426 0.015962472 0.03922945 0.046962492 -0.01723515 -0.0257354 0.0038654108
0.024462257 -0.012346129 -0.0020182913 0.029523041 -0.0015679926 0.034162357 0.028213775 0.009990992
0.022996372 -0.00056762603 0.0058036065 0.026067806 0.031641092 0.031590957 -0.005003812 0.067480676
-0.010055091 -0.0023243304 0.026633482 0.027642423 0.040720012 -0.008169913 0.011193494 -0.0002491505
0.0103806965 0.016714072 0.0015030438 -0.00021492536 0.009443677 -0.04050144 0.019517954 -0.015027731
0.01611322 -0.014227721 0.0115087535 0.039906655 -0.008232914 -0.039531346 0.019519448 0.0032500864
0.00039100248 0.025419373 -0.011738729 -0.004739247 -0.0033805144 -0.024046332 0.04479618 0.03015737
00000000: 722e 5d3c f59c 703c 8931 443a 8b7f e0bb
00000010: 9f20 fe3a bd4d 8ebc 18ae 7b3b 719f 22bc
00000020: 3897 afba 55e8 443c ebee 3b3d 5e9a 0b3c
00000030: fec3 553b 48c8 6e3c f041 d539 4380 653c
00000040: 2348 133c 4afc 80bc d3ec c839 e4b8 043b
00000050: a8e6 bb3c 9cc7 9cba 3faa 43bc 548f a03b
00000060: 579c ea3a e6a4 393d 91bd a2bc 3d7d 913c
00000070: 3319 cbbb 9784 9ebb 5a55 cf3c a7d7 8d3c
00000080: ff96 d4bb 34ba 6c3c a9bc 80ba 4723 873b
00000090: cf9e 843c 93e2 743b 12cd 86bb 014a 333c
000000a0: c83c f53b 1da7 073d 8f99 d13c 429a 093d
000000b0: 5374 deba 7db9 cb3c 080d 7c3b 96c8 ec3c
000000c0: 6ce2 423c 4e39 073d e728 313d d3b1 173c
000000d0: cecc 0dba bbcb 68bb 82e8 113d 38f0 4e3b
000000e0: 9488 083d 8cf2 2bbc f899 233d 192f 8bba
000000f0: a599 92bb fc3a c5bc ee74 023d 32db a53c
00000100: c915 c13c a509 293b 942a 803c b7a9 bb3c
00000110: c0bd 493d 281f 70bb 94bb 29bc 189a 0e3c
00000120: 39a4 d93c 6a8e 2f3d bbc3 823c 0faf 203d
00000130: be5b 403d bb30 8dbc 0cd3 d2bc d552 7d3b
00000140: 1265 c83c 6b47 4abc 4f45 04bb 4eda f13c
00000150: 1a85 cdba d4ed 0b3d 9320 e73c 42b1 233c
00000160: e362 bc3c bdcc 14ba 2e2c be3b 278c d53c
00000170: 179a 013d 8565 013d 04f7 a3bb 4f33 8a3d
00000180: 1cbe 24bc cb53 18bb 762e da3c 5d72 e23c
00000190: 07ca 263d 19db 05bc eb64 373c 6aa0 82b9
000001a0: cc13 2a3c f3eb 883c c801 c53a 965d 61b9
000001b0: a7b9 1a3c d7e4 25bd 1ee4 9f3c df36 76bc
000001c0: dfff 833c 631b 69bc 368f 3c3c 2975 233d
000001d0: 58e3 06bc 9feb 21bd 40e7 9f3c 67ff 543b
000001e0: 77ff cc39 4a3c d03c cc53 40bc af4b 9bbb
000001f0: 9f8b 5dbb d0fc c4bc 337c 373d 970c f73c

network_body._body_endoder.seq_layers.2.weight f4 [128, 128]
0.07816585 0.06644148 -0.1760463 -0.14415874 -0.024034023 0.08922075 -0.12862006 0.02150562
-0.022269355 0.07897315 -0.110122986 -0.029001301 0.09094049 -0.028220164 0.10549885 -0.110179715
-0.07952597 -0.012849606 0.02648374 0.021094624 0.21332213 0.024604872 0.068848476 0.085697316
-0.11237031 0.032016434 0.046950437 0.029293709 -0.011767724 0.1112375 -0.046644125 0.13300574
-0.10595464 -0.15511374 -0.10287511 -0.12505545 -0.1754365 -0.0880763 -0.01790145 -0.05766287
0.19889124 -0.09464171 0.108491234 -0.015070494 0.14265357 0.093407504 0.013747527 0.12556642
0.026929347 0.117890194 -0.04187063 -0.037571248 0.07112633 -0.16121154 -0.18304566 0.10527042
0.17783128 -0.1842775 0.1862775 -0.043801762 0.047620244 0.09329091 -0.11854821 0.08615607
-0.101399556 -0.05723111 0.022489399 -0.022475883 -0.042555135 -0.16604595 0.07806674 0.021361513
-0.109152034 -0.0650518 0.064482205 -0.09855469 0.029833704 -0.15385023 0.021373391 0.097006716
0.118794575 0.07393519 0.13449974 0.054355096 0.14238082 0.04459077 0.027474292 -0.060776252
0.14537367 -0.017946342 0.017525025 0.004062434 -0.06099711 0.029766362 -0.057594933 -0.021590946
0.09144863 -0.13966238 0.024780296 -0.09035496 0.101650596 -0.09625371 0.13518105 -0.0053712195
-0.14125878 -0.120521866 -0.1446228 -0.07379075 -0.025737228 0.07460753 0.013961979 -0.03240699
-0.005584135 0.06304469 0.015173844 -0.017166458 0.057113487 0.02535457 -0.16580632 -0.06170931
-0.011934664 0.1287706 0.012626502 0.050937604 0.1282174 -0.016185058 -0.008594314 -0.08515359
0.07921276 0.068356715 0.17065357 -0.10117732 -0.16871347 0.07129689 0.11043526 0.013714627
-0.21563828 0.09332047 0.076178215 -0.12438556 -0.13220589 0.0069271238 0.07067815 0.040722862
0.05708633 -0.010355635 -0.057972178 0.035191398 0.04526631 -0.13697942 -0.14083719 0.10537219
-0.10447388 0.17766105 0.10497215 0.13204399 0.0012292654 -0.03385297 0.081771344 -0.10717173
-0.04915549 -0.07596263 -0.08729261 -0.089471385 0.045975093 -0.04953667 -0.18460077 -0.0591183
0.06188637 0.048420038 0.11637437 0.15295625 0.049714457 0.05330521 -0.018711915 -0.12930164
0.09712022 0.020560846 -0.08115488 -0.14091656 0.045457825 -0.010027136 -0.018732477 -0.12159684
0.0587407 0.18403894 0.11907642 -0.06498064 0.030146927 0.10376659 0.014108544 0.1747984
-0.07326699 -0.060378175 -0.006510362 0.010244834 -0.15771565 -0.02716881 -0.011144629 0.049548116
-0.18321556 0.14734288 -0.06798678 -0.12900509 0.0538528 -0.032041345 0.054616496 -0.0020861106
0.079885416 0.016201539 -0.03932455 0.107855335 -0.11919427 0.06823934 -0.005106711 -0.082889974
0.03580089 -0.09498033 0.0785694 0.04982376 0.29541105 0.2717693 -0.055225864 0.099361144
0.02716104 -0.11560544 0.0419803 0.07463335 0.18599169 0.047093365 -0.09848841 0.015505273
-0.038245205 -0.099028565 -0.03816309 -0.058073167 0.06423621 0.037778515 0.047047332 -0.07689121
-0.11879918 -0.05096929 -0.2636913 0.12509872 -0.016283737 0.074215695 -0.050331376 0.060596097
-0.20184997 0.2169187 -0.09700867 0.065263145 0.071426176 -0.12827396 -0.12170055 -0.08481393
00000000: 6b15 a03d 7812 883d 7b45 34be 599e 13be
00000010: 00e3 c4bc 5eb9 b63d fab4 03be 8e2c b03c
00000020: 396e b6bc adbc a13d 2988 e1bd 2394 edbc
00000030: 023f ba3d f92d e7bc c80f d83d e7a5 e1bd
00000040: 83de a2bd 2787 52bc 6ef4 d83c a2ce ac3c
00000050: 1e71 5a3e 2890 c93c 6e00 8d3d 1382 af3d
00000060: 6822 e6bd aa23 033d 1a4f 403d 5cf9 ef3c
00000070: 69cd 40bc 7dd0 e33d e90d 3fbd a832 083e
00000080: bffe d8bd 23d6 1ebe 30b0 d2bd 890e 00be
00000090: a0a5 33be 5961 b4bd 10a6 92bc e72f 6cbd
000000a0: 25aa 4b3e 83d3 c1bd a730 de3d 3cea 76bc
000000b0: c713 123e 6f4c bf3d 4f3d 613c 7c94 003e
000000c0: ef9a dc3c 6a70 f13d 8a80 2bbd 4fe4 19bd
000000d0: aeaa 913d a314 25be 5270 3bbe 0598 d73d
000000e0: 6719 363e 3eb3 3cbe 87bf 3e3e 7a69 33bd
000000f0: 720d 433d 4e0f bf3d 67c9 f2bd 9872 b03d
00000100: 92aa cfbd 2b6b 6abd b03b b83c 581f b8bc
00000110: 4b4e 2ebd f307 2abe 74e1 9f3d 57fe ae3c
00000120: 1a8b dfbd e139 85bd 3f0f 843d 0bd7 c9bd
00000130: d065 f43c ea8a 1dbe 4017 af3c 75ab c63d
00000140: 924a f33d 556b 973d 4dba 093e 73a3 5e3d
00000150: 47cc 113e d0a4 363d c411 e13c 85f0 78bd
00000160: d6dc 143e 3504 93bc a490 8f3c 2b1e 853b
00000170: 1bd8 79bd 96d8 f33c aae8 6bbd 7fdf b0bc
00000180: 6b49 bb3d a803 0fbe 0c00 cb3c 050c b9bd
00000190: 302e d03d aa20 c5bd e76c 0a3e 0e01 b0bb
000001a0: 24a6 10be 2bd4 f6bd 0018 14be 9b1f 97bd
000001b0: e1d6 d2bc d5cb 983d c9c0 643c 31bd 04bd
000001c0: 1ffb b6bb 931d 813d b79b 783c aca0 8cbc
000001d0: d5ef 693d 63b4 cf3c 22c9 29be e7c2 7cbd
000001e0: 9c89 43bc 71dc 033e 63df 4e3c f3a3 503d
000001f0: 6c4b 033e 8796 84bc 2acf 0cbc 0165 aebd
00000200: 4d3a a23d 9bfe 8b3d cfbf 2e3e 0e36 cfbd
00000210: 39c3 2cbe 1b04 923d e22b e23d 51b3 603c
00000220: 48d0 5cbe cd1e bf3d 5303 9c3d dbbd febd
00000230: fb60 07be edfc e23b b5bf 903d 04cd 263d
00000240: 5bd3 693d aeaa 29bc 3c74 6dbd db24 103d
00000250: 2b69 393d 5544 0cbe a037 10be 60cd d73d
00000260: 67f6 d5bd c7ec 353e a3fb d63d 8a36 073e
00000270: 4d1f a13a 69a9 0abd bc77 a73d da7c dbbd
00000280: 4457 49bd 4c92 9bbd 78c6 b2bd c63c b7bd
00000290: 6150 3c3d f7e6 4abd fc07 3dbe 0826 72bd
000002a0: 907c 7d3d 1754 463d b055 ee3d 90a0 1c3e
000002b0: 63a1 4b3d 9056 5a3d bb49 99bc a667 04be
000002c0: f7e6 c63d 386f a83c 8834 a6bd 6e4c 10be
000002d0: fc31 3a3d db48 24bc da74 99bc c407 f9bd
000002e0: 179a 703d b474 3c3e 57de f33d 9214 85bd
000002f0: b0f6 f63c 9483 d43d 8627 673c 5afe 323e
00000300: 010d 96bd 1b4f 77bd e054 d5bb f3d9 273c
00000310: 3680 21be 2091 debc f697 36bc f7f2 4a3d
00000320: dc9c 3bbe 0de1 163e a73c 8bbd e919 04be
00000330: c194 5c3d c93d 03bd 8cb5 5f3d 21b7 08bb
00000340: f79a a33d 17b9 843c c812 21bd 42e3 dc3d
00000350: 201c f4bd 11c1 8b3d 3256 a7bb 38c2 a9bd
00000360: f4a3 123d 0c85 c2bd fee8 a03d 0014 4c3d
00000370: 1e40 973e 5825 8b3e 8434 62bd db7d cb3d
00000380: d480 de3c 8cc2 ecbd 89f3 2b3d 5fd9 983d
00000390: 9b74 3e3e f9e4 403d 4bb4 c9bd d409 7e3c
000003a0: 01a7 1cbd 7dcf cabd e650 1cbd 21de 6dbd
000003b0: 468e 833d a5bd 1a3d b4b4 403d 2479 9dbd
000003c0: fc4c f3bd 2dc5 50bd 8c02 87be e119 003e
000003d0: 7965 85bc 66fe 973d 4628 4ebd 9d33 783d
000003e0: c2b1 4ebe f01f 5e3e 7bac c6bd afa8 853d
000003f0: e347 923d 405a 03be 233e f9bd edb2 adbd

network_body._body_endoder.seq_layers.2.bias f4 [128]
0.018157016 0.023041284 -0.01889599 0.02199094 0.023476735 0.0046357415 -0.013784841 0.011292436
-0.00052288646 0.015425392 -0.009280991 0.005760025 0.024418402 0.033843286 0.03576114 0.014223555
0.003782283 -0.0049966914 0.0069231456 -0.0034292543 0.0030736704 0.03626956 -0.005244064 -0.00039165877
-0.005467331 0.005916481 -0.010003035 0.013227654 0.005209058 -0.020595044 0.008130924 0.010235916
0.033456363 0.02299202 0.03165451 -0.008253845 0.00603817 0.0060829073 -0.006366646 0.0017329676
0.0069873254 0.017226106 0.0001136206 0.007065428 0.01570812 0.020154625 0.02613802 0.02133482
0.0008097455 -0.004299955 0.008687985 -0.0029896141 0.015113651 0.010364901 -0.0007339308 0.014358108
0.0170819 -0.0015718053 -0.0066938857 0.018376984 -0.013884809 0.00063148665 0.025930706 0.0095019555
-0.011035111 0.023171728 0.008780866 0.020253578 0.029495072 0.009045652 -0.0018169344 -0.009089916
0.0012697867 -0.0068673324 -0.008722078 0.030196866 0.0125463 0.021403518 0.0026876507 0.0016842284
0.010167689 0.0016294499 -0.0004081281 0.012939736 0.0050361673 0.01495146 0.0046820766 -0.01147191
-0.017429259 0.002116883 -0.007815235 -0.001232842 0.0009315502 0.01294032 0.003734654 -0.0031523148
0.003552653 0.011024029 0.0064928257 0.010147602 0.015305888 0.011174947 -0.0015549805 0.035690106
-0.012656463 0.0033931397 -0.013693201 0.00142253 -0.0045980625 -0.0007903079 0.02036395 -0.00531247
0.002756199 -0.011790942 0.0017099123 0.031707358 -0.025000961 0.0025071786 0.013591973 0.008618566
0.01841384 0.00078118604 0.022195255 0.013236726 0.009524241 0.008279786 -0.00474151 0.004107304
00000000: 06be 943c 13c1 bc3c c3cb 9abc 5826 b43c
00000010: 4852 c03c 6be7 973b d0d9 61bc e903 393c
00000020: 5112 09ba c9ba 7c3c 4c0f 18bc 97be bc3b
00000030: 1a09 c83c 429f 0a3d 467a 123d ea09 693c
00000040: 2ee0 773b 49bb a3bb 8edb e23b 57bd 60bb
00000050: a26f 493b 648f 143d 66d6 abbb 8d57 cdb9
00000060: 4c27 b3bb 0adf c13b c5e3 23bc cdb8 583c
00000070: bfb0 aa3b f0b6 a8bc 9137 053c 8bb4 273c
00000080: 8a09 093d c359 bc3c 29a8 013d 233b 07bc
00000090: d7db c53b 2053 c73b 4c9f d0bb be24 e33a
000000a0: eff5 e43b c31d 8d3c 9847 ee38 1b85 e73b
000000b0: 51ae 803c 501b a53c 671f d63c 5cc6 ae3c
000000c0: 1a45 543a a3e6 8cbb 0d58 0e3c 67ed 43bb
000000d0: 3f9f 773c 8cd1 293c 4365 40ba 453e 6b3c
000000e0: 57ef 8b3c 0905 ceba 6258 dbbb 548b 963c
000000f0: 1c7d 63bc 5a8a 253a a26c d43c 17ae 1b3c
00000100: 9ccc 34bc a3d2 bd3c 9fdd 0f3c d5ea a53c
00000110: a69f f13c 3734 143c 3426 eeba dfed 14bc
00000120: f96e a63a 5c07 e1bb 0ce7 0ebc 6b5f f73c
00000130: ff8e 4d3c 6e56 af3c 4c23 303b 54c1 dc3a
00000140: 6196 263c 4493 d53a 07fa d5b9 3001 543c
00000150: 6f06 a53b f8f6 743c 1b6c 993b aef4 3bbc
00000160: cec7 8ebc 67bb 0a3b 790b 00bc 5097 a1ba
00000170: 4733 743a a303 543c 19c1 743b 1197 4ebb
00000180: a0d3 683b 219e 343c c5c1 d43b 2142 263c
00000190: 8cc5 7a3c 2017 373c 7dd0 cbba ca2f 123d
000001a0: 0e5d 4fbc 705f 5e3b 7359 60bc 3074 ba3a
000001b0: 58ab 96bb aa2c 4fba 4cd2 a63c 3a14 aebb
000001c0: 59a1 343b cc2e 41bc 231f e03a 93df 013d
000001d0: d1ce ccbc 7a4f 243b deb0 5e3c e334 0d3c
000001e0: 9fd8 963c 82c8 4c3a d3d2 b53c dade 583c
000001f0: 900b 1c3c f1a7 073c ab5e 9bbb 9096 863b

action_model._continuous_distribution.log_sigma f4 [1, 2]
0.07755412 0.035092376
00000000: b2d4 9e3d 06bd 0f3d

action_model._continuous_distribution.mu.weight f4 [2, 128]
-0.029022379 -0.11294021 0.0073578684 -0.09151062 0.052712265 0.0510551 0.024806928 -0.0143836355
0.03345973 0.01426759 -0.0011718153 -0.051272877 -0.032955613 -0.08858262 -0.06495182 0.02758393
0.021533815 -0.010923165 0.04237397 0.038869686 0.07777928 -0.10821675 -0.027401313 0.04089249
0.018852694 -0.028007079 -0.013783864 -0.052626368 0.06479648 0.0015522871 0.004252228 -0.031187795
-0.015049127 -0.035519745 -0.028721103 0.016787065 -0.014927688 -0.02016634 0.031170672 -0.0013365188
0.061422244 -0.02224825 0.0058757593 0.012337863 0.0034785606 0.011255118 -0.06898481 -0.086540364
0.0061965208 0.029121729 -0.008540331 0.053339932 0.0762093 0.08039808 -0.020429203 0.092127346
-0.033598952 0.04101841 0.026681067 -0.095233455 0.009296254 0.031168038 0.010205254 0.0073664477
-0.02414237 -0.030363142 0.041941926 -0.024607798 -0.1133966 -0.065489195 0.04794371 -0.012938524
0.019265085 0.024225822 0.0046712183 0.0058209095 -0.048076693 -0.01488179 0.052771498 0.043719415
0.0755542 0.015910678 0.007032305 0.040314294 0.06933164 -0.03748498 -0.028606895 0.02829143
-0.0034523415 -0.026658997 0.03362205 0.02023124 -0.0021983609 0.01491861 -0.0027923784 0.036941044
-0.04102603 0.040810704 0.043466978 0.040957168 -0.11084821 0.054160647 0.028715326 -0.11811714
0.00992544 0.034434117 0.0060690274 0.020686004 0.023634322 0.025981577 -0.08855349 0.00035365426
0.026556913 0.013750804 0.04889538 0.038946465 0.016762462 -0.010285468 -0.046393633 -0.025226694
0.06454976 0.03224485 0.054824248 0.067913696 -0.070274964 0.03634945 0.03392252 0.028545108
-0.009261595 -0.011932152 -0.0085826395 0.008098981 -0.06391477 0.008596342 -0.008925098 -0.03187908
0.03265629 -0.057500742 0.033906106 -0.024072297 0.012450716 0.001810977 0.010204241 0.07661678
-0.038321763 0.013157634 -0.029343037 -0.015378921 0.008645892 -0.032529075 -0.02566005 -0.023948412
0.038971007 0.07980755 0.010496408 -0.025672598 0.008951741 0.016927974 -0.051429283 0.0660959
-0.08839293 -0.038681906 -0.028454337 0.015767913 -0.016962346 0.044800773 -0.025500901 -0.036989458
-0.044495203 -0.029350538 -0.03143818 -0.04282711 0.0763014 -0.014022738 -0.046464507 0.05265874
-0.034532137 -0.03154888 -0.04878329 0.013124054 -0.043542206 -0.042843793 0.0054462533 0.017474055
-0.06458029 0.026545523 -0.02303394 0.0030295514 -0.006715039 0.028588401 0.06919566 0.043520637
-0.009553712 -0.09670842 -0.044107288 0.077177845 0.018018153 0.030547295 0.0033084846 -0.016665662
0.063877955 0.024038518 0.03520261 -0.047498465 0.017909413 -0.049175296 -0.032553736 0.0012865756
-0.022169957 0.046548843 0.056430116 0.0539587 0.014041725 0.093484364 0.026036719 -0.0062966165
0.032674305 0.054383304 0.02144103 -0.02197908 0.045764282 0.065437384 0.002179963 0.038832646
-0.0044781114 -0.052433565 0.033397812 -0.05056498 -0.018383956 0.01496531 0.02524322 -0.010931493
-0.025348723 0.04718233 -0.015085559 0.03284255 -0.031337902 0.04651225 0.046744768 -0.020407636
-0.008299993 -0.011527099 0.067072436 -0.10275622 0.00027346678 -0.008016939 0.09180349 0.055919014
-0.067547396 0.03014876 -0.071157664 0.05113067 0.006103227 -0.049499728 0.018317351 -0.039152592
00000000: 57c0 edbc 324d e7bd 461a f13b ec69 bbbd
00000010: d1e8 573d 271f 513d e637 cb3c 57a9 6bbc
00000020: 120d 093d 9cc2 693c 9997 99ba 8203 52bd
00000030: 77fc 06bd ce6a b5bd 7605 85bd b2f7 e13c
00000040: af67 b03c 13f7 32bc 5490 2d3d d235 1f3d
00000050: be4a 9f3d bea0 ddbd b878 e0bc e27e 273d
00000060: f770 9a3c 1a6f e5bc b7d5 61bc bf8e 57bd
00000070: 04b4 843d 1d76 cb3a 4656 8b3b 8c7d ffbc
00000080: 9d90 76bc 277d 11bd 8548 ebbc 0785 893c
00000090: 4393 74bc e133 a5bc a359 ff3c 212e afba
000000a0: e495 7b3d f641 b6bc 7189 c03b c024 4a3c
000000b0: 90f8 633b 6367 383c e847 8dbd 133c b1bd
000000c0: 2f0c cb3b b190 ee3c bfec 0bbc f97a 5a3d
000000d0: 9f13 9c3d c0a7 a43d 255b a7bc 43ad bc3d
000000e0: 0e9f 09bd ec02 283d 4192 da3c c209 c3bd
000000f0: 514f 183c 1d54 ff3c f033 273c 3e62 f13b
00000100: 38c6 c5bc 20bc f8bc 4ccb 2b3d 4b96 c9bc
00000110: 7a3c e8bd 331f 86bd a060 443d 1afc 53bc
00000120: d0d1 9d3c 3b75 c63c 0511 993b 54bd be3b
00000130: 11ec 44bd c0d2 73bc ed26 583d 2113 333d
00000140: 29bc 9a3d 1c57 823c 406f e63b 9a20 253d
00000150: bffd 8d3d da89 19bd 0259 eabc 6ec3 e73c
00000160: ae40 62bb f863 dabc 46b7 093d fcbb a53c
00000170: 6012 10bb 306d 743c 5600 37bb 7e4f 173d
00000180: e90a 28bd 2029 273d 6e0a 323d b4c2 273d
00000190: 6304 e3bd 8ed7 5d3d 673c eb3c 66e7 f1bd
000001a0: 509e 223c ca0a 0d3d b1de c63b b275 a93c
000001b0: c49c c13c 51d7 d43c 885b b5bd ac6a b939
000001c0: e28d d93c 0d4b 613c 8646 483d 5486 1f3d
000001d0: 6e51 893c 6184 28bc 4007 3ebd 36a8 cebc
000001e0: aa32 843d 2d13 043d 648f 603d 5616 8b3d
000001f0: 52ec 8fbd 29e3 143d 57f2 0a3d 6ed7 e93c
00000200: f2bd 17bc 137f 43bc 339e 0cbc 97b1 043c
00000210: bfe5 82bd acd7 0c3c 933a 12bc a393 02bd
00000220: 9ac2 053d e685 6bbd 21e1 0a3d 4433 c5bc
00000230: 17fe 4b3c 4e5e ed3a b02f 273c 42e9 9c3d
00000240: 48f7 1cbd 1e93 573c cf60 f0bc dff7 7bbc
00000250: 80a7 0d3c 353d 05bd 0635 d2bc 762f c4bc
00000260: 10a0 1f3d 2472 a33d 20f9 2b3c 574f d2bc
00000270: 53aa 123c 89ac 8a3c 83a7 52bd 4a5d 873d
00000280: 5a07 b5bd eb70 1ebd 1219 e9bc b62b 813c
00000290: 9ef4 8abc 0481 373d 44e7 d0bc 4282 17bd
000002a0: 9a40 36bd 8a70 f0bc 52c5 00bd 7b6b 2fbd
000002b0: e943 9c3d a0bf 65bc 9151 3ebd b1b0 573d
000002c0: 9271 0dbd 6639 01bd fdd0 47bd 4606 573c
000002d0: 5059 32bd f97c 2fbd 7c76 b23b c025 8f3c
000002e0: ac42 84bd ff75 d93c acb1 bcbc 708b 463b
000002f0: d409 dcbb 3932 ea3c 74b6 8d3d b242 323d
00000300: 2c87 1cbc 100f c6bd d8a9 34bd 6b0f 9e3d
00000310: ce9a 933c 523e fa3c 29d3 583b 6d86 88bc
00000320: 72d2 823d 6dec c43c 9d30 103d c08d 42bd
00000330: c3b6 923c 096c 49bd 1157 05bd 50a2 a83a
00000340: c59d b5bc 00aa 3e3d 4423 673d cc03 5d3d
00000350: 430f 663c bb74 bf3d f54a d53c d953 cebb
00000360: 7ed5 053d 07c1 5e3d 19a5 af3c 790d b4bc
00000370: 5473 3b3d 0904 863d b6dd 0e3b fb0e 1f3d
00000380: 1fbd 92bb 94c4 56bd 25cc 083d 391d 4fbd
00000390: f399 96bc 0f31 753c dfca ce3c 011a 33bc
000003a0: 20a8 cfbc 4242 413d 6c29 77bc e985 063d
000003b0: 2c5c 00bd a183 3e3d 7177 3f3d ea2d a7bc
000003c0: b2fc 07bc 28dc 3cbc 465d 893d da71 d2bd
000003d0: 1760 8f39 7b59 03bc 7803 bc3d 560b 653d
000003e0: 4a56 8abd 88fa f63c 1cbb 91bd 656e 513d
000003f0: 94fd c73b 3ac0 4abd 450e 963c 785e 20bd

action_model._continuous_distribution.mu.bias f4 [2]
-0.0052018664 -0.0059607597
00000000: 6b74 aabb 7a52 c3bb
