results/car5/CarFindGoal/CarFindGoal-2499939.pt (torch, 530875 bytes, 36 tensors)

network_body._body_endoder.seq_layers.0.weight f4 [128, 36]
0	0x3c47d973	0.01219784
1	0xbcb1cb42	-0.021703366
2	0x3ca48e91	0.020087512
3	0x3d63e4cb	0.055638116
4	0x3d84f1d5	0.06491438
5	0xbe7741e6	-0.24146232
6	0xbd58c416	-0.052921377
7	0xbdc49732	-0.09599151
8	0xbd639834	-0.055565074
9	0xbe4a7619	-0.19771613
10	0x3dc89d18	0.09795588
11	0x3dfc9783	0.12333586
12	0xbaa115a4	-0.0012289775
13	0xbd93b828	-0.072128594
14	0xbe486d1f	-0.19572876
15	0x3dcbb206	0.09946065
16	0x3ec14ac7	0.37752363
17	0x3e435321	0.1907468
18	0x3d91ddbb	0.0712237
19	0xbd98baa8	-0.07457477
20	0x3e74c4af	0.23903154
21	0xbb120f2f	-0.0022286882
22	0x3c195af2	0.009360062
23	0x3da9f314	0.082983166
24	0x3e587511	0.21138407
25	0x3e9a650e	0.30155224
26	0xbe12ffe4	-0.14355427
27	0xbe4c2689	-0.19936575
28	0x3e053b03	0.13010792
29	0xbe79cc00	-0.24394226
30	0xbcce5038	-0.025184736
31	0x3e2fa086	0.17151079
32	0xbd17266a	-0.03690187
33	0xbdcbd732	-0.099531546
34	0x3e57ab76	0.21061501
35	0x3e8e5af8	0.2780378
36	0x3b71a7e3	0.003687375
37	0x3e15c422	0.146256
38	0x3c93ed42	0.01805747
39	0xbe4e5a37	-0.20151602
40	0x3e5463ff	0.2074127
41	0x3cd946c1	0.026522996
42	0xbda8d04c	-0.082428545
43	0xbe1a0553	-0.15041094
44	0xbc879fba	-0.016555656
45	0xbe29176d	-0.16512842
46	0xbe2c19a9	-0.16806664
47	0xbe9bfad0	-0.30464792
48	0xbe85fe44	-0.26170552
49	0xbbf7a2d0	-0.0075572506
50	0xbe648d36	-0.22319493
51	0xbcf30424	-0.02966506
52	0x3ef2bc80	0.4740944
53	0xbc284119	-0.010269427
54	0x3dfe2657	0.124096565
55	0x3db88b79	0.09010977
56	0x3b77a18d	0.00377855
57	0x3e05b5bd	0.13057609
58	0x3d85e48d	0.06537733
59	0xbd8c9333	-0.068640135
60	0x3d64e8e8	0.05588618
61	0x3c65fad6	0.014036855
62	0xbdff8141	-0.12475825
63	0x3e5fe584	0.21864897
64	0x3cfb0817	0.030643506
65	0x3db13d01	0.08654214
66	0x3ea0d7f8	0.3141477
67	0x3bbc6f15	0.0057505467
68	0xbd9c009b	-0.07617303
69	0xbe09e5ee	-0.13466617
70	0xbc4cf68f	-0.012509956
71	0x3cbebafc	0.02328252
72	0x3ce0a422	0.027422015
73	0x3e2506b4	0.16115838
74	0xbe88b887	-0.26703283
75	0xbd2551b2	-0.040361114
76	0xbe10eaeb	-0.14152114
77	0x3e1f96ed	0.15584917
78	0x3dbc087c	0.09181306
79	0x3d5d102b	0.053970497
80	0xbe5208e3	-0.20511203
81	0x3e078cef	0.13237356
82	0xbc930982	-0.01794887
83	0x3de15a65	0.110035695
84	0x3e52ddd2	0.2059243
85	0x3db554d8	0.08854073
86	0x3e2c8391	0.16847064
87	0x3e9f4dce	0.31114048
88	0x3ea361e7	0.3191063
89	0x3e0aeecb	0.13567655
90	0x3dc4d753	0.09611382
91	0xbda0576b	-0.07829174
92	0x3e304cb8	0.17216766
93	0x3c85477b	0.016269436
94	0x3deb34ae	0.11484657
95	0xbecf83f4	-0.4053036
96	0x3d6c8ea6	0.057753228
97	0x3e10fd8c	0.1415922
98	0x3ce2ff63	0.027709669
99	0x3ebf971b	0.37419972
100	0xbc3c5a04	-0.011496071
101	0xbdd70287	-0.10498529
102	0x3d863ff9	0.065551706
103	0xbe8cbabb	-0.27486214
104	0x3dc98ce8	0.09841329
105	0x3e8a1e46	0.26976222
106	0xbec5c0c4	-0.3862363
107	0x3e52cdf1	0.20586373
108	0x3e0cd781	0.13754083
109	0x3d5893c9	0.052875314
110	0xbe0811e4	-0.13288075
111	0x3e701104	0.23443991
112	0xbca6173b	-0.020274749
113	0x3e845e31	0.25853112
114	0xbdb01a05	-0.08598713
115	0x3e5dc82b	0.2165839
116	0xbd8c857d	-0.06861398
117	0xbe00d5f5	-0.12581618
118	0x3e4d6ab5	0.20060237
119	0x3bbad73e	0.0057019284
120	0x3c2bf707	0.010495908
121	0xbab0f4f7	-0.001350074
122	0xbebdb946	-0.37055415
123	0xbe00ed99	-0.12590636
124	0x3e6b6e2a	0.22991243
125	0xbe8d5ec9	-0.27611378
126	0x3bb83a1a	0.0056221606
127	0x3e092f17	0.1339687
128	0x3cb7f6e3	0.022456592
129	0xbdb34dfa	-0.08755107
130	0x3e3e274f	0.18569683
131	0xbdf5fe91	-0.12011445
132	0x3dca8c52	0.09890045
133	0x3d8b1e7d	0.067929246
134	0x3e731540	0.23738575
135	0x3e609393	0.21931295
136	0xbd8acae3	-0.06776979
137	0x3e6a376f	0.22872709
138	0x3e10e6fa	0.1415061
139	0x3e14dc33	0.14537124
140	0x3d9edd22	0.077570215
141	0xbe3fd833	-0.18734817
142	0x3d4b2f77	0.049605813
143	0x3e667605	0.22505958
144	0xbd885952	-0.066576615
145	0xbbe373a5	-0.006941276
146	0xbe67e1c3	-0.22644715
147	0x3c746a8c	0.014917981
148	0x3e0dfcf2	0.13866022
149	0x3e47af8d	0.19500561
150	0xbd9d865e	-0.07691644
151	0x3e945a04	0.28974926
152	0x3bbf5947	0.0058395
153	0x3c425ca0	0.011862904
154	0xbeb5b949	-0.35492924
155	0x3e8c7c2f	0.27438495
156	0x3d62da05	0.0553837
157	0xbeaad926	-0.33368796
158	0x3e8eb00b	0.27868685
159	0xbeb5350c	-0.35392034
160	0x3ebb3b2b	0.3656858
161	0xbe5fedf9	-0.21868123
162	0x3dcf2ea9	0.101163216
163	0x3eb83fbd	0.35986128
164	0xbd887597	-0.066630535
165	0x3eab3549	0.3343909
166	0xbc269975	-0.010168423
167	0x3cf0609a	0.029342938
168	0x3e0f62e5	0.14002569
169	0x3eea4f77	0.45763752
170	0x3c8e44b2	0.01736674
171	0x3e4400b2	0.1914089
172	0xbd138efb	-0.03602503
173	0x3e08d35d	0.13361879
174	0xbcfc0fcd	-0.030769253
175	0x3ea23020	0.3167734
176	0xbe6812a8	-0.22663367
177	0xbdd40294	-0.10352054
178	0xbe4c1893	-0.1993125
179	0x3e70bbf6	0.23509201
180	0x3db86280	0.090031624
181	0xbe379fe7	-0.17932092
182	0x3d20fdcb	0.039304536
183	0xbda76d43	-0.08175137
184	0xbdd680b2	-0.104737654
185	0xbedf6797	-0.4363372
186	0x3e073cef	0.13206838
187	0x3dcaa815	0.0989534
188	0x3d166348	0.036715776
189	0xbe6603e4	-0.22462422
190	0x3e0edd66	0.13951644
191	0xbe539344	-0.20661646
192	0xbdc7c721	-0.09754778
193	0x3e67a751	0.2262242
194	0x3e322daa	0.17400232
195	0x3e64fd32	0.22362211
196	0x3e581f7b	0.21105759
197	0x3e0610e9	0.13092388
198	0x3e306e1e	0.17229506
199	0xbc3e3a99	-0.01161065
200	0x3e2fb3e0	0.1715846
201	0x3d1c901b	0.038223367
202	0xbd341716	-0.04396733
203	0xbd5c8db7	-0.053846087
204	0xbe62b57d	-0.22139545
205	0xbdefc980	-0.11708355
206	0x3c822fc0	0.01589191
207	0x3eb70333	0.35744628
208	0xbdd51ff3	-0.104064845
209	0xbdceffb8	-0.10107368
210	0x3bafa0df	0.0053597535
211	0xbe1f5d3d	-0.15562911
212	0xbda50a02	-0.080585495
213	0xbe460dc8	-0.19341195
214	0x3df9d94f	0.121996514
215	0x3d439945	0.04775359
216	0x3e59148d	0.21199246
217	0xbe9e3cf7	-0.30905887
218	0xbe1d2d74	-0.1534937
219	0x3e151445	0.14558513
220	0x3e5c11bf	0.21491145
221	0xba96ead1	-0.0011514073
222	0xbdcaae18	-0.09896487
223	0x3d9c34a0	0.07627225
224	0xbcd964e1	-0.02653736
225	0xbef314a7	-0.47476694
226	0xbce6bc29	-0.028165894
227	0x3e912634	0.2834946
228	0xbda46deb	-0.08028778
229	0x3e8aa3dc	0.2707814
230	0xbde1ab08	-0.1101895
231	0xbd784ece	-0.06062203
232	0x3e319c0d	0.17344685
233	0x3c6e0a60	0.014528841
234	0xbcfb77b3	-0.030696725
235	0xbd6cfe15	-0.0578595
236	0x3d11d0b6	0.035599433
237	0x3d9df19a	0.077120975
238	0xbd86f344	-0.06589368
239	0x3d963fe5	0.07336406
240	0xbd12f02b	-0.035873573
241	0xbe888c5b	-0.26669583
242	0xbd9a9d17	-0.07549494
243	0x3ebe2618	0.37138438
244	0x3d815071	0.06314171
245	0x3c3f6089	0.011680731
246	0xbdee8e48	-0.11648232
247	0xbce93121	-0.02846581
248	0xbcd1da62	-0.025616828
249	0xbc4d2c62	-0.012522789
250	0x3e12bcb5	0.14329799
251	0x3e530625	0.20607813
252	0x3e7525d4	0.23940212
253	0xbe1cf070	-0.15326095
254	0xbb05bf85	-0.0020408344
255	0x3de76a5b	0.112995826

network_body._body_endoder.seq_layers.0.bias f4 [128]
0	0x3c5d2e72	0.013499843
1	0x3c709cf5	0.014685859
2	0x3a443189	0.0007484188
3	0xbbe07f8b	-0.006851142
4	0x3afe209f	0.0019388384
5	0xbc8e4dbd	-0.017371053
6	0x3b7bae18	0.0038403329
7	0xbc229f71	-0.009925709
8	0xbaaf9738	-0.0013396507
9	0x3c44e855	0.012018283
10	0x3d3beeeb	0.045882147
11	0x3c0b9a5e	0.008520691
12	0x3b55c3fe	0.003261804
13	0x3c6ec848	0.014574118
14	0x39d541f0	0.00040675653
15	0x3c658043	0.014007631
16	0x3c134823	0.008989367
17	0xbc80fc4a	-0.0157453
18	0x39c8ecd3	0.0003832342
19	0x3b04b8e4	0.0020251805
20	0x3cbbe6a8	0.022937134
21	0xba9cc79c	-0.0011961344
22	0xbc43aa3f	-0.011942445
23	0x3ba08f54	0.0048998985
24	0x3aea9c57	0.0017899376
25	0x3d39a4e6	0.045323275
26	0xbca2bd91	-0.019865783
27	0x3c917d3d	0.017759914
28	0xbbcb1933	-0.0061980723
29	0xbb9e8497	-0.0048375833
30	0x3ccf555a	0.025309253
31	0x3c8dd7a7	0.017314745
32	0xbbd496ff	-0.0064877267
33	0x3c6cba34	0.014448691
34	0xba80bca9	-0.000982185
35	0x3b872347	0.0041240784
36	0x3c849ecf	0.016189007
37	0x3b74e293	0.0037366494
38	0xbb86cd12	-0.0041138018
39	0x3c334a01	0.010942937
40	0x3bf53cc8	0.0074840523
41	0x3d07a71d	0.033118356
42	0x3cd1998f	0.025585918
43	0x3d099a42	0.033594377
44	0xbade7453	-0.0016971923
45	0x3ccbb97d	0.024868721
46	0x3b7c0d08	0.0038459916
47	0x3cecc896	0.02890424
48	0x3c42e26c	0.0118948035
49	0x3d07394e	0.033013634
50	0x3d3128e7	0.0432519
51	0x3c17b1d3	0.009258705
52	0xba0dccce	-0.00054092414
53	0xbb68cbbb	-0.0035521823
54	0x3d11e882	0.035622127
55	0x3b4ef038	0.0031576287
56	0x3d088894	0.033333376
57	0xbc2bf28c	-0.010494839
58	0x3d2399f8	0.039941758
59	0xba8b2f19	-0.0010618895
60	0xbb9299a5	-0.0044738823
61	0xbcc53afc	-0.024075978
62	0x3d0274ee	0.031849794
63	0x3ca5db32	0.020246122
64	0x3cc115c9	0.023569958
65	0x3b2909a5	0.0025793102
66	0x3c802a94	0.015645303
67	0x3cbba9b7	0.022908075
68	0x3d49bdc0	0.049253225
69	0xbb701f28	-0.0036639664
70	0xbc29bb94	-0.0103596635
71	0x3c0e9a18	0.008703731
72	0x3cd9a439	0.026567565
73	0x3d2f8e6a	0.042860426
74	0x3c82c3bb	0.015962472
75	0x3d20af0f	0.03922945
76	0x3d405bbe	0.046962492
77	0xbc8d30bb	-0.01723515
78	0xbcd2d30c	-0.0257354
79	0x3b7d52d5	0.0038654108
80	0x3cc86512	0.024462257
81	0xbc4a476b	-0.012346129
82	0xbb04454f	-0.0020182913
83	0x3cf1da4e	0.029523041
84	0xbacd851a	-0.0015679926
85	0x3d0bedd4	0.034162357
86	0x3ce72093	0.028213775
87	0x3c23b142	0.009990992
88	0x3cbc62e3	0.022996372
89	0xba14ccbd	-0.00056762603
90	0x3bbe2c2e	0.0058036065
91	0x3cd58c27	0.026067806
92	0x3d019a17	0.031641092
93	0x3d016585	0.031590957
94	0xbba3f704	-0.005003812
95	0x3d8a334f	0.067480676
96	0xbc24be1c	-0.010055091
97	0xbb1853cb	-0.0023243304
98	0x3cda2e76	0.026633482
99	0x3ce2725d	0.027642423
100	0x3d26ca07	0.040720012
101	0xbc05db19	-0.008169913
102	0x3c3764eb	0.011193494
103	0xb982a06a	-0.0002491505
104	0x3c2a13cc	0.0103806965
105	0x3c88ebf3	0.016714072
106	0x3ac501c8	0.0015030438
107	0xb9615d96	-0.00021492536
108	0x3c1ab9a7	0.009443677
109	0xbd25e4d7	-0.04050144
110	0x3c9fe41e	0.019517954
111	0xbc7636df	-0.015027731
112	0x3c83ffdf	0.01611322
113	0xbc691b63	-0.014227721
114	0x3c3c8f36	0.0115087535
115	0x3d237529	0.039906655
116	0xbc06e358	-0.008232914
117	0xbd21eb9f	-0.039531346
118	0x3c9fe740	0.019519448
119	0x3b54ff67	0.0032500864
120	0x39ccff77	0.00039100248
121	0x3cd03c4a	0.025419373
122	0xbc4053cc	-0.011738729
123	0xbb9b4baf	-0.004739247
124	0xbb5d8b9f	-0.0033805144
125	0xbcc4fcd0	-0.024046332
126	0x3d377c33	0.04479618
127	0x3cf70c97	0.03015737

network_body._body_endoder.seq_layers.2.weight f4 [128, 128]
0	0x3da0156b	0.07816585
1	0x3d881278	0.06644148
2	0xbe34457b	-0.1760463
3	0xbe139e59	-0.14415874
4	0xbcc4e300	-0.024034023
5	0x3db6b95e	0.08922075
6	0xbe03b4fa	-0.12862006
7	0x3cb02c8e	0.02150562
8	0xbcb66e39	-0.022269355
9	0x3da1bcad	0.07897315
10	0xbde18829	-0.110122986
11	0xbced9423	-0.029001301
12	0x3dba3f02	0.09094049
13	0xbce72df9	-0.028220164
14	0x3dd80fc8	0.10549885
15	0xbde1a5e7	-0.110179715
16	0xbda2de83	-0.07952597
17	0xbc528727	-0.012849606
18	0x3cd8f46e	0.02648374
19	0x3caccea2	0.021094624
20	0x3e5a711e	0.21332213
21	0x3cc99028	0.024604872
22	0x3d8d006e	0.068848476
23	0x3daf8213	0.085697316
24	0xbde62268	-0.11237031
25	0x3d0323aa	0.032016434
26	0x3d404f1a	0.046950437
27	0x3ceff95c	0.029293709
28	0xbc40cd69	-0.011767724
29	0x3de3d07d	0.1112375
30	0xbd3f0de9	-0.046644125
31	0x3e0832a8	0.13300574
32	0xbdd8febf	-0.10595464
33	0xbe1ed623	-0.15511374
34	0xbdd2b030	-0.10287511
35	0xbe000e89	-0.12505545
36	0xbe33a5a0	-0.1754365
37	0xbdb46159	-0.0880763
38	0xbc92a610	-0.01790145
39	0xbd6c2fe7	-0.05766287
40	0x3e4baa25	0.19889124
41	0xbdc1d383	-0.09464171
42	0x3dde30a7	0.108491234
43	0xbc76ea3c	-0.015070494
44	0x3e1213c7	0.14265357
45	0x3dbf4c6f	0.093407504
46	0x3c613d4f	0.013747527
47	0x3e00947c	0.12556642
48	0x3cdc9aef	0.026929347
49	0x3df1706a	0.117890194
50	0xbd2b808a	-0.04187063
51	0xbd19e44f	-0.037571248
52	0x3d91aaae	0.07112633
53	0xbe2514a3	-0.16121154
54	0xbe3b7052	-0.18304566
55	0x3dd79805	0.10527042
56	0x3e361967	0.17783128
57	0xbe3cb33e	-0.1842775
58	0x3e3ebf87	0.1862775
59	0xbd33697a	-0.043801762
60	0x3d430d72	0.047620244
61	0x3dbf0f4e	0.09329091
62	0xbdf2c967	-0.11854821
63	0x3db07298	0.08615607
64	0xbdcfaa92	-0.101399556
65	0xbd6a6b2b	-0.05723111
66	0x3cb83bb0	0.022489399
67	0xbcb81f58	-0.022475883
68	0xbd2e4e4b	-0.042555135
69	0xbe2a07f3	-0.16604595
70	0x3d9fe174	0.07806674
71	0x3caefe57	0.021361513
72	0xbddf8b1a	-0.109152034
73	0xbd8539e1	-0.0650518
74	0x3d840f3f	0.064482205
75	0xbdc9d70b	-0.09855469
76	0x3cf465d0	0.029833704
77	0xbe1d8aea	-0.15385023
78	0x3caf1740	0.021373391
79	0x3dc6ab75	0.097006716
80	0x3df34a92	0.118794575
81	0x3d976b55	0.07393519
82	0x3e09ba4d	0.13449974
83	0x3d5ea373	0.054355096
84	0x3e11cc47	0.14238082
85	0x3d36a4d0	0.04459077
86	0x3ce111c4	0.027474292
87	0xbd78f085	-0.060776252
88	0x3e14dcd6	0.14537367
89	0xbc930435	-0.017946342
90	0x3c8f90a4	0.017525025
91	0x3b851e2b	0.004062434
92	0xbd79d81b	-0.06099711
93	0x3cf3d896	0.029766362
94	0xbd6be8aa	-0.057594933
95	0xbcb0df7f	-0.021590946
96	0x3dbb496b	0.09144863
97	0xbe0f03a8	-0.13966238
98	0x3ccb000c	0.024780296
99	0xbdb90c05	-0.09035496
100	0x3dd02e30	0.101650596
101	0xbdc520aa	-0.09625371
102	0x3e0a6ce7	0.13518105
103	0xbbb0010e	-0.0053712195
104	0xbe10a624	-0.14125878
105	0xbdf6d42b	-0.120521866
106	0xbe141800	-0.1446228
107	0xbd971f9b	-0.07379075
108	0xbcd2d6e1	-0.025737228
109	0x3d98cbd5	0.07460753
110	0x3c64c0c9	0.013961979
111	0xbd04bd31	-0.03240699
112	0xbbb6fb1f	-0.005584135
113	0x3d811d93	0.06304469
114	0x3c789bb7	0.015173844
115	0xbc8ca0ac	-0.017166458
116	0x3d69efd5	0.057113487
117	0x3ccfb463	0.02535457
118	0xbe29c922	-0.16580632
119	0xbd7cc2e7	-0.06170931
120	0xbc43899c	-0.011934664
121	0x3e03dc71	0.1287706
122	0x3c4edf63	0.012626502
123	0x3d50a3f3	0.050937604
124	0x3e034b6c	0.1282174
125	0xbc849687	-0.016185058
126	0xbc0ccf2a	-0.008594314
127	0xbdae6501	-0.08515359
128	0x3da23a4d	0.07921276
129	0x3d8bfe9b	0.068356715
130	0x3e2ebfcf	0.17065357
131	0xbdcf360e	-0.10117732
132	0xbe2cc339	-0.16871347
133	0x3d92041b	0.07129689
134	0x3de22be2	0.11043526
135	0x3c60b351	0.013714627
136	0xbe5cd048	-0.21563828
137	0x3dbf1ecd	0.09332047
138	0x3d9c0353	0.076178215
139	0xbdfebddb	-0.12438556
140	0xbe0760fb	-0.13220589
141	0x3be2fced	0.0069271238
142	0x3d90bfb5	0.07067815
143	0x3d26cd04	0.040722862
144	0x3d69d35b	0.05708633
145	0xbc29aaae	-0.010355635
146	0xbd6d743c	-0.057972178
147	0x3d1024db	0.035191398
148	0x3d39692b	0.04526631
149	0xbe0c4455	-0.13697942
150	0xbe1037a0	-0.14083719
151	0x3dd7cd60	0.10537219
152	0xbdd5f667	-0.10447388
153	0x3e35ecc7	0.17766105
154	0x3dd6fba3	0.10497215
155	0x3e07368a	0.13204399
156	0x3aa11f4d	0.0012292654
157	0xbd0aa969	-0.03385297
158	0x3da777bc	0.081771344
159	0xbddb7cda	-0.10717173
160	0xbd495744	-0.04915549
161	0xbd9b924c	-0.07596263
162	0xbdb2c678	-0.08729261
163	0xbdb73cc6	-0.089471385
164	0x3d3c5061	0.045975093
165	0xbd4ae6f7	-0.04953667
166	0xbe3d07fc	-0.18460077
167	0xbd722608	-0.0591183
168	0x3d7d7c90	0.06188637
169	0x3d465417	0.048420038
170	0x3dee55b0	0.11637437
171	0x3e1ca090	0.15295625
172	0x3d4ba163	0.049714457
173	0x3d5a5690	0.05330521
174	0xbc9949bb	-0.018711915
175	0xbe0467a6	-0.12930164
176	0x3dc6e6f7	0.09712022
177	0x3ca86f38	0.020560846
178	0xbda63488	-0.08115488
179	0xbe104c6e	-0.14091656
180	0x3d3a31fc	0.045457825
181	0xbc2448db	-0.010027136
182	0xbc9974da	-0.018732477
183	0xbdf907c4	-0.12159684
184	0x3d709a17	0.0587407
185	0x3e3c74b4	0.18403894
186	0x3df3de57	0.11907642
187	0xbd851492	-0.06498064
188	0x3cf6f6b0	0.030146927
189	0x3dd48394	0.10376659
190	0x3c672786	0.014108544
191	0x3e32fe5a	0.1747984
192	0xbd960d01	-0.07326699
193	0xbd774f1b	-0.060378175
194	0xbbd554e0	-0.006510362
195	0x3c27d9f3	0.010244834
196	0xbe218036	-0.15771565
197	0xbcde9120	-0.02716881
198	0xbc3697f6	-0.011144629
199	0x3d4af2f7	0.049548116
200	0xbe3b9cdc	-0.18321556
201	0x3e16e10d	0.14734288
202	0xbd8b3ca7	-0.06798678
203	0xbe0419e9	-0.12900509
204	0x3d5c94c1	0.0538528
205	0xbd033dc9	-0.032041345
206	0x3d5fb58c	0.054616496
207	0xbb08b721	-0.0020861106
208	0x3da39af7	0.079885416
209	0x3c84b917	0.016201539
210	0xbd2112c8	-0.03932455
211	0x3ddce342	0.107855335
212	0xbdf41c20	-0.11919427
213	0x3d8bc111	0.06823934
214	0xbba75632	-0.005106711
215	0xbda9c238	-0.082889974
216	0x3d12a3f4	0.03580089
217	0xbdc2850c	-0.09498033
218	0x3da0e8fe	0.0785694
219	0x3d4c1400	0.04982376
220	0x3e97401e	0.29541105
221	0x3e8b2558	0.2717693
222	0xbd623484	-0.055225864
223	0x3dcb7ddb	0.099361144
224	0x3cde80d4	0.02716104
225	0xbdecc28c	-0.11560544
226	0x3d2bf389	0.0419803
227	0x3d98d95f	0.07463335
228	0x3e3e749b	0.18599169
229	0x3d40e4f9	0.047093365
230	0xbdc9b44b	-0.09848841
231	0x3c7e09d4	0.015505273
232	0xbd1ca701	-0.038245205
233	0xbdcacf7d	-0.099028565
234	0xbd1c50e6	-0.03816309
235	0xbd6dde21	-0.058073167
236	0x3d838e46	0.06423621
237	0x3d1abda5	0.037778515
238	0x3d40b4b4	0.047047332
239	0xbd9d7924	-0.07689121
240	0xbdf34cfc	-0.11879918
241	0xbd50c52d	-0.05096929
242	0xbe87028c	-0.2636913
243	0x3e0019e1	0.12509872
244	0xbc856579	-0.016283737
245	0x3d97fe66	0.074215695
246	0xbd4e2846	-0.050331376
247	0x3d78339d	0.060596097
248	0xbe4eb1c2	-0.20184997
249	0x3e5e1ff0	0.2169187
250	0xbdc6ac7b	-0.09700867
251	0x3d85a8af	0.065263145
252	0x3d9247e3	0.071426176
253	0xbe035a40	-0.12827396
254	0xbdf93e23	-0.12170055
255	0xbdadb2ed	-0.08481393

network_body._body_endoder.seq_layers.2.bias f4 [128]
0	0x3c94be06	0.018157016
1	0x3cbcc113	0.023041284
2	0xbc9acbc3	-0.01889599
3	0x3cb42658	0.02199094
4	0x3cc05248	0.023476735
5	0x3b97e76b	0.0046357415
6	0xbc61d9d0	-0.013784841
7	0x3c3903e9	0.011292436
8	0xba091251	-0.00052288646
9	0x3c7cbac9	0.015425392
10	0xbc180f4c	-0.009280991
11	0x3bbcbe97	0.005760025
12	0x3cc8091a	0.024418402
13	0x3d0a9f42	0.033843286
14	0x3d127a46	0.03576114
15	0x3c6909ea	0.014223555
16	0x3b77e02e	0.003782283
17	0xbba3bb49	-0.0049966914
18	0x3be2db8e	0.0069231456
19	0xbb60bd57	-0.0034292543
20	0x3b496fa2	0.0030736704
21	0x3d148f64	0.03626956
22	0xbbabd666	-0.005244064
23	0xb9cd578d	-0.00039165877
24	0xbbb3274c	-0.005467331
25	0x3bc1df0a	0.005916481
26	0xbc23e3c5	-0.010003035
27	0x3c58b8cd	0.013227654
28	0x3baab0bf	0.005209058
29	0xbca8b6f0	-0.020595044
30	0x3c053791	0.008130924
31	0x3c27b48b	0.010235916
32	0x3d09098a	0.033456363
33	0x3cbc59c3	0.02299202
34	0x3d01a829	0.03165451
35	0xbc073b23	-0.008253845
36	0x3bc5dbd7	0.00603817
37	0x3bc75320	0.0060829073
38	0xbbd09f4c	-0.006366646
39	0x3ae324be	0.0017329676
40	0x3be4f5ef	0.0069873254
41	0x3c8d1dc3	0.017226106
42	0x38ee4798	0.0001136206
43	0x3be7851b	0.007065428
44	0x3c80ae51	0.01570812
45	0x3ca51b50	0.020154625
46	0x3cd61f67	0.02613802
47	0x3caec65c	0.02133482
48	0x3a54451a	0.0008097455
49	0xbb8ce6a3	-0.004299955
50	0x3c0e580d	0.008687985
51	0xbb43ed67	-0.0029896141
52	0x3c779f3f	0.015113651
53	0x3c29d18c	0.010364901
54	0xba406543	-0.0007339308
55	0x3c6b3e45	0.014358108
56	0x3c8bef57	0.0170819
57	0xbace0509	-0.0015718053
58	0xbbdb5862	-0.0066938857
59	0x3c968b54	0.018376984
60	0xbc637d1c	-0.013884809
61	0x3a258a5a	0.00063148665
62	0x3cd46ca2	0.025930706
63	0x3c1bae17	0.0095019555
64	0xbc34cc9c	-0.011035111
65	0x3cbdd2a3	0.023171728
66	0x3c0fdd9f	0.008780866
67	0x3ca5ead5	0.020253578
68	0x3cf19fa6	0.029495072
69	0x3c143437	0.009045652
70	0xbaee2634	-0.0018169344
71	0xbc14eddf	-0.009089916
72	0x3aa66ef9	0.0012697867
73	0xbbe1075c	-0.0068673324
74	0xbc0ee70c	-0.008722078
75	0x3cf75f6b	0.030196866
76	0x3c4d8eff	0.0125463
77	0x3caf566e	0.021403518
78	0x3b30234c	0.0026876507
79	0x3adcc154	0.0016842284
80	0x3c269661	0.010167689
81	0x3ad59344	0.0016294499
82	0xb9d5fa07	-0.0004081281
83	0x3c540130	0.012939736
84	0x3ba5066f	0.0050361673
85	0x3c74f6f8	0.01495146
86	0x3b996c1b	0.0046820766
87	0xbc3bf4ae	-0.01147191
88	0xbc8ec7ce	-0.017429259
89	0x3b0abb67	0.002116883
90	0xbc000b79	-0.007815235
91	0xbaa19750	-0.001232842
92	0x3a743347	0.0009315502
93	0x3c5403a3	0.01294032
94	0x3b74c119	0.003734654
95	0xbb4e9711	-0.0031523148
96	0x3b68d3a0	0.003552653
97	0x3c349e21	0.011024029
98	0x3bd4c1c5	0.0064928257
99	0x3c264221	0.010147602
100	0x3c7ac58c	0.015305888
101	0x3c371720	0.011174947
102	0xbacbd07d	-0.0015549805
103	0x3d122fca	0.035690106
104	0xbc4f5d0e	-0.012656463
105	0x3b5e5f70	0.0033931397
106	0xbc605973	-0.013693201
107	0x3aba7430	0.00142253
108	0xbb96ab58	-0.0045980625
109	0xba4f2caa	-0.0007903079
110	0x3ca6d24c	0.02036395
111	0xbbae143a	-0.00531247
112	0x3b34a159	0.002756199
113	0xbc412ecc	-0.011790942
114	0x3ae01f23	0.0017099123
115	0x3d01df93	0.031707358
116	0xbcccced1	-0.025000961
117	0x3b244f7a	0.0025071786
118	0x3c5eb0de	0.013591973
119	0x3c0d34e3	0.008618566
120	0x3c96d89f	0.01841384
121	0x3a4cc882	0.00078118604
122	0x3cb5d2d3	0.022195255
123	0x3c58deda	0.013236726
124	0x3c1c0b90	0.009524241
125	0x3c07a7f1	0.008279786
126	0xbb9b5eab	-0.00474151
127	0x3b869690	0.004107304

action_model._continuous_distribution.log_sigma f4 [1, 2]
0	0x3d9ed4b2	0.07755412
1	0x3d0fbd06	0.035092376

action_model._continuous_distribution.mu.weight f4 [2, 128]
0	0xbcedc057	-0.029022379
1	0xbde74d32	-0.11294021
2	0x3bf11a46	0.0073578684
3	0xbdbb69ec	-0.09151062
4	0x3d57e8d1	0.052712265
5	0x3d511f27	0.0510551
6	0x3ccb37e6	0.024806928
7	0xbc6ba957	-0.0143836355
8	0x3d090d12	0.03345973
9	0x3c69c29c	0.01426759
10	0xba999799	-0.0011718153
11	0xbd520382	-0.051272877
12	0xbd06fc77	-0.032955613
13	0xbdb56ace	-0.08858262
14	0xbd850576	-0.06495182
15	0x3ce1f7b2	0.02758393
16	0x3cb067af	0.021533815
17	0xbc32f713	-0.010923165
18	0x3d2d9054	0.04237397
19	0x3d1f35d2	0.038869686
20	0x3d9f4abe	0.07777928
21	0xbddda0be	-0.10821675
22	0xbce078b8	-0.027401313
23	0x3d277ee2	0.04089249
24	0x3c9a70f7	0.018852694
25	0xbce56f1a	-0.028007079
26	0xbc61d5b7	-0.013783864
27	0xbd578ebf	-0.052626368
28	0x3d84b404	0.06479648
29	0x3acb761d	0.0015522871
30	0x3b8b5646	0.004252228
31	0xbcff7d8c	-0.031187795
32	0xbc76909d	-0.015049127
33	0xbd117d27	-0.035519745
34	0xbceb4885	-0.028721103
35	0x3c898507	0.016787065
36	0xbc749343	-0.014927688
37	0xbca533e1	-0.02016634
38	0x3cff59a3	0.031170672
39	0xbaaf2e21	-0.0013365188
40	0x3d7b95e4	0.061422244
41	0xbcb641f6	-0.02224825
42	0x3bc08971	0.0058757593
43	0x3c4a24c0	0.012337863
44	0x3b63f890	0.0034785606
45	0x3c386763	0.011255118
46	0xbd8d47e8	-0.06898481
47	0xbdb13c13	-0.086540364
48	0x3bcb0c2f	0.0061965208
49	0x3cee90b1	0.029121729
50	0xbc0becbf	-0.008540331
51	0x3d5a7af9	0.053339932
52	0x3d9c139f	0.0762093
53	0x3da4a7c0	0.08039808
54	0xbca75b25	-0.020429203
55	0x3dbcad43	0.092127346
56	0xbd099f0e	-0.033598952
57	0x3d2802ec	0.04101841
58	0x3cda9241	0.026681067
59	0xbdc309c2	-0.095233455
60	0x3c184f51	0.009296254
61	0x3cff541d	0.031168038
62	0x3c2733f0	0.010205254
63	0x3bf1623e	0.0073664477
64	0xbcc5c638	-0.02414237
65	0xbcf8bc20	-0.030363142
66	0x3d2bcb4c	0.041941926
67	0xbcc9964b	-0.024607798
68	0xbde83c7a	-0.1133966
69	0xbd861f33	-0.065489195
70	0x3d4460a0	0.04794371
71	0xbc53fc1a	-0.012938524
72	0x3c9dd1d0	0.019265085
73	0x3cc6753b	0.024225822
74	0x3b991105	0.0046712183
75	0x3bbebd54	0.0058209095
76	0xbd44ec11	-0.048076693
77	0xbc73d2c0	-0.01488179
78	0x3d5826ed	0.052771498
79	0x3d331321	0.043719415
80	0x3d9abc29	0.0755542
81	0x3c82571c	0.015910678
82	0x3be66f40	0.007032305
83	0x3d25209a	0.040314294
84	0x3d8dfdbf	0.06933164
85	0xbd1989da	-0.03748498
86	0xbcea5902	-0.028606895
87	0x3ce7c36e	0.02829143
88	0xbb6240ae	-0.0034523415
89	0xbcda63f8	-0.026658997
90	0x3d09b746	0.03362205
91	0x3ca5bbfc	0.02023124
92	0xbb101260	-0.0021983609
93	0x3c746d30	0.01491861
94	0xbb370056	-0.0027923784
95	0x3d174f7e	0.036941044
96	0xbd280ae9	-0.04102603
97	0x3d272920	0.040810704
98	0x3d320a6e	0.043466978
99	0x3d27c2b4	0.040957168
100	0xbde30463	-0.11084821
101	0x3d5dd78e	0.054160647
102	0x3ceb3c67	0.028715326
103	0xbdf1e766	-0.11811714
104	0x3c229e50	0.00992544
105	0x3d0d0aca	0.034434117
106	0x3bc6deb1	0.0060690274
107	0x3ca975b2	0.020686004
108	0x3cc19cc4	0.023634322
109	0x3cd4d751	0.025981577
110	0xbdb55b88	-0.08855349
111	0x39b96aac	0.00035365426
112	0x3cd98de2	0.026556913
113	0x3c614b0d	0.013750804
114	0x3d484686	0.04889538
115	0x3d1f8654	0.038946465
116	0x3c89516e	0.016762462
117	0xbc288461	-0.010285468
118	0xbd3e0740	-0.046393633
119	0xbccea836	-0.025226694
120	0x3d8432aa	0.06454976
121	0x3d04132d	0.03224485
122	0x3d608f64	0.054824248
123	0x3d8b1656	0.067913696
124	0xbd8fec52	-0.070274964
125	0x3d14e329	0.03634945
126	0x3d0af257	0.03392252
127	0x3ce9d76e	0.028545108
128	0xbc17bdf2	-0.009261595
129	0xbc437f13	-0.011932152
130	0xbc0c9e33	-0.0085826395
131	0x3c04b197	0.008098981
132	0xbd82e5bf	-0.06391477
133	0x3c0cd7ac	0.008596342
134	0xbc123a93	-0.008925098
135	0xbd0293a3	-0.03187908
136	0x3d05c29a	0.03265629
137	0xbd6b85e6	-0.057500742
138	0x3d0ae121	0.033906106
139	0xbcc53344	-0.024072297
140	0x3c4bfe17	0.012450716
141	0x3aed5e4e	0.001810977
142	0x3c272fb0	0.010204241
143	0x3d9ce942	0.07661678
144	0xbd1cf748	-0.038321763
145	0x3c57931e	0.013157634
146	0xbcf060cf	-0.029343037
147	0xbc7bf7df	-0.015378921
148	0x3c0da780	0.008645892
149	0xbd053d35	-0.032529075
150	0xbcd23506	-0.02566005
151	0xbcc42f76	-0.023948412
152	0x3d1fa010	0.038971007
153	0x3da37224	0.07980755
154	0x3c2bf920	0.010496408
155	0xbcd24f57	-0.025672598
156	0x3c12aa53	0.008951741
157	0x3c8aac89	0.016927974
158	0xbd52a783	-0.051429283
159	0x3d875d4a	0.0660959
160	0xbdb5075a	-0.08839293
161	0xbd1e70eb	-0.038681906
162	0xbce91912	-0.028454337
163	0x3c812bb6	0.015767913
164	0xbc8af49e	-0.016962346
165	0x3d378104	0.044800773
166	0xbcd0e744	-0.025500901
167	0xbd178242	-0.036989458
168	0xbd36409a	-0.044495203
169	0xbcf0708a	-0.029350538
170	0xbd00c552	-0.03143818
171	0xbd2f6b7b	-0.04282711
172	0x3d9c43e9	0.0763014
173	0xbc65bfa0	-0.014022738
174	0xbd3e5191	-0.046464507
175	0x3d57b0b1	0.05265874
176	0xbd0d7192	-0.034532137
177	0xbd013966	-0.03154888
178	0xbd47d0fd	-0.04878329
179	0x3c570646	0.013124054
180	0xbd325950	-0.043542206
181	0xbd2f7cf9	-0.042843793
182	0x3bb2767c	0.0054462533
183	0x3c8f25c0	0.017474055
184	0xbd8442ac	-0.06458029
185	0x3cd975ff	0.026545523
186	0xbcbcb1ac	-0.02303394
187	0x3b468b70	0.0030295514
188	0xbbdc09d4	-0.006715039
189	0x3cea3239	0.028588401
190	0x3d8db674	0.06919566
191	0x3d3242b2	0.043520637
192	0xbc1c872c	-0.009553712
193	0xbdc60f10	-0.09670842
194	0xbd34a9d8	-0.044107288
195	0x3d9e0f6b	0.077177845
196	0x3c939ace	0.018018153
197	0x3cfa3e52	0.030547295
198	0x3b58d329	0.0033084846
199	0xbc88866d	-0.016665662
200	0x3d82d272	0.063877955
201	0x3cc4ec6d	0.024038518
202	0x3d10309d	0.03520261
203	0xbd428dc0	-0.047498465
204	0x3c92b6c3	0.017909413
205	0xbd496c09	-0.049175296
206	0xbd055711	-0.032553736
207	0x3aa8a250	0.0012865756
208	0xbcb59dc5	-0.022169957
209	0x3d3eaa00	0.046548843
210	0x3d672344	0.056430116
211	0x3d5d03cc	0.0539587
212	0x3c660f43	0.014041725
213	0x3dbf74bb	0.093484364
214	0x3cd54af5	0.026036719
215	0xbbce53d9	-0.0062966165
216	0x3d05d57e	0.032674305
217	0x3d5ec107	0.054383304
218	0x3cafa519	0.02144103
219	0xbcb40d79	-0.02197908
220	0x3d3b7354	0.045764282
221	0x3d860409	0.065437384
222	0x3b0eddb6	0.002179963
223	0x3d1f0efb	0.038832646
224	0xbb92bd1f	-0.0044781114
225	0xbd56c494	-0.052433565
226	0x3d08cc25	0.033397812
227	0xbd4f1d39	-0.05056498
228	0xbc9699f3	-0.018383956
229	0x3c75310f	0.01496531
230	0x3ccecadf	0.02524322
231	0xbc331a01	-0.010931493
232	0xbccfa820	-0.025348723
233	0x3d414242	0.04718233
234	0xbc77296c	-0.015085559
235	0x3d0685e9	0.03284255
236	0xbd005c2c	-0.031337902
237	0x3d3e83a1	0.04651225
238	0x3d3f7771	0.046744768
239	0xbca72dea	-0.020407636
240	0xbc07fcb2	-0.008299993
241	0xbc3cdc28	-0.011527099
242	0x3d895d46	0.067072436
243	0xbdd271da	-0.10275622
244	0x398f6017	0.00027346678
245	0xbc03597b	-0.008016939
246	0x3dbc0378	0.09180349
247	0x3d650b56	0.055919014
248	0xbd8a564a	-0.067547396
249	0x3cf6fa88	0.03014876
250	0xbd91bb1c	-0.071157664
251	0x3d516e65	0.05113067
252	0x3bc7fd94	0.006103227
253	0xbd4ac03a	-0.049499728
254	0x3c960e45	0.018317351
255	0xbd205e78	-0.039152592

action_model._continuous_distribution.mu.bias f4 [2]
0	0xbbaa746b	-0.0052018664
1	0xbbc3527a	-0.0059607597

exp_avg f4 [128, 36]
0	0x391ad9dc	0.00014767743
1	0xb881a093	-6.1811086e-05
2	0x37468875	1.1833491e-05
3	0x38f26852	0.000115588904
4	0x39400762	0.00018313297
5	0xb6cd1932	-6.112409e-06
6	0xb8882519	-6.491895e-05
7	0x38b42f1a	8.591842e-05
8	0x39172e19	0.00014417655
9	0x3741f297	1.1560179e-05
10	0xb8878bbf	-6.4633314e-05
11	0x38c8cd3c	9.574971e-05
12	0x38f24fc9	0.000115543204
13	0x36b7c4c6	5.4767324e-06
14	0xb74062de	-1.1467111e-05
15	0x38d7a131	0.00010282023
16	0x373cddd0	1.1257318e-05
17	0xb6b6927a	-5.441075e-06
18	0xb828c2e9	-4.0235846e-05
19	0x38b7c6e3	8.7631655e-05
20	0xb8b92d11	-8.829882e-05
21	0x361913a5	2.2810211e-06
22	0x39562dc6	0.00020425682
23	0x3901b940	0.0001237141
24	0x33941eb5	6.8973726e-08
25	0x358f4150	1.0673339e-06
26	0xb7eb06db	-2.8017375e-05
27	0x388e7535	6.792919e-05
28	0x38b3f7a3	8.581511e-05
29	0x37bf570e	2.2809512e-05
30	0x37852cab	1.5875636e-05
31	0x38e6cb48	0.00011005119
32	0x339d9191	7.3373606e-08
33	0xb606aa0d	-2.0066539e-06
34	0xb858841b	-5.1621446e-05
35	0x3899cc83	7.333702e-05
36	0xb73683cb	-1.0878731e-05
37	0x380e5f9d	3.3944485e-05
38	0xb8497355	-4.8029546e-05
39	0xb826c2b8	-3.975883e-05
40	0x36d524ae	6.3521647e-06
41	0xb736ae89	-1.08886825e-05
42	0xb7c5f7fc	-2.3599707e-05
43	0xb752b1b7	-1.2558353e-05
44	0xb5a413b4	-1.2224687e-06
45	0xb78884bb	-1.627427e-05
46	0xb7e7f53d	-2.7651544e-05
47	0x3541520b	7.201749e-07
48	0xb6a2dc16	-4.8535976e-06
49	0xb7a84db5	-2.0063346e-05
50	0xb679c6e3	-3.7219659e-06
51	0xb6787860	-3.7024947e-06
52	0x36389b7b	2.7508638e-06
53	0xb4d6c962	-4.0007131e-07
54	0xb8bdefd7	-9.056896e-05
55	0xb81fee42	-3.813045e-05
56	0xb6fbb38c	-7.501285e-06
57	0xb7e79aae	-2.7609374e-05
58	0x372b6db6	1.0217938e-05
59	0x35ab2492	1.2751136e-06
60	0x33801519	5.964302e-08
61	0xb51b77a1	-5.791608e-07
62	0xb8b5bfeb	-8.6665e-05
63	0xb8418a76	-4.6143738e-05
64	0xb7738cca	-1.4516709e-05
65	0x3716ebdb	8.995611e-06
66	0xb7d2565b	-2.5074163e-05
67	0xb7f9a3de	-2.975942e-05
68	0xb39a51ed	-7.186086e-08
69	0x3592263d	1.0888976e-06
70	0xb8c9a2c9	-9.614748e-05
71	0xb83592aa	-4.3290354e-05
72	0xb8be7c91	-9.083108e-05
73	0x3936cb36	0.00017432575
74	0xb884be42	-6.329689e-05
75	0xb8a4fb5c	-7.866949e-05
76	0xb8b445b8	-8.596055e-05
77	0xb83fceaa	-4.573042e-05
78	0x38f980cb	0.00011897235
79	0x385236da	5.0118986e-05
80	0xb89ee773	-7.577138e-05
81	0xb87babb5	-6.0002978e-05
82	0x38ed3ec5	0.000113127324
83	0x38ab3b97	8.165015e-05
84	0xb850b57b	-4.976008e-05
85	0xb860ca4a	-5.3594158e-05
86	0x38c56591	9.41261e-05
87	0x383c4424	4.4886154e-05
88	0xb6bcd4ad	-5.6275953e-06
89	0xb69e961d	-4.7262424e-06
90	0xb86c8755	-5.6392822e-05
91	0xb76f91bd	-1.4279442e-05
92	0x38c6f927	9.487784e-05
93	0xb8557f30	-5.090161e-05
94	0xb83f6c5d	-4.563887e-05
95	0x3808ec56	3.264503e-05
96	0x33059fdf	3.1111878e-08
97	0xb6432f65	-2.9084852e-06
98	0xb897ac93	-7.2323855e-05
99	0xb7e2af28	-2.7022863e-05
100	0x38ba9872	8.897566e-05
101	0xb6a93190	-5.0423623e-06
102	0xb8ed483b	-0.000113144946
103	0xb7c59b46	-2.3556535e-05
104	0xb507be34	-5.05682e-07
105	0x37dfceff	2.6680062e-05
106	0xb8be594f	-9.076541e-05
107	0xb7f1ef0c	-2.8840754e-05
108	0x39594fe9	0.00020724502
109	0xb930202a	-0.0001679665
110	0x38cec394	9.859275e-05
111	0x394ef438	0.0001973667
112	0x395057bb	0.00019869108
113	0x383d66dc	4.5156907e-05
114	0xb88d9a4b	-6.752143e-05
115	0x38ae52ca	8.312387e-05
116	0x392813a8	0.00016029051
117	0x38d407ba	0.00010110387
118	0xb8aa8bc6	-8.1322665e-05
119	0x37eefe74	2.84903e-05
120	0x391fb2ef	0.0001523008
121	0x3891df59	6.9557405e-05
122	0xb84c8782	-4.876359e-05
123	0x38b94c89	8.835743e-05
124	0x370bd79d	8.335247e-06
125	0x36b6641e	5.435678e-06
126	0x394cb597	0.00019522604
127	0x39355c39	0.00017295861
128	0xb8d59a50	-0.000101853744
129	0x38a013c1	7.633074e-05
130	0x3950c5e2	0.00019910143
131	0x38ebe45c	0.000112482085
132	0xb3174a22	-3.522485e-08
133	0x366a30ec	3.4897193e-06
134	0x39608ea1	0.00021415438
135	0x3940b92c	0.00018379529
136	0x36b16b3f	5.287496e-06
137	0x36ec6d91	7.0461033e-06
138	0x393ff128	0.00018305017
139	0x39416fc9	0.00018447558
140	0x350126e3	4.811283e-07
141	0xb7cf5e9f	-2.4720384e-05
142	0x3969a75d	0.00022282959
143	0x39438d79	0.00018649352
144	0xb744c4a9	-1.1728299e-05
145	0x37fd6d44	3.0210831e-05
146	0xb6bed534	-5.6872614e-06
147	0x3752cda2	1.2564853e-05
148	0xb78a6739	-1.6498949e-05
149	0x363a7a55	2.7787366e-06
150	0x3767c276	1.3813949e-05
151	0x37049f46	7.904897e-06
152	0xb7bc5834	-2.245242e-05
153	0xb7be2c2c	-2.2670334e-05
154	0x38800141	6.103749e-05
155	0x37e84ce1	2.7692355e-05
156	0x3788c6c2	1.6305017e-05
157	0xb5d45ff1	-1.5823153e-06
158	0xb74b87c1	-1.2131351e-05
159	0x36b01e84	5.248761e-06
160	0xb68b41d9	-4.1501885e-06
161	0xb637d492	-2.7392857e-06
162	0x380f9cb3	3.4239794e-05
163	0x374f3d8c	1.23524915e-05
164	0x38513f15	4.9888233e-05
165	0x366ebcfa	3.5574762e-06
166	0xb88c239f	-6.682355e-05
167	0xb6b441f4	-5.372096e-06
168	0x32de74a1	2.5897238e-08
169	0xb4e8e1e6	-4.337773e-07
170	0x37167240	8.967298e-06
171	0x36fd0752	7.5408398e-06
172	0xb7ec97ea	-2.8204133e-05
173	0xb58dabd0	-1.0555323e-06
174	0x37dc78a6	2.6282225e-05
175	0xb682238b	-3.8784397e-06
176	0x32c35a6c	2.2742107e-08
177	0x3713eeb6	8.817462e-06
178	0x378d7587	1.6863238e-05
179	0x36509f38	3.1087093e-06
180	0x37006f5e	7.655324e-06
181	0xb89ab60a	-7.3772e-05
182	0x383ffd8d	4.5774086e-05
183	0x382490c7	3.923548e-05
184	0x37b24373	2.1250662e-05
185	0x370caf37	8.385446e-06
186	0xb80f8e70	-3.4226512e-05
187	0xb74792c3	-1.1895495e-05
188	0x3805a6b5	3.186493e-05
189	0xb7876a42	-1.6142734e-05
190	0xb7a872a3	-2.0080543e-05
191	0x36d31616	6.290861e-06
192	0x37b4f9d5	2.157401e-05
193	0x38144900	3.5353936e-05
194	0xb87affee	-5.9842998e-05
195	0xb80faffc	-3.4257755e-05
196	0x367e223a	3.7868872e-06
197	0xb6bb130c	-5.5752516e-06
198	0xb72c500c	-1.0270636e-05
199	0xb5d65a79	-1.5970573e-06
200	0xb7fd7744	-3.0215488e-05
201	0x37fe3b3a	3.0306739e-05
202	0xb5a5d4cc	-1.235539e-06
203	0xb80053f5	-3.059577e-05
204	0x3275ed04	1.4314768e-08
205	0x3570a18e	8.964206e-07
206	0xb7838241	-1.5677071e-05
207	0xb7039fd1	-7.845419e-06
208	0xb89372ae	-7.030867e-05
209	0x36e61661	6.8571394e-06
210	0x38ad34bb	8.259105e-05
211	0x36225410	2.4188812e-06
212	0xb3f02665	-1.1182855e-07
213	0xb604ec68	-1.980714e-06
214	0xb79230cd	-1.742728e-05
215	0xb7037cfe	-7.8373105e-06
216	0x39bcaa5f	0.0003598509
217	0xb9408971	-0.00018361748
218	0x388e3ca7	6.782385e-05
219	0x3992905a	0.0002795484
220	0x39dc1936	0.00041980454
221	0x37954f75	1.7799184e-05
222	0xb91a9cdf	-0.00014745024
223	0x393bdf14	0.00017916813
224	0x39afbd32	0.00033519563
225	0x38c3361d	9.308404e-05
226	0xb930d930	-0.00016865577
227	0x39290d52	0.00016122058
228	0x39a5037e	0.00031473854
229	0x387cdc81	6.0286842e-05
230	0xb8b99781	-8.849707e-05
231	0x3955feae	0.00020408139
232	0x37cb49e4	2.4233894e-05
233	0xb701352b	-7.701378e-06
234	0x38de2448	0.00010592543
235	0x39863dd7	0.00025604546
236	0xb93171a1	-0.00016922365
237	0x387ef126	6.0782906e-05
238	0x39e0f892	0.0004290981
239	0x39843bcd	0.00025221557
240	0x3335082f	4.214979e-08
241	0x363e2482	2.8333457e-06
242	0x39088dc1	0.00013022778
243	0x397756b6	0.00023588058
244	0x393c05df	0.00017931264
245	0x382daaf8	4.140564e-05
246	0x39024ea3	0.0001242706
247	0x3998efc8	0.0002917035
248	0x344feb0c	1.9363887e-07
249	0xb7b0eec3	-2.1092017e-05
250	0x38cce25d	9.7696415e-05
251	0x39809d72	0.00024531368
252	0x3998f157	0.0002917151
253	0xb940ce93	-0.00018387502
254	0x38c17f69	9.226689e-05
255	0x397b77f2	0.00023981908

exp_avg_sq f4 [128, 36]
0	0x342f56cb	1.632972e-07
1	0x330acddf	3.2317867e-08
2	0x3419ffe3	1.4342326e-07
3	0x345a80dd	2.0349712e-07
4	0x343f6671	1.7825529e-07
5	0x33040960	3.074217e-08
6	0x340c5771	1.3070327e-07
7	0x34500a60	1.9375284e-07
8	0x34207145	1.4942368e-07
9	0x338979d5	6.401721e-08
10	0x340a99db	1.2908224e-07
11	0x344541fe	1.8371063e-07
12	0x3442f13e	1.8155421e-07
13	0x325a8404	1.2719287e-08
14	0x3411aec9	1.3567764e-07
15	0x34659090	2.1379878e-07
16	0x33d34ab6	9.839043e-08
17	0x32f206bf	2.8175576e-08
18	0x3460bff8	2.0931463e-07
19	0x3489c895	2.566418e-07
20	0x343d1dee	1.7612885e-07
21	0x315098b5	3.0354788e-09
22	0x3423fc7f	1.5272416e-07
23	0x3481e29b	2.4193e-07
24	0x3368331a	5.4063186e-08
25	0x32094577	7.990244e-09
26	0x34955342	2.781399e-07
27	0x34a25a85	3.0240713e-07
28	0x3430bf4d	1.6460872e-07
29	0x31017f19	1.8844217e-09
30	0x342b951e	1.5979865e-07
31	0x34953f46	2.779945e-07
32	0x32205dcd	9.334554e-09
33	0x3208f1c1	7.97121e-09
34	0x34b0b1e9	3.2912e-07
35	0x34b8e219	3.4437178e-07
36	0x332ed9b7	4.0710542e-08
37	0x325b5195	1.2766027e-08
38	0x331a53c1	3.5932093e-08
39	0x3357ad52	5.0216222e-08
40	0x3343ef61	4.561969e-08
41	0x3283d5fb	1.5347714e-08
42	0x32d5adc2	2.487548e-08
43	0x333848ea	4.2907153e-08
44	0x3321374f	3.7536037e-08
45	0x32492650	1.1708451e-08
46	0x3324c90a	3.836707e-08
47	0x33619ee7	5.2531416e-08
48	0x333c65e6	4.3864837e-08
49	0x3242a12a	1.1328931e-08
50	0x3300d453	2.999543e-08
51	0x3356f58c	5.004908e-08
52	0x32d017af	2.4225157e-08
53	0x30dd2c55	1.6092466e-09
54	0x337ac2a1	5.8384675e-08
55	0x339909fa	7.1264324e-08
56	0x332d9a8f	4.042027e-08
57	0x3160fae3	3.2738903e-09
58	0x3333fd60	4.190713e-08
59	0x3388df3a	6.373598e-08
60	0x3260f89e	1.3095045e-08
61	0x2f908fc8	2.629561e-10
62	0x3397c69c	7.067612e-08
63	0x33a97606	7.891144e-08
64	0x330afccd	3.236055e-08
65	0x312ef9ae	2.546226e-09
66	0x335b8499	5.1110508e-08
67	0x33a2a835	7.5743095e-08
68	0x312d909e	2.5257019e-09
69	0x30d26b58	1.531002e-09
70	0x33b3db7e	8.3752624e-08
71	0x33bd6db0	8.8209504e-08
72	0x33d86582	1.0076748e-07
73	0x33ab43c3	7.975134e-08
74	0x348db972	2.6398226e-07
75	0x34b36f40	3.3422293e-07
76	0x340185d1	1.2062743e-07
77	0x3379b6d1	5.81411e-08
78	0x3489ee7d	2.5691762e-07
79	0x34b36d2e	3.3420787e-07
80	0x339e1833	7.36185e-08
81	0x33c45ed7	9.1442125e-08
82	0x34925542	2.7256652e-07
83	0x34b04798	3.2834646e-07
84	0x34044caf	1.2321355e-07
85	0x32eb125c	2.736595e-08
86	0x34967e7d	2.803171e-07
87	0x34c31b7a	3.6341572e-07
88	0x32a341d2	1.9005629e-08
89	0x32978846	1.7640684e-08
90	0x34db8d8e	4.0894923e-07
91	0x34ebef98	4.3946488e-07
92	0x340e64d7	1.3261466e-07
93	0x321240eb	8.513079e-09
94	0x349f36c6	2.965591e-07
95	0x34d16bf9	3.9007844e-07
96	0x31a405dd	4.7736948e-09
97	0x30989ba5	1.1103692e-09
98	0x34f085b0	4.4800754e-07
99	0x34fa8a93	4.6666955e-07
100	0x342ef2a6	1.6293288e-07
101	0x31c30144	5.675391e-09
102	0x348aaa8d	2.5828595e-07
103	0x34c96df5	3.7519172e-07
104	0x3135f236	2.6476648e-09
105	0x32aa56e8	1.9830125e-08
106	0x34e64f42	4.2898506e-07
107	0x34f80a1b	4.6200952e-07
108	0x34a8728a	3.1375777e-07
109	0x3439216f	1.724163e-07
110	0x35838389	9.798542e-07
111	0x35a3ea8d	1.221271e-06
112	0x34cc58de	3.806262e-07
113	0x341e789e	1.4758777e-07
114	0x3572cc53	9.0449356e-07
115	0x359f7eec	1.1883362e-06
116	0x3452c2a4	1.9628584e-07
117	0x34c5e052	3.6857324e-07
118	0x356f28a5	8.9093584e-07
119	0x3592a04d	1.0924501e-06
120	0x34c04879	3.5815518e-07
121	0x33ae0d62	8.104941e-08
122	0x35825cce	9.712764e-07
123	0x35a9db77	1.2655354e-06
124	0x3384af85	6.178656e-08
125	0x334c9645	4.763412e-08
126	0x35b868cc	1.3739568e-06
127	0x35c2d001	1.4514663e-06
128	0x34be68fb	3.546664e-07
129	0x32abdfec	2.0008848e-08
130	0x358cb73d	1.0484142e-06
131	0x35b5db00	1.3549288e-06
132	0x32e423f7	2.6559048e-08
133	0x31bf01c2	5.5590315e-09
134	0x35c4bee7	1.4658698e-06
135	0x35cc86da	1.5238431e-06
136	0x34f26c98	4.5155025e-07
137	0x3280a23f	1.4974942e-08
138	0x35792744	9.281687e-07
139	0x35b1bbbe	1.3242168e-06
140	0x31f46c0c	7.113618e-09
141	0x328bcb09	1.627406e-08
142	0x35c6272b	1.4763549e-06
143	0x35cdea4d	1.5341881e-06
144	0x332caed2	4.020587e-08
145	0x336f4d83	5.571702e-08
146	0x3444c236	1.8324576e-07
147	0x346e7878	2.2209304e-07
148	0x336922ea	5.4281294e-08
149	0x32b0a861	2.0565667e-08
150	0x346040a4	2.0885142e-07
151	0x3484874c	2.4685357e-07
152	0x32a0df5d	1.8728025e-08
153	0x33a2c169	7.578894e-08
154	0x344c3a7a	1.9020254e-07
155	0x34689281	2.1659982e-07
156	0x3328fc6d	3.9345128e-08
157	0x31b8a8a5	5.3742775e-09
158	0x347773a8	2.3045743e-07
159	0x348c6101	2.6147612e-07
160	0x3151c000	3.0522642e-09
161	0x31ae9195	5.0806173e-09
162	0x3494d2fe	2.7720665e-07
163	0x34973f33	2.8171925e-07
164	0x3331f420	4.1433054e-08
165	0x30fc2ae0	1.8347599e-09
166	0x347d3544	2.3581839e-07
167	0x348f8531	2.6732735e-07
168	0x30d1c5a4	1.5262924e-09
169	0x3035c975	6.6133704e-10
170	0x34934afa	2.7435436e-07
171	0x3497ce38	2.8275986e-07
172	0x3392a9e1	6.8295556e-08
173	0x30de8bcf	1.6192362e-09
174	0x3461540c	2.0985334e-07
175	0x348bed5f	2.6063478e-07
176	0x305f8538	8.131624e-10
177	0x3135991d	2.6426001e-09
178	0x349262ec	2.7266594e-07
179	0x349777ba	2.8213054e-07
180	0x328d8b0a	1.6477788e-08
181	0x32c1bd86	2.2554342e-08
182	0x341ace82	1.4417495e-07
183	0x342ebe87	1.6274326e-07
184	0x32c15733	2.250781e-08
185	0x328cae0c	1.6377292e-08
186	0x34167ae0	1.401454e-07
187	0x342efe0a	1.6297432e-07
188	0x31ef381a	6.9621935e-09
189	0x33183e29	3.5446792e-08
190	0x341aafda	1.4406342e-07
191	0x34264187	1.5483793e-07
192	0x328c5f70	1.6341545e-08
193	0x324f0628	1.2050386e-08
194	0x3421f176	1.5082136e-07
195	0x3434b7d3	1.6830681e-07
196	0x312f3d4a	2.550069e-09
197	0x32795566	1.4513125e-08
198	0x3435ce9c	1.6932103e-07
199	0x343bca79	1.7489391e-07
200	0x32e609fa	2.678006e-08
201	0x3180e122	3.750885e-09
202	0x341d6da0	1.4661646e-07
203	0x343a434c	1.7347082e-07
204	0x2fee10df	4.3303935e-10
205	0x30b43e11	1.3114364e-09
206	0x343ed7cf	1.777364e-07
207	0x34461dcb	1.8451026e-07
208	0x333f61e1	4.4559673e-08
209	0x3138be40	2.6883669e-09
210	0x340abbf2	1.2920626e-07
211	0x3434fa6a	1.6854906e-07
212	0x2f408595	1.7509756e-10
213	0x2fc3c601	3.5610984e-10
214	0x34424975	1.8094381e-07
215	0x3447a566	1.8593491e-07
216	0x3543f740	7.3002957e-07
217	0x342e6ac1	1.624385e-07
218	0x35617ffa	8.400526e-07
219	0x35a7b20d	1.2494289e-06
220	0x355afafe	8.157657e-07
221	0x342ea014	1.6263249e-07
222	0x355011d5	7.751199e-07
223	0x35a0cecd	1.1981116e-06
224	0x350e7546	5.306978e-07
225	0x34b35fc0	3.3411015e-07
226	0x356dc2e8	8.8573006e-07
227	0x35a13da3	1.2013373e-06
228	0x3545845e	7.358084e-07
229	0x33cce0fe	9.540416e-08
230	0x35680250	8.64301e-07
231	0x35acb319	1.2867123e-06
232	0x3446664d	1.8477404e-07
233	0x3396bdb9	7.01943e-08
234	0x35c988c2	1.5015469e-06
235	0x35debada	1.659467e-06
236	0x35402d2b	7.15913e-07
237	0x33112de9	3.38022e-08
238	0x35808194	9.574455e-07
239	0x35bdded4	1.4146449e-06
240	0x33a71642	7.780592e-08
241	0x32142b20	8.624539e-09
242	0x35e4aa95	1.703697e-06
243	0x35ef73cc	1.7840589e-06
244	0x355ad1e9	8.151679e-07
245	0x32d37439	2.4616485e-08
246	0x356354b5	8.4687355e-07
247	0x35bff57e	1.4302057e-06
248	0x323dc35f	1.104567e-08
249	0x33848d3d	6.17242e-08
250	0x35e8604d	1.7313374e-06
251	0x35f43de9	1.8197435e-06
252	0x35141669	5.516691e-07
253	0x34602440	2.0874813e-07
254	0x35e7f638	1.72825e-06
255	0x360f42e9	2.1347607e-06

exp_avg f4 [128]
0	0x38ebfce8	0.00011252781
1	0xb7ed4116	-2.828291e-05
2	0xb7669535	-1.3743808e-05
3	0x393a903a	0.00017792071
4	0xb50ecd21	-5.3197624e-07
5	0xb6984e89	-4.5390957e-06
6	0x3998d815	0.00029152693
7	0x3982999f	0.0002490999
8	0x35a0b247	1.1972814e-06
9	0x3832adc5	4.2600343e-05
10	0x38e8830f	0.000110870336
11	0xb90dcbf4	-0.00013522786
12	0xb9094702	-0.0001309179
13	0x38935947	7.0261354e-05
14	0x38860842	6.391156e-05
15	0xb6a1cab6	-4.8217726e-06
16	0x3858063e	5.1504227e-05
17	0x38843f0b	6.305993e-05
18	0x389ea6bd	7.5650845e-05
19	0xb8be42a3	-9.072318e-05
20	0xb8970721	-7.201569e-05
21	0xb8904cfd	-6.880795e-05
22	0x379c945c	1.8665734e-05
23	0x394c7151	0.0001949717
24	0x3778ff5b	1.48414065e-05
25	0x383798db	4.3772958e-05
26	0xb68ca0b7	-4.191035e-06
27	0x37321f44	1.0616906e-05
28	0x381b0675	3.6960893e-05
29	0x388129ce	6.158986e-05
30	0x38cf861e	9.8955104e-05
31	0xb9321517	-0.0001698326
32	0xb8899595	-6.560531e-05
33	0x37476eb6	1.1887101e-05
34	0xb6cacc0d	-6.0438238e-06
35	0xb87d8ca2	-6.0450875e-05
36	0x36e86790	6.926195e-06
37	0xb95632e2	-0.00020427586
38	0x38b17ebc	8.463624e-05
39	0xb7e80109	-2.7657037e-05
40	0xb778a576	-1.4820476e-05
41	0xb6ee4b44	-7.101715e-06
42	0x37c99ece	2.4035016e-05
43	0x38b7fbd6	8.773028e-05
44	0x389d9bc3	7.515356e-05
45	0x38a9251a	8.065459e-05
46	0x3489457d	2.5568798e-07
47	0xb8ab91d8	-8.181081e-05
48	0xb8ef6899	-0.00011415891
49	0x38c2676f	9.269907e-05
50	0xb7bf8dba	-2.283497e-05
51	0xb9356d6c	-0.00017302268
52	0x38e89173	0.00011089714
53	0x38acf5d9	8.247392e-05
54	0x3628d081	2.5155316e-06
55	0xb7ce5903	-2.4598563e-05
56	0xb8130fdf	-3.5062312e-05
57	0x383438fd	4.296842e-05
58	0x38af669b	8.363762e-05
59	0xb94a11c3	-0.00019270838
60	0xb7ed8a37	-2.8316963e-05
61	0x388bfaa1	6.67472e-05
62	0xb72e7169	-1.0397614e-05
63	0x394e4ab0	0.00019673514
64	0xb939d70d	-0.00017723088
65	0xb8cee6d2	-9.865839e-05
66	0xb6a33ab2	-4.8646116e-06
67	0xb9053709	-0.0001270437
68	0xb799ec7f	-1.8349148e-05
69	0xb536f4b9	-6.81564e-07
70	0xb7479af6	-1.1897404e-05
71	0xb9a8c9a0	-0.0003219368
72	0x38036d53	3.133465e-05
73	0xb7d36673	-2.5200867e-05
74	0x390d5491	0.00013478311
75	0xb7cb48bc	-2.4233355e-05
76	0x39ad2738	0.00033026352
77	0x375da683	1.32113955e-05
78	0x3877a10b	5.9039372e-05
79	0xb8cf3934	-9.881184e-05
80	0x3939766d	0.00017687092
81	0xb7bec20e	-2.2740129e-05
82	0xb88abc90	-6.615475e-05
83	0x38305d8a	4.2048785e-05
84	0x370bf1d9	8.341355e-06
85	0x38411e35	4.604292e-05
86	0x38717ebb	5.7576905e-05
87	0xb71b846f	-9.2695545e-06
88	0xb860177f	-5.3427644e-05
89	0xb7690996	-1.3890114e-05
90	0xb8c18c9b	-9.229147e-05
91	0x38a2510c	7.739858e-05
92	0x39739eed	0.0002323349
93	0xb68a0419	-4.1131975e-06
94	0xb90cc193	-0.00013423552
95	0x39186b4e	0.00014535824
96	0xb824208f	-3.913097e-05
97	0xb82c226d	-4.1040057e-05
98	0x379236fe	1.7430164e-05
99	0xb932d9ee	-0.00017056588
100	0xb73ad4a2	-1.1135971e-05
101	0xb87d3287	-6.0366958e-05
102	0x3854f2a5	5.077072e-05
103	0x38367f12	4.3510525e-05
104	0xb51a1b3a	-5.740909e-07
105	0xb95765e1	-0.0002054195
106	0xb7d89f2d	-2.5823329e-05
107	0xb8bb0acd	-8.918867e-05
108	0x372ac938	1.01796395e-05
109	0xb7e7d5b4	-2.763686e-05
110	0xb8ba0c9a	-8.8715184e-05
111	0xb80728c1	-3.2224463e-05
112	0xb8196741	-3.6574205e-05
113	0xb7844cd1	-1.5771397e-05
114	0xb89cfee1	-7.4861346e-05
115	0x392bb819	0.00016376413
116	0x37de7154	2.6517235e-05
117	0xb7c255c7	-2.3166545e-05
118	0x37a2b959	1.9398214e-05
119	0x38e03d61	0.00010692585
120	0xb851152a	-4.9849194e-05
121	0xb8592257	-5.1768813e-05
122	0xb8891a33	-6.537549e-05
123	0xb778850c	-1.4812929e-05
124	0xb8710005	-5.7458896e-05
125	0x38686bdb	5.541356e-05
126	0x393a4446	0.00017763776
127	0xb97b60f4	-0.00023973343

exp_avg_sq f4 [128]
0	0x34c08537	3.5859713e-07
1	0x33c5ef53	9.21706e-08
2	0x3500314e	4.7755464e-07
3	0x35d1d7ea	1.5634553e-06
4	0x349a4efd	2.8742207e-07
5	0x344a6f5f	1.8853233e-07
6	0x35fc5ce1	1.8802494e-06
7	0x36335228	2.67209e-06
8	0x359b97de	1.1592599e-06
9	0x351adae5	5.7688004e-07
10	0x340981c9	1.2806335e-07
11	0x34addb4b	3.2383318e-07
12	0x359cc19c	1.1679253e-06
13	0x355a0daa	8.123121e-07
14	0x345d1d15	2.0592809e-07
15	0x331e37e3	3.683807e-08
16	0x348bda67	2.6049676e-07
17	0x36180eef	2.2658458e-06
18	0x35fe0e08	1.8928558e-06
19	0x35b76b76	1.3665838e-06
20	0x3599e6df	1.1466581e-06
21	0x35270c74	6.223047e-07
22	0x32257f9e	9.633281e-09
23	0x35fd09b0	1.8852788e-06
24	0x35b2eb4a	1.3330512e-06
25	0x3333f88e	4.1902744e-08
26	0x32e41e68	2.655652e-08
27	0x359b3bb2	1.1565774e-06
28	0x3535f3ad	6.778235e-07
29	0x348c19fa	2.6095933e-07
30	0x341b465c	1.4461096e-07
31	0x35b1924f	1.3230109e-06
32	0x354cc686	7.628481e-07
33	0x357cf406	9.4232416e-07
34	0x3535fd36	6.7796225e-07
35	0x344d156a	1.9099903e-07
36	0x3402d536	1.2184759e-07
37	0x35e8258c	1.7296275e-06
38	0x35a4f096	1.2288972e-06
39	0x353fb667	7.1418475e-07
40	0x34f23537	4.5114732e-07
41	0x350d5199	5.2645333e-07
42	0x33a55e11	7.700522e-08
43	0x35dff23c	1.6685294e-06
44	0x34bdfd5f	3.5388345e-07
45	0x350db34b	5.27875e-07
46	0x33fcbff7	1.17695826e-07
47	0x3507b1e0	5.055026e-07
48	0x358deee4	1.0574845e-06
49	0x33d45945	9.888257e-08
50	0x322cc94f	1.005749e-08
51	0x353de3d3	7.0739515e-07
52	0x34d0ffa1	3.8929014e-07
53	0x3632a584	2.662041e-06
54	0x34e1b889	4.2043783e-07
55	0x32d6407e	2.4942207e-08
56	0x357ea0e4	9.48565e-07
57	0x348feb3a	2.6806975e-07
58	0x3329c577	3.9527972e-08
59	0x35d239bf	1.5663026e-06
60	0x34efca19	4.4664264e-07
61	0x34ca5346	3.768602e-07
62	0x345366cb	1.9688302e-07
63	0x363c0cb3	2.8021575e-06
64	0x35a66551	1.2397451e-06
65	0x35bdeb69	1.4150111e-06
66	0x35b546e9	1.3506188e-06
67	0x35cf5cef	1.5449749e-06
68	0x33370cdb	4.26197e-08
69	0x34988968	2.8412182e-07
70	0x34688b01	2.1657253e-07
71	0x36321a9a	2.653955e-06
72	0x34d6361c	3.9899976e-07
73	0x33246e8f	3.8284778e-08
74	0x36252cf6	2.4613087e-06
75	0x34d5aed1	3.9801537e-07
76	0x35675b06	8.618666e-07
77	0x3455031c	1.9838302e-07
78	0x340d285f	1.3146335e-07
79	0x35c98692	1.5014832e-06
80	0x34c76e34	3.7146822e-07
81	0x34bfeed8	3.5750304e-07
82	0x35a5ab8a	1.2343382e-06
83	0x341e6b0d	1.4753842e-07
84	0x320db0c3	8.247471e-09
85	0x3539efc1	6.926676e-07
86	0x35aa4cdc	1.2688356e-06
87	0x363d096c	2.816868e-06
88	0x353f7197	7.131834e-07
89	0x34466763	1.8477799e-07
90	0x357d9cff	9.4478304e-07
91	0x35fef74a	1.8996445e-06
92	0x3616009d	2.2352099e-06
93	0x34e023a8	4.1749195e-07
94	0x34e94425	4.3449214e-07
95	0x35a709c3	1.2445311e-06
96	0x3480a3b1	2.396096e-07
97	0x35424a77	7.237899e-07
98	0x3201964f	7.5429645e-09
99	0x35df06f0	1.6616814e-06
100	0x35047770	4.9347636e-07
101	0x34e34fbd	4.2340062e-07
102	0x346aa814	2.1854095e-07
103	0x33fbd1f9	1.1726292e-07
104	0x31e9524c	6.7905486e-09
105	0x346684e7	2.1468769e-07
106	0x3549f09c	7.522847e-07
107	0x3471a116	2.2503477e-07
108	0x34012ab6	1.20296e-07
109	0x3430c5e1	1.6463265e-07
110	0x36217de9	2.406416e-06
111	0x3398eea8	7.121463e-08
112	0x33cda239	9.5755645e-08
113	0x33efff15	1.1175704e-07
114	0x354d589e	7.6497406e-07
115	0x3581a934	9.660494e-07
116	0x358a3da2	1.0299739e-06
117	0x33c4c181	9.1621594e-08
118	0x33d050ff	9.700488e-08
119	0x35ce31b2	1.5362659e-06
120	0x35125abf	5.452129e-07
121	0x348f705e	2.6717584e-07
122	0x3502520a	4.8548156e-07
123	0x348f5378	2.6696557e-07
124	0x340ec916	1.3297935e-07
125	0x33d9984b	1.0132552e-07
126	0x35b59fe7	1.3532089e-06
127	0x35cb7c91	1.5160932e-06
